results/v4/MlAgent/MlAgent-500512.pt (torch, 575735 bytes, 40 tensors)

discrete_act_size_vector f4 [1, 2]
000000 00 00 40 40 00 00 40 40
       3.0 3.0

network_body._body_endoder.seq_layers.0.weight f4 [128, 48]
000000 ec 21 79 be be ca c2 bc 9d c6 87 be 58 51 0f 3e
       -0.24329346 -0.023778316 -0.26518717 0.13995874
000010 91 ab f0 bd 93 86 c2 bc 6b 46 89 3d 92 5d 96 bd
       -0.11751474 -0.02374581 0.06702884 -0.07342066
000020 26 33 c2 3c 80 06 09 3e 83 f9 99 bd 79 3d d0 bd
       0.02370603 0.13381386 -0.07518294 -0.10167975
000030 f2 87 aa bd 57 64 bf 3c d1 ba c1 bd f4 ba a0 3d
       -0.08326711 0.023363275 -0.094594605 0.078481585
000040 36 ed 8b 3d 6d 98 77 be ca 88 6a be 83 c5 2e be
       0.06832354 -0.2417924 -0.22903743 -0.17067532
000050 14 de 56 be 43 4f dd bd 6d 6c 58 bd 06 69 0c 3d
       -0.20983154 -0.108061336 -0.052837778 0.034279846
000060 dc 2e 27 be 6f 68 48 be 9e b5 99 be 79 2d b1 be
       -0.16326469 -0.19571088 -0.30021375 -0.34605005
000070 e0 73 41 be b2 c3 61 bd b1 41 03 3e bf 57 73 be
       -0.18891859 -0.05511827 0.12818028 -0.23763941
000080 c8 5b 90 bd 42 20 25 3d e6 6d 60 be 27 ed c5 bd
       -0.07048756 0.040313967 -0.21916923 -0.09664374
000090 d3 da 9f bd 36 35 45 bd d3 80 e2 bd 44 bf ad 3c
       -0.07805409 -0.04814645 -0.110597275 0.021209367
0000a0 50 fa 5c bd 69 08 08 3e 38 13 da be 82 23 63 3d
       -0.053949654 0.13284458 -0.42592788 0.055453785
0000b0 8a dc 33 3e 92 ca aa 3d 45 b3 9d 3d 7e 4b 47 bd
       0.17564598 0.083394185 0.077002086 -0.04865598
0000c0 33 8d 3b be b7 a1 23 3d 8f 0c 0f be c6 df ec bd
       -0.18315582 0.039949145 -0.13969634 -0.11566119
0000d0 36 1a 11 bd 2f 04 2d be 4f 21 43 3d 3d 8e 4a be
       -0.035425387 -0.16896127 0.047639187 -0.19780822
0000e0 56 25 60 bd 73 d5 e6 3d 7f 81 52 3d d2 43 c0 3c
       -0.054723106 0.11271181 0.05139303 0.02346984
0000f0 9a 23 d6 bb 0c f7 fc bd e9 4c 3c bd f0 f8 ad 3d
       -0.0065350058 -0.12351808 -0.045971785 0.08494747
000100 d8 be a5 be 1c 17 85 3e 69 d0 5a 3d aa 04 f0 be
       -0.32372165 0.25994194 0.05342141 -0.46878558
000110 74 0e 8c be a2 dd 41 3e b3 43 eb bd 86 d3 32 be
       -0.27354777 0.18932202 -0.11487522 -0.17463502
000120 aa 2c 1e 3e 7b dc bb 3d d6 9e aa 3c 0d ae ca 3d
       0.15446725 0.09172913 0.020827692 0.09896479
000130 b0 33 63 3d 31 00 0a be bf 4e 8a bd b2 6a 4c bd
       0.055469215 -0.13476636 -0.06753301 -0.04990644
000140 fb 3b 03 bd 34 67 b2 bd 07 a3 ba bc 54 35 46 3e
       -0.032039624 -0.08711091 -0.022782816 0.1935628
000150 a6 1d 1a 3e 12 7c 36 bc 23 67 51 3d 33 a1 14 be
       0.15050372 -0.011137979 0.05112375 -0.14514618
000160 c5 e2 d8 3c 80 2a d3 bd 31 a7 2a 3d d9 80 b2 bd
       0.02647532 -0.103108406 0.041663352 -0.08715982
000170 15 00 f4 3d 3d 58 19 be 8c 93 1f bd bf a4 40 3c
       0.11914078 -0.14975066 -0.03895907 0.0117580285
000180 3c ce 9d bd ea 8f 84 be 7e 60 24 3e 59 87 45 3e
       -0.07705352 -0.25891048 0.16052434 0.19289912
000190 dd 1a 32 bd e2 7d ad 3e 4f 8c f9 3d d4 1b 43 bd
       -0.04348265 0.33885103 0.12184965 -0.04763396
0001a0 a2 80 2b 3e f2 47 a2 3d 75 78 a5 3e 02 4b 25 be
       0.16748288 0.07923879 0.32318464 -0.16141894
0001b0 37 f6 72 bd d5 82 af 3d cd 08 0e 3e ad ce f9 3b
       -0.05931684 0.08569876 0.13870545 0.0076235146
0001c0 81 e3 5c 3c fd dd e4 3d 52 22 92 3d ea d5 29 3c
       0.0134819755 0.111751534 0.07135452 0.0103659425
0001d0 a9 88 a0 3b 34 2d b1 be 3e 63 35 3c 9a 44 92 bd
       0.0048991037 -0.346048 0.011071024 -0.07141991
0001e0 7f f2 f0 bc 06 6c 71 be 5b b3 86 3d b0 55 e0 3d
       -0.029412506 -0.23576364 0.06577178 0.109538436
0001f0 b4 03 d7 3d dd 61 9a 3e 38 2d 1c 3e 29 b3 41 3d
       0.10498753 0.3015279 0.15251625 0.04729
000200 03 11 32 3d 65 1b 0e 3e 3b d7 52 3d 99 33 f1 bc
       0.043473255 0.13877638 0.05147479 -0.029443549
000210 f4 51 88 bb cf cd 44 be b8 04 20 3e 33 64 40 be
       -0.00416016 -0.19219135 0.156268 -0.18788223
000220 c8 65 35 3e 48 10 f0 ba ba cf c2 3d c7 f7 36 b9
       0.17714608 -0.0018315399 0.09512277 -0.00017449177
000230 77 d2 db bd db 0d c5 3e 98 8d 48 be af af 83 3e
       -0.10733502 0.38487133 -0.19585264 0.25719973
000240 aa 6d c0 3d 19 17 53 3e 6f 2a 0b bd e1 cf 16 bd
       0.09395917 0.2061428 -0.033976015 -0.036819343
000250 67 37 97 bd 57 25 57 3e ac f6 5f bd 3f 94 43 be
       -0.07383614 0.21010338 -0.054678604 -0.1909952
000260 75 85 07 3e 11 43 8a 3e 20 3e 0b be 73 11 73 3e
       0.13234504 0.27004293 -0.13597918 0.23737125
000270 4b ac c0 bd 2c 7f 12 be 49 c4 3c 3e 15 2d 28 bd
       -0.09407862 -0.14306325 0.18434252 -0.04105862
000280 d6 2f 11 3e 8a ce 0d 3d 7d 1a 19 bd 34 53 8d 3e
       0.14178404 0.0346208 -0.037378777 0.2760254
000290 84 5d 9b be b2 a7 91 3e ca a6 3e 3e 13 6e ee bd
       -0.30344784 0.28448254 0.18618312 -0.11642089
0002a0 ec fe 07 3d f7 17 b9 3d 9d 9e 69 3d 86 ec c6 3d
       0.033202097 0.09037774 0.05703603 0.09713082
0002b0 e2 4d 5f be 10 2d 9f 3e 35 d3 41 3d 4f f0 e6 bc
       -0.21807054 0.31089067 0.047320563 -0.02819076
0002c0 0d ad 69 be a1 8b ac 3d 8f a3 22 be 02 7e 15 be
       -0.2281992 0.084250696 -0.15882705 -0.1459885
0002d0 14 a2 49 bd 63 28 a1 bd b3 b8 21 be 71 a8 ee bd
       -0.049226835 -0.07869031 -0.15793113 -0.116532214
0002e0 11 3e 89 3d 74 a8 e9 3d 3b 57 20 be 65 37 00 3d
       0.06701291 0.11409083 -0.15658276 0.03130283
0002f0 1a 55 a8 3d 16 ca 06 3e 52 57 7b 3e 47 4a 37 3d
       0.08219357 0.13163027 0.24545029 0.04474857
000300 e1 00 20 be b4 0d 7c 3e 07 15 ba bd 31 e7 34 3d
       -0.15625335 0.24614602 -0.09086042 0.044165794
000310 79 cb 54 bb 63 f3 25 3e 28 0a bc bc 4d 62 ce 3c
       -0.0032469912 0.16206126 -0.022954062 0.025193358
000320 d5 d0 45 be f8 68 05 3e ba d2 4f 3e 05 98 18 3e
       -0.19317944 0.13028324 0.2029523 0.14901741
000330 3a 04 06 3e 27 10 01 3e fe 71 15 3e ee 92 aa 3d
       0.1308755 0.12603818 0.14594266 0.08328806
000340 85 67 86 3c 26 45 fe bd 3f 04 d8 3d 37 41 e6 3d
       0.016406784 -0.12415533 0.10547685 0.112429075
000350 4a 22 bf 3b 23 17 45 be 73 aa 8d 3e 54 13 84 3c
       0.005832945 -0.19247107 0.27669105 0.016122498
000360 9d 1f 21 be da 9b 52 be 71 a1 81 3e 96 93 44 be
       -0.15734716 -0.20567265 0.25318483 -0.19196925
000370 ea f2 b3 bd e8 97 4e 3e 5d 45 99 be 85 c0 63 3e
       -0.087865666 0.20175135 -0.29935732 0.22241409
000380 dc 30 fc bc f6 c1 84 be 32 b9 fa 3d 44 fa da 3d
       -0.030785017 -0.2592923 0.122423545 0.10692266
000390 3d 15 dd 3c 2e ea 83 3e 0c df 9f 3d 3d c7 b6 3d
       0.026987666 0.25764602 0.07806215 0.089247204
0003a0 cf 0f 4a 3e 52 4f 9d 3c f5 51 97 3d 07 b7 2b be
       0.19732593 0.019202862 0.07388679 -0.16769038
0003b0 e3 fc a0 3d 6b 94 0c 3d 05 58 28 3e 3e 30 88 3e
       0.07860734 0.03432123 0.16439827 0.26599306
0003c0 37 98 28 3e 92 2f 48 3e c2 79 13 be fa a9 de 3d
       0.16464315 0.19549397 -0.14401916 0.10872264
0003d0 33 a9 2d 3e 00 f4 40 be 20 94 fc 3b c0 02 3d bd
       0.16959076 -0.18843079 0.0077080876 -0.0461452
0003e0 5c af 2d 3e 18 46 7b bd cb e8 2b 3d 3a 40 84 be
       0.16961426 -0.061346143 0.041970056 -0.2583025
0003f0 64 06 04 be a0 b9 5e be 12 de 11 3d a2 84 72 3d
       -0.12893063 -0.21750498 0.035612173 0.05920852

network_body._body_endoder.seq_layers.0.bias f4 [128]
000000 ab 4d 0b bd 74 26 29 bd 43 30 06 3d ed 0a 7d 3d
       -0.034009617 -0.041296437 0.03276087 0.061777998
000010 04 46 f9 3c d0 cd 43 bd bc 61 3a 3d e6 4d bd 3c
       0.030428894 -0.0478037 0.045503363 0.023108434
000020 09 7b 53 bd b0 fa de bc c1 92 22 3d c1 ac 80 3c
       -0.051631007 -0.027219146 0.039690737 0.015707375
000030 0d 8f 3e 3d 05 5c 3c 3c c7 02 42 3c 3b d7 23 3d
       0.046523143 0.011496549 0.0118414825 0.04000018
000040 35 48 18 bd 02 32 2b 3d ac 44 5a bd be e0 4c bd
       -0.037178237 0.041795738 -0.053288147 -0.05001902
000050 94 9d 24 3d 23 24 85 3c 10 8d f5 bc c9 d7 29 bd
       0.04018934 0.016252583 -0.02997449 -0.041465554
000060 5e b3 30 3d 36 02 7e bd e5 37 6d bd fc 00 19 bd
       0.043139808 -0.062013827 -0.057914633 -0.037354454
000070 86 da 0f bd 28 3e 33 3d 0c 5c 45 3c f2 66 0c bd
       -0.03512051 0.04376045 0.0120458715 -0.034277864
000080 4c 0d 66 3d e1 b6 3d bd 8d 29 6c bd 4f cb 16 bd
       0.056165025 -0.046316985 -0.057656813 -0.036814984
000090 d3 e0 2e bd 26 91 19 3d d7 2a 3d bd c2 7d 3a 3d
       -0.042694878 0.03749194 -0.046183433 0.04553009
0000a0 a2 87 41 3d f6 9e 1d 3d 40 b7 04 bd 1d 31 59 ba
       0.04724849 0.038481675 -0.032401323 -0.00082852115
0000b0 79 29 2a 3d c7 3e 33 3d 68 ff fc bc e1 cf 5c bd
       0.041543458 0.04376104 -0.030883506 -0.053909186
0000c0 16 02 06 3d d0 24 2a 3d b3 92 6e 3c e7 ea 3b 3d
       0.032716833 0.041539013 0.014561343 0.045878317
0000d0 15 50 09 bd 8c cc 01 3d 5f 24 0e 3d 51 39 30 bd
       -0.033523638 0.03168921 0.034702655 -0.04302341
0000e0 a4 4e 42 3d d4 6b 1a 3d b9 10 3d bd 6e 7a 48 bd
       0.04743828 0.03770049 -0.046158526 -0.048944883
0000f0 e2 5e 07 bd 34 89 7c bd e7 5d 47 3d 93 b6 dd bc
       -0.03304947 -0.061654285 0.048673537 -0.027064597
000100 fa 2e 80 bc cf 0f fb bc d3 a1 4d bc 2b 9f 4a bd
       -0.0156474 -0.030647187 -0.012550789 -0.0494682
000110 a2 8d 44 bd d7 63 42 3d 9c 8d 0f 3d 2f b0 80 bd
       -0.047986634 0.047458496 0.03504716 -0.06283604
000120 29 7c 86 3d ab 1d 4e bd 63 fd 1e bd 6c 61 f5 3c
       0.065666504 -0.050321262 -0.038815867 0.029953681
000130 97 ca 07 3d 3a c9 4d bd 6a e0 32 bd 91 6d ab 3c
       0.03315219 -0.050240733 -0.04367105 0.020926269
000140 2a 1f 5a bd 3e 71 f7 3c 94 a6 c9 3c dd 69 35 3d
       -0.053252377 0.030205365 0.024615563 0.044290412
000150 41 36 05 3d e6 1b 36 3d 4a 58 8a ba e1 2e c1 bc
       0.032522444 0.0444602 -0.0010554877 -0.023581924
000160 16 9c 9d bc 18 51 48 3d e4 1b 97 3c e7 ef 36 3d
       -0.019239467 0.048905462 0.018445916 0.044662382
000170 9c 14 30 bd 6f 3f 80 3a 45 16 ea 3c e4 77 41 bd
       -0.042988405 0.000978453 0.028575072 -0.047233477
000180 7a 7d d6 3c d7 b2 ab 3c fa 5b ba 3c 6d 99 38 bd
       0.026182879 0.0209593 0.022748936 -0.045068193
000190 dc 03 5c bd 29 df 67 bd b9 80 12 3d 7d 0f 94 bc
       -0.053714618 -0.056609306 0.03576729 -0.018073792
0001a0 91 56 ef 3c ac 44 c9 3c 0b f5 61 bd 2b f4 58 bd
       0.029216083 0.024568878 -0.05516533 -0.05296723
0001b0 10 ff 5c bd 43 72 3f bd 92 3f 69 bd d2 41 ff bc
       -0.053954184 -0.046739828 -0.05694539 -0.031159315
0001c0 46 8d 5c bd 80 89 60 3d 6f 4b 93 3c ba db 24 3d
       -0.053845666 0.05481863 0.017980305 0.04024861
0001d0 ef 4b 27 3b 86 a3 2f 3d ae b1 f1 3c 04 23 36 bd
       0.0025527438 0.042880557 0.02950367 -0.044466987
0001e0 26 ea 34 3c 17 83 33 3d 37 dc 9d bc 45 1c 35 bd
       0.011042153 0.04382619 -0.019270046 -0.044216413
0001f0 fc 3c 05 bd 4f 34 30 3d fa 8d 24 3d fd e8 8e 3c
       -0.032528862 0.043018635 0.040174462 0.017445082

network_body._body_endoder.seq_layers.2.weight f4 [128, 128]
000000 dd c9 9f bc 14 0e 97 3d ba 80 ef 3d b2 cf 45 3d
       -0.019505436 0.07375732 0.116944745 0.048293777
000010 13 0f 70 bb 83 f2 48 be 5e fd 88 bd 73 8b 52 be
       -0.0036630079 -0.19623761 -0.06688951 -0.20561008
000020 56 e4 98 3d c1 c5 86 bd 46 ab a9 3c 38 0c 16 bd
       0.074654266 -0.06580687 0.020711552 -0.036632746
000030 8f 24 91 3d bb 49 79 3b b9 1d bf bd 26 0f 8d 3c
       0.07087051 0.0038038332 -0.09331841 0.017219137
000040 10 52 98 bd d1 3a 8d 3d bf 8d f6 bd ed f9 0d 3d
       -0.07437527 0.06895984 -0.12038755 0.034662176
000050 28 19 bb bd 89 cf 34 3d 12 1b 14 be f3 00 9f 3c
       -0.091356575 0.044143233 -0.14463452 0.019409632
000060 94 c6 1d 3e 08 2c 94 be 00 b9 9c bc e9 e5 0f be
       0.15407783 -0.28939843 -0.019131184 -0.14052548
000070 c2 71 03 ba d0 aa ce 3d 9e 68 14 bc 97 c7 d0 bc
       -0.00050142047 0.10091174 -0.009058146 -0.025485797
000080 01 02 cb 3d cc e3 92 3b b4 e2 7b bd 9d e0 13 3e
       0.099124916 0.004482722 -0.061495498 0.14441152
000090 70 9a 6a bd 0f b1 9b 3d 3e 8f 96 3d 29 29 c7 3c
       -0.05727619 0.076021306 0.0735154 0.024311619
0000a0 c8 a9 cd 3d b8 22 80 bc 43 d5 b4 bd 15 27 6b 3d
       0.10042149 -0.015641555 -0.08829739 0.05741032
0000b0 b0 59 14 3d 2e e7 28 3e f3 69 0b 3d c1 77 9b 3c
       0.036218345 0.16494438 0.034036588 0.018978002
0000c0 45 db 98 3d 8e dc 87 3d 99 d6 87 bd 18 60 1b be
       0.07463697 0.06633864 -0.06632728 -0.15173376
0000d0 f8 44 d6 bd b7 ae 0d 3d ce 29 00 3e b9 ae b2 bd
       -0.104623735 0.03459045 0.12515947 -0.08724732
0000e0 78 cb b5 bd 98 5c 8a 3c 97 24 a8 bd 17 86 db bd
       -0.08876699 0.016889855 -0.08210104 -0.10718935
0000f0 70 3a a7 3b fe 4c 18 be 54 ba 0f bc 8a ef 13 bb
       0.005103402 -0.1487312 -0.008772451 -0.0022573196
000100 1e 08 17 bd 0e bb 1b be 3b 7d b9 3c b0 df 9a 3d
       -0.036872976 -0.15208074 0.022642722 0.07562196
000110 ee 54 8b bd 39 69 b9 bc b7 03 65 3d c0 06 4d be
       -0.068033084 -0.022633182 0.055911746 -0.20022106
000120 a7 d0 58 3e 23 fc 09 be 16 3b 06 bd 09 33 a1 3d
       0.21173345 -0.13475089 -0.032771192 0.07871062
000130 2f c4 e6 bc c7 75 4c be 42 d5 60 bc e8 c8 b4 3d
       -0.02816972 -0.19966803 -0.01372272 0.08827382
000140 a8 6c 40 bd 4b 7b 6c bd 5b b6 52 be 1d ed 90 3d
       -0.046978623 -0.05773477 -0.20577376 0.07076476
000150 2f b4 f0 3c 3b db 4d 3d 4c 1e fa bb 93 27 a9 bd
       0.029382793 0.050257903 -0.007633006 -0.08259501
000160 97 23 6a 3d ef bf 41 3d 87 80 83 bc aa 94 ba 3c
       0.057162847 0.047302183 -0.016052498 0.022775967
000170 79 59 5f be 8a fe 9c 3d e6 f2 1f be 97 94 00 3e
       -0.21811475 0.07665737 -0.15620002 0.12556683
000180 51 40 2b bc d1 f8 c4 3c 66 e4 83 bd 80 15 f9 bd
       -0.010452346 0.024044426 -0.06440048 -0.12162304
000190 ab dd dc bd 4b ae a2 bd a9 1a 8f 3c 92 d2 c5 bb
       -0.10784467 -0.079434 0.017468767 -0.006037065
0001a0 cc c7 cc 3b 3b 16 62 bd 5a 77 82 3d b0 fa a3 bd
       0.0062494036 -0.055196982 0.06370421 -0.08006799
0001b0 6a 2b 33 bd a0 05 5d be 4b 82 dc bd 05 41 ee 3d
       -0.043742575 -0.21584177 -0.10767039 0.11633495
0001c0 6a 86 ac 3d be 54 ac 3d 94 25 62 3c 26 c0 86 3d
       0.08424075 0.08414601 0.013802905 0.06579618
0001d0 35 71 c8 bc 59 80 13 bd ee a9 de bd 84 62 79 bd
       -0.024468044 -0.036011074 -0.10872255 -0.060884967
0001e0 2f 0f f0 bc 8d 2a 1d 3d 28 00 76 bb 06 03 3c be
       -0.029304115 0.038370658 -0.0037536714 -0.18360528
0001f0 35 fd 8b bd 5d c6 c2 bd b1 26 11 bd 53 0c 8a bd
       -0.06835405 -0.09510491 -0.03543729 -0.06740632
000200 89 42 9c 3d f8 fa 7c 3c 47 eb 3c bd 03 e6 f1 3d
       0.07629878 0.015440695 -0.046122815 0.118114494
000210 6b bd 09 be ba d3 dc 3d 42 59 7c 3b 03 14 bc 3a
       -0.13451163 0.10782571 0.003850535 0.0014349226
000220 a2 8d 01 3e e7 fd 87 bd 5f 88 df bd a4 0e 30 be
       0.12651685 -0.06640225 -0.109146826 -0.17193085
000230 a5 eb 6b bd f6 c0 e6 3d f9 d7 f6 3d e1 34 ba bd
       -0.057597775 0.11267273 0.12052912 -0.09092117
000240 e2 13 be 3c 2a 3e bd bd 6b 58 d0 3d 8c 02 0d 3d
       0.02320284 -0.092403725 0.101731144 0.034426257
000250 53 ba f5 bc 34 ef 72 3d 74 a3 d7 3c 9a 5a 3f 3d
       -0.029996073 0.059310153 0.026323058 0.046717264
000260 ac 35 0d bc 0c 93 0c bd c0 6c 04 3e 0d e8 12 be
       -0.008618753 -0.034319922 0.1293211 -0.14346333
000270 c7 3f 0a 3d d1 b7 33 3e 8a 85 76 bd 78 9f d5 3b
       0.03375223 0.17550589 -0.060185947 0.0065192543
000280 94 8d 0a be 82 b2 96 3d 21 8a 74 bd 35 e4 03 3d
       -0.1353057 0.073582664 -0.059702042 0.032200057
000290 9f 70 44 3c be 4e f8 3d 4b 6a 84 3d 24 d4 37 bd
       0.011989742 0.12124394 0.06465586 -0.044880047
0002a0 9e 97 77 3d 49 d7 d0 bc 3d 9b be bd a2 c4 1d 3b
       0.060447328 -0.025493281 -0.09306953 0.00240735
0002b0 1e 6f 29 3d 3e ec ff bc 46 f5 9f bc 94 d0 08 3e
       0.041365735 -0.031240579 -0.019526135 0.13360816
0002c0 77 d3 87 bc ab 91 73 3d 35 81 f7 bd d6 2e 9a bd
       -0.016580326 0.05946509 -0.12085191 -0.075284645
0002d0 4f 4e 4f bd 5d 49 7e 3d f0 90 37 3d dc 38 6c 3d
       -0.05061179 0.062081683 0.044815958 0.057671413
0002e0 89 07 52 3d 92 d6 06 bd 94 e0 02 3d 27 f3 04 bd
       0.051276717 -0.032919474 0.031952456 -0.03245845
0002f0 76 a5 90 bb 76 ca 14 3e 9e aa 0b bd a9 c0 89 bd
       -0.0044142557 0.14530358 -0.03409826 -0.067262
000300 a4 25 f1 3d 29 7b 9f 3d a9 1f 5d 3d b7 28 08 3d
       0.117747575 0.07787163 0.05398527 0.033241954
000310 ba 98 ac 3d 67 c5 15 bc 83 ac 29 be 03 25 ff bb
       0.08427568 -0.009141303 -0.16569714 -0.0077863946
000320 2d 9a aa 3d 48 23 b6 bd 84 6d 75 3e c7 54 82 3d
       0.08330188 -0.08893448 0.23967558 0.06363826
000330 79 61 60 3d 9e 77 b7 bd 1c db 68 3d 60 a7 0e bd
       0.054780457 -0.08958362 0.056849584 -0.03482759
000340 30 81 25 3b 11 c3 0d be b7 6f 87 bd ba 5d ed bc
       0.0025254004 -0.13843943 -0.06613105 -0.028975356
000350 c7 5a 06 3d 63 e8 87 3d db 83 e5 bd e3 0f c5 3c
       0.032801416 0.06636121 -0.1120679 0.024055427
000360 2c 1e f1 3d 9c 7d e8 bd 18 58 09 bd a1 33 37 bc
       0.11773333 -0.11352083 -0.03353128 -0.011181743
000370 42 44 30 be 79 39 02 bd 22 3d 18 3d f1 52 27 bb
       -0.17213538 -0.03179309 0.037167676 -0.0025531615
000380 2c 51 9f 3d 2d 4e 18 3e 9a 2f 87 bd 99 1b 10 3d
       0.07779154 0.14873572 -0.06600876 0.03518257
000390 43 a1 00 bd 55 9f eb 3c e5 12 12 3d 0c 15 90 3d
       -0.03140379 0.028762499 0.03566255 0.070352644
0003a0 80 56 40 bd 20 53 b5 bd 9c 07 ae bd 13 f1 86 3d
       -0.046957493 -0.088537455 -0.08497545 0.0658895
0003b0 fd af 16 3c dc c6 59 3d 21 4d d8 bd 60 38 25 3e
       0.009197232 0.053168163 -0.10561586 0.16134787
0003c0 19 47 9c 3d 36 cb 18 bd 20 80 1a be 2d b1 a7 bc
       0.07630748 -0.037303172 -0.15087938 -0.020470226
0003d0 f9 84 48 3d b0 d8 3c bd b0 7c b7 3d 2b 8e b9 3c
       0.048954938 -0.046105087 0.08959329 0.022650799
0003e0 a1 ff 03 3e 6d 16 63 3d e8 12 a7 3c 79 92 9a 3d
       0.12890483 0.05544131 0.020394757 0.07547469
0003f0 6c 86 82 3d 06 f0 01 be 35 0e 29 3d 99 82 90 bd
       0.06373295 -0.12689218 0.041273315 -0.070561595

network_body._body_endoder.seq_layers.2.bias f4 [128]
000000 16 11 26 3d 5f bf ba bc ae 26 bc bc a7 62 01 3d
       0.04054364 -0.022796331 -0.022967663 0.031588223
000010 6c b7 2a bc 15 2d 9c bc b0 2e f2 bc e0 b7 a6 3c
       -0.010419708 -0.019064466 -0.029563278 0.02035135
000020 91 f5 1c 3d dc a6 13 bd a8 81 1d 3d 9c 26 f8 3c
       0.038320128 -0.0360478 0.038453728 0.030291848
000030 a2 44 1e 3d 32 3e 64 3c a9 8e d3 bc 51 f9 1d 3d
       0.038639672 0.013930844 -0.025824862 0.038567845
000040 05 f9 df bc 49 18 cd bc 0e 7d 2f 3d 82 51 0c 3d
       -0.027340421 -0.025035994 0.04284387 0.03425742
000050 77 19 88 bc 1e e4 3d 3c 0d fc 9a 3a 4d be c1 3c
       -0.016613705 0.011590032 0.0011824385 0.023650313
000060 6a 5e 06 bd e5 f2 0d bd 03 23 27 3d 59 a1 fa 3c
       -0.032804884 -0.03465547 0.040804874 0.030594515
000070 d5 a7 bf bc 06 68 dc bc 48 5b 2d 3d 96 ad 1a 3d
       -0.023395458 -0.026905071 0.04232338 0.0377632
000080 15 ec ec bc 61 35 76 bb 60 de 02 bd 24 40 b0 3c
       -0.028921166 -0.0037568437 -0.031950355 0.02151496
000090 37 c6 a6 bc 8d 44 0b bd e4 a6 1b 3d 63 0d ee bc
       -0.020358188 -0.034000922 0.038000956 -0.029059118
0000a0 ae a9 dd 3c 70 c8 25 3d 5d 4a 31 3d 58 c4 f9 bc
       0.027058449 0.040474355 0.04328381 -0.030489132
0000b0 0d 8b 0a bd 57 c7 1a bd ff 2c e4 bc fb 8b e0 bc
       -0.033824015 -0.03778776 -0.027853487 -0.027410498
0000c0 af 31 44 bc 86 49 09 bd bb 08 ed bc 99 dc f1 3c
       -0.011974736 -0.033517383 -0.028934827 0.029524134
0000d0 9a 41 0a bd 8f d3 ee 3c 7d a4 09 bd b7 63 cb bc
       -0.03375397 0.029153613 -0.033604134 -0.024827821
0000e0 09 76 37 3d 24 3c e7 bc d8 d4 e5 bc 00 18 b6 bc
       0.0447903 -0.02822692 -0.028055593 -0.022228241
0000f0 25 e0 05 3d 19 11 cf 3c 97 02 f8 bc 65 f4 05 bd
       0.032684464 0.025276707 -0.030274672 -0.032703776
000100 47 d2 34 3c c6 7c 20 3d ff 72 c1 bc 65 4d f4 bc
       0.011036462 0.039181493 -0.023614405 -0.02982206
000110 9d a5 0e bd c1 e2 1b 3d 58 d9 24 3d d0 de 06 bd
       -0.03482591 0.038058046 0.040246338 -0.032927334
000120 fb 3b 9d bb 78 95 d5 bc 25 c8 8d 3c 12 f2 06 bd
       -0.00479841 -0.026072249 0.01730735 -0.0329457
000130 4d 7c 41 3d 0e 2f 86 bc e3 7e 16 3d 5f 1c fb 3c
       0.047237683 -0.01637986 0.036742102 0.030653177
000140 81 92 21 3d 3d d6 2d 3d 0e e3 bd bc c7 c5 ee bc
       0.039446358 0.04244064 -0.023179557 -0.029147042
000150 2d 38 16 3d 32 40 08 3d 5b 03 e5 bc 04 6c 1a bd
       0.036674667 0.033264346 -0.027955702 -0.037700668
000160 45 b8 17 3d ad 49 1c 3d 0b 86 fc bc 6b 28 ca bc
       0.037040967 0.0381562 -0.030825635 -0.024677476
000170 ee 65 c0 3c 49 82 09 bd ea 17 d6 bc 8f df d9 3c
       0.023486104 -0.033571515 -0.02613445 0.026595859
000180 24 10 ba 3a b5 1c 10 bd d3 39 fa 3c 82 18 cf bc
       0.0014195484 -0.035183627 0.03054515 -0.02528024
000190 dd 97 88 bc fa 79 05 bd 62 d6 af 3b e6 f6 fa bc
       -0.016673977 -0.03258703 0.0053661326 -0.030635308
0001a0 38 e3 dc bc 7a 83 2c 3d e0 eb f3 3c 72 37 12 bd
       -0.026963815 0.042117573 0.02977556 -0.035697408
0001b0 43 d8 3b 3d 16 1e 20 3d f5 4d d8 bc 69 1a 21 3d
       0.04586054 0.039091192 -0.02640436 0.039331827
0001c0 fe d9 b1 bc 3b 5a d0 bc 2c 1c 2c 3d d2 cc 02 bd
       -0.021710392 -0.02543365 0.042019054 -0.031933613
0001d0 08 eb aa bc 73 94 13 bd a3 57 f4 bc 35 27 31 3d
       -0.020864025 -0.036030244 -0.029826945 0.04325028
0001e0 fb ef 87 3c 50 42 e3 bc 39 56 db 3c f1 61 0b bd
       0.016593924 -0.027741581 0.026774513 -0.03402895
0001f0 fc 1e 31 3d 57 6c a6 3c 91 98 0f bd 08 9d e3 bc
       0.04324244 0.020315332 -0.035057608 -0.02778484

action_model._discrete_distribution.branches.0.weight f4 [3, 128]
000000 4e 48 13 bc d7 be 9b bc f2 f9 9c bc c6 f7 54 3c
       -0.008989407 -0.019011898 -0.019162152 0.012998527
000010 87 af 9b ba 73 1e 62 bc 84 cf b2 bc 74 b5 2a bc
       -0.0011877873 -0.013801205 -0.021827467 -0.010419238
000020 43 b2 02 3d ee 9c 30 3c 21 6b 78 3c a9 10 75 3b
       0.031908285 0.010779602 0.01516226 0.0037393963
000030 4b 0e 77 3b ad 7a 37 3c e2 28 5c bc 2b 12 27 3c
       0.0037697728 0.011198682 -0.013437482 0.010197203
000040 30 be d7 bc ba 2d 2c bb 20 27 36 3c 28 40 aa 3b
       -0.026335806 -0.0026272372 0.011117727 0.0051956363
000050 5c 43 cf bc cf ee e1 3c ed 19 cb 3b ca 6c 02 bc
       -0.025300674 0.027579693 0.006198159 -0.007960508
000060 a5 d5 a1 bb 6e 06 47 bc c3 af d4 3b 3b 6c e6 3c
       -0.0049387985 -0.012147529 0.006490679 0.02812778
000070 83 a5 91 bc 15 9b 6e bc de 2c a9 3b 9a 6c 98 3c
       -0.017779117 -0.014563342 0.0051628193 0.018606473
000080 cc 8e 8e bc ae 23 d2 bb b6 8d 03 bd 33 f2 6d 3c
       -0.017402075 -0.0064129448 -0.032117568 0.014523077
000090 f1 90 8e bb 69 5a 15 bc b6 c2 59 3c b9 2e 77 bc
       -0.0043507745 -0.009115794 0.013291052 -0.015086823
0000a0 b7 f9 92 3c 96 61 82 3c 83 c1 b5 3b 48 8f 87 3b
       0.017941339 0.015915673 0.00554675 0.0041369535
0000b0 f3 a4 23 3c fd 91 b7 bc c0 17 34 bc 0b fd 0c bd
       0.009988057 -0.02240848 -0.010991991 -0.034421008
0000c0 fd 79 a5 39 44 f1 c2 bc a8 e1 df ba 29 64 bd 3c
       0.0003156214 -0.023796685 -0.0017080801 0.02311905
0000d0 92 60 fa bc 74 30 cb 3c 1e db 45 bc 46 ca 79 bc
       -0.030563626 0.024803378 -0.012076167 -0.01524598
0000e0 75 02 40 3c 03 e5 4b bb 38 63 b1 bc 18 06 07 bb
       0.011719336 -0.0031111843 -0.021653756 -0.0020602997
0000f0 c7 89 31 3b 68 aa 55 bc 6e 30 01 bc 26 fa 43 bc
       0.0027090178 -0.013041116 -0.007885082 -0.0119614955
000100 69 bd dd 3c e7 19 8f 3b fe 68 f1 bc e4 d3 40 bc
       0.027067857 0.0043671015 -0.02946901 -0.011769269
000110 c0 a2 f4 bb 06 a2 63 3c 64 98 13 3c ea 11 95 bc
       -0.0074656904 0.01389361 0.009008501 -0.018197019
000120 ed d0 0d bc 23 78 97 bb 8d 52 fe 3b e2 6b 1c bc
       -0.008655769 -0.0046224757 0.0077613057 -0.009547206
000130 0d d5 88 3c 5f 3a 55 bc ba fe 0c 3d e8 15 69 bb
       0.016703153 -0.013014405 0.034422614 -0.0035566036
000140 9c 7a a7 3c bf a2 e4 3b a4 7a f7 bb 28 44 5e bc
       0.020444207 0.0069774087 -0.0075524617 -0.013566054
000150 30 3b 9d 3c d6 ad cd 3c bb 1f fc bc 0a aa 6e bc
       0.019193262 0.025107305 -0.030776849 -0.014566908
000160 0d c7 af b9 8b 8a 6c 3c 54 a1 0a bc fa cc aa bc
       -0.00033526905 0.014437328 -0.008461315 -0.020849694
000170 23 85 35 3c 1b 55 e6 bb 6c e2 96 bc ea f3 cd bb
       0.011079106 -0.0070291883 -0.018418513 -0.0062851803
000180 53 dd e2 3b 6f a5 fe ba ea f0 ad 3c 1f 96 07 bc
       0.0069233566 -0.0019427965 0.02123304 -0.008275538
000190 fc 65 aa bc d6 b7 98 bb 3e eb 4f 3c 0f 2b 95 bb
       -0.020800583 -0.004660587 0.012690363 -0.004552252
0001a0 3f e6 b9 bc bc 58 af 3c cc 05 c4 3b c3 e8 93 bc
       -0.022692798 0.021404617 0.0059821364 -0.018055325
0001b0 2f b4 24 3c dd e6 e5 3c 7c 3b ab bb 6e 41 c6 3c
       0.010052725 0.028064186 -0.005225597 0.024201121
0001c0 b8 f7 9e bc a7 1a 12 bc b8 e4 0e 3b 2d d2 25 bc
       -0.01940523 -0.008917487 0.0021803807 -0.010120911
0001d0 87 1f 9c bc 41 d5 e6 bb 2a 7f 9e bc 8d bb 6b 3c
       -0.019058002 -0.007044465 -0.019347746 0.014387977
0001e0 8d ad b4 bb 5b 33 7c bc 4b 15 c6 bb 0b e6 42 bc
       -0.005513853 -0.0153931035 -0.006045019 -0.011895667
0001f0 7c f3 bc 3c 45 fd 4f b9 05 c7 eb ba 41 15 ac bb
       0.023065321 -0.00019835409 -0.001798839 -0.005251557
000200 42 c2 85 bb 2f 52 0a bc e7 c9 41 3b 5d e2 fd bb
       -0.004081995 -0.008442446 0.0029569806 -0.007747932
000210 00 de c5 3b f5 09 98 b9 34 74 9d 3c a7 9e 5d bb
       0.0060384274 -0.00028999118 0.019220449 -0.0033816488
000220 36 27 18 bc 2d f4 91 3c ec 78 24 3c d1 c9 a9 bb
       -0.009286692 0.017816627 0.010038596 -0.005181529
000230 fe d3 16 bc cf be 89 bb f1 b8 10 3c 7a 9e 1e bc
       -0.009205816 -0.0042036544 0.008833156 -0.009681338
000240 32 84 e5 3b 20 42 26 3b 40 93 ae bc 3d 7b ec bb
       0.0070042843 0.0025369003 -0.021310449 -0.0072168396
000250 d0 a6 d1 3b 70 fb bd 3a e8 78 1f 3c 08 63 87 3c
       0.0063980594 0.001449449 0.009733416 0.016526714
000260 38 9b 88 3c c0 85 44 3b ce 5c b8 bb c7 eb 2d bc
       0.016675577 0.0029986948 -0.0056262976 -0.010615296
000270 fb 21 cf 3b 75 f4 14 3c 30 29 05 3c 78 49 0e bc
       0.0063211895 0.009091486 0.008127496 -0.0086845085
000280 cd 2b 63 3b 75 19 b8 3c ff 4d 98 3b 0c f1 22 bc
       0.0034663558 0.022473076 0.0046479697 -0.009945165
000290 b2 54 69 3c 5f c1 ba 3c 49 60 23 bc 9a 5c a6 3c
       0.014241384 0.022797285 -0.009971687 0.020307828
0002a0 ea 89 80 bb b7 4d db bb 2d bd a3 bc f4 30 4b 3c
       -0.0039226906 -0.006692614 -0.019987667 0.012401808
0002b0 69 31 df 3b 89 74 98 3c 7c a9 1d 3c 4b ad b5 3c
       0.00681131 0.018610256 0.009622928 0.02217736
0002c0 2e d0 ed 3b ea 3c cf 3b ca 65 66 3b 08 f0 99 bb
       0.007257483 0.0063244 0.0035155886 -0.0046978034
0002d0 41 87 3a 3c cb c8 a3 bc ea 3f c8 bb 7e d8 c8 ba
       0.011384786 -0.019993206 -0.006111135 -0.0015323309
0002e0 7e b3 67 bb a5 42 1b 3c a0 ed 50 bc 15 3f 8b 3b
       -0.0035354788 0.0094763385 -0.012751967 0.0042494633
0002f0 11 9b 88 bc a5 24 0a 3c 3f d5 c6 3a c7 ca 45 3c
       -0.016675504 0.008431588 0.0015169753 0.012072272
000300 7f 86 14 bc 5c 91 89 bc 1d 06 8e 3c 68 42 01 3d
       -0.0090652695 -0.016792946 0.0173369 0.03155747
000310 cb f1 bc 39 c7 8f fd ba 6a 0e f0 bb 0e 45 23 3c
       0.00036038304 -0.0019345217 -0.007325937 0.009965194
000320 65 7f 66 bb 37 a1 0a 3a 21 0e a8 3b 0c 8a 8e 3c
       -0.0035171148 0.0005288305 0.0051286374 0.01739981
000330 5e 91 59 bc 46 19 83 bb 16 da c8 bc 89 63 07 bb
       -0.013279287 -0.0040008156 -0.024518054 -0.0020658693
000340 19 b9 92 bc c6 51 a4 38 dc ce cc b8 f4 76 38 3c
       -0.017910527 7.835361e-05 -9.7660086e-05 0.011258829
000350 d7 c4 1d bc 13 bb 87 bc f9 05 c0 3b a9 95 a0 3b
       -0.00962945 -0.016568696 0.005860087 0.0049006534
000360 83 59 15 bc 6d 98 55 bc 21 c7 b5 3c 70 1c 94 3a
       -0.00911558 -0.013036829 0.022189679 0.0011299979
000370 40 e1 fc 3b 06 d6 ef 3b 65 34 24 bc 4b 5a 10 3b
       0.0077172816 0.0073192148 -0.010022257 0.0022026475
000380 25 4d 5f bb 42 47 e4 3a 11 11 f9 bc f8 cc b3 3b
       -0.0034073081 0.0017416256 -0.030403646 0.0054870807
000390 36 05 2d 3c f6 61 21 3c 15 a0 b2 bb ba 55 8d 3b
       0.010560324 0.009850016 -0.005451212 0.004313198
0003a0 c5 8f 35 3a 43 5b 39 bc 08 0f 0d 3c da df f7 3a
       0.00069260254 -0.011313262 0.008609541 0.0018911317
0003b0 e6 88 15 bc b5 3f a9 bc 18 77 d2 3b 90 fb 39 bc
       -0.009126877 -0.02066026 0.0064228885 -0.011351481
0003c0 a8 a5 7d 3c 39 93 85 3c d4 77 43 bb 0f 0c 4c 3b
       0.01548139 0.016305553 -0.0029826062 0.0031135117
0003d0 7f 51 ee 3b f9 77 e0 38 13 f5 b1 3c cc 28 dc 3b
       0.0072728987 0.00010703499 0.021723306 0.0067187306
0003e0 a2 34 0c bb 3e 3e 8c bb d8 27 a9 bb f8 2a 08 3b
       -0.0021393676 -0.004279881 -0.0051622204 0.0020777564
0003f0 74 e3 d4 bc 42 88 be 3b 71 d5 82 3b 1c 7e 1c 3b
       -0.025987364 0.005814583 0.0039927294 0.0023878878

action_model._discrete_distribution.branches.0.bias f4 [3]
000000 93 c2 39 3c c9 2b 9a bb c4 83 be bb
       0.011337894 -0.0047049266 -0.0058140475

action_model._discrete_distribution.branches.1.weight f4 [3, 128]
000000 92 5d 46 bd b6 86 ec 3c 7e 43 11 3d 66 93 cb bc
       -0.04842908 0.028872829 0.035464756 -0.024850558
000010 31 4c 94 3c 82 5d 4c 3d e8 ae 15 3d b5 be 0c bd
       0.018102737 0.049893863 0.036543757 -0.03436156
000020 1f 3d 25 bd 59 ad 47 3d f2 2d 27 bd 3d b7 80 bc
       -0.040341493 0.0487493 -0.0408153 -0.015712375
000030 54 c9 1b bd 36 e5 bf bc 51 ef d5 3c 4d 02 fc bc
       -0.0380338 -0.023424726 0.026115092 -0.030762816
000040 31 48 f6 3c af be 32 3d d1 33 81 bd 16 45 1f bd
       0.03006372 0.04363888 -0.06308711 -0.038884245
000050 20 44 9e 3c a5 cd 6e bc ee 42 2f bb 33 b7 8c bc
       0.019319594 -0.014575397 -0.0026742774 -0.0171772
000060 b6 03 1d 3d a2 f2 0c 3d fd 83 11 bd 6f 57 97 bc
       0.038333617 0.03441108 -0.035526264 -0.018474309
000070 c0 49 fa 3c fd 5a 33 3d 4c f4 3a bd 4d c4 38 bd
       0.030552745 0.043787945 -0.045643136 -0.045109082
000080 49 fc 1b 3d 87 35 56 bc e2 7c 37 3d 13 0a e0 bc
       0.038082395 -0.013074285 0.044796832 -0.027348554
000090 60 12 4d 3d 9c 4c 44 3d 26 6a 10 bd f3 c2 ef 3c
       0.050066352 0.047924623 -0.03525748 0.029267764
0000a0 0f e8 b9 bc f9 ae 31 bd 5e 08 7d bd 34 07 2a 3d
       -0.022693662 -0.043379758 -0.061775558 0.041510776
0000b0 fb 32 76 3d 6d 47 29 3d 0a db 1d 3d 17 56 38 3d
       0.060107213 0.041327883 0.03853897 0.045003977
0000c0 5a 43 6a 3c 8c d7 37 3d c9 ea 0a 3d 22 e8 05 bd
       0.014298284 0.044883296 0.033915315 -0.032692082
0000d0 48 be 6a 3d 67 d6 4d bd 6e 47 02 3d 6a 07 32 3d
       0.057310373 -0.050253298 0.031806402 0.0434641
0000e0 00 59 3a bd 09 6a 1b 3d a1 9c 38 3d d5 53 37 3d
       -0.045495033 0.03794292 0.045071248 0.044757683
0000f0 45 6f 60 bd fa 6e 25 bd d7 04 3e 3d f4 49 29 3d
       -0.054793615 -0.04038904 0.046391334 0.041330293
000100 2e 97 c4 bc 18 53 0b bd 21 c9 3c 3d bd ce 50 3d
       -0.02399787 -0.03401479 0.04609025 0.05097841
000110 9f 95 41 3d f2 fd 06 bd 5f 00 2b bd 6a 21 3e 3d
       0.04726183 -0.032957025 -0.0417484 0.046418585
000120 5e 43 1d bb 77 61 2d 3d 73 fe 1f bc 69 ad 48 3d
       -0.0023996453 0.042329278 -0.009765255 0.0489935
000130 aa 2b 75 bd 31 7f 31 3d 1c 57 3c bd a8 39 00 bd
       -0.059856094 0.04333419 -0.04598151 -0.031304985
000140 fa 0d 56 bd 9b 4e 50 bd d7 a0 d6 3c f3 ec 34 3d
       -0.052259423 -0.050856214 0.026199741 0.044171285
000150 43 ab 10 bd a6 90 db bc 97 aa 25 3d ee 9e 1f 3d
       -0.035319578 -0.026802372 0.04044589 0.038969927
000160 48 aa 39 bd 7f 1a d0 bc 02 88 59 3d 06 81 17 3d
       -0.04532841 -0.02540326 0.053108223 0.03698828
000170 57 70 22 bd 05 ab 0b 3d e8 82 f7 3c cc 64 bf bc
       -0.039657917 0.034098644 0.030213788 -0.023363493
000180 e2 82 0d bd e3 2e e5 3c f5 4f fb bc 9f dc 34 3d
       -0.034548648 0.027976459 -0.030677775 0.044155713
000190 a0 29 c1 3c d1 bf 38 3d 3c 03 c7 bc fb 61 41 3d
       0.023579419 0.045104805 -0.024293534 0.047212582
0001a0 6a 97 06 3d 84 af 6f bd 60 b4 1f bd 48 11 24 3d
       0.032859243 -0.058516994 -0.03899038 0.040055543
0001b0 f6 9c 3b bd 7f cd 3e bd 58 67 1a 3d 01 d5 06 bd
       -0.045803986 -0.046582695 0.037696213 -0.03291798
0001c0 df 8e 38 3d 96 39 46 3d d8 25 2d bd ac fd 14 3d
       0.045058127 0.048394762 -0.04227242 0.036374733
0001d0 54 8a c5 3c d9 eb 24 3d c9 e6 1b 3d 3a 63 6a bd
       0.024113812 0.040263984 0.03806189 -0.057223536
0001e0 f6 15 a8 bc 5b 03 42 3d f6 c7 03 bd 6f aa 52 3d
       -0.020518284 0.04736648 -0.03217312 0.05143207
0001f0 a4 a1 4b bd 05 4f 17 bd ab ed 1c 3d 73 e3 25 3d
       -0.0497147 -0.036940593 0.038312595 0.040500116
000200 1f 24 3e 3c b8 d1 86 bc b0 e5 6c bc 03 fa f9 3b
       0.011605292 -0.016457424 -0.014459059 0.0076286807
000210 fc 72 78 bc a5 dc 86 bc 3e 8f 62 bc 70 a9 5b 3c
       -0.015164133 -0.016462633 -0.013828097 0.013407096
000220 64 af a8 3c c0 1a 8f bc 22 f8 60 3c 17 5e 8a 3c
       0.020591445 -0.01746881 0.0137310345 0.016890569
000230 7f 1e d3 3b d1 56 7d 3c 43 56 e7 bc 1a 6e 64 3c
       0.0064428444 0.015462593 -0.028239375 0.013942266
000240 24 a9 6d bc 7a 82 20 bc c5 cd 72 3c 25 9d 88 bb
       -0.014505658 -0.009796733 0.014819567 -0.0041691237
000250 30 31 fc b8 39 b7 08 b9 f0 e4 ff 3b 57 bf a4 39
       -0.00012025458 -0.00013038226 0.007809274 0.00031423077
000260 ed df 88 bc 7a 23 38 bb 10 a2 98 3c 68 e2 78 3c
       -0.016708339 -0.0028097318 0.018631965 0.015190698
000270 b5 f8 fd bb 88 a7 9a bc 4e a0 c6 3c 72 00 31 3c
       -0.0077505955 -0.018878713 0.024246361 0.010803329
000280 43 06 75 bc c1 be dc bc 2f 53 32 bc 99 09 a7 3b
       -0.014955106 -0.026946427 -0.01088409 0.0050975797
000290 dc d6 00 bd ab 88 81 bc c3 21 82 3b cf c2 13 bd
       -0.031454906 -0.015812239 0.00397131 -0.036074456
0002a0 45 63 60 3c fe f4 25 3b 3c 7b b5 3c ab a4 fd bc
       0.013695543 0.0025323029 0.02215349 -0.030962309
0002b0 f4 54 e3 3a 80 5b 9a bc d5 7c 92 bc 48 e4 0a bd
       0.0017344044 -0.018842459 -0.01788179 -0.033909112
0002c0 f2 e0 33 3c 76 72 e0 bc 4e e4 42 bc 69 5a 80 bb
       0.010978924 -0.02739833 -0.011895252 -0.0039170277
0002d0 b3 fd c7 bc a4 d4 b9 3b 2e b2 8e bc f6 40 c5 bc
       -0.024412965 0.0056711007 -0.017418947 -0.024078827
0002e0 13 a8 b8 3a 6b 63 a3 bc 08 b5 0f bc 60 69 1a bd
       0.0014088176 -0.019944867 -0.008771189 -0.03769815
0002f0 20 a1 df 3a d9 c2 a4 3b 4a 38 97 bb 91 25 b1 bc
       0.0017061569 0.0050281105 -0.0046148645 -0.021624358
000300 af 1a 84 3c a1 db 1e 3c dd 65 15 bc b0 ac cb bc
       0.016126005 0.009695918 -0.009118524 -0.024862617
000310 de 77 55 bc 94 52 7f 3c b9 df 2d 3c 13 ef 7d bc
       -0.013029067 0.015583653 0.010612422 -0.015498894
000320 c2 3e 2e 3c 0e e0 9f bc db dc 2e bc 9c 76 e7 3a
       0.01063508 -0.019516017 -0.010672773 0.001765925
000330 e2 5b 47 3c fe 51 c6 bc b9 c3 2d 3c 39 f5 15 3a
       0.012167903 -0.024209019 0.010605746 0.000572044
000340 d9 14 46 3c de 44 91 3c 46 b2 35 bc 8a a5 71 bc
       0.012089931 0.017733034 -0.011089867 -0.01474894
000350 a0 fe b3 3b 13 24 cf 3b 54 ba a0 bc 9d b1 9e bc
       0.005493 0.006321439 -0.019620098 -0.019371802
000360 bf 57 fa 3c c2 af 54 3c 55 60 bf bc d1 e9 fb bc
       0.030559419 0.012981357 -0.023361364 -0.03075114
000370 91 43 91 ba 0b 14 61 bc 89 44 80 bc bb 1b a1 ba
       -0.0011082758 -0.013737689 -0.01565768 -0.001229159
000380 06 44 73 bc 23 3a aa bc 6b b8 0f 3c 05 81 f2 ba
       -0.014847761 -0.020779675 0.008771996 -0.0018501586
000390 7d be b9 bc 73 24 9c bc 4c b7 55 3c ca df 07 bd
       -0.02267384 -0.01906035 0.01304419 -0.033172406
0003a0 9d 37 be bc f3 e9 d8 3c 5d 6c 54 3c c2 d9 a8 bc
       -0.023219878 0.026478743 0.012965289 -0.020611648
0003b0 63 20 ce 3c a4 3b fc 3c 06 7d 04 bd 67 1e 53 3c
       0.025161928 0.030790158 -0.032345794 0.012885666
0003c0 02 88 ea bc c1 2f d9 bc c1 52 1a 3c 29 c8 65 bc
       -0.028629307 -0.026512029 0.009419144 -0.014024773
0003d0 83 59 87 bc 06 b0 9e bc 54 c8 bf bc ab c5 81 3c
       -0.016522175 -0.019371044 -0.023410954 0.015841326
0003e0 16 39 a2 3b c3 35 4c bc 49 73 2a 3c 21 26 c2 bc
       0.004950653 -0.01246399 0.010403463 -0.023699822
0003f0 90 4d a9 3c 07 c0 44 3c 71 38 8c bc a6 d6 87 bc
       0.020666867 0.0120086735 -0.017116757 -0.016581845

action_model._discrete_distribution.branches.1.bias f4 [3]
000000 e2 fc 15 bd d7 32 a3 3c dc 11 db 3c
       -0.03661812 0.019921703 0.026741914

exp_avg f4 [128, 48]
000000 4a de 7b 35 0b 45 f4 b6 92 17 fe b6 09 2c d3 35
       9.382826e-07 -7.2798043e-06 -7.572534e-06 1.5733541e-06
000010 27 ce b8 b6 fe c2 d7 b6 52 51 a0 35 11 14 d1 b6
       -5.5076266e-06 -6.4301994e-06 1.1944596e-06 -6.2310214e-06
000020 03 df c3 b6 0d 99 51 b6 dc 6e b7 b4 ee 31 24 b6
       -5.837415e-06 -3.1232514e-06 -3.4167067e-07 -2.4466967e-06
000030 3d 64 c7 b4 04 e0 b8 b6 80 d8 be b6 2b 87 3b 33
       -3.713957e-07 -5.509706e-06 -5.687645e-06 4.3662265e-08
000040 9c d6 9a b6 26 13 b3 b6 e5 07 41 b5 a3 21 99 b6
       -4.6145415e-06 -5.336845e-06 -7.190959e-07 -4.563671e-06
000050 06 2e a9 b6 1c e7 22 b6 b4 54 e4 b5 73 26 b8 b6
       -5.0419503e-06 -2.4274404e-06 -1.7011976e-06 -5.4881034e-06
000060 9f 2a c9 b5 da 63 cd b6 03 72 c2 b6 fa 9f 53 36
       -1.4988071e-06 -6.1211003e-06 -5.7949233e-06 3.1534569e-06
000070 86 72 6e b6 e8 cd 9a b6 0b 60 6d b5 74 70 8b b6
       -3.5531425e-06 -4.6135283e-06 -8.842914e-07 -4.155614e-06
000080 7c 83 9f b6 ca 3c c7 35 14 8e 25 b6 43 e9 59 b6
       -4.753876e-06 1.4844347e-06 -2.4669616e-06 -3.2471296e-06
000090 75 35 45 35 86 00 65 b6 ed 8e 8e b6 e9 fa ad b4
       7.346601e-07 -3.4123964e-06 -4.2485685e-06 -3.2406322e-07
0000a0 31 8b 36 b6 e3 e6 58 b6 31 0c 0b 34 ba 56 f2 b5
       -2.7201133e-06 -3.2320902e-06 1.2949819e-07 -1.8055646e-06
0000b0 0d 0a 4d b6 d1 b7 ed 35 09 71 85 b6 9d 29 81 b5
       -3.055323e-06 1.7711374e-06 -3.976868e-06 -9.62336e-07
0000c0 49 48 66 b4 e8 bd b0 37 9c e1 b5 37 2f dd 97 35
       -2.1446716e-07 2.1069267e-05 2.1681939e-05 1.131475e-06
0000d0 73 5d 97 37 cd d9 a4 37 0d f7 52 b6 aa 2b ca 34
       1.8044118e-05 1.9651745e-05 -3.143624e-06 3.7657202e-07
0000e0 98 9d 79 37 6c 12 5a b6 0b 0f b8 37 9c c3 b8 37
       1.4878249e-05 -3.2495254e-06 2.1941514e-05 2.2025597e-05
0000f0 b2 00 3e b6 c0 93 bb 35 0e e5 02 37 ff 04 65 37
       -2.831261e-06 1.3975587e-06 7.801935e-06 1.3650627e-05
000100 07 54 ba 36 b0 47 e3 36 6c 6b 0c 36 c5 d0 62 b6
       5.553014e-06 6.7734727e-06 2.0924153e-06 -3.3798144e-06
000110 ac dd 1b 36 97 81 71 37 ef 63 1a 36 5b 78 16 36
       2.322583e-06 1.4394892e-05 2.3005957e-06 2.2421798e-06
000120 9a d0 1c 36 75 51 d8 35 7e 0b 4f 36 5b 65 1f 37
       2.3367234e-06 1.6116961e-06 3.0852093e-06 9.500737e-06
000130 65 52 62 36 b2 3a 17 37 2c 09 34 36 f5 0e ae 35
       3.3724584e-06 9.013967e-06 2.682743e-06 1.2968363e-06
000140 30 2c b3 36 62 03 dc 36 2c cb 06 37 98 8c 5a 37
       5.33976e-06 6.5569047e-06 8.034327e-06 1.3026547e-05
000150 af 7e 06 34 c7 64 17 35 7f be 19 37 b5 26 36 35
       1.252581e-07 5.6398534e-07 9.163864e-06 6.785661e-07
000160 c5 5f 1c 37 6a 55 84 37 74 b0 e2 31 de d1 93 34
       9.320623e-06 1.57754e-05 6.597526e-09 2.7533582e-07
000170 bd a7 4b 37 9e 44 a6 37 12 e8 84 b6 80 0a 6f 36
       1.21387975e-05 1.9820694e-05 -3.960923e-06 3.5619887e-06
000180 24 15 77 b7 7d b1 e6 b8 b2 42 ec b8 b4 01 eb 36
       -1.4727269e-05 -0.000110003144 -0.0001126578 7.003744e-06
000190 48 78 cd b8 26 45 e2 b8 3b b6 67 36 6a 03 e8 b8
       -9.797566e-05 -0.000107894 3.4527754e-06 -0.00011063258
0001a0 9d 23 ff b8 a0 44 36 b7 4e 1f 99 b8 0b 67 c9 b8
       -0.00012165981 -1.0864023e-05 -7.3014395e-05 -9.60362e-05
0001b0 19 ca 88 37 dd 29 b2 b8 73 5d 0b b9 31 b1 08 b8
       1.6306572e-05 -8.495499e-05 -0.00013290886 -3.258995e-05
0001c0 c7 c9 99 b8 5f 0b a7 b8 eb 20 3b b6 ae 7c 8f b8
       -7.3331925e-05 -7.9652986e-05 -2.7884332e-06 -6.841995e-05
0001d0 5f ad ee b8 51 ce 11 b8 36 d2 ab b7 63 36 23 b8
       -0.00011381017 -3.476284e-05 -2.0482676e-05 -3.891288e-05
0001e0 6d e9 38 b8 7c e5 b2 b8 29 0b b8 b8 64 f4 8f 37
       -4.4086413e-05 -8.530446e-05 -8.7758825e-05 1.7160732e-05
0001f0 7d ba 0b b8 76 de 54 b8 eb 36 0c 36 dc a2 45 b8
       -3.3313863e-05 -5.075192e-05 2.0893592e-06 -4.7120135e-05
000200 02 7d 9f b8 f0 94 d1 b6 ad dd bd 35 23 d8 35 b8
       -7.604995e-05 -6.246024e-06 1.4146113e-06 -4.3355056e-05
000210 4d 34 bf 36 e7 94 02 b8 42 bb 76 b8 13 61 19 38
       5.698332e-06 -3.113309e-05 -5.8825368e-05 3.656845e-05
000220 b7 8d 71 b8 7f 2c 93 b8 de 50 0e 37 14 78 d0 b7
       -5.759086e-05 -7.017794e-05 8.482688e-06 -2.4851448e-05
000230 25 9b 58 b8 84 0a 14 b8 db 2d b9 b6 dd 1e cd b7
       -5.1642903e-05 -3.5295743e-05 -5.518768e-06 -2.4452276e-05
000240 b0 a5 39 b6 da 73 dc b8 5b 55 ec b8 91 13 82 35
       -2.766359e-06 -0.000105119965 -0.000112692556 9.691449e-07
000250 25 70 bf b8 ff 08 da b8 23 55 73 37 7c 48 ac b8
       -9.128478e-05 -0.00010396726 1.4503751e-05 -8.2151004e-05
000260 1e 61 e0 b8 06 41 f8 b5 be 0d b4 b8 53 f1 d6 b8
       -0.00010699242 -1.8496364e-06 -8.5856285e-05 -0.00010249265
000270 2b 9d c5 b4 e2 36 72 b8 81 c6 c0 b8 4a d0 a8 b7
       -3.6808464e-07 -5.774841e-05 -9.192248e-05 -2.0124153e-05
000280 e9 9b a1 b8 e8 92 b4 b8 fa 88 3a b7 1b 21 3e b8
       -7.706119e-05 -8.610432e-05 -1.1118356e-05 -4.5330362e-05
000290 9f 1e a6 b8 64 90 bf b7 1d 5d 3e b8 1a a3 84 b8
       -7.9212004e-05 -2.2836211e-05 -4.538625e-05 -6.3246305e-05
0002a0 6f df ae b7 25 28 86 b8 68 88 98 b8 a6 60 6c b6
       -2.084646e-05 -6.3970954e-05 -7.2733324e-05 -3.5222997e-06
0002b0 32 62 24 b8 3a ad 8b b8 c2 a9 0f b7 91 25 39 b8
       -3.91921e-05 -6.6603025e-05 -8.562989e-06 -4.4142424e-05
0002c0 e9 4e 88 b8 3f f8 3d b7 a6 d1 2a b8 d7 f8 88 b8
       -6.4996835e-05 -1.1323077e-05 -4.072641e-05 -6.5313354e-05
0002d0 50 1c c2 36 2d 9f 08 b8 6c 7c 82 b8 f8 4a 8c 37
       5.7849466e-06 -3.257317e-05 -6.2220584e-05 1.672421e-05
0002e0 a0 8d 6d b8 af 97 a0 b8 c3 c6 b4 35 37 2e d5 b7
       -5.66371e-05 -7.657648e-05 1.3468892e-06 -2.54131e-05
0002f0 e4 17 82 b8 48 ae 64 b8 2e e4 c3 36 e0 ea 1f b7
       -6.203333e-05 -5.4521748e-05 5.8380165e-06 -9.531825e-06
000300 ac a1 3e b7 b1 83 bb b8 c0 34 d6 b8 3f 8c e1 34
       -1.1362525e-05 -8.941384e-05 -0.00010214141 4.2011558e-07
000310 c0 17 a1 b8 44 33 c1 b8 ed 57 70 37 8a 3f b2 b8
       -7.681502e-05 -9.212506e-05 1.4325587e-05 -8.4995365e-05
000320 49 1d df b8 25 e0 c0 b5 1c 76 93 b8 e8 08 bb b8
       -0.000106389234 -1.4370349e-06 -7.031506e-05 -8.918514e-05
000330 88 9d 2f 37 29 68 a7 b8 52 4c d3 b8 a5 f2 7e b7
       1.0467491e-05 -7.982582e-05 -0.0001007548 -1.5196075e-05
000340 0d 33 8c b8 e6 db a3 b8 93 73 86 b7 eb 51 65 b8
       -6.685229e-05 -7.813405e-05 -1.6027863e-05 -5.4674147e-05
000350 98 ee ae b8 af b9 9b b7 66 4c 14 b8 94 39 6a b8
       -8.341408e-05 -1.8563906e-05 -3.53571e-05 -5.584357e-05
000360 41 3d 81 b7 cd 7f af b8 1f 06 af b8 5d ba 00 36
       -1.5406522e-05 -8.368455e-05 -8.3457904e-05 1.9181964e-06
000370 fc 1e f4 b7 c1 00 76 b8 0c 8b 69 b6 01 29 72 b8
       -2.9101495e-05 -5.8651673e-05 -3.4800642e-06 -5.7735484e-05
000380 59 44 97 b8 80 3f 22 b7 fb 2f ff b7 52 cd 5d b8
       -7.212972e-05 -9.670737e-06 -3.0420711e-05 -5.2881725e-05
000390 ee e0 52 37 70 50 32 b8 4b d6 8d b8 a6 ee 95 37
       1.2569346e-05 -4.251342e-05 -6.763319e-05 1.7873313e-05
0003a0 35 1c 5a b8 01 0c 91 b8 12 1d d8 35 5e 3f a6 b7
       -5.200152e-05 -6.916375e-05 1.6101715e-06 -1.981825e-05
0003b0 78 9e 6e b8 3c 0d 28 b8 74 69 03 37 2d 19 8b b7
       -5.6891207e-05 -4.0066647e-05 7.832761e-06 -1.6581815e-05
0003c0 f5 35 7c 36 5a 65 8a 37 08 2f 93 37 ed 8c 8d 35
       3.7582333e-06 1.6498077e-05 1.7545666e-05 1.0546333e-06
0003d0 2d 83 88 37 69 94 8f 37 1c 3c 88 36 b2 6e 6a 37
       1.6273547e-05 1.7116037e-05 4.0601135e-06 1.397326e-05
0003e0 92 08 a0 37 57 39 64 b6 5b 81 ab 37 f3 31 a8 37
       1.9077477e-05 -3.4008024e-06 2.0445024e-05 2.005042e-05
0003f0 89 6e 76 35 d3 22 e9 36 34 69 9e 37 9a 4c e0 36
       9.180299e-07 6.947995e-06 1.8884057e-05 6.684638e-06
