results/v3/MlAgent/MlAgent-500512.onnx (onnx, 97289 bytes, 9 tensors)

action_model._discrete_distribution.branches.0.bias f4 [3]
00000000: a2c1 fab8 6f25 8dbb 0b61 a03b
-0.00011956996 -0.004307441 0.004894381

action_model._discrete_distribution.branches.0.weight f4 [3, 128]
00000000: fe6c 78bc 962f 103b 1b39 ef3b f473 dcbb
00000010: c180 4e3c 144f c837 4675 283c 15f7 72bc
00000020: 67cd 54bc 82d4 40bc 96ee 7d3b 233a 213b
00000030: 9fbb 4b3c b940 043c 2c24 40bb 7015 8fbc
00000040: f6f0 48bc bd48 c6bb dfc6 e83b 487d 36bc
00000050: 71e8 f73b fa76 f2ba 8b5a d2bb befe bdbc
00000060: 1576 aebb f651 bcbb 281e b0bc 55bd 7fbb
00000070: cea3 d9ba 99c7 b4b9 bedb 6cbb 2803 63bb
00000080: ffaf 9bba c03d 7bbc 5bcf 8b3c 4993 19bc
00000090: d0d1 48ba 626b b33a 5cd4 cebb 5bf7 10bb
000000a0: 18dd 5dbc 0b86 d7bc ef2b 8cbc 69e9 3abc
000000b0: 5465 08bc d8c8 7abb adab 3b3c db13 e83b
000000c0: 8fa6 ea39 c07f 213c 607c e03b 7564 6bbc
000000d0: 7c0e 7dba cd3f 1c3c ecca f53b 744e 3b3b
000000e0: bf9d 9fbb 999a 82bb ce05 8e3b 196f 66bc
000000f0: 28e1 a9bb 0afa 2c3c 4ad0 b3ba 7bb4 b7bb
00000100: da69 29bc e990 a5bb d0e8 4cbc b443 0cbc
00000110: abc3 cd3a b007 42bc 63c3 06bb 5027 a63b
00000120: 8eb0 163b 09fd db3a 53e9 5bbc 70a7 993c
00000130: 4f2d a0bc 46cd 95bb 3196 46bc 69a5 54bc
00000140: 357b 98bc 34ab deb9 1744 933b f7d5 58bb
00000150: 975d 43bc 09f3 7ebb ca43 f13b ad2c 973c
00000160: 074f 9e3a 9a02 81bc cc48 3b38 3845 2d3b
00000170: 4314 843b cde4 f33b 3b55 143c 8d99 f9bb
00000180: a55e 90bc 6f53 1bbc 4ece 3cbc 620c 2abc
00000190: 8963 9abc 2ade 0fbc 27c8 3d3b 437b 073b
000001a0: 4ff9 24bc b70b 71bc 62de 89bb 3dea d6bb
000001b0: 94c2 5ebc 5dd2 9e3b 5056 5abc c28f fabb
000001c0: 7a2f 1ebb 2e7d d1ba 294f 24bc 856b 4fbb
000001d0: e377 ed3b 786f d83a d623 b0bb 47eb 823b
000001e0: 1df0 30bb c853 6b3c 75aa 33bb 9f1b ebbb
000001f0: 5cf2 87bc 0cec d23b fd47 5cbc b4f1 8d3c
00000200: 0e00 343c 132d 4d3a 65e6 5bbb 4165 193c
00000210: 02f2 693c 7a10 21bb dbc2 c5bc 39fa c03c
00000220: 16ed 5f3b f22e d33b 4fd1 15bc 4b9d febb
00000230: 53b4 dfbb 7fef a63a 00f9 d9bb 8124 5e3c
00000240: 8d13 4bbb beba 6c3b c0cf c5bb 3b6b a0bb
00000250: e507 f93b b56d ba3b bd20 9cba 6f3b 13bb
00000260: 3069 8cbc bd80 673c 2cd8 85bb a4b0 cbbb
00000270: d350 273c f934 f5bb 3e60 853c 47fe 783c
00000280: c4ac e7bb 362a 7e3c 7adb ca3b 9c4f 69bc
00000290: 15a4 313c 22af ba3b 56ce 65bb fa60 eabb
000002a0: 91e2 a8bb 3735 ff3a 4af6 a4bb 678f 4dbc
000002b0: a400 bc3a 9627 5a3c fe86 f23a 0e27 8fbb
000002c0: e0f9 7ebb 2a30 40bc bc12 3c3b c053 0cbb
000002d0: fa01 bcbc 9bde 38bc d21c 07bc 2785 013a
000002e0: 4274 00ba a155 39bb b3b9 ddbb 4670 c1bc
000002f0: b25b 593b 8f1c 1bbc 70a9 2abc 0c2f 0cba
00000300: 7a20 db3b b24f 803c fd07 7fbc a8d5 64bc
00000310: 4abf 81bb 46b5 bc3b ddd9 57bb f131 833c
00000320: 2e6b 1c3c 6845 b53a 64c7 493c 491f f6bb
00000330: 5446 353c a26d 64bb d890 763b 10a6 4e3b
00000340: 3b02 1cbc 6dbe 9939 d12c 0d3b 6559 023c
00000350: 7b94 533c ab41 66bc 06a3 20bc 44f7 a13b
00000360: 1c28 0a3c 3634 e83b 63de 2cbc cb64 653c
00000370: a939 073c 64ed 973c bcf9 8cbc e7f7 203c
00000380: dc2b 4a3c 9496 5abc 104e 7f3c 8789 2a3b
00000390: 757c 083b 908c 863c 9580 0f3c 081a 29bc
000003a0: 209f 323c 7056 b53a 5220 5e3b 3db9 4cba
000003b0: 1f59 d7bb ca8e 6d3b 2f7b 94bb e969 343b
000003c0: ae5d e33b a72e 873b b8fa 053c 5a96 c03b
000003d0: 9b5e e1bb f619 a4bb 4ea7 24ba 29ba 433b
000003e0: 0379 55bb 0476 2abc 7d2a 65bb 6dbb f9bb
000003f0: 1a00 f53b b0b6 e93a f20c 283a ac9e 293b
-0.0151627045 0.002200102 0.0073005087 -0.00672769 0.0126039395 2.3878682e-05 0.010281866 -0.014829417
-0.012988425 -0.011769416 0.0038746945 0.0024601303 0.012434869 0.008072072 -0.0029318435 -0.017466277
-0.012264481 -0.0060511515 0.0071037854 -0.011138268 0.007565551 -0.0018498593 -0.006419485 -0.02319276
-0.005324135 -0.005747075 -0.021498755 -0.0039022763 -0.0016604604 -0.00034480987 -0.0036141719 -0.0034639332
-0.0011878012 -0.015334547 0.017066648 -0.009373494 -0.0007660659 0.0013688619 -0.0063119363 -0.0022120092
-0.013541482 -0.026309034 -0.017110793 -0.011408188 -0.00832494 -0.0038266685 0.011454505 0.007082445
0.00044756054 0.009857118 0.006850764 -0.014367213 -0.00096533424 0.009536696 0.007500997 0.0028580697
-0.0048710997 -0.0039857146 0.004334188 -0.014064574 -0.0051843114 0.010557661 -0.0013718691 -0.0056062317
-0.010340178 -0.005052675 -0.012506679 -0.008561064 0.0015698572 -0.011842653 -0.0020563237 0.0050706044
0.0022993418 0.0016783784 -0.013422328 0.018756598 -0.019552855 -0.0045715896 -0.012120769 -0.01297889
-0.018613437 -0.00042470696 0.004494201 -0.0033086517 -0.011924169 -0.0038902184 0.0073628174 0.01845392
0.0012077995 -0.01574831 4.465207e-05 0.0026438963 0.0040307357 0.0074430467 0.009053524 -0.0076171816
-0.017623255 -0.009480341 -0.011523796 -0.010378929 -0.01884629 -0.008780995 0.0028958411 0.0020672835
-0.010069205 -0.014712266 -0.0042074183 -0.006558685 -0.013596196 0.0048468546 -0.013326243 -0.007646532
-0.0024137185 -0.0015982741 -0.010028639 -0.003164978 0.0072469576 0.0016512712 -0.0053753657 0.0039953324
-0.0026998587 0.014363237 -0.0027414833 -0.0071749236 -0.016595058 0.0064368304 -0.013444898 0.017327167
0.010986341 0.0007826846 -0.0033554074 0.00936252 0.014278891 -0.0024576471 -0.024140766 0.023556815
0.0034168414 0.0064448053 -0.009144141 -0.0077702156 -0.0068269162 0.001273617 -0.0066519976 0.013558508
-0.0030986995 0.003612205 -0.0060367286 -0.0048955954 0.007599818 0.0056893476 -0.0011911612 -0.0022465845
-0.017140001 0.014129815 -0.0040846076 -0.0062161256 0.010212141 -0.0074831215 0.016281243 0.015197343
-0.007070156 0.015512994 0.0061907144 -0.014240172 0.010842343 0.005697147 -0.0035065613 -0.007152674
-0.005153962 0.0019470815 -0.0050342428 -0.012546397 0.0014343453 0.013315102 0.0018503366 -0.0043686694
-0.0038906261 -0.011730233 0.002869769 -0.0021412224 -0.022950161 -0.011283542 -0.008246617 0.0004940801
-0.0004900136 -0.0028279799 -0.006766522 -0.023613106 0.0033166227 -0.009467258 -0.010416374 -0.00053475867
0.006687221 0.015663002 -0.015565869 -0.013966955 -0.003959571 0.005758914 -0.0032936253 0.016015025
0.009547038 0.0013829889 0.012315605 -0.0075110537 0.011064131 -0.0034855385 0.0037622955 0.0031532086
-0.009522016 0.00029324312 0.0021541605 0.007955884 0.0129138185 -0.014053742 -0.009804493 0.0049428064
0.008432414 0.007086302 -0.010551068 0.014001082 0.008253493 0.018545814 -0.017208926 0.0098247295
0.012339558 -0.013341565 0.015582576 0.0026021914 0.0020826135 0.016424447 0.008758684 -0.010321148
0.010902196 0.0013834964 0.0033893776 -0.0007809585 -0.0065719034 0.003624844 -0.004531286 0.0027528948
0.0069386577 0.0041254344 0.008177452 0.0058772983 -0.006877733 -0.0050079776 -0.0006281034 0.0029865599
-0.003257335 -0.010404114 -0.0034967952 -0.00762122 0.0074768187 0.0017830934 0.00064106204 0.002588193

action_model._discrete_distribution.branches.1.bias f4 [3]
00000000: b8e4 22bd 7d6d ec3c 3b9a 283c
-0.039768904 0.028860802 0.010290678

action_model._discrete_distribution.branches.1.weight f4 [3, 128]
00000000: 8f88 543d f33c 03bd 6f1b 50bd 6c0c 5f3d
00000010: 202b eabc 0e6a 21bd 0b4a 67bd 0c2f a3bc
00000020: d5f0 f3bc 56f8 e8bc aeef e8bc 3691 233d
00000030: 16a5 f6bc 7ccb 4a3d c460 3e3d efa7 11bd
00000040: 4bf3 2c3d 2053 263d 29b6 2f3d e3d9 f7bb
00000050: 6d70 3e3d 9222 fcbb 3295 09bd aabf 553d
00000060: 64bf 3ebd 5388 583d 096b 823d c4ad 30bd
00000070: 3120 443d 52a8 bbbc a750 e63c c92a 233d
00000080: b739 593d 2fdd 0fbd c05e 4b3d 83c6 00bd
00000090: d877 343d 76a1 4dbd a9ca 273d 92bc e1bb
000000a0: f61c 193d 5828 a33c d340 c4bc 6888 e53c
000000b0: 548e f1bc 9a22 dbbc f927 433d 0815 153d
000000c0: f1cd 1c3d 8945 57bd 17be 87ba 47bd 013d
000000d0: 9914 0dbd 7986 26bd 016b 873d ab54 2fbd
000000e0: 1381 36bd 87bd 12bd ed90 5a3d 1820 3dbd
000000f0: 0272 fabc 9338 e4bc fb30 e7bc 9d52 0dbd
00000100: ea39 4e3d c72c 2b3d 2e00 cbbc 4710 68bd
00000110: 1d58 33bd f9c3 113d 963a ea3c 9df6 493d
00000120: a1b2 443d 37c8 053d 1508 623d 5367 19bd
00000130: ac1d 383d c8ba 5f3d f780 f6ba bb3d 36bd
00000140: 6133 393d efb9 0dbd 9515 1f3d bb42 3d3d
00000150: 94fc 283d 71cd 0abd 9786 a6bc 16a1 ffbb
00000160: e054 2f3d 348d 5dbd 87c0 4dbd 4f1a 493c
00000170: 61fc 4e3d c5f7 e83a d802 fcbc 5b8c 6c3d
00000180: 705c 8c3c 81b7 223d b368 213d 728c 2ebd
00000190: e4bb 143d 22be ba3c af5a 263d 0d46 223d
000001a0: b6b9 2e3d 2e0e 62bd 3d11 1cbd 8f78 4abd
000001b0: 67a1 0dbd 396b b8b7 e73d 4cbd c79f 2f3d
000001c0: b9cb 60bd 6a77 08bd 01cc 23bd 5217 48bd
000001d0: 709f 4b3d 7b0e cc3c a403 43bd f445 13bd
000001e0: 61a4 42bd c858 323d 18e6 463d f825 43bd
000001f0: 1148 f83c 6631 1e3d eef1 b7bc 29d4 303d
00000200: f271 eabc 4d0f 2f3d d34f 8b3c b6d8 8fbc
00000210: 9947 933c b1d1 943c a1b9 a53c 8455 143d
00000220: d33f fb3c 4133 593c c332 cb3c 9a95 03bd
00000230: ffa8 e13b dbdc c7bc bddf fabc 494f c13c
00000240: 3ffe 40bd b751 86bc 9ed8 aebc 6122 3abc
00000250: 4d3b ebbc 6d94 9a3b 3f91 053c 9c3a 35bc
00000260: 8186 4b3c 24a5 e9bc 287d ebbc 4391 283d
00000270: 586a 21bd 247d 2a3c 30e7 c6bc e716 eabc
00000280: 5772 01bd 6f72 e73b 84a4 cdbc 5b38 733c
00000290: 5869 2bbd 016a 743c 7adf 02bd e2f1 653c
000002a0: 716b a9bc abb5 243c c09a 423c e032 2d3b
000002b0: b7fe d63c 1f13 7f3c 5f5b 0abd cf5f cebc
000002c0: 7e80 2dbc 300d 2e3d f8a2 873c abfa ccbc
000002d0: 144a a7bc 82c1 cf3c d2f5 b5bc 7089 a73c
000002e0: d42c 943c f3a6 833c 076c 36bd 0628 553c
000002f0: 4a42 053d 92c1 ee3c e049 d43c 5a64 853c
00000300: 9583 08bd d0df 30bd 52c2 f23b b5a4 1e3d
00000310: 6f5c ca3c 4daa 93bc 7fe5 15bd 0fb1 dbbc
00000320: ae90 0bbd cb39 03bd 0249 f9bc 949a 063d
00000330: d718 cbbc 9470 1cbd 5854 ad3c 4de3 e43c
00000340: d4e1 6ebc 6448 bf3c 573d 87bc b1e8 c2bc
00000350: c931 27bd ea46 893c 1055 1dbc a149 64bb
00000360: 40d6 fbbc 6136 253d 41ad b53c 9389 b7bc
00000370: 67a9 9abc 37a5 bc3b 15a4 c83c 638d b4bc
00000380: 0b84 2cbd ddaf 23bd 5821 17bd ad7a 393d
00000390: c404 cabc 693b 393c 3a37 a2bc b85c 01bd
000003a0: 424f 4dbd d8dc cb3c b4bd 9e3c 952e 973c
000003b0: 1172 8d3c 3d68 b138 04be dc3c 16e4 d3bc
000003c0: a75e dd3c b653 503c c67e adbb 9c8b d53c
000003d0: 5430 38bd a0cd eabc a129 ca3c 1dcb 493c
000003e0: 5c20 703c a6bc 28bd f5cb 33bd ba07 b43b
000003f0: 48b9 02bd 2fd2 0abd acd1 1e3c 4998 b1bc
0.051888045 -0.032040548 -0.050807413 0.054455206 -0.028585017 -0.039407782 -0.056467097 -0.019919895
-0.029777924 -0.028438728 -0.0284346 0.039933406 -0.030108016 0.049510464 0.046479 -0.035560545
0.04222421 0.040606618 0.04289833 -0.007563816 0.046493936 -0.007694551 -0.03358955 0.05218474
-0.046569243 0.052864384 0.063680716 -0.043134466 0.047882263 -0.02290741 0.02811463 0.039835725
0.053033557 -0.035123046 0.049650908 -0.031439316 0.044059604 -0.05020281 0.040964756 -0.0068889344
0.037381135 0.019916698 -0.023956692 0.028019145 -0.029486813 -0.026749898 0.047645543 0.03639701
0.03828234 -0.05255655 -0.0010356334 0.03167465 -0.03444347 -0.040655587 0.06612206 -0.042805355
-0.04455669 -0.03582528 0.05336087 -0.046173185 -0.030571941 -0.027859008 -0.028221598 -0.034502614
0.0503482 0.04179075 -0.02478036 -0.05665615 -0.043785203 0.035587285 0.02859239 0.049307454
0.048021916 0.032661643 0.05518349 -0.037452053 0.044950172 0.054621488 -0.0018806745 -0.044492465
0.045215014 -0.03460115 0.03883894 0.046206217 0.041256502 -0.03388733 -0.02032785 -0.0078011854
0.042805552 -0.05408974 -0.050232437 0.012274339 0.050533656 0.0017774036 -0.030763075 0.05775104
0.017133921 0.039725784 0.03940649 -0.042614408 0.036312 0.02279574 0.040613826 0.039617587
0.042657577 -0.055189304 -0.038102377 -0.04943138 -0.034577753 -2.1984439e-05 -0.049863722 0.042876985
-0.054881785 -0.033317007 -0.039989475 -0.048850365 0.0497126 0.024909249 -0.047610894 -0.035955384
-0.047520045 0.0435417 0.04855928 -0.04764363 0.030307801 0.03862133 -0.022454228 0.04317108
-0.028618786 0.0427392 0.017005837 -0.01755939 0.017978476 0.018166395 0.020230116 0.036214367
0.030670082 0.013256849 0.024804479 -0.032125093 0.006886601 -0.024397304 -0.030624265 0.023597376
-0.047117468 -0.016396387 -0.021343525 -0.011360736 -0.0287148 0.0047174008 0.008152305 -0.011061337
0.012422205 -0.028521128 -0.028746203 0.041154157 -0.039408058 0.010405812 -0.02428016 -0.028575374
-0.031603184 0.007063202 -0.025102861 0.014844979 -0.04184851 0.014917851 -0.031951405 0.01403472
-0.020681115 0.010053079 0.011877716 0.002642803 0.026244504 0.015568524 -0.033778545 -0.02519217
-0.010589717 0.042493045 0.016557202 -0.025021872 -0.020421065 0.025360826 -0.022211943 0.020451277
0.018087782 0.016070819 -0.044536617 0.013010031 0.03253392 0.029145036 0.025914133 0.016283203
-0.03332861 -0.043182194 0.0074084187 0.038731296 0.024702279 -0.018025542 -0.036595818 -0.026817827
-0.034073524 -0.032037538 -0.03043032 0.03286226 -0.024792118 -0.0381933 0.021158382 0.027940417
-0.014580209 0.023349948 -0.016508741 -0.023792597 -0.040818963 0.016757447 -0.0096028 -0.0034833925
-0.03074181 0.040335063 0.02217734 -0.022404468 -0.018879605 0.005757 0.024492303 -0.022040075
-0.042118113 -0.03996264 -0.036897033 0.04528301 -0.024660476 0.011305668 -0.019801725 -0.031582564
-0.050124414 0.02488558 0.019377567 0.01845483 0.017266305 8.4594336e-05 0.026946075 -0.025865596
0.027022673 0.012715271 -0.0052946536 0.026067548 -0.044967964 -0.028662503 0.024678053 0.012316492
0.014656153 -0.041195534 -0.04389568 0.005494085 -0.03191498 -0.033891853 0.009693544 -0.02167906

discrete_action_output_shape f4 [1, 2]
00000000: 0000 4040 0000 4040
3.0 3.0

network_body._body_endoder.seq_layers.0.bias f4 [128]
00000000: 7909 43bd 8ce9 b43c e65e fcbc 9628 58bd
00000010: c108 a13c f59b bf3c ed1a 55bd 16c5 c73c
00000020: 09da 263d 2087 d7bc 2620 19bd b8a5 1c3d
00000030: 3c86 293d cd90 263d aedf 2dbb 71bc 2ebd
00000040: c38d 4e3d 0410 fa3c 3ec4 25bd 2a6c 40bd
00000050: 5b82 8ebc 1a0d 073d fd8f 1dbd d5e1 7fbc
00000060: fd78 b838 55f3 3fbd 5aef cd3a dd12 3cbd
00000070: 3ed5 52bd b93e b7bc bde0 283d d5df f3bc
00000080: 1d32 053d 5a49 59bd 7805 323d 3ad4 353d
00000090: 6fd1 1dbd 08aa 33bd bfa9 153d 0ad4 9e3c
000000a0: 134d c23c 285f a6bc c3c5 64bd d3bb 75bd
000000b0: 0576 0e3d accf 083d 18f9 093b 8d32 26bd
000000c0: e2f6 1a3d 71bf 7abd 8e8b 0ebb 2a81 14bd
000000d0: 40f7 1b3d 2ff1 083d 2494 1abd aec8 22bd
000000e0: 5210 613c a436 273d 44d8 1ebd 55c7 05bd
000000f0: dcab b53c e930 913c 7f69 073d 6f7c 293d
00000100: 524b 35bd ae3e 85bb 5070 74bd a7e1 253d
00000110: f6d9 8f3c 0364 2ebd f574 37bd 172a 2e3d
00000120: 5471 f43c b5da 2ebd 38d7 1e3d f115 17bd
00000130: 82c1 363d 9b52 34bd 2cc2 02bd c702 073d
00000140: 0ed2 fbbc 95ab 263d a9ba 77bc 17a6 acbb
00000150: 600a 493d 9176 163d 5854 2f3c e129 353d
00000160: fe91 13bd 714c c4bc 5d02 dcbc 244c 34bd
00000170: 5901 473d 1520 50bd d5ca 253d b4f2 acbb
00000180: c653 fabc d5b0 973c 044f 45bd b2e8 5bbd
00000190: 2d33 fe3c 4330 51bd d49e 533c 283a 1ebd
000001a0: c55a e83c 4c67 31bd 96e0 8cbc 06ba fabc
000001b0: 4975 9f3c 93d7 393c 44b5 923c ce63 10bd
000001c0: 8884 6cbc 716b 003d 4c3b 7bbc 2c1e fe3c
000001d0: bb97 3ebc 5123 37bd 9451 0dbd 5193 a13c
000001e0: d485 1d3d 732e 2fbd df67 5cbd 4375 03bd
000001f0: 22ae ef3c 1f8a 93bc 1f21 9a3c a1ba 203d
-0.047616456 0.02208402 -0.03080697 -0.05277308 0.019657495 0.023389796 -0.05202763 0.02438597
0.04073528 -0.02630955 -0.037384175 0.03824398 0.04138778 0.040665437 -0.0026531029 -0.04266018
0.050428163 0.030525215 -0.040470354 -0.046978153 -0.017396143 0.03297148 -0.038467396 -0.015617807
8.7963395e-05 -0.04686292 0.0015711591 -0.045916427 -0.051472895 -0.022368776 0.041229952 -0.029769817
0.032518495 -0.05304847 0.043462247 0.04439185 -0.03852981 -0.043863326 0.036538836 0.019388217
0.023718392 -0.020309046 -0.055852663 -0.059993576 0.03478052 0.033401176 0.0021053012 -0.040575553
0.037833102 -0.06121773 -0.0021750662 -0.036255993 0.038077593 0.033433136 -0.037738934 -0.039742164
0.013736801 0.040823594 -0.038780466 -0.0326608 0.022176675 0.017723517 0.033059593 0.041378435
-0.044261284 -0.00406631 -0.059677422 0.040498402 0.017559987 -0.042575847 -0.044789273 0.04252061
0.029839195 -0.042689044 0.038779467 -0.03688616 0.044618137 -0.04402409 -0.031923458 0.032961633
-0.03073981 0.040690977 -0.015120187 -0.005268823 0.04908216 0.036734167 0.010701261 0.044229392
-0.0360279 -0.023962231 -0.026856596 -0.044017926 0.04858527 -0.050811846 0.04047664 -0.005277956
-0.030557524 0.018516937 -0.04817106 -0.053688712 0.031030262 -0.051071417 0.012916286 -0.03862968
0.028363595 -0.043311402 -0.017196935 -0.030606281 0.019465106 0.011342901 0.0179087 -0.03525143
-0.014435895 0.031352464 -0.015333962 0.031020246 -0.011632855 -0.044711415 -0.034501627 0.019723566
0.038457707 -0.042768907 -0.053809997 -0.03209425 0.029257838 -0.018010197 0.018814621 0.039240483

network_body._body_endoder.seq_layers.0.weight f4 [128, 48]
00000000: 60d1 433d 1329 573e e470 f0bd bb57 713c
00000010: a5cd 60bd 6a7a 5bbe c2b7 9dbd cd06 48bd
00000020: 3a4f fbbd ec7f b3bd ec63 af3d 86f4 87bd
00000030: 4d93 a43d 4fc8 dabc 0c9f 9bbd f25c 93be
00000040: 4380 07bd 0e4f a1bd 8a0e cdbd c186 1fbd
00000050: 083a dfbd f9f0 0abd 54e4 0cbb 37ac 80be
00000060: b3b7 84be bcc8 d4bd 5eb2 a3bd cdb1 dfbc
00000070: 3c0b 9ebd 0ec5 00bd c3b4 0bbe 664a b939
00000080: a783 b2bd d06b c13c d25f 01bd 8bd1 9fbd
00000090: 9503 2a3e 4a9a 053d eca5 833d 6513 023e
000000a0: b01d d4bd c029 a63e 1566 98bd 8dd0 33be
000000b0: b97c 1ebd 0017 4d3e 14f6 aebc 9a17 3a3e
000000c0: d26b 903e 8571 9cbd c0e6 c43b 867b 073e
000000d0: b814 0bbe 27ad 2a3d 564e 1e3e 8003 45bc
000000e0: 7c26 27be cfb6 2fbe 67b4 753d 8bbb 2bbd
000000f0: a780 3f3d 735c c3bb ad1d b43d 4386 80bc
00000100: ac36 833c eed3 2c3c a071 5c3a e378 33be
00000110: 150b ad3e 9d2d 613d ec0e df3d cce5 4f3d
00000120: 92be 913d ca7b 36be 2e9d 76bd d1ce 3bbd
00000130: 0b84 743e ede2 cbbc 3871 993d 0607 133c
00000140: 5bd2 9abb 6a40 553e f26b 9b3e 6f01 ee3e
00000150: 3d17 2d3e 5656 a13d 1a62 0c3e 2234 58be
00000160: 37e8 a73d 9609 d43c dcac 8a3d b369 ef3d
00000170: 1919 32bd cf19 ac3e 9928 403e b1c7 083e
00000180: a421 ccbc 2b2d 6fbd 8780 c8bd a177 aebd
00000190: eae5 13bd ef40 74be 13b0 963d aee4 1dbe
000001a0: 51ba 373e 1b04 d8bd ea73 643e 9eea 4fbe
000001b0: b47d f5bd bd8e 6ebd 3f7a 273e 5a41 e63d
000001c0: 8e90 41bd 1021 dbbc c72d 053d 99e6 8e3e
000001d0: 68be 23be 2f8f 7f3c 0425 50be a102 afbd
000001e0: a4cd babc b717 40be 048f 32be 62c2 3dbe
000001f0: 611e e33d b6d1 1d3e 1919 28be f85c 84bc
00000200: 99f1 d3bd fcf8 d8bd 35cc 0b3b 81c7 47bd
00000210: cd8d a33e a479 1a3e 99a4 d6bd e79a b5bd
00000220: d8e3 bfbd 0f08 443e 7c17 cc3c 011e 413e
00000230: 34ac a3bd d555 5ebe 10a3 58be 77cb c73e
00000240: 20b6 093d 4432 04bd 9cb9 6a3e 7a09 06be
00000250: 6581 05be efbe a2be f5a7 fc3d 3abe 36bd
00000260: a55c 263e f3e2 01be 238b 97bd 5083 cfbd
00000270: a3d6 15bb ab88 adbe f08f 96bd 0e1c f8bc
00000280: 0fe9 0fbd 5eaf dcbd 92a2 80be 152f 023d
00000290: 045d 7bbe 0b49 9fbd 1253 a33d 5fe1 9bbd
000002a0: 1429 2bbe 2d4b ac3d da52 4dbd 53f4 e5bb
000002b0: c95e 9dbd f7fa 80bd 87a4 50be 32f5 853d
000002c0: d376 5ebe 67cc 6cbc 8316 f73d 529b 3fbd
000002d0: a1e0 943d e513 29bd 100b 8ebd f745 97be
000002e0: 8c24 a33d 459a e73d 0727 7c3c 0e96 24be
000002f0: 317c 9ebe 6fd4 f53c 6afd e2bd 7a7e 173e
00000300: 99ed ddbb a092 173e af73 85be 51ce bb3e
00000310: 94be 2b3e c241 f1bb 7bd1 663d 208c 50be
00000320: 2f8e 6a3e 01c3 b53e b25d 1cbe e959 f8bd
00000330: ac19 1d3e 799d 4abd 87e3 d33c e824 6a3d
00000340: 5c9f 3fbd aa82 e63d b87e 4c3d 5348 d9bc
00000350: 057b 803d 467c dbbd abbf fd3d 5036 5b3d
00000360: c767 143d afd4 713d 71ee 45be 8a95 563d
00000370: 9931 913d 8395 123e 9a17 163e 00ca 5c3e
00000380: 9a11 a63d 72a5 85bd 3198 033d 18fa 9bbc
00000390: 83a1 853e 3810 523d 4a81 973e f370 143e
000003a0: 7886 3dbd f8c6 a7bd 4ca2 96bb 0d32 543d
000003b0: f3ce 143e 318a 2c3b c7b5 2fbe a04d 28bc
000003c0: 4d1a 23bc c8dc 2d3e e9d1 b63d c0ed a93e
000003d0: db08 e93d 08b9 5f3d 0d5b 86bd 8b9e c83e
000003e0: 9422 be3c fc42 45bd b9db 023e 6a94 b0bd
000003f0: 7b97 203d dca9 85be 4f69 c93d e161 ff3d
0.047807097 0.21011762 -0.11740282 0.014730389 -0.054883618 -0.21433416 -0.07701065 -0.04883461
-0.12270971 -0.087646335 0.085639805 -0.06638436 0.08035908 -0.026706843 -0.07598695 -0.2878185
-0.033081304 -0.078764066 -0.10012539 -0.03894687 -0.108997405 -0.033921216 -0.00214984 -0.2513139
-0.259214 -0.103898495 -0.07993005 -0.027306462 -0.077169865 -0.031437926 -0.13643174 0.0003534138
-0.08716517 0.02361098 -0.031585522 -0.07803639 0.16602929 0.032617845 0.064281315 0.12702711
-0.10357225 0.32453728 -0.074413456 -0.17560025 -0.038693164 0.20028305 -0.021357574 0.18173066
0.2820726 -0.0763884 0.006008953 0.13230714 -0.13582122 0.041669037 0.1545957 -0.01202476
-0.16323274 -0.1715958 0.0599865 -0.0419269 0.04675355 -0.0059619485 0.08794723 -0.015689021
0.01601728 0.010548575 0.00084092654 -0.17526583 0.33797517 0.05497514 0.10891518 0.05075626
0.071164265 -0.1782066 -0.060208492 -0.045851532 0.23878495 -0.02488848 0.07492298 0.0089738425
-0.0047247834 0.20825353 0.30355793 0.4648547 0.16903396 0.078777954 0.13709298 -0.21113637
0.08198588 0.025883477 0.067712516 0.116900824 -0.043480966 0.3361344 0.18765487 0.13357426
-0.024918385 -0.058392685 -0.0979014 -0.08518911 -0.036107935 -0.23852895 0.07357802 -0.15419266
0.17942168 -0.10547658 0.22309843 -0.20304343 -0.119868666 -0.058241595 0.16355227 0.112429336
-0.047257 -0.026749164 0.03251436 0.27910307 -0.15990603 0.0155981025 -0.2032662 -0.08545423
-0.022803135 -0.18759046 -0.17437369 -0.18531182 0.11089779 0.1541203 -0.16415824 -0.016157612
-0.103488155 -0.10594365 0.0021331434 -0.048774246 0.31944123 0.15085465 -0.10480613 -0.08867436
-0.093696296 0.19143699 0.024913542 0.18859102 -0.079918295 -0.2171243 -0.21155953 0.3902242
0.033620954 -0.0322745 0.22922367 -0.13089553 -0.13037641 -0.31786296 0.12336723 -0.044615008
0.16246279 -0.1268423 -0.07399585 -0.10132468 -0.002286353 -0.33893332 -0.07351673 -0.030286815
-0.03513437 -0.10775636 -0.2512403 0.031783182 -0.24547201 -0.07777604 0.07974829 -0.076113455
-0.16714889 0.08412776 -0.05012784 -0.007017651 -0.076840945 -0.06297868 -0.20375262 0.06540908
-0.21725015 -0.01445303 0.12064841 -0.046778984 0.07269407 -0.04127874 -0.06935704 -0.29545566
0.07965955 0.113087215 0.015390164 -0.16072866 -0.30954126 0.030008523 -0.11083491 0.1479434
-0.0067727086 0.14802027 -0.26064822 0.36680844 0.16771919 -0.0073625753 0.05635212 -0.20365953
0.22905801 0.3550034 -0.15270117 -0.12126524 0.15341824 -0.049466584 0.02586533 0.057164103
-0.046782836 0.11255391 0.049925536 -0.026523745 0.06273464 -0.10717063 0.123900734 0.053518593
0.036231782 0.05904072 -0.1932924 0.052388705 0.07089538 0.14314847 0.14657441 0.21561432
0.08108826 -0.06525697 0.032127563 -0.019040152 0.26099786 0.051285 0.29590827 0.14496212
-0.046270818 -0.08192247 -0.004596984 0.051805545 0.1453207 0.0026327486 -0.17159186 -0.0102724135
-0.009955001 0.16978753 0.08926756 0.331892 0.11378642 0.05461982 -0.06560335 0.3918346
0.023209848 -0.048159584 0.1277913 -0.08622058 0.039206963 -0.26106155 0.09834539 0.12469841

network_body._body_endoder.seq_layers.2.bias f4 [128]
00000000: 0afe 06bd cd39 ab3c 342e 0b3d e227 ecbc
00000010: a562 b53c 3edb d53c 9436 0b3d 9969 8a3c
00000020: 3f2e 043d 7864 f93b 0046 1e3d b8df 0abd
00000030: 6073 d63c 1e06 11bd cd93 1fbd b578 c43c
00000040: 1994 0abd 1ecd 15bd 86ab f2bc b37c b1ba
00000050: ca27 c9bc 03a8 683b f3e5 cc3c 1920 0ebd
00000060: 4000 f03c ea57 29bd 8973 1cbd 6198 083d
00000070: fe12 05bd 5a64 8c3c 31dc b5bc a8a0 e0bc
00000080: a50e 1bbd bc4c 923c 6bac 08bd 8392 083d
00000090: 3e7e 03bd 2958 1d3d 5841 e1bc c0a7 4c3b
000000a0: 21f7 c9bc fee4 04bc ffaa 253c 08dc e9bb
000000b0: 5e95 6a3c 9c96 893c e24b 0bbd 3804 0abd
000000c0: 635b d1bc 2d2e 263d 5476 273c df00 0cbd
000000d0: 8927 db3c e198 113d 5542 13bd c54b f13c
000000e0: 56b2 163d 35fb f03c 0dde 07bd edab ec3c
000000f0: 0a7d e83c c75a a33c 0073 a13c 1dec 933c
00000100: c80f 26bd 5abb 10bd 940c 923c c321 2d3d
00000110: 3ab0 f13c 75f9 6fbc 2d2c b4bc 435f 05bd
00000120: eb64 dabc 3167 cbbc b7ad 16bd 6d39 103d
00000130: 5d1c 07bd 4176 0fbd e4eb febb 16c8 f33c
00000140: 3e8c adbc e749 e33c abb3 e8bc f4b8 07bd
00000150: 18fb 06bd a188 123d 8fe5 743c 5a8e 863c
00000160: a6fd 0bbd 3f4c 163d 8747 203d 558b b3bc
00000170: 39d0 17bd e64c 00bb 22f7 d93c fd58 03bd
00000180: 4c88 08bd bf80 05bd c306 f2bc 7f38 213d
00000190: d51a 01bd dadc 50bc a72c 21bd fd07 f5bc
000001a0: 7c3e e1bc 0884 0a3d 8300 ab3c baae 153d
000001b0: be08 be3c cbc6 afbb b47f 1e3d 9e40 14bd
000001c0: a2d0 233d df1a 103d 4370 993c 5198 333d
000001d0: 9773 14bd be31 b0bc 1ce5 063d bd47 183d
000001e0: 6bb6 1c3d 79b8 0fbd 9583 fabc 5b98 f63c
000001f0: 4b38 febc 6c16 0bbd 4c3e 803c 0b15 cabc
-0.032957114 0.020901585 0.03397961 -0.028827611 0.022141764 0.02610552 0.033987597 0.016896056
0.032270666 0.0076108538 0.038640976 -0.03390476 0.026178062 -0.035406224 -0.038959313 0.023983339
-0.033832643 -0.036572568 -0.029622804 -0.0013541192 -0.024555106 0.0035500533 0.025011992 -0.03469858
0.029296994 -0.041343607 -0.03819612 0.033348445 -0.032488815 0.017137695 -0.022199722 -0.027420357
-0.037855763 0.017858855 -0.033367556 0.03334285 -0.032102816 0.038414154 -0.027496979 0.0031227916
-0.024653973 -0.008111237 0.010111569 -0.0071368255 0.0143178385 0.016795449 -0.034007914 -0.03369543
-0.025556272 0.04057138 0.010221083 -0.03418052 0.02675225 0.035546187 -0.03595193 0.029455075
0.03679117 0.02941666 -0.03317075 0.028890574 0.028379936 0.019940747 0.019708157 0.018056924
-0.040542394 -0.035334922 0.017828263 0.042268526 0.029502977 -0.014646878 -0.02199372 -0.03256155
-0.02665945 -0.024829479 -0.03678676 0.035211015 -0.032986034 -0.035024885 -0.007779585 0.029758494
-0.021185037 0.0277452 -0.028405985 -0.03313537 -0.032954305 0.03577483 0.014947309 0.0164253
-0.034177445 0.036693808 0.039130714 -0.021917025 -0.03706381 -0.0019577085 0.0266071 -0.032067288
-0.033333108 -0.032593485 -0.02954424 0.03936052 -0.03151973 -0.012747968 -0.039349224 -0.029911036
-0.027495615 0.03381732 0.020874267 0.036543585 0.023197528 -0.005364274 0.038696006 -0.036194436
0.03999389 0.035181876 0.018730288 0.043846432 -0.036243048 -0.021508094 0.03293334 0.03717779
0.038259905 -0.035088036 -0.030580321 0.030101946 -0.031032702 -0.03395693 0.015654705 -0.024668237

network_body._body_endoder.seq_layers.2.weight f4 [128, 128]
00000000: 3d1d 9fbd 0ec0 02bd 13c7 86bd 1da2 1c3d
00000010: 3641 003d 04e9 d83c b4bb 263d 3fba f0bd
00000020: 8312 0f3d 9468 7b3d b36d d93c 29c9 923d
00000030: 2f7d aebd c4c3 d83d 2ff5 2a3e ab1d c53c
00000040: aeeb 69bc 349f 33be 5f35 b43d 6693 383e
00000050: 47de acbc aff9 103e 9145 c2bd ac03 fc3d
00000060: bb45 163d b4fe ce3d 56a5 02bd 4620 8d3e
00000070: fc0d bd3d 26f1 9f3c 2eb7 2abe c7c1 0dbd
00000080: 609a a7bc cebf 153e e826 a6bd 1a19 98bd
00000090: a74b 7e3e 0ac1 c1bc 5e49 9f3b 8504 0f3d
000000a0: 68ed f8bc a09b b43b 67b0 db3d e7e6 743c
000000b0: 6246 03be 196f eabd f86d f63d e7d8 473d
000000c0: 3e4a 87bd fd09 c63d 8d5c e13d 06d8 83bc
000000d0: cfc7 ed3c 3fec a4bd 81f6 ff3d 149b 25bd
000000e0: a814 64bd 8715 463d 3009 383d 5546 b13d
000000f0: 8780 623d 0a60 c8ba bac7 553e 1d71 11bc
00000100: 22a1 f33c 1630 2c3d 4d2a a33c a288 8fbd
00000110: a1f0 50bd 8266 c53d 4ad1 4f3d 9576 b0bd
00000120: bd01 873c a2a0 fdbd e4f6 9b3a 8210 883c
00000130: 753d 72bd 86eb 0cbb e20e 39bd 7c0e 183d
00000140: 6f93 833d 17a6 0d3d 1828 08be 4912 b13d
00000150: 3c8d 88bd 080d 493d 0c3d 18bd 7b1e b2bc
00000160: b516 c0bd 3639 a03d 0594 113d 6049 20be
00000170: 3ecc 10bd 93af 063e fa19 64bd 4fa1 1e3d
00000180: b59b 25bd 6874 a3bd 0823 473e cc06 eabd
00000190: a416 b3bd ee4f ec3b 6d88 dd3d b0ed a1bd
000001a0: fbe8 073d 9cd8 26bd d1ac 283e d788 52bd
000001b0: 4d86 86bd 349b 15bd f013 b6bd 6ea8 f13d
000001c0: 80ea bc3c 7765 26bd 7379 8cbd d362 2abe
000001d0: 1aa8 fcbd b0b7 36bd 8f6b c1bb e8a7 cabc
000001e0: 82ab 8fbc 25bc 0b3e af98 223c bdfb ccbd
000001f0: 06f5 f8bb 60ed d13c 3a78 85be 0511 9fbc
00000200: 8e15 6fbe eb88 9cbd d3bd 133e 39f0 173d
00000210: 5663 ffba 267d 423c 3b9d f73d aba3 853a
00000220: 759d ab3d c5a1 d83d 401d 58be ea37 41bd
00000230: 8e72 a93c 31fe ac3d e3e4 66bd 9684 74bc
00000240: 9d73 ae3d a043 c8bd 9f57 153e c85c f2bd
00000250: 1ca9 74bb 3fa3 71bd 5515 8cbc d662 94bd
00000260: 1b76 5cbc c0d7 7f3d 3208 bebb 921f 313d
00000270: 4445 2bbe 77f9 b0bb f27c a03c ed13 39bb
00000280: 5a9f edbd 1b6e 243d e1f4 f63c 0328 053e
00000290: 8842 6e3a d53c babc c147 0c3c 3925 3ebd
000002a0: 3aeb d93d ff88 8c3d 3ddc adbd 3153 e7bd
000002b0: 318a 8e3d 0c4f 1d3d f0d7 2e3e a072 5a3c
000002c0: 429f b5bc a34b c13d 34aa 743d b0a4 24be
000002d0: e59c 09bd 8f30 e33c 8a44 da3d bf1e b6bd
000002e0: c216 723d fb3e 943d ccca 2a3b 5ed8 cabd
000002f0: b92c b3bb ca23 c03c f011 f43d 9ab9 81bd
00000300: 2a35 47bc 5e43 b7bd 25c1 16be 68a9 dcbc
00000310: cffc 253d 3df4 09bc c4cf 81bd d887 8d3c
00000320: 3197 193e 933f ab3d 3edb 043c c32b 043e
00000330: 70f4 a13d a665 d0bd f4b3 803d 1e76 8abd
00000340: e500 1c3c eb2b ce3b 503a ca3c 6973 953c
00000350: 2ad1 303e 6695 d03d d2d0 213d 938d f83b
00000360: c66c 30be a225 a53d f9f1 82be 5520 e2bd
00000370: 3b9a 58bc 675b 29bd 65b8 34be d052 023d
00000380: 3126 3f3d ae61 283d 947f b13c de25 15bc
00000390: 4bf3 a23d f67b 1ebd 4360 283c 00d9 103d
000003a0: ecb4 d73d d222 9b3c 47f0 c43c dc17 bb3c
000003b0: 2ea4 8b3d 7f57 95bc 185c 35be 89a7 abbd
000003c0: d8a3 55bd 8749 8cbd 96d2 cdbc 30f6 823c
000003d0: 8686 6f3d ebad b8bd 2c03 bebb cb24 73be
000003e0: 3446 2c3d 758b 7b3d 44fe d7bd 2e74 da3c
000003f0: ffe0 da3d 8053 683d cf14 903d d8e6 c03d
-0.07769249 -0.03192144 -0.06580939 0.03824054 0.03131219 0.026478298 0.04070635 -0.117542736
0.034929764 0.06137903 0.026541566 0.071672745 -0.085199706 0.10584214 0.16695093 0.024061998
-0.014277382 -0.175412 0.08799242 0.18024978 -0.021102084 0.14157747 -0.09485925 0.12305388
0.036687594 0.101071745 -0.031895958 0.27563685 0.09231183 0.019524168 -0.1667144 -0.03460863
-0.020459354 0.14623949 -0.081128895 -0.07426663 0.24833547 -0.023651619 0.004861041 0.03491642
-0.030386642 0.005511716 0.107270055 0.0149476295 -0.12819818 -0.114469714 0.120326936 0.04879084
-0.066059574 0.09669874 0.11003981 -0.016094219 0.02902594 -0.08052873 0.12498189 -0.040431097
-0.05568376 0.048360374 0.044930637 0.08655993 0.055298354 -0.0015287411 0.20876971 -0.008877066
0.02973992 0.042038046 0.019917632 -0.070084825 -0.05101073 0.096386924 0.050736703 -0.08616368
0.016480321 -0.12384154 0.0011899141 0.016609434 -0.05914064 -0.0021502688 -0.04518021 0.03712319
0.06424605 0.034582224 -0.13296545 0.08646066 -0.06667563 0.049084693 -0.037167594 -0.02174305
-0.09379331 0.07823412 0.035541553 -0.1565299 -0.03535103 0.13152914 -0.055688836 0.038728055
-0.040431697 -0.07981187 0.19446957 -0.11427078 -0.08744553 0.007211677 0.10817037 -0.079066634
0.033181172 -0.04073392 0.16472174 -0.051400032 -0.065685846 -0.036524966 -0.088905215 0.117997035
0.023061037 -0.04062411 -0.06859102 -0.16639261 -0.1233675 -0.04460877 -0.0059027146 -0.024738267
-0.017537836 0.1364599 0.009924098 -0.10008953 -0.0075975684 0.025625885 -0.26068288 -0.019417295
-0.23348066 -0.076433025 0.14427881 0.03709433 -0.001948456 0.011870658 0.12090536 0.0010195872
0.08379642 0.1057773 -0.21104908 -0.047172464 0.020684507 0.08446921 -0.056370627 -0.014924189
0.08518145 -0.097785234 0.14584206 -0.11834103 -0.0037332242 -0.058993574 -0.017100016 -0.07245414
-0.013455893 0.062461615 -0.005799317 0.043243 -0.16725641 -0.0054008323 0.019590829 -0.0028240636
-0.116026595 0.040144067 0.030146064 0.13003545 0.00090888934 -0.022734085 0.008562029 -0.046422217
0.10640569 0.068620674 -0.08489273 -0.112951644 0.06959952 0.038405463 0.17074561 0.013332993
-0.022170667 0.09438255 0.05973263 -0.16078448 -0.033596892 0.027733115 0.10657604 -0.08892583
0.059103735 0.07238575 0.0026060818 -0.0990455 -0.005467978 0.023454566 0.11917484 -0.06334229
-0.012158671 -0.08948396 -0.14722116 -0.026936248 0.0405243 -0.008420047 -0.06338456 0.01727669
0.14999081 0.08361735 0.008108912 0.12907319 0.07907951 -0.10175638 0.06284323 -0.0676081
0.009521698 0.0062918565 0.024686009 0.018243508 0.1726729 0.101847455 0.039505787 0.0075852363
-0.17228994 0.080638185 -0.25575235 -0.11041323 -0.013220365 -0.041346934 -0.17648466 0.031817257
0.04666728 0.04110878 0.02166728 -0.0091032665 0.07956561 -0.038692437 0.010276857 0.035363197
0.10532555 0.018937502 0.024040354 0.022838525 0.06818424 -0.018230198 -0.17710912 -0.08381564
-0.052158207 -0.06849962 -0.02512483 0.015986532 0.0584779 -0.09017547 -0.005798718 -0.23744504
0.04205914 0.061412293 -0.10546544 0.026666727 0.10687446 0.056720257 0.07035219 0.0941903
