results/v1/MlAgent/MlAgent-135680.pt (torch, 575735 bytes, 40 tensors)

discrete_act_size_vector f4 [1, 2]
000000 00 00 40 40 00 00 40 40
       3.0 3.0

network_body._body_endoder.seq_layers.0.weight f4 [128, 48]
000000 e7 db 38 be 7e 18 43 3d 51 ae 5a bd a4 25 69 bd
       -0.18052636 0.04763078 -0.053388897 -0.056920663
000010 84 7d dd 3d 4b d5 2a bc 3c e6 11 be c1 8e 09 bc
       0.10814956 -0.01042683 -0.14247984 -0.008395852
000020 88 a7 23 3d cb e0 8f bc 8d d1 e5 bc 1a ab 0e bd
       0.039954692 -0.017563244 -0.028054023 -0.034831144
000030 a2 97 f3 bb 66 3e 12 be 97 08 8b be 92 82 26 3e
       -0.0074338475 -0.14281616 -0.2715499 0.16260746
000040 81 71 7b 3e 89 d0 31 be 6b 5e c6 be 19 57 fd 3d
       0.24555017 -0.17364706 -0.3874391 0.12370128
000050 bd 61 02 3e 7b c0 35 bd 35 c4 a8 bd 41 8a 6b 3d
       0.12732597 -0.044373017 -0.082405485 0.057504896
000060 3e 84 73 3d 84 24 2d be 68 72 30 bd b6 a1 3a 3e
       0.059452288 -0.16908461 -0.043077856 0.1822575
000070 af 20 0c 3b 66 ae 12 3d 76 44 8b be 41 71 64 be
       0.0021381786 0.03581085 -0.2720067 -0.22308828
000080 7b da ea bc 04 9a b8 bd be fb 7f bd 27 96 82 3e
       -0.028668633 -0.09013751 -0.06249594 0.25505182
000090 b3 4e 0f 3e 6d 1e 2f 3e 15 7f 91 3e 3a 51 17 be
       0.13994865 0.1710145 0.28417268 -0.14777079
0000a0 17 3e 95 3e f7 5d f3 3d 8b c3 94 3e a7 8a 8e bd
       0.29148933 0.11883157 0.29055437 -0.069600396
0000b0 56 5e 36 bd 82 6d 45 3d c0 6c 78 be e1 27 c9 3d
       -0.04452356 0.048200138 -0.24260235 0.098220594
0000c0 96 64 98 3d 38 a0 80 3e a7 3b 6f 3e b8 a1 e4 3c
       0.0744106 0.25122237 0.233626 0.027909145
0000d0 52 e3 91 3d e0 e0 88 bd af 99 64 bc 3f 51 a7 3d
       0.07123436 -0.066835165 -0.013952657 0.08169793
0000e0 65 d2 87 bd 04 9e 1a bd d4 9f b8 3d c4 ea 80 3e
       -0.066319264 -0.03774835 0.0901486 0.25179112
0000f0 1f 08 15 bd 53 87 0a 3e f0 c6 29 3e c1 92 3b 3e
       -0.036384698 0.13528185 0.16579795 0.18317701
000100 32 65 0f be 6f 8d 14 3e 00 8c 9f be 3b 50 46 3d
       -0.14003447 0.14507078 -0.311615 0.048416357
000110 c2 a2 68 bd 87 64 92 bd 86 46 d8 3d 8f 00 d8 3d
       -0.056795843 -0.0714808 0.10560326 0.105469815
000120 ee 32 c8 bc ff d8 8e be a8 53 5f b9 be 5e 30 bb
       -0.024438348 -0.2789993 -0.00021298102 -0.002691194
000130 bd 8f 7d be 42 96 17 3e f7 e2 83 3c 86 d0 dd 3c
       -0.24761863 0.14803413 0.016099436 0.02707697
000140 1e 1d dc bc ed 99 9a 3d d8 26 83 bd 0d 6a 46 3e
       -0.026869353 0.0754889 -0.06403893 0.19376393
000150 3b 85 f0 bd da 5f 28 be de d4 13 be c2 f7 6d be
       -0.11744162 -0.16442814 -0.14436671 -0.23239043
000160 28 e6 a2 3d a6 a2 1d be 59 d1 45 3e 0b 6a 38 3e
       0.07954055 -0.15394077 0.19318141 0.18009202
000170 a1 aa eb bb c0 9b 48 3e f7 d0 a1 3c 14 3d 30 be
       -0.0071919714 0.19590664 0.019752963 -0.172108
000180 6a 6a b2 3c 87 4d 9b 3c 57 45 b5 3d 39 65 c5 3c
       0.021779258 0.018957866 0.08851116 0.024096118
000190 90 6b 34 be 08 54 a0 3d 92 c6 1d be a2 5c 9e 3c
       -0.17619157 0.07828528 -0.1540778 0.01933128
0001a0 40 36 18 3e b5 35 95 bd c8 1f e6 bd 9e 69 73 3e
       0.14864445 -0.072856344 -0.112365305 0.23770759
0001b0 aa 2e 51 3e 82 19 10 3e 94 3a 91 3e 62 8a e7 bd
       0.20427957 0.1407223 0.28365004 -0.11305691
0001c0 9c 6c ef bc 64 14 ad bd 4c 95 90 bd 44 4e 91 3b
       -0.029226594 -0.08451155 -0.07059726 0.004434379
0001d0 21 8e aa be 0c eb c7 3d d4 de ef bd c4 77 2c be
       -0.3331156 0.097616285 -0.11712423 -0.16842562
0001e0 a3 f6 15 3e c9 cd 84 3e ac 69 8a 3e 70 2f bd 3e
       0.14644866 0.25938252 0.27033746 0.36950254
0001f0 c1 9b d9 3d ba 3c aa bd 38 1e fe 3d da 09 6f 3c
       0.10625411 -0.08312364 0.124081075 0.014589751
000200 77 7a e9 3b 8a 4f a8 3d 6e cc de bd 5e a5 39 3e
       0.0071251947 0.08218296 -0.108788356 0.18129489
000210 28 50 b9 3d 5b ae 5c 3e e7 cf 2f 3d f9 f8 8b bd
       0.09048492 0.21550886 0.04292288 -0.06834597
000220 bb c4 1b be c9 e1 fc 3d bb 60 69 3a 15 88 eb bd
       -0.15211765 0.123477526 0.00089026586 -0.11500565
000230 e1 01 df 3d ba 5a 98 bd 7e 12 82 bd 2b 0f 9e bd
       0.1088903 -0.0743918 -0.06351183 -0.07717737
000240 bb 8b dc 3d 4c 5d 61 3c 6c 50 f6 bd bf 94 b1 3e
       0.10768839 0.013755154 -0.12027058 0.34683797
000250 e5 3e ea 3c 52 43 46 3e 9d 95 f1 3d 44 0e 18 bd
       0.028594444 0.19361618 0.117961146 -0.03712298
000260 3a ed d2 3d 2b ea 43 3d 88 34 ed 3c 49 97 5c bd
       0.102991536 0.04783074 0.028955713 -0.053855214
000270 50 10 74 be 66 b5 27 be 60 d4 04 3e 4b 4d d1 bc
       -0.23834348 -0.16377792 0.1297164 -0.025549551
000280 c1 77 91 3d 9d d1 00 be 72 79 db 3c 6f f3 91 3d
       0.07102919 -0.12579961 0.026791308 0.071265094
000290 19 ba 55 bd fd d3 36 bd 1b b1 2a bc dc eb 32 3e
       -0.05217943 -0.04463576 -0.010418202 0.17472786
0002a0 55 9f 14 3e ce 9f 7b be 84 84 9e bd e5 b6 44 3e
       0.14513905 -0.2457268 -0.07740119 0.19210394
0002b0 8b 15 3c 3d 95 7e 0f 3e 23 3a 13 3c 05 62 47 3e
       0.045918982 0.14013131 0.008986029 0.19470985
0002c0 35 28 92 bd 19 86 19 3d ff 68 8d 3e 74 6b fe bc
       -0.07136575 0.0374814 0.27619168 -0.031057097
0002d0 54 1c 0f be 17 1a 94 bc 0f 3e 49 3c 8a 6d 7e be
       -0.1397565 -0.018078847 0.012282862 -0.24846473
0002e0 06 4b 2b 3d 86 2b 3a bd 95 de 9c be aa 20 54 be
       0.041819595 -0.045451663 -0.30638567 -0.20715585
0002f0 3b dc b0 3c 17 f3 91 be f9 2a b1 3b 8a 5c 22 3c
       0.02158939 -0.28505775 0.005406734 0.009909758
000300 7d fa 4d 3d 54 0d 2f be a9 ce 7a 3d 3c af 99 3d
       0.050287712 -0.17094928 0.061232243 0.075041264
000310 35 62 a2 bc 53 52 26 3e 5a 19 2f bd cd cc f4 3d
       -0.01982222 0.16242342 -0.042748787 0.11953125
000320 c3 de 13 be ce 1a 48 be d6 09 6f 3e 0d da 68 be
       -0.14440446 -0.19541475 0.23343596 -0.2273943
000330 e7 a2 3e bd 90 35 8b 3d 6d ed ec bc 25 42 f5 bd
       -0.046542075 0.067973256 -0.028921807 -0.11975507
000340 e7 09 bb bd a8 b7 c4 bd bb 03 11 3e 0b 4f c2 be
       -0.09132748 -0.09605342 0.1416158 -0.3795093
000350 84 a4 e0 bd 1a ca 4c 3d 86 43 46 3e 54 72 80 bd
       -0.10968879 0.049997427 0.19361696 -0.06271806
000360 e9 f0 2f 3e 67 b4 71 3e 89 c9 e9 3d b6 20 a1 3d
       0.17181744 0.23603974 0.11415393 0.07867567
000370 a0 67 69 be 72 d2 37 bd 2b e3 36 3e 9e fe 9d 3d
       -0.22793436 -0.04487843 0.17860095 0.0771458
000380 1c be 23 bd b0 33 9a bd a0 1b b9 3d 34 54 a3 3d
       -0.039976224 -0.0752939 0.09038472 0.07975045
000390 8e 1c 9f 3e 9a 2d 3c 3d 54 6f 1a be bd fe 88 bd
       0.31076473 0.045941927 -0.15081531 -0.066892125
0003a0 03 a7 a3 bd 7c 7f 86 3e 2f 70 a1 3e 70 dd 9e 3e
       -0.07990839 0.26269138 0.31530902 0.31028318
0003b0 4c c2 19 3e 2c 30 e5 bc a0 0d e7 3d 06 ae 07 3e
       0.15015525 -0.027977072 0.11281896 0.13249978
0003c0 30 5f 8e 3d 55 14 25 3d 8a 3d 0f bc d4 bb 60 bd
       0.06951749 0.040302593 -0.008742699 -0.054866627
0003d0 b8 74 cd 3c 0c 20 0a be 63 3b ae 3d 09 b5 40 3c
       0.02508007 -0.13488787 0.08507421 0.011761912
0003e0 9b d7 bf 3d b0 d8 08 3d 63 56 f3 3d df 35 1e 3d
       0.09367295 0.033409774 0.11881711 0.038625594
0003f0 ca 15 2f 3e d0 66 79 3d ba 6b 86 3c 27 f1 35 3d
       0.17098156 0.060889065 0.01640879 0.044419434

network_body._body_endoder.seq_layers.0.bias f4 [128]
000000 7c 81 12 3d 21 cd 0e 3d 53 9d 3a 3c 13 fb 7f 3b
       0.035768017 0.034863595 0.011390048 0.0039059564
000010 8d 0c c0 3c fd 1c b7 3c bd b5 cc bc a3 bb 50 bd
       0.023443485 0.02235269 -0.024989003 -0.050960194
000020 55 f4 e5 3c c2 0b c8 3c 8f 57 00 3d 06 f4 0b 3d
       0.028070608 0.024419669 0.031333502 0.034168266
000030 e2 30 f6 3c 8f f1 7b bc 78 95 ba 3c 3d 39 57 3c
       0.030052606 -0.015377416 0.02277635 0.013136205
000040 1c 97 0a 3d 43 de ca 3c 48 9c fa 3c e2 f8 7b 3c
       0.033835515 0.024764186 0.030592099 0.0153791625
000050 8d d4 03 3d eb 09 ae 3c 6d ac ec 3c 6f 1d 09 bd
       0.032185126 0.021244964 0.028890813 -0.033475336
000060 6f 06 52 bd a4 ab 14 3d a4 8f af 3c 26 04 11 3d
       -0.051275667 0.0362965 0.021430798 0.035404347
000070 8e 95 66 3c 37 2b f8 bc 1a ed 76 3c f1 08 dd 3c
       0.014073743 -0.030294044 0.015071178 0.026981803
000080 6a 59 8e 3c f6 f0 dc bc 24 07 e0 3c ac bc b7 3c
       0.01737662 -0.026970368 0.027347155 0.022428833
000090 99 26 1a bd 31 41 60 bb 12 3f 60 bd 39 0a 4c bd
       -0.037634466 -0.0034218545 -0.05474765 -0.049814437
0000a0 57 49 69 3c 38 0c 0f 3d 4d fe ed 3c b6 52 16 bd
       0.014238677 0.034923762 0.029051924 -0.036699973
0000b0 7e c8 9a bc e1 5a 7c 3b 1c 07 a1 3c c4 91 18 bd
       -0.01889443 0.0038506316 0.01965671 -0.037248388
0000c0 3c 36 07 bd ef a8 ef 3c a8 04 d7 bc 0e c7 fc 3c
       -0.033010706 0.029255359 -0.026247337 0.030856635
0000d0 cb 6b ce bc b1 6d dc 3c 10 87 f9 3c 9d 66 a5 3c
       -0.025197884 0.026907774 0.03045991 0.020190531
0000e0 f1 9d 02 3d 5d 16 11 3c 08 44 0c 3d e2 cd 0c 3d
       0.031888906 0.0088554295 0.034244567 0.034376033
0000f0 74 88 10 3d e1 d9 c0 3c 0e 6e 45 bc 9a 16 e4 bc
       0.03528638 0.023541393 -0.012050165 -0.027842809
000100 66 05 fa 3c 6a 84 33 bd c4 a9 a3 3c 47 63 ef bc
       0.030520152 -0.04382745 0.019978411 -0.029222144
000110 a0 5f 05 3d 82 03 8b 3b ea 58 09 bd 3b bc 41 bc
       0.0325619 0.0042423615 -0.03353206 -0.011824663
000120 e9 2f fc 3c 50 99 ba 3c c2 f8 eb ba f9 0a 97 3c
       0.030784564 0.022778183 -0.0018003213 0.01843785
000130 9c 42 9f 3c 18 25 a7 3c 57 db d0 3c 92 a3 a4 bc
       0.019440942 0.02040343 0.025495214 -0.020097528
000140 c1 c5 b2 bc a4 c8 df bc eb c7 0f 3d 1b 6b 0e 3d
       -0.021822812 -0.027317353 0.035102766 0.034770112
000150 b7 45 d3 bc 85 bd ba 3c fe bc 24 bd 80 3a 0d 3d
       -0.025790079 0.022795448 -0.0402193 0.034479618
000160 65 8d fa 3c e3 0b 9c 3c ac 8e 0f 3d 76 f4 11 3d
       0.030585 0.019048637 0.035048172 0.035633527
000170 d6 15 3f bd 05 19 01 bc 56 24 d9 bc 23 4a a7 bb
       -0.046651684 -0.0078795 -0.026506584 -0.0051052733
000180 bd a1 5b ba 59 01 d9 3c 7f 8d 29 bd db 8d 32 bd
       -0.0008378288 0.0264899 -0.041394707 -0.043592315
000190 e1 87 38 3c cc 28 11 3d 96 12 d9 3c 3e a1 1a 3d
       0.011262865 0.035439298 0.02649812 0.03775143
0001a0 4b 49 af bc eb 73 36 bd 6b 1a c4 bc 13 a8 b1 3c
       -0.021397253 -0.04454414 -0.023938378 0.02168659
0001b0 35 28 b4 3c 84 40 18 3d c1 81 a8 3c 6d f4 e4 3c
       0.021991828 0.037170902 0.020569684 0.027948583
0001c0 2c 76 00 3d 79 a8 a6 3a 40 1a c5 3c 3e 6e e7 bc
       0.031362697 0.0012715004 0.024060369 -0.02825081
0001d0 14 0c 13 bd c6 cc b2 bc e9 4f e8 bc ea 72 31 bd
       -0.03590019 -0.02182616 -0.028358417 -0.04332248
0001e0 08 d5 ed 3c 65 c8 c2 bc 4e ee 08 3b 4a 46 f9 bc
       0.029032245 -0.023777196 0.0020893994 -0.030429024
0001f0 d3 9d a1 3b ac 8e de 3c 07 0e 52 3c b5 ec c5 bc
       0.004932144 0.02716764 0.012820727 -0.024160722

network_body._body_endoder.seq_layers.2.weight f4 [128, 128]
000000 9e 23 b6 3d 37 ff 16 3e 51 ca 57 3b d7 fd 1b 3d
       0.08893512 0.14745794 0.0032926986 0.038083877
000010 06 80 e2 bd 23 b5 1c 3e 92 b0 3a bd 6f 2d 23 3c
       -0.11059575 0.15303473 -0.045578547 0.009959563
000020 a4 95 42 3e 89 e4 02 be e3 9d 52 3d 93 d5 82 bd
       0.19002396 -0.12782492 0.051420104 -0.06388392
000030 55 e4 9f 3d b3 6f 49 3d 29 d2 91 3c 85 cf d0 bd
       0.07807223 0.04917879 0.017800407 -0.10195831
000040 d0 a8 1b 3d 87 42 27 bd 2d 65 56 bd a3 d0 0d be
       0.03800279 -0.04083493 -0.052342582 -0.1384912
000050 17 f1 b8 3b d8 85 b7 bd 68 5f d4 bc ac e8 ac bd
       0.0056439745 -0.089610755 -0.0259244 -0.08442816
000060 24 92 40 be da c5 c8 3d f4 a9 05 3e ac 08 02 3e
       -0.18805748 0.09803362 0.13053113 0.1269862
000070 d3 59 f5 3d 90 33 fc bd 4e 5b f7 bd 4c 42 aa bc
       0.11980023 -0.12314522 -0.12077962 -0.020783566
000080 f2 00 b7 bd df 18 55 3d 8e 38 e0 bc cd 56 bc bc
       -0.08935727 0.052025672 -0.027370717 -0.022990609
000090 6a 7f ee bc 56 56 27 be 33 5e a1 bd 16 20 a8 bc
       -0.02911349 -0.16341528 -0.07879295 -0.020523112
0000a0 7f 0a 8c bc f9 74 ec bb cf 05 01 be 4a 76 25 3e
       -0.017094849 -0.0072160927 -0.12599872 0.16158405
0000b0 e3 02 00 be d4 b2 1a 3e 17 c3 2f bd ee d4 77 3c
       -0.12501101 0.1510728 -0.04291066 0.01512645
0000c0 e1 bf 41 3c cf 03 ad 3d c5 c3 9d bd e5 b7 15 3d
       0.011825533 0.08447992 -0.07703356 0.03655233
0000d0 2f a7 95 3d ab a3 5e bd 86 61 06 bd 72 8a 59 bd
       0.07307278 -0.054355305 -0.03280785 -0.053110547
0000e0 44 b6 a0 3d f5 8b 87 bd 70 27 12 be f2 29 b0 bb
       0.078472644 -0.066184916 -0.14272857 -0.005376094
0000f0 ec 76 3d be e3 92 ae bd 75 4e 57 3d 1a ef 35 bc
       -0.18502396 -0.0852411 0.052565057 -0.01110437
000100 8d 84 49 3a f3 65 96 bd 14 c2 a1 bb ce 7e af bc
       0.0007687293 -0.07343664 -0.004936466 -0.02142277
000110 b9 c6 93 bd 20 92 36 bb ed 0e de bd 8b c3 bf 3c
       -0.07215638 -0.0027858093 -0.108426906 0.023408672
000120 c3 67 a3 3d 4f 98 09 bd 48 96 c6 bd 20 d1 ce bd
       0.07978775 -0.03359252 -0.096966326 -0.10098481
000130 bd da cf bb 31 cc c6 3c 7e 18 39 3d b9 ec bc 3b
       -0.0063432143 0.024267288 0.045189373 0.005765524
000140 ee 3d a2 3d 5d 31 81 3d 8b 4d bb 3d 03 5a 32 bd
       0.079219684 0.063082434 0.091456495 -0.043542873
000150 be 40 17 3d 5d 1a 61 be 9f 00 1a 3d e3 66 7b 3c
       0.036926977 -0.21982713 0.03759825 0.015344354
000160 69 81 77 3d 25 39 6e be 56 a2 13 be 70 ab 62 3d
       0.06042615 -0.23263986 -0.14417395 0.055339277
000170 59 9d a6 bd c6 9f f0 bc 8b 8c a5 3d 52 34 a7 3d
       -0.081354804 -0.02937306 0.08083447 0.08164276
000180 1a aa 59 3e 0d cd 5e be f2 e4 84 3c 1e eb 94 3d
       0.21256295 -0.21757908 0.01622245 0.072714075
000190 3d a4 09 bc 77 47 29 be cc a2 9f 3d 8f 42 1d be
       -0.008400974 -0.16531168 0.07794723 -0.15357421
0001a0 07 0c f9 3d 64 27 f9 3d d9 8c a0 3d f5 54 09 bd
       0.12160497 0.12165716 0.078393646 -0.033528287
0001b0 f3 39 53 bb df 52 6f bc 7f 22 c7 3d 19 6c 61 be
       -0.0032230585 -0.01460716 0.097233765 -0.22013892
0001c0 20 e7 80 3d f4 40 51 3e 7c df 0a 3d 75 0d 9f bd
       0.062940836 0.20434934 0.033904538 -0.077662386
0001d0 38 9a e1 3d 58 b2 3a bd dd 4c 37 3d 30 69 c6 bd
       0.11015743 -0.045580238 0.044751037 -0.09688032
0001e0 32 9d 8b bd a9 05 04 be a8 f8 f8 3d ff 7a 8e 3c
       -0.06817092 -0.12892784 0.121568024 0.017392633
0001f0 a9 2c 7a 3d df b7 ec bd 21 d9 1a 3e 3a cb 5b 3d
       0.061077747 -0.11558508 0.1512189 0.05366061
000200 81 5e 90 3d c1 00 8c bd 2e 35 de 3d 7c 90 63 3d
       0.07049275 -0.06836081 0.10849987 0.055557713
000210 b8 62 5e be 3b 76 ba bc 18 32 57 bd eb b9 2e 3e
       -0.21717346 -0.022761455 -0.052538007 0.1706311
000220 fe 2a c9 bd 3a 27 31 3d 21 d2 d7 3c 32 fc b8 3d
       -0.09822653 0.0432503 0.026345314 0.090324774
000230 86 7c 99 3d 05 3b fa 3c 2c 73 e2 ba 75 1a d5 bc
       0.07494454 0.03054572 -0.0017276756 -0.026013592
000240 89 fc 29 3d b2 58 7e bc 69 50 bc 3d 9c fb ef bd
       0.041500602 -0.015524076 0.091950245 -0.117179126
000250 12 07 2b 3e ba d4 9d 3d 41 38 32 bd 61 6b 06 bd
       0.16701916 0.0770659 -0.04351068 -0.03281725
000260 aa 68 24 3d f0 f3 e5 bc 99 fe 39 3d 4f 1b 39 3e
       0.040138878 -0.02807042 0.04540882 0.18076824
000270 df f1 ca bd 39 88 1e 3e 5a 40 5e 3c 9c 27 ed 3c
       -0.099094145 0.15481652 0.013565147 0.028949551
000280 3b 8a 0c 3a 2b 35 93 bd fd 1e 42 3e 86 19 34 bd
       0.0005361174 -0.07187875 0.18957134 -0.043969654
000290 99 e7 0d bd 67 c2 a1 3d 37 ad 74 3d ce 27 f2 3c
       -0.034644697 0.078984074 0.059735503 0.029559996
0002a0 7c ac 9a bd c7 af 34 3e 85 a8 08 3d 66 ea 25 3e
       -0.0755243 0.17645179 0.033363838 0.16202697
0002b0 90 ca ff 3d c7 f8 87 bd da b2 a0 3c d7 d6 51 bd
       0.124898076 -0.066392474 0.019616533 -0.051230278
0002c0 9a f8 8e bd 16 63 1d bc 82 00 13 3e 39 9a 8c bd
       -0.06981011 -0.009606143 0.14355662 -0.06865353
0002d0 f8 b1 f0 bd c3 6a a9 3d 18 a6 24 bd 0c 50 b1 bd
       -0.11752695 0.08272316 -0.04019746 -0.08657846
0002e0 37 d1 a1 bd 46 4d c2 3d e5 f1 f1 bc a1 6d b3 bd
       -0.07901233 0.09487395 -0.02953429 -0.087611444
0002f0 8f c9 18 3e 7b 62 c6 bd 70 a4 8d 3b 4e 08 cb 3d
       0.14920639 -0.096867524 0.004322581 0.09913693
000300 41 c4 29 3e f2 90 b5 3d 12 26 ac 3d a2 36 b8 3c
       0.16578771 0.08865537 0.08405699 0.022486988
000310 3b 90 d6 bc c0 96 80 bd b1 07 bb bc c1 a8 0e bd
       -0.026191821 -0.06278753 -0.022830816 -0.034828905
000320 ab ff d3 bd cb 41 3a be d3 22 a5 bd cb 24 87 bd
       -0.10351499 -0.1818916 -0.08063283 -0.065988146
000330 ff 6c d8 bd 7c fd 6b bd af 48 5e 3e ec 07 91 bd
       -0.10567664 -0.05761479 0.21707414 -0.07081589
000340 55 e9 1c bd bd 10 7f bc ee 7e 57 be 08 9c 94 bd
       -0.03830846 -0.015567956 -0.21044514 -0.07256323
000350 ff 1d f3 3d 81 dd d9 bd a0 91 74 bd ec 1b b1 bd
       0.11870956 -0.10637952 -0.05970919 -0.08647904
000360 6d 04 21 3e a0 f1 dd bd 5a 60 d8 3d 4d 00 ac bd
       0.15724345 -0.10837102 0.105652526 -0.08398495
000370 fc 26 0c bd 0d f7 08 bd 62 02 b2 3d df 45 80 3d
       -0.034216866 -0.03343873 0.08691861 0.06263327
000380 9f 0a 09 3e 42 63 e1 bd 4c d9 86 3d 3b e0 9e bd
       0.13382958 -0.1100526 0.06584415 -0.07757612
000390 d7 46 a3 3d 30 02 e2 3c 30 d3 25 bc 4c 5e 4e bc
       0.07972496 0.027588934 -0.010121152 -0.012595724
0003a0 bb 47 06 be 31 cc a9 bd 91 01 8a 3d 78 0d 96 3b
       -0.131133 -0.082908995 0.0673858 0.0045792423
0003b0 cb 3a c2 3d 28 d7 5a bd 74 2e 08 3e 47 5d 4c bd
       0.0948387 -0.053427845 0.1329897 -0.049893644
0003c0 4e ec 7b bd a4 58 73 bd 4d 05 6f bd 4a 28 1e be
       -0.061504655 -0.059410706 -0.058354665 -0.15445057
0003d0 8e bb 11 3d 57 ce cc 3d cc 64 03 3c 4d 9a e7 bd
       0.035579257 0.10000294 0.008019637 -0.113087274
0003e0 e3 33 da bd c3 89 ed 3c 63 50 8c 3d 1c 9b 08 3e
       -0.10654428 0.028996354 0.0685127 0.1334042
0003f0 dc e8 ca 3d b7 fc cc bc 87 2c 12 3d ad 98 e4 3c
       0.09907696 -0.025022848 0.035686996 0.027904833

network_body._body_endoder.seq_layers.2.bias f4 [128]
000000 42 17 97 bc aa 04 54 3c 37 10 05 3d b6 a3 d5 bc
       -0.018443707 0.012940565 0.032486167 -0.02607904
000010 15 76 0e 3c ec 5e 01 3d 78 3c cc 3c 9f 77 84 bc
       0.008695145 0.031584665 0.024931177 -0.016170321
000020 49 c4 95 bc 11 c2 ff bc bf 3b fb bc 1f c7 76 bc
       -0.018282073 -0.031220468 -0.030668138 -0.015062123
000030 4c a5 54 bc 86 8c 09 3d aa 4f 0e bc 06 21 06 bd
       -0.012978863 0.03358128 -0.008685986 -0.032746337
000040 a6 82 04 3d b4 7f db 3c dc 22 7d 3c 1d b5 b9 bc
       0.03235116 0.026794292 0.015450206 -0.02266937
000050 e7 9a f5 3c 91 f0 03 bd 51 c4 cb bc 53 f4 e1 bc
       0.02998109 -0.032211844 -0.024873884 -0.027582323
000060 2b 1b fe 3c 04 3a 8c bc 85 a5 0a 3b 66 66 92 bc
       0.031018814 -0.017117508 0.0021155786 -0.017871093
000070 8e d0 07 bd ed 91 c4 3c e5 fa 7c 3c 08 a3 bc 3c
       -0.033157878 0.023995364 0.015440677 0.023026958
000080 c4 eb e8 3c 3d 5d 9b bc 4c dc db bc 4e 80 ef bc
       0.028432734 -0.018965358 -0.026838444 -0.029235985
000090 ce 7a 03 3d cd 2f 3d 3c 77 29 62 3c c6 03 14 3c
       0.032099538 0.011547041 0.013803831 0.009034103
0000a0 d9 cd ff bc 0a 57 92 bc 43 68 d1 3c 6e c1 c6 bb
       -0.031226085 -0.01786377 0.025562411 -0.006065539
0000b0 5f 72 cf 3c 35 cb ca 3c b2 b8 e1 3c 3f 08 8c bc
       0.025323091 0.0247551 0.02755389 -0.017093776
0000c0 78 73 8a 3c ca fb ff bc 33 2a 03 bd 53 4d fa bc
       0.016900763 -0.031247992 -0.032022666 -0.03055445
0000d0 57 21 01 3d ae be 9d 3c 01 29 80 bb c1 c8 e9 bc
       0.031525936 0.019255962 -0.003911138 -0.02853811
0000e0 3a f2 b5 3c 50 14 15 bb 1f bb 9a 3c 0d 2a c2 3c
       0.02221023 -0.0022747703 0.018888054 0.023701692
0000f0 6d 59 3d 3b 9e e9 e4 bc 93 1a a2 bc f5 65 3c bc
       0.0028892413 -0.027943429 -0.019788062 -0.011498918
000100 a8 57 6a 3c 7d 33 6a bc a7 c1 02 bd 45 e1 f7 3c
       0.014303125 -0.014294502 -0.031922963 0.030258784
000110 1d 04 9b bc c9 d3 d1 3c 8a fb dd bc 52 b0 c8 bc
       -0.01892286 0.025613682 -0.027097482 -0.024498139
000120 eb 3d e7 bc 17 ca 98 bc 7f b9 e9 3c 2f 71 87 3c
       -0.028227767 -0.018651051 0.028530834 0.016533462
000130 bc e4 04 3d 9f 3d 9b 3c 66 59 c6 bc 0c 42 a0 bc
       0.0324447 0.018950282 -0.02421255 -0.019562744
000140 bd 5d de 3c 24 21 9f 39 7f 3e b7 3c bf 66 cb 3c
       0.027144307 0.00030351535 0.022368668 0.024829267
000150 ba ab bc 3c 12 99 e3 3b 13 86 01 3d 30 99 cd 3c
       0.023031104 0.0069457376 0.031622004 0.02509746
000160 1a 66 04 bc 8b 6e b8 3c cd 84 a8 3c 7c 98 00 3d
       -0.008080984 0.022513648 0.020571137 0.03139542
000170 9f 9d fc 3c 6c 75 b3 bc 5e 39 c0 bc 4d 57 85 bc
       0.030836878 -0.021906577 -0.023464855 -0.01627698
000180 bf db d6 bc 80 8f a0 3c fe d1 95 3c f2 8a 19 3d
       -0.02622783 0.019599676 0.018288609 0.037486024
000190 85 31 e7 3c 58 e0 d7 bc 6b 42 fc 3c ff 16 03 bd
       0.028221855 -0.026352093 0.03079339 -0.032004353
0001a0 b8 1f 07 3d 63 6c 0b bd 77 9f c5 3c 58 0b e3 bc
       0.032989234 -0.034038913 0.02412389 -0.02771537
0001b0 4a f2 eb 3c 7b 75 6e 3c a4 da b8 3b f8 69 18 3c
       0.028802056 0.014554377 0.0056412984 0.009302609
0001c0 70 19 e2 3c b7 f9 e1 3b 00 d4 f4 bc 3b 56 ad bc
       0.02760002 0.0068962234 -0.029886246 -0.021159282
0001d0 0f 03 a7 3c ac 10 b2 bc 54 09 af 3c df 00 fd bc
       0.0203872 -0.021736465 0.021366753 -0.030884204
0001e0 fd f3 6b 3c 8d ac 91 3c 01 2f eb 3c 63 26 d6 bc
       0.014401433 0.017782474 0.028708937 -0.026141351
0001f0 be 0f b8 3c 23 1c b9 bc 25 86 8d 3c f2 3d bc bc
       0.022468444 -0.022596424 0.01727588 -0.022978757

action_model._discrete_distribution.branches.0.weight f4 [3, 128]
000000 43 df f3 39 fb 86 4a 3c da 85 2e bc 66 07 94 bc
       0.00046514915 0.012361283 -0.01065203 -0.018069934
000010 2d 1f 7e bc 5a 09 95 3b 71 49 bc bc 92 22 c5 bb
       -0.015510363 0.004548234 -0.022984238 -0.006016084
000020 da ac 02 3c 92 03 13 3c 21 91 f0 3b b8 34 21 bc
       0.007975781 0.008973019 0.0073415195 -0.009839229
000030 d5 af ca bb cb 58 30 bb 49 8b 18 3c 57 4e 7b 3c
       -0.0061855116 -0.0026908393 0.009310552 0.015338502
000040 db 47 9d bc 15 9d f8 bb bf 6c 04 bc bb 66 0f 3c
       -0.019199302 -0.007587085 -0.008082568 0.00875252
000050 93 81 5d 3b 82 47 86 3c 87 39 23 3a 86 3b 07 3c
       0.0033799156 0.01639152 0.0006226529 0.008253938
000060 62 0a 60 bc 70 de 33 3c b2 fe c8 bc e3 21 3a 3c
       -0.01367435 0.010978326 -0.02453551 0.011360618
000070 1b 11 25 3b fe 4c 99 bc 3b 49 05 bb 80 b0 9d bc
       0.0025187198 -0.01871347 -0.0020337838 -0.0192492
000080 8d 98 cd bc 69 6c 21 3c 23 94 44 3c bb 9d d9 3b
       -0.025097156 0.009852507 0.011998209 0.0066411174
000090 e2 8e d9 bb b3 1c 06 3b 2a fe fc b9 29 46 da bb
       -0.0066393474 0.0020463883 -0.00048254553 -0.006661196
0000a0 7b df ca 3c 68 6e 83 3b f2 eb fd bb 71 ce e1 bc
       0.024764767 0.004010964 -0.007749074 -0.02756426
0000b0 ad d3 26 bc 2d f3 a6 39 e0 54 b9 bc 48 4b 65 3c
       -0.010182303 0.00031843167 -0.02262348 0.013994999
0000c0 97 67 15 bc dc f8 a5 3b 2c 74 69 bb f2 a8 bb 3c
       -0.009118936 0.0050650667 -0.0035622222 0.022907708
0000d0 07 2a cb bb 2c 9e ef bb 90 a4 2f bb 80 ba 91 bb
       -0.0062000784 -0.0073125567 -0.0026800968 -0.0044472814
0000e0 ef c7 22 3b 28 78 3d bc 7c d1 d1 bb 86 c0 f3 38
       0.0024838408 -0.011564292 -0.0064031463 0.00011623003
0000f0 a7 75 1a 3c 33 35 bb 3b 81 e6 71 ba 87 8e 69 3c
       0.009427465 0.005713129 -0.0009227768 0.014255173
000100 81 8f 0c bc 80 5f 2c 3c db f0 c3 3b aa c1 2b bc
       -0.008579136 0.010520816 0.00597964 -0.010483185
000110 ff e7 71 3c f4 12 f4 3b 98 c1 8a bb 82 7a 84 3c
       0.014764785 0.0074485485 -0.004234504 0.016171698
000120 02 50 94 bc be 3b 87 3b c2 2a ed bb 20 de 5c 3a
       -0.018104557 0.004126995 -0.007237763 0.0008425433
000130 d3 b1 6a bb f2 c3 90 bc 95 33 ef 3b 0f 45 3b 3b
       -0.0035811558 -0.017671559 0.00729985 0.0028575098
000140 d8 b3 29 bc 0d cc 38 3c e3 ef e2 3b 55 6c 30 3c
       -0.0103578195 0.011279118 0.0069255694 0.010768016
000150 e2 09 14 bc 6c 09 8b bc 1c 50 92 bb 0b d1 bb bb
       -0.009035559 -0.016972266 -0.004465116 -0.005731707
000160 8d b9 a6 3c 12 2c b2 b9 67 84 ce bc 23 43 46 bb
       0.02035215 -0.0003398364 -0.025209619 -0.003025242
000170 12 99 0a 3c 59 24 e3 3b bb 5d 10 bb 4f 53 d3 bb
       0.008459346 0.006931823 -0.0022028524 -0.00644914
000180 0d 30 bd 3b c5 d6 9e bc 52 6a 8f ba 83 7c fc bb
       0.0057735504 -0.01938952 -0.001094172 -0.0077052726
000190 5d 94 18 bc aa d3 7b bb ab 85 51 bc 9f 80 4a 3c
       -0.009312716 -0.0038425722 -0.012788217 0.012359767
0001a0 e9 a4 55 bb 83 02 1d bb 94 c7 50 3c 4e 7b 04 3c
       -0.0032599515 -0.0023957796 0.012742896 0.008086039
0001b0 8f 4d 79 bc 7e 07 df bb 7d 68 1d 3b a0 07 e7 bb
       -0.015216245 -0.006806313 0.0024018579 -0.0070504695
0001c0 b6 85 c8 ba 2b f1 df bc c7 cb 11 bb d7 c8 4f 3a
       -0.0015298638 -0.027336678 -0.0022246705 0.0007926351
0001d0 8d 9f 57 3a c1 6d c4 bb f6 6f a7 3a ea 28 2b 3b
       0.0008225374 -0.005994529 0.0012774456 0.0026116916
0001e0 46 25 08 3c 67 61 43 bc b9 9e 9b bc 6a 66 20 3b
       0.008309668 -0.011925078 -0.018996583 0.0024475106
0001f0 ee 99 07 bd c3 33 7a 3b a2 7f 15 bc 3c b2 2f 3c
       -0.033105783 0.0038177825 -0.009124668 0.010723647
000200 2d 7f 56 bb cb ec 54 3c 6d 7e 3c bb 91 2c d4 bb
       -0.0032729611 0.012995909 -0.002876188 -0.0064750393
000210 0f 28 3e 3b fe 51 b0 3c 2c 82 70 3c 3d db f8 3a
       0.0029015576 0.021523472 0.014679473 0.0018986237
000220 b1 19 71 bc 5f 24 72 bc 3a c9 b0 bc 24 37 45 3b
       -0.014715598 -0.014779179 -0.021580327 0.003009268
000230 69 fe a4 bb fc ad 81 3c f6 c8 97 bb d8 c7 32 bc
       -0.005035211 0.015830033 -0.0046321107 -0.010911904
000240 f6 fc 92 3b b9 e2 b1 3c 0b f3 9f bb be a1 08 3c
       0.0044857217 0.021714555 -0.004881268 0.008339344
000250 19 2b ab 3b bb f1 69 bb 2c 98 a1 3b 9e ad be bc
       0.0052236435 -0.003569706 0.0049314704 -0.023276147
000260 c0 fb 67 3c ba da 83 bc 0a fb d7 3c 87 ae b6 bc
       0.014159143 -0.016095508 0.026364822 -0.022300018
000270 25 9b 1f bc b8 ae a3 3b ec 7c e8 3b 27 5a 6a 3c
       -0.009741579 0.0049951933 0.00709497 0.014303721
000280 58 7f 8b 3c 41 79 3b bc 2f 49 f8 bc 35 af df 3a
       0.017028496 -0.011442483 -0.030308334 0.0017065766
000290 31 56 46 3b 7a e3 10 3b dc 3c e6 3c 28 96 4d ba
       0.0030263776 0.0022108243 0.028105192 -0.00078425044
0002a0 f3 87 1a bc ea 08 9e bc 5b 97 99 bc 95 7b 8d 3c
       -0.009431827 -0.01929136 -0.01874893 0.017270843
0002b0 8a c0 18 3c 3a 67 61 3c 1a b7 3f 3c f3 b1 22 3c
       0.009323249 0.013757521 0.01170137 0.009930122
0002c0 d0 1f 69 3c dc 98 df bb 58 72 e4 bb 61 67 93 bc
       0.014228776 -0.006823642 -0.0069716386 -0.01799363
0002d0 3b 1e 5e 3c 2b 33 21 bc 4c 08 8b 3c 93 82 24 bc
       0.013557012 -0.00983886 0.01697173 -0.010040897
0002e0 db b0 8d 3c 8a da 44 3c a9 47 08 3d 90 68 c9 3c
       0.017296245 0.012014994 0.033271465 0.024585992
0002f0 76 0e 14 3b 77 f7 89 bc 70 4d 0e 3b 89 21 80 bc
       0.0022591627 -0.016841633 0.0021713637 -0.01564099
000300 09 26 96 3c 23 57 ab bc c2 3a 8e bc 7a 89 ef 3b
       0.018328683 -0.020915573 -0.017362002 0.0073100897
000310 be 15 a2 bc e8 1a c9 b9 83 e7 89 bb b1 23 2b bc
       -0.019785758 -0.00038357754 -0.0042085066 -0.010445521
000320 81 83 d9 bb 0d 4d 47 bb 48 09 7f bc 10 48 62 bb
       -0.006637991 -0.0030410916 -0.015566178 -0.0034527816
000330 25 bc 8e 3c 65 bc 82 3c 42 11 7a bc 59 66 35 3b
       0.017423699 0.015958974 -0.015262904 0.0027679412
000340 30 39 b7 3b ee 75 f2 bb cf c7 10 3c 96 a0 5f bb
       0.005591534 -0.007399312 0.008836701 -0.0034122816
000350 57 45 f1 b9 a0 d9 9d 3c 6f 95 a7 3c 7a 25 85 3b
       -0.00046018764 0.01926881 0.020456998 0.0040633054
000360 53 61 3a 3b 04 23 77 3c c6 52 9a 3c ef 3c 61 3c
       0.0028439357 0.015084032 0.018838298 0.013747438
000370 c3 eb d7 3c 0e 69 ba bb c2 29 fe bb 38 52 51 bc
       0.026357537 -0.005688793 -0.0077564428 -0.01277595
000380 53 9b 96 bc 53 60 0b 3c eb 90 b1 3c c5 4c 37 3c
       -0.018384611 0.008506852 0.021675548 0.011187737
000390 30 58 da 3c 59 e1 21 bb 4e 48 b3 3c aa ff 5a bb
       0.02665338 -0.0024700968 0.021885063 -0.0033416548
0003a0 25 dc 9b bb 92 ad 35 bc 93 c3 44 3c 31 6d 59 bc
       -0.004756468 -0.011088746 0.012009519 -0.013270662
0003b0 be 33 08 3c aa 0f ba 3c 08 83 6e bb f6 fa a7 3c
       0.008313118 0.022712547 -0.0036394019 0.02050541
0003c0 22 bf 7e 3c c8 5e 71 3c 9a a6 93 bb bd 31 04 bd
       0.015548499 0.01473207 -0.0045059444 -0.032273997
0003d0 2e b9 8c ba 3d 3e f9 bb 21 18 7f 3c 1d 5f 57 bc
       -0.001073634 -0.0076062963 0.015569718 -0.013145235
0003e0 d9 53 84 ba cc 57 70 3c ce 83 ac 3c bc c1 e6 bb
       -0.0010095789 0.01466937 0.021058943 -0.007042138
0003f0 73 5c f0 3c 30 12 ce 3b 88 22 26 3c 0b 02 26 bc
       0.029340958 0.006288789 0.010140069 -0.010132323

action_model._discrete_distribution.branches.0.bias f4 [3]
000000 d4 f7 9a bb 7a 08 1d 3c e9 5a b1 bb
       -0.0047292504 0.0095845405 -0.0054124487

action_model._discrete_distribution.branches.1.weight f4 [3, 128]
000000 84 ce f8 3c 0e 52 21 bc 29 02 29 bd ae 26 10 3d
       0.030371912 -0.0098462235 -0.041261826 0.035193138
000010 64 cb 20 ba 00 6d 03 bd 21 ce d9 bc 9f 9d 7c 3c
       -0.0006133823 -0.032086372 -0.026587548 0.015418439
000020 51 0a fd 3c 41 bc e4 3c f8 fa d0 3c f6 26 54 39
       0.030888708 0.027921798 0.025510296 0.0002023241
000030 6d 64 df 3c 08 57 26 bd ff 4d b9 3c c5 d5 1a 3d
       0.027269566 -0.040610343 0.0226202 0.037801523
000040 f3 86 e2 bc b1 5f 06 bd b3 ab e1 bc 99 b3 b9 3c
       -0.02765224 -0.032806102 -0.027547693 0.022668647
000050 d2 f1 fb bc e8 d0 90 3c a4 b6 dc 3c ac a6 11 3d
       -0.030754957 0.01767774 0.026942559 0.03555934
000060 92 d6 b7 bc 6c 32 78 3c 95 9b 92 bc 24 45 b8 3c
       -0.022441182 0.01514874 -0.017896453 0.022493906
000070 ad 73 a5 3c 61 94 d9 bc 9f 6b 37 bc 7b bd b5 bc
       0.02019676 -0.02656001 -0.011195092 -0.022185078
000080 bb d0 03 bd 32 01 6f 3c 71 0c 19 3d d4 ec fe 3c
       -0.032181483 0.014587687 0.03736538 0.031118788
000090 2b 6a 36 bd a1 ef dc b9 0a aa e8 bb 7f e9 2b bc
       -0.044534843 -0.00042140207 -0.0071003484 -0.0104926815
0000a0 30 ed 1e 3d ff 93 5d 3c 77 62 d9 bc 87 ca 4e 3a
       0.03880042 0.013524055 -0.02653621 0.00078884553
0000b0 87 86 f9 bc 2c 61 a3 bc 2e a9 09 bd 77 39 b2 3c
       -0.030459655 -0.019943796 -0.033608608 0.021755917
0000c0 89 08 9a bb a0 83 20 3d 9e cd 09 3d 6d 56 23 3d
       -0.0047007245 0.039188027 0.033643357 0.039877344
0000d0 f4 b9 fb bc ff 79 af bc 81 b2 ba 3c 17 de 8c 3c
       -0.030728318 -0.021420477 0.022790195 0.017195744
0000e0 88 78 bc bc 8b 7a 6d bb 48 25 c1 bc 08 6b d1 bc
       -0.023006693 -0.0036236371 -0.023577347 -0.025563732
0000f0 d2 10 74 bc db b3 df 3c 32 e9 fe 3c 65 28 c1 3c
       -0.014896588 0.027307441 0.031117056 0.023578832
000100 bb 35 35 bc 5c 62 c8 3c 8b e3 4a 3d 71 31 0b bd
       -0.011060174 0.024460964 0.049533408 -0.033982698
000110 7f 92 06 3d 9d fe c7 bc 29 bf 1a 3d 7c d4 72 3d
       0.032854553 -0.024413401 0.03777996 0.059284672
000120 37 61 c4 3c a2 48 e0 3b 52 1b b6 bc 18 1c 11 bc
       0.023972137 0.006844596 -0.022229824 -0.008856796
000130 41 49 cc bc cb 31 ef 3a 38 1e 9c 3c 1d 85 c1 3c
       -0.024937274 0.0018249092 0.019057378 0.023623044
000140 d3 28 09 bd bb b6 fd 3c 45 c4 4f bc 0d 43 3f bc
       -0.0334862 0.030970922 -0.012681072 -0.011673701
000150 c6 1b db bc b7 be 77 bc 5c 4f c0 bc 06 03 e4 bc
       -0.026746642 -0.015121154 -0.023475341 -0.027833473
000160 6f 1d c0 b8 16 f5 1d bd 6f 56 00 bd 22 48 0d bd
       -9.160756e-05 -0.03856381 -0.03133243 -0.03449262
000170 95 76 2e bd 95 47 9a 3c 33 d4 e1 3c 65 15 88 3c
       -0.042593557 0.018832961 0.027567005 0.016611764
000180 f3 10 04 3d 0a ad f8 bc 16 37 bf bc 4e 39 d0 bc
       0.032242727 -0.030355949 -0.023341697 -0.02541795
000190 74 4d b5 bc 28 7e 19 3d 88 51 06 bd b5 1a 2c 3d
       -0.02213166 0.037473828 -0.032792598 0.042017657
0001a0 46 7e 0f bd ee ea ea 3c 43 e5 fa bc 4b 6d c5 3c
       -0.035032533 0.028676476 -0.030626899 0.024099967
0001b0 95 2f d7 bc 44 0e 95 bc c0 69 18 3c c8 21 d6 bb
       -0.026267806 -0.018195279 0.0093025565 -0.0065347888
0001c0 5e 18 b4 bc fb 6a b4 bc 42 82 b7 3c 61 5a d0 3c
       -0.021984275 -0.022023669 0.022400979 0.025433721
0001d0 be 1a 85 bc fc 69 b4 3c 18 85 be bc a2 5f d3 3c
       -0.016248103 0.022023194 -0.023256823 0.025802437
0001e0 76 75 48 bc d2 f3 b7 bc 46 cc 24 bd de 9b 05 3d
       -0.012235036 -0.02245513 -0.040233873 0.03261935
0001f0 ef 2f b7 bc 88 bd 17 3d 33 f7 76 bc 3a e3 da 3c
       -0.022361724 0.037045985 -0.015073585 0.026719678
000200 7f c2 64 bc 1f 5a e5 bb a4 c2 8a 3c 99 14 0a bc
       -0.013962387 -0.0069992687 0.016938515 -0.008427762
000210 6a 83 f8 bc 9d d1 61 3c bf aa 23 bb 6f 7b ae bc
       -0.0303361 0.013782886 -0.0024973599 -0.021299092
000220 63 23 a3 ba 9f 85 a6 bc c6 3e e1 bc 02 10 23 bc
       -0.0012446459 -0.020327387 -0.027495753 -0.009952547
000230 33 2f 6b 3b 71 8b a7 3b 4c 75 ab bb 03 38 91 bc
       0.0035886287 0.0051130583 -0.0052324887 -0.017726904
000240 ae 45 8c 3c 15 8a 31 3c 75 41 bd bb 99 68 f5 bc
       0.01712307 0.010836144 -0.0057756254 -0.029957103
000250 ec fb bf 3c 9c da dc bc 46 40 1b bc f5 1d a1 bc
       0.023435555 -0.02695971 -0.009475773 -0.019667605
000260 5c 57 bc 3c f5 51 fc bb f9 f6 79 bc ed 6f 53 bc
       0.022990875 -0.0077001997 -0.015256637 -0.012905103
000270 77 15 04 bd eb b9 e2 3b 65 26 14 ba d0 48 c4 3c
       -0.032247033 0.006919136 -0.0005651473 0.023960501
000280 b8 ab 40 3b 7c d9 3a bc 8f 13 91 bc 35 cf c9 bc
       0.0029399227 -0.011404391 -0.017709522 -0.024634937
000290 75 8e e8 3c 3b fa 96 3c 54 2d e5 3c 85 c5 8c 3b
       0.028388241 0.018429866 0.027975716 0.004296007
0002a0 ab 8a 65 bc 6e cc ba bc 11 80 dc 3c 8a d3 44 3b
       -0.014010112 -0.022802558 0.026916536 0.0030033314
0002b0 3d 7e 3f bb 8d d8 dc 3c a0 07 2f 3b 81 a0 23 bb
       -0.002921953 0.026958728 0.0026707426 -0.0024967494
0002c0 ae c1 0a bc 1e 34 cd bc c3 d2 77 bc cb 37 c8 bc
       -0.008469028 -0.025049265 -0.015125933 -0.024440667
0002d0 f1 20 cb 3b 71 78 ea 3c 66 bb e4 bb 52 9c bf bc
       0.0061989953 0.028621884 -0.0069803474 -0.023389969
0002e0 aa 7e 66 bb e9 d5 c9 3b bd f2 48 39 a2 c6 47 3c
       -0.0035170713 0.0061595333 0.00019163913 0.012193354
0002f0 da 74 21 3c 3e 45 4f bc 33 f1 5e bc 0d 00 1c 3c
       0.00985452 -0.012650786 -0.013607311 0.0095214965
000300 55 0c 45 bc 53 51 e0 ba f0 ef 56 bc 32 49 53 3c
       -0.012026866 -0.001711408 -0.013118729 0.012895869
000310 3f 9f 5a bc 28 8e 92 3c ed 6f 22 bc 01 70 0f bd
       -0.013343631 0.017890051 -0.0099143805 -0.035018925
000320 ee 30 ba bc da 88 b0 bc 43 dc 00 3d 49 59 20 3d
       -0.02272841 -0.02154963 0.031460058 0.03914765
000330 e3 2a df 3c 4c bf dd 3b 0e 8f b2 bc 86 e9 20 bc
       0.02724213 0.006767189 -0.02179673 -0.009821301
000340 ed d5 d2 bb 04 f4 66 3c ae 58 b5 3c 71 b0 14 3d
       -0.0064341933 0.014096264 0.022137012 0.03630108
000350 cd a3 05 bc c1 ae a9 ba 78 3b ed 3c 21 23 fe 3b
       -0.008156729 -0.0012945757 0.028959021 0.0077556525
000360 4f 44 be 3b a6 64 21 3c bf ec 0d bb 2f 56 6e 3c
       0.005806483 0.009850657 -0.0021656004 0.014546915
000370 e4 b2 c8 3c 00 71 4c bc 2b 5c 8d bc 93 22 49 bc
       0.024499364 -0.012478113 -0.017255863 -0.01227631
000380 ab d9 4a bc 63 75 98 bb 4f bc 48 3c 90 54 a2 3b
       -0.012380998 -0.0046526655 0.0122519275 0.0049539283
000390 9a 22 e9 3c 31 e6 2e bc da 68 0f 3d 32 7d 65 bc
       0.028458882 -0.010674999 0.035012104 -0.0140069
0003a0 c1 e1 1e 3c f6 86 03 bd 88 4f 33 bc ca 7f fd bc
       0.009697379 -0.03211113 -0.010944255 -0.030944724
0003b0 1e 22 0a 3c 31 4a 8f 3c 6b d8 ba b9 76 3e 02 3d
       0.008430986 0.017491432 -0.00035637929 0.03179785
0003c0 73 f0 0d 3d c2 b2 09 bd 89 7a 06 bd 57 e1 0e bd
       0.03465314 -0.033617742 -0.032831702 -0.03488287
0003d0 18 6b 06 3d 63 13 cb bc f2 9b e6 3c 2c 89 f6 bb
       0.032816976 -0.024789518 0.028150532 -0.0075236764
0003e0 8b ca d1 3c d9 3c ce bb 2a 95 1a ba f4 79 37 bc
       0.025609275 -0.0062938747 -0.0005896861 -0.0111985095
0003f0 7b af d9 bb 73 f2 cf 3a 10 d8 a3 bb 88 bd 6e bc
       -0.0066432334 0.0015865102 -0.005000122 -0.014571555

action_model._discrete_distribution.branches.1.bias f4 [3]
000000 fb 89 e9 bc 80 02 9b 3c cc 02 85 3c
       -0.028508177 0.01892209 0.016236685

exp_avg f4 [128, 48]
000000 8b fa ff 36 99 82 5a b6 d2 1c 91 b6 56 fc c5 36
       7.6287592e-06 -3.256055e-06 -4.324692e-06 5.9004333e-06
000010 46 22 8f 35 98 7c 88 34 58 01 29 37 c0 9f 80 b4
       1.0664305e-06 2.5422628e-07 1.0073498e-05 -2.395809e-07
000020 36 94 4e b7 26 b4 f0 36 a9 35 9b 38 b4 e9 4b 38
       -1.2313065e-05 7.1735294e-06 7.400971e-05 4.8616625e-05
000030 d6 e4 a8 37 b1 a7 c1 b6 64 95 66 b7 95 5b 37 b5
       2.013372e-05 -5.77137e-06 -1.3743851e-05 -6.830608e-07
000040 9f 79 c8 38 4b b0 94 38 cf 8b 8a b5 01 da 0c 36
       9.559397e-05 7.090027e-05 -1.0322491e-06 2.098852e-06
000050 9f a0 37 37 21 46 0f b7 d2 10 89 38 1f 59 45 38
       1.09450475e-05 -8.539792e-06 6.535802e-05 4.705146e-05
000060 a2 16 93 b7 1f e6 06 b6 a7 b4 cb 37 7b 4a dc b5
       -1.7534305e-05 -2.0101504e-06 2.4283609e-05 -1.6412954e-06
000070 a8 5a 57 38 4a 53 0e 38 a9 ea 06 b7 2a 74 10 37
       5.1344425e-05 3.3933007e-05 -8.0416585e-06 8.610115e-06
000080 15 ac 19 38 f1 93 49 b7 f0 b5 7a 38 e4 8d 08 38
       3.6638306e-05 -1.2014979e-05 5.9774087e-05 3.2557073e-05
000090 6a 05 12 b7 15 da b7 37 3b f5 3f 38 01 c9 83 b7
       -8.703539e-06 2.1916852e-05 4.5766337e-05 -1.5710017e-05
0000a0 54 50 2f 38 2d 70 06 38 b8 c8 d9 b6 ce bc 84 38
       4.1798063e-05 3.205256e-05 -6.4904707e-06 6.329418e-05
0000b0 e5 56 22 38 76 46 82 b7 de 1f d1 37 d9 76 22 b7
       3.8704737e-05 -1.5530019e-05 2.492958e-05 -9.683624e-06
0000c0 d6 5e 4c 36 d3 d4 b9 37 79 2b de 36 89 80 5c 36
       3.045357e-06 2.2152823e-05 6.6211765e-06 3.2857372e-06
0000d0 98 a9 e4 37 c3 93 01 37 b9 20 2a 37 dd a2 16 b5
       2.7258691e-05 7.723403e-06 1.0140408e-05 -5.611635e-07
0000e0 ef 03 18 b6 a6 34 38 37 e2 11 da 37 c7 b2 40 37
       -2.2652055e-06 1.0979513e-05 2.5995952e-05 1.1485717e-05
0000f0 ba cd 61 37 26 d4 e7 b6 30 05 10 b6 b1 01 35 b6
       1.34589445e-05 -6.909034e-06 -2.1460692e-06 -2.6972086e-06
000100 a2 fb 5f 38 5b 38 0d 38 5e b2 d4 b4 c9 b2 1d b6
       5.3401694e-05 3.3669505e-05 -3.9617856e-07 -2.349889e-06
000110 2a 8e ee 35 31 a2 c8 b6 c5 bb 39 38 a0 48 ca 37
       1.7773757e-06 -5.979346e-06 4.428231e-05 2.4114095e-05
000120 3d d5 3e b7 24 30 af 36 1b 17 99 36 0e db e7 b6
       -1.1374531e-05 5.2210107e-06 4.562445e-06 -6.909838e-06
000130 15 27 39 38 0b 87 c3 37 b5 77 eb b5 0a c6 1b 36
       4.4143835e-05 2.3308696e-05 -1.7543704e-06 2.3212074e-06
000140 ef d5 ae 36 40 69 95 b6 bd 88 2b 38 0f fd b8 37
       5.2105092e-06 -4.4527987e-06 4.0896924e-05 2.2052349e-05
000150 b8 dd 83 b6 c1 9c 17 37 7a bc 7f 37 bc 8f ac b6
       -3.9299157e-06 9.0367985e-06 1.52430675e-05 -5.1427323e-06
000160 60 42 9a 37 7a 5e 3b 37 1a aa 0d b6 4b 25 90 37
       1.8389139e-05 1.1168066e-05 -2.110965e-06 1.7183504e-05
000170 7b 7a 1a 37 36 b5 16 b7 c3 53 c1 b6 00 51 0d b7
       9.2076325e-06 -8.982888e-06 -5.7615994e-06 -8.423114e-06
000180 20 29 27 37 8f 2e 5c b6 51 82 6a b7 78 32 b0 36
       9.963551e-06 -3.2809655e-06 -1.39778285e-05 5.251084e-06
000190 59 22 48 36 3c 4f 91 b7 e0 b0 15 37 9f 3e 11 b6
       2.9822315e-06 -1.7322243e-05 8.922274e-06 -2.1643134e-06
0001a0 45 66 c9 b7 43 e3 b8 33 0f 64 b3 37 6f a0 02 b5
       -2.400869e-05 8.609506e-08 2.1385056e-05 -4.8662235e-07
0001b0 5d cc 17 37 26 1e 53 b7 14 76 95 b7 d2 bb ff b5
       9.047883e-06 -1.25835995e-05 -1.7817169e-05 -1.9053643e-06
0001c0 d5 e8 51 38 ed 3a cd 37 d3 85 6c b6 6c 56 b0 b7
       5.0046325e-05 2.4465344e-05 -3.5244636e-06 -2.1021078e-05
0001d0 c8 ce b1 b6 e2 82 18 b7 a4 aa 1a 38 5a 3b 81 37
       -5.2990836e-06 -9.0903795e-06 3.6875383e-05 1.5405636e-05
0001e0 ed 87 0a b8 a9 b2 33 b7 9b cf 82 b4 3b 05 b7 b6
       -3.3028355e-05 -1.0710829e-05 -2.436544e-07 -5.454434e-06
0001f0 c4 3e d1 37 95 3e 2c 37 10 47 55 b7 4a 64 fc b6
       2.4943969e-05 1.026657e-05 -1.2712335e-05 -7.5218604e-06
000200 e1 f4 35 b6 39 a4 57 b7 f5 9d 2e 38 6c 65 1b 37
       -2.711364e-06 -1.2853235e-05 4.163194e-05 9.262334e-06
000210 59 d9 74 b7 8b d7 e4 b6 59 c7 c9 36 5d 69 a2 b7
       -1.45941385e-05 -6.820022e-06 6.013474e-06 -1.9360969e-05
000220 02 e3 35 37 52 ac 22 36 6e 32 e6 b6 c8 59 98 37
       1.0841295e-05 2.4240185e-06 -6.860405e-06 1.816162e-05
000230 e9 0e 08 b6 a2 0e bc b7 c8 0b 5e 36 b7 f6 c2 b7
       -2.0274258e-06 -2.241816e-05 3.3087435e-06 -2.3241488e-05
000240 51 fb d7 36 f1 0c 8e 36 f1 46 16 36 61 26 b9 35
       6.4367564e-06 4.2334364e-06 2.2393035e-06 1.3794744e-06
000250 14 fd 04 b7 bc e3 30 b6 87 3f b2 36 7e e6 8a 36
       -7.926737e-06 -2.6358603e-06 5.312209e-06 4.1395533e-06
000260 1f c6 df 36 5a cd 3c b6 86 ab 87 b6 22 dc df 36
       6.668982e-06 -2.8133713e-06 -4.0432815e-06 6.6715447e-06
000270 ed 09 bf 36 8e 42 88 37 c8 4c 77 37 b5 25 94 b5
       5.693399e-06 1.6243455e-05 1.4740224e-05 -1.1037833e-06
000280 dd cd a3 37 f2 cf 86 37 62 49 db 35 9a fd 03 36
       1.9526977e-05 1.6070877e-05 1.6338129e-06 1.9668137e-06
000290 89 aa 69 37 96 26 8a b5 cc 8f 36 37 18 01 f4 36
       1.3927588e-05 -1.0293031e-06 1.0881526e-05 7.271894e-06
0002a0 de 72 22 b7 15 cc 8b 36 6b bf 8b 37 18 72 22 36
       -9.682697e-06 4.166281e-06 1.6659227e-05 2.4206292e-06
0002b0 8c 06 e6 36 dd 31 f1 36 49 45 a0 b6 ce 3a 32 37
       6.8552963e-06 7.1881645e-06 -4.7764374e-06 1.0623318e-05
0002c0 74 6f ac 37 ff 94 85 33 5c 6d 89 37 2d 70 1e 37
       2.0555897e-05 6.220397e-08 1.6382597e-05 9.443652e-06
0002d0 1a 49 25 b3 8c 79 e7 36 16 57 a0 37 af ac 02 b6
       -3.848354e-08 6.8984864e-06 1.9114039e-05 -1.9472025e-06
0002e0 e8 29 df b5 5e 52 ab 36 ee 60 12 b5 c1 dc 95 37
       -1.6626991e-06 5.105786e-06 -5.453029e-07 1.786498e-05
0002f0 c0 2c 3d 37 29 f7 8c b5 1c 2e db 36 63 a1 4b b6
       1.1275697e-05 -1.0502746e-06 6.5320764e-06 -3.0343297e-06
000300 d9 f4 09 37 19 05 9d b3 fc 46 d4 b6 21 e2 f4 35
       8.222844e-06 -7.3118095e-08 -6.326356e-06 1.8245229e-06
000310 6a d7 35 35 3f f8 fe b6 a3 53 ff 36 8c 93 cc b6
       6.7741223e-07 -7.5986895e-06 7.609329e-06 -6.0968505e-06
000320 ee 8f 08 b7 b4 8e bb 35 6b 48 c5 37 6b cd 8f 37
       -8.139743e-06 1.3974118e-06 2.3517952e-05 1.7142584e-05
000330 9c 05 37 37 d7 3f f9 b6 5f 06 1d b6 09 0a 22 b6
       1.0908956e-05 -7.42821e-06 -2.3398532e-06 -2.4145722e-06
000340 41 b3 78 38 f3 f1 30 38 0c 5c 36 36 51 16 23 b7
       5.929475e-05 4.2187003e-05 2.7173692e-06 -9.720753e-06
000350 ed 4c 8c 36 8b 96 d7 b6 f5 cb 1f 38 27 ea cd 37
       4.1812805e-06 -6.425025e-06 3.8098504e-05 2.454694e-05
000360 6a 77 70 b7 90 91 53 36 a4 ef 54 37 57 09 92 b6
       -1.4332918e-05 3.1526179e-06 1.269198e-05 -4.3522264e-06
000370 5f 48 f9 37 d0 cc bf 37 c6 28 3d b7 e9 e1 b2 37
       2.9716814e-05 2.2864348e-05 -1.1274771e-05 2.1324451e-05
000380 f0 2d dc 37 d6 5f 6f b6 a6 17 29 38 37 ac bf 37
       2.6247435e-05 -3.566956e-06 4.0314764e-05 2.2849168e-05
000390 e2 25 a0 b6 aa 40 a7 37 9f fb f6 37 18 a1 f7 b6
       -4.7727817e-06 1.9938063e-05 2.9442655e-05 -7.3799274e-06
0003a0 9f 8c a4 37 00 94 81 37 a9 1d a9 b5 df 8e 19 38
       1.9615805e-05 1.5446916e-05 -1.2600113e-06 3.66111e-05
0003b0 ca 78 aa 37 80 a3 cb b6 3c 72 86 b6 80 74 34 b7
       2.0321826e-05 -6.0689053e-06 -4.00681e-06 -1.0755961e-05
0003c0 71 3f c4 35 25 e2 d0 37 c0 66 a2 36 40 cd 2c b7
       1.4621602e-06 2.4900839e-05 4.839938e-06 -1.0299787e-05
0003d0 08 a8 b2 36 08 42 09 b7 ca d6 6f 37 c1 4f 88 b7
       5.324375e-06 -8.18121e-06 1.429552e-05 -1.6249602e-05
0003e0 c2 a8 b1 b6 98 d0 39 b6 b4 ea 90 b6 de 82 04 b5
       -5.294657e-06 -2.7688566e-06 -4.3188575e-06 -4.936427e-07
0003f0 88 df 65 37 39 32 e9 b7 22 b6 12 36 6c 14 c6 b6
       1.3701509e-05 -2.7799151e-05 2.186171e-06 -5.9032373e-06
