results/v1/MlAgent/MlAgent-500140.pt (torch, 575735 bytes, 40 tensors)

discrete_act_size_vector f4 [1, 2]
0	0x40400000	3.0
1	0x40400000	3.0

network_body._body_endoder.seq_layers.0.weight f4 [128, 48]
0	0xbd88efa3	-0.06686332
1	0x3c937df3	0.018004393
2	0x3d35d393	0.044391226
3	0xbd32c566	-0.043645285
4	0xbd69fe09	-0.057127032
5	0xbd9c4263	-0.0762985
6	0x3d16a1c4	0.036775365
7	0xbc159c63	-0.009131524
8	0xbd17ac93	-0.037029814
9	0x3d7e6404	0.0621071
10	0x3e5ae495	0.2137626
11	0x3e29857a	0.16554824
12	0xbd72efe3	-0.059310805
13	0x3e8359b6	0.25654382
14	0x3d1795c3	0.03700806
15	0xbe0b8950	-0.136266
16	0xbe005a11	-0.12534358
17	0x3d86225c	0.06549522
18	0x3e595fe3	0.21227984
19	0x3e1de3c0	0.15418911
20	0x3db8d711	0.09025396
21	0xbd8ccb71	-0.06874741
22	0x3d26458b	0.040593665
23	0x3c9c17c6	0.019054305
24	0xbe628d4d	-0.22124214
25	0x3e680bdd	0.22660775
26	0xbc7bf05c	-0.01537713
27	0x3e046df9	0.12932576
28	0x3e2d771f	0.16939972
29	0xbe06405c	-0.13110489
30	0x3edf1e28	0.43577695
31	0x3b79d1ad	0.0038119361
32	0x3b04d2cc	0.0020267246
33	0xbe3b4ffd	-0.18292232
34	0xbe276caf	-0.16350053
35	0x3e5a54ab	0.21321361
36	0x3dea9dc8	0.11455876
37	0xbd5d08ac	-0.05396335
38	0x3db8d379	0.0902471
39	0xbcc2f195	-0.023796836
40	0x3e131cb5	0.1436642
41	0x3cd82500	0.02638483
42	0x3e80c907	0.25153372
43	0x3ca0d191	0.019631179
44	0x3c292338	0.010323338
45	0x3d7f7956	0.062371574
46	0x3dfec047	0.12439018
47	0x3e0f2c77	0.13981806
48	0x3e068fda	0.13140813
49	0x3e19685e	0.14981219
50	0x3ce6077c	0.02807974
51	0x3c241ed2	0.010017114
52	0x3cc63a3d	0.024197692
53	0x3e44c88f	0.19217132
54	0x3e351c98	0.17686689
55	0x3d68d46c	0.056843206
56	0x3cb249d8	0.021763727
57	0xbd979ec5	-0.0740333
58	0x3df7bc2f	0.1209644
59	0x3cec483c	0.028843038
60	0xbd83cd76	-0.06435673
61	0xbd6b02e4	-0.057375804
62	0xbc596ff5	-0.013271322
63	0x3d34b958	0.04412207
64	0xbd5cd148	-0.053910524
65	0x3e132f6b	0.14373557
66	0xbc51f870	-0.01281558
67	0x3e117d6f	0.14208005
68	0x3da898d3	0.08232274
69	0xbcce3b20	-0.025174677
70	0xbe6ceb69	-0.23136677
71	0x3ddf8949	0.10914857
72	0xbe6cf32f	-0.23139642
73	0xbe923f64	-0.28563988
74	0xbd5305f4	-0.05151935
75	0x3d8f3195	0.06991879
76	0xbbbbd883	-0.0057325973
77	0xbe1185e6	-0.14211234
78	0xbdd078c5	-0.10179285
79	0x3d351b8c	0.044215724
80	0x3dc35df5	0.09539405
81	0x3e59fa6c	0.21286935
82	0x3e2dacaa	0.16960397
83	0xbcf6b30f	-0.030114679
84	0xbd8628aa	-0.06550725
85	0x39335507	0.00017102445
86	0xbcd28b5e	-0.025701221
87	0xbdf3dfbb	-0.119079076
88	0x3da9c63d	0.08289764
89	0x3e442db8	0.19158065
90	0x3d23746a	0.039905943
91	0x3e28e32d	0.1649291
92	0x3e1b5509	0.15169157
93	0x3e16ebc3	0.14738373
94	0xbe14ad85	-0.14519317
95	0x3cfe71d9	0.031060146
96	0xbe989d67	-0.29807588
97	0xbc622f00	-0.013805151
98	0xbdba4989	-0.09096057
99	0x3d08ced6	0.03340038
100	0x3db0356c	0.086039394
101	0xbde8dcec	-0.113702625
102	0xbdc4a9b8	-0.09602684
103	0xbee02384	-0.43777096
104	0x3f1b2f54	0.6061909
105	0xbdba99fd	-0.09111402
106	0xbd0e23c0	-0.034702063
107	0x3d80bd19	0.062860675
108	0xbda0e229	-0.078556366
109	0x3d590ed4	0.052992657
110	0xbe568e2e	-0.20952675
111	0xbe500bb2	-0.20316961
112	0x3c95c86e	0.018284049
113	0xbe3a4fe9	-0.18194546
114	0x3e32d4e7	0.17464028
115	0x3cf40ace	0.029790308
116	0xbe0cb705	-0.13741691
117	0x3dccc667	0.0999878
118	0xbe4a4ca9	-0.19755806
119	0x3dc1211b	0.094301425
120	0x3c294933	0.010332393
121	0x3e7c405f	0.2463393
122	0xbc4c5313	-0.012470978
123	0x3d69f1ed	0.057115484
124	0x3e087406	0.1332551
125	0xbdf6d59f	-0.12052464
126	0x3e6851c5	0.22687443
127	0xbd8c550a	-0.068521574
128	0xbd62f032	-0.05540485
129	0xbdf67693	-0.12034335
130	0xbdd2389d	-0.102647044
131	0x3ddb2949	0.10701234
132	0xbe06cffa	-0.13165274
133	0x3e02d9c0	0.12778378
134	0x3b2033de	0.0024444978
135	0xbdefb413	-0.11704268
136	0x3c55037b	0.013001318
137	0x3e3b5f95	0.1829818
138	0x3d8700a7	0.06591921
139	0x3d37731b	0.044787508
140	0xbd955a23	-0.07292583
141	0x3d7e7b5e	0.06212937
142	0x3cdab2f1	0.026696654
143	0xbc672408	-0.014107712
144	0x3e1f3eee	0.1555135
145	0x3e0c35a2	0.13692334
146	0x3e48e156	0.19617209
147	0xbdd10c13	-0.10207381
148	0x3d8df4c9	0.06931455
149	0x3e2a543f	0.166337
150	0x3e83d169	0.25745705
151	0xbd9e3ce0	-0.07726455
152	0x3ddaf189	0.106906004
153	0x3d0768a5	0.03305878
154	0x3ce5be97	0.028044982
155	0xbd8313db	-0.064002715
156	0x3d7d7dd4	0.061887577
157	0xbd121bb8	-0.035670966
158	0xbd951c23	-0.07280757
159	0xbe23a666	-0.15981445
160	0x3eb82ecf	0.35973212
161	0x3d36e2ea	0.044649996
162	0xbe15c553	-0.14626054
163	0xbe220ccf	-0.15825199
164	0x3e236297	0.15955578
165	0xbc5ef076	-0.013607135
166	0x3ca00168	0.01953192
167	0x3e265ce3	0.16246371
168	0x3da5edb2	0.081019774
169	0x3e0253cf	0.12727283
170	0xbc9c1238	-0.019051656
171	0x3de880d9	0.11352701
172	0x3d0c2950	0.034219086
173	0x3e512c69	0.20427097
174	0xbe587aaa	-0.21140543
175	0xbe05ea11	-0.1307757
176	0x3e3bd31c	0.1834225
177	0xbddd3961	-0.1080196
178	0x3bc3e2b1	0.0059779515
179	0x3c836e69	0.016043859
180	0x3dad30eb	0.08456596
181	0x3df1b678	0.11802381
182	0x3e348714	0.17629653
183	0x3de16ab5	0.11006681
184	0x3dceb58f	0.10093223
185	0x3d3ca851	0.046058957
186	0x3db908e3	0.09034898
187	0x3e765407	0.24055491
188	0x3eb4d92c	0.3532194
189	0x3e13e7e6	0.14443931
190	0xbe905968	-0.28193212
191	0xbdd8c700	-0.10584831
192	0x3e33319f	0.17499398
193	0x3e242fa5	0.160338
194	0xbe220a7b	-0.1582431
195	0xbd8595e4	-0.0652273
196	0x3e7e969a	0.24862137
197	0x3eb1a2d2	0.34694535
198	0x3e0c136d	0.13679285
199	0x3dfc3efd	0.123167016
200	0xbe431f95	-0.19055016
201	0x3cdef8fc	0.027218334
202	0x3d797e86	0.060911678
203	0x3e868196	0.2627074
204	0xbd38ea5f	-0.04514539
205	0x3d9d0d0d	0.07668505
206	0x3df50b3f	0.11965036
207	0x3d3c5280	0.045977116
208	0xbcbe64da	-0.02324145
209	0x3d9b811d	0.07592986
210	0x3d482756	0.04886564
211	0xbe272a0d	-0.16324635
212	0x3e784b28	0.2424742
213	0x3ad2089e	0.0016024297
214	0xbdcc6e4d	-0.09981976
215	0x3df967bf	0.12177991
216	0xbe9257b0	-0.28582525
217	0x3e00bba5	0.1257158
218	0x3d4cdef2	0.050017305
219	0xbd0b9461	-0.034077052
220	0xbdb0d39b	-0.086341105
221	0x3bc4d35a	0.0060066404
222	0x3d4b93f4	0.049701646
223	0x3d888a3a	0.066669896
224	0x3e531d20	0.20616579
225	0xbde1579b	-0.110030375
226	0x3e4f7662	0.20260003
227	0x3e3fd9a2	0.18735364
228	0x3dbcc4a9	0.092171974
229	0xbcbbc4c7	-0.02292098
230	0x3ca7a6b3	0.02046523
231	0x3c82f4f6	0.015985947
232	0x3df04333	0.11731567
233	0x3e23acc8	0.1598388
234	0x3d03c3ac	0.03216903
235	0xbd9ca53c	-0.076487035
236	0x3d29b44a	0.041431703
237	0xbdb6f060	-0.08932567
238	0x3e0d3d3f	0.13792895
239	0x3e9a03d6	0.30081052
240	0x3e076400	0.1322174
241	0xbcdc449e	-0.026888188
242	0xbc54423f	-0.012955247
243	0xb9f7a221	-0.00047232307
244	0xbe2bc18e	-0.16773054
245	0xbdbaa298	-0.091130435
246	0xbe24beeb	-0.16088454
247	0x3d83d661	0.06437374
248	0x3bc487f9	0.0059976545
249	0xbe4861a2	-0.19568494
250	0xbe80f222	-0.25184733
251	0xbd012edc	-0.03153883
252	0x3c5e868d	0.013581884
253	0xbca49b95	-0.020093719
254	0x3e1f2bb9	0.15544023
255	0x3e2800fe	0.16406628

network_body._body_endoder.seq_layers.0.bias f4 [128]
0	0x3d588eab	0.052870434
1	0x3ceb661f	0.028735219
2	0x3b7fda66	0.0039040088
3	0x3d4bedb9	0.049787257
4	0x3d240f42	0.040053613
5	0xbd868ac8	-0.06569439
6	0xbd06a36a	-0.032870688
7	0xbc6b1a2c	-0.014349502
8	0x3d54aaeb	0.051920813
9	0x3d4fe15a	0.05075202
10	0x3d08e2e2	0.033419497
11	0xbd259ccc	-0.040432736
12	0xbd80bd32	-0.06286086
13	0x3b69fcef	0.0035703739
14	0xbd2e8075	-0.042602975
15	0x3d69a711	0.057044093
16	0xbcb96d7b	-0.022635212
17	0xbcbb51f7	-0.022866232
18	0xbc2965e0	-0.01033923
19	0x3d42411c	0.047425374
20	0xbd69b8bc	-0.057060942
21	0x3d43573a	0.047690608
22	0xbd3468fb	-0.04404543
23	0xbd49a94e	-0.049233727
24	0x3d14aa52	0.036295243
25	0x3cad5300	0.021157742
26	0x3d7aca4c	0.06122808
27	0x3d42353b	0.047414046
28	0x3cce22c0	0.025163054
29	0xbd407cad	-0.0469939
30	0x3ce38a83	0.027776008
31	0x3d0e92d1	0.034807984
32	0x3d6c4fc4	0.057693258
33	0x3d235d7a	0.039884068
34	0x3d324c98	0.043530077
35	0xbd6bddca	-0.05758456
36	0xbd370808	-0.044685394
37	0xbb98ae8b	-0.004659479
38	0x3d39a4e1	0.045323256
39	0x3d27b818	0.04094705
40	0xbd683c30	-0.056698024
41	0x3d415faa	0.047210373
42	0x3d219089	0.03944448
43	0xbd604400	-0.05475235
44	0x3d085c75	0.0332913
45	0x3d8c1b29	0.06841118
46	0xbd93e8fc	-0.072221726
47	0x3d19581c	0.037437543
48	0x3d64f486	0.05589726
49	0xbd3e8739	-0.046515677
50	0xbd37e905	-0.04489996
51	0x3d3c9a64	0.046045676
52	0x3d4711d2	0.04860098
53	0x3c1866c0	0.009301841
54	0x3d2232f2	0.039599366
55	0xbd1bba09	-0.038019214
56	0xbd5b81be	-0.05359053
57	0xbabdb7ae	-0.0014474296
58	0x3d46c87e	0.048531048
59	0x3d2522d4	0.040316418
60	0xbd284c74	-0.041088536
61	0xbd56e153	-0.05246098
62	0xbd6ec33a	-0.05829165
63	0xbd4cac04	-0.049968734
64	0x3cb4e4a1	0.022081675
65	0xbd6c1bff	-0.057643887
66	0x3d3fc28b	0.04681639
67	0xbd5c7ff7	-0.053832974
68	0x3d532880	0.051552296
69	0x3d5c73f6	0.053821526
70	0x3d36ab99	0.044597242
71	0xbd3fb7e1	-0.04680622
72	0x3d1c7850	0.038200676
73	0x3d3a7bfd	0.0455284
74	0xbd33c9e6	-0.043893717
75	0x3d07370e	0.03301149
76	0xbd43ab1c	-0.047770604
77	0x3cf1ff52	0.029540692
78	0xbd577cd1	-0.05260927
79	0x3cf8ba47	0.030362261
80	0xbd3e372c	-0.046439335
81	0x3cb95b00	0.0226264
82	0x3beeb98c	0.0072853025
83	0xbd847e4d	-0.064694025
84	0xbd512411	-0.051059786
85	0x3cbeadf4	0.023276307
86	0xbc6c140c	-0.014409076
87	0xbc8b0601	-0.016970636
88	0x3d3ec6af	0.0465762
89	0x3d242b0a	0.040080108
90	0xbd535d46	-0.051602624
91	0xbd95c3ae	-0.073127136
92	0xbd257d8d	-0.040402938
93	0x3d13cb1d	0.036082376
94	0xbd852ce2	-0.06502701
95	0xbcd2b509	-0.02572109
96	0xbc537d78	-0.012908332
97	0xbb340a20	-0.0027471855
98	0xbd0c2b6f	-0.03422111
99	0xbc99e49e	-0.018785771
100	0xbd750fcd	-0.059829522
101	0x3d398b2b	0.045298737
102	0xbd6ae331	-0.057345573
103	0x3d7d7a68	0.061884314
104	0x3d4a8d91	0.049451414
105	0xbd1bca44	-0.038034692
106	0x3c1c4d1e	0.009539871
107	0x3cedc60a	0.029025096
108	0xbd0b96d1	-0.034079377
109	0x3d4677ab	0.048453968
110	0x3d4b913f	0.049699064
111	0xbd3f4884	-0.046700016
112	0x3c78bbd3	0.0151814995
113	0xbcd64104	-0.026154049
114	0x3cf69b85	0.030103454
115	0xbbef4cde	-0.0073028645
116	0xbd2e4c88	-0.042553455
117	0x3ce6ab7d	0.028157944
118	0x3d38c84a	0.045112886
119	0x3cc1ed7f	0.023672817
120	0x3c86eed2	0.0164713
121	0xbd3cb5a7	-0.046071675
122	0xbd7ce591	-0.06174237
123	0x3d4c245e	0.04983937
124	0x3d687534	0.0567524
125	0xbd33a5f0	-0.043859422
126	0x3d66bfc4	0.056335226
127	0x3d5ca2aa	0.053866066

network_body._body_endoder.seq_layers.2.weight f4 [128, 128]
0	0x3d925bca	0.071464136
1	0xbc09bc16	-0.00840666
2	0x3c56aac1	0.013102234
3	0x3d97d198	0.07413024
4	0x3e107dfa	0.14110556
5	0x3d311aa1	0.043238286
6	0x3ae9a4b8	0.0017825579
7	0x3d99acd7	0.0750367
8	0x3b4719c9	0.003038036
9	0xbd87515c	-0.06607315
10	0xbdffeb4e	-0.12496053
11	0xbd0f8e58	-0.03504786
12	0xbc255413	-0.010090846
13	0xbd8a5658	-0.0675475
14	0xbe2093a5	-0.15681322
15	0x3c4912b6	0.012272527
16	0x3d1bfdc2	0.0380838
17	0x3cdd6226	0.02702434
18	0xbde32690	-0.110913396
19	0x3ce38e27	0.027777744
20	0x3d539ea3	0.05166496
21	0x3ded48f7	0.115861826
22	0xbcad95bb	-0.021189561
23	0xbc573c9b	-0.013137008
24	0xbdbf1430	-0.09330022
25	0xbe29d005	-0.1658326
26	0x3d2cbf7d	0.042174805
27	0x3dabd316	0.08389871
28	0xbd1f5bc4	-0.038905874
29	0xbda42f4f	-0.08016836
30	0x3d12b77f	0.035819527
31	0xbd89b789	-0.0672446
32	0x3dc14862	0.09437634
33	0xbc9ea5a1	-0.019366087
34	0x3aa1f16e	0.0012355277
35	0xbd5a123b	-0.053240042
36	0xbba18fdf	-0.004930481
37	0x3d3b99a3	0.045800816
38	0xbe1d7ea4	-0.15380341
39	0x3d1e6105	0.038666744
40	0xbe1e6f16	-0.15472063
41	0xbe1a6786	-0.15078554
42	0x3ba2233b	0.0049480475
43	0xbc5d1b92	-0.013495343
44	0xbd9de331	-0.07709349
45	0x3dd6e416	0.10492723
46	0xbdf10095	-0.11767689
47	0x3ddc4b39	0.10756535
48	0x3cdbda15	0.026837388
49	0xbd4bdacc	-0.049769208
50	0x3e3a9095	0.18219216
51	0x3d3bee7c	0.045881733
52	0x3e111a74	0.14170247
53	0xbe737bd6	-0.23777708
54	0xbd369136	-0.044572078
55	0xbe11fdeb	-0.14257018
56	0x3c283cb8	0.010268383
57	0x3d21c38e	0.039493136
58	0x3bc8cbc9	0.0061278087
59	0x3d412e9e	0.0471636
60	0x3d056539	0.032567237
61	0xbe453be0	-0.19261122
62	0xbe11abd6	-0.14225706
63	0xbd903e3c	-0.0704312
64	0x3d8da9db	0.06917163
65	0x3da6b834	0.08140603
66	0x3ddb6a61	0.107136495
67	0x3c98e7ce	0.01866522
68	0x3e052511	0.13002421
69	0xbc388d44	-0.011264149
70	0x3d81430e	0.06311618
71	0xbdfbd872	-0.12297143
72	0x3e776170	0.24158263
73	0x3dfab8a4	0.12242249
74	0xbe18f166	-0.14935836
75	0x3d96f9f4	0.073718935
76	0x3d74770f	0.059683856
77	0x3e12f729	0.14352097
78	0xbdc13ea1	-0.09435774
79	0x3ddf87bf	0.109145634
80	0xbb9298aa	-0.0044737654
81	0x3dbbc03c	0.09167525
82	0xbd8efdbe	-0.06981991
83	0xbe1d1259	-0.1533903
84	0xbd86432c	-0.06555781
85	0xbd75c65c	-0.060003623
86	0xbc2da8bb	-0.0105993105
87	0xbd7697e4	-0.060203448
88	0x3e4cf331	0.20014645
89	0x3d3c76f3	0.046011876
90	0xbb19e8cf	-0.0023484712
91	0xbd03f5be	-0.03221678
92	0x3e3c4db4	0.18389016
93	0xbdc3bcf4	-0.09557524
94	0x3d026836	0.031837665
95	0xbde8c791	-0.11366189
96	0xbd8bf5f7	-0.068340234
97	0x3dda9286	0.106724784
98	0x3c726f41	0.014797033
99	0x3dc8f154	0.09811655
100	0xbccab405	-0.024744043
101	0xbd1026dc	-0.03519331
102	0xbd520c13	-0.051281046
103	0xbcf6eed2	-0.030143175
104	0x3cd40c54	0.025884785
105	0x3d760e96	0.060072504
106	0xbe07e9ea	-0.13272825
107	0x3ce2c3a5	0.027681181
108	0x3e130c08	0.14360058
109	0xbc3a28c4	-0.011362258
110	0xbe80c94b	-0.25153574
111	0xbe2e4748	-0.17019379
112	0x3d60bfc1	0.05487037
113	0xbe68299b	-0.22672121
114	0xbc901a0f	-0.01759055
115	0xbccacf4c	-0.02475705
116	0xbddcc4a5	-0.107796945
117	0xbdac5567	-0.08414727
118	0x3df5f1d9	0.120090194
119	0x3cf1e8c5	0.029529938
120	0x3dc52bba	0.09627481
121	0x3db337ea	0.08750899
122	0xbd1cb58c	-0.038259074
123	0xbdc6031d	-0.096685626
124	0x3e6b708f	0.22992156
125	0x3e03edbd	0.12883659
126	0xbcffd069	-0.031227307
127	0x3be0e613	0.0068633645
128	0x3d6eabb4	0.058269218
129	0xbdb37870	-0.08763206
130	0x3d831122	0.06399752
131	0xbe169063	-0.14703517
132	0xbd5d98a8	-0.054100662
133	0x3d432d9a	0.04765091
134	0x3db30a9d	0.08742259
135	0x3d4ee2fb	0.050509434
136	0xbd9d02ba	-0.07666536
137	0xbd81bb76	-0.063345835
138	0x3d8d0002	0.06884767
139	0x3e14be48	0.14525712
140	0x3e9838cd	0.29730836
141	0xbdc89d18	-0.09795588
142	0x3c38a33d	0.011269388
143	0x3e3f2433	0.18666153
144	0xbd9edf78	-0.07757467
145	0x3d65d539	0.056111548
146	0xbd827330	-0.063696265
147	0xbbf1d401	-0.007380009
148	0xbabebdf2	-0.0014552458
149	0xbe028a5a	-0.1274809
150	0x3d09130a	0.033465423
151	0x3e11d468	0.14241183
152	0xbdd90d8e	-0.105982885
153	0xbe4a50ad	-0.19757338
154	0xbdb95412	-0.09049238
155	0x3d2e7194	0.042588785
156	0x398622b4	0.00025584328
157	0x3c689172	0.014194833
158	0xbd07675f	-0.033057567
159	0xbd5fd46f	-0.05464595
160	0x3c360d00	0.011111498
161	0x3deb32b5	0.11484281
162	0xbd45e8c0	-0.04831767
163	0x3e2a1c9b	0.16612475
164	0xbc817fe4	-0.015808053
165	0x3e119466	0.14216766
166	0xbddcca18	-0.10780734
167	0xbe1cccd3	-0.15312509
168	0x3dd1c5ac	0.10242781
169	0xbc883a1f	-0.016629277
170	0xbcbc21ec	-0.022965394
171	0x3dd27568	0.102763
172	0x3e13d2cf	0.14435886
173	0x3d53490e	0.051583342
174	0x3d13975e	0.036033027
175	0x3dbf1161	0.09329487
176	0x3e0bbb7f	0.13645743
177	0x3d989c54	0.07451692
178	0xbd5a9d65	-0.05337276
179	0x3bf7c51b	0.0075613386
180	0xbbe31959	-0.006930512
181	0x3d2600a5	0.04052796
182	0xbe0077ac	-0.12545651
183	0xbdd9b494	-0.10630146
184	0x3d05bf9f	0.032653447
185	0x3e06f1a4	0.13178116
186	0x3d2ba25c	0.041902885
187	0x3c2023a1	0.00977412
188	0xbd33cbea	-0.04389564
189	0xbca4eb87	-0.02013184
190	0x3ea65916	0.32489842
191	0x3e0a7214	0.1352008
192	0x3db8a20b	0.09015282
193	0x3e09e2ac	0.13465375
194	0x3dddd65a	0.108319
195	0x3e02157d	0.1270351
196	0xbd14d805	-0.036338825
197	0xbd26645c	-0.040623054
198	0x3ca9070a	0.02063324
199	0x3d0116ad	0.031515766
200	0xbd043d46	-0.032284997
201	0xbe023085	-0.12713821
202	0x3a77dc0b	0.0009455091
203	0x3b017bcd	0.001975763
204	0x3d577ae5	0.052607436
205	0x3e0ce59a	0.13759461
206	0xbe04950b	-0.1294748
207	0x3dcbd138	0.09952015
208	0xbc727888	-0.014799245
209	0xbd48919d	-0.048966993
210	0x3dbe577d	0.09294031
211	0x3e144321	0.14478733
212	0xbc538d41	-0.0129120955
213	0x3d9f4788	0.077773154
214	0xbbdd6be0	-0.0067572445
215	0xbc24f987	-0.010069258
216	0xbc7b939e	-0.015355019
217	0xbd5c4ecb	-0.05378608
218	0x3de7c621	0.11317087
219	0x3e35158c	0.17684
220	0x3d829cc8	0.0637756
221	0xbde9b20f	-0.11410915
222	0x3d8176b4	0.06321469
223	0xbcbaccbf	-0.022802709
224	0xbd6bd33d	-0.0575745
225	0x3d59dca0	0.05318892
226	0xbd89cc62	-0.06728436
227	0x3d8b68b0	0.06807077
228	0x3db6deb2	0.089291945
229	0xbe198737	-0.14992987
230	0x3d317b76	0.043330632
231	0xbd9e8eb4	-0.07742062
232	0xbd3ec7a3	-0.046577107
233	0x3d85fa08	0.0654183
234	0x3d072e93	0.0330034
235	0x3d5ae6ff	0.05344295
236	0x3db6050c	0.08887681
237	0xbe264c17	-0.16239963
238	0xbdead5e8	-0.11466581
239	0x3e962646	0.29326075
240	0x3e1fbbd2	0.15598992
241	0x3a2c922e	0.0006583062
242	0xbd72e5bf	-0.059301134
243	0xbd8e67fd	-0.06953428
244	0x3c05043e	0.008118687
245	0x3dbf7758	0.09348935
246	0xbd7cc64c	-0.061712548
247	0xbc79c09b	-0.015243675
248	0xbdfdb831	-0.12388647
249	0x3dac5b11	0.08415807
250	0x3e1dd74e	0.15414163
251	0xbd871aea	-0.0659693
252	0xbdf1239e	-0.117743716
253	0x3e355b6c	0.17710656
254	0x3ce0083a	0.027347673
255	0xbd0424b8	-0.03226158

network_body._body_endoder.seq_layers.2.bias f4 [128]
0	0x3c99a265	0.018754194
1	0xbd14dbaa	-0.0363423
2	0x3cd1bfa5	0.025604079
3	0xbd09d745	-0.033652563
4	0xbcf2fa0c	-0.029660247
5	0x3ccf4ea4	0.025306053
6	0xbd21b1d8	-0.039476246
7	0x3d3bb551	0.045827214
8	0xbc4a2f05	-0.012340312
9	0x3d17c75e	0.037055366
10	0x3d1d71ea	0.038438715
11	0x3d120c82	0.03565646
12	0xbd27fd44	-0.041013017
13	0xbc409c3b	-0.011755998
14	0x3d442307	0.047884967
15	0x3d2c56c7	0.042074945
16	0x3cd0b0f1	0.025474997
17	0xbd1589d7	-0.036508407
18	0xbd0f3d58	-0.03497061
19	0xbba5d715	-0.00506104
20	0x3d02c152	0.031922646
21	0x3d280797	0.041022863
22	0x3d275890	0.040855944
23	0x3d300619	0.042974565
24	0x3cdd5510	0.0270181
25	0x3d4455c4	0.047933355
26	0x3d127668	0.035757452
27	0x3c47f9bc	0.012205537
28	0xbd182865	-0.0371479
29	0x3d266c95	0.040630896
30	0xbcaeffca	-0.021362204
31	0x3d2e100d	0.042495776
32	0xbd13b54c	-0.03606157
33	0xbca7cfc7	-0.020484818
34	0xbc953d00	-0.018217564
35	0xbab28962	-0.0013621266
36	0xbcd0ed14	-0.025503673
37	0x3c218209	0.009857663
38	0xbcd0efd1	-0.025504978
39	0xbd1d5f6a	-0.038421072
40	0xbbb553f5	-0.00553369
41	0x3c7cfd5c	0.015441265
42	0xbd241971	-0.040063325
43	0xbd0e85bf	-0.03479552
44	0xbaa424d3	-0.0012523182
45	0xbc2a671b	-0.010400559
46	0xbd11b7dd	-0.035575736
47	0x3cfd06ef	0.030887095
48	0xbcd1b252	-0.025597725
49	0xbd092715	-0.033484537
50	0xbd19a8d4	-0.037514523
51	0xbc9c04b3	-0.01904521
52	0xbd0f34c5	-0.034962434
53	0xbd2ff92b	-0.042962234
54	0xbd0c81af	-0.034303363
55	0x3c84a2f3	0.016190981
56	0x3d1cc66a	0.03827516
57	0x3ca891f5	0.02057741
58	0xbd1432e1	-0.036181334
59	0x3cdbc1c4	0.026825793
60	0x39bcb018	0.00035989354
61	0x3d4661d1	0.04843313
62	0x3d51c53e	0.051213495
63	0x3d4f5c5c	0.05062519
64	0xbd172fad	-0.0369107
65	0xbd1b7602	-0.037954338
66	0xbccc7946	-0.024960171
67	0xbd093cc9	-0.033505235
68	0xbcd4e99a	-0.025990296
69	0xbcd95d50	-0.026533753
70	0x3d283065	0.041061778
71	0xbccea8b9	-0.025226938
72	0x3d308dcc	0.043103978
73	0xbd1fa97d	-0.038979996
74	0x3d5a5eb0	0.053312957
75	0xbc92dde2	-0.017928068
76	0xbcbbce07	-0.02292539
77	0xbd2d70df	-0.04234397
78	0xbd106c49	-0.03525952
79	0x3b665057	0.00351431
80	0x3b49d00d	0.0030794174
81	0xbd328244	-0.043581262
82	0x3b3581d8	0.00276958
83	0xbd109763	-0.035300624
84	0xbd079a93	-0.033106398
85	0x3d1cb0ca	0.038254537
86	0x3d40e1f8	0.0470905
87	0xbd3287f7	-0.043586697
88	0xbd06da17	-0.03292283
89	0xbcb6b93e	-0.022305127
90	0x3d05acee	0.03263562
91	0x3d219465	0.03944816
92	0xbcf95acc	-0.030438803
93	0x3d29deb9	0.04147217
94	0xbd15549f	-0.036457654
95	0x3cc49241	0.02399552
96	0x3c70948a	0.014683852
97	0xbcbaa116	-0.02278189
98	0x3cc53eb2	0.024077747
99	0x3d48cdfc	0.049024567
100	0x3d437aed	0.047724653
101	0xbd160b69	-0.036631975
102	0xbd3ca113	-0.04605205
103	0xbd14204b	-0.03616361
104	0x3ce2f61c	0.027705245
105	0xbc4be7ce	-0.012445403
106	0x3d0e4eee	0.034743242
107	0x3d263015	0.0405732
108	0xbccf2741	-0.025287272
109	0x3cf77504	0.030207165
110	0xbd1abf9c	-0.03778039
111	0x3d309db4	0.043119147
112	0xbd1b284a	-0.03788022
113	0xbd0b301a	-0.03398142
114	0x3d196a22	0.03745473
115	0x3d107265	0.035265345
116	0x3c48f8d6	0.012266358
117	0x3d1e1910	0.03859812
118	0xbd28d7f9	-0.041221593
119	0xbd1bb7b1	-0.03801698
120	0x3c0749a9	0.008257308
121	0x3d09aab3	0.033610057
122	0x3d4c6fe9	0.049911413
123	0x3d0044c4	0.03131558
124	0x3d358d91	0.04432446
125	0xbc8d6352	-0.017259274
126	0xbcb35771	-0.021892281
127	0xbce95f37	-0.028487785

action_model._discrete_distribution.branches.0.weight f4 [3, 128]
0	0xbc1f9f04	-0.009742502
1	0x3b6ec123	0.0036431036
2	0x3c1f0925	0.00970677
3	0x3c0f7e4a	0.008758137
4	0x3b96a277	0.004597004
5	0xbc25273f	-0.010080158
6	0x3c126dd1	0.008937315
7	0xba8a4f64	-0.0010552225
8	0xbab4e8a5	-0.0013802244
9	0xbc713f46	-0.014724558
10	0x3bd774c7	0.0065752002
11	0x3c5fa1a3	0.013649377
12	0x3c48d763	0.012258383
13	0xbc2e1551	-0.010625199
14	0xbb3ff169	-0.0029288179
15	0x3c4aa650	0.012368754
16	0xbaf05bd3	-0.0018337913
17	0x3c0284ff	0.007966279
18	0xbbdf2e57	-0.006810944
19	0xbbad3be4	-0.0052866805
20	0xbbca6ba5	-0.006177383
21	0xbb9cc257	-0.0047839093
22	0x3be7f3bc	0.007078616
23	0x3c706aa6	0.0146738645
24	0x3c4b5cb9	0.0124122435
25	0xbb03cb56	-0.0020110211
26	0xbbb81606	-0.00561786
27	0xbb9c5a0f	-0.004771478
28	0xbc3c2708	-0.011483915
29	0x3d03794e	0.032098107
30	0xbc238345	-0.009980028
31	0xbb152c32	-0.0022761938
32	0x3c133e18	0.008986972
33	0xbb83fc23	-0.00402786
34	0x3c03f720	0.008054525
35	0x3bf07e69	0.007339288
36	0x3bf82950	0.007573284
37	0x3cbc2b77	0.022969944
38	0xbc95d145	-0.018288264
39	0x3c1e910a	0.009678135
40	0x3b24d7fb	0.0025153148
41	0xbbeef9dc	-0.007292969
42	0x3b13c975	0.0022550498
43	0xbc928d81	-0.01788974
44	0x3c12603f	0.00893408
45	0xbba4a863	-0.005024956
46	0xbc612d3c	-0.013743695
47	0xb9f639fa	-0.00046963972
48	0xbba9e0a4	-0.00518425
49	0x3aee30bc	0.0018172483
50	0xbb4985fc	-0.0030750027
51	0x3bee4362	0.0072712163
52	0x390bcb94	0.00013331912
53	0xbc7e9e63	-0.015540692
54	0x3c3303dc	0.010926213
55	0xbc71566e	-0.014730079
56	0x3c88a468	0.016679958
57	0xbbe01af8	-0.0068391524
58	0xbbba6df9	-0.0056893793
59	0x3c277e3f	0.0102229705
60	0x3b2ae4ec	0.002607639
61	0x3a9e183e	0.0012061668
62	0xbc1def41	-0.009639562
63	0xbc00065d	-0.007814017
64	0x3b312008	0.0027027149
65	0x3b8e16a2	0.004336194
66	0x3bfc32f8	0.0076965056
67	0xbc656f3d	-0.014003572
68	0x3c45794a	0.012052843
69	0x3c8e664e	0.017382767
70	0x3bc98f57	0.0061511206
71	0xbbb1ec5a	-0.0054297866
72	0xbc98a102	-0.018631462
73	0xbb46b8d7	-0.0030322575
74	0xbceb0cb5	-0.028692583
75	0x3c510ff8	0.012760155
76	0xbbbf1dd4	-0.005832413
77	0x3bc59bf1	0.0060305526
78	0xbbc25c54	-0.0059314165
79	0xbc58afee	-0.013225539
80	0xbc352386	-0.011055833
81	0x3ba73974	0.0051032845
82	0xbb907845	-0.0044088685
83	0x3c9fdd26	0.019514631
84	0x3c782fe6	0.015148139
85	0x39d412e4	0.00040449866
86	0xbbeb44b8	-0.007179823
87	0x3c3c0fc8	0.011478372
88	0xbbe0b049	-0.0068569523
89	0xbbedd088	-0.007257525
90	0xbcc04ba3	-0.023473566
91	0x3b85d6dd	0.0040844516
92	0x3c1944b9	0.009354764
93	0x3ba5c210	0.0050585344
94	0xbc0ff0b4	-0.008785415
95	0xbcddd0d6	-0.02707712
96	0xbbbebfc4	-0.0058212
97	0x3c794fe2	0.015216799
98	0xbc8414cc	-0.016123198
99	0xbb7b6420	-0.003835924
100	0x3bfbcc64	0.0076842774
101	0x3cb284cc	0.021791838
102	0x3b1cc9d9	0.0023924022
103	0x3c114a7f	0.008867859
104	0x3c8b3f86	0.016998064
105	0xbb91f2dd	-0.0044540004
106	0x3a50c208	0.0007963483
107	0x3b965535	0.004587794
108	0xbca292d8	-0.019845411
109	0xbbbbbb95	-0.0057291486
110	0xbc5cb046	-0.013469761
111	0x3b96249d	0.0045820014
112	0x3c09afd1	0.008403734
113	0x3c151324	0.009098802
114	0x3ca97b15	0.020688573
115	0x3aa51285	0.001259402
116	0x3b3c399f	0.0028720868
117	0x3c25a5cd	0.010110331
118	0x3a287455	0.0006426026
119	0x3c9d0b4e	0.01917043
120	0x3b8eb469	0.0043550027
121	0x3c89b2a2	0.016808812
122	0x3b276937	0.002554489
123	0xbc957406	-0.0182438
124	0x3c41c2e1	0.011826248
125	0x3c4b40f2	0.012405621
126	0xbb8d3355	-0.004309098
127	0x3a510c0c	0.00079745124
128	0x3acb5689	0.001551346
129	0xbb251c3b	-0.0025193829
130	0xbbcafe6d	-0.0061948807
131	0x3992d804	0.00028008234
132	0xbcb8547a	-0.022501219
133	0x3c38a4a2	0.01126972
134	0x3c4c0efd	0.012454745
135	0x3c0fb619	0.008771443
136	0x3c9d1e49	0.01917948
137	0xb98eaa41	-0.000272112
138	0x3ca010c5	0.019539246
139	0x3a408d77	0.00073452987
140	0xbb3009e1	-0.0026861357
141	0xbc32996a	-0.010900835
142	0xbbe216bb	-0.0068996823
143	0x3afc2493	0.0019236974
144	0xbc570c59	-0.0131255025
145	0x3aadff76	0.0013274986
146	0x3b8a34d5	0.004217724
147	0x3c94bb3e	0.01815569
148	0x3af5ad75	0.0018743711
149	0x3aa2dab1	0.0012424794
150	0x3b4e464b	0.0031475003
151	0x3bdad985	0.0066787624
152	0xbafdb10f	-0.0019355136
153	0xbbe00c1d	-0.0068373815
154	0x3bc08713	0.005875477
155	0xbb045def	-0.002019759
156	0xbbc44389	-0.005989496
157	0x3c5a4bf9	0.013323777
158	0x3bb580e8	0.0055390485
159	0xbb09b66a	-0.0021013268
160	0x3ca03aec	0.019559346
161	0xbb9a381f	-0.004706397
162	0x3c6141ff	0.013748645
163	0xb9498fac	-0.00019222376
164	0xba51db4a	-0.0008005394
165	0xb80e0bf0	-3.3866556e-05
166	0x3c88815c	0.016663246
167	0x3a76f6b8	0.0009420919
168	0x3bd42dd8	0.0064751916
169	0xbb49cfb8	-0.0030793976
170	0xbc3dc225	-0.011581932
171	0xbbeb9362	-0.0071892003
172	0x3b9791d2	0.0046255374
173	0xbbfafe84	-0.007659735
174	0xbc69f3d0	-0.014279321
175	0x3c6a8ab2	0.014315294
176	0xbb4a349a	-0.0030854107
177	0x3c5c6842	0.013452591
178	0xbcc36f18	-0.023856685
179	0xb9f8ea9f	-0.00047477052
180	0xbc834747	-0.016025199
181	0xbc1e30c0	-0.009655178
182	0xbc319d94	-0.010840792
183	0x3c6ceacf	0.01446028
184	0xbb8782bc	-0.004135458
185	0x3c41b597	0.01182308
186	0x3bcc4f73	0.006235057
187	0xbc4e68c2	-0.012598218
188	0xbbb4f5f1	-0.0055224826
189	0xbbae877a	-0.0053262087
190	0xbc574fa5	-0.013141547
191	0xbb89517f	-0.0041906233
192	0x3c09dd95	0.008414646
193	0xbbb88135	-0.005630637
194	0xba22905a	-0.00062013196
195	0x3c2fe4d7	0.010735712
196	0xbbfd2f2f	-0.007726572
197	0xbb7a8310	-0.0038225092
198	0x3cd945eb	0.026522597
199	0xbb871146	-0.004121932
200	0x3b609634	0.0034269216
201	0x3bc1d95e	0.0059158048
202	0xbb15d868	-0.0022864584
203	0xbb3d3819	-0.0028872548
204	0xbc03b685	-0.0080391215
205	0x3c37a219	0.011208081
206	0xba4b8b2b	-0.0007764573
207	0xbc9b5ebb	-0.01896607
208	0x3c01a3a0	0.007912546
209	0xb85ff045	-5.339111e-05
210	0xbbe3a9f9	-0.0069477526
211	0x3bd70ed3	0.0065630465
212	0x3b52d6d2	0.00321715
213	0xbc1e0c5e	-0.009646503
214	0x3c258437	0.010102323
215	0xbbe25876	-0.006907518
216	0xba47b49c	-0.00076181605
217	0x3c5ce418	0.013482116
218	0x3ca839ab	0.02053531
219	0x3b343b9c	0.002750135
220	0xbb30564a	-0.00269069
221	0x3b1a9719	0.0023588596
222	0xbb962404	-0.00458193
223	0xbca552af	-0.020181028
224	0xbc344a0a	-0.01100398
225	0xbc100002	-0.008789064
226	0x3c290f95	0.010318656
227	0xbbc970a1	-0.0061474596
228	0xbba9bcca	-0.005179976
229	0xbc31da9a	-0.010855341
230	0xbc017a12	-0.007902639
231	0xba4e7867	-0.0007876218
232	0xbc279459	-0.01022824
233	0x3ae0ec2c	0.0017160228
234	0xbc4b7cb1	-0.0124198655
235	0xbbd2597c	-0.006419359
236	0x3c5ea205	0.013588433
237	0x3bc1e9b7	0.0059177536
238	0xbc21613b	-0.009849842
239	0xbb05b2cd	-0.0020400763
240	0xbc1ff810	-0.009763733
241	0x3bf73ab9	0.007544842
242	0x3b008867	0.0019612552
243	0xbc6bd51a	-0.014394069
244	0xbbd9c4f5	-0.0066457936
245	0xbc8f8dd1	-0.017523678
246	0xba760029	-0.0009384179
247	0x3b5c6dbd	0.0033634745
248	0xbc532068	-0.012886144
249	0xbc183007	-0.009288794
250	0x3b505cd3	0.0031793609
251	0xbbafbfd6	-0.005363445
252	0x3c3fb88c	0.011701714
253	0xbc11e8e7	-0.008905626
254	0xbc36788c	-0.011137139
255	0xbb3f620f	-0.0029202735

action_model._discrete_distribution.branches.0.bias f4 [3]
0	0xbb0c6501	-0.0021422508
1	0x39346077	0.00017202074
2	0x3b2f45ce	0.0026744488

action_model._discrete_distribution.branches.1.weight f4 [3, 128]
0	0xbd02b6f0	-0.031912744
1	0x3d446782	0.047950275
2	0xbd20be1e	-0.03924381
3	0x3d4a19ed	0.04934113
4	0x3d5d9db1	0.054105464
5	0xbd5d29c9	-0.053994928
6	0x3d42afda	0.047530986
7	0xbd8b2ddd	-0.06795857
8	0x3cc31b85	0.023816833
9	0xbd4c0ebb	-0.049818736
10	0xbd5f2c52	-0.054485627
11	0xbd6a730a	-0.057238616
12	0x3d449083	0.04798938
13	0x3d0c755d	0.034291614
14	0xbd3d48e1	-0.04621208
15	0xbd4c735a	-0.049914695
16	0xbd2bf376	-0.04198023
17	0x3d806888	0.06269938
18	0x3cfb3e35	0.030669311
19	0xb9663a53	-0.00021956237
20	0xbd1e94d5	-0.038716156
21	0xbd1a23e1	-0.037631873
22	0xbd55fa1e	-0.052240483
23	0xbd541af9	-0.051783536
24	0xbc9ecccf	-0.01938477
25	0xbd5b05fd	-0.053472508
26	0xbd093cfd	-0.03350543
27	0x3bc44cef	0.0059906165
28	0x3d1da8dc	0.038491115
29	0xbd1df7b9	-0.038566325
30	0x3cd5759f	0.026057063
31	0xbd45e98a	-0.048318423
32	0x3d4de7f4	0.050270036
33	0x3cf12159	0.029434847
34	0x3cf28f4f	0.02960935
35	0x3b03ca7b	0.0020109701
36	0x3cf2708f	0.029594688
37	0xbcefd76e	-0.02927753
38	0x3d1e309c	0.038620576
39	0x3d2245a1	0.039617185
40	0x3c4a95f6	0.012364855
41	0xbd2a4f61	-0.041579608
42	0x3d08b832	0.033378787
43	0x3d26f7af	0.040763553
44	0xbc7a9c80	-0.015296102
45	0x3ca03c82	0.019560102
46	0x3d2da0f2	0.042389818
47	0xbd5f5a07	-0.054529216
48	0x3d3e433d	0.046450842
49	0x3d526381	0.051364426
50	0x3d3e90be	0.046524756
51	0x3c917dc0	0.017760158
52	0x3d55e50b	0.052220386
53	0x3d41567f	0.04720163
54	0x3d5ffecd	0.054686356
55	0xbc693056	-0.014232716
56	0xbd192f68	-0.037398726
57	0xbd373846	-0.0447314
58	0x3d16e91e	0.03684341
59	0xbce1d6d4	-0.027568258
60	0xbc192b88	-0.009348758
61	0xbd1fb38b	-0.038989585
62	0xbd3b8d79	-0.045789216
63	0xbd2eee24	-0.042707577
64	0x3d5db771	0.05413002
65	0x3ced7371	0.02898571
66	0x3d3f1716	0.046652876
67	0x3d3aaf65	0.045577426
68	0x3cefce68	0.029273227
69	0x3ce88650	0.028384358
70	0xbd79ee4a	-0.061018266
71	0x3d2bf00d	0.041976977
72	0xbd6900d1	-0.056885544
73	0x3d3a1120	0.045426488
74	0xbd84cee7	-0.06484776
75	0x3ce2b390	0.027673513
76	0x3d0f1d2e	0.034939937
77	0x3d4995d7	0.049215164
78	0x3d53d8c8	0.05172041
79	0xbc6f024c	-0.01458795
80	0xbce72ed4	-0.028220572
81	0x3d4dd06b	0.05024759
82	0xbcaa6c0c	-0.020803474
83	0x3d2d7e54	0.042356804
84	0x3d0d0461	0.034428004
85	0xbd40ff53	-0.047118496
86	0xbd59d404	-0.05318071
87	0x3d354030	0.044250667
88	0x3d67b8c1	0.05657268
89	0x3cfb0b02	0.030644897
90	0xbd53c1a1	-0.05169833
91	0xbd532a3c	-0.05155395
92	0x3d364d46	0.044507287
93	0xbd1a0c18	-0.03760919
94	0x3d124cff	0.03571796
95	0xbd78b427	-0.06071868
96	0xbcba5c84	-0.022749193
97	0x3d2cb532	0.04216499
98	0xbccfa59a	-0.02534752
99	0xbd20c950	-0.039254487
100	0xbd76ed6b	-0.060285013
101	0x3d51f5ad	0.051259685
102	0x3d46330d	0.04838853
103	0x3d2a8d6e	0.041638784
104	0xbd18385c	-0.037163123
105	0x3d0cae6c	0.03434603
106	0xbd1d121e	-0.038347356
107	0xbd2b27c2	-0.041785963
108	0x3d0ed80b	0.034874003
109	0xbd409617	-0.047018137
110	0x3d2fea35	0.042947967
111	0xbd2e2fe8	-0.042526156
112	0x3d428812	0.047493048
113	0x3d74bc47	0.059749868
114	0xbd1b1963	-0.037866008
115	0xbd2c3e54	-0.04205163
116	0xbccb69b1	-0.024830671
117	0xbd2865e2	-0.041112788
118	0x3d59904e	0.053116135
119	0x3d7ac34e	0.061221413
120	0xbca8a178	-0.020584807
121	0xbd6e77f2	-0.058219858
122	0xbd4827f3	-0.048866224
123	0xbd4e7496	-0.050404154
124	0xbd015875	-0.0315785
125	0x3d2a24c5	0.041538972
126	0x3d31142f	0.04323214
127	0x3cf9812d	0.030457104
128	0x3c027773	0.007963049
129	0xbcb686b7	-0.022281034
130	0x3c5c933a	0.013462836
131	0xbcd2b599	-0.025721358
132	0xbcf69166	-0.030098628
133	0x3cc42dbf	0.023947595
134	0xbd0e9a54	-0.034815148
135	0x3d1390ab	0.036026638
136	0x3b29ce32	0.0025910255
137	0x3c956ff7	0.018241866
138	0x3ce209fc	0.027592652
139	0x3c983c68	0.018583491
140	0xbcda3005	-0.026634226
141	0x3bfee969	0.0077792895
142	0x3c97831b	0.018495133
143	0x3cc1fbb0	0.023679584
144	0x3cb33169	0.021874147
145	0xbd1493e8	-0.036273867
146	0xbcf9d3cf	-0.030496506
147	0xbc8c68f6	-0.017139893
148	0x3be5feb8	0.00701889
149	0x3c6e01bd	0.014526782
150	0x3cc1f579	0.02367662
151	0x3cd25ea1	0.025679888
152	0x3cc06465	0.023485372
153	0x3ce0b821	0.02743155
154	0x3cd5065e	0.026004013
155	0xbc44ea15	-0.0120187
156	0xbce0aa47	-0.027424945
157	0x3cbb3239	0.022851096
158	0xbc489dd9	-0.012244665
159	0x3b40a851	0.00293972
160	0xbcb1b3cd	-0.021692181
161	0xbca57f31	-0.020202251
162	0xbca237c5	-0.019801984
163	0xbb989942	-0.0046569416
164	0xbcc8f591	-0.024531158
165	0x3c90d5ac	0.017680012
166	0xbcf132d5	-0.029443184
167	0xbceea299	-0.029130267
168	0xbca026b9	-0.019549714
169	0xbc8994a9	-0.01679452
170	0xbd1b86a0	-0.037970185
171	0xbcbb5cc7	-0.022871388
172	0x3bce6211	0.0062983115
173	0xbc3192ce	-0.010838224
174	0xbd0895e7	-0.033346083
175	0x3d038521	0.032109383
176	0xbb0a44dd	-0.0021098175
177	0xbcaf7b80	-0.021421194
178	0xbcc167de	-0.023609098
179	0xbd02a97d	-0.031899918
180	0xbc9ae0ba	-0.018905986
181	0xbbe207e7	-0.0068979147
182	0xbceb657e	-0.028734919
183	0x3c464939	0.012102419
184	0x3c727c72	0.014800178
185	0x3c1cb231	0.0095639685
186	0xbd01ffd6	-0.031738125
187	0x3ce292bd	0.02765786
188	0x3a4d8aef	0.0007840832
189	0x3cdd5b77	0.027021153
190	0x3cf001e4	0.029297777
191	0x3c867498	0.016413018
192	0xbc70076f	-0.01465021
193	0xbc667b3c	-0.014067467
194	0xbc41b0ba	-0.01182192
195	0xbd429cc9	-0.047512803
196	0xbc355d0d	-0.011069548
197	0xbcec6f53	-0.028861677
198	0x3c8f20c9	0.017471688
199	0xbc9e3520	-0.019312441
200	0x3d02bfd9	0.03192124
201	0xbcf5ff6a	-0.030029017
202	0x3d036fe2	0.03208912
203	0xbc832840	-0.016010404
204	0xbc9486de	-0.018130716
205	0xbceffcba	-0.029295314
206	0xbc1ddb28	-0.00963477
207	0x3bb8ad30	0.00563588
208	0x3c0210e4	0.007938597
209	0xbcfed476	-0.031107169
210	0x3b0b540c	0.0021259813
211	0xbcc5d78d	-0.024150634
212	0xbc8a42dd	-0.016877586
213	0x3c480b6c	0.012209754
214	0x3c893f5f	0.01675385
215	0xbcd9fd8f	-0.026610164
216	0xbcb0f6b7	-0.021602018
217	0xbd216f20	-0.039412618
218	0x3c74af25	0.014934336
219	0x3d3a0d38	0.045422763
220	0xbbfd5efd	-0.0077322708
221	0x3caacab7	0.020848615
222	0xbd103b23	-0.035212647
223	0xbc5dc5d2	-0.013535934
224	0x3b107f88	0.002204867
225	0xbcc2f6cd	-0.023799324
226	0x3ca2bf31	0.019866558
227	0x3d0ab440	0.033863306
228	0x3be8e637	0.007107522
229	0xbd15c56b	-0.036565226
230	0xbcbdc91b	-0.023167184
231	0xbd067bd9	-0.032832954
232	0x3c879d84	0.016554601
233	0xbcd434f6	-0.02590416
234	0x3c8da8a6	0.017292332
235	0x3c60c790	0.013719454
236	0xbcc999ae	-0.024609413
237	0x3ceae6fd	0.028674597
238	0xbcf827a1	-0.030292334
239	0x3d06442a	0.03277985
240	0xbc317900	-0.010832071
241	0xbce86480	-0.028368235
242	0x3d0d16b0	0.034445465
243	0x3ca4928f	0.020089416
244	0x3cc2a11e	0.023758467
245	0x3ce95cf3	0.028486704
246	0xbc1ce7aa	-0.009576717
247	0xbd0f1254	-0.03492959
248	0x3c38541b	0.011250521
249	0x3c952f80	0.018211126
250	0x3c8b48eb	0.017002543
251	0x3cb72e94	0.022361077
252	0x3ce0ed2e	0.027456846
253	0xbc95b1e1	-0.018273296
254	0xbc39621b	-0.011314894
255	0xbc684a7a	-0.014177913

action_model._discrete_distribution.branches.1.bias f4 [3]
0	0xbd1a71b3	-0.03770609
1	0x3cc60083	0.024170166
2	0x3ca5f598	0.02025871

exp_avg f4 [128, 48]
0	0xb42928d2	-1.5754202e-07
1	0xb7745ea4	-1.4565569e-05
2	0xb7de1bc8	-2.6477399e-05
3	0xb582e554	-9.752498e-07
4	0xb78538d6	-1.5881302e-05
5	0xb7bd35fc	-2.2555694e-05
6	0x34fc6510	4.701219e-07
7	0xb7ff2723	-3.0416593e-05
8	0xb823c62c	-3.904679e-05
9	0xb32164ad	-3.7577298e-08
10	0xb71b14c9	-9.243559e-06
11	0xb7abecf4	-2.0495128e-05
12	0x35c18c6c	1.4420489e-06
13	0xb7a1f4c2	-1.930667e-05
14	0xb80aea8e	-3.312021e-05
15	0x35957f75	1.113846e-06
16	0xb77e83b2	-1.51702425e-05
17	0xb7e6aa3a	-2.7497405e-05
18	0x341e887f	1.4764554e-07
19	0xb7a0aa80	-1.9152882e-05
20	0xb806948d	-3.208644e-05
21	0x3510899f	5.3844445e-07
22	0xb7bb0b88	-2.2297507e-05
23	0xb7fc15eb	-3.0050947e-05
24	0x34810179	2.4029194e-07
25	0xb7a2a29e	-1.938763e-05
26	0xb7f6b7b5	-2.941103e-05
27	0x359cc926	1.1681448e-06
28	0xb7985823	-1.8160854e-05
29	0xb80215e5	-3.1014806e-05
30	0xb404d570	-1.2371106e-07
31	0xb7da5445	-2.6026866e-05
32	0xb80cab88	-3.3538352e-05
33	0xb6c29271	-5.7986986e-06
34	0xb75bfce8	-1.31123015e-05
35	0xb7ecc8a9	-2.8226832e-05
36	0xb3d683ec	-9.989148e-08
37	0xb7c55eed	-2.3528433e-05
38	0xb7fec96c	-3.0372954e-05
39	0xb711458e	-8.658868e-06
40	0xb72b2a6d	-1.0202272e-05
41	0xb7c30886	-2.324978e-05
42	0xb483aa2f	-2.4524476e-07
43	0xb7a037c0	-1.9099447e-05
44	0xb7d658ec	-2.5552195e-05
45	0x3404eb1b	1.2378989e-07
46	0xb750550f	-1.241757e-05
47	0x3519846c	5.718964e-07
48	0xb5e31611	-1.691924e-06
49	0x34d0e70b	3.8911125e-07
50	0x37361616	1.0853188e-05
51	0xb60bd018	-2.083374e-06
52	0xb634c1e0	-2.693494e-06
53	0xb5321aa1	-6.634892e-07
54	0x3449c613	1.8791643e-07
55	0x36ac1147	5.128011e-06
56	0x376c27db	1.4075976e-05
57	0xb3618dee	-5.251598e-08
58	0x372c8a18	1.0284151e-05
59	0x36b3c483	5.3574927e-06
60	0x369a9a84	4.6075456e-06
61	0x3782c29b	1.5587828e-05
62	0x37d0c508	2.4887282e-05
63	0x35d8e280	1.6159174e-06
64	0xb6a1a3e4	-4.8172533e-06
65	0xb6ad6f23	-5.16874e-06
66	0x360ed663	2.1284438e-06
67	0x37b56095	2.1621856e-05
68	0x37d6ca95	2.5605123e-05
69	0x3610aabc	2.1557053e-06
70	0xb6b01300	-5.2474206e-06
71	0xb67f636f	-3.805584e-06
72	0x36665c27	3.432631e-06
73	0x380cb690	3.3548626e-05
74	0x3800daaa	3.0721225e-05
75	0xb579bcb3	-9.303432e-07
76	0xb65bc43e	-3.274777e-06
77	0x3714a355	8.859516e-06
78	0xb3e52611	-1.0670568e-07
79	0x38237579	3.8971633e-05
80	0x381958fa	3.656091e-05
81	0xb64478a5	-2.92765e-06
82	0x381389cd	3.5175868e-05
83	0x38066068	3.2037875e-05
84	0x34a46503	3.0620876e-07
85	0x382ea3cc	4.163738e-05
86	0x3827fb7b	4.0050112e-05
87	0xb60dd7c9	-2.113624e-06
88	0x3815b901	3.5696667e-05
89	0x3817cbf9	3.619117e-05
90	0x3482314b	2.4250252e-07
91	0x381971ac	3.6583908e-05
92	0x381d20ea	3.746237e-05
93	0x33fd7257	1.1802029e-07
94	0xb60a1267	-2.0574314e-06
95	0x36edfd01	7.092604e-06
96	0xb5af7fca	-1.3075708e-06
97	0x3694c04c	4.43313e-06
98	0x36d1b143	6.2493214e-06
99	0xb57f4b84	-9.510479e-07
100	0x365eddad	3.320961e-06
101	0x36122c5d	2.1781518e-06
102	0xb5fcd90a	-1.883863e-06
103	0x37251d3d	9.841574e-06
104	0x370fc7a4	8.569947e-06
105	0x325d9776	1.2898331e-08
106	0x36abbd54	5.118238e-06
107	0x35c2fad2	1.4527125e-06
108	0xb58da69a	-1.0553806e-06
109	0x3750574b	1.2418091e-05
110	0x370c133e	8.34913e-06
111	0xb50b50b0	-5.189895e-07
112	0x35a9ee91	1.2660913e-06
113	0xb64e299a	-3.0720607e-06
114	0xb3d8f6c0	-1.01031674e-07
115	0x3740f03d	1.1500027e-05
116	0x36bae843	5.570271e-06
117	0xb55617f5	-7.9756074e-07
118	0xb600edcc	-1.9211902e-06
119	0xb6737520	-3.6277997e-06
120	0xb5cd712e	-1.530663e-06
121	0x34ede021	4.4307765e-07
122	0xb64e8638	-3.0774518e-06
123	0x346b063b	2.1888347e-07
124	0xb5a8a1f0	-1.2564105e-06
125	0xb6bc06bd	-5.603621e-06
126	0xb3c13ddd	-8.998516e-08
127	0xb60440d1	-1.970726e-06
128	0xb6c56ddd	-5.8838473e-06
129	0xb6aecc51	-5.2093897e-06
130	0xb72072b9	-9.563454e-06
131	0xb71a2c31	-9.189404e-06
132	0xb39a6ac9	-7.190608e-08
133	0xb6d267af	-6.270558e-06
134	0xb6f3151d	-7.2444222e-06
135	0xb6c4530b	-5.8509227e-06
136	0xb58523aa	-9.919652e-07
137	0xb657044c	-3.2039998e-06
138	0xb526dd36	-6.2161723e-07
139	0xb6b8491f	-5.4921397e-06
140	0xb6ca84ba	-6.0355205e-06
141	0xb3776583	-5.7601493e-08
142	0xb70faccb	-8.563696e-06
143	0xb638aa84	-2.751739e-06
144	0x354563d7	7.3533505e-07
145	0xb79fd12c	-1.905168e-05
146	0xb81426d4	-3.532211e-05
147	0xb4f268eb	-4.515235e-07
148	0xb787d592	-1.6192706e-05
149	0xb7d5666e	-2.5439276e-05
150	0x361413f4	2.2065333e-06
151	0xb82b69c0	-4.0868064e-05
152	0xb852f62b	-5.0297163e-05
153	0xb3eefec0	-1.11290774e-07
154	0xb6eaa807	-6.9933044e-06
155	0xb7c42cf6	-2.3385957e-05
156	0x36447992	2.927704e-06
157	0xb7bf16b6	-2.277955e-05
158	0xb82765bd	-3.9910654e-05
159	0x3672d60f	3.6185409e-06
160	0xb7306826	-1.0514666e-05
161	0xb7eed4d5	-2.8470919e-05
162	0xb50f4bd2	-5.3381984e-07
163	0xb7b89fad	-2.2008864e-05
164	0xb8177422	-3.6109363e-05
165	0x35f84ebc	1.8500355e-06
166	0xb7f5820f	-2.926684e-05
167	0xb813bfec	-3.5226272e-05
168	0x360f25a5	2.1330573e-06
169	0xb7f27f54	-2.890794e-05
170	0xb8227d91	-3.8740753e-05
171	0x36636eeb	3.3890199e-06
172	0xb7e220e6	-2.6956619e-05
173	0xb82e0bed	-4.149594e-05
174	0xb4556179	-1.9872631e-07
175	0xb80b67a6	-3.3236713e-05
176	0xb8310b6c	-4.2210726e-05
177	0xb702a2f9	-7.786549e-06
178	0xb76490ad	-1.3623544e-05
179	0xb81211f9	-3.482585e-05
180	0x34fe672b	4.738625e-07
181	0xb81a6ea7	-3.6819514e-05
182	0xb8381c43	-4.389534e-05
183	0xb6c4ab1c	-5.861175e-06
184	0xb7c51133	-2.3492239e-05
185	0xb81a3482	-3.6765363e-05
186	0x352a0688	6.333944e-07
187	0xb805034b	-3.1712738e-05
188	0xb819642a	-3.6571328e-05
189	0x34a908e2	3.1485166e-07
190	0xb7147f06	-8.851062e-06
191	0xb5654560	-8.54101e-07
192	0xb3ed7971	-1.10582626e-07
193	0xb7bbb0bd	-2.2374437e-05
194	0xb7f21695	-2.8859164e-05
195	0xb67984a2	-3.7181094e-06
196	0xb7ca2528	-2.4097579e-05
197	0xb7fc2262	-3.0056752e-05
198	0x365c6dd9	3.2846494e-06
199	0xb82c5157	-4.108375e-05
200	0xb8288db6	-4.01863e-05
201	0xb459e3ee	-2.029262e-07
202	0x348f45de	2.668666e-07
203	0xb79fbf2d	-1.90433e-05
204	0x370aed95	8.280757e-06
205	0xb71a1e08	-9.1861075e-06
206	0xb7862b3d	-1.599418e-05
207	0x36aa484e	5.074812e-06
208	0xb7b2e752	-2.132697e-05
209	0xb80f0996	-3.4102784e-05
210	0x3618c3b5	2.2763681e-06
211	0xb6268efc	-2.4819155e-06
212	0xb72cadf8	-1.0292504e-05
213	0x369d72c0	4.6923233e-06
214	0xb80705c8	-3.2191892e-05
215	0xb8186b22	-3.63394e-05
216	0x36d90ee5	6.468838e-06
217	0x36b19221	5.2920227e-06
218	0xb6d4deeb	-6.3440434e-06
219	0x35c1f538	1.4450989e-06
220	0xb7db8698	-2.616951e-05
221	0xb7e0ba0d	-2.6789518e-05
222	0xb487c9cb	-2.5292533e-07
223	0x378614b7	1.598369e-05
224	0x368e2b64	4.236981e-06
225	0xb748a6fe	-1.195981e-05
226	0x37edff0c	2.8371367e-05
227	0x3664d135	3.4096422e-06
228	0x35411ef5	7.194315e-07
229	0x37677d3f	1.3797834e-05
230	0x36b10b1a	5.2763035e-06
231	0xb71aada1	-9.219541e-06
232	0x374244ec	1.1579348e-05
233	0x33b3af62	8.367239e-08
234	0x352ccfcf	6.4377394e-07
235	0x36ce06af	6.1400565e-06
236	0x3640716c	2.867625e-06
237	0x3501337e	4.8131176e-07
238	0xb7389af2	-1.1003331e-05
239	0x36ef5f30	7.1338363e-06
240	0xb42247da	-1.5113565e-07
241	0x36e1a144	6.7242963e-06
242	0x373d9f1c	1.1302323e-05
243	0xb3ee683c	-1.1101699e-07
244	0x36ea5ae1	6.984323e-06
245	0x37242934	9.784755e-06
246	0xb3c6b685	-9.2532936e-08
247	0x37a1a7bc	1.9270803e-05
248	0x37add1f2	2.072097e-05
249	0x30a38fa0	1.1900632e-09
250	0x365697d4	3.197686e-06
251	0x36e3a2b0	6.7840665e-06
252	0x33c8e0c8	9.354113e-08
253	0x379b852d	1.8539455e-05
254	0x37a728b6	1.9926909e-05
255	0xb410917f	-1.3463976e-07

exp_avg_sq f4 [128, 48]
0	0x2f26c570	1.5167756e-10
1	0x3119d5c5	2.2385944e-09
2	0x3156360b	3.1171818e-09
3	0x2f42fdd8	1.773438e-10
4	0x312428f8	2.388843e-09
5	0x3143f5d7	2.8515978e-09
6	0x2f8485f4	2.410584e-10
7	0x314c2a34	2.9709897e-09
8	0x3185d5bc	3.8951082e-09
9	0x2ebf94e1	8.7121206e-11
10	0x312920a0	2.4611282e-09
11	0x3149b7e1	2.9353873e-09
12	0x2f595a68	1.9768154e-10
13	0x319f26f7	4.631939e-09
14	0x31ba81e5	5.4280798e-09
15	0x2ebc3f3d	8.5604836e-11
16	0x3130b74c	2.5715563e-09
17	0x31557b10	3.1065532e-09
18	0x2f333892	1.6300053e-10
19	0x31b27a7e	5.1944076e-09
20	0x31c283d3	5.66113e-09
21	0x2f0d8d21	1.2874014e-10
22	0x313c6aa5	2.741822e-09
23	0x316655ea	3.3518242e-09
24	0x2f08ecd7	1.245327e-10
25	0x31b82df0	5.3603273e-09
26	0x31c67775	5.776139e-09
27	0x2f36b726	1.6617871e-10
28	0x314fef11	3.0258358e-09
29	0x31812c13	3.759405e-09
30	0x2f58ca27	1.9716904e-10
31	0x31aaa970	4.966914e-09
32	0x31bb03a6	5.442831e-09
33	0x2f5a3470	1.9845614e-10
34	0x318140bd	3.761754e-09
35	0x31a2e667	4.7410142e-09
36	0x2f6f3549	2.1755854e-10
37	0x319764f5	4.406156e-09
38	0x31ac97d2	5.023119e-09
39	0x2fa589ae	3.0111152e-10
40	0x3198954f	4.4407567e-09
41	0x31adc11d	5.056917e-09
42	0x2fa46be5	2.990809e-10
43	0x319dc77e	4.591981e-09
44	0x31b4cce5	5.2619833e-09
45	0x2fd7dddd	3.9265916e-10
46	0x300be5ec	5.0894644e-10
47	0x30383f17	6.7028466e-10
48	0x2f9f4d61	2.8976913e-10
49	0x3176e8d1	3.5930052e-09
50	0x319b91cf	4.5276702e-09
51	0x2f1e1f18	1.4381063e-10
52	0x317fa4be	3.720103e-09
53	0x319009f5	4.1920836e-09
54	0x2fafd87e	3.1986142e-10
55	0x318e39e3	4.139325e-09
56	0x31b709fc	5.327136e-09
57	0x2ec544de	8.970756e-11
58	0x31819eb4	3.7724366e-09
59	0x318e9cdc	4.1505768e-09
60	0x2f8c1a2f	2.5484456e-10
61	0x31d32537	6.145139e-09
62	0x31ea5dfc	6.820981e-09
63	0x2ebad80a	8.496677e-11
64	0x3184840e	3.8567185e-09
65	0x3192e095	4.2746913e-09
66	0x2f06024d	1.2188046e-10
67	0x31eb2870	6.8439974e-09
68	0x31f5e969	7.156974e-09
69	0x2ed9a584	9.897419e-11
70	0x318f25d0	4.1661465e-09
71	0x319da807	4.588404e-09
72	0x2f0d0dd1	1.2828784e-10
73	0x31f654c1	7.1691777e-09
74	0x32020452	7.567978e-09
75	0x2f4d9446	1.8697319e-10
76	0x319c0707	4.5409965e-09
77	0x31ae9d28	5.081933e-09
78	0x2ecfbcc0	9.446799e-11
79	0x31f8d380	7.2417947e-09
80	0x32016332	7.531343e-09
81	0x2fbbbd9b	3.4149825e-10
82	0x31cc9bae	5.95488e-09
83	0x31f182cb	7.0288926e-09
84	0x2f139f0f	1.3426081e-10
85	0x31e9e19e	6.806842e-09
86	0x31fa5f44	7.286788e-09
87	0x2f6c4aa2	2.149059e-10
88	0x31faf16b	7.3034037e-09
89	0x320999ec	8.009447e-09
90	0x2f6bf7a0	2.14611e-10
91	0x3206a43e	7.837171e-09
92	0x32128ba2	8.530067e-09
93	0x300071e8	4.6728e-10
94	0x30014984	4.70344e-10
95	0x305457ef	7.725011e-10
96	0x2dc81388	2.2746041e-11
97	0x2fdbe14e	3.9995957e-10
98	0x30221edd	5.8979116e-10
99	0x2da2fb89	1.8528972e-11
100	0x2ff3f659	4.4376483e-10
101	0x300de929	5.162684e-10
102	0x2e5a6193	4.9654125e-11
103	0x302e3309	6.3373357e-10
104	0x307be260	9.1634966e-10
105	0x2d550b9b	1.2110225e-11
106	0x2ffb20dd	4.5679985e-10
107	0x300fc4bd	5.230268e-10
108	0x2e8aeb6a	6.3173314e-11
109	0x309cc283	1.1405777e-09
110	0x30b25bcc	1.2977295e-09
111	0x2d6fbc98	1.3627453e-11
112	0x3001c392	4.720785e-10
113	0x301a32f3	5.6097277e-10
114	0x2e395c24	4.2145967e-11
115	0x30b89f60	1.3433059e-09
116	0x30c10cd6	1.4046246e-09
117	0x2df5a9ff	2.7928769e-11
118	0x3018c745	5.5580457e-10
119	0x30308673	6.421949e-10
120	0x2e03126b	2.980231e-11
121	0x30cf7e25	1.5097085e-09
122	0x30d60c5d	1.5574063e-09
123	0x2e599c31	4.9478813e-11
124	0x303e08de	6.91342e-10
125	0x30598ea1	7.914683e-10
126	0x2e2c80cd	3.922267e-11
127	0x30c5eae4	1.4400396e-09
128	0x30cfb84e	1.5113615e-09
129	0x2e9e74ad	7.205734e-11
130	0x308b5cb1	1.0139926e-09
131	0x30a8e1c8	1.228778e-09
132	0x2dff0baa	2.8995324e-11
133	0x30c3f6a2	1.4258215e-09
134	0x30cf0c88	1.5064794e-09
135	0x2e5d7654	5.035468e-11
136	0x30bd763b	1.3785163e-09
137	0x30cb795c	1.4804686e-09
138	0x2e5f208b	5.0733234e-11
139	0x30cf07e5	1.5063476e-09
140	0x30dad2db	1.5921516e-09
141	0x2ed01281	9.462032e-11
142	0x2efbee10	1.1456447e-10
143	0x2f182ce2	1.3840265e-10
144	0x2ffa4c57	4.5528978e-10
145	0x31d9cb5d	6.338651e-09
146	0x321ffd47	9.312607e-09
147	0x2fda4383	3.970194e-10
148	0x3214b1c3	8.655152e-09
149	0x322b38ca	9.966422e-09
150	0x3032f6d5	6.510679e-10
151	0x31f2f5ca	7.07107e-09
152	0x322358f3	9.508073e-09
153	0x2f75ede9	2.2367143e-10
154	0x321cd4a7	9.128747e-09
155	0x32327a31	1.0388747e-08
156	0x3019e827	5.5990984e-10
157	0x32222d5b	9.439954e-09
158	0x324ddfac	1.1983428e-08
159	0x2f67fe55	2.1099684e-10
160	0x322c0dbc	1.00148405e-08
161	0x32467be2	1.15532846e-08
162	0x2fdd4d79	4.0254713e-10
163	0x323a6274	1.0849011e-08
164	0x3254fe41	1.2397835e-08
165	0x2fb1bcd6	3.2330288e-10
166	0x3232a755	1.03990105e-08
167	0x3252b6cd	1.2265173e-08
168	0x2fb43d41	3.2785333e-10
169	0x3249264c	1.17084475e-08
170	0x32641651	1.3276421e-08
171	0x2fefb6c4	4.360371e-10
172	0x323d1808	1.1006712e-08
173	0x325ff078	1.3034985e-08
174	0x2fa2ebc5	2.9635153e-10
175	0x3247265a	1.1592045e-08
176	0x3260a77b	1.3076597e-08
177	0x30098fad	5.0044485e-10
178	0x32516a04	1.2189506e-08
179	0x327f58a5	1.4863109e-08
180	0x2fbf63e6	3.481368e-10
181	0x3243b95a	1.1392638e-08
182	0x325ff3be	1.3035729e-08
183	0x301d5fc0	5.7252336e-10
184	0x32638543	1.3243439e-08
185	0x32823a0a	1.5160385e-08
186	0x3017acd0	5.517906e-10
187	0x325e2616	1.29307605e-08
188	0x3282d0da	1.5228967e-08
189	0x309c991d	1.1394011e-09
190	0x308b4ad1	1.0134845e-09
191	0x30e767e8	1.6836994e-09
192	0x30b8d314	1.3447754e-09
193	0x329f891c	1.8572386e-08
194	0x32d347ee	2.4596343e-08
195	0x308a1c92	1.0048942e-09
196	0x32c0ffc4	2.246805e-08
197	0x32d95879	2.5302358e-08
198	0x30dc7c13	1.6042371e-09
199	0x32b0cadd	2.0581348e-08
200	0x32de2918	2.5862889e-08
201	0x303256b1	6.487922e-10
202	0x32bf7120	2.228677e-08
203	0x32d939d7	2.5288427e-08
204	0x30b6eb68	1.3309149e-09
205	0x32edf409	2.7701406e-08
206	0x330c12ba	3.2613322e-08
207	0x30372f91	6.664261e-10
208	0x32caf32e	2.362648e-08
209	0x32e65c8a	2.6817606e-08
210	0x307dd681	9.234569e-10
211	0x3303cc3a	3.0686557e-08
212	0x33110ef1	3.3774032e-08
213	0x3060af83	8.174014e-10
214	0x32d08763	2.4275954e-08
215	0x32f22ec9	2.8193783e-08
216	0x3044ead2	7.1638084e-10
217	0x330cc3db	3.277442e-08
218	0x331aa00e	3.6001488e-08
219	0x30978884	1.1025496e-09
220	0x32d6c434	2.5002102e-08
221	0x32fde880	2.9558805e-08
222	0x305f39ed	8.1209245e-10
223	0x33068d03	3.1327556e-08
224	0x3313b45d	3.4390144e-08
225	0x30c46a62	1.4291113e-09
226	0x32fa303a	2.9125761e-08
227	0x33175616	3.5235722e-08
228	0x3097e40d	1.1051512e-09
229	0x32f6f86e	2.8751142e-08
230	0x330c7483	3.2702257e-08
231	0x30d5a3cb	1.5544342e-09
232	0x330a14da	3.2149593e-08
233	0x331cabbb	3.647777e-08
234	0x30dabfa1	1.5916052e-09
235	0x330a2b56	3.2170043e-08
236	0x331fb862	3.7187768e-08
237	0x3120acc7	2.3381277e-09
238	0x31602fdd	3.2623497e-09
239	0x31a04ddd	4.665465e-09
240	0x2e0c8b76	3.195618e-11
241	0x2f9d6b56	2.86344e-10
242	0x2fcf6417	3.77242e-10
243	0x2de7f636	2.6371e-11
244	0x2f56910a	1.9514715e-10
245	0x2f8cd545	2.561739e-10
246	0x2dd0358d	2.3670644e-11
247	0x3003edf7	4.799569e-10
248	0x302b03a8	6.2214633e-10
249	0x2d8b04f3	1.5804668e-11
250	0x2f12094e	1.3281928e-10
251	0x2f66f697	2.1005984e-10
252	0x2e70b4fa	5.473042e-11
253	0x3025ac94	6.02719e-10
254	0x304f0ae9	7.5321666e-10
255	0x2de23b5b	2.5719584e-11
