results/ppo/MlAgent/MlAgent-15016.onnx (onnx, 93376 bytes, 9 tensors)

action_model._continuous_distribution.log_sigma f4 [1, 3]
-0.0065541817 -0.001283161 -0.001970743
00000000: 76c4 d6bb bd2f a8ba 9527 01bb

action_model._continuous_distribution.mu.bias f4 [3]
-0.0003375614 -0.0006567973 -0.00046144397
00000000: b9fa b0b9 ec2c 2cba f6ed f1b9

action_model._continuous_distribution.mu.weight f4 [3, 128]
-0.0030734309 -0.0091146445 0.0077235214 0.015479991 0.011365005 0.0085549 0.004553024 0.004075319
0.011414727 -0.010524828 0.0042872266 -0.01367445 -0.014245099 -0.02751912 0.026414603 0.020457836
0.014032023 0.029765854 0.037590723 -0.0072643314 -0.008590186 0.021789197 0.013014122 0.00856612
0.020030284 -0.008315876 0.0024279407 -0.004174133 0.035390932 0.005156638 -0.027017912 0.010868057
-0.014918517 -0.016641645 -0.01088765 -0.03283746 0.0064538196 -0.00092957 0.0044306377 -0.01191356
-0.03941497 0.013796143 -0.02637634 -0.023769196 -0.029833492 0.008336492 -0.017478896 0.015044457
-0.011655544 0.015056027 0.005487474 0.0034288757 -0.0017565907 0.0082481345 -0.00057961134 0.0035715422
-0.007121077 0.03644346 0.03174683 -0.031362887 0.0067993347 -0.021325065 -0.0022471186 -0.029378403
0.0139744505 0.002204296 -0.0337739 0.006957979 -0.022537952 0.017063702 -0.016654393 0.006731507
0.002668461 0.011067208 0.025235506 -0.010764631 0.01906134 0.041440345 -0.01153901 -0.029513089
-0.007961781 0.011601717 -0.03131649 0.010511616 -0.0019413717 0.006620757 -0.015547321 0.0077793812
-0.016935334 0.014581564 0.00085680914 0.011262437 0.0045722635 -0.036346782 0.019625526 -0.0016018397
0.010935574 0.0072430167 -0.022349486 0.030595371 -0.00074680184 -0.013655531 -0.009348621 0.0099990945
-0.004470454 -0.023937916 -0.018035432 0.009061526 0.0065125064 -0.0032425157 0.047716126 0.004859603
0.028983157 0.0137946075 0.006318651 0.019205773 -0.016711991 0.0067951824 -0.02056925 0.014726306
-0.0048195263 0.020947732 0.0035032388 -0.005758099 -0.00043073506 -0.008395722 -0.011185486 0.013260635
-0.0056710416 -0.021748966 0.02805393 0.0074197063 -0.03814155 -0.016184978 -0.022966905 0.016451927
-0.00014854535 0.017477889 0.0036013545 -0.0006809455 -0.01872148 -0.012833436 0.04237525 0.0005378097
-0.011886905 -0.010148415 -0.006365056 0.01397099 0.004045907 0.020254504 0.00785129 -0.007602766
-0.0044148215 -0.0029645534 -0.016569978 -0.0066891327 0.0016715643 0.008400918 -0.0038650723 0.002297534
-0.01788475 0.020685282 -0.012216845 0.02140991 0.014950554 0.005225791 -0.010374817 0.0032075658
0.007845803 0.010098377 0.015424487 -0.0072880015 0.027590236 -0.04126739 0.016234301 0.0063601383
-0.019308304 0.0062055015 -0.0057475846 -0.025432391 -0.007047463 -0.015851162 -0.012488321 -0.045243066
0.0165112 0.003972617 -0.008695123 0.020681016 -0.012553096 -0.010864891 0.014144255 -0.018385317
0.019939855 0.053573657 0.015276691 -0.0016848791 -0.01663712 -0.005920774 -0.0010262493 -0.0025792774
0.018089065 -0.0013125944 -0.040642526 0.021637531 0.013010916 0.027131142 -0.013752334 -0.0073071113
-0.009540532 -0.0059781955 0.023031078 0.029348304 -0.009469486 0.0018802388 -0.005788424 0.023537023
0.028593762 0.0022161559 -0.027994633 0.015291205 0.03921595 0.008437397 0.00032247926 -0.006670219
-0.018686764 -0.0057941354 -0.00949405 0.016409112 0.027928168 0.008156977 -0.0002992713 0.0272251
-0.002159646 -0.04534104 0.004402529 -0.020272473 0.000204871 -0.02465165 -0.011702117 0.003082801
-0.0042361864 0.014651999 -0.011866711 -0.005837737 0.014150877 -0.006667123 0.010671834 0.02484523
0.015818246 0.019629192 -0.024238894 -0.0039120745 -0.0019124197 -0.033418644 -0.007654925 0.026761826
00000000: 9d6b 49bb 9755 15bc 9815 fd3b ca9f 7d3c
00000010: 4934 3a3c da29 0c3c 8931 953b 418a 853b
00000020: d604 3b3c 5470 2cbc dd7b 8c3b cd0a 60bc
00000030: 4764 69bc c76f e1bc 7063 d83c 3197 a73c
00000040: 92e6 653c 85d7 f33c bbf8 193d a109 eebb
00000050: dabd 0cbc 427f b23c 2f39 553c e958 0c3c
00000060: 8d16 a43c 503f 08bc 161e 1f3b 2ac7 88bb
00000070: 15f6 103d 04f9 a83b ab54 ddbc ef0f 323c
00000080: cc6c 74bc 0f54 88bc 1d62 32bc 9380 06bd
00000090: 907a d33b 63ae 73ba e22e 913b 1831 43bc
000000a0: 9771 21bd 3809 623c 3213 d8bc 9eb7 c2bc
000000b0: 5e65 f4bc c895 083c e72f 8fbc 077d 763c
000000c0: e5f6 3ebc 8ead 763c 45d0 b33b fdb6 603b
000000d0: 673d e6ba 2f23 073c 0ff1 17ba 8910 6a3b
000000e0: ec57 e9bb bd45 153d f708 023d 5f76 00bd
000000f0: f4cc de3b e7b1 aebc 6544 13bb faaa f0bc
00000100: 18f5 643c f375 103b 8056 0abd c2ff e33b
00000110: 83a1 b8bc 2dc9 8b3c cb6e 88bc f993 dc3b
00000120: 59e1 2e3b 3c53 353c b1ba ce3c 235e 30bc
00000130: 8726 9c3c 5abd 293d 1e0e 3dbc 6fc5 f1bc
00000140: 2172 02bc 2115 3e3c b845 00bd ea38 2c3c
00000150: a075 feba eff2 d83b 31ba 7ebc 2eea fe3b
00000160: f8bb 8abc 83e7 6e3c 7d9b 603a 1686 383c
00000170: edd2 953b 5de0 14bd b6c5 a03c d2f4 d1ba
00000180: 1f2b 333c d456 ed3b 4516 b7bc 25a3 fa3c
00000190: 06c5 43ba 73bb 5fbc f52a 19bc 3ed3 233c
000001a0: e37c 92bb 7319 c4bc 0bbf 93bc cb76 143c
000001b0: dd66 d53b 6380 54bb fc71 433d 4e3d 9f3b
000001c0: 166e ed3c c702 623c b00c cf3b 6d55 9d3c
000001d0: 96e7 88bc 1faa de3b d880 a8bc 9b46 713c
000001e0: 1eed 9dbb 949a ab3c 9896 653b 6fae bcbb
000001f0: 48d4 e1b9 368e 09bc 5443 37bc 2243 593c
00000200: 25d4 b9bb e32a b2bc 5bd1 e53c 0221 f33b
00000210: 503a 1cbd 5c96 84bc 1725 bcbc 31c6 863c
00000220: d7c2 1bb9 ca2d 8f3c b404 6c3b 7b81 32ba
00000230: ca5d 99bc 5543 52bc ac91 2d3d ccfb 0c3a
00000240: 4bc1 42bc 8a45 26bc f691 d0bb 94e6 643c
00000250: 8793 843b c6ec a53c b2a2 003c a020 f9bb
00000260: 35aa 90bb f448 42bb c3bd 87bc 8330 dbbb
00000270: 6418 db3a 01a4 093c 274d 7dbb 3992 163b
00000280: 0a83 92bc 2e74 a93c 2929 48bc d663 af3c
00000290: 2bf3 743c 1d3d ab3b 23fb 29bc 0636 523b
000002a0: af8b 003c aa73 253c fdb6 7c3c 30d0 eebb
000002b0: eb04 e23c ff07 29bd ccfd 843c b568 d03b
000002c0: 732c 9ebc 8557 cb3b 3c56 bcbb 9757 d0bc
000002d0: 68ee e6bb 4cda 81bc d19b 4cbc cb50 39bd
000002e0: 7f42 873c ba2c 823b fd75 0ebc 3c6b a93c
000002f0: 80ab 4dbc a802 32bc 4ebd 673c ce9c 96bc
00000300: e858 a33c 0d70 5b3d 164b 7a3c 29d7 dcba
00000310: 924a 88bc 0d03 c2bb 3683 86ba 1809 29bb
00000320: 852f 943c 5c0b acba c778 26bd 3141 b13c
00000330: bd2b 553c 2142 de3c 7851 61bc 7e70 efbb
00000340: e44f 1cbc bde4 c3bb acab bc3c db6b f03c
00000350: e725 1bbc 5872 f63a d2ac bdbb b7d0 c03c
00000360: 773d ea3c ed3c 113b 0055 e5bc f687 7a3c
00000370: e7a0 203d 023d 0a3c 6f12 a939 da91 dabb
00000380: fc14 99bc bbdc bdbb ef8c 1bbc 676c 863c
00000390: 9dc9 e43c d7a4 053c 84e7 9cb9 2c07 df3c
000003a0: d988 0dbb 87b7 39bd 1743 903b 7512 a6bc
000003b0: a4d2 5639 42f2 c9bc 3cba 3fbc d108 4a3b
000003c0: b5cf 8abb f00e 703c 986c 42bc 7d4a bfbb
000003d0: 14d9 673c e277 dabb ebd8 2e3c 3988 cb3c
000003e0: 4495 813c 66cd a03c a590 c6bc dc30 80bb
000003f0: 28aa faba fde1 08bd 2ad6 fabb 9e3b db3c

action_model._discrete_distribution.branches.0.bias f4 [3]
0.003402539 0.003050944 -0.0033016705
00000000: 22fd 5e3b 59f2 473b d760 58bb

action_model._discrete_distribution.branches.0.weight f4 [3, 128]
0.000594615 -0.008509798 -0.00033220544 0.008499 -0.0015077788 0.004697453 0.006114949 -0.0038464204
-0.005250362 -0.0038234603 -0.0023885048 -0.006315655 0.008820554 -0.016245665 0.006500432 0.0088775065
-0.009761493 -0.0033155647 0.010968783 -0.0062858923 -0.006709296 -0.0030561476 -0.0016243258 -0.003645911
-0.003648382 -0.0031346795 0.0081196 -0.004584592 -0.0069110873 0.013620098 -0.010069032 0.012079841
-0.00872331 -0.0082925465 0.0010282435 -0.004680458 -0.0038154575 -0.014563949 -0.008344074 0.0027629107
0.0027385417 -0.004315624 0.01366973 0.008059806 0.006181325 -0.0060614487 -0.0122750355 0.013004303
0.009711037 0.006863168 0.0011217612 -0.0033783682 -0.000818107 0.004436432 0.005361557 -0.010875569
-0.0063985107 -0.0022879797 -0.008961362 0.017883103 0.017362071 0.0049438346 0.0013223911 0.0020323156
-0.012876611 -0.00501716 0.00393559 -0.0019056977 -0.0034056643 0.001792596 -0.0062150937 -0.008704279
-0.00096891774 0.0037449216 0.005537258 -0.0060926904 -0.004485222 -0.0053312844 -0.022509135 0.005076677
-0.0052099354 0.007630579 0.018419947 0.011606241 0.010786725 -0.016474945 -0.009841883 0.0071263527
8.237822e-05 0.013741503 -0.0015266642 0.024674367 0.0064701173 -0.021305256 -0.0015384414 -0.009172118
-0.013386152 0.017896913 -0.006822222 -0.00390825 -0.013983159 0.017654218 0.009803735 -0.01044873
0.012676433 -0.0048378604 -0.009197111 0.01939382 -0.00909622 0.0092477035 0.0006752986 0.0036585
0.0013553711 0.009862994 -0.017934347 0.0014606124 -0.010032264 -0.014769402 0.0048717516 -0.0024496482
0.0077540283 0.013848565 0.016221501 -0.0035943275 0.010629039 0.004157541 -0.00628275 0.007285364
-0.005326815 0.0045663575 0.002094876 0.003641672 -0.0007802895 0.020070374 0.0052005206 -0.0069867573
-0.0034186998 0.020233776 0.013424691 0.00010395103 -0.018597744 0.011614638 -0.0024700228 0.0031856918
-0.023448102 -0.0069687315 -0.0075685703 0.0041854125 0.018408656 0.0056930203 -0.01197111 0.001259919
-0.014904784 0.0074097877 0.0007003104 -0.018356103 -0.013011284 0.009549296 0.0036813468 0.008800357
0.000109397006 -0.00898064 0.0026254123 0.0020318646 0.0059722993 0.018899346 -0.025074014 0.009061424
-0.009789765 -0.004517471 0.014113383 -0.0018227565 0.005643608 0.0032961231 0.01599124 -0.001195455
0.00054195925 0.014206075 0.006597675 0.009318617 0.011977798 0.013089457 0.0017316907 -0.008237324
-0.00904804 0.0019380902 0.012252288 -0.014224669 0.018696258 0.012318824 -0.0006532683 -0.005045132
-0.0059126173 -0.00019738433 0.011249605 0.011251655 0.0009026501 -0.0059097875 -0.021968361 -0.0042246343
-0.0059802257 -0.004602684 -0.005902019 0.0004188616 -0.0052263057 0.003564774 0.002136685 0.0039943364
-0.0036445907 0.0083037475 -0.008279166 0.016166423 0.004357537 0.00074800133 -0.0027036807 0.007169394
-0.009708708 0.019022264 0.006200683 -0.00026560182 0.0030062385 -0.0010625651 0.0057639387 0.0022817587
-0.009827542 -0.009555701 -0.0074724513 0.0024672078 -0.0008784009 0.0057414807 0.011895801 -0.013982994
0.00095822866 -0.0022113046 0.0036977616 -0.011891091 -0.0015548574 0.010055896 0.010302514 -0.0061594537
-0.0019418983 -0.00081307243 -0.014711084 -0.0073602246 0.005471247 0.007014721 0.0031808293 0.0045135487
0.01520343 0.0014668116 0.021644587 0.00433353 -0.0041731615 -0.011555193 -0.0070818253 0.011411183
00000000: f0df 1b3a ae6c 0bbc dc2b aeb9 643f 0b3c
00000010: a9a0 c5ba 18ed 993b e95f c83b 3a14 7cbb
00000020: 3b0b acbb 0593 7abb 7688 1cbb 8ef3 cebb
00000030: 1684 103c a115 85bc 9301 d53b f672 113c
00000040: abee 1fbc f249 59bb 69b6 333c e3f9 cdbb
00000050: a7d9 dbbb a649 48bb 54e7 d4ba 3df0 6ebb
00000060: b119 6fbb 326f 4dbb 1208 053c 583a 96bb
00000070: 6776 e2bb d526 5f3c 95f8 24bc 87ea 453c
00000080: 37ec 0ebc 76dd 07bc 20c6 863a 875e 99bb
00000090: c10c 7abb a19d 6ebc 95b5 08bc f311 353b
000000a0: 1b79 333b 146a 8dbb 01f7 5f3c 470d 043c
000000b0: b68c ca3b 1e9f c6bb 3b1d 49bc 0010 553c
000000c0: 0b1b 1f3c 6de4 e03b 0f08 933a 9d67 5dbb
000000d0: 3b76 56ba 7d5f 913b 00b0 af3b 712f 32bc
000000e0: 99aa d1bb eef1 15bb add2 12bc 967f 923c
000000f0: e73a 8e3c e4ff a13b 1554 ad3a 9930 053b
00000100: 6cf8 52bc fd66 a4bb 1ff6 803b 9bc8 f9ba
00000110: 9131 5fbb 8af5 ea3a fca7 cbbb 649c 0ebc
00000120: f8fe 7dba 5c6d 753b e371 b53b 31a5 c7bb
00000130: c5f8 92bb 0eb2 aebb 1465 b8bc 415a a63b
00000140: 1bb8 aabb f009 fa3b 6ee5 963c 1a28 3e3c
00000150: ceba 303c 77f6 86bc d93f 21bc 2e84 e93b
00000160: 78c2 ac38 0a24 613c 5a1a c8ba e621 ca3c
00000170: 4703 d43b 5c88 aebc 87a5 c9ba a746 16bc
00000180: 9751 5bbc 8c9c 923c f28c dfbb c710 80bb
00000190: 9f19 65bc 949f 903c d89f 203c 2631 2bbc
000001a0: d0b0 4f3c ea86 9ebb 7baf 16bc cadf 9e3c
000001b0: 5008 15bc ae83 173c 8606 313a 72c3 6f3b
000001c0: b5a6 b13a 6598 213c 0deb 92bc 0572 bf3a
000001d0: 5d5e 24bc 5dfb 71bc 37a3 9f3b 478a 20bb
000001e0: 8115 fe3b 17e5 623c f4e2 843c cf8e 6bbb
000001f0: 6c25 2e3c fb3b 883b 87df cdbb 10ba ee3b
00000200: 908c aebb 62a1 953b 304a 093b 1ea9 6e3b
00000210: 588c 4cba a06a a43c 2169 aa3b 2bf1 e4bb
00000220: 440c 60bb 4ec1 a53c 3cf3 5b3c 4900 da38
00000230: 4c5a 98bc 534b 3e3c 1be0 21bb 0ac7 503b
00000240: 3c16 c0bc f559 e4bb c501 f8bb c925 893b
00000250: c0cd 963c 848c ba3b 7922 44bc de23 a53a
00000260: 3233 74bc cecd f23b 0995 373a 8a5f 96bc
00000270: 482d 55bc a774 1c3c c042 713b 5f2f 103c
00000280: 126c e538 8923 13bc 1c0f 2c3b 0829 053b
00000290: 47b3 c33b cdd2 9a3c 0568 cdbc 5e76 143c
000002a0: 4065 20bc 4b07 94bb d23b 673c 8fe9 eeba
000002b0: 04ee b83b c503 583b 1000 833c d0b0 9cba
000002c0: 4512 0e3a 99c0 683c 4f31 d83b 1dad 183c
000002d0: 873e 443c 2975 563c e6f9 e23a d7f5 06bc
000002e0: 3b3e 14bc 8407 fe3a d2bd 483c 960e 69bc
000002f0: e528 993c e5d4 493c 1840 2bba a251 a5bb
00000300: a1be c1bb f4f8 4eb9 4350 383c dd58 383c
00000310: d39f 6c3a e4a6 c1bb fef6 b3bc cd6e 8abb
00000320: c5f5 c3bb 1dd2 96bb b965 c1bb a79a db39
00000330: 6e41 abbb fc9e 693b a007 0c3b ece2 823b
00000340: 16da 6ebb 710c 083c 57a5 07bc 726f 843c
00000350: abc9 8e3b 8515 443a 3c30 31bb 3ced ea3b
00000360: 4611 1fbc 94d4 9b3c 192f cb3b 7940 8bb9
00000370: 5004 453b c545 8bba 6cdf bc3b 8f89 153b
00000380: b303 21bc 848f 1cbc 77db f4bb e1b0 213b
00000390: 7d44 66ba 0823 bc3b 9be6 423c ed18 65bc
000003a0: a331 7b3a 89eb 10bb 2556 723b dad2 42bc
000003b0: 5bcc cbba 7cc1 243c e0cb 283c 3ed5 c9bb
000003c0: 4b87 feba 5e24 55ba c206 71bc 0a2e f1bb
000003d0: 2548 b33b bfdb e53b 7675 503b 64e6 933b
000003e0: cf17 793c 0842 c03a fd4f b13c 4900 8e3b
000003f0: 04bf 88bb fe51 3dbc a80e e8bb f8f5 3a3c

network_body._body_endoder.seq_layers.0.bias f4 [128]
0.00022326865 0.0026025188 -0.0007358947 0.0034792975 0.0018919035 0.0030632324 0.00078816473 -0.0004657533
0.0029290146 0.0026027462 -0.002517174 -0.0026423833 0.0026108504 -0.0038849053 0.0017954088 0.0026450274
0.005218963 -0.0014470302 0.0014640873 -0.00089154457 -0.0033348196 -0.0028088277 -0.003947764 -0.0032119977
0.0029741102 -0.0008727819 0.00051893934 -0.000840993 -0.0031182363 -0.0026509133 -0.0018427067 -0.0030219932
0.003751212 -0.0034549918 0.003757478 0.0032508944 -0.002746074 0.0015298447 -0.0022611353 0.002133294
0.0026381891 -0.005489312 0.0022588938 -0.003063592 -0.0034357547 -0.002700301 -0.0031887402 0.0034153613
0.003021819 0.0055537047 -0.00244017 -0.0016722434 0.0018809794 -0.00093125075 0.0022214535 0.0029375844
-0.00055720395 0.001435281 0.0021648405 -0.0020822668 0.002971905 0.002691831 -0.0027543025 0.0027242184
0.0028591135 0.0029771088 -0.0026433007 -0.0037241168 -0.0025952845 0.0027944713 0.0015902742 -0.0024389715
-0.0015587547 0.0034922143 0.0027827485 -0.0025056277 0.002788724 0.0023732139 0.0031936748 -0.0027371068
-0.0032138317 -0.0028086212 -0.002546993 -0.002602278 0.0025823505 0.0028624698 0.0027001363 0.0073585054
0.002968137 0.0027441124 0.002448318 -0.0054005277 0.0016100217 0.0024316371 0.0034427515 -0.003359054
-0.0007390396 -0.0027015293 -0.003267187 0.0027736123 -0.00079044636 0.003049119 0.0021570926 0.0013848497
0.0036219957 0.0026260784 -0.0034747664 0.0031645242 0.003468729 -0.003942317 0.0020289896 -0.001218464
0.005472807 -0.0024886904 -0.0023861 0.0026120038 0.002193574 -0.002345715 0.001197969 -0.0026131938
-0.0036596695 0.00281381 0.001406164 0.005867714 0.0029933776 -0.0013784398 -0.0029469016 0.0032176438
00000000: 391d 6a39 058f 2a3b 0fe9 40ba ed04 643b
00000010: bff9 f73a 83c0 483b d79c 4e3a 5a30 f4b9
00000020: b6f4 3f3b d692 2a3b 2cf7 24bb d62b 2dbb
00000030: cd1a 2b3b e599 7ebb ec53 eb3a 3258 2d3b
00000040: d603 ab3b 47aa bdba 9ee6 bf3a 8bb6 69ba
00000050: fd8c 5abb 4f14 38bb 3f5c 81bb 6180 52bb
00000060: 4ae9 423b 67cb 64ba 6e09 083a 1676 5cba
00000070: 535b 4cbb f2ba 2dbb fa86 f1ba a20c 46bb
00000080: e5d6 753b 256d 62bb 0540 763b f50c 553b
00000090: 7af7 33bb 1285 c83a 8e2f 14bb bcce 0b3b
000000a0: 78e5 2c3b b0df b3bb f309 143b 8bc6 48bb
000000b0: 662a 61bb 88f7 30bb 2ffa 50bb 41d4 5f3b
000000c0: b609 463b dafb b53b 42eb 1fbb 2d2f dbba
000000d0: 328b f63a 2e1f 74ba ce95 113b 7d84 403b
000000e0: 5311 12ba 0a20 bc3a ffdf 0d3b a476 08bb
000000f0: 4bc4 423b 6e69 303b 8781 34bb cd88 323b
00000100: f75f 3b3b 991b 433b 3a3b 2dbb 5010 74bb
00000110: a615 2abb 7323 373b bf70 d03a 27d7 1fbb
00000120: 214f ccba a2dd 643b c65e 363b 7535 24bb
00000130: 06c3 363b ec87 1b3b f94c 513b 0861 33bb
00000140: 269f 52bb d810 38bb 74eb 26bb fb8a 2abb
00000150: a73c 293b 4698 3b3b c5f4 303b 9e1f f13b
00000160: 1385 423b 91d6 333b f673 203b e9f6 b0bb
00000170: 5d07 d33a 1a5c 1f3b c99f 613b 9323 5cbb
00000180: 1cbc 41ba 240c 31bb 4d1e 56bb 7ec5 353b
00000190: f535 4fba bad3 473b 025e 0d3b d883 b53a
000001a0: 015f 6d3b 491a 2c3b e8b8 63bb e863 4f3b
000001b0: 9e53 633b 8d2e 81bb ccf8 043b deb4 9fba
000001c0: 3c55 b33b 4c19 23bb 1d60 1cbb 272e 2b3b
000001d0: 11c2 0f3b 91ba 19bb 2b05 9d3a 1e42 2bbb
000001e0: 11d7 6fbb e667 383b 094f b83a f445 c03b
000001f0: 8b2c 443b c4ac b4ba ce20 41bb 1bdf 523b

network_body._body_endoder.seq_layers.0.weight f4 [128, 40]
-0.094211586 -0.13421229 -0.21941845 -0.03539153 0.023279816 -0.25469592 0.16567004 -0.041003127
0.36398417 -0.136043 0.14378215 0.22996598 0.09844919 0.04584381 0.026031576 -0.0015679429
-0.008452844 -0.029421393 -0.07971459 0.15818658 0.06866319 0.093457565 0.014097671 0.09905695
0.10928822 0.26773116 0.03520539 0.046038892 0.14742304 0.04187049 -0.14448868 -0.016536405
-0.07007135 0.26834178 0.053682033 0.045266382 -0.10805373 0.054434627 0.0135279335 0.029876929
-0.08442277 0.049437307 -0.1658992 -0.19430491 -0.15851533 0.23953813 -0.10491545 0.11105468
-0.18754417 0.16403686 -0.05879163 0.12062444 0.19629675 -0.015062508 0.024150109 0.36334208
-0.044420183 -0.09283926 0.10652048 0.23974304 -0.05430876 -0.12594144 0.09883634 0.11169308
-0.09704035 0.30243206 0.0035655082 -0.028658371 0.024659 0.038375907 -0.121984415 0.009814073
0.05082525 -0.20648178 0.1358658 -0.5205895 0.13934952 -0.06748882 -0.115250714 0.2001653
-0.09144067 0.01850195 0.012407757 -0.0809675 0.31090727 -0.0009434226 -0.13193983 -0.19053452
0.15914108 0.097662225 0.28128183 -0.1318105 -0.12349377 -0.1165338 -0.16124518 0.04332332
0.0634933 0.06302786 0.14921463 -0.05333942 -0.109382086 -0.2704045 -0.057647806 0.11631285
0.18227777 -0.22704014 -0.30789366 0.078450985 0.059574336 -0.31148863 0.2235188 -0.1122793
-0.07781332 0.1899652 -0.235705 0.03318483 0.30042985 -0.20419234 0.062424336 0.07158821
-0.09437155 0.1131943 -0.2443203 -0.26145226 -0.074795 -0.0020250976 -0.031149827 -0.06732567
0.13431832 0.06694976 0.1953284 0.013582105 -0.070481 -0.027176226 -0.02126057 -0.21049604
0.059422527 0.17196888 0.1150195 0.053474825 0.026554003 -0.024079988 0.09056877 -0.09360711
0.0060403664 0.25449705 -0.11973111 0.04089923 0.22552219 0.12459249 -0.060074616 -0.08665939
-0.08993442 0.016689848 0.22069766 0.022796292 -0.2086598 0.012846931 -0.26961502 -0.053570207
0.31404373 0.25026792 0.0817753 -0.41178182 0.046644047 -0.0046415427 0.13677661 0.15158138
-0.026714541 -0.04603035 0.00041679424 0.02459361 -0.2576938 -0.060971484 0.07137901 -0.04410585
0.0705855 -0.094218165 -0.24362291 0.029800119 0.17771448 -0.034106396 -0.10340514 0.06213459
0.13871914 0.24542354 0.18214868 -0.06387922 0.10806431 -0.048776764 -0.030826917 0.08388462
-0.24352944 0.18612818 -0.0046139867 -0.24984038 0.059175365 0.047518346 -0.007292856 -0.0917168
-0.012669069 -0.05170398 -0.25739083 0.08696116 -0.09339635 0.2454017 -0.037923288 0.038861975
-0.088155374 0.110266246 -0.44126916 0.22139111 -0.11332238 0.01927602 -0.14064506 -0.043941367
0.28560376 0.08848696 0.0034382313 -0.035344314 0.13291407 -0.14352807 -0.073268324 0.025416892
0.03102896 -0.23203453 -0.18075378 -0.0070758397 0.07218868 -0.01982214 0.07062468 -0.13862425
0.23839046 0.085920654 0.000497466 0.067994654 0.080984674 -0.042025324 -0.16131493 -0.43265718
0.026721122 0.008843124 0.032878045 0.08063743 -0.02863937 -0.096823946 -0.014154365 -0.29461944
-0.0814219 -0.06127379 -0.18248498 0.11658682 -0.00086584024 0.23622432 0.107549764 0.01175418
00000000: 01f2 c0bd f26e 09be 3baf 60be b5f6 10bd
00000010: 50b5 be3c 8167 82be 68a5 293e e5f2 27bd
00000020: 225c ba3e db4e 0bbe a13b 133e 347c 6b3e
00000030: bb9f c93d b8c6 3b3d 2c40 d53c 6f83 cdba
00000040: cc7d 0abc 2205 f1bc 6741 a3bd aafb 213e
00000050: 499f 8c3d ae66 bf3d ebf9 663c 5fde ca3d
00000060: 81d2 df3d 0f14 893e 8733 103d 4793 3c3d
00000070: 11f6 163e 6480 2b3d d7f4 13be 5b77 87bc
00000080: 9181 8fbd 1864 893e b1e1 5b3d 3e69 393d
00000090: 464b ddbd d8f6 5e3d 44a4 5d3c 76c0 f43c
000000a0: d8e5 acbd c67e 4a3d 7be1 29be def7 46be
000000b0: d851 22be 7c49 753e e9dd d6bd a370 e33d
000000c0: 940b 40be 47f9 273e 7ecf 70bd f209 f73d
000000d0: 0402 493e bdc8 76bc 73d6 c53c f907 ba3e
000000e0: f0f1 35bd 8322 bebd 6927 da3d 337f 753e
000000f0: dd72 5ebd cbf6 00be b56a ca3d 57bf e43d
00000100: 17bd c6bd 60d8 9a3e 4dab 693b f6c4 eabc
00000110: ac01 ca3c 0e30 1d3d f7d2 f9bd 35cb 203c
00000120: 232e 503d f66f 53be 6720 0b3e 5a45 05bf
00000130: a4b1 0e3e 9437 8abd 9108 ecbd 22f8 4c3e
00000140: 3f45 bbbd 6791 973c e849 4b3c 4ad2 a5bd
00000150: 3d2f 9f3e 0550 77ba 3c1b 07be 7b1b 43be
00000160: e1f5 223e 2203 c83d 2c04 903e 55f9 06be
00000170: 4dea fcbd 46a9 eebd 751d 25be cb73 313d
00000180: c608 823d c014 813d b8cb 183e 707a 5abd
00000190: b703 e0bd 7572 8abe 1b20 6cbd 6e35 ee3d
000001a0: 06a7 3a3e 367d 68be 3da4 9dbe e9aa a03d
000001b0: 3804 743d 707b 9fbe 1de2 643e b1f2 e5bd
000001c0: 975c 9fbd 3d86 423e a75c 71be d1ec 073d
000001d0: f1d1 993e cc17 51be a9b0 7f3d d79c 923d
000001e0: df45 c1bd 6ad2 e73d 1a2f 7abe 12dd 85be
000001f0: 1f2e 99bd 80b7 04bb ec2d ffbc 0ae2 89bd
00000200: be8a 093e f51c 893d 2b04 483e 7a87 5e3c
00000210: 5858 90bd ada0 debc a62a aebc 468c 57be
00000220: 0965 733d 9c18 303e 588f eb3d 6b08 5b3d
00000230: c887 d93c 6543 c5bc 1f7c b93d 16b5 bfbd
00000240: 44ee c53b 704d 823e 9635 f5bd f385 273d
00000250: 4aef 663e 592a ff3d cd10 76bd 7a7a b1bd
00000260: 8a2f b8bd 26b9 883c 91fe 613e 4abf ba3c
00000270: eaaa 55be ef7b 523c fb0a 8abe 6f6c 5bbd
00000280: 57ca a03e 1e23 803e cf79 a73d 11d5 d2be
00000290: d40d 3f3d 1518 98bb 2b0f 0c3e 2638 1b3e
000002a0: 74d8 dabc 528a 3cbd 2d85 da39 8a78 c93c
000002b0: 71f0 83be 3cbd 79bd 292f 923d 56a8 34bd
000002c0: 218f 903d 74f5 c0bd 4978 79be 611f f43c
000002d0: c9fa 353e 26b3 0bbd 13c6 d3bd d780 7e3d
000002e0: 640c 0e3e 4f50 7b3e 2f85 3a3e 1cd3 82bd
000002f0: d250 dd3d 25ca 47bd bb88 fcbc b3cb ab3d
00000300: c85f 79be 6398 3e3e ed30 97bb 28d6 7fbe
00000310: de61 723d 99a2 423d e9f8 eebb 05d6 bbbd
00000320: ed91 4fbc 8dc7 53bd bbc8 83be b118 b23d
00000330: 9646 bfbd 954a 7b3e 7355 1bbd bc2d 1f3d
00000340: ce8a b4bd 45d3 e13d 08ee e1be 5ab4 623e
00000350: 9015 e8bd bee8 9d3c 4205 10be ddfb 33bd
00000360: a83a 923e a738 b53d f353 613b 33c5 10bd
00000370: a01a 083e 06f9 12be b40d 96bd 1637 d03c
00000380: 7230 fe3c 769a 6dbe 8517 39be 72dc e7bb
00000390: a9d7 933d 0a62 a2bc aca3 903d 84f3 0dbe
000003a0: a11c 743e 2bf7 af3d 6168 023a c840 8b3d
000003b0: 4bdb a53d bf22 2cbd be2f 25be 3e85 ddbe
000003c0: 41e6 da3c c0e2 103c 21ab 063d 3d25 a53d
000003d0: 1d9d eabc a24b c6bd b6e7 67bc 5cd8 96be
000003e0: 86c0 a6bd 3afa 7abd 58dd 3abe 12c5 ee3d
000003f0: 8ef9 62ba cae4 713e 0d43 dc3d 9b94 403c

network_body._body_endoder.seq_layers.2.bias f4 [128]
-0.003714987 0.0013599348 0.0016560975 -0.0017764034 0.0006808132 0.0017172173 0.0028076933 0.0035241765
-0.0024354467 0.002191828 -0.0026383323 -0.0037010533 -0.0028522604 0.0024735697 -0.0004890888 0.0022418532
-0.0036530185 -0.0026456895 0.0005406175 -0.0038212126 0.0009483105 -0.0019468656 0.0020559987 0.0028679192
-0.004059055 0.0029222253 0.0013621105 0.0028671206 0.002625037 0.0032421888 -0.004047054 0.0028079185
-0.0013890923 -0.0010488789 -0.0029195931 0.002755747 -0.002298044 -0.0021618276 -0.0045528715 -0.0039241114
-0.003489143 0.000301698 0.002820615 0.0014369863 0.002406435 -0.0032834269 0.002536289 0.0027482
1.6196049e-05 0.0030352792 0.0014770365 -0.002939295 -0.0037300454 0.0026428702 -0.0029591236 -0.0024510357
-0.003296283 -0.003174194 -0.0029995828 0.0010702929 0.0027823388 -0.0031803295 -0.0027517679 0.0028725262
-0.0003742636 0.003920878 0.001421247 0.002889926 0.0010377443 -0.0030770977 -0.002613982 0.002787565
0.0028088521 -0.0035576818 0.0028427127 -0.0029015702 -0.0025154534 0.0028365965 0.0070107807 0.0025005618
-0.0034725205 0.0027545607 0.0016349657 -1.3701683e-05 -0.0024158224 0.0035904122 -0.003288857 -0.0033893452
-0.0034940073 0.0025838446 -0.0030778712 0.0028044912 -0.0028429988 -0.0044117714 0.0030818167 0.0025754578
-0.005158644 -0.0048483517 0.0030298734 0.0029874006 -0.00090409943 0.003027644 0.0029641911 0.002712316
-0.002982645 0.00070166023 0.0019874647 -0.002597265 -0.0038403333 0.003115757 0.0029172795 0.0058109066
-0.0030651363 -0.0030257055 -0.0027384586 0.0023149166 -0.0029720191 -0.0034117016 0.0024489756 -0.0017709783
0.0029503335 -0.0029787412 0.00302935 -0.00021837468 -0.0035984684 -0.0017522884 0.00055831624 0.0030179515
00000000: 2477 73bb d73f b23a 6911 d93a 35d6 e8ba
00000010: 9a78 323a 4014 e13a 4701 383b dff5 663b
00000020: 049c 1fbb c6a4 0f3b dfe7 2cbb 5f8d 72bb
00000030: fdec 3abb 9d1b 223b 3236 00ba 0eec 123b
00000040: 7b67 6fbb 4e63 2dbb 3ab8 0d3a 4f6d 7abb
00000050: 0a98 783a f82d ffba efbd 063b b3f3 3b3b
00000060: d201 85bb ce82 3f3b d888 b23a 4de6 3b3b
00000070: d008 2c3b e77a 543b 269d 84bb 0e05 383b
00000080: 3412 b6ba 897a 89ba a556 3fbb c399 343b
00000090: c89a 16bb 73ad 0dbb 4130 95bb d595 80bb
000000a0: 1baa 64bb 382d 9e39 11da 383b 4259 bc3a
000000b0: 48b5 1d3b c32e 57bb de37 263b 251b 343b
000000c0: c0dc 8737 89eb 463b 1f99 c13a 30a1 40bb
000000d0: c773 74bb 0134 2d3b dbed 41bb 8ea1 20bb
000000e0: 7406 58bb 2306 50bb a694 44bb 1249 8c3a
000000f0: e657 363b 136d 50bb 0157 34bb fe40 3c3b
00000100: cf38 c4b9 b57a 803b 2349 ba3a ea64 3d3b
00000110: ec04 883a 22a9 49bb 574f 2bbb 95af 363b
00000120: b814 383b ff27 69bb ce4c 3a3b 4528 3ebb
00000130: 4eda 24bb 31e6 393b b1ba e53b 77e0 233b
00000140: 3a93 63bb dc85 343b 584c d63a 48e0 65b7
00000150: c652 1ebb 1f4d 6b3b dd89 57bb c71f 5ebb
00000160: b7fb 64bb b855 293b 1cb6 49bb 8ecb 373b
00000170: 9b51 3abb 9f90 90bb 4ef8 493b 03c9 283b
00000180: d809 a9bb ecde 9ebb d790 463b 44c8 433b
00000190: 1601 6dba 706b 463b e042 423b 1dc1 313b
000001a0: 7b78 43bb 9fef 373a 2040 023b e036 2abb
000001b0: 1aae 7bbb ba31 4c3b d42f 3f3b 6b69 be3b
000001c0: 74e0 48bb ea4a 46bb b677 33bb dbb5 173b
000001d0: 35c6 42bb db96 5fbb fe7e 203b 2c20 e8ba
000001e0: 625a 413b fc36 43bb 0f88 463b 82fb 64b9
000001f0: 48d4 6bbb 0bad e5ba f85b 123a d3c8 453b

network_body._body_endoder.seq_layers.2.weight f4 [128, 128]
-0.09524113 -0.017685095 0.0869976 -0.026844747 0.09848405 0.19498177 0.048168752 -0.10232925
-0.036798425 -0.19515957 0.030612675 -0.05446148 -0.09208611 -0.062914185 0.040375106 -0.02902872
0.08927439 0.00019367217 -0.058756106 0.09311367 0.0044664824 -0.0124241 0.04145494 0.035884492
-0.081299186 -0.09446509 0.005295586 0.019806491 0.10063603 0.13466169 0.062883265 -0.14107116
-0.095575415 0.019613594 0.07713786 0.003850367 0.12213961 0.096883126 0.021769129 -0.22252701
-0.018322853 0.042968005 -0.048381124 -0.08158593 -0.064899094 -0.07976678 -0.03408079 -0.09255471
0.15118136 0.029033737 -0.12818158 0.10439695 -0.030097902 -0.092274405 0.01710763 -0.07322352
0.05832287 -0.07403435 0.024886517 -0.02002808 -0.0048796255 0.040816784 0.07159857 -0.005091916
0.011236241 0.0040762755 -0.0691124 0.11664146 0.15816584 -0.011700947 -0.087737456 -0.041693524
0.16014601 -0.029620055 -0.012889298 0.06862403 0.09796173 -0.07457786 0.009600727 0.07531067
-0.010178657 -0.11217943 -0.001484252 -0.1741455 0.021226337 -0.0056071663 0.10491633 -0.031128863
0.040077433 -0.107232735 0.0893855 0.064452335 0.17313558 1.05772e-05 -0.07249498 -0.03460138
0.12416193 -0.09635203 0.14453872 0.076385714 -0.0468647 0.040334415 -0.17049035 -0.034046385
0.02896495 0.06638379 -0.017518114 0.16073684 0.051669057 0.057036985 -0.0060242824 -0.09238838
0.042755917 0.009878609 -0.03692969 0.022280514 -0.027355023 0.011149219 -0.05361613 0.0010453596
-0.038440697 0.08544026 -0.00018723923 -0.02557348 0.15323953 0.030839095 0.12870082 0.11004975
0.072023414 -0.04223504 -0.051742215 -0.121887244 -0.064486526 0.17395747 0.1344693 0.051193032
0.021453403 0.045797337 0.05717466 0.08773001 -0.031191451 -0.03644327 -0.10811392 0.09784062
-0.051272206 0.014482975 -0.06760019 -0.07539564 -0.007469356 -0.016076565 -0.0021699914 0.035612147
-0.1178421 -0.055610813 -0.04926443 -0.029754639 0.026429038 0.13297209 -0.08313975 -0.008053023
-0.009129534 0.014927461 -0.19426428 0.010918055 0.07810546 0.05379114 0.14091156 -0.012294795
-0.10870684 0.10134736 -0.032223847 0.02143515 -0.095775634 -0.019472066 0.06834821 0.12029253
0.14625593 -0.015403512 -0.054742217 -0.1306869 0.04335087 0.11711597 0.12648246 0.06812007
0.052734457 -0.124418154 0.076285385 -0.03691298 0.07255411 -0.08443884 -0.09264843 0.013297418
0.04318637 0.020627437 -0.025646271 0.071650125 -0.09584156 -0.06421286 -0.17562574 -0.02640121
0.060884196 0.06964085 0.12584071 0.07182698 -0.10852012 0.17993025 -0.061193846 -0.08298068
-0.22456445 0.045656357 -0.07223309 0.091715194 0.053779926 -0.25935277 -0.037015375 -0.02027093
-0.02674063 -0.023215814 0.10298583 -0.17161807 0.059738614 0.003948941 0.10780212 0.06396474
0.09406366 0.019401168 -0.16985889 -0.057575088 0.12706025 0.16986762 0.14497602 -0.0151568735
0.15913683 0.019756678 0.006991054 -0.06495073 -0.15041667 0.053304464 0.00035836024 0.026923496
-0.10014943 -0.064322524 -0.06542621 -0.17402723 0.054848794 -0.07303219 -0.093387485 -0.10083049
0.03111311 -0.08059748 -0.12168259 0.058111105 0.13205346 0.07264993 0.10303704 -0.059363503
00000000: c80d c3bd 55e0 90bc cc2b b23d 84e9 dbbc
00000010: 01b2 c93d 4da9 473e 994c 453d ff91 d1bd
00000020: f2b9 16bd e9d7 47be 6fc7 fa3c 0013 5fbd
00000030: a497 bcbd 27d9 80bd 5e60 253d a3cd edbc
00000040: 7ed5 b63d 7a14 4b39 3eaa 70bd 61b2 be3d
00000050: 925b 923b 748e 4bbc a8cc 293d 9efb 123d
00000060: 3080 a6bd ea76 c1bd 9886 ad3b 3941 a23c
00000070: 431a ce3d c1e4 093e f1c8 803d f574 10be
00000080: 0bbd c3bd b0ac a03c 74fa 9d3d 7056 7c3b
00000090: 5524 fa3d a96a c63d 2c55 b23c 1fde 63be
000000a0: cf19 96bc 38ff 2f3d 492b 46bd 8616 a7bd
000000b0: d1e9 84bd c45c a3bd 4c98 0bbd 538d bdbd
000000c0: 49cf 1a3e 29d8 ed3c 0842 03be 11ce d53d
000000d0: e08f f6bc 5dfa bcbd 4d25 8c3c 36f6 95bd
000000e0: f6e3 6e3d 529f 97bd cfde cb3c ee11 a4bc
000000f0: 44e5 9fbb 802f 273d 45a2 923d 16da a6bb
00000100: 3618 383c 4792 853b cd8a 8dbd b8e1 ee3d
00000110: 3af6 213e 54b5 3fbc b2af b3bd d4c6 2abd
00000120: 51fd 233e c2a5 f2bc a22d 53bc c18a 8c3d
00000130: 29a0 c83d 47bc 98bd 5e4c 1d3c 7b3c 9a3d
00000140: 62c4 26bc 54be e5bd 3c8b c2ba 3353 32be
00000150: dbe2 ad3c 52bc b7bb 5fde d63d f501 ffbc
00000160: 3c28 243d d69c dbbd bf0f b73d 96ff 833d
00000170: 744a 313e ba74 3137 4078 94bd 2dba 0dbd
00000180: 9c48 fe3d 3754 c5bd f501 143e 1d70 9c3d
00000190: 33f5 3fbd b335 253d 0695 2ebe 3974 0bbd
000001a0: e747 ed3c 39f4 873d 2682 8fbc 3398 243e
000001b0: efa2 533d 9d9f 693d 5867 c5bb 1e36 bdbd
000001c0: d420 2f3d e4d9 213c 9643 17bd a085 b63c
000001d0: a417 e0bc 37ab 363c 969c 5bbd 7304 893a
000001e0: fe73 1dbd 4efb ae3d a655 44b9 7a7f d1bc
000001f0: d3ea 1c3e 45a2 fc3c 26ca 033e c361 e13d
00000200: 0381 933d a6fe 2cbd a5ef 53bd 05a0 f9bd
00000210: 8311 84bd e821 323e 52b2 093e c9af 513d
00000220: 0cbf af3c fd95 3b3d fa2f 6a3d cbab b33d
00000230: 3785 ffbc 8a45 15bd d56a ddbd aa60 c83d
00000240: ce02 52bd 004a 6d3c f871 8abd 0869 9abd
00000250: 80c1 f4bb 00b3 83bc 6a36 0ebb 0bde 113d
00000260: 3357 f1bd 2ac8 63bd 80c9 49bd 00c0 f3bc
00000270: b681 d83c d629 083e 2c45 aabd d4f0 03bc
00000280: 0a94 15bc 4f92 743c 37ed 46be a4e1 323c
00000290: c1f5 9f3d 1954 5c3d 1f4b 103e 1c70 49bc
000002a0: b1a1 debd 348f cf3d 27fd 03bd c598 af3c
000002b0: 0426 c4bd e283 9fbc 25fa 8b3d ee5b f63d
000002c0: 1dc4 153e 035f 7cbc 6039 60bd c9d2 05be
000002d0: af90 313d 7fda ef3d 9e84 013e 8982 8b3d
000002e0: 1600 583d f2ce febd 833b 9c3d 1132 17bd
000002f0: 4097 943d 45ee acbd 76be bdbd 6add 593c
00000300: 31e4 303d dffa a83c 2118 d2bc 4dbd 923d
00000310: 9448 c4bd 0882 83bd 3cd7 33be 5a47 d8bc
00000320: b561 793d dd9f 8e3d 63dc 003e 061a 933d
00000330: cc3f debd a33f 383e 66a6 7abd c6f1 a9bd
00000340: 39f4 65be 2902 3b3d f1ee 93bd 2dd5 bb3d
00000350: 5748 5c3d e3c9 84be 6f9d 17bd 390f a6bc
00000360: 2a0f dbbc 172f bebc 3cea d23d a6bc 2fbe
00000370: 7ab0 743d 1e66 813b 5cc7 dc3d f2ff 823d
00000380: 73a4 c03d 33ef 9e3c 7def 2dbe dbd3 6bbd
00000390: 151c 023e c7f1 2d3e 9874 143e 8954 78bc
000003a0: c4f4 223e c2d8 a13c 3615 e53b e304 85bd
000003b0: d406 1abe c855 5a3d 4ce2 bb39 aa8e dc3c
000003c0: 251b cdbd 87bb 83bd 2dfe 85bd 3234 32be
000003d0: 21a9 603d e791 95bd f041 bfbd 3780 cebd
000003e0: ece0 fe3c 4b10 a5bd b934 f9bd e905 6e3d
000003f0: 0639 073e 7dc9 943d 1505 d33d 2527 73bd
