results/ppo/MlAgent/MlAgent-11092.pt (torch, 578807 bytes, 40 tensors)

discrete_act_size_vector f4 [1, 2]
4.0 4.0
00000000: 0000 8040 0000 8040

network_body._body_endoder.seq_layers.0.weight f4 [128, 48]
-0.123875014 0.2704135 -0.0872144 0.116532385 -0.071638696 -0.08541691 -0.052572116 -0.06101807
0.039324716 -0.08122497 -0.002369553 0.052088596 0.05281341 0.0719431 -0.07459705 -0.14065695
0.014622948 -0.11783644 -0.15555772 -0.23641376 0.05228694 -0.17735712 -0.17341605 -0.08457165
-0.1649083 0.008911878 0.18552612 0.035124626 -0.2135822 0.1477647 -0.17056835 -0.076206826
0.02360629 0.09544988 0.07154557 0.038519938 -0.047960408 -0.09435643 0.016789349 0.003354034
0.074060515 -0.12934816 0.030310193 -0.09956016 -0.038464934 0.245005 -0.019268341 0.031948615
-0.15320268 -0.055690706 0.014234563 -0.013946405 0.018650392 0.1635762 -0.33295324 -0.15356493
0.0099413525 0.08407688 0.20020531 -0.089247495 0.045536563 -0.08115495 -0.056816127 -0.20311028
0.19518924 -0.08035332 -0.042590532 0.0036598328 -0.08511591 -0.1885092 0.05814014 -0.008258757
0.09066048 0.13454229 0.18508056 -0.15166861 -0.081924886 0.099073425 0.35953054 -0.06987168
-0.033325896 0.23536217 -0.20206274 -0.22162437 0.028642962 0.13761298 0.17323643 -0.18117175
-0.036567234 -0.4030503 0.08997201 -0.021614341 -0.021758808 0.07815591 0.09273769 -0.0031982872
-0.30958128 0.09085322 0.2552235 0.048364654 0.060517628 -0.020944932 -0.027130414 0.14473586
-0.20807157 -0.23767108 -0.032263044 -0.06830568 0.20315146 -0.2529844 0.04539215 0.06949212
0.03777921 0.20380053 -0.14921884 0.084874876 0.042529855 -0.10206967 0.059514776 -0.13339011
-0.063267425 0.048149303 0.031326164 -0.014343086 -0.0437631 0.2002444 0.16715063 0.22273701
-0.058508277 0.005522111 0.18780605 0.070776835 0.1971956 -0.07535053 -0.020779671 0.28494033
-0.014668361 -0.11455834 0.12992164 0.20248906 -0.24506103 -0.15692852 -0.072646506 0.07012077
-0.063544616 0.011223686 0.044343073 -0.14382803 -0.011580556 0.032829404 0.050443757 0.060306836
0.23454814 0.08066426 -0.023790937 0.099478595 0.25389183 -0.099409856 -0.1710958 -0.012436979
-0.01178508 -0.14754623 0.1618971 -0.02572172 0.09341646 0.15150791 -0.15695864 0.17973958
-0.08055953 -0.2644052 -0.100945145 0.16301836 -0.113813855 0.1746067 -0.3652558 -0.013142851
0.14886962 -0.10626341 -0.17966741 0.36092606 0.06707087 -0.098154925 0.095954746 0.014161775
-0.26704195 0.102633975 0.119325474 0.07788556 0.21641976 0.07230357 -0.19757701 -0.23400171
0.0014386747 0.03664045 0.06310414 0.0450655 -0.12997204 0.046673942 -0.20310374 -0.2032992
0.16133739 0.111824885 0.1395506 -0.09542061 -0.096159644 0.034776345 0.13035882 -0.06792719
-0.14180791 -0.17924537 -0.06552809 0.11335181 -0.010833705 0.0001715145 -0.23684873 -0.14176466
0.08901932 -0.1597572 0.07036844 -0.02414028 -0.0717541 0.13424133 -0.107105225 0.11454032
-0.032037046 -0.17788477 -0.18645197 -0.18212187 -0.13181819 -0.029814836 0.0359512 0.1675289
-0.16445526 0.13933118 -0.14384802 -0.27447662 0.22508077 -0.07559157 -0.028969398 -0.31746122
0.2096399 -0.05439527 0.08480544 0.11405558 -0.123619884 0.010937347 0.113207914 -0.088101
0.22486974 0.06189809 -0.25846058 0.038628098 0.026927916 -0.16134328 -0.048205715 -0.14042766
00000000: 2fb2 fdbd a373 8a3e 779d b2bd 88a8 ee3d
00000010: 4fb7 92bd 10ef aebd dc55 57bd 15ee 79bd
00000020: f412 213d 4759 a6bd 814a 1bbb da5a 553d
00000030: e052 583d e756 933d 57c6 98bd 6008 10be
00000040: 1795 6f3c 3b54 f1bd 864a 1fbe 7316 72be
00000050: d52a 563d 1b9d 35be fa93 31be e733 adbd
00000060: b9dd 28be 2003 123c 8ffa 3d3e d7de 0f3d
00000070: 4bb5 5abe a14f 173e 78a9 2ebe 5312 9cbd
00000080: fa61 c13c 3a7b c33d 7c86 923d 15c7 1d3d
00000090: 2272 44bd f23d c1bd d189 893c 5acf 5b3b
000000a0: 0aad 973d d873 04be 154d f83c 32e6 cbbd
000000b0: 688d 1dbd 97e2 7a3e a4d8 9dbc 8ddc 023d
000000c0: 2ae1 1cbe f01b 64bd 1638 693c 767f 64bc
000000d0: b5c8 983c 8580 273e d978 aabe 2040 1dbe
000000e0: 0ee1 223c 8030 ac3d 9f02 4d3e 64c7 b6bd
000000f0: 8c84 3a3d 9134 a6bd 07b8 68bd 24fc 4fbe
00000100: b0df 473e 4890 a4bd 6973 2ebd ced9 6f3b
00000110: 4051 aebd 8e08 41be 5b24 6e3d bd4f 07bc
00000120: 34ac b93d 74c5 093e c285 3d3e 044f 1bbe
00000130: 3cc8 a7bd 02e7 ca3d 6314 b83e e218 8fbd
00000140: bc80 08bd c802 713e 89e9 4ebe 80f1 62be
00000150: a5a4 ea3c 6bea 0c3e e464 313e 1685 39be
00000160: 86c7 15bd 9c5c cebe 3f43 b83d 8f10 b1bc
00000170: 873f b2bc 3510 a03d 42ed bd3d 5b9a 51bb
00000180: 7081 9ebe 4111 ba3d a8ac 823e 041a 463d
00000190: 55e1 773d b594 abbc 9a40 debc a335 143e
000001a0: b710 55be 0c60 73be 4126 04bd d9e3 8bbd
000001b0: f006 503e 2c87 81be 1eed 393d e251 8e3d
000001c0: 5fbe 1a3d 16b1 503e d3cc 18be e1d2 ad3d
000001d0: c933 2e3d e709 d1bd c4c5 733d 6b97 08be
000001e0: 5a92 81bd 3438 453d dd4f 003d 43ff 6abc
000001f0: f040 33bd de0c 4d3e 8929 2b3e 2c15 643e
00000200: 60a6 6fbd d3f2 b43b 3b50 403e 72f3 903d
00000210: a5ed 493e 6151 9abd 213a aabc b3e3 913e
00000220: 9153 70bc 909d eabd 2e0a 053e 4b59 4f3e
00000230: 47f1 7abe dfb1 20be b1c7 94bd 7a9b 8f3d
00000240: ae23 82bd 8de3 373c 15a1 353d a847 13be
00000250: 5fbc 3dbc 2078 063d 1d9e 4e3d 4d04 773d
00000260: 632d 703e 4e33 a53d 36e5 c2bc 6fbb cb3d
00000270: 1cfe 813e 6597 cbbd bd33 2fbe 79c4 4bbc
00000280: 3516 41bc 5c16 17be 5ac8 253e 5bb6 d2bc
00000290: 2151 bf3d e424 1b3e c4b9 20be a70d 383e
000002a0: 65fc a4bd 1e60 87be 54bc cebd 49ee 263e
000002b0: 3d17 e9bd 19cc 323e cf02 bbbe 1d55 57bc
000002c0: 4771 183e a1a0 d9bd bcfa 37be 4dcb b83e
000002d0: 745c 893d 7305 c9bd ec83 c43d ca06 683c
000002e0: b9b9 88be c331 d23d ea60 f43d 7782 9f3d
000002f0: 249d 5d3e e513 943d a151 4abe 259e 6fbe
00000300: ea91 bc3a 4c14 163d be3c 813d 9a96 383d
00000310: 6417 05be 2d2d 3f3d 6dfa 4fbe aa2d 50be
00000320: a135 253e 7204 e53d 5ae6 0e3e e16b c3bd
00000330: 59ef c4bd a471 0e3d c87c 053e 691d 8bbd
00000340: 1836 11be 198c 37be 9733 86bd fe24 e83d
00000350: da7f 31bc 93d8 3339 7988 72be c12a 11be
00000360: c34f b63d 6497 23be 541d 903d d6c1 c5bc
00000370: d0f3 92bd 8f76 093e fc59 dbbd 1e94 ea3d
00000380: 4739 03bd 6d27 36be 44ed 3ebe 287e 3abe
00000390: 59fb 06be 3e3e f4bc 9141 133d b28c 2b3e
000003a0: f666 28be d5ac 0e3e e54c 13be 3388 8cbe
000003b0: 937b 663e c1cf 9abd 3b51 edbc 478a a2be
000003c0: d8ab 563e 93cd 5ebd 79ae ad3d f995 e93d
000003d0: 6c2c fdbd 8f32 333c 8dd9 e73d 4c6e b4bd
000003e0: 4144 663e da88 7d3d f254 84be 7f38 1e3d
000003f0: ef97 dc3c 2c37 25be 5b73 45bd 45cc 0fbe

network_body._body_endoder.seq_layers.0.bias f4 [128]
0.0014538029 -0.0009729037 -0.0021899638 -0.00042008166 0.0008735827 -0.0018722691 -0.001985711 -0.00044792713
0.0038580734 0.0018727395 -0.0029638195 -0.0017339183 -0.00033065287 0.0042424765 0.00010837058 -0.0026320673
0.0020604269 0.0037977772 -0.001967464 0.0046775853 0.0031097052 -0.0026167748 0.0022708783 -0.0016575418
0.0011170515 0.0016668098 0.00014343197 0.0019707151 -0.0015752271 0.00074458367 0.002715557 0.001316283
-0.003914782 0.0018787491 -0.00086719624 0.0015975316 -0.0031652872 -0.0004627071 -0.00054745085 0.0014918814
0.0024454994 -0.0012718759 0.00035133472 -0.0028996351 -0.0018994078 -0.0040626517 -0.0005779144 -0.0009932907
0.0019069714 -0.0019872906 -0.00045083964 -7.722878e-05 -0.00092417863 -0.002562416 -0.0004864146 -0.001549225
0.00254534 -0.0005603816 -0.0015176578 0.0013481159 -0.005444337 -0.0011052205 0.0033110897 -0.0023800808
-0.0003824443 0.0016618507 0.002655256 -0.0009064307 0.0020651177 0.0032514578 -0.0030904666 -9.373943e-05
-0.0010605153 -0.00040408212 -0.0019645763 -0.0019262481 -0.0024688828 -0.003631881 -0.00070413225 0.0014426947
0.0020393936 -0.001956241 0.00265955 0.0006764158 0.0020514026 1.0545551e-05 0.00024518633 0.0024122153
0.0015717229 -0.0016035833 0.002844534 0.0011566982 0.00053602754 0.002191341 -0.00089196366 -0.0005503059
-0.00018807244 -0.0017053717 -0.0048992177 0.0024121257 0.00048063332 0.00044227758 0.0015326199 0.003216214
0.0005805594 -0.0023549567 0.002238345 -0.0008052911 -0.002109078 -0.0021408529 -0.0018092991 0.0015954737
-0.00021215579 -3.442304e-05 0.002928099 -0.0001959058 -0.0013824331 0.0028291873 0.0017374315 0.003019254
-0.00057820376 -0.0029465188 -0.0012649279 -0.0022391567 -2.8049604e-05 1.4673863e-05 -0.0009709016 -0.0012771708
00000000: 888d be3a 760a 7fba 7f85 0fbb 683e dcb9
00000010: 2501 653a ed66 f5ba b422 02bb c3d7 eab9
00000020: bbd7 7c3b b676 f53a a43c 42bb a544 e3ba
00000030: 7a5b adb9 7904 8b3b 0345 e338 c37e 2cbb
00000040: 3a08 073b 21e4 783b 92f0 00bb 6e46 993b
00000050: 32cc 4b3b 327e 2bbb 04d3 143b e041 d9ba
00000060: 076a 923a db78 da3a 3a66 1639 1d27 013b
00000070: da77 ceba 2a30 433a 7df7 313b 2187 ac3a
00000080: 9247 80bb 5c40 f63a 8e54 63ba 4464 d13a
00000090: b570 4fbb 7f97 f2b9 ce82 0fba 3c8b c33a
000000a0: ac44 203b 13b5 a6ba 5933 b839 ce07 3ebb
000000b0: 8df5 f8ba fe1f 85bb 2e7f 17ba 4e31 82ba
000000c0: 58f3 f93a 343d 02bb ac5e ecb9 e3f5 a1b8
000000d0: 9444 72ba 35ee 27bb 7605 ffb9 5d0f cbba
000000e0: b8cf 263b 93e6 12ba 25ec c6ba 43b3 b03a
000000f0: 6966 b2bb 0cdd 90ba defe 583b 21fb 1bbb
00000100: ce82 c8b9 75d2 d93a ce03 2e3b 899d 6dba
00000110: ed56 073b 6916 553b 6d89 4abb f995 c4b8
00000120: fd00 8bba fcda d3b9 1fc0 00bb 297a fcba
00000130: fbcc 21bb da04 6ebb 8495 38ba cd18 bd3a
00000140: 59a7 053b 4734 00bb d84b 2e3b 7f51 313a
00000150: d370 063b ccec 3037 5a8c 8039 4216 1e3b
00000160: 4502 ce3a 542f d2ba 5d6b 3a3b 5a9c 973a
00000170: 3384 0c3a 9a9c 0f3b abd2 69ba 6742 10ba
00000180: 5035 45b9 c786 dfba 9e89 a0bb c114 1e3b
00000190: 83fd fb39 7ee1 e739 31e2 c83a 1ec7 523b
000001a0: af30 183a 9e55 1abb 33b1 123b 2c1a 53ba
000001b0: 7538 0abb 8d4d 0cbb 0126 edba 371f d13a
000001c0: 2376 5eb9 7561 10b8 59e5 3f3b 106c 4db9
000001d0: c232 b5ba e369 393b 87ba e33a adde 453b
000001e0: 9992 17ba 621a 41bb f0cb a5ba d1be 12bb
000001f0: 114c ebb7 c32f 7637 1a84 7eba be66 a7ba

network_body._body_endoder.seq_layers.2.weight f4 [128, 128]
0.041913036 -0.14795378 0.06829714 0.07295213 -0.09526234 -0.16762845 0.07047869 0.05189216
-0.077092186 -0.03415246 0.053319048 0.028804136 0.1277123 0.120347604 -0.02871984 -0.052011825
-0.05108749 -0.11082174 0.025793655 0.06996868 -0.042043112 0.06584346 -0.046575397 0.03211746
-0.09008451 0.16601366 -0.032565087 0.05092961 -0.07590578 -0.043917637 0.01225219 -0.02867478
0.06259916 0.061628573 -0.0879673 0.07060236 -0.016839253 -0.06657789 -0.039619565 -0.21368249
-0.0061424235 0.13730672 0.02020402 0.04447831 -0.018160587 -0.16899851 0.05702061 -0.011330355
0.024496308 0.018104043 0.10034504 0.044405147 0.034236554 0.11611126 0.013330648 -0.026650293
-0.061773084 -0.017942745 -0.08534314 -0.02770335 0.034311384 0.058066584 0.06291848 -0.028647661
0.076793596 -0.015274685 0.045468785 -0.011130813 -0.09500132 -0.040718753 0.020069119 -0.10810281
-0.038653683 0.01679711 0.074782185 0.06692931 0.0011849479 -0.080982536 0.14575846 0.05553791
-0.029799825 -0.08424804 -0.1473733 -0.16278622 0.008083627 0.1402512 -0.11226476 -0.11738107
-0.102248564 0.028267711 0.02620715 0.039517384 -0.03160591 -0.049485795 -0.006084596 -0.011865852
-0.1300155 -0.053617943 -0.06828597 0.06949079 0.1369883 0.13390669 -0.15359405 -0.068421334
-0.037375562 0.024873924 -0.024339264 0.014367351 -0.14524703 -0.017088892 -0.09031572 0.03622386
0.045515276 0.13836019 -0.0035253759 0.12792148 -0.11550398 0.06787725 0.07367826 -0.04364773
0.14045742 0.1133285 -0.066244185 -0.009535202 0.014088775 -0.010900928 -0.026984254 -0.07690506
0.06343448 0.11366377 0.14406997 -0.015637506 -0.12340237 0.088138424 -0.09223371 -0.014532154
0.18301046 -0.110070266 -0.06461953 0.15127546 -0.13483727 0.18004681 -0.11359655 0.017614316
0.037193697 -0.069749884 -0.1374187 0.17607847 0.09680145 -0.013789255 0.16763067 0.094751775
0.028155716 -0.027989544 -0.0025886642 0.12610228 -0.013432895 -0.044994105 0.15706468 0.03874422
-0.05649709 -0.04715048 -0.06575074 -0.055747002 -0.05287158 -0.11103592 0.11164022 0.1776768
-0.075643614 0.01605783 -0.20276438 0.034327406 -0.09926171 0.045370955 -0.0744648 0.016551485
0.0124996165 0.0068577426 0.1301472 -0.039968 0.07310272 0.0255111 -0.05584619 0.040688068
-0.047952175 -0.015827186 -0.02172991 0.14008322 0.12683022 -0.06773793 -0.04617969 -0.050536767
0.052279454 0.01063371 0.011021387 -0.04697591 -0.007670647 0.038353905 0.13194801 -0.037917092
-0.060766164 0.14797153 -0.14592442 0.14778343 -0.1086461 0.10501254 0.08369204 0.04589312
0.042424966 0.024922805 -0.007177173 0.11851958 0.023860727 0.057457782 -0.06434101 0.010682181
-0.060845777 -0.006398566 -0.24194722 -0.02399918 -0.028679227 0.10734631 0.03673455 -0.108771645
-0.016974377 0.0038135396 0.10788318 -0.026445694 -0.061565403 -0.07546536 -0.07377961 0.043028083
0.06726278 -0.14502485 -0.10982581 -0.020972563 0.006095477 -0.03929788 0.0010318937 0.20187385
-0.038993493 -0.08156077 0.15645415 0.0404318 0.049211312 0.0605457 -0.023923276 0.1617363
0.02285094 0.026403932 -0.09901493 0.0308915 0.013472417 0.06904469 0.03258874 -0.10522343
00000000: 01ad 2b3d 3281 17be 5fdf 8b3d ed67 953d
00000010: e718 c3bd cba6 2bbe 2257 903d e08c 543d
00000020: 82e2 9dbd 73e3 0bbd 1365 5a3d a7f6 eb3c
00000030: 03c7 023e ce78 f63d df45 ebbc 5a0a 55bd
00000040: 1e41 51bd 82f6 e2bd 374d d33c bd4b 8f3d
00000050: 6635 2cbd f0d8 863d d8c5 3ebd 998d 033d
00000060: 3a7e b8bd 7cff 293e f862 05bd 919b 503d
00000070: 7d74 9bbd fbe2 33bd 69bd 483c 5fe7 eabc
00000080: fd33 803d 3e6e 7c3d 3328 b4bd f897 903d
00000090: 79f2 89bc fd59 88bd 2048 22bd 95cf 5abe
000000a0: 6246 c9bb 229a 0c3e e782 a53c e32e 363d
000000b0: 83c5 94bc f20d 2dbe 718e 693d f4a2 39bc
000000c0: 7bac c83c ee4e 943c b381 cd3d 2ce2 353d
000000d0: a13b 0c3d becb ed3d ca68 5a3c b751 dabc
000000e0: c605 7dbd aafc 92bc 62c8 aebd 23f2 e2bc
000000f0: 188a 0c3d 3ad7 6d3d 67db 803d 80ae eabc
00000100: f645 9d3d ac42 7abc 7a3d 3a3d 035e 36bc
00000110: 0d90 c2bd b5c8 26bd fe67 a43c 0265 ddbd
00000120: 5353 1ebd 189a 893c 6727 993d 3c12 893d
00000130: 4150 9b3a 2cda a5bd b541 153e b87b 633d
00000140: c31e f4bc 3d8a acbd 07e9 16be 6eb1 26be
00000150: 3071 043c 039e 0f3e 11eb e5bd 7d65 f0bd
00000160: b267 d1bd b091 e73c 61b0 d63c fbdc 213d
00000170: 3375 01bd 9eb1 4abd 4a61 c7bb fe68 42bc
00000180: c922 05be 7d9e 5bbd 84d9 8bbd 3051 8e3d
00000190: a946 0c3e d61e 093e c247 1dbe 7c20 8cbd
000001a0: 1e17 19bd 66c4 cb3c 2363 c7bc 0a65 6b3c
000001b0: a3bb 14be 01fe 8bbc 73f7 b8bd 785f 143d
000001c0: 3a6e 3a3d 4bae 0d3e fe09 67bb d9fd 023e
000001d0: 5a8d ecbd 3a03 8b3d a1e4 963d f6c7 32bd
000001e0: 12d4 0f3e c618 e83d 08ab 87bd 8939 1cbc
000001f0: 9bd4 663c ce99 32bc 150e ddbc 6680 9dbd
00000200: f0e9 813d 8dc8 e83d 1487 133e 3a1a 80bc
00000210: 62ba fcbd eb81 b43d 07e5 bcbd 4618 6ebc
00000220: 1867 3b3e 856c e1bd 3f57 84bd f4e7 1a3e
00000230: c812 0abe 315e 383e 4fa5 e8bd e64b 903c
00000240: 6b58 183d 07d9 8ebd 7db7 0cbe ea4d 343e
00000250: d73f c63d 54ec 61bc 60a7 2b3e 380d c23d
00000260: d1a6 e63c 544a e5bc 94a6 29bb f520 013e
00000270: a515 5cbc bd4b 38bd 90d5 203e 42b2 1e3d
00000280: 7e69 67bd dd20 41bd 53a8 86bd f856 64bd
00000290: df8f 58bd cd66 e3bd a1a3 e43d e8f0 353e
000002a0: 0aeb 9abd b68b 833c 77a1 4fbe e59a 0c3d
000002b0: b949 cbbd e5d6 393d 0081 98bd fb96 873c
000002c0: 31cb 4c3c eab6 e03b 4f45 053e 7cb5 23bd
000002d0: e1b6 953d a8fc d03c f9be 64bd 88a8 263d
000002e0: 8069 44bd 04a8 81bc ed02 b2bc fa71 0f3e
000002f0: c8df 013e 2fba 8abd ea26 3dbd a4ff 4ebd
00000300: fb22 563d 0339 2e3c 0c93 343c d069 40bd
00000310: 0d5a fbbb fc18 1d3d 611d 073e f44e 1bbd
00000320: f1e5 78bd d985 173e 366d 15be 8a54 173e
00000330: d981 debd d110 d73d bb66 ab3d 6dfa 3b3d
00000340: cdc5 2d3d e92a cc3c 7e2e ebbb 65ba f23d
00000350: 9277 c33c da58 6b3d 38c5 83bd 5104 2f3c
00000360: 6c39 79bd 10ab d1bb 03c1 77be ee99 c4bc
00000370: b3f0 eabc 62d8 db3d f876 163d abc3 debd
00000380: d90d 8bbc 94ec 793b dbf1 dc3d a4a4 d8bc
00000390: 012c 7cbd 958d 9abd c419 97bd 373e 303d
000003a0: 12c1 893d 6581 14be 5bec e0bd a7ce abbc
000003b0: 91bc c73b d0f6 20bd 9b40 873a 05b8 4e3e
000003c0: a4b7 1fbd 5509 a7bd 8435 203e d19b 253d
000003d0: cd91 493d c5fe 773d bffa c3bc 339e 253e
000003e0: e531 bb3c 0f4d d83c 57c8 cabd 2c10 fd3c
000003f0: 6abb 5c3c 4d67 8d3d c57b 053d 627f d7bd

network_body._body_endoder.seq_layers.2.bias f4 [128]
0.00089502026 -0.0038428402 0.0017503166 0.00061389315 -0.0028438447 0.00064297573 0.002388906 0.0021564818
-0.0019971067 -0.0015189033 -0.0035029447 0.0013092983 -0.0016924306 0.00038295667 -0.004414858 0.0003896192
0.0025570928 -0.003179786 0.0012741374 -0.0026521399 0.0010516118 -0.00010194517 0.001884056 0.0015719371
0.0012248621 0.0029933036 -0.0015249901 0.00097417034 0.005468988 0.0015714385 -0.0015559869 9.656527e-05
0.00049231 -0.00075366936 -0.0005296782 -0.002313125 -0.0008459479 -0.0022844218 -0.00036400725 -0.0027901311
0.0019630238 0.0021245833 0.00028370344 0.00016997935 0.00047526855 -0.00203335 -0.0020336183 0.0025897468
0.00012023493 0.00020348441 0.00022083781 -0.0011432801 0.005414441 4.094628e-05 -0.0026576319 0.0024347184
0.0023898464 0.00017564137 0.00046905148 0.0009376373 0.004850357 0.00028857077 -0.00051897333 0.0029198334
0.0010291407 -0.0019563355 0.00084662373 0.0005431301 0.0025234597 5.0313807e-05 -0.00054204377 0.0031255863
-0.0016271465 0.0006332166 0.0016685075 0.002223022 -0.0017769332 -0.0033146234 0.0012220156 0.000971411
-0.0030215662 0.00378745 -0.0028829703 0.0011167016 -0.0014474591 -0.0005220811 0.001619279 -0.00030642486
-0.001986727 -0.0009026 -0.002130684 0.00023757126 0.0019176961 -0.0028066814 0.00065165036 -0.002769642
0.0020110672 -0.0023080297 0.0011714508 0.0006781791 -0.0005542696 0.0016983829 0.0016143878 -0.0023167247
0.002565271 0.00050279504 -0.0023390115 -0.00017966593 8.1527694e-05 0.0010782708 -0.0027333137 0.0012029362
0.0022846204 0.0034958038 -0.00042544524 0.003971409 -0.0008098654 -0.0024187546 -0.0028419686 -0.001912203
-0.0022250158 0.0012122134 -0.0002299756 -0.0015303082 -0.0029491677 -0.0009342828 -0.0012355046 0.0017667213
00000000: cb9f 6a3a 29d8 7bbb e16a e53a aced 203a
00000010: cc5f 3abb 5f8d 283a 318f 1c3b c353 0d3b
00000020: e4e1 02bb f015 c7ba a991 65bb c39c ab3a
00000030: 8cd4 ddba 93c7 c839 83aa 90bb ce45 cc39
00000040: e694 273b f563 50bb f500 a73a 86cf 2dbb
00000050: 3dd6 893a 65cb d5b8 6ef2 f63a 7509 ce3a
00000060: 8d8b a03a 4d2b 443b 2de2 c7ba 775f 7f3a
00000070: 3235 b33b baf8 cd3a 42f2 cbba 1683 ca38
00000080: 5d0e 013a e591 45ba 1ada 0aba cc97 17bb
00000090: 9ac2 5dba 3db6 15bb 3ad8 beb9 a2da 36bb
000000a0: 13a6 003b 983c 0b3b 08be 9439 7c3c 3239
000000b0: 772d f939 f441 05bb 7446 05bb beb8 293b
000000c0: a326 fc38 6e5e 5539 b390 6739 1dda 95ba
000000d0: a06b b13b bcbd 2b38 aa2b 2ebb cc8f 1f3b
000000e0: f89e 1c3b 5f2c 3839 06eb f539 c6cb 753a
000000f0: beef 9e3b 504b 9739 b60b 08ba ad5a 3f3b
00000100: 3be4 863a dd35 00bb f5ef 5d3a d860 0e3a
00000110: a160 253b 0a08 5338 f117 0eba a3d6 4c3b
00000120: fa45 d5ba 72fe 253a d2b1 da3a 1fb0 113b
00000130: fce7 e8ba 273a 59bb 0a2c a03a 4aa6 7e3a
00000140: 7805 46bb de36 783b 37f0 3cbb 4a5e 923a
00000150: abb8 bdba 45dc 08ba fd3d d43a a6a7 a0b9
00000160: bf33 02bb 769c 6cba f2a2 0bbb 8d1c 7939
00000170: 345b fb3a 4df0 37bb 84d3 2a3a e282 35bb
00000180: 1ccc 033b 5042 17bb 5e8b 993a d4c7 313a
00000190: 674c 11ba 469c de3a de99 d33a 31d4 17bb
000001a0: 1b1e 283b 01ce 033a 1a4a 19bb b564 3cb9
000001b0: d9f9 aa38 c454 8d3a 6521 33bb d7ab 9d3a
000001c0: 92b9 153b db19 653b 4b0e dfb9 9822 823b
000001d0: 264d 54ba f883 1ebb 5240 3abb e3a2 faba
000001e0: 92d1 11bb 22e3 9e3a 9b25 71b9 9f94 c8ba
000001f0: d346 41bb a8ea 74ba a8f0 a1ba 5491 e73a

action_model._discrete_distribution.branches.0.weight f4 [4, 128]
-0.012780275 0.009485361 -0.005465452 0.0012881504 0.0048646624 0.002602182 -0.0039403257 0.019590205
0.013213638 4.630319e-06 -0.0025079388 0.0033327714 -0.008249632 0.006714674 0.016587248 -0.0031544487
-0.004453813 0.0003009375 0.0043488923 -0.0035138584 0.006149714 -0.004634297 -0.0007059631 -0.0148085635
-0.00978146 -0.016898835 0.003460261 -0.012019864 -0.01231012 0.0009742723 -0.001662987 0.0037268328
0.00027710575 0.015997082 0.014805907 0.00024577128 0.005715271 0.0088168 -0.0033733665 0.00068622996
-0.001436666 -0.016299222 -0.002119473 -0.0074343295 -0.005274017 -0.0067843096 0.0028776734 0.007468051
0.00019744001 0.00092292 0.003916458 -0.0040699393 0.012622281 0.0012128362 0.012515735 -0.005251059
-0.014107182 0.00044120412 0.0035094714 0.015422732 -0.0033989989 0.001212466 0.0135025 -0.012044108
-0.006035528 -0.0020007452 -0.007871324 -0.009431891 -0.0047187903 -0.0032931145 0.0019023814 0.012139835
0.002238072 -0.0069985213 -0.0032028607 0.0039157267 -0.0076568592 0.003503003 0.0017841564 -0.00022777512
0.001407734 -0.0027751995 -0.008094947 0.0073747295 -0.01284091 0.009311959 0.0010185086 -0.0118146585
0.018077139 -0.01361441 0.01708966 -0.008072937 0.0013658961 -0.002504865 0.0050723236 0.008443847
-0.0010894476 0.0094507905 -0.008363684 -0.012643964 -0.002441817 0.002967661 -0.008347435 0.010986171
-0.006968574 -0.003964266 0.00647245 -0.0099731395 0.00642499 -0.0027774954 0.0008769743 -0.0032107225
-0.0151181435 -0.010712369 -0.007861245 0.0121463565 0.003571837 0.007679244 0.00060274015 0.0069216355
0.005134807 0.0045924387 -0.002994439 -0.009826455 0.009492398 -0.015738733 0.0072440454 0.022804277
-0.00456767 -0.009306552 0.007607037 -0.00734064 -0.0043995488 -0.0004631864 0.012790239 -0.0028887277
-0.0043581356 -0.0050468026 -0.01295233 -0.0040441393 -0.0051190862 0.009976368 -0.014177119 0.013397375
0.014087749 0.0006789403 0.0018781355 0.009262473 0.005965741 -0.007475568 0.003530473 0.009316708
-0.003974921 0.0017902364 -0.005965579 0.011231154 -0.0020970847 0.0015624709 -0.0027227898 -0.0068955156
-0.0014315387 0.0032518655 0.006389467 -0.008845972 -0.007666065 -0.0073682154 -0.007693049 -0.012068874
-0.0086217085 0.004848165 0.0050290558 -0.0011266671 0.0029128252 -0.0067078066 -0.010058946 -0.009673386
-0.0029147624 0.017449707 -0.0032784948 -0.0042884625 0.0018679983 -0.006858865 0.0021695213 0.012293165
-0.0028349508 0.0024764598 0.008935796 0.0022911625 0.008374139 -0.0037563497 0.014421885 0.008483311
-0.0033043488 0.008790139 -0.0067226496 -0.010698224 0.0007815233 0.013197727 0.008322696 0.0057824343
0.015380708 -0.0007994287 0.0017092897 0.00060204417 0.0114440825 -0.004691578 -0.0039732447 0.021675495
-0.0057810796 0.009274982 -0.007933603 0.006752855 -0.0017149107 -0.0027167185 0.013157442 0.0025015583
-0.0041744313 -0.0034821867 -0.010564961 -0.022258552 0.01538399 -0.008387305 0.002524442 0.0026133028
0.0061627575 0.0013717408 -0.009780879 0.0025196315 -0.0010630536 0.0020308513 -0.014022004 -0.009564774
-0.0043175663 0.0018594641 0.0011718851 0.0016397891 -0.007512146 0.0042184913 -0.020721931 0.003428238
0.006405573 -0.0011219333 0.008830303 -0.007482722 0.00046522383 0.006277116 -0.0063042296 0.0048706294
0.020511618 -0.0020969838 0.00029998322 0.005146945 -0.012345321 -0.009774718 0.013360838 -0.00419165
00000000: 5c64 51bc 7d68 1b3c 8917 b3bb 28d7 a83a
00000010: bf67 9f3b 5f89 2a3b d91d 81bb a37b a03c
00000020: 047e 583c 235e 9b36 3b5c 24bb a06a 5a3b
00000030: 7729 07bc c506 dc3b fbe1 873c deba 4ebb
00000040: 4bf1 91bb 26c7 9d39 2781 8e3b c348 66bb
00000050: 8a83 c93b 4ddb 97bb 6210 39ba 9e9f 72bc
00000060: 6b42 20bc 6d6f 8abc 8cc5 623b f7ee 44bc
00000070: 63b0 49bc 4f66 7f3a 96f8 d9ba e13d 743b
00000080: 8148 9139 500c 833c 7a94 723c ddda 8039
00000090: 2b47 bb3b 5774 103c b313 5dbb 1de4 333a
000000a0: 834e bcba f285 85bc dbe6 0abb ad9b f3bb
000000b0: a9d1 acbb ea4e debb 5997 3c3b 8db6 f43b
000000c0: e607 4f39 1df0 713a a255 803b 205d 85bb
000000d0: afcd 4e3c 08f8 9e3a cc0e 4d3c 1311 acbb
000000e0: cf21 67bc 6a51 e739 29ff 653b a0af 7c3c
000000f0: bdc1 5ebb 9ceb 9e3a 9739 5d3c a654 45bc
00000100: aec5 c5bb ef1e 03bb baf6 00bc 3888 1abc
00000110: 15a0 9abb 4bd1 57bb 5459 f93a 29e6 463c
00000120: 9eac 123b da53 e5bb 16e7 51bb 7f4f 803b
00000130: 64e6 fabb a392 653b 5bda e93a ebd6 6eb9
00000140: b783 b83a 1fe0 35bb aba0 04bc b7a7 f13b
00000150: ae62 52bc 3091 183c 7a7f 853a 4592 41bc
00000160: 8216 943c f90e 5fbc 9dff 8b3c 5a44 04bc
00000170: de07 b33a a928 24bb bc35 a63b 1058 0a3c
00000180: cccb 8eba 7dd7 1a3c d507 09bc a128 4fbc
00000190: e406 20bb 177d 423b aec3 08bc 57ff 333c
000001a0: a358 e4bb ace6 81bb d916 d43b 6166 23bc
000001b0: b988 d23b a406 36bb c0e4 653a fc6a 52bb
000001c0: 17b2 77bc ef82 2fbc 74cc 00bc 8301 473c
000001d0: 7b15 6a3b 2ba2 fb3b 3501 1e3a e3ce e23b
000001e0: e241 a83b 2b7c 963b 5a3e 44bb 24ff 20bc
000001f0: 0186 1b3c 84ee 80bc 755f ed3b 09d0 ba3c
00000200: 65ac 95bb 827a 18bc 7444 f93b c089 f0bb
00000210: 172a 90bb d4d7 f2b9 278e 513c cf50 3dbb
00000220: b1ce 8ebb a65f a5bb 0236 54bc b384 84bb
00000230: 02be a7bb ec73 233c 2647 68bc aa80 5b3c
00000240: 4dd0 663c eafa 313a c52b f63a a1c1 173c
00000250: 437c c33b 9cf5 f4bb 825f 673b 1ba5 183c
00000260: 0e40 82bb 5ea6 ea3a e77a c3bb e002 383c
00000270: 3e6f 09bb d3cb cc3a d570 32bb c7f3 e1bb
00000280: 78a2 bbba 401d 553b bc5e d13b b2ee 10bc
00000290: 9d33 fbbb 1271 f1bb f915 fcbb 87bc 45bc
000002a0: 1142 0dbc 5bdd 9e3b c7ca a43b adac 93ba
000002b0: 19e5 3e3b 29cd dbbb 47ce 24bc 1f7d 1ebc
000002c0: 9905 3fbb b0f2 8e3c 04dc 56bb 3b86 8cbb
000002d0: 9fd7 f43a 54c0 e0bb 872e 0e3b 4569 493c
000002e0: 95ca 39bb 1a4c 223b 7267 123c 5427 163b
000002f0: af33 093c 172d 76bb c549 6c3c 96fd 0a3c
00000300: c68d 58bb 8404 103c ac49 dcbb 9b47 2fbc
00000310: 24df 4c3a 473b 583c eb5b 083c 937a bd3b
00000320: 5dff 7b3c c090 51ba 3f0a e03a 80d2 1d3a
00000330: f67f 3b3c cfbb 99bb fe31 82bb cf90 b13c
00000340: 366f bdbb 18f6 173c f1fb 01bc 0e47 dd3b
00000350: dbc6 e0ba f90a 32bb 5092 573c 2ff1 233b
00000360: abc9 88bb 6635 64bb a818 2dbc 9157 b6bc
00000370: 210d 7c3c e86a 09bc 1c71 253b f243 2b3b
00000380: f5f0 c93b fccb b33a fb3f 20bc 6720 253b
00000390: 2956 8bba 0818 053b 8cbc 65bc 92b5 1cbc
000003a0: 5f7a 8dbb 43b9 f33a f099 993a 31ee d63a
000003b0: 7328 f6bb 453b 8a3b 0ac1 a9bc 4aac 603b
000003c0: d7e5 d13b d60d 93ba faac 103c 9f31 f5bb
000003d0: 49e9 f339 44b0 cd3b b693 cebb cd99 9f3b
000003e0: fb07 a83c 8d6d 09bb 1147 9d39 b4a7 a83b
000003f0: 0744 4abc 2426 20bc 6be7 5a3c 1c5a 89bb

action_model._discrete_distribution.branches.0.bias f4 [4]
-0.0023647896 0.0024438077 0.0009057298 -7.945203e-05
00000000: 96fa 1abb 4a28 203b 7f6e 6d3a 7c9f a6b8

action_model._discrete_distribution.branches.1.weight f4 [4, 128]
-0.015047179 -0.0025447474 0.009544108 0.009658683 -0.0029659364 -0.007505984 0.019194465 -0.01986234
0.008243103 -0.007863529 -0.017351931 -0.012986084 -0.009041148 -0.0077253715 -0.00077478593 0.0014593322
0.009869993 0.0031289528 0.0056748325 0.0017305355 -0.003017554 0.00519815 -0.018690873 0.013588717
0.0014175795 -0.0008106932 -0.0015605355 -0.011093076 0.0033246013 -0.0074111293 -0.006568362 -0.0026202912
-0.0009028039 0.006852919 0.0045196945 0.0054917308 0.0023810496 0.0037128013 0.0071935277 0.0099534
0.013403679 0.007211794 -0.0110218795 -0.00019155581 0.00969457 0.0026582193 -0.01249876 -0.010156095
0.017895656 -0.011430908 -9.981982e-06 -0.02821615 -0.010136504 0.006982771 -0.00096157147 0.01781647
0.007305764 -0.01176031 -0.007844477 -0.010232546 -0.0043594064 -0.008446686 0.0029846025 0.012016577
-0.00063487544 -0.008224867 0.0036832136 -0.004486674 -0.005639195 0.004427098 -0.0027479574 -0.012319963
-0.00981973 -0.0006634211 -0.008718809 0.00054626964 0.0026400434 -0.01410552 -0.0035055762 0.012156311
-0.0067611323 0.0044280337 -1.5035776e-06 0.0066284696 0.0035128451 0.00757423 -0.0001857943 0.010984358
-0.0098280795 -0.0073444974 -0.006969677 -0.013572008 0.021112805 -0.0094107585 -0.023704093 -0.0168051
-0.00085303345 -0.004334563 -0.0027714318 -0.0005348728 0.0038070348 -0.012413613 -0.0007173591 -0.013760238
0.01761532 0.0049711745 -0.014681413 -0.005523243 0.0042780433 0.015889056 -0.007087147 0.013172512
-0.017309528 0.016842112 0.0018114444 -0.014235541 -0.008470238 -0.0068556117 -0.009767559 -0.007401514
-0.012948483 -0.0015334516 0.008167742 0.0030961658 -0.016530106 0.00050305686 0.011448829 -0.018485751
-0.0056293625 0.0026570046 0.015941923 0.010049179 -0.00024727435 -0.0027739743 0.00011596063 0.00037768314
-0.006274675 -0.002206162 0.0078436 -0.011129475 0.004160394 -0.014901807 0.013224149 0.004883305
-0.010374398 -0.011749604 0.011105737 -0.01093339 0.0018888057 -0.005812494 0.013352881 -0.0103974715
0.00078681216 -0.016928503 -0.0053471443 0.0014944037 -0.013101522 -0.0021390752 0.004192957 -0.00043304637
-0.00026086296 -0.0025400594 -0.0027133815 -0.010364793 -0.010444532 -0.0010049393 -0.008624992 -0.018272506
0.003684786 -0.010472143 0.013358364 0.0156392 0.0044016833 -0.0039967494 0.0075686616 -0.020191297
0.0047466545 0.0055198483 -0.014636662 0.0030089756 0.006137423 0.0033907064 0.001894313 0.0014784801
-0.0074689086 -0.016821561 -0.0013040721 0.005509187 -0.01091459 0.011209999 0.012568046 -0.005745747
-0.004242967 0.012991883 0.0045275125 0.0015165077 -0.012709602 0.0023664273 2.5968182e-05 0.015613312
0.014743579 0.0028686305 -0.018157028 0.018498868 -0.011978561 0.0103119025 -0.014351498 -0.0040463824
0.0010553347 -0.0018766278 0.0047197514 -0.004192028 0.015252473 -0.004567728 -0.0017637872 0.0048434683
-0.0027885023 0.0006767993 0.0039981026 -0.00068444083 -0.0015180074 -0.0028252446 0.00600251 0.00058282714
-0.009348206 0.00024906942 -0.013963319 0.0154183395 -0.00091112376 0.00627126 0.0071105715 0.012242603
-0.0133742355 -0.0121418 0.013643568 -0.00013636814 0.0070373914 -0.0036434932 0.0059746634 0.0010515305
-0.012151607 -0.011800501 0.0039271195 -0.0032619764 0.0036533363 0.0057212836 -0.009105331 0.007288405
-0.004147196 0.016868645 -0.0044996096 0.0024471325 -0.00965843 -0.00023361981 0.0069613177 0.0027732858
00000000: 7188 76bc c7c5 26bb e45e 1c3c 743f 1e3c
00000010: 2860 42bb c2f4 f5bb b63d 9d3c 59b6 a2bc
00000020: 140e 073c 08d6 00bc a325 8ebc 96c3 54bc
00000030: 5321 14bc 1d25 fdbb 011b 4bba 1047 bf3a
00000040: c0b5 213c 1e0f 4d3b f2f3 b93b 23d3 e23a
00000050: 28c2 45bb 3e55 aa3b 9a1d 99bc 36a3 5e3c
00000060: 13ce b93a b384 54ba e28a ccba bcbf 35bc
00000070: 8ee1 593b 0fd9 f2bb 6a3b d7bb 31b9 2bbb
00000080: 25aa 6cba 738e e03b f219 943b faf3 b33b
00000090: 620b 1c3b 7852 733b afb7 eb3b 9613 233c
000000a0: 1b9b 5b3c ea50 ec3b 1d95 34bc 5fdc 48b9
000000b0: f9d5 1e3c 8535 2e3b 99c7 4cbc c065 26bc
000000c0: e999 923c b448 3bbc 4978 27b7 8e25 e7bc
000000d0: 9413 26bc bbcf e43b f811 7cba d8f3 913c
000000e0: 3165 ef3b 51ae 40bc 1f86 00bc 69a6 27bc
000000f0: 5ad9 8ebb f863 0abc 5299 433b 2de1 443c
00000100: c56d 26ba 98c1 06bc 1262 713b f304 93bb
00000110: ffc8 b8bb 3111 913b 1317 34bb acd9 49bc
00000120: efe2 20bc 70e9 2dba 56d9 0ebc 8933 0f3a
00000130: 9404 2d3b d71a 67bc cfbd 65bb 442b 473c
00000140: 7d8c ddbb 0a19 913b 88ce c9b5 a233 d93b
00000150: c337 663b 3f31 f83b c7d1 42b9 bdf7 333c
00000160: f405 21bc 1caa f0bb e361 e4bb 215d 5ebc
00000170: c3f4 ac3c 952f 1abc 162f c2bc d9aa 89bc
00000180: 1b9e 5fba f308 8ebb e9a0 35bb b536 0cba
00000190: 727f 793b 7762 4bbc 270d 3cba 9f72 61bc
000001a0: 014e 903c 3ce5 a23b 4f8a 70bc 52fc b4bb
000001b0: d42e 8c3b c429 823c 4c3b e8bb 85d1 573c
000001c0: b6cc 8dbc 78f8 893c fd6d ed3a 303c 69bc
000001d0: c1c6 0abc 0aa5 e0bb 1d08 20bc 6688 f2bb
000001e0: e025 54bc 19fe c8ba fed1 053c 0be9 4a3b
000001f0: 256a 87bc 93df 033a df93 3b3c 6e6f 97bc
00000200: 8476 b8bb 2421 2e3b a398 823c 50a5 243c
00000210: 9aa4 81b9 91cb 35bb e42f f338 c603 c639
00000220: ca9b cdbb 4295 10bb 7182 003c 6758 36bc
00000230: ea53 883b b526 74bc 1aaa 583c 2204 a03b
00000240: 61f9 29bc 6981 40bc d6f4 353c f621 33bc
00000250: cd91 f73a bc76 bebb 0bc6 5a3c 285a 2abc
00000260: 1242 4e3a a5ad 8abc 1937 afbb dedf c33a
00000270: c4a7 56bc ba2f 0cbb 1365 893b 800a e3b9
00000280: 6fc4 88b9 2077 26bb fdd2 31bb 18d1 29bc
00000290: 8b1f 2bbc 2bb8 83ba d74f 0dbc 39b0 95bc
000002a0: 737c 713b 5a93 2bbc 0add 5a3c c81d 803c
000002b0: ff3b 903b 2af7 82bb 8902 f83b 3868 a5bc
000002c0: d389 9b3b d8df b43b 9cce 6fbc 3c32 453b
000002d0: 701c c93b 9d36 5e3b 994a f83a 8fc9 c13a
000002e0: bfbd f4bb 5fcd 89bc 66ed aaba 6986 b43b
000002f0: 1cd3 32bc 25aa 373c 35ea 4d3c d246 bcbb
00000300: 9608 8bbb e8db 543c 875b 943b 8ec5 c63a
00000310: ef3b 50bc 1016 1b3b 3fd6 d937 face 7f3c
00000320: 0d8f 713c a2ff 3b3b 0cbe 94bc f08a 973c
00000330: ba41 44bc 41f3 283c 8c22 6bbc 8497 84bb
00000340: 2853 8a3a 2ef9 f5ba 25a8 9a3b 485d 89bb
00000350: 82e5 793c e1ac 95bb e12e e7ba f5b5 9e3b
00000360: 4ebf 36bb 3b6b 313a 8402 833b 0c6c 33ba
00000370: e0f7 c6ba bd27 39bb b4b0 c43b dec8 183a
00000380: 3829 19bc 8895 8239 68c6 64bc 349d 7c3c
00000390: 7bd8 6eba 247f cd3b ccff e83b 3395 483c
000003a0: 9c1f 5bbc 66ee 46bc 4689 5f3c 0bfe 0eb9
000003b0: eb99 e63b acc7 6ebb 1cc7 c33b 82d3 893a
000003c0: 8917 47bc e356 41bc 11af 803b e2c6 55bb
000003d0: d06c 6f3b 9b79 bb3b 872e 15bc 93d3 ee3b
000003e0: 34e5 87bb 1d30 8a3c 7671 93bb 1260 203b
000003f0: 643e 1ebc d7f7 74b9 c41b e43b 04c0 353b

action_model._discrete_distribution.branches.1.bias f4 [4]
0.002317859 -0.002228424 -0.0009944962 0.002043119
00000000: 39e7 173b c00a 12bb c159 82ba d9e5 053b

exp_avg f4 [128, 48]
1.7940929e-05 4.407629e-06 8.121386e-06 -1.3442396e-06 2.0803784e-05 2.4332681e-05 6.291136e-06 1.3804724e-06
1.1878486e-05 -2.0755206e-05 2.9106322e-05 2.2615357e-05 -7.231653e-07 -1.0170344e-05 7.2036282e-06 -1.11670615e-05
1.6456537e-05 1.4717296e-05 7.755496e-06 -3.152371e-07 9.406476e-06 3.5534887e-07 1.3208507e-05 1.4711383e-05
2.017605e-05 8.114605e-06 1.0556479e-05 1.105515e-05 3.7801249e-06 -1.8079813e-06 1.0897611e-05 8.818474e-06
4.609452e-06 1.3743671e-05 -6.3706198e-06 -5.973013e-06 1.4442863e-05 -5.939166e-06 -3.6134381e-06 6.796167e-06
6.3385132e-06 6.8242425e-06 8.276597e-06 -1.2107271e-05 1.9470917e-06 7.228326e-05 1.3276654e-05 1.431377e-08
-3.8095936e-06 3.92842e-06 -1.5795646e-06 2.1449368e-05 -1.8723964e-05 -1.9048228e-05 -8.090108e-06 -1.8918684e-07
4.6698256e-06 6.8888407e-06 -6.746601e-06 -1.01303485e-05 6.7861333e-06 -1.1557136e-05 -4.738505e-06 1.5517893e-05
-1.7196271e-05 -1.6129361e-05 6.2429913e-06 -4.588081e-06 -9.051722e-07 4.926741e-06 -8.69951e-06 -1.0011272e-05
3.3950741e-06 -7.3602814e-06 -9.61615e-07 5.779914e-06 -9.120672e-06 -6.3339426e-06 1.5310105e-05 -1.8247543e-05
-1.120567e-05 -1.4387882e-05 1.024875e-05 4.5643005e-06 8.606339e-06 -1.4397176e-05 -7.282415e-06 -9.493113e-06
3.2678813e-06 3.822518e-06 -8.635906e-06 -4.4734978e-07 2.4217015e-06 -7.267113e-05 -7.841449e-06 3.4931537e-07
-2.5979439e-06 5.758072e-07 7.46212e-07 5.5661257e-08 -2.6451627e-07 -8.482493e-07 -3.1570924e-06 1.8554525e-06
1.3861876e-06 1.5298743e-06 -1.6023257e-06 -1.4298244e-06 1.6677874e-06 -1.023878e-06 -1.0343887e-06 3.155368e-07
-5.179906e-07 -5.027177e-07 1.1767478e-06 -5.625783e-07 -6.4102494e-07 1.7720437e-06 -8.729265e-07 -1.3090623e-06
-2.6554255e-07 -1.4082373e-06 -1.3684389e-06 1.8324492e-07 -2.779834e-07 2.4829103e-07 5.3881973e-07 -2.2118797e-06
-1.5614038e-06 -1.4640652e-06 4.1831203e-07 7.517889e-07 6.8014623e-07 -2.5571094e-06 -1.6955197e-06 -1.9767572e-06
-3.759266e-07 -6.809894e-08 -1.3909561e-06 1.5953401e-07 -3.7300546e-07 -2.0302181e-07 -1.0930523e-06 -4.4730985e-08
1.8750301e-05 -1.5244866e-05 -6.650876e-06 -1.57788e-05 9.370787e-06 1.6372165e-05 1.5864476e-05 -8.18489e-06
-5.096486e-06 -1.2565749e-05 2.2756243e-05 2.0330059e-05 -2.4969651e-05 2.7941274e-05 2.5287618e-05 -3.1773827e-06
1.1711194e-05 1.8281256e-05 -1.0788189e-05 1.24402595e-05 1.593797e-05 -1.0249461e-05 1.42010185e-05 2.275404e-05
8.269984e-06 1.472632e-05 1.4480008e-05 -6.7227543e-06 1.0933503e-05 1.3956892e-05 -1.540642e-05 4.051234e-05
3.3313587e-05 1.8772396e-05 -1.527678e-06 1.9086933e-07 -2.1347598e-05 4.722585e-05 3.618501e-05 2.4801668e-05
5.904623e-06 4.796888e-07 1.7437242e-05 6.3248103e-06 8.835073e-06 0.00024780454 2.2620581e-05 9.558782e-07
1.3867719e-06 -4.300057e-07 -3.7238883e-07 1.6300719e-06 -7.006932e-07 -4.8078743e-07 1.619182e-06 -9.029205e-07
-1.7633934e-07 1.9393498e-07 1.0103112e-06 2.3591217e-07 -7.1512704e-07 1.9590084e-06 2.097179e-06 5.120778e-07
-4.0772056e-07 -1.33242e-07 -3.832631e-07 1.7164256e-06 1.9678198e-06 3.9978548e-07 5.9326535e-08 4.1716923e-09
-3.2225162e-07 1.8608349e-06 1.6277894e-06 1.389762e-07 2.8163367e-07 -1.3896982e-07 1.1251401e-06 1.9940627e-07
1.5034732e-07 1.2321834e-06 -1.2156497e-06 -6.035509e-07 -9.477528e-08 9.511595e-07 1.3465242e-07 1.8730901e-07
-3.2252893e-07 5.7076697e-08 1.1313156e-06 -5.5939137e-07 7.1937535e-08 1.3330727e-05 9.168368e-07 2.8348031e-08
2.3343313e-08 -2.4476284e-07 -2.9618081e-07 2.0332288e-06 -2.645746e-06 -2.023458e-06 3.5338013e-07 -3.4674716e-07
1.8903665e-07 6.588464e-07 -1.6700093e-07 -8.3270726e-07 7.157213e-07 6.4658065e-07 7.815099e-07 1.3905047e-06
00000000: da7f 9637 3fe5 9336 1641 0837 b96b b4b5
00000010: c983 ae37 091e cc37 7218 d336 ac48 b935
00000020: b549 4737 771b aeb7 5a29 f437 1cb6 bd37
00000030: 8a1f 42b5 4ba1 2ab7 b2b6 f136 2a5a 3bb7
00000040: 250c 8a37 4eea 7637 9a1d 0237 db3d a9b4
00000050: 82d0 1d37 c7c6 be34 1b9a 5d37 e9d0 7637
00000060: bd3f a937 f723 0837 bb1b 3137 8279 3937
00000070: 0dae 7d36 c4a9 f2b5 e2d4 3637 0ff3 1337
00000080: e4aa 9a36 9e94 6637 35c3 d5b6 ca6b c8b6
00000090: a04f 7237 0c49 c7b6 657e 72b6 a10a e436
000000a0: 6aaf d436 ccfb e436 b7db 0a37 5520 4bb7
000000b0: c8aa 0236 c896 9738 cbbe 5e37 a0e8 7532
000000c0: 52a8 7fb6 dfd0 8336 6d01 d4b5 2bee b337
000000d0: 6811 9db7 c2c9 9fb7 c0ba 07b7 4823 4bb4
000000e0: 7fb1 9c36 b126 e736 dc60 e2b6 84f5 29b7
000000f0: 71b4 e336 85e5 41b7 73ff 9eb6 6c2c 8237
00000100: b640 90b7 8a4d 87b7 e37a d136 51f3 99b6
00000110: f6fa 72b5 6250 a536 1cf4 11b7 16f6 27b7
00000120: eed6 6336 56f8 f6b6 d710 81b5 15f1 c136
00000130: fd04 19b7 2788 d4b6 336e 8037 4d12 99b7
00000140: fcff 3bb7 7c63 71b7 0cf2 2b37 0b27 9936
00000150: f263 1037 668b 71b7 785b f4b6 9c44 1fb7
00000160: c64d 5b36 2e43 8036 efe2 10b7 492b f0b4
00000170: 8484 2236 0467 98b8 c48e 03b7 8a89 bb34
00000180: 5658 2eb6 2b91 1a35 4c4f 4835 3310 6f33
00000190: d702 8eb4 3fb3 63b5 6fde 53b6 dd08 f935
000001a0: 0b0d ba35 1556 cd35 7e0f d7b5 64e8 bfb5
000001b0: bdd8 df35 2e6c 89b5 53d5 8ab5 0c67 a934
000001c0: 0b0c 0bb5 7ff2 06b5 bff0 9d35 1604 17b5
000001d0: e612 2cb5 f5d6 ed35 0d53 6ab5 0ab3 afb5
000001e0: e48f 8eb4 aa02 bdb5 34ab b7b5 fbc1 4434
000001f0: bf3d 95b4 dc4c 8534 69a3 1035 ce6f 14b6
00000200: 6d91 d1b5 e680 c4b5 5e94 e034 8ace 4935
00000210: 4b93 3635 ce9a 2bb6 9d91 e3b5 6ea8 04b6
00000220: f5d2 c9b4 ca3d 92b3 e3b0 bab5 604c 2b34
00000230: 7b41 c8b4 36fe 59b4 feb4 92b5 3d1e 40b3
00000240: f749 9d37 33c4 7fb7 972a dfb6 b75c 84b7
00000250: 3937 1d37 f556 8937 b414 8537 d651 09b7
00000260: 7b02 abb6 7bd1 52b7 a9e4 be37 788a aa37
00000270: eb75 d1b7 6e63 ea37 bf20 d437 053b 55b6
00000280: 327b 4437 b35a 9937 ebfe 34b7 82b6 5037
00000290: 88b2 8537 1af5 2bb7 e940 6e37 eedf be37
000002a0: 50bf 0a37 1011 7737 29ef 7237 0594 e1b6
000002b0: 0a6f 3737 6528 6a37 093d 81b7 cbeb 2938
000002c0: 31ba 0b38 6a79 9d37 9e0a cdb5 c3f1 4c34
000002d0: 9e13 b3b7 5f14 4638 5cc5 1738 2d0d d037
000002e0: 5320 c636 f7c3 0035 3146 9237 b539 d436
000002f0: 593a 1437 c3eb 8139 54c1 bd37 ba4b 8035
00000300: 1f21 ba35 89db e6b4 bbec c7b4 d8c8 da35
00000310: 4517 3cb5 760f 01b5 ab52 d935 3960 72b5
00000320: ca57 3db4 713c 5034 079a 8735 0b4f 7d34
00000330: 28f7 3fb5 8277 0336 43bd 0c36 b875 0935
00000340: b0e4 dab4 4811 0fb4 48c3 cdb4 ef5f e635
00000350: e30e 0436 19a2 d634 37ce 7e33 9856 8f31
00000360: ed01 adb4 cdc1 f935 6b7a da35 7d39 1534
00000370: 7033 9734 bc37 15b4 8503 9735 611c 5634
00000380: 286f 2134 8061 a535 6829 a3b5 b403 22b5
00000390: 4387 cbb3 2f53 7f35 fa94 1034 1c1f 4934
000003a0: 0a28 adb4 7e24 7533 b5d7 9735 1529 16b5
000003b0: 147c 9a33 09a7 5f37 8c1c 7635 fb81 f332
000003c0: 7d84 c832 f367 83b4 c802 9fb4 9b72 0836
000003d0: 928d 31b6 beca 07b6 32b8 bd34 9128 bab4
000003e0: 00fa 4a34 94db 3035 de50 33b4 3587 5fb5
000003f0: fe1f 4035 af90 2d35 f4c8 5135 61a1 ba35

exp_avg_sq f4 [128, 48]
7.305401e-11 8.335038e-11 1.0297911e-10 5.1661505e-11 9.884177e-11 1.4489152e-10 4.1641354e-11 1.3853753e-10
1.3037299e-10 5.432564e-11 1.01950524e-10 1.3680296e-10 7.3934144e-11 8.760813e-11 1.156269e-10 5.857238e-11
1.305807e-10 1.6240981e-10 4.097111e-11 8.422753e-11 1.3420978e-10 3.1637016e-11 1.7820542e-10 1.8535987e-10
5.8521805e-11 9.3505564e-11 1.2264655e-10 4.762293e-11 1.62577e-10 1.9174612e-10 2.8719123e-11 1.2104112e-10
1.5560922e-10 5.013978e-11 1.9557768e-10 2.1884486e-10 2.6977516e-11 1.15954954e-10 1.5664463e-10 4.4266518e-11
1.8615809e-10 2.1289823e-10 3.024377e-11 1.9291878e-10 2.1597878e-10 5.307769e-08 2.1278886e-10 6.7153725e-15
2.6649205e-11 7.3811214e-11 1.01907274e-10 5.0602557e-11 5.8578996e-11 8.880803e-11 3.1286397e-11 4.5981646e-11
8.667413e-11 1.7346324e-11 6.6836287e-11 1.0435913e-10 3.6646963e-11 5.359037e-11 8.514035e-11 2.985098e-11
8.4779316e-11 1.0502336e-10 5.3206765e-11 4.5959174e-11 7.431676e-11 2.2794678e-11 6.6899666e-11 9.048723e-11
3.7989563e-11 4.8193408e-11 7.695422e-11 3.3857563e-11 6.518823e-11 9.24547e-11 4.953199e-11 7.336583e-11
8.215155e-11 5.7155232e-11 7.4902105e-11 1.0225251e-10 3.736775e-11 8.0938325e-11 8.6722615e-11 3.385959e-11
1.0425397e-10 1.15950555e-10 3.7664215e-11 1.1327436e-10 1.1598056e-10 4.052676e-08 1.5866161e-10 6.9519585e-14
7.323918e-13 7.581472e-13 8.457405e-13 4.5284588e-13 1.0134853e-12 1.1392498e-12 7.832691e-13 9.92007e-13
9.336219e-13 5.404587e-13 9.561037e-13 1.1439122e-12 5.3442564e-13 1.2735699e-12 1.2777904e-12 4.9573816e-13
1.0006071e-12 1.1994264e-12 7.467639e-13 7.7428076e-13 9.178967e-13 5.8720693e-13 1.0045562e-12 1.0628015e-12
4.809632e-13 6.8629076e-13 9.593888e-13 2.6870197e-13 9.282724e-13 1.0833021e-12 2.5207297e-13 8.358688e-13
1.1053042e-12 4.8073047e-13 7.759153e-13 1.0825195e-12 1.9679809e-13 1.0571998e-12 1.151409e-12 4.396191e-13
1.0782773e-12 1.1503321e-12 2.928525e-13 1.2979197e-12 1.3843373e-12 3.6928022e-10 1.98692e-12 1.7305449e-15
4.1349178e-11 1.614656e-10 1.8989099e-10 6.345882e-11 1.1270444e-10 1.716701e-10 5.8107148e-11 1.601686e-10
1.9060278e-10 8.994479e-11 1.1745466e-10 1.8011645e-10 9.456384e-11 1.7592454e-10 1.9730126e-10 8.8767785e-11
1.04626065e-10 1.6224827e-10 1.2990937e-10 8.79886e-11 1.322236e-10 8.283027e-11 1.3287872e-10 1.4332219e-10
8.945776e-11 8.117128e-11 1.3870152e-10 4.0309072e-11 1.5289507e-10 1.8503284e-10 7.8251496e-11 1.8977028e-10
1.8085239e-10 6.906459e-11 1.7326993e-10 1.7913834e-10 5.347768e-11 1.8371504e-10 1.9032423e-10 6.575933e-11
1.5739306e-10 1.5947733e-10 6.232501e-11 1.3476624e-10 1.6327323e-10 6.7132554e-08 2.5519176e-10 4.4994634e-13
2.882053e-13 5.8513985e-13 6.6516687e-13 2.1206211e-13 4.5535743e-13 6.7018244e-13 3.2840413e-13 5.0168095e-13
5.464103e-13 1.2830665e-13 3.9521674e-13 6.222493e-13 3.5857488e-13 4.6685285e-13 5.8166216e-13 1.5086451e-13
6.33004e-13 7.694398e-13 2.995911e-13 4.1976755e-13 5.6670814e-13 1.5071123e-13 6.3707774e-13 6.6668746e-13
2.4754192e-13 6.4325086e-13 5.282001e-13 1.6710074e-13 5.6819393e-13 6.5143236e-13 1.2686878e-13 6.1808463e-13
7.1615863e-13 2.244998e-13 6.142853e-13 7.136179e-13 1.181549e-13 5.834438e-13 7.1720353e-13 1.2602735e-13
6.913168e-13 7.073252e-13 1.490689e-13 8.1723956e-13 8.549603e-13 2.337489e-10 8.088462e-13 7.9432786e-16
4.5648977e-13 2.458718e-13 4.0432116e-13 3.5064828e-13 6.592347e-13 6.491288e-13 4.390545e-13 3.595957e-13
5.661812e-13 3.24272e-13 5.472588e-13 6.757946e-13 3.684828e-13 8.461398e-13 9.919188e-13 1.865768e-13
00000000: c0a5 a02e 184a b72e 1674 e22e af35 632e
00000010: f85a d92e 564f 1f2f ff23 372e d952 182f
00000020: bc58 0f2f 3ced 6e2e 0b31 e02e 9c6a 162f
00000030: 3995 a22e fea6 c02e 2844 fe2e 52cd 802e
00000040: 3393 0f2f 4c92 322f 5e31 342e e237 b92e
00000050: b290 132f 1d24 0b2e 5ef0 432f 2ace 4b2f
00000060: d9b0 802e f49e cd2e efd9 062f a772 512e
00000070: 5bc1 322f bcd3 522f b79d fc2d 0c16 052f
00000080: 1a18 2b2f 6084 5c2e 390a 572f 5a9f 702f
00000090: f74b ed2d d6fc fe2e 8b3b 2c2f abaf 422e
000000a0: d8ae 4c2f 8615 6a2f 7503 052e cf1d 542f
000000b0: 9f78 6d2f 8af7 6333 bdf6 692f 61f2 f127
000000c0: ad68 ea2d 0550 a22e b218 e02e 6a8d 5e2e
000000d0: 0bd1 802e 7a4a c32e 5a99 092e bb3a 4a2e
000000e0: 3399 be2e 7394 982d 7cf9 922e f87c e52e
000000f0: d02c 212e 65b1 6b2e c239 bb2e 3749 032e
00000100: 836e ba2e e5f2 e62e 7e01 6a2e 6e21 4a2e
00000110: 9e6c a32e 0d81 c82d 2a1d 932e c8fb c62e
00000120: 7214 272e f4f4 532e 6039 a92e 3ae8 142e
00000130: b659 8f2e 5e4f cb2e 10d8 592e 4a55 a12e
00000140: 36a7 b42e 125f 7b2e 23b6 a42e 0cdb e02e
00000150: 5958 242e 3afc b12e 7eb4 be2e 82ea 142e
00000160: c441 e52e 5cfa fe2e 23a6 252e cc17 f92e
00000170: 400b ff2e a50f 2e33 4673 2e2f 508b 9c29
00000180: 6426 4e2b 4366 552b 070e 6e2b f8ed fe2a
00000190: a8a2 8e2b cd55 a02b 7d78 5c2b d29c 8b2b
000001a0: 4665 832b 2720 182b 448f 862b c8fd a02b
000001b0: 6d6d 162b 313d b32b 40d5 b32b b389 0b2b
000001c0: acd2 8c2b e4cd a82b 0332 522b cff0 592b
000001d0: b72e 812b b848 252b f460 8d2b 7693 952b
000001e0: 0d61 072b 762c 412b a005 872b 0944 972a
000001f0: 8aa4 822b 1276 982b 8be7 8d2a b246 6b2b
00000200: c88e 9b2b 4850 072b 9766 5a2b e059 982b
00000210: 3093 5d2a a3c9 942b e20b a22b ca7b f72a
00000220: 09c1 972b 15e5 a12b 7edc a42a 7caa b62b
00000230: 02d4 c22b 9203 cb2f 2bd1 0b2c d665 f926
00000240: 09db 352e 8788 312f 90c9 502f 248c 8b2e
00000250: f6d6 f72e d6c0 3c2f d58e 7f2e 741b 302f
00000260: ea91 512f 6aca c52e 8c24 012f 460a 462f
00000270: b6f2 cf2e 5b6e 412f 5eef 582f d233 c32e
00000280: 3d13 e62e d464 322f 3dd6 0e2f 2e7d c12e
00000290: a261 112f 4c25 b62e 091a 122f 9c95 1d2f
000002a0: 3eb8 c42e 5e7f b22e 0281 182f fb47 312e
000002b0: 231c 282f 1d72 4b2f ad13 ac2e 96a7 502f
000002c0: 6cd9 462f e8df 972e 2683 3e2f f6f6 442f
000002d0: 8432 6b2e 30ff 492f 8243 512f 369b 902e
000002e0: 350e 2d2f e158 2f2f dd0d 892e 532d 142f
000002f0: 5485 332f 832a 9033 0c4b 8c2f 1a4c fd2a
00000300: c33e a22a c5b3 242b 533a 3b2b bec2 6e2a
00000310: f62b 002b bca3 3c2b 06e0 b82a ec35 0d2b
00000320: 03cd 192b e075 102a bc7c de2a ca25 2f2b
00000330: 16dc c92a 4b68 032b 2db9 232b bcdb 292a
00000340: bf2c 322b fb93 582b a1a7 a82a e14e ec2a
00000350: a083 1f2b 8eaf 292a 4a52 332b e5a7 3b2b
00000360: 8d5a 8b2a 1c0f 352b d4ac 142b 8223 3c2a
00000370: b0ee 1f2b a65c 372b 70d7 0e2a b1f9 2d2b
00000380: ab94 492b a9c3 7c2a ece7 2c2b 97dd 482b
00000390: d507 052a 8e39 242b f6df 492b e9e4 0d2a
000003a0: a096 422b 2718 472b 2fd6 272a 5108 662b
000003b0: 62a6 702b 3c81 802f 83ab 632b 0df3 6426
000003c0: 8e7d 002b dc69 8a2a d29c e32a be65 c52a
000003d0: de8e 392b a9b6 362b 6c2a f72a 346f ca2a
000003e0: a85d 1f2b 858c b62a 270a 1a2b 2238 3e2b
000003f0: f86f cf2a cc2a 6e2b a499 8b2b 1a11 522a

exp_avg f4 [128]
4.811411e-06 -4.843864e-06 -1.3611131e-08 1.6522627e-05 8.8909024e-07 7.6663844e-07 -5.8967125e-06 -1.7586375e-05
-1.3020532e-05 -1.9536888e-05 1.3315624e-05 1.3096771e-06 1.1535137e-05 -5.6030894e-06 -4.525631e-07 1.4454002e-06
2.38817e-06 -6.172542e-06 8.308369e-07 -1.6193855e-05 -2.9175223e-07 2.6733343e-05 -3.2764613e-06 -3.5762232e-06
1.6099507e-06 -1.6159526e-06 1.2713963e-06 4.7603694e-06 1.2098096e-06 -9.485708e-07 -1.0029374e-06 6.8246436e-06
3.5173027e-06 -7.041573e-06 -2.9932556e-07 -1.5814516e-05 2.8694435e-06 -5.431707e-07 3.5954058e-06 -9.834187e-07
-1.7413955e-05 -6.427927e-07 6.5188333e-06 1.5556621e-05 2.16115e-05 8.274297e-07 -1.1416836e-05 -9.2729795e-07
-2.891918e-06 8.523863e-07 2.0036866e-06 2.4941397e-07 1.0851762e-06 1.4787574e-05 -5.7780477e-07 7.5505795e-06
-2.1537346e-06 5.126743e-07 2.501463e-06 -7.6126395e-07 8.979441e-06 6.397356e-06 -2.3583958e-05 -6.7445644e-06
1.3577434e-06 -5.350562e-07 -2.2513494e-05 6.079702e-07 -3.0328998e-05 -1.7272287e-06 2.762188e-06 -5.832914e-06
-1.054182e-06 -2.790084e-07 1.0237536e-06 9.004227e-07 -9.4490515e-06 7.9725277e-07 2.702747e-06 -4.2256784e-06
-1.5780827e-06 3.2192895e-07 -1.39405865e-05 4.886889e-07 -1.8827883e-05 4.4519293e-08 1.8130962e-05 -4.736843e-06
2.9831048e-07 2.343268e-06 -6.27962e-06 5.9437552e-06 -2.5465097e-06 -1.7979689e-06 1.8396177e-05 7.635741e-06
1.5954963e-06 2.9169119e-06 3.780749e-06 -1.6408923e-05 -3.202031e-08 -1.3247633e-06 -1.3867917e-06 -9.218936e-07
-2.192406e-07 1.726093e-06 -1.9161e-06 -1.8038368e-07 -5.262075e-07 6.0528384e-07 7.8254125e-06 -2.162264e-06
2.742681e-06 1.6331182e-06 -1.0433333e-05 1.1048541e-05 -1.1805518e-05 -3.1801126e-06 -3.664866e-06 -2.5125377e-05
2.6089008e-06 1.3763253e-06 -9.284813e-06 3.6654255e-06 -1.0425414e-06 -2.406312e-06 2.3210052e-06 7.5077846e-06
00000000: b571 a136 7a88 a2b6 63d6 69b2 129a 8a37
00000010: d1a9 6e35 feca 4d35 60dc c5b6 7486 93b7
00000020: c272 5ab7 26e3 a3b7 2b66 5f37 2ac8 af35
00000030: 0987 4137 2c02 bcb6 cdf7 f2b4 93ff c135
00000040: 7344 2036 bb1d cfb6 ad06 5f35 0ad8 87b7
00000050: 1fa2 9cb4 6b41 e037 2de1 5bb6 0cff 6fb6
00000060: 7c15 d835 b5e3 d8b5 d8a4 aa35 43bb 9f36
00000070: be60 a235 4aa1 7eb5 ab9c 86b5 3eff e436
00000080: cd0a 6c36 a746 ecb6 feb2 a0b4 6aa9 84b7
00000090: aa90 4036 68ce 11b5 9a48 7136 02fe 83b5
000000a0: 2f14 92b7 618c 2cb5 5abc da36 977f 8237
000000b0: 584a b537 891c 5e35 f08a 3fb7 6eeb 78b5
000000c0: c612 42b6 8acf 6435 1377 0636 32e7 8534
000000d0: 5fa6 9135 2618 7837 711a 1bb5 fc5a fd36
000000e0: e188 10b6 b69e 0935 cfde 2736 a959 4cb5
000000f0: 68a6 1637 dfa8 d636 2ad6 c5b7 5e4f e2b6
00000100: b53b b635 c8a0 0fb5 5cdb bcb7 6533 2335
00000110: 076b feb7 20d3 e7b5 075e 3936 5ab8 c3b6
00000120: 6b7d 8db5 9fca 95b4 e867 8935 94b4 7135
00000130: 5e87 1eb7 cb02 5635 d760 3536 4dca 8db6
00000140: 82ce d3b5 94d5 ac34 5de2 69b7 722e 0335
00000150: 92f0 9db7 7b35 3f33 f217 9837 2cf1 9eb6
00000160: 7b27 a034 0a41 1d36 86b5 d2b6 7870 c736
00000170: b4e4 2ab6 be51 f1b5 7d51 9a37 421b 0037
00000180: d624 d635 2ac0 4336 c6b8 7d36 e5a5 89b7
00000190: b486 09b3 85ce b1b5 cd21 bab5 0c78 77b5
000001a0: 6668 6bb4 1bac e735 5996 00b6 7daf 41b4
000001b0: b440 0db5 ca7a 2235 e449 0337 6a1b 11b6
000001c0: e70e 3836 8431 db35 d30a 2fb7 1f5d 3937
000001d0: 5010 46b7 eb69 55b6 ebf1 75b6 56c4 d2b7
000001e0: 9314 2f36 2dba b835 f8c5 1bb7 88fb 7536
000001f0: 73ed 8bb5 207c 21b6 91c2 1b36 61eb fb36
