results/ppo/MlAgent/MlAgent-10752.pt (torch, 496223 bytes, 36 tensors)

network_body._body_endoder.seq_layers.0.weight f4 [128, 24]
0	0xbe4d4f3d	-0.20049758
1	0x3c91cae1	0.017796936
2	0x3df043a2	0.1173165
3	0x3d2b7853	0.041862797
4	0x3cdf2ab0	0.027242035
5	0xbcbdaea3	-0.023154562
6	0xbedc7e5e	-0.4306516
7	0x3dfecc01	0.124412544
8	0xbcb3bf28	-0.021941736
9	0x3c4a63c6	0.012352889
10	0x3e1ba1dd	0.15198465
11	0xbddd8f0e	-0.10818301
12	0xbdae2f58	-0.08505124
13	0xbdecd92d	-0.115648605
14	0xbd886554	-0.06659952
15	0x3eace6b3	0.3376976
16	0xbdc68b81	-0.09694577
17	0x3e8ddf1a	0.27709275
18	0x3d8cfe83	0.06884482
19	0x3e466d03	0.19377522
20	0x3dd00618	0.10157412
21	0xbe7c3eca	-0.24633327
22	0x3e1ec685	0.15505417
23	0x3e3444d1	0.17604376
24	0xbe364d17	-0.17802845
25	0x3e0a44d0	0.13502812
26	0xbe45c2ba	-0.19312564
27	0xbe7a15c7	-0.2442237
28	0xbe672755	-0.22573598
29	0x3d8c3ef4	0.06847945
30	0xbd567741	-0.052359823
31	0x3e384ee4	0.17998844
32	0xbdd99b37	-0.10625308
33	0x3d6eacd0	0.058270276
34	0xbce84514	-0.028353252
35	0xbdb7687f	-0.08955478
36	0x3e397240	0.18109989
37	0xbd084a7e	-0.033274166
38	0x3ce7de6a	0.028304297
39	0xbc48b099	-0.012249135
40	0xbde1a8e6	-0.11018543
41	0x3dc73320	0.09726548
42	0xbe7976a3	-0.24361663
43	0x3c768091	0.015045301
44	0x3e69eefb	0.2284507
45	0x3e42c312	0.19019726
46	0x3f046be7	0.51727146
47	0x3d886d18	0.06661433
48	0x3e438295	0.19092782
49	0x3e492f5c	0.19646972
50	0xbec687df	-0.38775536
51	0xbc451694	-0.012029309
52	0x3e29c722	0.1657987
53	0x3d96834a	0.0734926
54	0xbe66d332	-0.22541502
55	0x3b3eb41e	0.0029099057
56	0xbe3e741c	-0.1859898
57	0xbe210a1a	-0.1572651
58	0x3e16f4b9	0.14741792
59	0x3e58a942	0.21158317
60	0x3e888ead	0.26671353
61	0x3d5f3617	0.054494943
62	0x3e1a5f63	0.1507545
63	0x3e66f420	0.22554064
64	0x3e0d7a49	0.1381618
65	0xbec142d9	-0.37746313
66	0x3e5f75d8	0.21822298
67	0x3e2638c2	0.16232589
68	0xbe8b58de	-0.27216238
69	0xbd3bd3c8	-0.045856267
70	0x3d3b9023	0.045791756
71	0x3e89a827	0.26886103
72	0xbd9c92af	-0.07645165
73	0x3d45f1bc	0.04832624
74	0x3de8ed45	0.113733806
75	0xbe9b92b4	-0.30385363
76	0xbdd442c2	-0.103642955
77	0x3e03ad37	0.12859045
78	0xbea1984e	-0.31561512
79	0xbe54daf9	-0.20786656
80	0x3c5a47a5	0.013322745
81	0x3d0657f8	0.032798737
82	0x3e327dbc	0.17430776
83	0xbe8bf206	-0.27333087
84	0x3ea5b60f	0.32365462
85	0xbe6f1dfa	-0.23351279
86	0xbd86f68c	-0.06589994
87	0x3c601cf9	0.013678783
88	0x3e409dcb	0.18810193
89	0xbe1c9648	-0.15291703
90	0xbf01a13a	-0.5063664
91	0xbe27e02f	-0.16394113
92	0xbeebb8a4	-0.46039307
93	0xbdc7f5f0	-0.09763706
94	0xbc335ae1	-0.01094696
95	0xbdf16a8c	-0.117879
96	0x3cb8e44f	0.022569804
97	0x3d691430	0.056904018
98	0x3e23be56	0.15990576
99	0xbe772e90	-0.24138856
100	0xbe7d4be7	-0.24735986
101	0x3e1d60fa	0.15369025
102	0xbd65cce3	-0.0561036
103	0xbe38c2fa	-0.18043128
104	0xbc63e40a	-0.013909349
105	0xbc211ddf	-0.009833782
106	0xbe3bc72d	-0.18337698
107	0x3ea521a7	0.32252237
108	0x3de3d0e8	0.1112383
109	0x3e14bcae	0.145251
110	0xbcdb0c02	-0.026739124
111	0xbdebb32b	-0.11508783
112	0xbdbe0c33	-0.092796706
113	0xbf041eab	-0.51609296
114	0xbe946935	-0.28986517
115	0x3e4118a9	0.18857063
116	0xbe7b290d	-0.24527378
117	0x3e4c1705	0.19930656
118	0xbe9af300	-0.3026352
119	0x3d73cdc7	0.059522416
120	0x3dae55a4	0.085124284
121	0xbc9a3e38	-0.018828496
122	0x3dcb347f	0.09922122
123	0x3e7e4d53	0.24834184
124	0x3df0f0bf	0.11764669
125	0xbe9ba053	-0.30395755
126	0xbd8e719b	-0.06955262
127	0xbe7e19e1	-0.2481456
128	0xbdf2fc00	-0.118644714
129	0x3d934f4d	0.0719286
130	0xbe4478f9	-0.19186772
131	0x3e12b0b3	0.14325218
132	0x3e58f580	0.21187401
133	0xbca09558	-0.019602463
134	0xbf20d0d5	-0.6281865
135	0xbdd38d07	-0.10329633
136	0x3ce85e40	0.028365254
137	0x3d8b61e4	0.068057805
138	0x3db69287	0.089146666
139	0x3e19c0c6	0.15014943
140	0xbd40663d	-0.046972502
141	0x3db85b19	0.090017505
142	0x3e785a5f	0.24253224
143	0xbe5422f3	-0.20716457
144	0x3cad2e2e	0.021140184
145	0xbd8bc94e	-0.06825505
146	0xbdc158d1	-0.094407685
147	0xbd633d58	-0.055478424
148	0xbccb4271	-0.024811955
149	0x3de6dcf0	0.11272609
150	0xbe2043a1	-0.15650798
151	0x3e868f64	0.26281273
152	0xbf14387c	-0.5789869
153	0xbd8ac249	-0.06775338
154	0x3dac7102	0.08419992
155	0x3e9ec2ce	0.31008
156	0x3f084040	0.5322304
157	0x3e8b93a0	0.27261066
158	0x3e86de6b	0.26341566
159	0xbe48f0fe	-0.19623181
160	0x3eaeaa85	0.3411447
161	0xbede96f9	-0.43474558
162	0xbeaa7fed	-0.33300725
163	0xbf0b513d	-0.54420835
164	0xbc48d7d4	-0.012258489
165	0xbdf58014	-0.119873196
166	0x3d4a702e	0.04942339
167	0xbe9df904	-0.30854046
168	0x3dfa6403	0.12226107
169	0xbe032702	-0.12807849
170	0xbd422af9	-0.047404263
171	0xbe506333	-0.20350341
172	0x3ce33ab8	0.02773796
173	0x3d9ac508	0.07557112
174	0x3d72716c	0.0591902
175	0xbe049208	-0.12946332
176	0x3f08bc4f	0.53412336
177	0x3d55fca2	0.052242883
178	0xbe59fa2e	-0.21286842
179	0xbf0f855b	-0.5606286
180	0xbd133c8e	-0.03594642
181	0xbeed985c	-0.46405303
182	0xbd81f0fa	-0.06344791
183	0x3dfce30d	0.12347994
184	0x3e638fd4	0.22222835
185	0xbe85dd13	-0.2614523
186	0x3e200caa	0.15629831
187	0x3f076459	0.52887493
188	0xbe36eac8	-0.17863
189	0xbe804905	-0.2505571
190	0x3ecd74be	0.4012813
191	0xbe21560f	-0.15755485
192	0x3e8e9097	0.27844688
193	0xbe0f03d4	-0.13966304
194	0xbe97298c	-0.29523885
195	0x3ea4b66e	0.32170433
196	0x3ddbd0cf	0.107331865
197	0x3d6e4647	0.05817249
198	0x3bf512c5	0.007479044
199	0xbd96dd04	-0.07366374
200	0xbdd14d53	-0.102198265
201	0xbe85bec6	-0.2612211
202	0xbe0e7395	-0.13911279
203	0x3e1ece21	0.1550832
204	0xbe5db7f1	-0.216522
205	0x3d2a85d7	0.041631546
206	0x3d4aefe3	0.04954518
207	0x3e0d62b2	0.1380718
208	0xbe0becf4	-0.13664609
209	0xbebd9977	-0.37031147
210	0xbe7ad423	-0.24494986
211	0x3debbd55	0.115107216
212	0xbe70cdcc	-0.23516005
213	0xbdcfe268	-0.101506054
214	0x3df0a341	0.11749888
215	0x3e227f6c	0.1586892
216	0x3e924728	0.28569913
217	0xbdf25dbc	-0.11834285
218	0xbd65bb0b	-0.05608658
219	0x3ba4447e	0.0050130477
220	0xbde07e2a	-0.10961564
221	0x3e37997a	0.1792964
222	0xbd7752d6	-0.060381733
223	0xbe9b3eaa	-0.30321246
224	0xbd315521	-0.043294076
225	0x3e66f97f	0.22556113
226	0xbe88bc35	-0.2670609
227	0x3e978377	0.29592487
228	0xbe62a846	-0.22134504
229	0xba1e7645	-0.0006044845
230	0xbcd170ab	-0.02556642
231	0xbec58a4d	-0.38582078
232	0xbe2b9b6c	-0.16758507
233	0x3e1ce5b3	0.15321998
234	0xbe9a5d02	-0.30149084
235	0x3e0f6f69	0.14007343
236	0x3e8995c3	0.26872072
237	0xbe1d1b5a	-0.15342465
238	0x3d17295c	0.036904678
239	0x3dc21ba9	0.09477932
240	0xbe81c2b3	-0.25343856
241	0x3e24a05b	0.16076796
242	0xbbc663b6	-0.006054367
243	0xbdd1f409	-0.10251624
244	0xbdbbb901	-0.09166146
245	0x3dfbc65e	0.12293695
246	0x3e8b51fc	0.27210987
247	0x3e16885b	0.14700453
248	0xbe2453f2	-0.16047648
249	0xbd87950a	-0.06620224
250	0xbe4a5d07	-0.1976205
251	0xbe7fa320	-0.24964571
252	0xbe3adb77	-0.18247782
253	0xbca8b4ee	-0.020594086
254	0x3d261ff9	0.040557835
255	0x3e9bd322	0.3043452

network_body._body_endoder.seq_layers.0.bias f4 [128]
0	0x3ba12600	0.00491786
1	0x3a11601b	0.0005545632
2	0x3ab528d4	0.0013821372
3	0x3b838a8a	0.004014318
4	0x39f3c902	0.00046498334
5	0x3ad37806	0.0016133792
6	0xbaa4c8eb	-0.0012572085
7	0x3a612d4b	0.0008589818
8	0xbb196600	-0.0023406744
9	0xbb978ae9	-0.0046247137
10	0xba0ab5b0	-0.0005291356
11	0xb6f113ff	-7.1846875e-06
12	0x3a5ef2b9	0.00085047964
13	0xb7995dc5	-1.8282686e-05
14	0xb9c89b82	-0.00038262835
15	0x3a9d3288	0.0011993209
16	0xba7806c3	-0.0009461457
17	0xb9c96cc3	-0.0003841874
18	0x3a8135f2	0.0009857996
19	0xba46470f	-0.0007563689
20	0xbae33a4e	-0.0017336102
21	0xba2f9737	-0.0006698253
22	0x3ab7e8c9	0.0014031167
23	0xba71aedd	-0.0009219477
24	0x3a520f45	0.00080131396
25	0xbaae6233	-0.0013304412
26	0xbb7d61ff	-0.0038663147
27	0x3996a9f0	0.00028736843
28	0x39f20da0	0.00046167988
29	0xba102052	-0.000549798
30	0xbaca9049	-0.0015454377
31	0xb84f8f7b	-4.9486272e-05
32	0x3a9bdc36	0.001189119
33	0x3ac5fa1a	0.0015104443
34	0xba9b68bd	-0.0011856776
35	0x39457cc8	0.00018833869
36	0x3abe7428	0.0014530467
37	0xb8456778	-4.7064823e-05
38	0x39470c6a	0.00018982743
39	0x39f1b247	0.0004609993
40	0x3aebe9f7	0.0017998804
41	0xba2a6bb9	-0.0006501037
42	0xba7714bc	-0.0009425392
43	0x39b8cb09	0.00035246488
44	0xb98dbce5	-0.00027034353
45	0xb9f0f134	-0.00045956078
46	0x390a6baf	0.00013200821
47	0xb72db5a5	-1.0353896e-05
48	0xb995777d	-0.0002850852
49	0x398b52ea	0.00026573922
50	0x3b2da4b3	0.0026495873
51	0xba8c4645	-0.0010702094
52	0x3aed4bc7	0.0018104248
53	0x3a744cae	0.00093192875
54	0xbb322f6c	-0.002718891
55	0xbb1421d0	-0.0022603162
56	0xb9cd33a0	-0.0003913911
57	0xb7c276f9	-2.3182003e-05
58	0xbb6b6d38	-0.0035923254
59	0xba6ed948	-0.0009111357
60	0xba535407	-0.0008061532
61	0x37d214e1	2.5043673e-05
62	0x3a877e98	0.001033741
63	0xbb708834	-0.0036702277
64	0x39689b8b	0.00022183188
65	0xba43ea0c	-0.00074735354
66	0xbaaf0692	-0.0013353399
67	0x389a44f9	7.3561394e-05
68	0x3a5c0528	0.00083931023
69	0x3ac748d9	0.0015204205
70	0x3b9b213e	0.0047341874
71	0x3a137f09	0.00056265347
72	0x3a862cfd	0.0010236796
73	0x3a057833	0.00050914584
74	0xb9ad03b1	-0.00032999882
75	0x397af53a	0.00023933212
76	0xb8cfd8cc	-9.910911e-05
77	0xba5ae3ea	-0.0008350002
78	0x3970f4b1	0.00022979338
79	0xba38bb4a	-0.0007046951
80	0xba23e872	-0.00062525936
81	0xbacc1c9b	-0.001557249
82	0x3a8ecabe	0.0010894162
83	0xba947dcc	-0.0011328994
84	0xbb314ce0	-0.0027053878
85	0xba6dc734	-0.0009070516
86	0x3b1390c5	0.002251671
87	0x3a9228e8	0.0011151107
88	0xbb14c74c	-0.0022701798
89	0x3aa6cdb7	0.0012726103
90	0xba7248f0	-0.0009242436
91	0x3ae7d27c	0.0017686631
92	0xb9cc0219	-0.00038911475
93	0xba21ca34	-0.0006171793
94	0x3a0ba03c	0.0005326306
95	0x368ee53c	4.258616e-06
96	0x38332468	4.271083e-05
97	0x39cfac65	0.0003961056
98	0x39e40a60	0.0004349528
99	0xbaafaf57	-0.0013403696
100	0xb91eb25c	-0.00015134498
101	0xbb6f9181	-0.0036555233
102	0x39812f8e	0.00024640228
103	0x3a170444	0.00057608285
104	0x398d60db	0.0002696578
105	0x3ac2479c	0.0014822367
106	0x3b0010f8	0.0019541364
107	0xbb168007	-0.0022964494
108	0xbac89be8	-0.0015305253
109	0xbac19b63	-0.001477104
110	0xbb8fbf2e	-0.004386804
111	0x3af61772	0.0018775298
112	0x3b812f1f	0.003942385
113	0x3b3aabc6	0.0028483733
114	0x3a35f2d3	0.00069407857
115	0xba961eee	-0.001145331
116	0xba8cfe57	-0.0010756952
117	0xba91932e	-0.0011106485
118	0xba773b79	-0.00094311644
119	0xb8944093	-7.069218e-05
120	0xb99d6e56	-0.0003002758
121	0x3a9ab24b	0.0011802403
122	0xbb4c2327	-0.0031148882
123	0x39902913	0.00027496423
124	0x39a54f3d	0.0003153029
125	0xba4c87a6	-0.00078021956
126	0x39ecf38a	0.00045194878
127	0x3afcc8dc	0.0019285935

network_body._body_endoder.seq_layers.2.weight f4 [128, 128]
0	0x3b858f5a	0.0040759267
1	0xbd2321c0	-0.03982711
2	0x3d1341d3	0.035951447
3	0xbd80faa2	-0.062978044
4	0xbdfd1f36	-0.12359469
5	0x3cc7f0bc	0.024406783
6	0xbc8af50f	-0.016962556
7	0xbc5cdc18	-0.013480209
8	0x3d68e9a7	0.056863453
9	0x3d451e60	0.04812467
10	0x3c517d51	0.012786225
11	0xbe91090b	-0.28327212
12	0x3d9bda5d	0.07610009
13	0x3dc21772	0.09477128
14	0x3ac2aa64	0.0014851806
15	0xbdba21eb	-0.090885006
16	0xbbc5d76d	-0.0060376436
17	0x3d86d9ab	0.065844856
18	0xbdb1794d	-0.086657144
19	0xbdad45ca	-0.08460577
20	0x3db39aa1	0.087697275
21	0x3d9612e2	0.0732782
22	0xbc05a697	-0.008157394
23	0xbe2b4ab9	-0.16727723
24	0xbe06a54d	-0.13148995
25	0x3d034fbd	0.032058466
26	0xbdd8036b	-0.10547527
27	0xbae17761	-0.0017201715
28	0x3d5dd0b3	0.05415411
29	0xbd9c3e4e	-0.07629071
30	0x3dc096c7	0.094037585
31	0xbdb0d6f6	-0.086347505
32	0x3c935682	0.017985586
33	0xbd8ceace	-0.06880723
34	0xbb83c95d	-0.004021807
35	0x3cb1acf7	0.021688921
36	0xbe413f89	-0.18871893
37	0x3bb10d82	0.0054032216
38	0x3b4e489d	0.0031476386
39	0x3e04b424	0.12959343
40	0xbdde75cc	-0.10862312
41	0x3d5c81df	0.053834792
42	0x3ca9e988	0.02074124
43	0x3d96c4fe	0.07361792
44	0x3cc1d581	0.023661377
45	0xbda8e1b9	-0.08246178
46	0xbde0a5f3	-0.10969152
47	0xbd087ad4	-0.033320263
48	0xbd9876d9	-0.074445434
49	0xbdb9df2a	-0.09075768
50	0x3d7b6cef	0.061383184
51	0xbd0febcf	-0.035136994
52	0xbdced596	-0.10099332
53	0xbdb1782f	-0.08665501
54	0xbd9f6894	-0.077836186
55	0x3e1b2c0e	0.15153524
56	0x3ba4e7bf	0.005032509
57	0x3e4861c8	0.1956855
58	0x3d83cbe0	0.064353704
59	0x3dc15b1b	0.09441205
60	0xbda0e654	-0.078564316
61	0xbd246617	-0.040136423
62	0xbd1a1665	-0.037619013
63	0xbd64109c	-0.055679902
64	0xbdd94632	-0.10609092
65	0xbd3b6bab	-0.045756977
66	0x3de8dea9	0.11370594
67	0xbe1cb31c	-0.153027
68	0xbe510a98	-0.20414197
69	0xbd2836f0	-0.041068017
70	0xbdc16075	-0.09442226
71	0x3d9f4494	0.07776752
72	0xbc2afe27	-0.010436571
73	0x3c568039	0.013092094
74	0x3d6110fb	0.054947834
75	0x3cc1e736	0.02366982
76	0xbd3feb59	-0.046855304
77	0x3d00c10d	0.031434108
78	0xbe1ad272	-0.15119341
79	0x3ea43f26	0.32079428
80	0xbc9e541d	-0.019327218
81	0x3d489b2a	0.0489761
82	0x3d835d47	0.064142756
83	0x3c933d59	0.017973589
84	0x3cb1523f	0.021645663
85	0xbd00ebdb	-0.03147493
86	0x3d87d30e	0.06632052
87	0xbd91929a	-0.0710804
88	0x3d69dd3d	0.057095755
89	0x3db8b553	0.0901896
90	0x3d32ab1c	0.043620214
91	0x3bd68c81	0.006547511
92	0xbd220350	-0.03955394
93	0x3cdfff82	0.027343515
94	0xbc276977	-0.010218016
95	0x3d5c3266	0.053759
96	0x3dc1f3f5	0.09470359
97	0x3e139d15	0.14415391
98	0xbe16d371	-0.14729096
99	0xbd3d8135	-0.0462658
100	0x3cd7abe9	0.02632709
101	0x3d43604d	0.04769926
102	0xbd721462	-0.05910147
103	0xbda721d5	-0.0816075
104	0xbdc7bb3d	-0.0975251
105	0xbe082cfd	-0.13298412
106	0xbe127984	-0.14304167
107	0x3dbf8695	0.09351841
108	0x3d725c3c	0.059169993
109	0xbd805d00	-0.06267738
110	0xbdaddf79	-0.0848989
111	0xbbef850d	-0.007309562
112	0xbd541a7c	-0.05178307
113	0x3d32da5e	0.043665282
114	0xbda455cc	-0.08024177
115	0xbd60b325	-0.054858346
116	0xbdc4ebd8	-0.09615296
117	0x3dc57b91	0.09642709
118	0xbd887d47	-0.0666452
119	0xbe0058e0	-0.12533903
120	0xbdb17895	-0.08665577
121	0x3d0116cd	0.031515885
122	0x3cc238a1	0.023708643
123	0x3e000a9c	0.12504047
124	0x3e063699	0.13106765
125	0x3d1bcc8e	0.038036875
126	0xbc44e976	-0.012018552
127	0xbcdbcd77	-0.026831372
128	0x3d9aa81f	0.07551598
129	0xbce568b6	-0.028004032
130	0x3e20a655	0.1568845
131	0xbd2b7b80	-0.041865826
132	0x3bd3bc12	0.0064616287
133	0x3dfe9451	0.12430633
134	0xbccad85a	-0.024761368
135	0x3d274aa9	0.040842686
136	0xbd7606a0	-0.06006491
137	0x3cccc4be	0.024996158
138	0xbe16b30d	-0.1471674
139	0xbe303951	-0.17209364
140	0x3ca03231	0.019555183
141	0xbdf772bc	-0.12082431
142	0xbc988386	-0.018617403
143	0x3d898a9c	0.06715891
144	0xbdd36cf3	-0.10323515
145	0x3cfbffd6	0.03076164
146	0xbdcc5669	-0.09977419
147	0x3d238061	0.039917354
148	0xbd224f5a	-0.039626457
149	0x3bff2fe7	0.007787693
150	0xbce6cf07	-0.02817489
151	0xbdc32c35	-0.09529916
152	0xbc19085d	-0.009340373
153	0xbca5a3f3	-0.020219779
154	0xbd3d05db	-0.046148162
155	0x3d83e727	0.06440573
156	0x3e187342	0.14887717
157	0x3c930eb5	0.017951349
158	0xbe141f87	-0.14465152
159	0xbc749df6	-0.014930239
160	0xbcd7bed2	-0.026336107
161	0xbd0ef162	-0.03489817
162	0xbe230875	-0.15921195
163	0x3cfa678d	0.030566955
164	0xbde27d6a	-0.11059077
165	0xbd676306	-0.05649092
166	0xbcccae10	-0.024985343
167	0xbe4b552d	-0.1985671
168	0x3bb095e8	0.005388964
169	0xbe187c13	-0.1489108
170	0x3da0fcfb	0.07860752
171	0x3bae2e88	0.0053156056
172	0x3cda5796	0.026653092
173	0xbe4e32e8	-0.20136607
174	0xbdc1aba5	-0.09456567
175	0xbdadc790	-0.08485329
176	0x3db4266d	0.08796392
177	0xbe4d090b	-0.20022981
178	0x3dc11c91	0.09429277
179	0x3dcc5a70	0.09978187
180	0x3d8dc4d2	0.06922306
181	0xbc51a8f0	-0.0127966255
182	0xbd07bfc5	-0.03314187
183	0x3d30b5ac	0.043142006
184	0xbdb32b5e	-0.08748506
185	0xbdc5aa4f	-0.096516244
186	0xbddc5f3e	-0.107603535
187	0x3e35e898	0.17764509
188	0x3c84e836	0.016224008
189	0x3c445425	0.011982952
190	0x3d0c16c5	0.034201402
191	0xbd9dd49c	-0.07706568
192	0xbdc21508	-0.09476668
193	0x3b5a1f11	0.0033282677
194	0x3ca31937	0.019909484
195	0xbd8a4edc	-0.067533225
196	0xbdd5226c	-0.10406956
197	0xbd6c7345	-0.057727117
198	0xbd151a5f	-0.036402103
199	0x3e0bb093	0.13641576
200	0xbc9a0779	-0.018802391
201	0x3e3b71e9	0.18305172
202	0xbdee197a	-0.11625953
203	0x3d87ad1a	0.066248134
204	0x3e12f0d6	0.14349684
205	0x3d74f2f6	0.059802018
206	0xbdf2ec93	-0.11861529
207	0xbdb59c58	-0.08867711
208	0x3da0b1d3	0.07846417
209	0x3d10f106	0.035386108
210	0xbe607206	-0.21918496
211	0xbbee5b08	-0.0072740354
212	0xbdde1347	-0.108435206
213	0xbd65b118	-0.056077093
214	0xbaa9ec3d	-0.0012964081
215	0xbe10c2df	-0.14136837
216	0x3d9ec490	0.07752335
217	0xbd9876cf	-0.07444536
218	0x3c27f860	0.010252088
219	0xbde32103	-0.11090281
220	0x3d7999ee	0.060937814
221	0xbd5e4838	-0.054268092
222	0xbceb64ae	-0.028734531
223	0xbc6515ac	-0.013982218
224	0xbe125bfa	-0.14292899
225	0xbdd78a53	-0.1052443
226	0xbdba3500	-0.0909214
227	0x3e1eb988	0.15500462
228	0xbdc1719f	-0.094455
229	0xbd256873	-0.040382814
230	0x3c3208c3	0.010866347
231	0xbe0efe8e	-0.13964292
232	0x3c904e5a	0.017615486
233	0xbdf57da3	-0.11986854
234	0x3e43014d	0.19043465
235	0xbdc310eb	-0.09524711
236	0x3c8f897f	0.017521618
237	0xbd34e4ee	-0.044163637
238	0xbdb46ecb	-0.088101946
239	0xbd292b6b	-0.041301172
240	0x3d311f20	0.043242574
241	0xbb7bd6fe	-0.0038427706
242	0xbd67e66e	-0.05661624
243	0xbd488167	-0.048951533
244	0xbde27d1d	-0.1105902
245	0x3e359ff2	0.17736796
246	0x3dde2d94	0.10848537
247	0x3d1bf34f	0.038073834
248	0x3dc517d9	0.09623689
249	0xbca786ef	-0.020450084
250	0x3e4cb623	0.19991355
251	0x3e4b0f79	0.19830121
252	0xbc9d29a5	-0.019184897
253	0x3d1cc22a	0.038271107
254	0x3ca6295e	0.020283397
255	0xbd11afdd	-0.035568107

network_body._body_endoder.seq_layers.2.bias f4 [128]
0	0x38d2a553	0.00010044374
1	0xba0c8cc3	-0.00053615513
2	0xb9d0aa8d	-0.00039799922
3	0x38666b2e	5.4936092e-05
4	0xbaa0316a	-0.0012221758
5	0xba442397	-0.000748211
6	0x3a3701df	0.0006981175
7	0xba691626	-0.0008891545
8	0xba1b4944	-0.0005923698
9	0x39abdaeb	0.00032778768
10	0xba33b92b	-0.00068559
11	0xba26adbe	-0.0006358287
12	0x3a235367	0.00062303845
13	0xbb1b452d	-0.0023692355
14	0xba77afa7	-0.00094484765
15	0x3b0f996a	0.002191151
16	0xba7e2e75	-0.00096962537
17	0x38bab8a5	8.903564e-05
18	0xbb841585	-0.0040308856
19	0xbb3a6a2b	-0.0028444629
20	0xb6b5d0f3	-5.4185452e-06
21	0x39424df7	0.00018530326
22	0xbaee0f59	-0.0018162533
23	0xba232e5c	-0.00062248646
24	0xb7527998	-1.2545286e-05
25	0xba873eb7	-0.0010318373
26	0x3a48bb44	0.0007657299
27	0x3a3107d6	0.0006753182
28	0xbb5ae1c2	-0.0033398722
29	0xba2f7b42	-0.0006694087
30	0x3a957353	0.0011402167
31	0xbb2bb34c	-0.0026199399
32	0xba7445aa	-0.0009318242
33	0xba6d961d	-0.0009063201
34	0xb9e1b275	-0.00043048305
35	0xba1fec5a	-0.0006100588
36	0x3b060465	0.0020449397
37	0xb89e3d4d	-7.545445e-05
38	0x3a38cafc	0.000704929
39	0x37b2c34b	2.1310194e-05
40	0x3ace06bb	0.0015718559
41	0xbaf64ddc	-0.0018791514
42	0x3a49b4cd	0.0007694483
43	0x3a303bbc	0.00067227683
44	0xba821590	-0.0009924639
45	0x3afdc047	0.0019359671
46	0xba4c7db3	-0.0007800713
47	0xb90933f3	-0.0001308469
48	0xba767114	-0.0009401005
49	0xbadc8bbd	-0.0016826313
50	0xb93ffd9e	-0.00018309659
51	0xba06ef39	-0.0005147341
52	0xb9983dd2	-0.0002903776
53	0x3aab0c0b	0.0013049854
54	0x3a0895f2	0.0005210332
55	0x38c232ff	9.2601396e-05
56	0xb96e5dca	-0.00022732388
57	0x39a55e8c	0.00031541695
58	0x3b3c42b2	0.0028726277
59	0xb9e9f2f3	-0.00044622234
60	0x3b0a5790	0.002110932
61	0xbab2b270	-0.0013633501
62	0x393f7bae	0.00018261254
63	0xba1a22f3	-0.00058798416
64	0xb9839f8c	-0.0002510514
65	0x3a1d17ce	0.0005992622
66	0x3acc24c1	0.0015574918
67	0x3b1c56b2	0.0023855385
68	0x3a17e687	0.0005794544
69	0xb9dbaa4f	-0.00041897825
70	0xba03b61c	-0.000502439
71	0x3aa00b8b	0.0012210471
72	0x39984864	0.00029045634
73	0xba4ed80b	-0.0007890469
74	0xba36cdb8	-0.00069734035
75	0x39a629e1	0.0003169319
76	0x3b505da9	0.0031794107
77	0x3a343b20	0.00068752654
78	0x3a0f2023	0.0005459806
79	0x3a22b02f	0.0006206063
80	0x3a8f6321	0.0010939577
81	0xb8ea2bef	-0.00011166173
82	0xba221d20	-0.00061841495
83	0x3a08e18d	0.0005221598
84	0x3a147234	0.00056627695
85	0xbaab0f58	-0.0013050837
86	0xb9ce557c	-0.00039355073
87	0xba94958e	-0.0011336075
88	0x39705e42	0.00022923297
89	0x3ada994d	0.0016677767
90	0x39810498	0.0002460822
91	0x3abbacae	0.001431843
92	0x3ab718f1	0.0013969225
93	0x3a5c591c	0.00084056123
94	0xbb8ccb3f	-0.0042966898
95	0x3888e848	6.528251e-05
96	0xbabd4697	-0.0014440593
97	0xb9963891	-0.00028652375
98	0x3971aac1	0.00023047162
99	0x3a7423df	0.00093132065
100	0x3a3d0a3e	0.0007211304
101	0xba40307d	-0.0007331444
102	0xb8af2d4a	-8.353086e-05
103	0x39185887	0.00014528829
104	0xbac8e0c6	-0.0015325777
105	0xba3f89b8	-0.00073065935
106	0xb9d28099	-0.00040150134
107	0x3af2b1b2	0.0018516092
108	0x3a1a93db	0.0005896666
109	0xba403ee6	-0.00073335913
110	0x3aa5f731	0.001266217
111	0x3a995fb9	0.0011701501
112	0xba46b7a3	-0.00075804646
113	0x39d4f725	0.00040619928
114	0x3a31ed86	0.0006787408
115	0xba4dd2d9	-0.0007851548
116	0x3a78cdec	0.0009491134
117	0xba284801	-0.0006419421
118	0x39960418	0.0002861328
119	0xba43c493	-0.00074679515
120	0xba520d26	-0.00080128235
121	0x3a155bf2	0.00056976
122	0x3b32d1c2	0.002728567
123	0x3adf8ebe	0.001705609
124	0x39b1871c	0.00033860735
125	0xba17086e	-0.0005761449
126	0x3b2562cb	0.0025235887
127	0xb9cdc90f	-0.00039250447

action_model._continuous_distribution.log_sigma f4 [1, 3]
0	0x3a639878	0.00086820824
1	0xbb0af54f	-0.0021203344
2	0xba55d0cb	-0.0008156418

action_model._continuous_distribution.mu.weight f4 [3, 128]
0	0x3c3b7ffe	0.01144409
1	0xbd0f8efa	-0.035048462
2	0xbc8d0a0e	-0.017216709
3	0xbc65858e	-0.014008893
4	0xbd1a2810	-0.037635863
5	0x3beccf07	0.007226828
6	0x3c3b0132	0.011413859
7	0xbc2771c8	-0.010219999
8	0x3c255cff	0.010092973
9	0x3b9f4c98	0.0048614256
10	0xbc30eca0	-0.010798603
11	0xbcb027cc	-0.021503352
12	0x3be1e071	0.0068932106
13	0xbccd6505	-0.025072584
14	0xbd08c68f	-0.033392485
15	0xbad60404	-0.0016328101
16	0xbcf332ce	-0.029687312
17	0x3af68041	0.0018806533
18	0xba9dc013	-0.0012035392
19	0xbb0255fc	-0.0019887676
20	0x3cad62aa	0.02116521
21	0xbc48bd31	-0.012252138
22	0x3cdfaf46	0.027305257
23	0xbc6a4827	-0.014299429
24	0x3c758c9e	0.014987139
25	0xba1da60c	-0.00060138176
26	0xbc7adcda	-0.015311444
27	0xbc80a10f	-0.015701799
28	0x3b20bdde	0.0024527232
29	0xbd0ea65b	-0.034826618
30	0xb9d83ce4	-0.00041244098
31	0xbc0ac8dc	-0.00847074
32	0x3b8c253b	0.004276899
33	0xbd2d71a3	-0.0423447
34	0x3ca94292	0.020661626
35	0xbc88a863	-0.016681856
36	0xbc6fe404	-0.0146417655
37	0xbce86efd	-0.028373236
38	0xbc580460	-0.013184637
39	0x3c1cfb02	0.009581329
40	0xbcf1fe11	-0.029540094
41	0xbb1829be	-0.002321824
42	0x3d3241e7	0.04351988
43	0x3d0363a8	0.03207746
44	0xbc37b0e8	-0.011211611
45	0x3b9eb72d	0.0048436136
46	0xbbcea5d5	-0.00630639
47	0xbc5cd1ad	-0.013477725
48	0xbba7b743	-0.005118282
49	0x3c3fdc44	0.01171023
50	0xbbc64473	-0.0060506403
51	0x3cd56f27	0.026053978
52	0x3bcb6f90	0.0062083676
53	0x3c6479d7	0.0139450645
54	0xbafb5ffd	-0.0019178387
55	0xbd10b73f	-0.035331007
56	0x3d4abd27	0.049496796
57	0xbb68ca90	-0.0035521127
58	0xbd2319d4	-0.039819553
59	0xbb692d91	-0.0035580138
60	0xbbc9277a	-0.006138739
61	0x3b77dc95	0.0037820686
62	0xbcd3fee0	-0.02587837
63	0x3ae80fda	0.001770492
64	0xbc653783	-0.013990286
65	0x3c7a7a7e	0.0152879935
66	0x3cb1d063	0.021705812
67	0x3c1d0431	0.009583519
68	0x3cd4dbb8	0.025983676
69	0xbc674f48	-0.014118023
70	0x3cbb52fe	0.022866722
71	0x3a35d976	0.0006937006
72	0x3c25fe5c	0.010131445
73	0xbcae298c	-0.021260045
74	0xbc089a90	-0.008337632
75	0x3c70d9ee	0.014700396
76	0x3b8afe12	0.0042417133
77	0x3cd40a41	0.025883796
78	0x3cce70b8	0.025200233
79	0x3c35e8b5	0.011102845
80	0xbc868daf	-0.016424982
81	0xbbd0e7d8	-0.006375294
82	0xbcaca4aa	-0.021074612
83	0x3c4860e6	0.012230134
84	0xbcbf1cf1	-0.02332923
85	0xbbe7ea33	-0.0070774793
86	0xbcf6b8d7	-0.030117435
87	0xbaade446	-0.0013266883
88	0xbc8ce264	-0.017197795
89	0xbc98f712	-0.0186725
90	0x3b7f7408	0.0038979072
91	0x3bbf46b7	0.0058372873
92	0x3c5b7c44	0.013396326
93	0x3b0e2060	0.0021686777
94	0xbbc4e13c	-0.0060082953
95	0xbad85d6f	-0.0016507338
96	0x3b912f8d	0.0044307173
97	0x3b44084a	0.0029912167
98	0x3c1de447	0.009636945
99	0xbc37e5d5	-0.01122423
100	0x3ca25d0b	0.019819757
101	0xbb38f2c4	-0.0028220871
102	0xbc97c04c	-0.018524311
103	0x3c4aca11	0.012377278
104	0x3b568d96	0.00327382
105	0xbd0a60ae	-0.033783607
106	0x3ca3dad7	0.020001812
107	0x3c1f0764	0.009706352
108	0x3c4ba4f8	0.012429468
109	0xbc2f0113	-0.010681408
110	0x3bb7420c	0.00559259
111	0x3caa9b62	0.020826045
112	0xbcfa5944	-0.030560143
113	0x3cbbd9fb	0.02293109
114	0xbd237ad6	-0.039912067
115	0xbcf7825d	-0.03021353
116	0xbbd3104b	-0.0064411513
117	0x3d12f2e3	0.035876166
118	0xba8ec788	-0.0010893205
119	0xbbd2c48c	-0.0064321216
120	0xba9f933d	-0.0012174618
121	0xbc05f8aa	-0.008176962
122	0xbb9b768f	-0.004744358
123	0xbb6e8022	-0.003639229
124	0x3cf0dad6	0.029401224
125	0xbc3860db	-0.011253561
126	0xbcae8495	-0.021303454
127	0xbcea6c5d	-0.028616125
128	0xbae4e79f	-0.0017464048
129	0x3bc7acb4	0.006093586
130	0xbd244e38	-0.040113658
131	0xbc72cca5	-0.014819299
132	0xbc87697e	-0.016529795
133	0xbc668619	-0.014070057
134	0x3c7a7967	0.015287734
135	0xbc32a482	-0.0109034795
136	0xbd04b69b	-0.03240071
137	0x3c0ab78d	0.0084666135
138	0xbbae5e4b	-0.005321299
139	0xbb9e824a	-0.004837309
140	0x3bf86e72	0.0075815255
141	0xbd130141	-0.035889868
142	0xbcd36386	-0.025804292
143	0xba76c2f3	-0.0009413205
144	0x3b9bae89	0.004751031
145	0x3cf5f2b0	0.030022949
146	0xbc6e01bb	-0.01452678
147	0xbbd83adb	-0.006598813
148	0x3c4a183e	0.012334881
149	0x3ce11ac5	0.027478585
150	0xbce46bce	-0.027883437
151	0x3d574246	0.052553438
152	0x3c410235	0.011780311
153	0xbc5192bd	-0.012791333
154	0x3ad21e5b	0.0016030775
155	0x3cd15e61	0.025557699
156	0x3b9f8c9a	0.004869056
157	0xba3fb440	-0.0007312931
158	0xbc865a1f	-0.016400395
159	0xbcf6815b	-0.030090978
160	0xbc661a01	-0.014044286
161	0xbc49a1e9	-0.012306669
162	0x3c289eb4	0.010291744
163	0x3c3e3214	0.011608619
164	0xbcbd6024	-0.023117132
165	0x3c6ce527	0.014458931
166	0x3be07fa8	0.0068511553
167	0xbce426ec	-0.02785059
168	0x3c18f449	0.009335586
169	0x3bcf5fe3	0.0063285693
170	0x3c7dc7f3	0.015489566
171	0x3b11bcaf	0.0022237708
172	0x3b451803	0.0030074127
173	0xbc7fd026	-0.015613591
174	0xbcd43813	-0.025905645
175	0x3d24e491	0.04025704
176	0xbc37d89a	-0.011221075
177	0x3c33c6e9	0.010972717
178	0x3cca1ea7	0.02467282
179	0xbc1ccaa1	-0.009569795
180	0x3c71a0bc	0.014747795
181	0x3cc7d5d2	0.02439395
182	0xbab162b8	-0.0013533449
183	0xbc72769d	-0.014798787
184	0x3ba55543	0.0050455644
185	0xbc5d0fd2	-0.013492541
186	0xbc1926aa	-0.009347597
187	0x3ac65119	0.001513037
188	0x3ad71a1c	0.001641098
189	0x3c972624	0.018450804
190	0x3d06f5af	0.032949146
191	0xbcb295a6	-0.021799874
192	0x3be06bb1	0.0068487753
193	0xb9b7b223	-0.00035037202
194	0x3cbbe414	0.022935905
195	0x3c49f33a	0.012326056
196	0x3ca88424	0.020570822
197	0xbc89d9e7	-0.016827537
198	0xbd1e683e	-0.03867363
199	0x3c19a9f1	0.009378896
200	0xbb87508c	-0.004129475
201	0x3c788cab	0.015170257
202	0xbc90bec9	-0.017669098
203	0x3c1137e9	0.008863428
204	0x3ce23862	0.027614776
205	0x3cdf4ac1	0.027257325
206	0x3c191bde	0.009345023
207	0xbcd2bc08	-0.025724426
208	0x3cae79e9	0.021298366
209	0x3c09267f	0.008370995
210	0x3cc02f70	0.02346012
211	0xbc916935	-0.017750362
212	0xbaa9efe5	-0.0012965171
213	0xbd0679bf	-0.03283095
214	0xbce67b8b	-0.028135082
215	0xbc110ba4	-0.008852873
216	0x3b4a0c6c	0.0030830158
217	0x3c8e2500	0.017351627
218	0x3cba5cea	0.022749383
219	0xbcbfaa44	-0.023396619
220	0x3c818289	0.015809314
221	0xbbd27357	-0.006422441
222	0x3c1c75e4	0.009549592
223	0xbd510804	-0.051033035
224	0x3abf0292	0.001457291
225	0x3c8a35be	0.01687133
226	0xbc244902	-0.010027172
227	0xbb8e247f	-0.0043378468
228	0x3caa9731	0.020824047
229	0x3bc40266	0.005981731
230	0xbc14879e	-0.009065537
231	0xbc856081	-0.016281368
232	0xba35f001	-0.00069403654
233	0x3b932977	0.004491027
234	0x3b849bae	0.004046879
235	0xbd0ee46e	-0.034885816
236	0xbaa8db91	-0.0012882819
237	0x3c2444f0	0.010026202
238	0xbcc4fdb9	-0.024046766
239	0xbc8c11e2	-0.017098371
240	0x3c155b12	0.009115951
241	0xbcd97ae6	-0.02654786
242	0x3c55fb86	0.013060456
243	0xbcca566f	-0.024699418
244	0xbcc75bb5	-0.024335722
245	0xb9733067	-0.00023192317
246	0xbc576093	-0.013145584
247	0xbc96b646	-0.018397462
248	0xbbfc2141	-0.007694394
249	0x3ae8aa24	0.0017750901
250	0xbbb9a580	-0.005665481
251	0x3cc9745e	0.024591621
252	0xb9c3a99b	-0.00037319664
253	0x3ca30286	0.019898664
254	0x3b26c612	0.002544765
255	0xbd2f359d	-0.04277574

action_model._continuous_distribution.mu.bias f4 [3]
0	0x3a15db74	0.00057166
1	0x39a704d2	0.00031856314
2	0x3a7f13af	0.0009730411

exp_avg f4 [128, 24]
0	0xb4302bd0	-1.6407216e-07
1	0xb582ee54	-9.755117e-07
2	0xb599abdc	-1.1449406e-06
3	0xb4011eab	-1.2025218e-07
4	0xb52992b0	-6.3170864e-07
5	0xb592f72e	-1.0949786e-06
6	0xb4bab830	-3.4779214e-07
7	0xb53b8be1	-6.986648e-07
8	0xb592d09f	-1.0938564e-06
9	0x3351a637	4.8812776e-08
10	0xb5720cc3	-9.0170596e-07
11	0xb584053e	-9.836292e-07
12	0xb3da2339	-1.0157823e-07
13	0xb5a289d3	-1.2110053e-06
14	0xb599eb34	-1.1467841e-06
15	0xb476cbe9	-2.2984717e-07
16	0xb524be41	-6.1371617e-07
17	0xb585ceb1	-9.969427e-07
18	0xb2d9f669	-2.537418e-08
19	0xb5821182	-9.69085e-07
20	0xb59160ae	-1.0831479e-06
21	0xb70ec9f0	-8.510877e-06
22	0xb4ff2446	-4.7523844e-07
23	0xb426999a	-1.5515835e-07
24	0x37a27e5a	1.9370742e-05
25	0x37cd5780	2.447865e-05
26	0x380cfa10	3.361149e-05
27	0xb5781726	-9.2420885e-07
28	0x378cf419	1.6802967e-05
29	0x3816ad18	3.5923993e-05
30	0xb72e1966	-1.0377122e-05
31	0x3831aa52	4.235871e-05
32	0x3829a811	4.0449264e-05
33	0xb7af47c8	-2.0895051e-05
34	0x38807efd	6.127169e-05
35	0x38378eef	4.3763717e-05
36	0x3725dbfe	9.885987e-06
37	0x37fb79bd	2.997822e-05
38	0x37ddd128	2.6442649e-05
39	0xb7acdc13	-2.0606478e-05
40	0x389672ea	7.173962e-05
41	0x3877cacc	5.907826e-05
42	0x37a6f6da	1.9903691e-05
43	0x383fc321	4.5719677e-05
44	0x3808d254	3.262081e-05
45	0x39dd43b5	0.0004220285
46	0x3520b2d0	5.986485e-07
47	0xb75ea338	-1.32702335e-05
48	0x34d1496a	3.89827e-07
49	0xb7f28311	-2.890968e-05
50	0xb783d34c	-1.571481e-05
51	0xb62fa8d4	-2.6175303e-06
52	0xb7ce5219	-2.4595343e-05
53	0xb75e61ed	-1.3255031e-05
54	0x36957874	4.4545686e-06
55	0xb7fa6e9c	-2.9853829e-05
56	0xb77e00c6	-1.513976e-05
57	0x3660b8dc	3.3486203e-06
58	0xb747b314	-1.1903019e-05
59	0xb72e0dca	-1.0374419e-05
60	0xb4ee25ed	-4.435855e-07
61	0xb7983e00	-1.8148683e-05
62	0xb6f6f2f2	-7.359654e-06
63	0xb5f337c9	-1.8121146e-06
64	0xb71fa0f7	-9.514616e-06
65	0xb700f847	-7.687201e-06
66	0xb73f9ca4	-1.1420958e-05
67	0x37558f17	1.2729105e-05
68	0x364150db	2.8806305e-06
69	0xb80e5145	-3.3931126e-05
70	0xb6db0ec4	-6.5284275e-06
71	0xb5ebcb80	-1.7568091e-06
72	0xb39e9e83	-7.3862815e-08
73	0xb6b69163	-5.440948e-06
74	0xb69ea6d7	-4.7281897e-06
75	0xb422552a	-1.5118408e-07
76	0xb6bfd09e	-5.71653e-06
77	0xb6a4c53a	-4.910541e-06
78	0xb350eb34	-4.864269e-08
79	0xb662edb2	-3.3814981e-06
80	0xb66923bf	-3.4740513e-06
81	0xb49bfb17	-2.9053692e-07
82	0xb6994261	-4.567483e-06
83	0xb690cb2e	-4.3151877e-06
84	0xb444d777	-1.8332308e-07
85	0xb605fd64	-1.9966037e-06
86	0xb63c9a8d	-2.8104143e-06
87	0xb3ded2a6	-1.0375997e-07
88	0xb6867f62	-4.0083405e-06
89	0xb68cad5f	-4.192508e-06
90	0xb5663112	-8.5753084e-07
91	0x3557bd1e	8.0368943e-07
92	0xb5cff856	-1.5494977e-06
93	0xb7d3c665	-2.5245545e-05
94	0xb5ce7b45	-1.5384072e-06
95	0xb395d883	-6.9777364e-08
96	0x37296e25	1.009883e-05
97	0x3820a48d	3.8300223e-05
98	0x37fa7229	2.9855482e-05
99	0xb606b1cf	-2.0071054e-06
100	0x36bb65dd	5.5848927e-06
101	0x3751d1cf	1.2506221e-05
102	0xb7b45799	-2.1498463e-05
103	0x3831b6e8	4.2370433e-05
104	0x3802c19d	3.117473e-05
105	0xb78fadce	-1.7127863e-05
106	0x380ffa21	3.4326808e-05
107	0x37a74795	1.9941284e-05
108	0x371312f9	8.7663e-06
109	0x3688aac7	4.072997e-06
110	0x376b1597	1.4012118e-05
111	0xb7ac57ea	-2.0544936e-05
112	0x381f6f29	3.801208e-05
113	0x37fe75de	3.0334046e-05
114	0x37a00a40	1.907826e-05
115	0xb6c107ce	-5.752757e-06
116	0x37587d12	1.29037235e-05
117	0x399b3dd5	0.00029609972
118	0xb7c48fc4	-2.3431967e-05
119	0x358c1286	1.0436204e-06
120	0xb6996ffb	-4.5727916e-06
121	0x37053b64	7.941246e-06
122	0xb66031cf	-3.3407593e-06
123	0xb61c3387	-2.3275804e-06
124	0xb6f2cdba	-7.2361117e-06
125	0xb780f763	-1.5373987e-05
126	0xb703c40b	-7.853853e-06
127	0x36d68000	6.392598e-06
128	0xb62d1176	-2.5789172e-06
129	0x34c20de0	3.614541e-07
130	0xb7944f87	-1.7680008e-05
131	0xb7975caf	-1.8043762e-05
132	0xb5e5a0a7	-1.7108586e-06
133	0xb701ff81	-7.748488e-06
134	0xb6c22a27	-5.7865577e-06
135	0xb68be511	-4.1691897e-06
136	0xb7ba3ae6	-2.2200355e-05
137	0xb7a97497	-2.0200661e-05
138	0x3623202f	2.4307626e-06
139	0xb7d7f3fb	-2.574361e-05
140	0xb78013ff	-1.52681e-05
141	0xb8f5bd40	-0.00011717761
142	0xb72fa34a	-1.04688315e-05
143	0x367aa6e4	3.7350046e-06
144	0x35089d4d	5.089285e-07
145	0x34d53a3b	3.971671e-07
146	0x34fccad0	4.7086223e-07
147	0x3536b14e	6.8058296e-07
148	0x34dbf829	4.097249e-07
149	0x34acbf96	3.2176894e-07
150	0xb570699a	-8.956064e-07
151	0x36266a57	2.4797826e-06
152	0x35caed59	1.511925e-06
153	0x35266b0e	6.1995604e-07
154	0x3424d869	1.535242e-07
155	0x34d3bccc	3.943918e-07
156	0xb5356ce2	-6.75862e-07
157	0x368c0b73	4.173658e-06
158	0x360a6ef4	2.0628186e-06
159	0x35cb919b	1.5167055e-06
160	0x345b381c	2.0416377e-07
161	0x33fee81c	1.1870017e-07
162	0x359458d5	1.1052713e-06
163	0x3643c67e	2.9172802e-06
164	0x360ba657	2.0809437e-06
165	0x374c224c	1.2167333e-05
166	0xb442a0c4	-1.8126144e-07
167	0x36150810	2.2207423e-06
168	0x3465a4e8	2.138728e-07
169	0xb6720e66	-3.606919e-06
170	0xb5d90253	-1.6168436e-06
171	0xb41ce0d2	-1.4610421e-07
172	0xb611171a	-2.162013e-06
173	0xb553412f	-7.869848e-07
174	0x351c8f23	5.832282e-07
175	0xb63dc18f	-2.827586e-06
176	0xb5b57055	-1.3518244e-06
177	0xb466ecf1	-2.1506618e-07
178	0xb3113343	-3.3807066e-08
179	0xb237d4b2	-1.0700363e-08
180	0xb45557fb	-1.9869178e-07
181	0xb4b3b4bc	-3.347285e-07
182	0xb4ddb67e	-4.1297238e-07
183	0xb4f7bdb5	-4.6145365e-07
184	0x33a3d539	7.629064e-08
185	0x33d1fbcd	9.778123e-08
186	0xb59157c1	-1.0828882e-06
187	0x35f21823	1.803743e-06
188	0x34aac6f2	3.180972e-07
189	0xb6c04e4b	-5.7311604e-06
190	0xb4fcc325	-4.7080644e-07
191	0xb4463886	-1.846075e-07
192	0xb35c4664	-5.128676e-08
193	0x364e116c	3.0706533e-06
194	0x3642f1ff	2.9049113e-06
195	0x355c54f5	8.2080015e-07
196	0x35cc3679	1.5215038e-06
197	0x360e8994	2.123973e-06
198	0x359f4589	1.186666e-06
199	0x3615b770	2.2309505e-06
200	0x365a8494	3.2561702e-06
201	0x35fa652a	1.8655894e-06
202	0x35b974d8	1.381758e-06
203	0x35e617a3	1.7143215e-06
204	0x3580737b	9.570352e-07
205	0x365807f1	3.219113e-06
206	0x36802f6c	3.820218e-06
207	0xb554e09d	-7.930301e-07
208	0x35863b39	1.0001014e-06
209	0x36188314	2.2726063e-06
210	0x35d4fe2e	1.5869207e-06
211	0x36a46624	4.8994716e-06
212	0x369b95e5	4.63681e-06
213	0x37c402c2	2.3366305e-05
214	0xb5cf6e45	-1.5454794e-06
215	0x368aba9b	4.134444e-06
216	0x353eb2d3	7.104074e-07
217	0x35c16507	1.4409023e-06
218	0x3695f415	4.468961e-06
219	0x350cd22b	5.24599e-07
220	0x35b148c8	1.320871e-06
221	0x369bf9ef	4.648456e-06
222	0x360e0176	2.11605e-06
223	0x35c22488	1.4464758e-06
224	0x36a38428	4.8731636e-06
225	0xb5329c4f	-6.6537626e-07
226	0x360c017c	2.086249e-06
227	0x36966080	4.4815824e-06
228	0x34c2e6fb	3.6303376e-07
229	0x369723c6	4.5043153e-06
230	0x36d35a38	6.298793e-06
231	0xb522fbfd	-6.0716394e-07
232	0x363ff1de	2.8602003e-06
233	0x36887bc5	4.0675245e-06
234	0x34a89837	3.140319e-07
235	0x370294de	7.783265e-06
236	0x36ebf4b8	7.032035e-06
237	0x38500d55	4.960348e-05
238	0x361ccde5	2.3365658e-06
239	0x35033e22	4.889172e-07
240	0xb5650d7c	-8.532877e-07
241	0x3630f7a3	2.6370187e-06
242	0xb54c2ecf	-7.606404e-07
243	0x34640ab5	2.123805e-07
244	0x3589e57a	1.0274082e-06
245	0xb5fc5778	-1.880092e-06
246	0xb5334d1e	-6.6794917e-07
247	0x35f3b7d0	1.8158407e-06
248	0xb596ef87	-1.1245583e-06
249	0x3506c015	5.0198406e-07
250	0xb610b2e0	-2.156179e-06
251	0xb61ebae9	-2.365263e-06
252	0xb551979e	-7.80792e-07
253	0xb3b7fa11	-8.5670884e-08
254	0xb5cf1ca4	-1.5431037e-06
255	0x3578d2f8	9.26942e-07

exp_avg_sq f4 [128, 24]
0	0x28143894	8.227919e-15
1	0x2af1ebf0	4.2973914e-13
2	0x2b073932	4.804101e-13
3	0x296a946a	5.2087166e-14
4	0x2aa13eb4	2.8642854e-13
5	0x2acb4751	3.610953e-13
6	0x2998cc19	6.785561e-14
7	0x2aac61be	3.062116e-13
8	0x2adf9fb7	3.9723582e-13
9	0x2aae3107	3.0942629e-13
10	0x2a80a6ac	2.285302e-13
11	0x2a9f3dca	2.8286949e-13
12	0x2973daae	5.4146513e-14
13	0x2ae908ff	4.1395357e-13
14	0x2b0bbae6	4.9642094e-13
15	0x2acd807a	3.6504464e-13
16	0x2a4219db	1.7239632e-13
17	0x2a9c20eb	2.7734008e-13
18	0x28be1c80	2.1106597e-14
19	0x2b2fa6f0	6.240416e-13
20	0x2b3e4ae9	6.760552e-13
21	0x2e114307	3.3028715e-11
22	0x2aaed6c2	3.1057627e-13
23	0x2a95859e	2.6560432e-13
24	0x2e501a56	4.7317116e-11
25	0x30c1969c	1.4085404e-09
26	0x30e98207	1.6989937e-09
27	0x2d88f029	1.5568062e-11
28	0x30d1dd40	1.5269634e-09
29	0x30f03f72	1.748033e-09
30	0x2f0db229	1.288717e-10
31	0x30bf08cb	1.3899578e-09
32	0x30e080f1	1.6334792e-09
33	0x2ecf353f	9.4227286e-11
34	0x307e3204	9.247574e-10
35	0x30db4024	1.5952577e-09
36	0x2ef35d30	1.1066914e-10
37	0x30ac5f67	1.2541762e-09
38	0x30d56f13	1.5529359e-09
39	0x2ecf09f9	9.415042e-11
40	0x30639804	8.2798146e-10
41	0x30c212ec	1.4120736e-09
42	0x2f0e56c9	1.2945657e-10
43	0x30bb2214	1.3615726e-09
44	0x30c3d13f	1.4247589e-09
45	0x33d0a76e	9.71621e-08
46	0x2f6850e8	2.1129021e-10
47	0x2fa3a47c	2.97664e-10
48	0x2d3539b1	1.0301469e-11
49	0x2f0f0255	1.3006603e-10
50	0x2f02d93f	1.1900612e-10
51	0x2d03b005	7.485572e-12
52	0x2f1f8d72	1.4511217e-10
53	0x2f04fd68	1.2095358e-10
54	0x2ca01c46	4.5506125e-12
55	0x2f1479a1	1.3503733e-10
56	0x2f0773e2	1.2319348e-10
57	0x2dd0335e	2.3669674e-11
58	0x2ed4ea68	9.682283e-11
59	0x2ee87e36	1.0572558e-10
60	0x2da5a067	1.8829561e-11
61	0x2ef614a8	1.1190454e-10
62	0x2efe9ff1	1.1578994e-10
63	0x2df1e94c	2.7502133e-11
64	0x2f04144c	1.2012541e-10
65	0x2edb010e	9.959154e-11
66	0x2e5c8a2a	5.0144923e-11
67	0x2eebb928	1.0719453e-10
68	0x2edcabe9	1.0034979e-10
69	0x32025ed3	7.5885564e-09
70	0x2df18e11	2.7461618e-11
71	0x2eb902ad	8.413301e-11
72	0x29c3c019	8.693063e-14
73	0x2c8ca244	3.9970544e-12
74	0x2c962fde	4.2685707e-12
75	0x2a54f346	1.8913785e-13
76	0x2ca7192c	4.74922e-12
77	0x2c99c968	4.370882e-12
78	0x2ab87c31	3.277114e-13
79	0x2c1a420a	2.1921375e-12
80	0x2c646c08	3.2460718e-12
81	0x2a5dcb17	1.9699204e-13
82	0x2c47ef58	2.8412463e-12
83	0x2c827f07	3.708925e-12
84	0x29a96a1d	7.5235154e-14
85	0x2c2359f4	2.3213627e-12
86	0x2c584350	3.0732812e-12
87	0x29e58784	1.0193151e-13
88	0x2c22a489	2.311292e-12
89	0x2c615d0c	3.2026075e-12
90	0x2aa6b465	2.9612697e-13
91	0x2c14d820	2.1152038e-12
92	0x2c2ec471	2.4835934e-12
93	0x2f699bfc	2.1246643e-10
94	0x2b3741d1	6.5106e-13
95	0x2ac82d77	3.5558684e-13
96	0x2d8af2e1	1.5796644e-11
97	0x2ff2e01f	4.417879e-10
98	0x301bb9db	5.665279e-10
99	0x2cf962b3	7.0879635e-12
100	0x2fc11115	3.5118633e-10
101	0x30135f6a	5.361388e-10
102	0x2edfda75	1.0179672e-10
103	0x2fd9a861	3.959171e-10
104	0x3000edec	4.6904236e-10
105	0x2e49f4ea	4.5919636e-11
106	0x2fa6473c	3.024584e-10
107	0x3001e02c	4.7248494e-10
108	0x2de2bdea	2.5777564e-11
109	0x2fdb16ff	3.9852208e-10
110	0x3011412d	5.2843313e-10
111	0x2e2fd34e	3.997807e-11
112	0x2fb0ae95	3.2138261e-10
113	0x30056a37	4.853606e-10
114	0x2e7f7847	5.8087115e-11
115	0x2fc88097	3.6471157e-10
116	0x3016d357	5.4870014e-10
117	0x33488462	4.668653e-08
118	0x2edc85aa	1.0028185e-10
119	0x2edbddb7	9.9983515e-11
120	0x2cbc0615	5.3439566e-12
121	0x2f75f6e2	2.237033e-10
122	0x2f826c75	2.3723926e-10
123	0x2cc73e84	5.662861e-12
124	0x2f3c35da	1.7117632e-10
125	0x2f4ee71b	1.8817696e-10
126	0x2e4f23ab	4.709803e-11
127	0x2f3b6444	1.7043172e-10
128	0x2f5bfc69	2.0007608e-10
129	0x2d65be5b	1.305941e-11
130	0x2e84a53a	6.032015e-11
131	0x2f1e70e9	1.441013e-10
132	0x2e6277a5	5.1492716e-11
133	0x2f2a3d31	1.548315e-10
134	0x2f3fcd7c	1.7444352e-10
135	0x2dde6168	2.5281735e-11
136	0x2ecf8703	9.437253e-11
137	0x2f17b9f5	1.3799435e-10
138	0x2dd0c817	2.373572e-11
139	0x2f5a12ff	1.9833733e-10
140	0x2f674beb	2.1036299e-10
141	0x325b0e0b	1.2750671e-08
142	0x2e9efbd6	7.229743e-11
143	0x2e210166	3.6608404e-11
144	0x2aa0fc7e	2.859691e-13
145	0x2c6384fb	3.233246e-12
146	0x2c590444	3.0839923e-12
147	0x29d92102	9.642462e-14
148	0x2c63ac06	3.2354132e-12
149	0x2c64ddc4	3.2523853e-12
150	0x2a9df26a	2.805701e-13
151	0x2c4e12e6	2.9284851e-12
152	0x2c576c31	3.0613396e-12
153	0x2a87d846	2.4130887e-13
154	0x2c5d4c5a	3.1448373e-12
155	0x2c60f9da	3.197101e-12
156	0x2ad8ede5	3.853438e-13
157	0x2c53694e	3.004336e-12
158	0x2c4d1868	2.91458e-12
159	0x2aa05772	2.8482387e-13
160	0x2c68efe6	3.3102353e-12
161	0x2c740949	3.467964e-12
162	0x2a9981f1	2.7268425e-13
163	0x2c0525c0	1.8921392e-12
164	0x2c145e11	2.1084282e-12
165	0x2f5d427e	2.0123456e-10
166	0x2b1a3d61	5.479697e-13
167	0x2b6ae5cb	8.34524e-13
168	0x29583b75	4.8013205e-14
169	0x2c3c45e3	2.6755202e-12
170	0x2c1ca8e1	2.226268e-12
171	0x2943c7e3	4.3472072e-14
172	0x2c22476b	2.306123e-12
173	0x2c073f9b	1.9219962e-12
174	0x2a05ef61	1.1895824e-13
175	0x2c312b21	2.5177154e-12
176	0x2c175fd3	2.1511584e-12
177	0x29b808b1	8.172749e-14
178	0x2bcc7175	1.4526562e-12
179	0x2bd9b142	1.5467976e-12
180	0x29ce787b	9.169138e-14
181	0x2c030188	1.861707e-12
182	0x2c0b88e5	1.982908e-12
183	0x29998f84	6.819461e-14
184	0x2bc9c854	1.4337511e-12
185	0x2be07804	1.5949468e-12
186	0x2ac7b913	3.5477922e-13
187	0x2bd037cc	1.4794776e-12
188	0x2c066ad5	1.910185e-12
189	0x2f02f712	1.1911208e-10
190	0x2a23afbc	1.4538278e-13
191	0x2af8f757	4.4225276e-13
192	0x2b2ead1f	6.205747e-13
193	0x2c4a62f5	2.8760859e-12
194	0x2c6d2a9d	3.370338e-12
195	0x2aba5ab5	3.3103178e-13
196	0x2c607abd	3.1900448e-12
197	0x2c8a14e5	3.9245157e-12
198	0x2b188499	5.4185264e-13
199	0x2c823467	3.70064e-12
200	0x2c9a01c7	4.3771406e-12
201	0x2bddec48	1.5768576e-12
202	0x2c579af2	3.063935e-12
203	0x2c8c33f4	3.9848073e-12
204	0x2a7a4810	2.2229462e-13
205	0x2c8d76a6	4.0206337e-12
206	0x2cb56974	5.156037e-12
207	0x2c4d44b1	2.9170384e-12
208	0x2c4b6f54	2.8909835e-12
209	0x2c6c6c90	3.3597881e-12
210	0x2aff0c1e	4.5305507e-13
211	0x2cca754d	5.7542083e-12
212	0x2cdd7948	6.2946627e-12
213	0x2fdba188	3.9950643e-10
214	0x2c135930	2.0939465e-12
215	0x2c5dc6ea	3.1516408e-12
216	0x2a9823c8	2.7025452e-13
217	0x2be5e070	1.6333723e-12
218	0x2c839209	3.739457e-12
219	0x29fb35a3	1.11559437e-13
220	0x2bfcc17c	1.795938e-12
221	0x2c87f6be	3.8643247e-12
222	0x2bdafa5e	1.5559322e-12
223	0x2be90f36	1.6559868e-12
224	0x2c792e19	3.5410618e-12
225	0x2aed8c9d	4.2197227e-13
226	0x2b2fbca9	6.243431e-13
227	0x2c5e0f31	3.155653e-12
228	0x2a2ac62b	1.5167786e-13
229	0x2c7b78c5	3.5736286e-12
230	0x2cc80169	5.6844984e-12
231	0x2b028d1f	4.638112e-13
232	0x2bd92680	1.5429463e-12
233	0x2c63f576	3.2394898e-12
234	0x29c27d1b	8.637033e-14
235	0x2d0203b7	7.390469e-12
236	0x2d030710	7.448056e-12
237	0x2fd183b6	3.8110465e-10
238	0x2bdcad89	1.5680106e-12
239	0x2b60ef0b	7.9912525e-13
240	0x2a575441	1.9125067e-13
241	0x2cfe17a2	7.221738e-12
242	0x2cfb0c87	7.13524e-12
243	0x2a4bc15d	1.8097108e-13
244	0x2cfa0217	7.1056594e-12
245	0x2ce76d22	6.577531e-12
246	0x2aca8aa9	3.5978623e-13
247	0x2d0189fd	7.363441e-12
248	0x2cf93149	7.0824774e-12
249	0x2b527def	7.4781755e-13
250	0x2c5e6ee4	3.1609654e-12
251	0x2cb484c2	5.1306468e-12
252	0x2b2450db	5.8376714e-13
253	0x2cde39a9	6.316021e-12
254	0x2ceb36a9	6.68517e-12
255	0x2b58a3f8	7.696617e-13

exp_avg f4 [128]
0	0xb5a324fb	-1.2155209e-06
1	0x387ce93a	6.029869e-05
2	0xb6a28399	-4.843296e-06
3	0xb671f574	-3.605467e-06
4	0x383165cd	4.2294898e-05
5	0xb78c8033	-1.6748998e-05
6	0x35e919b9	1.7367339e-06
7	0xb55bebec	-8.192717e-07
8	0x365fe169	3.3360795e-06
9	0x36edc534	7.086108e-06
10	0xb6712f95	-3.5939495e-06
11	0x37c28d53	2.3192411e-05
12	0x35600647	8.345564e-07
13	0x383e3d96	4.5356886e-05
14	0x36a98966	5.0525878e-06
15	0xb736e379	-1.0901008e-05
16	0xb821297c	-3.8424027e-05
17	0xb551c517	-7.814537e-07
18	0x3802cdbc	3.118602e-05
19	0x386021a2	5.3437085e-05
20	0xb4a5a400	-3.085297e-07
21	0xb8486138	-4.7774258e-05
22	0x34052bf8	1.2402586e-07
23	0xb7aa75b6	-2.0320393e-05
24	0xb6bae87a	-5.570296e-06
25	0xb71c1884	-9.304033e-06
26	0x36af3159	5.2211512e-06
27	0xb6df8661	-6.6615617e-06
28	0x388f86d6	6.8438865e-05
29	0xb5c46cb1	-1.4634771e-06
30	0x366ff775	3.5757814e-06
31	0xb704bc59	-7.911666e-06
32	0x364ad6f2	3.022546e-06
33	0xb70ef5ee	-8.5211195e-06
34	0x368ec1c8	4.254489e-06
35	0x38013edc	3.081454e-05
36	0xb702f0be	-7.804656e-06
37	0x38206c53	3.8247857e-05
38	0x36813b19	3.8513795e-06
39	0x37b98192	2.2114054e-05
40	0xb7001379	-7.633928e-06
41	0xb84e9dc3	-4.9261154e-05
42	0xb6ecab6f	-7.0533056e-06
43	0x37ccf600	2.4433248e-05
44	0xb7a1d2ae	-1.9290801e-05
45	0xb59b70af	-1.1581195e-06
46	0xb4bebefa	-3.5529212e-07
47	0xb8021a1e	-3.101874e-05
48	0xb8158005	-3.5643596e-05
49	0xb6fc6163	-7.5215225e-06
50	0xb8350c48	-4.31652e-05
51	0xb6d71eda	-6.411091e-06
52	0xb62c0afc	-2.563639e-06
53	0xb6fdc733	-7.5631774e-06
54	0x33d3619a	9.843207e-08
55	0x38087a1b	3.2538646e-05
56	0x37a949d9	2.0180758e-05
57	0xb76ee134	-1.423834e-05
58	0x3680a658	3.834062e-06
59	0xb88ee879	-6.814389e-05
60	0xb81b4460	-3.701856e-05
61	0x386a5e66	5.5877863e-05
62	0x383717e9	4.3652868e-05
63	0x358216db	9.692407e-07
64	0x380fdf28	3.4301687e-05
65	0x3771c4a1	1.4410501e-05
66	0xb7b2db89	-2.1321483e-05
67	0x364dfac2	3.069334e-06
68	0x3809aece	3.2826145e-05
69	0xb7812b44	-1.5398145e-05
70	0xb663724e	-3.389217e-06
71	0x381cbbf7	3.7368354e-05
72	0xb7cc180b	-2.4329891e-05
73	0x3601ccb0	1.9341642e-06
74	0xb4a2d0f1	-3.0326876e-07
75	0xb8006af8	-3.06172e-05
76	0xb7f3c560	-2.9059767e-05
77	0x38113898	3.46234e-05
78	0x38d12f7f	9.9747434e-05
79	0x35822c55	9.698657e-07
80	0xb69fc570	-4.761554e-06
81	0x37d5dcc5	2.5494382e-05
82	0xb6ff52fc	-7.609253e-06
83	0xb7c3a237	-2.3321349e-05
84	0xb5663d70	-8.577108e-07
85	0xb6d68695	-6.3933644e-06
86	0xb7787c68	-1.48109175e-05
87	0xb61d2ebc	-2.3422026e-06
88	0x358e359f	1.059543e-06
89	0xb644bb6e	-2.9315374e-06
90	0xb6b146c2	-5.2832484e-06
91	0xb57f28b8	-9.5054156e-07
92	0xb89855db	-7.2639166e-05
93	0x3625f3f7	2.4728922e-06
94	0x37834aef	1.565131e-05
95	0xb5026617	-4.8577334e-07
96	0xb6d559a3	-6.3583298e-06
97	0x37f6cede	2.9421815e-05
98	0x382615bf	3.9597737e-05
99	0x366c52df	3.5214978e-06
100	0x370d2a77	8.414142e-06
101	0x37772188	1.4730154e-05
102	0x359eb09b	1.1823316e-06
103	0xb7487cab	-1.19499555e-05
104	0xb800f99c	-3.0750045e-05
105	0xb78da87a	-1.6886963e-05
106	0xb671bdec	-3.6022348e-06
107	0xb6695158	-3.4767054e-06
108	0x356da5a7	8.8530436e-07
109	0xb623de44	-2.4418268e-06
110	0x365d1734	3.2945072e-06
111	0x36da9554	6.5142904e-06
112	0xb6b98a30	-5.529517e-06
113	0xb79322a0	-1.7539889e-05
114	0x3884f19e	6.339255e-05
115	0xb60952c8	-2.0462776e-06
116	0xb6943b25	-4.417629e-06
117	0x386223d0	5.3915952e-05
118	0x370ca3f1	8.382821e-06
119	0x3702e987	7.802976e-06
120	0x380a1d2a	3.2928925e-05
121	0xb7a45793	-1.9591103e-05
122	0x370b851d	8.3160385e-06
123	0x3865a2a6	5.4749333e-05
124	0x353c9822	7.025684e-07
125	0x36c7c85d	5.9539875e-06
126	0x3765aec0	1.3690151e-05
127	0xb7550d8e	-1.2698945e-05

exp_avg_sq f4 [128]
0	0x2b3dbcf4	6.7408514e-13
1	0x310844a1	1.9829616e-09
2	0x2f2a51e4	1.5490503e-10
3	0x2c988a10	4.335428e-12
4	0x3082f28d	9.527682e-10
5	0x2f8f16dc	2.602779e-10
6	0x2c9080ea	4.1070385e-12
7	0x2c2b12ec	2.4311065e-12
8	0x2d0f6b88	8.152486e-12
9	0x2d08d147	7.777174e-12
10	0x2d0a1817	7.849741e-12
11	0x309624bb	1.0924376e-09
12	0x2cc28073	5.5280724e-12
13	0x300251f9	4.7410215e-10
14	0x2eaebe95	7.946458e-11
15	0x2fbae350	3.3994718e-10
16	0x308e181a	1.033871e-09
17	0x2c2a13d9	2.416947e-12
18	0x30a59a9c	1.2049273e-09
19	0x30ac6478	1.2543202e-09
20	0x2e6f0372	5.434537e-11
21	0x31242234	2.3884583e-09
22	0x2c9135aa	4.1271058e-12
23	0x30cc4a16	1.486401e-09
24	0x2d4c1725	1.16011966e-11
25	0x30416433	7.035538e-10
26	0x2ca294f4	4.620854e-12
27	0x2ddbd46b	2.499175e-11
28	0x313cc102	2.7467313e-09
29	0x2f7d8dd5	2.3060605e-10
30	0x2d0e3284	8.082982e-12
31	0x2e15b58c	3.4039924e-11
32	0x2fde5d17	4.044771e-10
33	0x2d90b25b	1.645011e-11
34	0x2c454fb5	2.803963e-12
35	0x2faddf66	3.162725e-10
36	0x3116acc1	2.1926072e-09
37	0x30443258	7.137593e-10
38	0x30036fd6	4.781645e-10
39	0x2f6010d5	2.0378661e-10
40	0x2e7f7f1f	5.8093193e-11
41	0x30b6ba3f	1.3295177e-09
42	0x2eb48616	8.209271e-11
43	0x2ff35b91	4.4266504e-10
44	0x2f76f0d3	2.2459128e-10
45	0x2c97f302	4.3186574e-12
46	0x2c063aa4	1.9075097e-12
47	0x31697aaa	3.397569e-09
48	0x309977d3	1.1166271e-09
49	0x2f807802	2.3368335e-10
50	0x300dc39c	5.157348e-10
51	0x2dc880cb	2.2794563e-11
52	0x2e28c644	3.8374873e-11
53	0x2e057be6	3.0350743e-11
54	0x2bc0e5c1	1.370619e-12
55	0x2fc311cc	3.548294e-10
56	0x313fe496	2.7924094e-09
57	0x2fa231f4	2.9503122e-10
58	0x2e3fd89b	4.3620756e-11
59	0x3111462f	2.1140172e-09
60	0x313cb965	2.7462985e-09
61	0x304a2345	7.3537293e-10
62	0x30be2619	1.3835147e-09
63	0x2aacba33	3.068254e-13
64	0x30096a55	4.9991417e-10
65	0x3043af45	7.118966e-10
66	0x2fc6e6de	3.618003e-10
67	0x3023ba7b	5.956406e-10
68	0x303de220	6.907914e-10
69	0x2f3359d5	1.631187e-10
70	0x2b83bb00	9.360013e-13
71	0x30b2a43a	1.299788e-09
72	0x2f3a1ed9	1.6927561e-10
73	0x3057617e	7.835509e-10
74	0x2bfe69ef	1.8077188e-12
75	0x309ca18d	1.1396409e-09
76	0x2f8bb602	2.5413277e-10
77	0x2feaa92c	4.2684556e-10
78	0x313f9bb3	2.7882663e-09
79	0x2d03a2da	7.482648e-12
80	0x2d8e5fbc	1.6186046e-11
81	0x2f0c5309	1.2762426e-10
82	0x2ed44ae8	9.65395e-11
83	0x301f1cb8	5.7884675e-10
84	0x2e744661	5.5541686e-11
85	0x2e97e3ad	6.907128e-11
86	0x2f6befbd	2.1458298e-10
87	0x2f441bc9	1.7835967e-10
88	0x2d18dc40	8.689105e-12
89	0x2bf28a02	1.7233439e-12
90	0x2fa32e18	2.968228e-10
91	0x2e366bf7	4.14779e-11
92	0x30d2aa74	1.5327957e-09
93	0x3019cb86	5.59503e-10
94	0x2ff36e1e	4.4279685e-10
95	0x2daeadb5	1.9858651e-11
96	0x307bdd1f	9.16275e-10
97	0x30e14a4b	1.639202e-09
98	0x30121c23	5.3154475e-10
99	0x3008622f	4.961604e-10
100	0x30931352	1.0701149e-09
101	0x2ea5ad87	7.534156e-11
102	0x2bb41742	1.2796225e-12
103	0x2def3430	2.719433e-11
104	0x2f715f5c	2.1952701e-10
105	0x2f8d55f6	2.570883e-10
106	0x2b8edcf1	1.015103e-12
107	0x2ef96d8c	1.13426685e-10
108	0x2cfd3c3e	7.1973807e-12
109	0x2cad1984	4.9197885e-12
110	0x2c966362	4.27429e-12
111	0x2eded732	1.01336176e-10
112	0x2c56043d	3.0413582e-12
113	0x2fd7da6c	3.926347e-10
114	0x30ca2497	1.4707834e-09
115	0x2c1eb6a2	2.2554532e-12
116	0x2ceea658	6.7828347e-12
117	0x30231c95	5.933967e-10
118	0x3021fec1	5.8933486e-10
119	0x2f623726	2.0574173e-10
120	0x2f89a18d	2.5034944e-10
121	0x30d06eba	1.5165462e-09
122	0x2e77d11f	5.6347035e-11
123	0x311cd5e6	2.2822575e-09
124	0x2dae0b2d	1.9786473e-11
125	0x30dcd74c	1.6068298e-09
126	0x2fc3e822	3.5635234e-10
127	0x2f1c1948	1.4197099e-10
