results/ppo/MlAgent/MlAgent-51840.onnx (onnx, 104069 bytes, 6 tensors)

action_model._discrete_distribution.branches.0.bias f4 [3]
0.0013145735 -0.0015967916 0.0003288468
00000000: c44d ac3a 6f4b d1ba 1269 ac39

action_model._discrete_distribution.branches.0.weight f4 [3, 128]
0.017410493 0.008837576 0.003947924 0.0035782778 -0.001497104 0.01582828 -0.011722558 0.008940712
0.013278573 0.0010312541 0.016955767 0.0040690806 0.004526827 -0.0013700154 -0.012898554 -0.005971144
0.006582815 0.0033849124 0.004398156 -0.0003951963 0.0030094667 -0.0032763768 0.0041317 0.008823298
-0.004026258 0.007631017 0.0013917283 0.0020110642 -0.0048996983 -0.002395491 -0.013161514 -0.00033590794
0.010708218 0.01317907 0.0029891154 0.005070463 -0.008917395 -0.007695149 0.0007559902 0.005328164
-0.006220591 0.007692733 -0.006948713 -0.015818972 0.0077989837 -0.0037979668 0.001294651 -0.010672239
0.006142533 0.0047922963 -0.0068355 0.0029095402 -0.009886644 -0.0019393241 -0.003498227 -0.008897607
-0.007395544 0.009929541 0.0052920254 0.0027038415 -0.021252256 -0.0045231218 -0.007311111 0.00850097
-0.019621635 -0.0049828193 -0.0009950171 0.006807159 0.019147674 0.0025285431 0.012388094 -0.005366249
0.010587564 0.0019537306 -0.0015697611 -0.010661663 0.0013645889 -0.0032459844 0.00077863847 0.0035096128
0.0022757305 -0.0044257212 0.013368167 -0.0056135533 -0.0020809253 -0.012463262 -0.0031903926 -0.010835135
0.00928047 -0.009853567 -0.013384696 0.0046803043 0.024046062 0.003752183 0.0005585635 0.0038396898
0.0012815184 -0.014111259 0.0029959367 0.001731447 -0.008050917 -0.0048358385 -0.0040001506 0.00831957
-0.0050750365 -0.023281846 0.00035540512 0.0015804298 0.0031272783 0.0049323193 -0.019249437 -0.009487764
-0.017412225 0.0008398923 -0.0017893213 0.0002784831 -0.00511736 -0.006002236 -0.003630089 0.0013264777
0.01187589 -0.009447368 -0.015052316 0.013320559 0.007854924 -0.003515094 0.0015492135 0.013563563
-0.0076025245 0.012192756 -0.019167254 -0.002675079 -0.010156044 -0.00799068 -0.012165107 0.0015054721
0.00029290045 0.006199415 -0.006613158 -0.016909294 0.0064208154 -0.013746739 0.0069157598 0.00203503
-0.0013793552 0.009117425 -0.0063980212 -0.02129467 0.00044501422 0.009071499 0.0077106124 -0.0011378244
-0.004673434 -0.006509369 -0.022686504 0.00725864 -0.012623026 -0.024001908 0.019109946 0.003934099
0.002358986 0.0027152717 -0.0056997263 0.003343571 0.0073071076 -0.0027501788 -0.011499169 0.011069332
-0.009378826 0.014679167 -0.009851948 -0.0051858146 -0.009624602 0.004907765 -0.009424013 0.0020507462
-0.0051768883 0.013268582 0.0066430336 -0.0051316563 -0.008505796 -0.010368841 -0.0012008516 -0.010076423
0.019876808 0.009936334 -0.0040950486 -0.006065993 -0.00093576324 0.00048693502 -0.001109052 -0.014722252
0.0057713864 0.013520821 -0.010146243 -0.0043455632 -0.0067588384 -0.0076621165 0.01107369 -0.00577646
-0.0037815177 -0.014968818 0.010949013 0.014531779 -0.011094597 0.01430732 -0.006050483 -0.013008616
0.012988918 -0.017234605 -0.0036434296 0.0050798967 0.0020813483 -0.005591737 -0.0049614995 0.0051253936
-0.02146613 0.00014531157 -0.013323129 0.015217075 0.001998805 -0.015521687 0.0058355317 0.0008720566
0.01112685 0.009157346 0.005207636 -0.0025974133 0.00978137 -0.007910564 -0.00878291 0.008472979
0.008619911 -0.0062733805 0.01716948 -0.0003456831 -0.0020891838 -0.0050203092 0.0023957316 0.009670744
-0.0053979605 0.0026310526 0.012227767 0.004005255 -0.008764508 0.0005898388 0.018890288 0.0070543387
0.0070749903 0.013941184 0.00085760275 -0.0064879004 -0.0009721186 -0.001465255 -0.0024168054 0.00070672395
00000000: 73a0 8e3c 7bcb 103c 965d 813b 8a81 6a3b
00000010: 793a c4ba 4faa 813c f90f 40bc 107c 123c
00000020: 5f8e 593c 252b 873a d2e6 8a3c ec55 853b
00000030: c755 943b 1792 b3ba 7554 53bc 96a9 c3bb
00000040: a8b4 d73b 68d5 5d3b 681e 903b 5932 cfb9
00000050: 793a 453b 7bb8 56bb 3663 873b 988f 103c
00000060: b3ee 83bb 9c0d fa3b a76a b63a 0fcc 033b
00000070: a68d a0bb acfd 1cbb 64a3 57bc cd1c b0b9
00000080: 8671 2f3c 07ed 573c 09e5 433b 2026 a63b
00000090: 441a 12bc 9727 fcbb a52d 463a e197 ae3b
000000a0: 19d6 cbbb 5213 fc3b 08b2 e3bb ca96 81bc
000000b0: 9e8e ff3b 4fe7 78bb 47b1 a93a 9dda 2ebc
000000c0: 4d47 c93b b208 9d3b 54fc dfbb fcad 3e3b
000000d0: 97fb 21bc eb30 feba 8342 65bb 45c7 11bc
000000e0: 5256 f2bb 83af 223c ba68 ad3b ef32 313b
000000f0: 3619 aebc b236 94bb 0b92 efbb a747 0b3c
00000100: 8dbd a0bc eb46 a3bb 3c6b 82ba 970e df3b
00000110: 95db 9c3c eab5 253b 6ff7 4a3c 5cd7 afbb
00000120: 7677 2d3c 290a 003b 71c0 cdba 41ae 2ebc
00000130: 01dc b23a 95ba 54bb 8b1d 4c3a 8801 663b
00000140: 6c24 153b a405 91bb 2806 5b3c e6f1 b7bb
00000150: 2260 08bb b632 4cbc e815 51bb da85 31bc
00000160: 1d0d 183c db70 21bc 7c4b 5bbc 3d5d 993b
00000170: 3ffc c43c 2fe7 753b 906c 123a 4ea3 7b3b
00000180: 9ff8 a73a e932 67bc 7a57 443b b8f1 e23a
00000190: fee7 03bc f475 9ebb b213 83bb ce4e 083c
000001a0: 7e4c a6bb 92b9 bebc ab55 ba39 6d26 cf3a
000001b0: 06f3 4c3b 4b9f a13b ffb0 9dbc 9172 1bbc
000001c0: 15a4 8ebc 382c 5c3a a987 eaba 5e01 9239
000001d0: 87af a7bb 68ae c4bb cae6 6dbb 35dd ad3a
000001e0: 1893 423c 22c9 1abc fd9d 76bc 793e 5a3c
000001f0: f0b1 003c 7e5d 66bb fb0e cb3a b539 5e3c
00000200: 991e f9bb 20c4 473c a504 9dbc 6150 2fbb
00000210: 8965 26bc 57eb 02bc 2850 47bc 4353 c53a
00000220: 6f90 9939 7624 cb3b 31b3 d8bb 5c85 8abc
00000230: b465 d23b 013a 61bc 999d e23b 235e 053b
00000240: 7bcb b4ba 4161 153c 7ea6 d1bb 2972 aebc
00000250: cc50 e939 a0a0 143c 4ea9 fc3b 0d23 95ba
00000260: 9b23 99bb 8b4c d5bb 0cd9 b9bc e3d9 ed3b
00000270: cfd0 4ebc a69f c4bc 768c 9c3c 9de9 803b
00000280: 3899 1a3b b3f2 313b c5c4 babb d01f 5b3b
00000290: 7670 ef3b 583c 34bb 0367 3cbc 255c 353c
000002a0: a6a9 19bc e480 703c 116a 21bc c4ed a9bb
000002b0: 82b0 1dbc 51d1 a03b 2d67 1abc d065 063b
000002c0: e3a2 a9bb 7764 593c cead d93b 7427 a8bb
000002d0: e55b 0bbc 12e2 29bc e565 9dba 9517 25bc
000002e0: b0d4 a23c 01cc 223c c22f 86bb 3dc5 c6bb
000002f0: 024e 75ba 504b ff39 9c5d 91ba 9a35 71bc
00000300: e61d bd3b 6f86 5d3c 6d3c 26bc 3a65 8ebb
00000310: 3f79 ddbb 7e12 fbbb 6c6e 353c 7548 bdbb
00000320: 57d3 77bb c63f 75bc 7d63 333c b316 6e3c
00000330: 1dc6 35bc 4069 6a3c 2143 c6bb 1722 55bc
00000340: 79cf 543c 962f 8dbc 9bc6 6ebb 4375 a63b
00000350: 3b67 083b e43a b7bb 1394 a2bb ebf2 a73b
00000360: bdd9 afbc c75e 1839 4149 5abc 0a51 793c
00000370: 62fe 023b ad4e 7ebc fd37 bf3b ba9a 643a
00000380: 644d 363c b108 163c d1a4 aa3b 5d39 2abb
00000390: 0a42 203c 4f9b 01bc 32e6 0fbc 40d2 0a3c
000003a0: 873a 0d3c ee90 cdbb 02a7 8c3c cd3c b5b9
000003b0: b0ea 08bb 6881 a4bb b501 1d3b 0a72 1e3c
000003c0: 60e1 b0bb bd6d 2c3b f956 483c 843e 833b
000003d0: 0399 0fbc 699f 1a3a cebf 9a3c 1528 e73b
000003e0: 52d5 e73b 9069 643c bfd0 603a 7498 d4bb
000003f0: c6d5 7eba cd0d c0ba 4463 1ebb 7143 393a

network_body._body_endoder.seq_layers.0.bias f4 [128]
0.001077205 0.0013448868 -0.00073902676 -0.0003556065 0.002146994 0.0014725336 -0.0011773697 -0.0027439122
0.0001686847 -0.0032372356 -0.0009982834 0.001021677 -0.000527526 0.00036839873 0.002138554 0.0023275984
-0.004246474 -0.0031645088 -0.00065479777 -0.002067214 -0.0011866452 0.00051819393 -0.001726074 0.0011696421
-0.001761517 -0.004706521 -0.0014620341 0.0075715 0.0010172541 0.0011486852 0.0003467762 -0.0015989706
4.3606327e-05 -0.0012034738 -0.005213448 0.0014298114 -0.002121229 -0.0062569343 0.0013627859 0.0019945488
0.0032432023 0.009165636 -0.00047860885 -0.004343893 -0.0011004506 -0.0015470295 -0.00028046232 -0.0009376993
-0.00048631363 0.00018805475 -0.0052543585 -0.0049942126 -0.002567958 0.00092647335 -0.0022593827 0.010206732
0.0007597785 0.00027623808 -0.0013142074 -0.0052042766 -0.0033519813 0.0010314661 -0.003548522 0.0008642128
-0.0011693765 0.0024294371 0.0026181003 0.0021028346 -8.3815205e-05 0.002817513 -0.0014756738 -0.0016532467
-0.0033198628 0.0010343891 -0.003930213 -0.0018451242 -0.0025705744 0.0008860409 -0.00089244905 0.0017371747
-0.0006065842 8.1456565e-05 5.5690834e-05 -0.0073682615 -0.0018753592 -0.0005857627 -0.0007102525 0.00071974355
0.008471702 0.0020839067 -0.0012895446 -0.0033367637 -0.004600773 -0.00016714347 -0.0013626249 -0.005941958
0.003579002 -0.0005611792 0.0005569022 -0.0012980022 -0.007906943 0.0012459209 -0.0028423206 -0.0007698454
-0.002585267 0.002814558 -0.00010757794 -0.0013219665 -5.9772425e-05 -0.0019214276 0.0016324499 0.0039298427
-0.0017973734 -0.0041683256 -0.003128346 -0.00092318974 -0.0040838216 0.0015571835 0.0005236555 0.0018347912
-0.0016304832 0.000972134 0.0014918606 9.7064374e-05 0.0009328497 -0.0014461791 -0.0028263812 0.0009215695
00000000: 0031 8d3a ea46 b03a 3fbb 41ba b270 bab9
00000010: 95b4 0c3b 0702 c13a f951 9aba 35d3 33bb
00000020: f4e0 3039 cd27 54bb d5d8 82ba cbe9 853a
00000030: ac49 0aba a425 c139 fb26 0c3b 9f8a 183b
00000040: 0126 8bbb a663 4fbb bca6 2bba 197a 07bb
00000050: 3589 9bba 68d7 073a 6f3d e2ba ad4e 993a
00000060: b4e2 e6ba 2939 9abb b9a1 bfba 581a f83b
00000070: 6255 853a 7b8f 963a 84cf b539 8d94 d1ba
00000080: f0e5 3638 e1bd 9dba 92d5 aabb 8268 bb3a
00000090: 5104 0bbb f806 cdbb 829f b23a fab6 023b
000000a0: e88b 543b 772b 163c cbed fab9 3757 8ebb
000000b0: ff3c 90ba b2c5 caba 040b 93b9 efcf 75ba
000000c0: e9f7 feb9 9030 4539 c12c acbb 7ea6 a3bb
000000d0: 304b 28bb 93de 723a 2712 14bb 233a 273c
000000e0: df2b 473a 0cd4 9039 7c41 acba a388 aabb
000000f0: eaac 5bbb 4232 873a 528e 68bb 578c 623a
00000100: c445 99ba 3137 1f3b 6f94 2b3b b6cf 093b
00000110: f2c5 afb8 06a6 383b 656b c1ba c1b1 d8ba
00000120: 0e92 59bb 5794 873a 04c9 80bb 18d8 f1ba
00000130: 1577 28bb 3345 683a 3ef3 69ba e9b1 e33a
00000140: 2d03 1fba a9d3 aa38 9495 6938 7571 f1bb
00000150: 9dce f5ba df8d 19ba 3d30 3aba 2cad 3c3a
00000160: e5cc 0a3c 2792 083b f005 a9ba 9bad 5abb
00000170: 15c2 96bb 3c43 2fb9 1b9a b2ba c2b4 c2bb
00000180: b18d 6a3b 191c 13ba 13fd 113a ba21 aaba
00000190: 1f8c 01bc 2b4e a33a 3a46 3abb 73cf 49ba
000001a0: 956d 29bb 7374 383b 779b e1b8 d645 adba
000001b0: 27b4 7ab8 69d8 fbba eef7 d53a e9c5 803b
000001c0: d895 ebba 7396 88bb f004 4dbb 3702 72ba
000001d0: 94d1 85bb 681a cc3a ed45 093a 607d f03a
000001e0: f0b5 d5ba cfd6 7e3a 898a c33a 0a8f cb38
000001f0: 7c8a 743a b88d bdba cf3a 39bb 7b95 713a

network_body._body_endoder.seq_layers.0.weight f4 [128, 66]
0.17309958 -0.0076192864 0.039850917 0.1455386 -0.17858422 -0.10298086 0.0659873 0.117487274
-0.020235607 0.033802006 -0.038639534 -0.22277947 0.09522143 -0.011082496 0.1886839 0.14116217
0.17427826 -0.03205104 -0.10415559 -0.06156972 -0.05589618 0.09877574 -0.03695709 0.070690736
-0.041872885 0.2429692 0.03541836 -0.3330257 0.027355433 0.23034243 -0.016185608 0.11964876
0.012154065 -0.083237834 -0.023786588 -0.0063659865 0.020469557 0.09691143 0.015105079 0.06910989
0.07694463 0.021393841 0.11901403 0.008553234 0.19758637 0.08419253 0.18752308 -0.007258301
0.0047919177 0.009162211 -0.030053997 0.31794888 0.12822527 -0.13732181 0.045248315 0.20464605
-0.12848176 0.050104197 -0.27009758 0.11740395 0.044199064 -0.081057005 -0.038281903 -0.0046902243
0.13469405 -0.113866806 -0.104207814 -0.17160834 -0.036793828 -0.21989408 0.09824098 -0.16982162
0.017754344 0.28250757 0.054003496 0.08634189 0.118031286 0.027630202 0.21639463 -0.13259466
-0.058335975 -0.08133887 0.073711686 0.14917275 -0.09306219 0.20261894 0.044030212 -0.038194727
-0.037126765 0.09038869 0.020943949 -0.10038711 -0.013633029 -0.023711286 0.24802901 0.036462296
0.09332617 -0.0642497 -0.18310216 -0.086793154 0.17913468 0.069002196 -0.14935842 0.22467437
0.18127635 -0.15975875 0.04835473 0.022385513 0.27141064 -0.13611491 -0.060296256 -0.09829089
0.10065904 0.06584324 -0.010118177 -0.07971364 -0.024968656 0.11161832 0.10720647 0.005256113
-0.034779295 -0.018119827 -0.045742173 0.10514228 0.11821543 0.23434815 0.16798626 0.18186072
-0.14666533 0.056395523 -0.042962823 -0.034065012 -0.09597149 -0.007541759 0.08512043 0.1015006
0.016558956 -0.05335648 -0.025642652 -0.1523912 -0.042228818 0.024725735 -0.07533934 0.15364395
0.105099864 0.039733276 -0.12211966 -0.19906962 -0.18615918 0.085468404 0.21897891 -0.065410316
0.1425643 0.16190074 -0.13543959 0.06621006 0.17262061 0.02540329 -0.018155077 -0.17121346
0.443504 -0.039203223 0.21069206 -0.16383058 0.081816435 -0.12659208 0.19425778 0.029006764
0.07369371 -0.000497458 -0.085281976 -0.12701641 0.028366636 -0.07064715 -0.12405276 0.03556428
0.067147456 -0.022323802 -0.08097309 0.0015456729 -0.06604605 0.053181347 -0.11845261 -0.13171284
0.037478354 -0.20134789 -0.05326115 0.04757223 0.113537 0.00062363537 0.045205884 -0.2989202
-0.13896982 0.18499076 0.042353462 0.059926674 -0.025761254 0.110266775 0.046210144 -0.24442308
0.18127604 -0.2069957 0.09989548 -0.014518632 0.113566004 -0.025974149 0.092763975 0.07193485
-0.14775048 0.29285622 -0.24038085 -0.056986976 0.009248281 -0.0371208 0.033775557 0.29201168
-0.055563405 0.039861616 0.09117659 0.058358666 0.015649121 0.08099851 -0.088777445 0.0056480872
0.03748594 -0.033473074 -0.018280521 0.16087918 -0.059835438 -0.0064552845 0.124821335 -0.11354471
0.0342841 -0.042186044 -0.052998148 -0.19142784 -0.05710933 -0.20267081 0.03548707 -0.039239116
-0.004846191 -0.07461721 -0.35698634 0.19371484 0.19181997 0.11470572 -0.1273607 -0.120047055
0.10847327 0.07332063 0.1519114 -0.13879819 0.29730237 -0.13922708 0.114530414 0.07195864
00000000: 0441 313e 35ab f9bb b73a 233d 1208 153e
00000010: c8de 36be a1e7 d2bd 5924 873d 2b9d f03d
00000020: 25c5 a5bc f973 0a3d 7d44 1ebd 4d20 64be
00000030: 7403 c33d 5b93 35bc 5a36 413e d18c 103e
00000040: 0076 323e f447 03bd 874f d5bd 8830 7cbd
00000050: 65f3 64bd ef4a ca3d 5160 17bd 4ec6 903d
00000060: e782 2bbd ebcc 783e d812 113d 5882 aabe
00000070: 8018 e03c e3de 6b3e ae97 84bc 690a f53d
00000080: d821 473c 9978 aabd 17dc c2bc c499 d0bb
00000090: c6af a73c 8079 c63d 4b7b 773c 7c89 8d3d
000000a0: 2595 9d3d 2342 af3c a1bd f33d dd22 0c3c
000000b0: 1554 4a3e 226d ac3d 0d06 403e 0bd7 edbb
000000c0: 8505 9d3b 191d 163c cd33 f6bc 32ca a23e
000000d0: 7c4d 033e 179e 0cbe 4c56 393d bc8e 513e
000000e0: b990 03be 0f3a 4d3d 3b4a 8abe 7b71 f03d
000000f0: 140a 353d 3701 a6bd 7ccd 1cbd 74b0 99bb
00000100: 3ded 093e 0033 e9bd e86a d5bd 19ba 2fbe
00000110: 20b5 16bd ea2b 61be 9132 c93d b8e5 2dbe
00000120: 8f71 913c d5a4 903e c532 5d3d 04d4 b03d
00000130: 63ba f13d bc58 e23c 8e96 5d3e e5c6 07be
00000140: b4f1 6ebd fe94 a6bd 27f6 963d bec0 183e
00000150: 6497 bebd 577b 4f3e 0659 343d 1372 1cbd
00000160: 3c12 18bd b51d b93d a592 ab3c c297 cdbd
00000170: 115d 5fbc 2c3e c2bc 51fb 7d3e 7d59 153d
00000180: cb21 bf3d 5995 83bd 227f 3bbe 9cc0 b1bd
00000190: 156f 373e 0651 8d3d 6af1 18be 0a11 663e
000001a0: 82a0 393e cc97 23be 9c0f 463d d361 b73c
000001b0: 56f6 8a3e b561 0bbe 35f9 76bd bc4c c9bd
000001c0: 5426 ce3d d2d8 863d b6c6 25bc e840 a3bd
000001d0: 118b ccbc 2598 e43d 118f db3d 793b ac3b
000001e0: bc74 0ebd 0870 94bc 255c 3bbd d654 d73d
000001f0: ee1a f23d f6f8 6f3e 9704 2c3e b239 3a3e
00000200: 702f 16be fefe 663d c9f9 2fbd c187 0bbd
00000210: b38c c4bd dc20 f7bb 9f53 ae3d 8cdf cf3d
00000220: a6a6 873c 538c 5abd 8a10 d2bc 700c 1cbe
00000230: 20f8 2cbd a08d ca3c 834b 9abd d754 1d3e
00000240: 993e d73d 5cbf 223d df19 fabd e8d8 4bbe
00000250: 83a0 3ebe 0f0a af3d 023c 603e d8f5 85bd
00000260: 60fc 113e 4fc9 253e adb0 0abe 2499 873d
00000270: 75c3 303e 8f1a d03c f5b9 94bc 9552 2fbe
00000280: f512 e33e 8f93 20bd a9bf 573e 34c3 27be
00000290: 608f a73d 5ba1 01be 83eb 463e 989f ed3c
000002a0: baec 963d d767 02ba 51a8 aebd 9710 02be
000002b0: 2661 e83c 74af 90bd 600f febd daab 113d
000002c0: 9b84 893d 68e0 b6bc 38d5 a5bd 2d98 ca3a
000002d0: 2743 87bd afd4 593d 4897 f2bd bbdf 06be
000002e0: e782 193d 242e 4ebe 5d28 5abd 19db 423d
000002f0: 1686 e83d 767b 233a ce29 393d 120c 99be
00000300: 1b4e 0ebe 386e 3d3e d37a 2d3d ac75 753d
00000310: 4409 d3bc 8cd3 e13d d946 3d3d 0b4a 7abe
00000320: 6da0 393e aef6 53be 0096 cc3d 8edf 6dbc
00000330: 4b95 e83d bdc7 d4bc 0afb bd3d 9452 933d
00000340: e74b 17be 40f1 953e 6626 76be 2d6b 69bd
00000350: 1a86 173c fb0b 18bd 3d58 0a3d 8e82 953e
00000360: 7496 63bd ef45 233d cbba ba3d 7f09 6f3d
00000370: 9632 803c 8ce2 a53d f3d0 b5bd 9713 b93b
00000380: db8a 193d 101b 09bd 08c1 95bc 83bd 243e
00000390: 0116 75bd da86 d3bb 54a2 ff3d 218a e8bd
000003a0: 7c6d 0c3d 46cb 2cbd 9614 59bd a905 44be
000003b0: 79eb 69bd f088 4fbe e45a 113d 32b9 20bd
000003c0: cccc 9ebb e8d0 98bd eac6 b6be 2f5d 463e
000003d0: 746c 443e d5ea ea3d d86a 02be 3bdb f5bd
000003e0: 3c27 de3d 2029 963d a98e 1b3e 1d21 0ebe
000003f0: 0438 983e 8b91 0ebe ec8e ea3d 0d5f 933d

network_body._body_endoder.seq_layers.2.bias f4 [128]
0.00069030566 -3.9917642e-05 0.0005945344 -0.0005596101 0.0010063183 0.000687619 -0.006698452 -0.00029957495
0.00041759023 -0.0031311242 0.0013213109 -0.0021627804 -0.00011352597 -0.006385233 -0.0006418622 -0.0012246417
-0.0020636572 -0.00029786024 0.0023416032 -0.0021383325 0.002097135 -0.0022653926 0.00013225038 0.00022313622
0.004426387 0.0065842373 0.0016560004 -0.0029201866 0.0019743857 0.0017532277 0.0014935067 -0.0024741543
0.0023340208 0.00097154995 0.0036708072 -0.002859516 -0.00067417265 -0.0028918465 0.0012922543 -0.001059154
-9.247909e-06 0.0016575691 0.004022766 -0.0019363568 0.002887149 0.0002437278 -0.0007155091 0.0056278314
0.002226505 -0.0022710077 0.00035143242 -0.00035058722 -0.003231286 0.0010143813 0.001183755 -0.0028227959
-0.0015629451 -0.00087559206 -2.3253102e-05 0.0006805445 -0.0020976497 -0.000498002 -0.0026870694 -0.002643865
-0.0010305365 -0.0019486446 0.00844537 0.00029718145 0.0010410297 0.00036493546 -0.00631435 -0.0013257121
0.00056627375 0.00088910747 0.00015714443 -0.0020928092 0.00058249384 -0.000557402 -0.0008007802 0.0014663725
-0.00050940923 0.0012215639 0.0006813262 -0.0023664723 -0.0003154479 -0.0028793786 0.00030807286 -0.0013811599
0.00048824702 -0.0020733902 0.0063157347 -0.0021701916 0.0006274129 0.004119296 -0.0022153 0.0016994165
-0.0007765235 0.00070635194 -0.0027058895 0.0027047005 0.001458602 -0.0032983446 0.00043269544 -0.00042144296
1.8153423e-05 -0.00032030838 -0.0017936595 -0.002454891 3.176918e-05 0.008390987 0.00090749795 0.0012464869
0.00025225276 -0.003976988 -0.002544544 0.00015982264 0.0010920367 1.2802516e-05 0.0013474411 0.003250856
-0.00096287683 0.0006307998 -0.0022458339 0.00028922578 0.00061379425 -0.00058691757 -0.0031633885 0.0003188628
00000000: a1f5 343a 3e6d 27b8 87da 1b3a ccb2 12ba
00000010: 70e6 833a 5441 343a b07e dbbb 4510 9db9
00000020: 03f0 da39 8c33 4dbb d62f ad3a 6fbd 0dbb
00000030: cb14 eeb8 373b d1bb a542 28ba 2884 a0ba
00000040: 6c3e 07bb 202a 9cb9 9575 193b 4423 0cbb
00000050: 1670 093b fb76 14bb b1ac 0a39 acf9 6939
00000060: 3a0b 913b 96c0 d73b 270e d93a 9a60 3fbb
00000070: b264 013b 8fcc e53a c5c1 c33a 6c25 22bb
00000080: 5ff6 183b 9daf 7e3a ed91 703b b866 3bbb
00000090: f6ba 30ba 2285 3dbb dc60 a93a 50d3 8aba
000000a0: 7727 1bb7 ca42 d93a 68d1 833b 5acd fdba
000000b0: 5336 3d3b 2f91 7f39 0191 3bba ac69 b83b
000000c0: 8eea 113b 30d5 14bb 7640 b839 05cf b7b9
000000d0: fcc3 53bb fdf4 843a 3a28 9b3a a8fe 38bb
000000e0: bcdb ccba fd87 65ba a80f c3b7 9166 323a
000000f0: b978 09bb 598c 02ba 8b19 30bb b244 2dbb
00000100: 1113 87ba aa69 ffba 735e 0a3c 05cf 9b39
00000110: 2973 883a cf54 bf39 9be8 cebb 84c3 adba
00000120: fd71 143a fe12 693a 23c7 2439 8327 09bb
00000130: 80b2 183a 9d1e 12ba 73eb 51ba 4c33 c03a
00000140: e089 05ba e21c a03a 079b 323a d116 1bbb
00000150: b362 a5b9 f5b3 3cbb d784 a139 0908 b5ba
00000160: 68fb ff39 b7e1 07bb 39f4 ce3b c639 0ebb
00000170: f878 243a 29fb 863b 912e 11bb f5be de3a
00000180: 9c8f 4bba 7a2a 393a 4b55 31bb 5841 313b
00000190: 902e bf3a 0a29 58bb 66db e239 1ef5 dcb9
000001a0: 2e48 9837 10ef a7b9 3a19 ebba 3de2 20bb
000001b0: e63f 0538 5a7a 093c 28e5 6d3a 2961 a33a
000001c0: cb40 8439 6551 82bb 5dc2 26bb 1096 2739
000001d0: ac22 8f3a 63ca 5637 9f9c b03a 500c 553b
000001e0: 9269 7cba 425c 253a d72e 13bb 3aa3 9739
000001f0: 09e7 203a 5fdb 19ba da50 4fbb 0a2d a739

network_body._body_endoder.seq_layers.2.weight f4 [128, 128]
0.1002042 -0.0022411451 0.083715275 0.0541382 0.09651206 0.09201176 -0.100140244 0.14067227
0.102902606 -0.094380975 -0.015678242 0.07382496 -0.15589713 -0.05670523 -0.035129145 -0.052486654
-0.06493278 0.08491571 -0.25462815 -0.019201709 0.052926935 0.21372227 0.11643713 0.09679377
0.113239 -0.09489409 -0.07667269 0.11040691 0.01439291 0.024850555 0.060960934 0.11129931
0.045453675 0.028276237 -0.039610896 -0.11679609 0.08735549 0.04271804 -0.054514512 0.008732019
0.05245131 -0.013515021 0.18766187 0.037399553 -0.011984306 0.08685086 -0.0036136087 -0.01624026
-0.089020334 -0.016124984 0.06853415 -0.015087081 -0.03756625 0.0013120493 0.007674625 0.016727313
-0.032629192 -0.0026164593 -0.031821486 0.0062822322 -0.10201474 0.08862355 0.008771643 -0.13687962
-0.14803189 0.041389506 0.009470969 0.013923459 -0.12936331 -0.20567024 -0.018127078 -0.067908294
0.03561993 0.2613657 0.17187314 -0.16653939 0.058039885 0.022412244 -0.11385594 -0.0016049958
0.080444016 0.10912496 0.071601376 -0.048931956 0.18623994 -0.05876438 -0.15360932 -0.028217234
0.16106226 -0.07067068 0.0027550154 0.06523216 0.068463586 -0.08476563 0.08680323 0.024774905
0.01659461 0.050891668 -0.022239203 -0.10866744 0.09655175 0.09872363 -0.06344901 0.18688685
-0.15673313 0.07076112 0.11705108 0.19322686 -0.015121982 0.06532853 -0.02285473 0.17853951
-0.08091607 -0.05298826 -0.034684457 -0.033972602 0.14506944 0.073329575 -0.02194832 0.091468506
0.09853726 -0.025159406 0.06345378 0.0033375612 -0.02571664 0.12547986 0.021651857 -0.0089525515
-0.013448794 -0.15813753 -0.07175565 0.03558455 -0.06736731 -0.05495414 0.08854765 -0.08839517
0.06879198 0.13781968 0.06039445 -0.14451148 -0.12014719 -0.0048569688 0.021865737 0.042518303
0.024911735 -0.06680234 0.11429875 -0.035866275 -0.030474866 -0.05220765 0.02403081 0.025262693
-0.062328354 0.082532845 -0.09372372 -0.010481556 -0.0013339639 0.07265471 0.015666835 -0.11021237
-0.11583617 -0.0557545 -0.053662077 0.056712195 -0.081111975 -0.0463637 -0.24986447 -0.02926571
-0.011855207 -0.005858759 0.022772064 0.11073579 0.0011503365 -0.047593884 -0.07391814 0.096136816
-0.030968249 0.04356834 -0.047300536 -0.05392908 0.084953986 -0.09664534 -0.01866198 0.042973667
0.110889636 -0.12269416 -0.0025170515 0.042381797 0.138866 0.080577075 -0.019801142 -0.047805883
0.00066376996 0.15915398 -0.004141536 0.031078996 0.022820797 -0.0846617 -0.01682087 -0.1134798
0.11313559 -0.15853594 0.031912547 -0.12344551 -0.02603387 0.02761703 0.07575957 -0.118623935
0.0003606885 -0.018087866 0.1431884 0.06340724 -0.022546908 0.12232737 0.16767871 -0.032060504
0.10267669 -0.11795052 -0.06388857 -0.07975171 -0.054584503 0.11659162 0.101857424 0.0048025255
-0.03677928 0.0756904 -0.17201966 0.12948982 0.0071852463 0.10189528 -0.02744529 -0.05591019
0.120433986 -0.017436517 0.11327567 0.18919817 0.019515915 0.06435764 -0.021514293 -0.06680315
-0.093616255 -0.0018988561 0.119726375 0.099654555 -0.11840224 0.13778825 0.15579039 -0.088048525
-0.14558366 0.12614006 0.108507924 -0.044005577 -0.03738518 -0.059424877 -0.06715576 -0.1535898
00000000: dc37 cd3d 2de0 12bb ea72 ab3d 04c0 5d3d
00000010: 1da8 c53d a970 bc3d 5416 cdbd 640c 103e
00000020: 9abe d23d d04a c1bd a86f 80bc 8a31 973d
00000030: 7fa3 1fbe be43 68bd 94e3 0fbd 3ffc 56bd
00000040: 7afb 84bd 4ae8 ad3d 9f5e 82be e74c 9dbc
00000050: eac9 583d 03da 5a3e 9776 ee3d d03b c63d
00000060: d9e9 e73d d557 c2bd 9206 9dbd 051d e23d
00000070: 3dd0 6b3c 6493 cb3c 2cb2 793d e5f0 e33d
00000080: a22d 3a3d 91a3 e73c 093f 22bd ca32 efbd
00000090: 6fe7 b23d 1df9 2e3d 9c4a 5fbd be10 0f3c
000000a0: 2fd7 563d 1b6e 5dbc 6f2a 403e 4630 193d
000000b0: d359 44bc ddde b13d 4bd2 6cbb 4b0a 85bc
000000c0: 4b50 b6bd 8b18 84bc a25b 8c3d ce2f 77bc
000000d0: 11df 19bd 12f9 ab3a 6c7b fb3b b807 893c
000000e0: 30a6 05bd e778 2bbb 3f57 02bd 2fdb cd3b
000000f0: 1bed d0bd 4480 b53d f0b6 0f3c 2c2a 0cbe
00000100: ac95 17be 0b88 293d 202c 1b3c 381f 643c
00000110: d177 04be 389b 52be 3d7f 94bc 8113 8bbd
00000120: 34e6 113d bad1 853e 83ff 2f3e 4d89 2abe
00000130: 3bbb 6d3d e299 b73c 4e2d e9bd b95e d2ba
00000140: d5bf a43d e87c df3d bea3 923d e06c 48bd
00000150: afb5 3e3e ebb2 70bd c34b 1dbe d427 e7bc
00000160: 81ed 243e cabb 90bd 7d8d 343b 7098 853d
00000170: a336 8c3d 9a99 adbd e4c5 b13d bef4 ca3c
00000180: 6bf1 873c c873 503d fd2e b6bc 098d debd
00000190: edbc c53d 9d2f ca3d 8ef1 81bd 445f 3f3e
000001a0: a67e 20be 35eb 903d 7ab8 ef3d 43dd 453e
000001b0: 31c2 77bc f7ca 853d d839 bbbc 10d3 363e
000001c0: 53b7 a5bd 380a 59bd 4a11 0ebd db26 0bbd
000001d0: 158d 143e d12d 963d f7cc b3bc d753 bb3d
000001e0: e7cd c93d 191b cebc 0ef4 813d fcba 5a3b
000001f0: b4ab d2bc cb7d 003e 3c5f b13c b9ad 12bc
00000200: 5558 5cbc ceee 21be a0f4 92bd 1bc1 113d
00000210: dff7 89bd 9817 61bd 7858 b53d 8708 b5bd
00000220: cfe2 8c3d 9a20 0d3e 2c60 773d d1fa 13be
00000230: bb0f f6bd 3527 9fbb c61f b33c ac27 2e3d
00000240: b213 cc3c aacf 88bd 7715 ea3d 84e8 12bd
00000250: 6da6 f9bc b0d7 55bd 43dc c43c b5f3 ce3c
00000260: 044c 7fbd fb06 a93d 39f2 bfbd d5ba 2bbc
00000270: 67d8 aeba fecb 943d bc57 803c 06b7 e1bd
00000280: 843b edbd d55e 64bd c4cc 5bbd 0c4b 683d
00000290: 091e a6bd dde7 3dbd 79dc 7fbe a4be efbc
000002a0: 583c 42bc d5fa bfbb 7b8c ba3c 72c9 e23d
000002b0: e3c6 963a cef1 42bd 6562 97bd 61e3 c43d
000002c0: 20b1 fdbc b774 323d 35be 41bd bde4 5cbd
000002d0: 5bfc ad3d feed c5bd 02e1 98bc 2805 303d
000002e0: 1b1a e33d 1347 fbbd 1ef5 24bb 8998 2d3d
000002f0: e432 0e3e 9805 a53d 0136 a2bc 1ad0 43bd
00000300: d900 2e3a 43f9 223e b9b5 87bb 6199 fe3c
00000310: aef2 ba3c 1d63 adbd eccb 89bc 1968 e8bd
00000320: a2b3 e73d 3f57 22be bbb6 023d 00d1 fcbd
00000330: fc44 d5bc 1c3d e23c d527 9b3d 1bf1 f2bd
00000340: ca1a bd39 012d 94bc fb9f 123e a8db 813d
00000350: 4bb4 b8bc c686 fa3d f8b3 2b3e e051 03bd
00000360: 2848 d23d 0b90 f1bd 03d8 82bd dd54 a3bd
00000370: 0094 5fbd 96c7 ee3d a09a d03d 815e 9d3b
00000380: dfa5 16bd 9203 9b3d ec25 30be fb98 043e
00000390: 3772 eb3b 79ae d03d f2d4 e0bc 1502 65bd
000003a0: 18a6 f63d 07d7 8ebc 13fd e73d 2abd 413e
000003b0: d7df 9f3c f0cd 833d be3e b0bc 17d0 88bd
000003c0: e1b9 bfbd 0ae3 f8ba 1a33 f53d b017 cc3d
000003d0: e07c f2bd 5d18 0d3e 8487 1f3e c952 b4bd
000003e0: e213 15be dc2a 013e 6739 de3d 313f 34bd
000003f0: 3421 19bd 8067 73bd f688 89bd a546 1dbe
