results/ppo/MlAgent/MlAgent-16128.onnx (onnx, 134638 bytes, 7 tensors)

action_model._continuous_distribution.log_sigma f4 [1, 3]
000000 4f 45 85 bb c4 67 58 ba 48 1a 59 ba
       -0.0040671 -0.00082552084 -0.0008281809

action_model._continuous_distribution.mu.bias f4 [3]
000000 ef ff a1 39 52 4a bb b9 37 b0 f4 b6
       0.00030898998 -0.00035722792 -7.2922808e-06

action_model._continuous_distribution.mu.weight f4 [3, 128]
000000 62 1e 87 bc 5a 96 09 3d ad e7 8b 3a 50 3b b4 39
       -0.01649398 0.033590652 0.0010673903 0.00034376467
000010 0b 59 cd 3b 41 7b ca bc a8 0d eb bb 51 1e 3e bc
       0.0062667183 -0.024716975 -0.007173259 -0.011603908
000020 b6 fe 5c 3c 52 be 16 bc e9 ac ce 3a d2 1a 4f 3c
       0.013488462 -0.009200649 0.0015768084 0.012640672
000030 f9 7a 30 3b ad 47 7a bc 6f 90 00 bd c5 31 ac 3c
       0.0026928766 -0.015275878 -0.031387743 0.021019826
000040 65 67 4a bc aa 06 a6 bc fe 58 04 bc ff 7d 13 bc
       -0.012353753 -0.02026685 -0.008077858 -0.009002208
000050 f8 e1 00 bc d2 a1 41 bc 75 1e c6 bc bb a4 70 bc
       -0.007866375 -0.011818366 -0.024184445 -0.014687712
000060 f2 b2 59 bc 28 58 54 3c f1 14 2a bc f7 4c 06 bd
       -0.013287293 0.012960471 -0.010380969 -0.032788243
000070 f3 fd a4 3c a9 e5 c4 bb e4 fc 42 3d 90 e5 7e 3c
       0.020140624 -0.006008823 0.047604457 0.015557662
000080 1d b5 03 bc 7f ee a6 3c 46 84 d7 3c e6 db e2 3b
       -0.008038786 0.020377396 0.02630819 0.0069231866
000090 36 e1 30 ba 7a 5e c7 bc 2e 0f 84 bb 3e 73 99 bc
       -0.0006747426 -0.024337042 -0.00403013 -0.01873171
0000a0 20 45 23 3c 2e cd ad bc 43 19 5b 3a 2c d1 16 bc
       0.009965211 -0.021216001 0.00083579513 -0.009205144
0000b0 d9 b6 db 3b 4b d4 9c 3c f2 97 de 3b f3 51 d8 bc
       0.0067051467 0.019144198 0.0067930156 -0.026406264
0000c0 a6 49 2f bc 44 dd 06 bd a0 d4 85 b8 a0 42 a4 bc
       -0.0106987115 -0.03292586 -6.381539e-05 -0.0200513
0000d0 cf 07 e6 39 78 77 72 bc 2a f0 3c 3c 7d 58 51 3c
       0.00043874836 -0.014798991 0.011531869 0.012777445
0000e0 39 04 c1 bb 1b e5 05 3b e2 54 cb 3c 6e 79 be bc
       -0.005890396 0.0020430747 0.024820749 -0.023251262
0000f0 97 99 0a bd a0 47 8b 3c 2f 7c d1 bb 82 bc 14 3c
       -0.03383788 0.017001927 -0.0063929777 0.009078147
000100 de 88 70 bb 13 3a 58 bb 98 65 86 bc 3f ab 5b 3b
       -0.0036702673 -0.00329936 -0.016405866 0.0033518819
000110 a7 a4 ea bc b6 46 32 bc 20 7e 92 3b 5a cd 5e bc
       -0.028642965 -0.010881117 0.0044706017 -0.013598764
000120 e5 77 8d 3c 51 bf 10 3d 04 c9 9e 3b 58 1e e5 3c
       0.017269084 0.035338704 0.0048457403 0.02796857
000130 0e ed 80 bc 54 26 91 bb 42 30 f4 3b a0 99 f3 bb
       -0.015738036 -0.004429618 0.007452042 -0.007434085
000140 07 e7 94 3c 74 83 84 bb 46 bb fc 3b d5 43 ed bc
       0.018176569 -0.0040439907 0.0077127544 -0.028963009
000150 ef 52 66 3c 06 be 5f 3b fc ac 4e 3c c8 56 0a 3c
       0.014057859 0.0034140362 0.012614485 0.008443542
000160 a2 e7 8a bb 99 fd 3d bc 59 48 ae 3b 3b f3 9c 3c
       -0.0042390386 -0.011596107 0.005318683 0.01915895
000170 27 f3 3b 3a 61 0f 30 3b 76 96 c3 3c 56 24 44 3c
       0.00071697164 0.0026864635 0.023875456 0.011971554
000180 79 0f d4 3a 48 ba 5b 3d f0 fc ca 3c 85 21 98 3c
       0.0016178928 0.05364445 0.024778813 0.01857067
000190 2e 35 b7 bc 42 43 30 bc 5c f7 a2 39 04 81 5b 3c
       -0.022364225 -0.010758223 0.00031083345 0.013397459
0001a0 b2 38 0b 3c 4e 1e 20 bc 90 7a 2c 3c 10 d8 0b 3c
       0.008497404 -0.00977285 0.010527268 0.0085354
0001b0 cd 33 47 bc 60 47 42 bc 62 8a 7d 3c 30 87 bc ba
       -0.012158346 -0.011857837 0.015474888 -0.0014383551
0001c0 cc 99 38 bd 91 1b 23 bd 3e 48 c1 bc 75 12 fb bb
       -0.045068547 -0.03982121 -0.023594018 -0.0076621124
0001d0 14 a4 a4 3c 3f c4 d5 3b da 1f be 3c 93 91 1d bc
       0.02009777 0.0065236385 0.023208547 -0.009617227
0001e0 70 9f c5 bc 0f e4 b9 3c 0f 89 31 bd 6d d3 cc bc
       -0.024123877 0.022691755 -0.0433436 -0.02500316
0001f0 33 6c e3 bb ba d0 1f 3a 24 a6 08 3d 9e 24 bf bc
       -0.0069403886 0.00060964713 0.03336157 -0.02333289
000200 12 90 50 bd f4 1f 47 3c e2 4c 99 3c 5d 67 60 bc
       -0.050918646 0.012153614 0.018713418 -0.013696519
000210 5e 33 58 39 f3 ce 8c 3a 68 67 5c 3c 39 9c cb 3c
       0.00020618501 0.0010742828 0.013452388 0.024854766
000220 1d f2 35 bc 9e 70 b5 bc 63 89 2d bc 4e 3c 91 bc
       -0.011105088 -0.022148427 -0.010591838 -0.01772895
000230 8d 95 05 3a 05 44 f7 bc ad 44 a2 bc 46 b3 a0 3b
       0.0005095832 -0.030183801 -0.019808138 0.0049041836
000240 32 ba 1b 3d d1 85 45 bd 1e 90 c4 3b 55 50 f4 bb
       0.038019367 -0.04822332 0.0059986254 -0.0074558654
000250 b8 4e 30 3b a6 14 1b bb 88 57 a0 3c 64 99 54 bc
       0.0026902389 -0.002366343 0.019572988 -0.012976024
000260 16 ef ae bc a9 f3 11 3d 13 cf 99 3b 3b d9 29 3a
       -0.02135424 0.035632763 0.0046938746 0.0006479208
000270 eb 3a 03 bd 70 34 9e bc 06 5c 2e ba bf 3a c4 bb
       -0.03203861 -0.019312114 -0.0006651286 -0.0059884484
000280 2c 96 43 bc 0d 94 a1 3c 22 93 57 3c ef ea d6 bb
       -0.011937659 0.019723916 0.013157638 -0.006558768
000290 ec f0 45 3c 6d 88 c2 3c 6d bb 5c 3c 00 0e 05 bb
       0.012081366 0.023746694 0.01347242 -0.0020302534
0002a0 e8 1b dd ba 6c a6 c1 3c 1c 6b bf bc d0 b0 b2 3c
       -0.0016869279 0.023638926 -0.023366503 0.021812826
0002b0 22 b8 8a bc 23 60 d9 3b 50 56 bf bb bf b8 8f bc
       -0.016933504 0.006633775 -0.0058391467 -0.017544148
0002c0 3e a0 ca 3c 9b 74 85 bc 1a 23 c7 3b 7b 9f f7 bb
       0.024734613 -0.016290953 0.0060771825 -0.0075568534
0002d0 cb 8e b7 3c b4 7b 63 bd 79 be 8a ba 79 a1 99 3b
       0.022406956 -0.055537894 -0.001058533 0.0046884385
0002e0 bf 04 dd bc a4 18 92 bc 60 1b 08 bd 7c 02 e8 bc
       -0.026979802 -0.017834015 -0.03322923 -0.028321497
0002f0 d3 4e a8 bc 18 9d c1 bc 06 e4 80 3b 40 83 07 bd
       -0.020545399 -0.023634478 0.0039334325 -0.033084154
000300 e3 38 68 3c 7a e3 99 3c 10 7a ad 3c 0a 8f bf bc
       0.014173719 0.018785227 0.021176368 -0.023383636
000310 cc d2 47 3b 8a e3 67 bb a2 cb 10 bc 92 de 00 bd
       0.0030490635 -0.0035383427 -0.008837612 -0.03146226
000320 e6 7f 0b bc ca 57 10 3c 1b 8a 0b bc 50 ef f4 bb
       -0.00851438 0.008809993 -0.008516814 -0.0074748173
000330 08 24 7d 3c 3f 3d 7b bc 18 6d a3 3c ed 49 a1 3a
       0.015450485 -0.015334426 0.01994948 0.0012305357
000340 c2 8d da bc e2 5d bc 3b f8 41 db 3c bf 2d 13 3c
       -0.026678924 0.0057484964 0.026764855 0.008983075
000350 ee dc 34 bc b3 c4 06 3a 1f 20 59 bc 19 15 46 3b
       -0.011039002 0.0005141005 -0.013252287 0.0030224978
000360 e0 b7 56 3c 02 fd 10 bd 06 26 bd bc 4e ac 1a 3b
       0.013105363 -0.035397537 -0.02308942 0.0023601237
000370 4d 8b 60 bc 93 32 b4 ba 6d 4c 9c 3c 4a ad 9d 3a
       -0.013705087 -0.0013747982 0.019079411 0.0012029794
000380 60 30 90 3c 00 56 1c 3a 87 20 a1 3a a4 af 99 bc
       0.017601192 0.0005963743 0.0012293019 -0.01876051
000390 03 3b f8 3b 8d e1 47 bb f1 0f 8a bb eb 85 47 bc
       0.007575394 -0.003049943 -0.004213326 -0.012177925
0003a0 79 e2 e8 3c 6e cb 91 3c 6f 43 54 3c ad c4 22 3b
       0.028428303 0.017797198 0.012955531 0.0024836466
0003b0 48 59 75 bb 16 17 f4 bc 2e 2a 4d 3c 16 f7 09 3b
       -0.003743725 -0.029796164 0.012522263 0.0021051816
0003c0 f5 55 67 3c db 9c a6 bc 70 8f 6c bc a2 a1 b2 bc
       0.014119615 -0.020338466 -0.014438495 -0.021805588
0003d0 9c 35 05 3d 0c 98 b0 3c 5d 2a f0 3c 63 2a 2f 3b
       0.03252183 0.021556877 0.029317075 0.0026728145
0003e0 da 50 da 3b 4d cd 16 bd 86 b6 57 3c 27 44 17 bb
       0.0066624703 -0.036816884 0.013166076 -0.0023081393
0003f0 72 5a 59 3c 62 40 df bc a5 51 a1 bb 45 5f b5 3b
       0.013266193 -0.02725238 -0.004923063 0.0055350387

network_body._body_endoder.seq_layers.0.bias f4 [128]
000000 88 56 d8 39 5b 89 fa b9 1a 35 32 ba ca 4d ae b9
       0.000412632 -0.00047786054 -0.0006798074 -0.00033245824
000010 64 b7 f2 38 68 27 6a 3a 0b ac 7b b9 f5 2e e3 39
       0.000115736184 0.00089322636 -0.00024001316 0.000433318
000020 d9 80 df 3a 2c ee 98 39 a3 43 c5 b9 00 df 1d 3a
       0.0017051949 0.0002916915 -0.0003762516 0.00060223043
000030 06 d7 92 b9 af 20 78 b7 12 27 ac b9 ac 80 ea b9
       -0.00028007495 -1.4789562e-05 -0.00032835506 -0.00044727826
000040 f8 bd f4 39 11 0e ff 39 da df 29 b9 c2 f8 14 ba
       0.00046680844 0.0004864787 -0.00016200487 -0.000568282
000050 1b ab 4b bb a9 15 9e ba 8a 6b bd b9 54 1f c6 39
       -0.0031077329 -0.0012060899 -0.00036129012 0.00037788844
000060 3c f6 95 b9 e7 76 6b b9 92 9f e3 ba 37 16 a4 b9
       -0.00028602954 -0.00022455641 -0.0017366281 -0.0003129707
000070 c9 0a 27 ba 46 8a 20 ba 0b 98 23 3a 8b 22 79 b9
       -0.00063721515 -0.000612412 0.0006240613 -0.00023759359
000080 8f 63 ce 39 27 01 95 39 cf 09 25 3a de 7e a0 b8
       0.0003936556 0.00028420353 0.0006295712 -7.6530254e-05
000090 fa 6c 14 3a 34 38 39 39 41 2f 6a ba 2e 5a 9a ba
       0.0005661991 0.00017663912 -0.0008933433 -0.0011776143
0000a0 7f 8a d4 b9 8c ff d0 37 e3 e5 2d ba 92 26 fd 39
       -0.0004053898 2.491453e-05 -0.0006633682 0.00048284658
0000b0 d0 2a 0d b9 ca 37 8b ba af d8 01 ba 4b b5 2e 3a
       -0.00013462757 -0.0010621485 -0.0004953248 0.0006664588
0000c0 35 7b 91 b8 d9 d4 15 b9 9f 76 1d 3a b4 7f 05 b8
       -6.937088e-05 -0.00014289039 0.00060067506 -3.1828604e-05
0000d0 71 5c cd b9 75 93 c3 3a b1 12 c9 38 b4 d3 a8 b9
       -0.0003916952 0.0014921265 9.5879084e-05 -0.00032201188
0000e0 95 a5 d3 ba bc ec eb 39 ab 61 38 ba 52 f6 56 38
       -0.001614737 0.00044999074 -0.00070335966 5.125098e-05
0000f0 f2 67 a3 39 9c d8 18 ba 59 48 51 3b 1b 18 cd b9
       0.00031167228 -0.0005830617 0.0031933992 -0.00039118607
000100 a9 b6 bf b6 47 e1 e6 39 c8 12 9a 39 28 1e c7 38
       -5.713508e-06 0.00044036863 0.00029387162 9.4946765e-05
000110 cf e8 c5 b8 6b 1f 80 3a 67 e3 c1 b9 c4 36 d4 39
       -9.437056e-05 0.0009774988 -0.00036981257 0.00040476595
000120 37 3b e0 3a d1 10 d5 b9 81 a8 cf b9 f9 8f 6f ba
       0.0017107491 -0.00040639055 -0.00039607662 -0.000913858
000130 9f c8 72 b8 d2 c1 9f b9 c6 cf bf 39 f3 8e 25 b9
       -5.788414e-05 -0.0003047125 0.00036585162 -0.00015788879
000140 94 90 f9 b9 ed 22 c4 39 6f f9 65 38 dd 20 7c 39
       -0.000476007 0.00037410055 5.4830158e-05 0.00024044835
000150 ad a9 18 3a 48 a1 b6 39 13 d5 62 3b b1 d9 a7 b9
       0.00058236235 0.0003483391 0.0034611865 -0.00032014915
000160 34 7a 52 b9 9b 5a 95 ba 67 6e b8 b9 f0 03 ce 38
       -0.00020072685 -0.00113948 -0.0003517747 9.823579e-05
000170 e6 59 11 3a ef e4 84 b9 8b cd 12 ba 13 ba 05 ba
       0.0005544707 -0.0002534757 -0.00056000863 -0.00051012746
000180 70 25 0a 39 e0 f7 99 b8 59 30 39 3a 58 f7 74 39
       0.00013174652 -7.341779e-05 0.00070643943 0.00023361796
000190 0b 27 bd b9 4d d7 a0 39 de 42 8d 39 9c 66 ab 3a
       -0.00036077978 0.0003067799 0.00026943436 0.0013076845
0001a0 11 33 12 39 a3 bd fd b9 4f 06 d6 38 1f 0e 68 3a
       0.00013942669 -0.0004839721 0.0001020549 0.0008852202
0001b0 af 15 d5 b9 ad 9b 18 38 3d 5b 38 ba 33 ab 9e 3a
       -0.0004064268 3.638461e-05 -0.00070326385 0.0012105465
0001c0 4c 54 8b b9 c1 3c fd ba f1 09 74 39 cf 9a 20 3a
       -0.00026574952 -0.0019320474 0.00023273357 0.0006126584
0001d0 38 05 b7 b9 0b cb 19 b9 67 2d cd b9 32 74 c2 39
       -0.00034908368 -0.00014666856 -0.00039134474 0.00037089136
0001e0 c3 10 83 b8 fe 9d 18 3a 07 30 8f b7 52 11 3d b8
       -6.249689e-05 0.00058218825 -1.7069293e-05 -4.5077242e-05
0001f0 12 91 8e b9 56 7f 4d ba cf 60 af 39 c9 ea 10 39
       -0.00027192436 -0.0007839104 0.0003345073 0.00013820374

network_body._body_endoder.seq_layers.0.weight f4 [128, 126]
000000 a4 4f ba 3d 56 a3 c9 3d b4 45 ff ba 2d bc 49 3d
       0.090972215 0.09845607 -0.0019475729 0.049251724
000010 39 5f e6 3c 0f c0 b8 bd ec a1 26 3e 23 2c ed bd
       0.028121578 -0.09021007 0.16272706 -0.11580684
000020 36 98 5b bc 40 34 f0 3d be 74 09 3d d7 65 73 3d
       -0.013402989 0.11728716 0.0335586 0.059423294
000030 88 83 ec bd 69 88 f5 bd 75 9c 79 3d ef 36 c1 bc
       -0.11548525 -0.11988909 0.060940225 -0.023585765
000040 24 6b 4e 3b cc 38 82 3d 1b 5c 7e bd 8a 06 b7 3d
       0.0031496966 0.063584894 -0.062099557 0.08936794
000050 c5 8e cb bd 05 3a 27 bd 04 6e 43 3d 9d 04 14 bd
       -0.099393405 -0.040826816 0.04771234 -0.036137212
000060 04 3f b0 bc aa 38 5f 3d a3 ba 08 3e 74 97 47 3c
       -0.021514423 0.0544974 0.13352446 0.012182105
000070 7f 6e ea 3d c6 eb 54 3d 0c bb a6 3d 1d bb b1 3d
       0.11446857 0.051982664 0.08141145 0.08678267
000080 2f 45 94 3d d7 8c a4 ba 02 3a d4 bd b1 32 99 bd
       0.07239758 -0.001255418 -0.103626266 -0.07480372
000090 08 f5 1a 3e 88 8a 92 bd 6e 03 25 be 93 f5 50 3e
       0.15132535 -0.07155329 -0.1611459 0.20406179
0000a0 79 a1 81 3e b5 89 52 3d 36 30 03 3b cc 48 6e 3d
       0.25318506 0.05140086 0.002001775 0.058174893
0000b0 20 28 29 be b7 4e fd 3c 7c 80 cc 3d b4 33 ce 3d
       -0.16519213 0.030921323 0.09985444 0.10068455
0000c0 91 9a c1 3c 48 52 b7 bd 77 ca 41 3d 90 20 80 bd
       0.023633273 -0.08951241 0.047312226 -0.06256211
0000d0 11 05 6e 3c bd 80 46 bd b4 db e4 bd 36 63 7c bd
       0.014527575 -0.04846262 -0.111747175 -0.061618052
0000e0 3b a4 6f bd 96 d1 75 3e b7 0b 95 3d b4 b3 b4 3d
       -0.05850623 0.24005732 0.07277625 0.08823338
0000f0 d9 05 06 be aa 9c fb 3d de ae 6a be 87 42 1b bc
       -0.13088168 0.12285741 -0.22918269 -0.009476311
000100 45 ca 42 3c 72 39 9e bb d0 d2 30 bd 43 2a 00 3e
       0.011889045 -0.0048286254 -0.043169796 0.12516122
000110 b8 06 05 3d 16 33 13 be e4 74 d1 bb 99 ac cd 3d
       0.03247711 -0.14374956 -0.0063921083 0.10042686
000120 e1 4c da bc 21 4d 5d 3e 05 d8 3c 3d d1 2e 09 3d
       -0.026647987 0.21611454 0.04610445 0.033491913
000130 88 dd 56 3c c3 6e 24 be cc b3 24 3d a3 7b d9 bd
       0.013114341 -0.16057877 0.04021053 -0.10619285
000140 3f 25 61 bd 2f c5 41 bb eb bd 87 3d 06 b5 ff bc
       -0.05496716 -0.0029566993 0.06628021 -0.031214248
000150 d8 c9 09 bd 51 aa 32 3d 54 44 00 be d5 2e da 3d
       -0.03363976 0.043619458 -0.12526065 0.10653464
000160 b7 4e a7 bd 41 40 4f bc 17 42 de bd a3 36 db 3d
       -0.081693105 -0.012649597 -0.108524494 0.107037805
000170 99 cf 2c bb 69 38 be bc 8e 66 9c 3b 91 93 52 3d
       -0.0026368855 -0.023220258 0.0047729677 0.05141026
000180 33 0f 12 be 22 19 fb bc 96 11 da 3d 14 4f c6 3c
       -0.1426361 -0.030651633 0.106478855 0.02420763
000190 27 db 12 bd 68 65 c0 3d 97 e0 eb 3c 7b 14 94 3d
       -0.03585353 0.09394342 0.028793616 0.07230469
0001a0 e6 10 3a be 44 d1 56 bc fa d0 19 be 71 c1 51 bc
       -0.18170509 -0.013111416 -0.15021124 -0.012802468
0001b0 e4 9d 8a bd bc 76 7c bd 1d df d3 bd c3 e0 16 3d
       -0.067683965 -0.06163667 -0.1034529 0.036835443
0001c0 f4 cf e5 3c 2c fe 7f 3d 30 d7 24 3d 27 21 2c bd
       0.028053261 0.062498257 0.04024428 -0.042023804
0001d0 1c bd d8 3c 15 ac 12 bd fe 82 91 bd c5 dc 6f 3d
       0.026457362 -0.03580864 -0.07105063 0.05856015
0001e0 cb b8 04 be ac 73 89 3d 39 17 33 bd ab d9 4c 3e
       -0.12961118 0.06711516 -0.04372332 0.20004909
0001f0 0d 9e 3f 3d a6 96 f3 3d 1f 41 2a 3c 1a ad dd 3c
       0.04678159 0.11893968 0.010391503 0.02706008
000200 89 64 fc 3b 1e 69 e9 3d 2b 8d 96 bc 40 9c 2a bd
       0.0077024144 0.11397003 -0.018377861 -0.041652918
000210 de e2 83 bc db 60 61 3c 32 c5 02 3e d6 de 04 3c
       -0.01609939 0.013756002 0.12770537 0.008109769
000220 6c 2c a0 bc a7 a4 95 bd af 54 ae 3d f2 72 10 bd
       -0.019552432 -0.073067956 0.08512246 -0.03526587
000230 48 93 82 bd 68 ef 1d bd a6 1e 1b 3d 78 4a 95 bb
       -0.06375748 -0.038558394 0.037871026 -0.0045559965
000240 11 cd 45 bd 5d 01 24 3b af da ea bd 6c 38 84 3d
       -0.04829127 0.0025025227 -0.11467492 0.06456074
000250 0b 31 1c be d2 88 77 bd 06 de 42 3c ab c8 c8 bc
       -0.15253083 -0.060433216 0.011893755 -0.024509748
000260 37 0c 9b 3d 5d dd 96 3d 7c 42 93 3d 77 50 c3 bd
       0.07570689 0.073664404 0.07190415 -0.09536832
000270 74 8c 11 bd 1e a9 76 bd ee 1d 83 3d 22 85 b8 3d
       -0.035534337 -0.060219876 0.06402193 0.09009768
000280 e7 87 5b bd df b9 20 3e d1 68 3b 3d eb 85 85 bb
       -0.053596403 0.15695904 0.045754258 -0.004074802
000290 00 73 f2 3a e7 3c de bd 51 68 26 3d 09 e7 1e 3d
       0.0018497407 -0.1085146 0.040626828 0.03879455
0002a0 56 7b ce 3d b9 ee 5c 3c 86 34 c1 3d 39 35 19 3e
       0.10082118 0.01348465 0.09433846 0.14961709
0002b0 83 13 57 3d 66 ee 04 be 92 e2 99 3c 88 97 52 3d
       0.052508842 -0.12981567 0.018784795 0.051414043
0002c0 75 ca 16 3d dc 92 4b bc e9 60 42 bb 5b 9e 87 3d
       0.03681417 -0.012425151 -0.0029659814 0.06622001
0002d0 b7 d3 70 bd e9 df 74 be e2 18 f5 bb 93 9e 27 3e
       -0.058795657 -0.2391354 -0.007479773 0.16369085
0002e0 77 86 af bb 70 03 3c 3d fd 4f 0d 3d 90 0a f7 bc
       -0.0053566056 0.045901716 0.03450011 -0.030156404
0002f0 81 13 2a bb 49 a1 1a bd e9 87 90 bd c5 51 a2 bd
       -0.0025951567 -0.03775147 -0.07057173 -0.079257526
000300 86 02 a0 3d 2f 36 34 3e 4d 71 87 bd 53 85 2d be
       0.07812981 0.17598794 -0.06613407 -0.1694539
000310 fe f7 88 bc 77 aa 76 bd 67 69 9a bd 7d d0 a1 be
       -0.016719814 -0.06022116 -0.07539635 -0.31604376
000320 5f 58 a9 bd 1b b3 d9 3d 35 42 e4 bd cb c3 e5 bd
       -0.082688086 0.10629865 -0.111454405 -0.11218985
000330 2c c5 23 bd da 2a 2f bd 7f fa 96 bd 13 0c ec bc
       -0.03998296 -0.042765476 -0.07371997 -0.028814351
000340 b0 e8 62 bc 8a be 32 3d b3 7e c4 3d 6c a3 5c 3e
       -0.013849422 0.043638743 0.095944785 0.21546715
000350 48 70 2c 3e a9 0f af 3c 66 cd f5 bc a5 67 aa 3d
       0.16839707 0.021369772 -0.030005168 0.0832055
000360 74 8d a0 3c 6f 1d 9f bd 99 d2 df bd fb f7 11 bd
       0.0195987 -0.07769286 -0.1092884 -0.035636883
000370 be 93 b5 3d 86 67 dd bd b8 62 46 3d 9b 31 05 3d
       0.0886607 -0.10810761 0.04843399 0.03251801
000380 4c 9b df 3d 22 43 71 3d 72 57 21 3e 7c 5b 58 be
       0.109182924 0.058901913 0.15756014 -0.21128649
000390 17 0a 53 3d 90 ce fa bc 46 0f 74 3d 8f 4e da 3b
       0.051523294 -0.030616075 0.05958488 0.006662197
0003a0 cf 6f 09 3d 2c 25 00 3e cd 30 ec bc 69 82 03 bd
       0.033553895 0.1251418 -0.028831864 -0.03210679
0003b0 82 fc 96 b8 e9 df 19 bd 62 a2 0e 3d 16 60 99 3d
       -7.1995906e-05 -0.037567053 0.03482283 0.0748903
0003c0 b4 13 a7 3d f1 1d 28 be ea f8 b8 bb e1 6a 89 3d
       0.08158055 -0.16417672 -0.0056449072 0.06709839
0003d0 83 43 fb bc 56 64 06 be 0d b8 11 3d 03 0a 1b 3d
       -0.03067184 -0.13124213 0.035575915 0.037851345
0003e0 25 d2 82 bd 5d 67 a9 bd 8d ce 4f bd 14 cb cf 3c
       -0.06387738 -0.08271668 -0.05073409 0.02536539
0003f0 0e 6b 36 3d a8 4a b9 bc 4c b6 3d be 7c c4 2e bd
       0.04453569 -0.022618607 -0.18526572 -0.04266785

network_body._body_endoder.seq_layers.2.bias f4 [128]
000000 16 e0 ad 3a 10 af 33 3a 56 55 ec 39 e8 d3 cb b9
       0.0013265635 0.00068543945 0.00045077008 -0.0003887706
000010 c5 31 26 ba 40 11 c1 39 ab 93 bb b9 89 93 ba 39
       -0.00063398137 0.0003682468 -0.0003577744 0.00035586607
000020 b6 b9 a9 b9 52 47 09 3a 20 44 a5 37 92 68 86 38
       -0.00032372557 0.0005236763 1.9701256e-05 6.409096e-05
000030 7e 02 b2 38 b8 da 86 bb 3c f2 ab 39 be e8 01 ba
       8.4881656e-05 -0.004115429 0.0003279614 -0.0004955641
000040 0a 8d 87 3a 32 c5 e1 b9 01 c8 0d b9 a8 45 f2 3a
       0.0010341716 -0.00043062266 -0.00013521315 0.0018483894
000050 b1 71 60 ba ef a1 8a 39 ae 1e a3 b7 a3 8c c1 3a
       -0.0008561863 0.0002644206 -1.94454e-05 0.0014766644
000060 7b b6 5a ba 2a cc 10 ba 30 d7 05 b9 b8 01 2b 39
       -0.0008343232 -0.0005523587 -0.00012764032 0.00016308471
000070 53 6d 01 38 40 7e 6a ba 12 2a 15 38 2f c8 b3 b8
       3.0857813e-05 -0.00089452043 3.556355e-05 -8.572672e-05
000080 d8 f1 36 ba 90 9d 54 3a 46 a6 1d ba 1b be 15 ba
       -0.00069787866 0.0008110637 -0.00060138514 -0.0005712227
000090 02 ad 01 ba 99 26 7c ba af 2a be b9 3a 05 0d 39
       -0.00049467396 -0.00096187886 -0.00036271426 0.00013448755
0000a0 fb b0 c4 38 37 6f a8 b8 f8 db 40 39 da ac 9a b9
       9.3789735e-05 -8.03158e-05 0.00018392492 -0.00029501953
0000b0 f2 06 29 b8 32 dd 90 3a 7e 26 2b 38 d2 ac cc 39
       -4.029921e-05 0.001105225 4.0805426e-05 0.00039038673
0000c0 54 ad cc 38 07 86 19 b8 6e aa 05 ba f7 9f f0 39
       9.759763e-05 -3.6602865e-05 -0.00050989434 0.0004589555
0000d0 44 6e b9 3a 98 71 ce b9 24 df bc ba 3e a4 b1 3a
       0.0014147242 -0.00039376016 -0.0014409763 0.0013552976
0000e0 a2 85 26 39 97 9d 9c 39 41 b3 73 ba c7 1e 06 3a
       0.00015880776 0.00029872052 -0.0009296425 0.00051162805
0000f0 80 a1 f3 39 13 da 49 b8 cd 9f 2c ba 5b 97 03 38
       0.000464689 -4.8125232e-05 -0.00065850915 3.1373795e-05
000100 c7 e6 5b 39 62 e8 8c 39 2b f2 3b ba 08 08 15 ba
       0.00020971439 0.0002687602 -0.000716957 -0.00056850957
000110 73 7c 69 3a 40 26 4e ba 28 90 28 ba 89 86 ed 39
       0.0008906789 -0.0007863976 -0.00064301724 0.000453044
000120 7f 07 40 b9 2e 12 94 39 82 87 61 38 39 ab e9 38
       -0.0001831334 0.00028242305 5.377038e-05 0.000111421985
000130 73 ab 14 b9 30 25 f7 38 34 db bd ba db cd ad b9
       -0.0001417825 0.000117848045 -0.0014484883 -0.00033150506
000140 e7 a2 34 38 a1 df f8 b9 d2 91 1f 39 13 bc 08 b9
       4.306706e-05 -0.00047468863 0.00015217744 -0.00013040034
000150 a5 cf 14 b9 79 58 a2 39 02 06 65 b9 fd 60 20 b9
       -0.00014191733 0.00030964965 -0.0002184138 -0.0001529492
000160 46 34 99 ba 3b dc 17 ba 0f 9e 3f 39 79 1b 1f b9
       -0.0011688552 -0.000579301 0.00018274061 -0.00015173656
000170 27 0e e1 39 0d cb 96 38 aa 2c 89 ba c8 23 cb 39
       0.0004292589 7.1903785e-05 -0.0010465581 0.00038745836
000180 15 72 a5 ba 2d fc 7d ba 43 fb 04 ba e3 fa 29 39
       -0.00126225 -0.0009688761 -0.00050728413 0.00016210559
000190 4b 93 40 b9 95 d9 93 b9 d7 80 66 ba 67 14 20 bb
       -0.00018365418 -0.00028200136 -0.00087930023 -0.0024426223
0001a0 2c c8 93 b9 6c 44 5a ba 14 ec 92 b8 94 a0 89 39
       -0.00028187165 -0.00083262357 -7.0057955e-05 0.00026250316
0001b0 b3 1f ba 39 7c 24 a1 3a c5 42 08 ba e1 b6 aa b7
       0.00035500302 0.0012294198 -0.0005197938 -2.0350739e-05
0001c0 75 a0 b6 38 41 b9 00 bb f6 37 06 3a 24 9c c8 3a
       8.708324e-05 -0.001964167 0.0005120033 0.0015305323
0001d0 b8 a4 55 39 56 ff 17 3a e1 da 4e b9 74 be 04 b9
       0.00020374625 0.0005798241 -0.0001972723 -0.0001265945
0001e0 83 df 57 b9 40 8a d5 38 37 26 1b b9 e1 fc ad 39
       -0.00020587262 0.000101823825 -0.00014796188 0.0003318554
0001f0 9f 35 0a 3b fb 35 8e 39 f9 a9 b9 b9 2c 50 fa b9
       0.002108909 0.0002712457 -0.0003541259 -0.00047743449

network_body._body_endoder.seq_layers.2.weight f4 [128, 128]
000000 bd b6 30 bc 79 fd c4 bd df ae 69 3d ef c5 91 3c
       -0.010785756 -0.096186586 0.057051536 0.017794577
000010 5b 91 9d 3d 5a 7b be 3d 5f ce 50 3e 73 e4 0c 3e
       0.0769374 0.09300871 0.20391224 0.13759021
000020 08 bf 08 be 19 fe 33 3d 09 4b 6d 3b 44 e7 e6 3d
       -0.13354123 0.0439435 0.0036208055 0.11274579
000030 9e d6 75 bd 04 49 a8 3d 66 f4 05 be 22 20 69 3d
       -0.060019128 0.082170516 -0.13081512 0.05691541
000040 5c 6c f8 3d 24 cf cf 3d d9 7e cb bc a4 c7 47 3c
       0.12130043 0.10146931 -0.02484076 0.012193594
000050 78 c1 3c be 43 d3 0e 3e 21 b8 a0 3c 78 0f 26 3c
       -0.18433177 0.13947777 0.01961905 0.010135524
000060 56 0f 04 3e 39 2e 9f bd c5 03 ed bc 30 42 24 3d
       0.12896475 -0.07772488 -0.028932462 0.040102184
000070 c7 4a 4f bd a4 3a 58 be ca 9d 96 3d cc 9a b7 3d
       -0.050608423 -0.2111612 0.073543146 0.08965072
000080 fb a1 24 bd 35 e2 8b 3c d8 9b 22 bd 61 05 d5 3d
       -0.04019354 0.017075637 -0.039699405 0.104014166
000090 fc 41 bf bd 9e 35 4b 3d ee 04 b5 bc 9d 48 f6 3c
       -0.093387574 0.04961168 -0.022097077 0.030063922
0000a0 f6 3b 84 bc bd 70 ae bb 50 7a 79 3d 90 4e 88 bd
       -0.016141873 -0.005323498 0.060907662 -0.066556096
0000b0 c2 c4 24 3e db 7a cf 3d 24 aa af bd 0c a9 27 bd
       0.16090682 0.10130855 -0.085773736 -0.0409327
0000c0 91 c8 bf bd e5 f8 f5 bd df 81 ef 3c 2c 70 16 3d
       -0.09364427 -0.120103635 0.029236732 0.03672807
0000d0 56 0d 98 b9 09 11 1e 3e 4d cf 0f 3d 65 c2 35 bd
       -0.00029001635 0.15436186 0.035109807 -0.044374842
0000e0 14 ea 03 b9 87 55 a0 3d 49 5e e6 bd 4b 0d 20 3e
       -0.00012580334 0.07828813 -0.11248452 0.15630071
0000f0 09 08 f1 3d ca 2a 00 3e 74 79 3d be f1 0b 19 be
       0.11769111 0.12516323 -0.18503362 -0.14945962
000100 ea a2 9a 3d 6f 21 aa 3d 03 3e 39 bd b7 58 b4 3d
       0.07550605 0.08307158 -0.045225155 0.088059835
000110 a8 57 01 3a b8 9b 9f 3d 11 2e 9f 3d 83 c8 45 3d
       0.0004934021 0.07793373 0.07772458 0.048286926
000120 50 9a e6 bd dd 49 5d bd 99 18 88 bd d3 61 8b bc
       -0.112599015 -0.05402552 -0.06645317 -0.01701442
000130 7e 57 cf bd 41 d5 b8 3b 5b dd f8 bc b8 76 5e 3d
       -0.1012411 0.005640656 -0.030378988 0.054312438
000140 10 27 b7 bd 57 e5 ce bc a6 c7 bc 3c 3a 51 0d be
       -0.089429975 -0.025255842 0.023044419 -0.13800517
000150 da 92 00 3d 90 35 6d 3c 0d eb d9 bc 1c b9 1d 3d
       0.03139005 0.014478102 -0.026601339 0.038506612
000160 80 bc 6a bd ba d6 88 3d 67 08 ac 3d 8f 57 b0 3d
       -0.057308674 0.06681581 0.0840004 0.086104505
000170 63 96 88 3d 3f 3a 13 be f2 2c 94 3d 45 9a 0e be
       0.06669309 -0.14377688 0.07235135 -0.13926037
000180 72 87 5f 3d 61 a4 bf bd 80 ad 15 3d 37 28 ff 3c
       0.05457253 -0.09357525 0.036542416 0.031147106
000190 dd 1c 12 be 37 29 33 bd 33 82 5d be 53 b5 38 3d
       -0.14268823 -0.043740477 -0.21631698 0.0450948
0001a0 b5 b1 86 be d2 62 4c bd f9 6d 55 bd e6 3c 61 bd
       -0.26307455 -0.04989893 -0.05210683 -0.054989718
0001b0 4e 58 bc 3c 7c c9 c7 3c d6 a1 64 3d 90 a6 d1 3c
       0.022991326 0.024388067 0.0558184 0.025592119
0001c0 d5 13 d6 bc 00 1d a8 bd 12 4a 43 bb 59 1c f4 3d
       -0.026132504 -0.08208656 -0.0029798788 0.119194694
0001d0 83 82 81 bd 93 f4 83 3d 62 b6 6c 3a 56 6d a8 3d
       -0.06323721 0.06443133 0.00090298627 0.08223979
0001e0 e1 6a c5 bd 4e 88 e1 3d 6f d2 8c 3d b1 6c 78 bc
       -0.09639526 0.11012326 0.068760745 -0.015162633
0001f0 0b 7c c9 3c ef 8e 87 3d 57 79 d7 bd 1d 4f e2 bc
       0.024595281 0.06619059 -0.105211906 -0.027625615
000200 4a 63 e9 3c ba bb 2a bd bf 7c f5 bd 21 d8 57 3d
       0.028489728 -0.041682936 -0.11986684 0.05269635
000210 3f 21 17 bd 35 6e 1c bd f2 2f ab bd 5c b5 78 bc
       -0.03689694 -0.03819104 -0.08358754 -0.015179958
000220 9b 5c e6 bd ac 2d 98 bd a1 63 4d 3d 1e 0c b4 bd
       -0.11248132 -0.07430586 0.05014384 -0.08791374
000230 68 48 0d 3e 6f 0f ff bc b6 e0 22 bd 19 4b 6d 3d
       0.13797152 -0.031135289 -0.039765082 0.057932947
000240 85 48 2f 3c 7d 50 2f 3d 05 2a 6f bc 62 c0 75 bd
       0.010698442 0.04280137 -0.014597421 -0.059997924
000250 20 77 c6 3b f3 b8 40 bd 04 c1 5d 3e 62 d8 91 bd
       0.0060566813 -0.04705138 0.21655661 -0.0712135
000260 e0 0c 34 be 64 96 9a 3d 59 a9 1f 3d 8e 71 08 3e
       -0.17583036 0.07548216 0.038979862 0.13324568
000270 d3 e6 2c bd b5 34 1a 3e cd 66 41 bd 78 48 93 3d
       -0.04221232 0.15059169 -0.04721718 0.07191557
000280 be 90 1f bc 5a dc 90 bc 37 19 dc bd 3d f3 dc ba
       -0.009739099 -0.017683197 -0.10746997 -0.0016857159
000290 bb ea 6c bd 03 86 03 3c b0 41 40 3e aa 4a e3 3c
       -0.057841044 0.008027556 0.18775058 0.027745564
0002a0 38 5c 0e 3d 19 40 86 3d 93 cb 07 3c 65 44 f5 3d
       0.034755915 0.065551944 0.008288282 0.11975936
0002b0 aa e7 af bb 1c ce 06 bd 7b dc 34 3e 63 f5 67 bd
       -0.0053681927 -0.032911405 0.17662232 -0.056630503
0002c0 bb 1e e4 3d ce 43 84 bd 83 7c 60 3d 4e 1c b4 bc
       0.11138674 -0.06458245 0.054806244 -0.021986153
0002d0 12 bd 7a bd 38 b9 81 bd 1d 2d 4b 3c 62 a6 b4 3d
       -0.061215468 -0.06334156 0.012400893 0.088207975
0002e0 c2 de 1e 3e 04 92 09 bd 20 8f d1 bc a5 fa a2 3c
       0.15514663 -0.033586517 -0.025580943 0.019894907
0002f0 fe 36 92 3d 8b 28 54 3d 46 b7 6f bc 30 ec 38 be
       0.07139395 0.051796477 -0.014631098 -0.18058848
000300 6b b7 8d 3c 8c 92 8b bd c2 c3 87 3c 09 e7 e6 3c
       0.017299375 -0.06815061 0.016572837 0.028186338
000310 7d 92 8c bd cc 3c ce bc f9 a6 16 3e 39 be 71 3d
       -0.06863878 -0.025175475 0.14712133 0.0590193
000320 99 f3 c4 bd 5a fc ce 3b 7b b7 51 3d 21 74 78 3d
       -0.09616775 0.0063167037 0.05120037 0.060657624
000330 cd 16 ed bc 2a be d7 bc a4 7b 96 3d 42 9a 9f 3a
       -0.028941536 -0.026335794 0.07347801 0.001217671
000340 ce 5c f0 bd e5 07 4e 3c 18 0c 9f 3d 9c 52 f0 3d
       -0.11736451 0.012575124 0.077659786 0.117345065
000350 d7 63 c0 bd 3c 67 ca bc 85 70 61 bd 46 f9 70 bd
       -0.09394043 -0.02470743 -0.055038948 -0.058831476
000360 1e 19 80 3d 28 b8 9b 3d ad 10 1a bd be 77 ce 3d
       0.06254791 0.076034844 -0.03761356 0.10081433
000370 33 2f cf bd 35 47 50 3e 74 51 a2 3d c2 0e 50 3d
       -0.101164244 0.20339663 0.07925692 0.050795324
000380 ce 23 85 bd a2 82 fb 3d 1f 48 a6 3d ac 53 d1 bd
       -0.0650097 0.122807756 0.08119225 -0.10221037
000390 be 2d ac bd e0 ce f5 bc 93 d8 02 be e9 0f 47 bd
       -0.08407162 -0.030005872 -0.12777929 -0.048599157
0003a0 94 7c c0 3a a5 e0 92 bc 9b 6b 2b 3d 76 d1 d9 bc
       0.0014685565 -0.017929384 0.041850667 -0.026589137
0003b0 07 af 92 bd 08 4b 17 be b7 6f 63 3d 9c 4c 21 3d
       -0.0716229 -0.14774716 0.05552646 0.0393797
0003c0 9d 2d aa bd e5 27 bf 3d c4 68 76 bd 09 61 1e 3e
       -0.08309481 0.09333781 -0.060158506 0.15466703
0003d0 b7 a6 b4 bd e9 2b fd 3d fe 3b 07 3e 7d c9 da bd
       -0.08820861 0.12361891 0.13206479 -0.10682962
0003e0 b4 23 0d bd ac d5 20 bb ac 0f d5 bd 45 ab db 3c
       -0.034457877 -0.002454142 -0.1040338 0.026815066
0003f0 8e b1 9b 3d d2 cc f8 3c 8d af 33 bc 60 7c 0d 3e
       0.07602225 0.030371103 -0.010967148 0.13816977
