results/ppo/MlAgent/MlAgent-12760.pt (torch, 809567 bytes, 36 tensors)

network_body._body_endoder.seq_layers.0.weight f4 [128, 126]
0.0051863524 -0.09936604 -0.04781366 -0.07436109 -0.014671064 -0.01252199 -0.08902275 0.034332514
-0.04100597 -0.043495286 0.0070104287 0.018149607 0.033999074 -0.18867444 -0.019242683 0.051442757
0.14934257 -0.06242822 0.211555 0.107653685 0.007073873 0.032009616 0.065558895 -0.19877988
0.10789887 -0.041963812 -0.07912859 0.10663535 -0.036027506 0.012003016 0.098433666 -0.11471583
-0.0909685 0.08090797 0.0984706 0.099479884 0.2361392 0.18043195 -0.057455327 -0.013238826
-0.05102608 0.05306111 -0.02730671 0.12732655 -0.03937021 -0.20070812 0.014137818 -0.093411356
-0.096909836 -0.0063812733 -0.09981331 -0.06589676 -0.038633637 0.09406656 -0.013738884 0.15714148
-0.0532368 0.093475886 -0.1302155 0.03365591 0.06334203 0.054604672 -0.07796889 -0.013119052
0.12981026 0.010003152 0.09893725 0.14026064 -0.039731074 -0.15826084 -0.049856596 0.11250842
-0.013867097 0.108764976 -0.04373392 0.005825171 -0.06658343 -0.002513953 0.052675627 -0.065942965
-0.029407639 0.053408746 -0.04270471 0.017445954 -0.033749346 0.081768945 0.04756042 0.06772953
0.12425759 0.0311689 -0.024980435 0.0632082 0.010497655 0.13270786 -0.023820983 -0.021380752
0.16727772 -0.15334293 0.11279393 0.051914707 0.044676438 0.015859133 0.0011557644 0.031774383
0.008988208 0.068866685 -0.011857933 -0.0924166 0.06745246 -0.024991076 0.030790746 0.079929784
0.04986804 -0.14366181 -0.005509255 -0.04483188 0.018536802 0.013480521 0.15100686 -0.029169565
0.08492532 -0.07151922 0.050818477 -0.060716983 0.044895895 -0.10219666 0.020632962 -0.06442734
-0.07400074 -0.04938662 -0.060548734 -0.11075712 -0.06524919 0.06776953 0.00933831 0.04612122
-0.041673277 0.19659449 -0.13723156 -0.054606814 0.1040668 0.022609608 -0.067495644 -0.024902845
0.0034396849 0.098623104 -0.056138195 -0.06433511 0.010393084 -0.047279444 -0.043175995 -0.080478415
-0.06846172 0.11703196 0.048034422 0.103796616 -0.010291733 -0.02476411 -0.10155205 0.011861424
0.07872909 -0.0985745 -0.09443165 0.16948831 -0.17182866 -0.15905851 -0.04550027 0.0007064999
-0.06991493 5.845835e-05 -0.011177898 0.010820691 -0.072968826 -0.08654569 0.095754355 -0.017215528
-0.01153994 -0.04119392 0.023442114 -0.11433152 -0.038129117 -0.15576586 0.043809127 -0.11203617
-0.01930532 -0.0560209 0.0998564 0.032086045 -0.01953655 0.10457194 -0.060700074 0.12118286
-0.10673403 0.06665508 0.026363583 -0.031482317 0.061984718 0.012582679 0.018580427 -0.0002322938
0.07458249 -0.08179224 0.12559463 -0.08118987 -0.02274227 0.14614156 -0.075619906 0.0034243856
-0.044886455 0.0011124269 0.057713024 -0.010675034 -0.028134804 -0.08513435 -0.11059838 -0.2225763
-0.038745984 0.12318398 -0.027710766 0.17049858 -0.051407702 0.0643942 0.08410314 -0.14209345
0.0110262465 0.038355768 0.016802063 -0.11076134 0.054135613 -0.07354728 -0.17964235 0.06476663
0.16128619 -0.03559527 0.0133051025 -0.15752013 -0.0072169183 -0.14525707 0.09747825 0.10534248
-0.1022953 -0.06472979 -0.04554272 0.11725113 0.015182586 -0.008860644 -0.055950917 0.008574342
-0.13709831 -0.06404545 -0.21007304 -0.011964033 0.04226002 -0.014064133 0.07540158 -0.109359756
00000000: 47f2 a93b 6c80 cbbd 42d8 43bd a14a 98bd
00000010: e75e 70bc 0829 4dbc 8f51 b6bd 40a0 0c3d
00000020: e0f5 27bd 1d28 32bd bdb7 e53b 7cae 943c
00000030: 9d42 0b3d df33 41be d5a2 9dbc a4b5 523d
00000040: 42ed 183e bcb4 7fbd e0a1 583e 8979 dc3d
00000050: f3cb e73b 841c 033d be43 863d f48c 4bbe
00000060: 15fa dc3d 3fe2 2bbd 2c0e a2bd a263 da3d
00000070: 9491 13bd 4ca8 443c 9797 c93d 22f0 eabd
00000080: b14d babd 14b3 a53d f4aa c93d 1cbc cb3d
00000090: 79ce 713e 27c3 383e 4756 6bbd a9e7 58bc
000000a0: b900 51bd 9b56 593d 52b2 dfbc e461 023e
000000b0: a842 21bd 6e86 4dbe 4ea2 673c 744e bfbd
000000c0: aa78 c6bd 001a d1bb ec6a ccbd e1f4 86bd
000000d0: 4e3e 1ebd f8a5 c03d 0e19 61bc b2e9 203e
000000e0: d50e 5abd 4970 bf3d 3657 05be c8da 093d
000000f0: 77b9 813d 26a9 5f3d 27ae 9fbd 4bf1 56bc
00000100: fbec 043e 43e4 233c 9d9f ca3d 7ca0 0f3e
00000110: 0dbd 22bd 210f 22be 6e36 4cbd d16a e63d
00000120: d232 63bc 2cc0 de3d 5722 33bd 13e1 be3b
00000130: e55c 88bd 22c1 24bb 66c2 573d 1b0d 87bd
00000140: 4ae8 f0bc 21c3 5a3d 22eb 2ebd d1ea 8e3c
00000150: c13c 0abd 7a76 a73d b7ce 423d c8b5 8a3d
00000160: c37a fe3d ec55 ff3c c5a3 ccbc 4d73 813d
00000170: 5bfe 2b3c 92e4 073e 3924 c3bc b026 afbc
00000180: da4a 2b3e ee05 1dbe 8100 e73d 84a4 543d
00000190: a4fe 363d 03eb 813c 057d 973a db25 023d
000001a0: 4743 133c fa09 8d3d c747 42bc ea44 bdbd
000001b0: 8424 8a3d 16ba ccbc e03c fc3c 3ab2 a33d
000001c0: 6e42 4c3d 151c 13be fb86 b4bb a2a1 37bd
000001d0: 7eda 973c 67dd 5c3c 8ba1 1a3e 03f5 eebc
000001e0: 54ed ad3d ab78 92bd 0927 503d 5fb2 78bd
000001f0: c2e4 373d 7c4c d1bd 7506 a93c 7bf2 83bd
00000200: b38d 97bd a049 4abd f301 78bd a1d4 e2bd
00000210: 5ea1 85bd c0ca 8a3d b6ff 183c 9be9 3c3d
00000220: 99b1 2abd 1150 493e 6e86 0cbe 65ab 5fbd
00000230: f920 d53d c937 b93c 283b 8abd 0d01 ccbc
00000240: 566c 613b e9fa c93d 2af1 65bd 20c2 83bd
00000250: c147 2a3c 17a8 41bd 50d9 30bd ded1 a4bd
00000260: a935 8cbd 74ae ef3d bebf 443d 5293 d43d
00000270: a89e 28bc 1ade cabc 85fa cfbd 6b56 423c
00000280: b83c a13d 6de1 c9bd 6265 c1bd 588e 2d3e
00000290: daf3 2fbe 3ce0 22be 7e5e 3abd 6834 393a
000002a0: 8f2f 8fbd 2d31 7538 8123 37bc 4449 313c
000002b0: ae70 95bd de3e b1bd dc1a c43d 9407 8dbc
000002c0: 0412 3dbc f5ba 28bd ad09 c03c a526 eabd
000002d0: 472d 1cbd 1681 1fbe 3371 333d 3873 e5bd
000002e0: 3126 9ebc 2c76 65bd 8381 cc3d a86c 033d
000002f0: 1d0b a0bc d029 d63d a4a0 78bd b82e f83d
00000300: 5f97 dabd 7582 883d 71f8 d73c 9af3 00bd
00000310: b0e3 7d3d 9527 4e3c fb35 983c e493 73b9
00000320: b4be 983d b182 a7bd e19b 003e e046 a6bd
00000330: ff4d babc 22a6 153e 9cde 9abd a86b 603b
00000340: dcda 37bd dace 913a 7e64 6c3d 56e6 2ebc
00000350: f67a e6bc eb5a aebd 6781 e2bd 0beb 63be
00000360: 1cb4 1ebd e247 fc3d b001 e3bc 2e97 2e3e
00000370: e290 52bd 1be1 833d 443e ac3d f280 11be
00000380: 6ea7 343c f01a 1d3d 7ba4 893c d7d6 e2bd
00000390: 4ebd 5d3d f59f 96bd 2af4 37be 5ea4 843d
000003a0: 3528 253e 59cc 11bd a5fd 593c f54c 21be
000003b0: e67b ecbb 45be 14be ada2 c73d ccbd d73d
000003c0: 3380 d1bd 0d91 84bd 018b 3abd 5c21 f03d
000003d0: 62c0 783c 3c2c 11bc ca2c 65bd 667b 0c3c
000003e0: 8063 0cbe 432a 83bd 631d 57be cb04 44bc
000003f0: d818 2d3d 406d 66bc 256c 9a3d 02f8 dfbd

network_body._body_endoder.seq_layers.0.bias f4 [128]
-8.106065e-05 -0.0005312759 -0.0004192224 -0.00040169084 0.00014219292 -0.00049922365 0.0022038883 0.0004273221
-0.00026017553 0.0003497113 0.0005750797 -0.00024733713 -0.00033240078 -0.0005783425 -0.00022726145 -0.00026484963
0.00036426762 0.00021532085 -5.969406e-05 0.0003911405 -0.00051499583 -0.00013531993 0.00017290335 -0.00094167463
-0.00083615945 0.00057276676 -0.00046421314 -0.00049569254 -0.0005226151 -0.0007067823 -0.00033770935 -0.0005246251
-0.0007639921 -0.00012686102 -0.0003693437 -0.0002814917 -0.00018840947 0.0009916119 0.0027090085 -0.00065805105
-0.00025525846 -0.00044957144 0.00032386527 0.00022704774 -9.1936345e-06 -0.00039707983 -6.233299e-05 0.00047138456
2.8951561e-05 -9.327475e-05 -0.0009863024 -0.0003373223 -0.00070978334 0.0005953935 -8.229607e-05 0.00013849144
-0.00067453034 -0.0002810338 0.00015031332 0.0004052749 -0.00057662715 -0.00039464087 0.00064675085 -0.0012887173
0.00020294765 -8.644452e-05 0.00021952529 -0.0005864244 -0.0005425402 -0.000133063 0.0014811055 4.5011824e-05
0.00029059727 0.001540364 -0.00020269728 -0.0013135856 -4.291042e-05 0.00034604393 0.00044054788 0.00030037446
-0.0011019221 0.00048670807 -0.00012093696 -7.1261646e-05 -6.029492e-05 0.0013083009 -3.4263492e-05 0.00044926658
-0.00021735571 -0.0006821572 0.0005741232 -0.0011669323 0.00072266476 0.000457003 0.000220162 -0.0009235264
-0.00015011399 -0.00069280603 -0.00029518476 0.00017284682 0.0026663574 0.00025561202 -0.00060750905 0.00032367688
-0.00020284635 -8.526933e-05 -0.00025722818 -0.0001787329 0.0005115546 -0.00089167675 8.4707135e-05 6.3750034e-05
-0.0004769002 -0.00029644452 0.00040275857 0.00028902068 8.507889e-05 -0.00047578232 -0.00031683687 -0.00033572013
8.5928434e-05 0.00027917535 0.00016417321 0.0003329395 -0.00022708534 5.267799e-05 0.00039223657 -0.00032283127
00000000: 1bff a9b8 5245 0bba 14cb dbb9 089a d2b9
00000010: 9f19 1539 55de 02ba 1c6f 103b 340a e039
00000020: 2b68 88b9 7559 b739 f2c0 163a 07ad 81b9
00000030: 1446 aeb9 e89b 17ba 084d 6eb9 84db 8ab9
00000040: 2cfb be39 c0c7 6139 0260 7ab8 fd11 cd39
00000050: c900 07ba abe4 0db9 644d 3539 b7da 76ba
00000060: b631 5bba ba25 163a a261 f3b9 5df1 01ba
00000070: 1b00 09ba 5b47 39ba 950e b1b9 ff86 09ba
00000080: a446 48ba ff05 05b9 79a4 c1b9 2d95 93b9
00000090: c88f 45b9 f9f8 813a 9f89 313b 0f81 2cba
000000a0: 36d4 85b9 75b4 ebb9 76cc a939 aa13 6e39
000000b0: 5c3e 1ab7 272f d0b9 c5b8 82b8 2a24 f739
000000c0: 01dd f237 809c c3b8 d146 81ba a2da b0b9
000000d0: c110 3aba 2e14 1c3a 5e96 acb8 0338 1139
000000e0: f7d2 30ba b857 93b9 6d9d 1d39 147b d439
000000f0: cb28 17ba cde7 ceb9 b78a 293a 2dea a8ba
00000100: 58ce 5439 8c49 b5b8 5f30 6639 46ba 19ba
00000110: 4239 0eba d486 0bb9 a721 c23a 14cb 3c38
00000120: 4e5b 9839 0ae6 c93a 238b 54b9 9e2c acba
00000130: b6fa 33b8 3b6d b539 56f9 e639 947b 9d39
00000140: 5f6e 90ba da2c ff39 899f fdb8 4e72 95b8
00000150: 2de5 7cb8 4b7b ab3a 25b6 0fb8 8a8b eb39
00000160: fbe9 63b9 cbd2 32ba c180 163a c0f3 98ba
00000170: 3671 3d3a e899 ef39 49db 6639 cf18 72ba
00000180: eb67 1db9 6d9d 35ba 07c3 9ab9 373e 3539
00000190: 0ebe 2e3b aa03 8639 3e41 1fba 2db3 a939
000001a0: 27b3 54b9 9fd2 b2b8 95dc 86b9 3f6a 3bb9
000001b0: d919 063a 6abf 69ba cca4 b138 8ab1 8538
000001c0: 7608 fab9 1c6c 9bb9 5729 d339 b387 9739
000001d0: 626c b238 6c72 f9b9 201d a6b9 9803 b0b9
000001e0: 7a34 b438 485e 9239 e925 2c39 628e ae39
000001f0: c21d 6eb9 90f2 5c38 1aa5 cd39 ae41 a9b9

network_body._body_endoder.seq_layers.2.weight f4 [128, 128]
-0.044350903 0.115525395 0.12497067 0.31350344 0.0788192 0.045264546 -0.04536059 0.047050714
-0.021598224 0.012712466 0.0314832 0.040264823 0.1022459 0.0009059432 0.11857699 -0.076396815
-0.052896023 -0.05576906 0.04168886 0.097065724 -0.03500712 -0.058887806 0.06921581 -0.10435102
-0.107870035 -0.097742796 -0.016885288 -0.12724814 -0.03117004 -0.13165984 0.10415575 -0.06556357
-0.035914976 -0.14562468 0.25644302 -0.027183853 0.034720078 -0.14490514 -0.13836662 -0.0054229177
-0.024257211 0.087969676 0.009915367 0.11023104 0.04607521 -0.035126228 -0.0598556 -0.16453075
0.113673024 -0.08072753 0.0098521495 0.004427826 0.0183945 -0.07827344 -0.03999931 -0.13234662
0.020129917 -0.10093595 0.05788349 0.16960382 -0.054167077 -0.11215192 -0.07065209 0.025343513
0.033430528 0.03248331 -0.2168883 0.03340885 -0.15568112 -0.036993515 -0.08748516 0.016738594
0.113828994 -0.06666379 -0.065680034 0.104517266 -0.117920406 -0.14034253 0.060892582 0.043256287
0.08353105 0.044262215 -0.0039352546 -0.0045538414 0.071686044 0.20436189 0.05887599 -0.07540185
0.06518202 -0.10333114 -0.16829336 -0.21224104 -0.121049784 0.13514423 0.047632743 -0.091647446
-0.026090655 0.0014519737 0.080003515 -0.060412742 -0.052649576 0.063812256 0.105647296 -0.06629334
0.038284358 0.08993084 0.059607405 -0.12632793 -0.13594073 -0.0642558 0.08392515 -0.20044462
-0.082883835 0.028116507 0.17442298 0.19036144 -0.11417459 0.073245965 -0.028537095 -0.06910961
-0.040697098 -0.03935112 0.017010598 0.0109515125 -0.083280854 0.120568536 0.18796194 0.017177597
-0.0061339065 0.019217 0.03977832 0.08286909 0.09574125 0.12155965 -0.20662093 0.06730089
0.12124576 0.1402986 -0.0007014243 0.013194409 -0.022967398 0.13337128 -0.039551158 0.03444375
-0.11902812 0.07099097 -0.053285982 0.038008776 -0.0542297 -0.025161268 0.05045818 -0.1298099
0.028438492 -0.11678961 0.14538985 -0.08501783 0.059035007 0.12841253 0.116966724 0.043656763
-0.09313181 -0.087812 0.069124974 -0.026709307 -0.037362173 0.09903135 0.022922685 -0.09753676
-0.00048216368 0.08101178 -0.047229357 0.058298483 0.12710646 -0.092470594 0.03770427 0.0028461774
-0.17575958 -0.06073382 -0.043885514 0.08420696 0.09144043 -0.10225116 -0.12642246 -0.03198177
0.0031297093 -0.028863454 -0.07208369 -0.06486066 0.10095102 0.1285642 0.113693625 0.11516076
0.071336456 -0.19844134 0.023350744 -0.0041285455 0.027106969 -0.05058444 0.1705085 0.055405565
-0.036043942 0.10140576 0.070605256 -0.09490645 0.04508957 -0.021231653 -0.027301008 0.023122229
0.045060657 -0.014972047 -0.10421101 0.014397772 -0.052856218 -0.1716957 0.054858916 -0.03840838
-0.050356917 -0.18242685 -0.008758867 0.013270876 -0.15128142 0.08550498 -0.1682871 0.06398933
-0.0061037643 -0.03478934 0.0143522285 0.16328144 -0.029188124 0.07356983 -0.1546987 -0.09533579
0.16054906 0.044564903 -0.018431183 0.08809054 0.0039481786 -0.15527517 -0.007841494 -0.083703585
-0.14932245 -0.14170997 -0.09930848 -0.05894888 -0.02750415 0.026147012 -0.10020642 -0.024178624
-0.059095625 -0.049801398 -0.17236431 0.001222236 -0.0035101313 0.032159522 -0.15284312 0.22095305
00000000: 4ba9 35bd 9498 ec3d 9ff0 ff3d 8683 a03e
00000010: f66b a13d 5167 393d 07cc 39bd 40b8 403d
00000020: c2ee b0bc f247 503c 87f4 003d baec 243d
00000030: 4c66 d13d d27c 6d3a 7ed8 f23d ef75 9cbd
00000040: 80a9 58bd 196e 64bd f0c1 2a3d 65ca c63d
00000050: a063 0fbd 5734 71bd 05c1 8d3d fdb5 d5bd
00000060: f7ea dcbd 602d c8bd 0453 8abc 564d 02be
00000070: 5058 ffbc d6d1 06be 9c4f d53d 3146 86bd
00000080: 951b 13bd a31e 15be 804c 833e acb0 debc
00000090: a436 0e3d 0362 14be fbaf 0dbe bbb2 b1bb
000000a0: 0fb7 c6bc 7229 b43d 1074 223c d0c0 e13d
000000b0: 5cb9 3c3d 85e0 0fbd 252b 75bd c07a 28be
000000c0: 67cd e83d 7a54 a5bd e96a 213c 4c17 913b
000000d0: 10b0 963c d34d a0bd 51d6 23bd df85 07be
000000e0: 7fe7 a43c 82b7 cebd 3d17 6d3d a0ac 2d3e
000000f0: 4cde 5dbd e8af e5bd 0bb2 90bd 339d cf3c
00000100: 73ee 083d 380d 053d f717 5ebe b8d7 083d
00000110: df6a 1fbe 8386 17bd 6b2b b3bd 601f 893c
00000120: 2d1f e93d 0687 88bd 4183 86bd 260d d63d
00000130: 4180 f1bd f4b5 0fbe 806a 793d 812d 313d
00000140: 5412 ab3d 4c4c 353d 4ff3 80bb 6438 95bb
00000150: 22d0 923d 3e44 513e f327 713d 496c 9abd
00000160: 277e 853d 479f d3bd 1855 2cbe b755 59be
00000170: f3e8 f7bd 4063 0a3e 8d1a 433d a8b1 bbbd
00000180: 12bc d5bc 2750 be3a e2d8 a33d 5a73 77bd
00000190: 15a7 57bd 00b0 823d 9c5d d83d cdc4 87bd
000001a0: 0fd0 1c3d a92d b83d e526 743d 1c5c 01be
000001b0: 0c34 0bbe 8b98 83bd f3e0 ab3d 5b41 4dbe
000001c0: 00bf a9bd 9754 e63c f09b 323e 1cee 423e
000001d0: 5ed4 e9bd fb01 963d a0c6 e9bc 5789 8dbd
000001e0: 00b2 26bd a42e 21bd cf59 8b3c f96d 333c
000001f0: 278f aabd a3ec f63d 1879 403e 08b8 8c3c
00000200: f0fe c8bb f86c 9d3c 97ee 223d 45b7 a93d
00000210: fd13 c43d 44f4 f83d 7094 53be 0dd5 893d
00000220: b24f f83d 70aa 0f3e cadf 37ba 5d2d 583c
00000230: 2026 bcbc 7b92 083e 6500 22bd e414 0d3d
00000240: 04c5 f3bd b763 913d 6742 5abd 17af 1b3d
00000250: f61f 5ebd 011f cebc 3dad 4e3d e3ec 04be
00000260: d7f7 e83c 642f efbd 14e1 143e d41d aebd
00000270: b1ce 713d 937e 033e 408c ef3d 6fd1 323d
00000280: e4bb bebd c7d6 b3bd 6591 8d3d 7acd dabc
00000290: 1409 19bd f3d0 ca3d 5bc8 bb3c 5ac1 c7bd
000002a0: eaca fcb9 81e9 a53d 9273 41bd 64ca 6e3d
000002b0: 3228 023e 3961 bdbd cb6f 1a3d ef86 3a3b
000002c0: 52fa 33be 07c4 78bd 4cc1 33bd b374 ac3d
000002d0: 1f45 bb3d 0e69 d1bd e474 01be 51ff 02bd
000002e0: cf1b 4d3b 0d73 ecbc 9da0 93bd aad5 84bd
000002f0: 69bf ce3d 55a6 033e 34d8 e83d 68d9 eb3d
00000300: d918 923d 3534 4bbe 0f4a bf3c c048 87bb
00000310: 6f0f de3c a131 4fbd c899 2e3e f2f0 623d
00000320: d0a2 13bd d3ad cf3d 7d99 903d 505e c2bd
00000330: d7af 383d 01ee adbc 5da6 dfbc d46a bd3c
00000340: 8691 383d 514d 75bc 956c d5bd a2e4 6b3c
00000350: c37f 58bd ffd0 2fbe beb3 603d 1b52 1dbd
00000360: 0e43 4ebd 1bce 3abe 5a81 0fbc 176e 593c
00000370: 84e9 1abe 3c1d af3d 7453 2cbe d60c 833d
00000380: 1602 c8bb 447f 0ebd 9c25 6b3c 4033 273e
00000390: ef1b efbc c7ab 963d 5669 1ebe 693f c3bd
000003a0: f966 243e b089 363d fefc 96bc d068 b43d
000003b0: b95f 813b 7400 1fbe 9c79 00bc c96c abbd
000003c0: fce7 18be 6b1c 11be 3f62 cbbd 6174 71bd
000003d0: 6250 e1bc 4232 d63c 0639 cdbd 4012 c6bc
000003e0: 410e 72bd 8dfc 4bbd 4580 30be 6f33 a03a
000003f0: 3b0a 66bb b4b9 033d e882 1cbe 8441 623e

network_body._body_endoder.seq_layers.2.bias f4 [128]
7.774976e-05 -0.000580125 -0.00083597505 -0.0004297042 -0.00067323307 0.0001389419 9.4600124e-05 -0.0008358091
0.001195369 -0.0002521645 0.0005460224 -0.0005106185 -0.0004099832 -0.00060001685 0.00019906757 -4.7280253e-05
0.00043379804 -4.573794e-05 -0.0004112382 2.4214358e-05 -0.00040135716 0.0002599333 -0.0007670673 1.9082087e-05
5.636022e-05 -0.0009151135 -4.226162e-05 -0.00052697153 0.0027488624 -0.0004707191 0.00079535885 0.0002743407
0.00024548624 0.00030460095 0.0011034821 -0.00011368858 -0.0003731657 -0.0002598026 -0.00036319776 3.5951539e-06
-0.00031260762 -0.0004737729 -0.00019477338 -0.0008544605 -0.00025903754 0.00011972013 0.00013071882 -0.0015971833
0.00026182292 0.00033116984 -0.0002626778 0.00022114758 -0.0010287623 0.00033763397 0.00034203645 0.00060221646
0.0008673555 -0.00019761405 -0.0014861794 -0.0003745902 -0.00067105365 -0.00015165494 0.0002198221 0.00022437608
-0.00040984293 -3.5692916e-05 2.8118684e-05 1.0882177e-06 -0.0010737636 0.0008030784 -0.0002871933 0.0003702033
-0.00026262045 0.0002784246 -0.00037168156 -0.00037206194 -0.00039144646 0.00012761171 0.0003634299 0.00025080703
0.002234303 0.00038354244 -0.00032628563 -0.0005660167 0.00022046716 0.0011601285 -0.0005653776 -0.00039232927
-0.00031683187 -0.0004651332 -0.00033404594 -0.00027631884 -0.0019753184 0.00011020351 -7.49455e-05 -0.00039555732
-6.8322704e-05 -0.0005998423 0.0010288797 0.0001059 0.0001982172 -0.00047899858 0.00018938801 -0.0010569565
-0.00065573613 -0.0009110011 0.00020159395 0.000263521 -4.5673776e-05 0.00024341358 -0.00032256302 -0.0002392564
-0.00035999902 -0.0001857015 -0.00031594126 2.5673937e-05 -0.0007851979 -0.00029732872 0.00041379634 0.0001949538
-0.00013292173 -0.00031773458 -0.00020108289 -0.00034217836 -3.6430363e-06 0.0011323993 -0.0002575769 0.00059925084
00000000: 960d a338 8813 18ba 5625 5bba ec49 e1b9
00000010: e87b 30ba efb0 1139 0e64 c638 331a 5bba
00000020: eead 9c3a f234 84b9 f122 0f3a 07db 05ba
00000030: 03f3 d6b9 734a 1dba cbbc 5039 c94e 46b8
00000040: 636f e339 bdd6 3fb8 759b d7b9 f01f cb37
00000050: 3f6d d2b9 a847 8839 0415 49ba 7812 a037
00000060: 5364 6c38 3ae4 6fba 1242 31b8 7624 0aba
00000070: 4226 343b d9ca f6b9 a17f 503a 63d5 8f39
00000080: 9bb4 8039 d9b2 9f39 b7a2 903a 176c eeb8
00000090: 74a5 c3b9 1d36 88b9 946b beb9 4644 7136
000000a0: 7ce5 a3b9 b964 f8b9 153c 4cb9 e0fd 5fba
000000b0: 6ecf 87b9 4112 fb38 9111 0939 9458 d1ba
000000c0: 4745 8939 dda0 ad39 04b8 89b9 dae3 6739
000000d0: 89d7 86ba 7704 b139 5b53 b339 10de 1d3a
000000e0: 3e5f 633a 9e36 4fb9 e8cb c2ba a564 c4b9
000000f0: a6e9 2fba 9005 1fb9 0c80 6639 7f46 6b39
00000100: 30e0 d6b9 fab4 15b8 6ae0 eb37 e00e 9235
00000110: 87bd 8cba ae85 523a 6f92 96b9 d917 c239
00000120: 52b0 89b9 84f9 9139 41de c2b9 4f11 c3b9
00000130: 0e3b cdb9 82cf 0539 bc8a be39 c07e 8339
00000140: 626d 123b 3216 c939 5111 abb9 bd60 14ba
00000150: 342d 6739 740f 983a d935 14ba 8bb1 cdb9
00000160: 741c a6b9 1fdd f3b9 e322 afb9 e3de 90b9
00000170: 5874 01bb 0f1d e738 0f2c 9db8 ce62 cfb9
00000180: 7948 8fb8 bc3e 1dba 79db 863a a116 de38
00000190: 86d8 4f39 1a22 fbb9 7596 4639 9389 8aba
000001a0: b5e5 2bba 40d0 6eba f762 5339 3129 8a39
000001b0: d891 3fb8 d63c 7f39 ad1d a9b9 e7e0 7ab9
000001c0: 40be bcb9 deb8 42b9 eba4 a5b9 5c5e d737
000001d0: bdd5 4dba c9e2 9bb9 cef2 d839 836c 4c39
000001e0: e860 0bb9 9d95 a6b9 c7d9 52b9 6766 b3b9
000001f0: e37a 74b6 046d 943a 630b 87b9 0b17 1d3a

action_model._continuous_distribution.log_sigma f4 [1, 3]
0.0039061178 0.0030852633 -0.0029964235
00000000: c8fd 7f3b 2132 4a3b a55f 44bb

action_model._continuous_distribution.mu.weight f4 [3, 128]
0.014903115 -0.01444485 0.021912241 0.019651318 0.015826836 0.001199867 -0.030083938 0.0064730057
0.038914178 -0.005535286 0.0036996847 -0.018805083 0.008731257 0.016570242 -0.013770083 0.010648227
0.01832644 0.01170329 -0.033295922 0.011117301 0.012409316 0.023317646 0.009111982 -0.0120651685
0.00048339443 0.0063425177 -0.032167412 -0.01335966 -0.012236322 0.026338419 0.0046410137 -0.018722415
0.027166523 0.0048453133 -0.006325634 0.007716716 0.008508377 -0.0021062924 -0.007391719 -0.015241782
-0.003963554 -0.012556192 0.01186668 0.01573957 -0.0018870253 -0.00287241 0.015703049 -0.0038540827
0.019735765 -0.034279794 0.004095578 -0.0012195583 -0.026050026 0.035549678 -0.006445563 -0.017975124
0.0156055465 0.009331251 -0.015772646 -0.007890598 0.0024295475 0.0005645634 0.018788932 -0.022366624
0.00616098 0.022740025 -0.005368756 0.010585125 0.008038322 0.011895078 0.010362151 0.016590608
0.004987816 0.014377965 0.01929804 0.019521516 0.028212221 -0.010800163 -0.0041518374 -0.05148936
-0.026080163 0.0067901993 -0.008272418 0.023428304 -0.0055366326 0.014141215 -0.019638572 0.010003397
0.013250592 -0.015922429 -0.008554845 0.0102305645 0.00025720824 -0.03478603 -3.4092605e-05 -0.041771088
0.008751234 -0.0062242523 -0.008960288 0.018851118 0.010364245 -0.0024330395 0.005696776 -0.004155322
0.013107822 0.0004027423 0.010859718 0.002908102 -0.017835682 -0.01835518 0.04352753 -0.01957925
0.0045696166 -0.012299171 -0.009842916 0.00981136 0.0117611205 0.032316703 -0.005658062 -0.021957844
0.023868853 0.017550971 -0.008119579 -0.02936051 -0.011141484 0.0011094587 -0.009991002 -0.009534281
0.015485559 -0.0015514103 0.019460773 0.0040147975 0.010141775 -0.012934334 0.018264359 0.01578835
0.0044933013 -0.020329919 -0.007704175 -0.022896081 0.0071125277 0.03795922 -0.006644573 -0.0051183677
-0.009622103 -0.026231691 0.0012394716 0.031636078 0.025162311 0.011600263 -0.0050918353 0.009332851
-0.013829204 -0.010181205 -0.02282249 0.004852535 0.010378988 0.02565887 -0.028080797 -0.017633045
-0.008626196 -0.03904573 0.00581143 0.0007452625 0.017074147 0.011411678 0.023636485 -0.017584292
0.02534015 -0.009284501 -0.0145774875 0.00019471308 -0.00067535066 -0.009474762 0.00016121584 -0.008184221
-0.0053453157 0.01390578 -0.0020003158 -0.015824521 0.0056232917 -0.012017842 -0.032188654 -0.00025524333
-0.025115503 0.0010571573 0.005441529 0.015210049 0.005614834 -0.020593558 -0.006016542 0.018412603
-0.014179668 -0.027504247 -0.007813288 -0.041195597 0.023699237 -0.032096867 0.012757451 0.013031355
-0.005133436 0.0078254575 0.0046212804 -0.011092118 -0.0071580736 0.0052334727 -0.020410882 -0.013652426
-0.0009086855 0.021296594 -0.0022537552 0.007143502 0.006186282 -0.04583172 0.0023020227 0.023128351
-0.015693976 -0.011590024 0.0063064457 0.025350092 -0.01703093 0.011208962 0.004543417 0.008404992
-0.03892928 -0.0016863834 -0.008925435 -0.00015397934 -0.03945958 -0.012092174 0.006180494 0.018463833
0.008914326 0.001819126 0.018529862 0.006198561 0.03405505 -0.024604026 0.011474209 -0.0052303323
0.007785 0.029272119 0.0108826775 -0.022729937 0.004009654 0.007799375 0.011102747 -0.01402246
-0.011488423 -0.03410661 -0.014589308 0.0139455 0.009233773 0.012748567 -0.0009147138 0.0049772062
00000000: 322c 743c 18aa 6cbc 4d81 b33c cdfb a03c
00000010: 48a7 813c db44 9d3a 9772 f6bc 821b d43b
00000020: 7964 1f3d 5861 b5bb 6976 723b 1e0d 9abc
00000030: 8c0d 0f3c 51be 873c ea9b 61bc e775 2e3c
00000040: 5521 963c 28bf 3f3c 4e61 08bd 5725 363c
00000050: 7250 4b3c a604 bf3c 6c4a 153c fcac 45bc
00000060: 1a70 fd39 e5d4 cf3b fac1 03bd 7ae2 5abc
00000070: db7a 48bc abc3 d73c a513 983b c05f 99bc
00000080: 548c de3c 6fc5 9e3b 4447 cfbb 81dc fc3b
00000090: b866 0b3c b909 0abb 3c36 f2bb abb8 79bc
000000a0: b3e0 81bb 7db8 4dbc 776c 423c 45f0 803c
000000b0: 1056 f7ba 0b3f 3cbb aea3 803c c794 7cbb
000000c0: e6ac a13c f868 0cbd 3334 863b 96d9 9fba
000000d0: dd66 d5bc 8a9c 113d 4d35 d3bb 9140 93bc
000000e0: 68ae 7f3c 1ae2 183c a335 81bc 9147 01bc
000000f0: 0b39 1f3b 35ff 133a 3feb 993c 363a b7bc
00000100: 0ce2 c93b 4a49 ba3c 64ec afbb 3b6d 2d3c
00000110: 2bb3 033c 93e3 423c 03c6 293c 07e9 873c
00000120: d570 a33b 8e91 6b3c ec16 9e3c 96eb 9f3c
00000130: 511d e73c 2bf3 30bc 230c 88bb 82e6 52bd
00000140: 11a6 d5bc 5280 de3b 0989 07bc b7ec bf3c
00000150: a46c b5bb 8eb0 673c 12e1 a0bc 4ae5 233c
00000160: 0319 593c c16f 82bc 9f29 0cbc 199e 273c
00000170: e8d9 8639 cc7b 0ebd a8fe 0eb8 2918 2bbd
00000180: 5661 0f3c d0f4 cbbb 2cce 12bc a96d 9a3c
00000190: cbce 293c a173 1fbb 05ac ba3b 5e29 88bb
000001a0: 31c2 563c 2827 d339 f5ec 313c db95 3e3b
000001b0: 231c 92bc 9a5d 96bc ec49 323d aa64 a0bc
000001c0: b9bc 953b 7682 49bc 2f44 21bc d4bf 203c
000001d0: b7b1 403c 855e 043d 4467 b9bb f0e0 b3bc
000001e0: 9d88 c33c 0ec7 8f3c fc07 05bc 7485 f0bc
000001f0: c58a 36bc 426b 913a 4db1 23bc ac35 1cbc
00000200: 24b7 7d3c b158 cbba 336c 9f3c 908e 833b
00000210: b029 263c 87ea 53bc 239f 953c 9256 813c
00000220: 8b3c 933b ee8a a6bc 4e73 fcbb 9090 bbbc
00000230: 3510 e93b 217b 1b3d b8ba d9bb fbb7 a7bb
00000240: 06a6 1dbc d8e3 d6bc c475 a23a d594 013d
00000250: 3121 ce3c 080f 3e3c 69d9 a6bb d0e8 183c
00000260: e393 62bc 12cf 26bc 3bf6 babc 0402 9f3b
00000270: a20c 2a3c 8d32 d23c b309 e6bc 2d73 90bc
00000280: e354 0dbc 6aee 1fbd cf6d be3b b85d 433a
00000290: 15df 8b3c 0cf8 3a3c 4da1 c13c ef0c 90bc
000002a0: 2596 cf3c 051e 18bc 6ad6 6ebc e52b 4c39
000002b0: 040a 31ba 083c 1bbc 0c0c 2939 1c17 06bc
000002c0: c227 afbb 12d5 633c bb17 03bb 6da2 81bc
000002d0: 9743 b83b 7ce6 44bc 40d8 03bd 2ed2 85b9
000002e0: 07bf cdbc 5090 8a3a db4e b23b 9233 793c
000002f0: a4fc b73b d2b3 a8bc 6a26 c5bb 07d6 963c
00000300: d751 68bc 9650 e1bc 4e03 00bc b7bc 28bd
00000310: e724 c23c 0178 03bd a104 513c 7781 553c
00000320: 6236 a8bb 5936 003c 1c6e 973b b7bb 35bc
00000330: 468e eabb 8d7d ab3b b934 a7bc 6dae 5fbc
00000340: da34 6eba 3276 ae3c bdb3 13bb 0a14 ea3b
00000350: 4bb6 ca3b 0bba 3bbd 88dd 163b ab77 bd3c
00000360: a790 80bc 16e4 3dbc 4da6 ce3b ffaa cf3c
00000370: 7384 8bbc cba5 373c f2e0 943b 17b5 093c
00000380: 4f74 1fbd a309 ddba fd3b 12bc 8475 21b9
00000390: 5ea0 21bd 411e 46bc be85 ca3b 7741 973c
000003a0: 650d 123c bd6f ee3a f0cb 973c 4c1d cb3b
000003b0: 4f7d 0b3d 628e c9bc 52fe 3b3c 3563 abbb
000003c0: 5019 ff3b 15cc ef3c 424d 323c 2234 babc
000003d0: 6a63 833b e691 ff3b 4ce8 353c 76be 65bc
000003e0: f039 3cbc 5fb3 0bbd fe07 6fbc ab7b 643c
000003f0: 4049 173c 5edf 503c 67c9 6fba d517 a33b

action_model._continuous_distribution.mu.bias f4 [3]
0.00028859315 -0.00041744046 -0.000106092324
00000000: 514e 9739 e9db dab9 e27d deb8

exp_avg f4 [128, 126]
-9.875972e-08 1.1544937e-06 4.3202553e-07 1.1864138e-07 1.0050563e-06 4.3119118e-07 -5.320458e-07 1.5339774e-06
8.478757e-07 5.487682e-07 8.3189144e-07 5.881952e-07 -3.3634961e-07 1.377472e-06 8.433024e-07 7.0286205e-07
3.4252175e-06 9.798887e-07 -1.2750825e-06 2.4651758e-06 1.0092609e-06 4.8271124e-07 4.4288636e-06 1.2472324e-06
6.7752313e-07 2.366135e-07 -3.2878633e-09 3.2744273e-07 3.7034604e-06 1.6840281e-06 6.9434645e-07 9.641614e-08
-2.9586474e-07 -3.2433736e-08 3.2573907e-06 2.004733e-06 4.0226925e-07 1.6673797e-08 -2.839339e-07 2.1948324e-07
1.776069e-06 1.8507964e-06 -3.471152e-07 2.1159089e-07 -3.1018402e-08 -7.573843e-07 2.2244767e-06 2.240117e-06
6.1647455e-07 -1.2695709e-06 -1.7031522e-07 -7.2170997e-07 1.6717164e-06 2.0812672e-06 -4.6356813e-08 -2.8833767e-07
-1.6342649e-07 -1.815159e-07 1.4674984e-06 1.7617486e-06 -1.142646e-06 7.198266e-07 1.5947116e-07 -8.90167e-08
1.8600191e-06 1.5325714e-06 -1.6026844e-06 9.746967e-07 4.763647e-07 2.7572779e-07 9.878665e-07 1.1284354e-06
1.0781533e-07 -1.774384e-06 -1.8219156e-07 3.628225e-07 -1.0301897e-07 5.302845e-07 -8.9642344e-07 -1.3509707e-06
-6.121036e-07 -2.4919004e-07 -6.150057e-08 1.1355921e-07 6.9481456e-09 -1.2223029e-06 -8.921055e-07 -1.1081767e-06
-8.242518e-07 4.0674227e-08 -6.33981e-07 -7.823651e-07 -7.3386013e-07 -1.4181913e-06 -1.4529387e-06 -2.1413706e-07
-2.704325e-08 -1.8288022e-06 -1.0781322e-06 -6.873546e-07 -1.5824938e-06 -8.0890715e-07 -5.6044428e-08 -8.37253e-07
-1.3126901e-06 -1.1868004e-06 -1.916971e-06 -8.4167976e-07 5.466731e-08 -2.3251412e-06 -1.523773e-06 -6.139019e-07
-1.8810514e-06 -1.1691409e-06 -6.067367e-07 -2.047496e-06 -1.422618e-06 -4.431981e-07 -1.8911933e-06 -1.1382506e-06
-1.1024811e-06 -1.026548e-06 -1.0838868e-06 -1.4373e-05 -7.5255195e-07 0.0 4.186124e-07 2.1686672e-06
3.117133e-06 5.086527e-07 1.403559e-06 2.766091e-06 1.1518902e-06 1.5824556e-06 2.5541092e-06 -7.1173844e-07
1.2324082e-06 2.656028e-06 6.103182e-07 1.2007464e-06 2.5845668e-06 -1.4612036e-06 -2.0195305e-06 2.0935577e-06
1.5188366e-06 2.2487546e-07 2.609678e-06 -1.4167741e-06 -2.696477e-06 1.9164233e-06 -9.586761e-07 3.3768044e-06
3.936249e-06 -5.79587e-07 -1.1798372e-06 1.15488e-06 -9.3918214e-07 3.792351e-06 4.2276015e-06 2.8275443e-07
-1.4237532e-06 4.1328832e-07 -3.35176e-07 3.4352677e-06 4.0315854e-06 4.2955955e-07 -5.670389e-07 4.5848577e-07
-4.635884e-08 4.005737e-06 4.035141e-06 1.2052196e-06 -7.387897e-07 5.7398154e-08 -5.342793e-07 4.85138e-06
4.3361943e-06 1.1663459e-06 -8.5747894e-07 2.573972e-07 8.0011844e-08 3.874083e-06 4.2386055e-06 2.1720126e-07
8.278063e-08 6.590191e-07 -1.0522971e-07 4.1420285e-06 4.4011726e-06 -2.2079156e-08 3.6433613e-07 1.218688e-06
1.5295738e-06 3.1352022e-06 3.6619404e-06 -1.0952083e-06 1.0477581e-06 1.9543452e-06 -3.0788647e-07 4.630948e-06
4.2145984e-06 -2.3622792e-07 1.6471132e-06 2.0163611e-06 7.7903695e-07 6.152078e-06 4.697044e-06 5.891953e-07
2.032823e-06 2.4731512e-06 1.1845979e-08 3.501881e-06 4.7282583e-06 1.4839172e-06 2.6365658e-06 2.7006824e-06
1.8926443e-07 3.6153301e-06 4.2712477e-06 1.9477527e-06 3.1267869e-06 2.951639e-06 1.8537693e-07 3.271011e-06
4.355437e-06 5.493813e-07 3.979968e-06 3.6940392e-06 4.7405274e-07 2.0535588e-06 4.2237966e-06 9.270186e-07
3.924312e-06 3.8171675e-06 9.048139e-07 2.8091868e-06 4.191547e-06 1.2726426e-06 2.5712602e-06 3.9871657e-06
9.248808e-07 2.367163e-06 4.193303e-06 9.0917564e-07 2.762499e-06 3.8705766e-06 1.4907857e-06 2.2350969e-06
3.9963447e-06 0.00019412363 -1.03395486e-07 0.0 2.6549517e-06 3.7955208e-05 2.9358082e-05 8.798831e-06
00000000: bb15 d4b3 1af4 9a35 23f1 e734 cac7 fe33
00000010: 79e5 8635 777e e734 e9d1 0eb5 10e3 cd35
00000020: 9399 6335 104f 1335 254f 5f35 77e4 1d35
00000030: 8a93 b4b4 94e1 b835 4d5f 6235 50ac 3c35
00000040: cadc 6536 b884 8335 8023 abb5 666f 2536
00000050: f175 8735 aa93 0135 a69b 9436 9466 a735
00000060: 09df 3535 d30f 7e34 b4f0 61b1 63cb af34
00000070: f788 7836 c406 e235 2063 3a35 550d cf33
00000080: 57d7 9eb4 454d 0bb3 8c99 5a36 0d89 0636
00000090: 77f7 d734 113a 8f32 946f 98b4 18ab 6b34
000000a0: 4461 ee35 e168 f835 265b bab4 a931 6334
000000b0: 1839 05b3 0e4f 4bb5 3848 1536 eb54 1636
000000c0: cf7b 2535 2066 aab5 e4df 36b4 88bb 41b5
000000d0: bd5f e035 e6ab 0b36 db19 47b3 d4cc 9ab4
000000e0: 557a 2fb4 b6e6 42b4 dcf6 c435 3975 ec35
000000f0: 055d 99b5 1b3a 4135 193b 2b34 7329 bfb3
00000100: c5a5 f935 c1b2 cd35 d11b d7b5 53d2 8235
00000110: 11bf ff34 bd07 9434 d696 8435 bf74 9735
00000120: 1b88 e733 5f27 eeb5 6fa0 43b4 f2c9 c234
00000130: 473b ddb3 e058 0e35 c0a1 70b5 0053 b5b5
00000140: 704f 24b5 6bc8 85b4 4c12 84b3 d6dd f333
00000150: 89bc ee31 020e a4b5 0679 6fb5 a9bc 94b5
00000160: 2742 5db5 c9b1 2e33 d82e 2ab5 b803 52b5
00000170: 7cfe 44b5 af58 beb5 9802 c3b5 8ced 65b4
00000180: bc4c e8b2 2a75 f5b5 57b4 90b5 a682 38b5
00000190: 1366 d4b5 ad23 59b5 80b5 70b3 97bf 60b5
000001a0: b02f b0b5 274a 9fb5 50a5 00b6 cbef 61b5
000001b0: 58cb 6a33 9f09 1cb6 7184 ccb5 04cb 24b5
000001c0: 6f78 fcb5 60eb 9cb5 a1de 22b5 b767 09b6
000001d0: c8f0 beb5 aff0 edb4 e8d4 fdb5 fec5 98b5
000001e0: f6f8 93b5 ecc7 89b5 117a 91b5 9123 71b7
000001f0: fa02 4ab5 0000 0000 a6bd e034 6b89 1136
00000200: f02f 5136 598a 0835 ec61 bc35 15a1 3936
00000210: a59a 9a35 c364 d435 4367 2b36 4b0e 3fb5
00000220: 3969 a535 373e 3236 bfd4 2335 5529 a135
00000230: 8572 2d36 931e c4b5 4587 07b6 0c7f 0c36
00000240: d4da cb35 4c75 7134 ed21 2f36 fd27 beb5
00000250: 1ff5 34b6 e79b 0036 dcab 80b5 0f9d 6236
00000260: 1f14 8436 ea94 1bb5 e65a 9eb5 6001 9b35
00000270: 1b1c 7cb5 1880 7e36 d2da 8d36 79cd 9734
00000280: ca17 bfb5 eae1 dd34 3df2 b3b4 7389 6636
00000290: 0e47 8736 379e e634 9e36 18b5 ce25 f634
000002a0: 151c 47b3 0569 8636 9965 8736 08c3 a135
000002b0: 3e51 46b5 f085 7633 656b 0fb5 09c9 a236
000002c0: a07f 9136 578b 9c35 812d 66b5 6730 8a34
000002d0: fad2 ab33 1ffe 8136 5839 8e36 d437 6934
000002e0: 22c5 b133 73e7 3035 a5fa e1b3 c1fb 8a36
000002f0: c9ad 9336 94a8 bdb2 fa99 c334 cd91 a335
00000300: c14b cd35 5d66 5236 a8bf 7536 12ff 92b5
00000310: b2a0 8c35 6527 0336 984b a5b4 8a63 9b36
00000320: 206b 8d36 d6a5 7db4 6112 dd35 d250 0736
00000330: 031f 5135 f36d ce36 4d9b 9d36 3129 1e35
00000340: a26b 0836 6af8 2536 2b83 4b32 dc01 6b36
00000350: 6ea7 9e36 022b c735 dbef 3036 5f3d 3536
00000360: 9c38 4b34 e69e 7236 bd51 8f36 23b6 0236
00000370: cad5 5136 c614 4636 060c 4734 8b83 5b36
00000380: eb24 9236 3279 1335 aa8b 8536 1ce7 7736
00000390: 5081 fe34 dfcf 0936 23ba 8d36 3cd8 7835
000003a0: 95ad 8336 3815 8036 56e2 7235 7685 3c36
000003b0: 1da5 8c36 abcf aa35 ea8d 2c36 7ec9 8536
000003c0: 5345 7835 8ddb 1e36 33b4 8c36 130e 7435
000003d0: 5f63 3936 00e0 8136 0217 c835 acfe 1536
000003e0: 5718 8636 aa8d 4b39 450a deb3 0000 0000
000003f0: b92b 3236 1832 1f38 0046 f637 b19e 1337

exp_avg_sq f4 [128, 126]
1.3013572e-13 8.450743e-12 8.676188e-12 8.054558e-14 8.122394e-12 8.739094e-12 9.358496e-14 8.582517e-12
8.789984e-12 1.83719e-13 6.8529475e-12 7.850806e-12 1.5438006e-13 7.877295e-12 8.454186e-12 4.309343e-13
5.391806e-12 7.351598e-12 2.708314e-13 7.594236e-12 8.121808e-12 3.5318734e-13 6.2074478e-12 7.1100474e-12
2.2489419e-13 7.072706e-12 7.927455e-12 1.1806478e-13 6.17977e-12 7.2295104e-12 1.2301283e-13 6.6231074e-12
7.741411e-12 8.6077555e-14 5.753954e-12 7.008711e-12 1.12420266e-13 6.421454e-12 7.609255e-12 6.972156e-14
4.9491214e-12 6.678257e-12 1.3194747e-13 6.1041276e-12 7.4907e-12 1.2215707e-13 4.8345915e-12 6.4394727e-12
1.6016217e-13 5.8146994e-12 7.483344e-12 1.1639673e-13 4.9757078e-12 6.3757844e-12 3.5912722e-13 5.0351806e-12
7.06561e-12 1.0305845e-13 4.7024255e-12 6.2528997e-12 3.6704664e-13 5.1271682e-12 6.826009e-12 9.1943265e-14
5.197359e-12 6.494658e-12 2.0730676e-13 5.1591465e-12 6.9413962e-12 2.041504e-13 4.507604e-12 5.8908507e-12
1.1424404e-13 4.2966984e-12 6.3134606e-12 1.0971831e-13 4.222534e-12 5.574087e-12 1.3524137e-13 2.7264295e-12
5.248563e-12 4.939972e-14 4.069645e-12 5.2743287e-12 1.2767711e-13 2.054055e-12 4.688446e-12 1.5007892e-13
3.767e-12 5.044592e-12 2.1556742e-13 2.2861673e-12 4.322149e-12 1.9882968e-13 2.8990415e-12 4.7148518e-12
5.827537e-14 2.0771312e-12 4.310571e-12 1.7637186e-13 2.5620623e-12 4.6436223e-12 1.6921078e-13 2.1252123e-12
4.2338975e-12 1.4974977e-13 3.0179507e-12 4.5255973e-12 1.7352866e-13 2.6623738e-12 4.2498214e-12 8.691786e-14
2.9028188e-12 4.403702e-12 3.1317237e-13 2.5430936e-12 4.1512926e-12 9.8030606e-14 2.8162169e-12 4.3378205e-12
1.6589623e-13 2.441127e-12 4.210175e-12 1.543619e-08 1.5155637e-12 0.0 1.7596555e-13 1.717565e-11
1.8047395e-11 1.8563833e-13 1.4666875e-11 1.7378848e-11 2.0755499e-13 1.656185e-11 1.7638146e-11 4.330012e-13
1.0878803e-11 1.4330123e-11 3.3444604e-13 1.5180924e-11 1.7003617e-11 6.7379647e-13 8.699199e-12 1.2633255e-11
5.151483e-13 1.41744064e-11 1.62096e-11 7.1529474e-13 8.919182e-12 1.1810363e-11 4.4437685e-13 1.2885329e-11
1.534841e-11 1.946376e-13 8.690772e-12 1.1645524e-11 2.9185115e-13 1.3027442e-11 1.5613434e-11 1.2057888e-13
8.327839e-12 1.1279439e-11 1.8041394e-13 1.29388575e-11 1.5191357e-11 1.3721649e-13 7.950639e-12 1.0975167e-11
2.0205971e-13 1.2583078e-11 1.5093364e-11 2.8657198e-13 7.830373e-12 1.0332003e-11 2.1121933e-13 1.180476e-11
1.4709463e-11 2.987202e-13 7.752352e-12 1.01378845e-11 1.1669472e-12 1.2556009e-11 1.477667e-11 2.44154e-13
7.8253255e-12 1.0173539e-11 1.1060992e-12 1.3111361e-11 1.4407174e-11 1.7799519e-13 8.330753e-12 1.0340759e-11
2.464985e-13 1.1767264e-11 1.4287275e-11 2.168831e-13 6.1643754e-12 9.630345e-12 1.8683793e-13 8.651362e-12
1.2693201e-11 1.3945801e-13 5.5012045e-12 8.907567e-12 1.6758676e-13 5.8489246e-12 1.038058e-11 1.12934625e-13
5.8134743e-12 8.431614e-12 1.4365595e-13 4.1901847e-12 8.615063e-12 3.1515906e-13 5.7124505e-12 7.974178e-12
1.96208e-13 4.010117e-12 7.467233e-12 5.575204e-13 4.5036947e-12 7.401906e-12 1.6818393e-13 3.101532e-12
6.9176535e-12 3.4183667e-13 4.5649565e-12 7.243886e-12 2.0771786e-13 3.2285667e-12 6.741648e-12 2.557048e-13
4.802726e-12 7.280617e-12 2.0418813e-13 3.4494133e-12 6.6846316e-12 1.8779851e-13 4.033168e-12 7.244814e-12
2.96097e-13 2.9928499e-12 6.932513e-12 1.0952959e-13 3.6508947e-12 7.0481503e-12 2.44247e-13 3.5516106e-12
7.25012e-12 3.1784126e-08 2.0876432e-12 0.0 7.12364e-11 3.5456578e-09 3.7265946e-09 4.789357e-11
00000000: 1185 122a c3aa 142d 14a2 182d 5e5f b529
00000010: 03e4 0e2d 61bd 192d 0ebc d229 38fc 162d
00000020: 92a2 1a2d 65d9 4e2a dd1d f12c e31c 0a2d
00000030: 06d1 2d2a 2f94 0a2d 45ba 142d 2d98 f22a
00000040: 12b5 bd2c a754 012d eb76 982a 6699 052d
00000050: 5fe1 0e2d a9d3 c62a b867 da2c 9d29 fa2c
00000060: 5635 7d2a 46d9 f82c 1576 0b2d dbed 042a
00000070: 6b6e d92c a45d fe2c 0980 0a2a a607 e92c
00000080: 3730 082d 55d4 c129 0373 ca2c db98 f62c
00000090: df25 fd29 51ef e12c 0add 052d beff 9c29
000000a0: b921 ae2c 64f8 ea2c 458f 142a 18c5 d62c
000000b0: 1dc7 032d 6189 092a 211a aa2c 9d91 e22c
000000c0: 9a53 342a 2896 cc2c fca5 032d 130d 032a
000000d0: 3111 af2c f653 e02c b02b ca2a e028 b12c
000000e0: 5b99 f82c 2711 e829 af73 a52c 1d01 dc2c
000000f0: ffa0 ce2a 6d65 b42c 392b f02c af09 cf29
00000100: a6dd b62c ae82 e42c 1b68 692a 7685 b52c
00000110: 8a3a f42c 59da 652a e398 9e2c 1144 cf2c
00000120: 9aa0 002a 382d 972c 9922 de2c 4d10 f729
00000130: 3591 942c ea1e c42c ac44 182a fdda 3f2c
00000140: daaa b82c 007a 5e29 1a30 8f2c ee92 b92c
00000150: 6cc0 0f2a 918a 102c c4f5 a42c 4ef9 282a
00000160: 1f8a 842c a57d b12c 14b5 722a eedf 202c
00000170: 7512 982c c1dc 5f2a 7d00 4c2c 9ce3 a52c
00000180: 7739 8329 452a 122c 2caa 972c ba93 462a
00000190: 034a 342c 0862 a32c b083 3e2a 6c8c 152c
000001a0: 8ff7 942c 6f9a 282a 915e 542c f53a 9f2c
000001b0: 3b60 432a 1059 3b2c fd86 952c bcb8 c329
000001c0: 8944 4c2c 05f1 9a2c e54c b02a 4df4 322c
000001d0: 850f 922c ccbe dc29 742c 462c 9d9f 982c
000001e0: 55c8 3a2a 6fc7 2b2c e321 942c 8a98 8432
000001f0: f04b d52b 0000 0000 9e1e 462a 2014 972d
00000200: 1fbf 9e2d 9b02 512a de02 812d b0dd 982d
00000210: a7af 692a f9ad 912d 9325 9b2d 0dc2 f32a
00000220: c661 3f2d 2319 7c2d c146 bc2a 6788 852d
00000230: be90 952d 27a8 3d2b b609 192d 1f3f 5e2d
00000240: 5900 112b da5b 792d c694 8e2d 6b56 492b
00000250: 6de8 1c2d 25c5 4f2d 7429 fa2a 5dae 622d
00000260: 8c01 872d 7824 5b2a c2e3 182d c7de 4c2d
00000270: 2f4c a42a 622e 652d 5456 892d 7fc2 072a
00000280: 4181 122d 146e 462d c720 4b2a 6f9f 632d
00000290: e59f 852d f67d 1a2a 7fde 0b2d c213 412d
000002a0: bf7f 632a 255d 5d2d 3cc3 842d 6053 a12a
000002b0: ddc0 092d 34c3 352d d4cf 6d2a eaab 4f2d
000002c0: c462 812d 1e2a a82a 7d61 082d f958 322d
000002d0: b43b a42b 3de3 5c2d 1afa 812d 4d72 892a
000002e0: 22aa 092d 8cf9 322d 6cab 9b2b 52a8 662d
000002f0: 2574 7d2d 9f67 482a 608e 122d a3ea 352d
00000300: 2dc4 8a2a 0c03 4f2d 2b58 7b2d 4c30 742a
00000310: c2e3 d82c 386b 292d 5e5c 522a 4532 182d
00000320: 184d 5f2d 0904 1d2a 728e c12c 1eb4 1c2d
00000330: 98af 3c2a 6eca cd2c fa9d 362d 614e fe29
00000340: 1f8b cc2c 9d54 142d 02be 212a d46d 932c
00000350: cb8e 172d 356b b12a 2efd c82c 8148 0c2d
00000360: 1be9 5c2a ec17 8d2c 6e5d 032d 94ed 1c2b
00000370: ad75 9e2c 3937 022d b85b 3d2a 3c40 5a2c
00000380: af64 f32c db6f c02a 799d a02c 20df fe2c
00000390: 99de 692a b030 632c 5e33 ed2c f2f2 8f2a
000003a0: 1cfb a82c fc14 002d 39e5 652a 1bbb 722c
000003b0: cf31 eb2c 3c71 532a 8ce7 8d2c 7ce7 fe2c
000003c0: 13b0 a62a 649a 522c 87ea f32c 83a3 f629
000003d0: 5674 802c 18fc f72c b47f 892a 21ec 792c
000003e0: 4717 ff2c 0483 0833 a3e7 122c 0000 0000
000003f0: 87a6 9c2e dfa7 7331 790b 8031 5ea3 522e

exp_avg f4 [128]
-3.4983884e-07 4.735791e-06 3.2107724e-05 -4.8372535e-06 -1.8531226e-05 3.8281613e-07 -8.161936e-06 3.6725756e-05
5.172833e-07 1.6273317e-06 9.270503e-06 5.0819498e-08 -3.326311e-05 2.1658445e-05 -2.04397e-05 1.3559367e-06
-1.2226018e-05 8.310104e-07 -6.0803166e-07 -2.3709003e-05 -4.3124463e-05 -3.2343913e-05 -2.7091073e-05 -2.541976e-06
2.6800777e-05 1.4989636e-05 3.9526685e-06 -4.379995e-05 2.6508937e-08 -3.042523e-06 2.929208e-05 -1.5431254e-06
-1.3793414e-07 -2.2765684e-05 -3.586846e-05 -1.6551052e-05 3.1321993e-06 8.079264e-07 -5.139352e-06 5.4056706e-08
-3.308242e-05 -1.4795964e-06 -7.294512e-06 2.9608787e-05 -5.353422e-07 2.5890906e-05 1.8374261e-05 -2.6506953e-06
-2.8095707e-05 -4.3712345e-05 9.410329e-06 -3.9165585e-05 5.465485e-06 -2.252972e-07 1.2861773e-06 4.2641655e-05
-1.1424787e-05 -2.606165e-06 6.470619e-05 -1.310191e-05 -2.057229e-05 -4.446757e-08 -3.6757467e-06 4.468727e-06
8.927444e-06 1.5355843e-06 -1.12327506e-07 2.0119094e-05 -3.596332e-06 5.6816987e-07 -7.4771583e-06 1.4249216e-05
3.3385247e-06 -3.1452678e-06 1.6817346e-05 2.1968024e-05 4.198915e-05 2.7306058e-05 1.5196289e-05 -6.1523383e-07
2.690801e-05 3.670814e-05 -3.153786e-05 -2.2377215e-05 1.8135168e-05 -6.600121e-06 -7.147586e-05 -1.6157923e-06
-4.2913777e-07 1.8726621e-05 1.9634104e-05 2.6558742e-05 -3.3554802e-06 -3.1287742e-05 9.035921e-05 5.312194e-06
6.858554e-07 1.62631e-06 1.5438335e-06 3.5354387e-06 -4.095459e-06 5.808709e-05 4.5586758e-06 -2.3351447e-05
4.2358046e-05 4.773732e-06 -1.4378939e-05 2.1332678e-05 5.3849926e-06 -4.0897048e-05 -5.778391e-06 6.079177e-07
3.6000667e-05 1.7847255e-05 -1.5259533e-06 6.3724497e-07 -3.9040087e-06 4.2564963e-05 2.8915138e-06 1.1623081e-05
-2.8164652e-05 4.9126395e-08 -1.329926e-07 2.3417319e-05 -2.8390152e-06 4.2640928e-05 -2.0250367e-05 2.506282e-06
00000000: 7cd1 bbb4 23e8 9e36 68ab 0638 b14f a2b6
00000010: 8173 9bb7 d985 cd34 40ef 08b7 fb09 1a38
00000020: 70db 0a35 b16a da35 8288 1b37 a144 5a33
00000030: fe83 0bb8 28af b537 ec75 abb7 a1fd b535
00000040: 591e 4db7 9a12 5f35 9e37 23b5 b2e2 c6b7
00000050: 8ae0 34b8 03a9 07b8 a341 e3b7 d196 2ab6
00000060: 3bd2 e037 ff7b 7b37 2aa1 8436 d7b5 37b8
00000070: c5b5 e332 262e 4cb6 43b8 f537 631d cfb5
00000080: 0c1b 14b4 eff8 beb7 7771 16b8 1dd7 8ab7
00000090: c632 5236 48e0 5835 b372 acb6 fa2b 6833
000000a0: fac1 0ab8 8c96 c6b5 62c3 f4b6 6360 f837
000000b0: 70b4 0fb5 4c30 d937 6d22 9a37 99e2 31b6
000000c0: 12af ebb7 c657 37b8 0ee1 1d37 ba45 24b8
000000d0: 2964 b736 39e9 71b4 b7a0 ac35 21da 3238
000000e0: 16ad 3fb7 93e5 2eb6 dfb2 8738 46d0 5bb7
000000f0: a892 acb7 9cfc 3eb3 d9ac 76b6 13f2 9536
00000100: 14c7 1537 461a ce35 b338 f1b3 6dc5 a837
00000110: 8358 71b6 5684 1835 4de4 fab6 eb0f 6f37
00000120: 6b0b 6036 4a13 53b6 fa12 8d37 f947 b837
00000130: 821d 3038 500f e537 90f3 7e37 8c26 25b5
00000140: 83b8 e137 11f7 1938 8547 04b8 b4b6 bbb7
00000150: fa20 9837 9c76 ddb6 4fe5 95b8 33de d8b5
00000160: 3f64 e6b4 1d17 9d37 ebb3 a437 77ca de37
00000170: b62e 61b6 f53a 03b8 3b7f bd38 663f b236
00000180: a01b 3835 9647 da35 b735 cf35 6042 6d36
00000190: ba6b 89b6 8aa2 7338 baf6 9836 dae2 c3b7
000001a0: 9ba9 3138 0c2e a036 133d 71b7 94f3 b237
000001b0: bcb0 b436 df88 2bb8 00e4 c1b6 c92f 2335
000001c0: 6cff 1638 b0b6 9537 5bcf ccb5 240f 2b35
000001d0: 2eff 82b6 c887 3238 d40b 4236 c100 4337
000001e0: 2143 ecb7 0bff 5233 bacc 0eb4 4f70 c437
000001f0: e985 3eb6 59d9 3238 55df a9b7 9931 2836

exp_avg_sq f4 [128]
9.1828255e-12 1.8906536e-11 4.218551e-09 1.9027921e-09 3.3828004e-10 1.3742736e-12 1.0862984e-11 1.6849353e-09
2.418392e-12 2.538459e-09 2.2660661e-10 1.3553671e-11 1.2271318e-09 4.5703996e-10 1.098473e-09 5.0461484e-12
2.4641031e-09 2.0215923e-12 6.116905e-12 5.168098e-10 5.5364278e-09 1.2083597e-09 1.9638982e-09 2.9657377e-11
4.496522e-10 1.0641299e-09 2.6909629e-11 2.1272175e-09 9.506989e-15 1.615195e-09 2.5251978e-09 2.6816867e-12
6.4460964e-10 4.1577737e-09 4.257092e-09 1.9333402e-09 2.5325357e-09 8.952765e-12 7.874872e-12 4.9716446e-12
4.9486264e-09 1.7309727e-11 4.400947e-10 5.316932e-09 8.8565407e-13 7.299841e-09 4.209037e-09 6.523274e-11
9.243797e-09 3.3622698e-09 6.511228e-11 8.448773e-09 2.8287586e-10 2.7986165e-14 1.1004566e-12 1.7734533e-09
7.79117e-09 8.620564e-12 3.351611e-09 5.837151e-10 5.0642024e-09 1.7326455e-15 5.847911e-11 8.9406e-12
6.077448e-11 1.251783e-12 1.8507463e-14 8.4569823e-10 1.157575e-10 1.5750037e-12 1.9425135e-11 2.4788478e-09
2.3987588e-11 2.1245408e-10 1.9799065e-09 2.2874283e-10 2.3958013e-09 1.2142947e-09 1.2416231e-09 8.5712895e-12
6.7097816e-10 8.200378e-09 4.078431e-09 1.3380322e-09 2.750961e-09 4.4505493e-11 3.525341e-09 3.1945432e-11
8.06148e-12 8.4879553e-10 1.9960413e-09 1.2141016e-09 1.914767e-11 7.6260465e-10 9.710068e-09 1.6855956e-11
6.304825e-13 1.9425765e-11 2.5153278e-12 2.3139493e-10 1.0270686e-11 5.50724e-09 3.4099203e-11 2.307951e-09
4.533133e-09 1.1914353e-09 1.0617843e-09 6.339987e-10 2.3648458e-10 3.5445584e-09 5.881663e-09 3.2812468e-11
6.0565153e-10 1.8212853e-09 2.1350477e-11 2.7282152e-12 1.2662399e-11 1.3714847e-09 1.2936341e-11 1.7122258e-10
5.685904e-09 1.4198805e-10 1.1864708e-14 3.0563612e-09 1.9178945e-09 1.7410254e-09 1.5565654e-09 1.8048986e-11
00000000: c58b 212d bc4d a62d c4f2 9031 46c2 0231
00000010: aff8 b92f 6d69 c12b 881a 3f2d 6493 e730
00000020: e12d 2a2c 0b71 2e31 1728 792f 4f70 6e2d
00000030: dda7 a830 a842 fb2f 15f9 9630 aa8b b12c
00000040: f654 2931 c541 0e2c 2f38 d72c 420f 0e30
00000050: ef3a be31 6113 a630 43f5 0631 3d6f 022e
00000060: ec32 f72f be40 9230 19b3 ec2d 682e 1231
00000070: 4043 2b28 9ffd dd30 c087 2d31 f9b4 3c2c
00000080: 5f30 3130 2adc 8e31 c745 9231 aedb 0431
00000090: d708 2e31 ab7f 1d2d 4589 0a2d 98ec ae2c
000000a0: 9408 aa31 0a42 982d d3f1 f12f 3ab0 b631
000000b0: 1a4a 792b 15d2 fa31 159f 9031 c572 8f2e
000000c0: a6ce 1e32 ad0d 6731 f42e 8f2e 1926 1132
000000d0: 3d83 9b2f b413 fc28 21e0 9a2b d7bd f330
000000e0: eed9 0532 92a7 172d 2a52 6631 4c73 2030
000000f0: 3201 ae31 56b3 f926 d098 802e e248 1d2d
00000100: fea4 852e 3c2c b02b 4eb3 a628 b976 6830
00000110: ae8d fe2e 7da9 dd2b 84dd aa2d 5a58 2a31
00000120: 3fff d22d 8298 692f e20e 0831 6281 7b2f
00000130: 62a3 2431 32e4 a630 bba5 aa30 a8c9 162d
00000140: e46f 3830 a5e1 0c32 4222 8c31 d3e5 b730
00000150: 6b0b 3d31 bbbc 432e 7442 7231 5c7f 0c2e
00000160: aed1 0d2d ad50 6930 bb2a 0931 67dd a630
00000170: b86c a82d 889f 5130 55d1 2632 3d44 942d
00000180: 0d77 312b efde aa2d 1e00 312c e26b 7e2f
00000190: 0faf 342d 323a bd31 4af8 152e e799 1e31
000001a0: dcc1 9b31 e7bf a330 37ee 9130 b145 2e30
000001b0: 3f02 822f 8894 7331 a817 ca31 8e4f 102e
000001c0: f07a 2630 c850 fa30 00cd bb2d 28fb 3f2c
000001d0: 60c2 5e2d d47e bc30 1a94 632d df42 3c2f
000001e0: be5d c331 151e 1c2f 4fbc 5528 1308 5231
000001f0: f5cb 0331 e348 ef30 c7ee d530 b4c2 9e2d
