results/ppo/MlAgent/MlAgent-500140.onnx (onnx, 97289 bytes, 9 tensors)

action_model._discrete_distribution.branches.0.bias f4 [3]
-0.0054183565 -0.0018915022 0.0060126
00000000: 788c b1bb 48ec f7ba 5805 c53b

action_model._discrete_distribution.branches.0.weight f4 [3, 128]
0.01952218 0.014261044 0.01494676 -0.016513668 0.012070499 0.0009978113 0.004221696 0.005222535
-0.012409897 0.013981015 -0.008625224 -0.004387689 -0.0053747655 0.004561782 0.026747098 -0.01428957
0.018951856 -0.0024692647 0.020066474 -0.0072074323 -0.010974579 -0.00879093 -0.015360305 0.0077196225
-0.012586066 -0.011493423 -0.0051404773 -0.021823483 -0.01473521 -0.005657823 0.0029855068 -0.015983732
0.0021727374 0.008085294 -0.0094104195 0.003456857 -0.0008468706 0.017331002 -0.00418089 0.025278904
-0.0058818916 0.0040461696 -0.018219609 0.010477686 0.025354028 0.005466644 -0.00161987 0.0041546924
-0.0029223324 0.011577162 0.012608106 0.0066861534 -0.012847328 -0.005337588 -0.00509505 -0.0010537034
0.016030356 -0.010201895 -0.018937176 0.016456999 -0.013023785 -0.0022207357 0.027506199 0.011937757
-0.0052496507 -0.0062670233 -0.000546094 0.0019751312 -0.0020285132 -0.0003695625 0.0030025614 0.0072517353
1.1161922e-05 0.0054441644 0.0010121365 -0.0050391085 -0.0075768856 -0.013181324 -0.0015743193 0.0073007527
-0.01707396 -0.027110111 0.006850696 0.02093968 0.008046194 0.012387558 0.009142589 -0.030468356
0.00033130436 -0.00024381743 -0.004251231 -0.0030533313 0.013004781 -0.015189317 -0.00049285876 -0.0046007093
-0.010599875 -0.022689523 0.008767811 4.7993573e-05 -0.009640081 0.02188547 -0.0106434915 0.0016581292
-0.021733616 0.012817667 0.013458069 0.013810508 -0.0024764016 0.014321897 -0.0049135676 -0.0146077955
0.007491015 0.016002208 -0.017296178 0.0022353097 0.011407786 -0.0036688612 -0.00804618 -0.0057259756
-0.011489656 -0.002165825 -0.014783544 0.0218219 -0.014935288 0.028040627 0.01771322 0.007656517
-0.016009493 0.011037945 -0.016988698 0.01111715 0.009719111 0.015160644 0.004039306 0.0020279323
0.001525624 0.0041287406 -0.00562321 0.023929434 0.004762557 -0.004284327 -0.014192562 0.0059143943
-0.019217327 0.0030260617 -0.0044993195 0.012758209 0.023428679 -0.0017803996 0.0016741811 0.005964607
0.0011585775 0.0046546245 -0.00853501 -0.013038151 0.0027577681 0.016490418 0.003383039 0.0005971637
0.004149887 -0.005778737 0.004943944 -0.013464044 0.0024929692 0.0019456093 -0.009775707 0.007089767
-0.010658565 -0.005460362 -0.0018433776 -0.0094820885 -0.008236285 0.002122235 0.008996903 -0.0032181777
-0.0045016017 0.004869833 -0.011252745 0.009835882 0.0043706684 -0.013811575 -0.013382461 -0.00833569
0.015318077 -0.0061636213 0.0044109873 0.0013338653 0.01422893 0.0111108525 -0.013232515 -0.01159165
-0.007226576 -0.012841552 -0.01188378 -0.004682153 0.0051500434 0.00858459 -0.0013785991 -0.001001968
-0.0018873868 -0.014103529 0.0026820477 -0.0030009511 -0.007863015 0.01540322 -0.0014463429 0.0013461327
0.0038566007 0.014653943 -0.0014269002 -0.01549656 0.01414332 -0.0033267771 0.0047123902 0.024055304
0.0034334667 0.0060079857 0.00997488 -0.009853199 -0.014288598 -0.0085596815 0.0069314116 -0.004650529
0.015608744 0.005098353 0.0050678914 -0.008238476 0.0040932596 -0.020867538 -0.00045392767 0.012430476
-0.0032756417 -0.014210441 0.010076377 0.006495215 0.010762144 -0.0043738 -0.01416586 0.018051062
0.003539217 -0.026094818 -0.024941651 -0.014180354 0.0033454804 0.013279507 0.00062936224 0.021521157
0.01064786 -0.013857734 0.010237634 -0.00066444493 0.004388504 0.0037004906 -0.002285338 0.014729089
00000000: fbec 9f3c 27a7 693c 41e3 743c ac47 87bc
00000010: 58c3 453c fec8 823a 2756 8a3b cd21 ab3b
00000020: e152 4bbc a110 653c d050 0dbc 9ac6 8fbb
00000030: cd1e b0bb 007b 953b bb1c db3c cd1e 6abc
00000040: ec40 9b3c 63d3 21bb 7262 a43c 532c ecbb
00000050: b8ce 33bc d507 10bc caa9 7bbc e3f4 fc3b
00000060: c935 4ebc e94e 3cbc 7371 a8bb 29c7 b2bc
00000070: f36b 71bc 4265 b9bb 7ea8 433b 51f0 82bc
00000080: 7c64 0e3b 2e78 043c 292e 1abc 708c 623b
00000090: 8600 5eba bff9 8d3c d9ff 88bb b415 cf3c
000000a0: e2bc c0bb bb95 843b 4a41 95bc 9aaa 2b3c
000000b0: 40b3 cf3c 8921 b33b d151 d4ba 1624 883b
000000c0: 9a84 3fbb 23ae 3d3c 3b92 4e3c 8517 db3b
000000d0: 997d 52bc efe6 aebb 61f4 a6bb 6b1c 8aba
000000e0: 1852 833c d925 27bc 2322 9bbc d4d0 863c
000000f0: b761 55bc c389 11bb ae54 e13c 9596 433c
00000100: 4305 acbb 9a5b cdbb bf27 0fba 3471 013b
00000110: cef0 04bb d7c1 c1b9 9fc6 443b f79f ed3b
00000120: 1744 3b37 f664 b23b aaa9 843a 1b1f a5bb
00000130: 8647 f8bb 7bf6 57bc 6459 ceba 273b ef3b
00000140: b0de 8bbc 0616 debc ce7b e03b b189 ab3c
00000150: 2fd4 033c 2ff5 4a3c ccca 153c c698 f9bc
00000160: ebb2 ad39 3ea9 7fb9 e94d 8bbb 661a 48bb
00000170: 0112 553c 9ddc 78bc 3133 01ba 8cc1 96bb
00000180: 19ab 2dbc 61df b9bc dda6 0f3c b54c 4938
00000190: 6ef1 1dbc 2849 b33c 0a62 2ebc 9555 d93a
000001a0: b20a b2bc 3101 523c 3c7f 5c3c 7845 623c
000001b0: 204b 22bb 64a6 6a3c fe01 a1bb 8955 6fbc
000001c0: 3077 f53b 1017 833c b7b0 8dbc 467e 123b
000001d0: b9e7 3a3c 4771 70bb 20d4 03bc f7a0 bbbb
000001e0: 1c3f 3cbc 84f0 0dbb ad36 72bc d7c3 b23c
000001f0: 23b3 74bc 75b5 e53c 511b 913c 85e3 fa3b
00000200: 5726 83bc 7fd8 343c e22b 8bbc b524 363c
00000210: e83c 1f3c 5a64 783c 285c 843b 0fe7 043b
00000220: 72f7 c73a 634a 873b e842 b8bb a907 c43c
00000230: 390f 9c3b 8a63 8cbb eb87 68bc 89cd c13b
00000240: a86d 9dbc e450 463b 076f 93bb cf07 513c
00000250: 80ed bf3c 4c5c e9ba 3270 db3a c072 c33b
00000260: 69db 973a d285 983b 6dd6 0bbc f89d 55bc
00000270: acbb 343b ea16 873c fab5 5d3b fa8a 1c3a
00000280: c6fb 873b 8f5b bdbb cf00 a23b 4b98 5cbc
00000290: 1561 233b d103 ff3a 492a 20bc 4751 e83b
000002a0: 43a1 2ebc d6ec b2bb 7d9d f1ba c35a 1bbc
000002b0: 7cf1 06bc 3215 0b3b bf67 133c 10e8 52bb
000002c0: 2c82 93bb 1f93 9f3b 6f5d 38bc ae26 213c
000002d0: d337 8f3b f249 62bc 1c42 5bbc 6b92 08bc
000002e0: acf8 7a3c 34f8 c9bb 0b8a 903b 18d5 ae3a
000002f0: 7520 693c 4b0a 363c 31cd 58bc e7ea 3dbc
00000300: eacc ecbb 5f65 52bc 30b4 42bc bf6c 99bb
00000310: b2c1 a83b 61a6 0c3c 1cb2 b4ba 7854 83ba
00000320: 3162 f7ba 7d12 67bc 4bc5 2f3b 9bab 44bb
00000330: e0d3 00bc ca5d 7c3c 3793 bdba b870 b03a
00000340: 06bf 7c3b 1717 703c d306 bbba 49e5 7dbc
00000350: 62b9 673c 0f06 5abb 656a 9a3b a10f c53c
00000360: 0304 613b a3de c43b ae6d 233c 506f 21bc
00000370: b91a 6abc e83d 0cbc e520 e33b 7763 98bb
00000380: d1bb 7f3c 1610 a73b 8e10 a63b acfa 06bc
00000390: c020 863b 66f2 aabc 24fd edb9 32a9 4b3c
000003a0: 26ac 56bb e9d2 68bc 6317 253c d0d5 d43b
000003b0: b453 303c 1852 8fbb ec17 68bc d2df 933c
000003c0: 35f2 673b cdc4 d5bc 6f52 ccbc b754 68bc
000003d0: d93f 5b3b 4a92 593c c9fb 243a 234d b03c
000003e0: 5d74 2e3c 8d0b 63bc c0bb 273c 252e 2eba
000003f0: 71cd 8f3b ee83 723b 9cc5 15bb 4752 713c

action_model._discrete_distribution.branches.1.bias f4 [3]
-0.04958321 0.026534894 0.022049045
00000000: c417 4bbd b55f d93c 33a0 b43c

action_model._discrete_distribution.branches.1.weight f4 [3, 128]
0.03786117 -0.06643507 0.046183635 -0.029628316 0.037262157 0.03265381 0.04334545 0.046702616
-0.027166732 0.054472204 -0.04554364 -0.070810564 0.054100115 -0.028075522 0.050828584 -0.055573907
0.053632863 0.046409372 0.04212761 -0.04031242 -0.05123158 -0.017781066 -0.060864903 0.05662985
-0.038892746 -0.041958097 -0.056179654 0.041782856 -0.049707405 0.03488174 0.060739476 -0.03632795
-0.05621015 -0.0103317145 0.051330313 -0.027939124 -0.04793288 0.04456889 0.029413816 0.032369386
-0.039071076 0.058923278 -0.03883062 0.01752756 0.055544734 0.035807166 0.05632622 0.032497033
-0.034130022 -0.056612346 0.055835042 0.042365227 0.036797717 -0.019538056 -0.046938974 0.063558824
0.054392368 -0.042529006 -0.068149045 0.05012609 -0.055692494 -0.05507338 0.07459941 0.054090157
-0.040184245 0.05043004 -0.03859873 -0.02548152 -0.03594844 0.042940475 0.043580346 0.051528294
0.04701506 -0.03685806 0.046837386 -0.04910167 -0.036613908 -0.034749474 -0.03807268 0.052952435
-0.04420886 -0.05348002 0.034505866 0.04669619 -0.065170035 0.0543506 0.020740556 -0.072748736
-0.06498105 0.018429 -0.060096726 -0.029430293 -0.03905311 -0.055385273 -0.053354118 -0.057419922
0.0034606408 -0.008919991 0.052222155 -0.0548783 0.03599576 0.024702003 0.031524852 -0.042273115
-0.021793086 0.02690988 0.055604223 0.05721505 -0.02326579 0.04830408 0.02930604 -0.056361742
0.048538145 -0.034954753 0.04662713 0.02795092 0.030591482 -0.039667867 -0.039306507 -0.03221956
-0.046503525 -0.037303343 -0.04238572 0.056793366 0.02437302 0.02684533 0.05678722 0.049855974
-0.0313005 0.01785926 -0.023725376 0.029864594 -0.034328226 -0.015012483 -0.027541718 -0.0152791655
0.019521952 -0.02733143 0.009265281 0.024646806 -0.022559147 0.022769148 -0.032619674 0.034941893
-0.02233631 -0.014774107 -0.01697267 0.034758214 0.030241147 0.023474118 0.023626383 -0.0060516587
0.021245549 0.031020584 0.017228764 -0.013248773 0.04069629 -0.018976333 -0.028634222 0.035429604
0.024866631 0.0056087924 -0.029695265 0.004655678 0.024906524 -0.018813597 -0.022586072 -0.032854956
0.023134233 -0.014049851 0.028321264 -0.024046024 -0.01795886 -0.017483445 -0.031094328 -0.01185223
0.030787218 0.020310916 -0.025347155 -0.013779469 -0.021017475 0.020302676 0.018074553 -0.026611475
-0.0061284155 0.023279842 0.01656739 -0.03325664 0.025546357 0.024203386 -0.008732015 -0.038105443
0.020124767 -0.031507943 0.021887887 0.034495886 0.028335603 -0.012844379 -0.038091276 -0.035264984
-0.035223946 0.018502532 -0.03138981 0.025357496 0.014154939 0.018837173 0.012227431 -0.034247622
0.0077962806 0.025568735 -0.026593586 -0.025696004 0.013711002 -0.019356266 -0.00884612 0.020255415
0.028870756 -0.013123257 0.011322559 0.0074436087 0.0052467086 0.018298332 0.019684182 0.010166808
-0.009182351 0.01111562 -0.024116075 0.02404277 -0.019936798 0.0022389828 -0.010099454 0.005239433
0.017838318 -0.0032289352 -0.03521437 -0.03159993 0.031486258 -0.025753217 -0.019350028 0.02015445
-0.025368227 -0.0008920053 -0.031891953 -0.012691762 -0.028781071 0.015045726 0.010262086 0.02959338
0.013622196 0.020216819 0.028653353 -0.014225197 -0.018832937 -0.023054674 -0.025086489 -0.013586892
00000000: 5014 1b3d 1c0f 88bd 0d2b 3d3d 15b7 f2bc
00000010: 34a0 183d 00c0 053d 008b 313d 3e4b 3f3d
00000020: c48c debc 3f1e 5f3d f88b 3abd 2105 91bd
00000030: 1598 5d3d a3fe e5bc a231 503d 77a1 63bd
00000040: 22ae 5b3d c117 3e3d 008e 2c3d a31e 25bd
00000050: 35d8 51bd 99a9 91bc 7a4d 79bd b4f4 673d
00000060: 004e 1fbd 41dc 2bbd a31c 66bd 8024 2b3d
00000070: fe99 4bbd 28e0 0e3d f5c9 783d 9ecc 14bd
00000080: 9d3c 66bd 5a46 29bc bc3f 523d 97e0 e4bc
00000090: 4555 44bd de8d 363d 3ef5 f03c c395 043d
000000a0: fe08 20bd 8959 713d db0c 1fbd f595 8f3c
000000b0: e082 633d 89aa 123d 53b6 663d 9c1b 053d
000000c0: eccb 0bbd 59e2 67bd 49b3 643d 2987 2d3d
000000d0: 34b9 163d 460e a0bc 1543 40bd 212b 823d
000000e0: 88ca 5e3d e532 2ebd ba91 8bbd 0451 4d3d
000000f0: d01d 64bd a094 61bd 93c7 983d a48d 5d3d
00000100: 3c98 24bd bb8f 4e3d b419 1ebd 9fbe d0bc
00000110: ac3e 13bd 5ae2 2f3d 4e81 323d 550f 533d
00000120: dd92 403d 7af8 16bd 8fd8 3f3d d51e 49bd
00000130: 77f8 15bd 7755 0ebd 19f2 1bbd a7e4 583d
00000140: 5914 35bd de0d 5bbd 0656 0d3d 8144 3f3d
00000150: de77 85bd bc9e 5e3d 19e8 a93c 4afd 94bd
00000160: c914 85bd 6af8 963c fc27 76bd cc17 f1bc
00000170: 27f6 1fbd abdb 62bd d989 5abd 2731 6bbd
00000180: ebcb 623b 2725 12bc e6e6 553d 11c8 60bd
00000190: 4a70 133d db5b ca3c 3420 013d 9326 2dbd
000001a0: 6a87 b2bc 1c72 dc3c 41c1 633d 545a 6a3d
000001b0: e697 bebc 80da 453d 3813 f03c 92db 66bd
000001c0: efcf 463d b72c 0fbd 17fc 3e3d 54f9 e43c
000001d0: fd9a fa3c c67a 22bd dcff 20bd a8f8 03bd
000001e0: 7b7a 3ebd 64cb 18bd a69c 2dbd 29a0 683d
000001f0: eda9 c73c bdea db3c b799 683d c735 4c3d
00000200: f434 00bd 954d 923c b85b c2bc 98a6 f43c
00000210: c19b 0cbd ebf6 75bc 2b9f e1bc 7755 7abc
00000220: 80ec 9f3c 2ae6 dfbc 68cd 173c 19e8 c93c
00000230: f6cd b8bc 5d86 ba3c 359c 05bd 3b1f 0f3d
00000240: a3fa b6bc 190f 72bc 450a 8bbc a15e 0e3d
00000250: 48bc f73c cb4c c03c 1e8c c13c fe4c c6bb
00000260: 250b ae3c e11e fe3c 5623 8d3c 6211 59bc
00000270: 27b1 263d 4174 9bbc 5192 eabc a21e 113d
00000280: 1bb5 cb3c f6c9 b73b 7c43 f3bc a88e 983b
00000290: c408 cc3c f91e 9abc 6d06 b9bc eb92 06bd
000002a0: 0184 bd3c 5931 66bc ff01 e83c 2bfc c4bc
000002b0: 761e 93bc 7139 8fbc 88b9 febc db2f 42bc
000002c0: 7a35 fc3c 1463 a63c d6a4 cfbc 48c3 61bc
000002d0: d72c acbc cc51 a63c 1611 943c 4f00 dabc
000002e0: e0d0 c8bb 5eb5 be3c 56b8 873c 1d38 08bd
000002f0: 9846 d13c 2e46 c63c ba10 0fbc 7414 1cbd
00000300: b2dc a43c 790e 01bd 3a4e b33c 8f4b 0d3d
00000310: 1120 e83c 3b71 52bc 9905 1cbd 0472 10bd
00000320: fc46 10bd 9f92 973c 9a92 00bd 86ba cf3c
00000330: 1eea 673c 6a50 9a3c 9055 483c 3c47 0cbd
00000340: f177 ff3b 8675 d13c cbda d9bc 6d80 d2bc
00000350: 1ca4 603c 0891 9ebc 51ef 10bc afee a53c
00000360: 5d82 ec3c ee02 57bc 4182 393c 84e9 f33b
00000370: 95ec ab3b 62e6 953c b940 a13c af92 263c
00000380: 9271 16bc 4a1e 363c 138f c5bc 58f5 c43c
00000390: 7f52 a3bc e6bb 123b 2e78 25bc 8daf ab3b
000003a0: aa21 923c 8b9c 53bb f13c 10bd ee6e 01bd
000003b0: bcf7 003d 69f8 d2bc f383 9ebc f21a a53c
000003c0: 07d1 cfbc 76d5 69ba 23a1 02bd 1cf1 4fbc
000003d0: 48c6 ebbc 5982 763c 4f22 283c d16d f23c
000003e0: a22f 5f3c be9d a53c 70ba ea3c cd10 69bc
000003f0: 8847 9abc 28dd bcbc 2e82 cdbc 8e9b 5ebc

discrete_action_output_shape f4 [1, 2]
3.0 3.0
00000000: 0000 4040 0000 4040

network_body._body_endoder.seq_layers.0.bias f4 [128]
-0.019686759 0.07111294 0.04000989 0.035020422 0.056440227 0.05422959 -0.016656414 -0.07318534
0.05005356 -0.007878754 -0.047560092 -0.04601844 -0.061853934 -0.059342448 0.05686577 0.03671975
-0.015792474 0.03946596 -0.07776544 0.044028886 -0.05679703 0.04436249 0.0348871 0.04474503
-0.05182545 0.071897715 -0.0006478882 -0.06699925 -0.044214703 -0.06352927 -0.06322905 -0.0685115
-0.05526773 -0.033207174 0.04927149 0.057218414 0.0467781 0.005426473 -0.056496892 -0.03530906
0.03156963 0.051396817 0.05462041 0.00067565095 0.009371803 -0.031237952 -0.062032662 0.04802108
-0.075835004 -0.009242334 -0.057994172 -0.07529806 0.057535965 -0.044127677 0.04762267 0.048273936
0.05344165 0.00972867 -0.020943474 0.03409964 -0.042135738 -0.078485385 -0.05352138 -0.064512424
0.059533138 0.025543738 0.044851046 -0.022094812 -0.054452304 -0.06984932 0.057630036 -0.058737885
0.048939764 -0.06041673 0.036934327 0.042035185 0.05343986 0.05374798 0.045983292 -0.021938063
0.001155261 -0.0051969513 0.048171867 -0.027819997 0.04713817 -0.020614063 0.04877336 0.055356473
-0.058472425 -0.06294826 -0.06508551 -0.07409975 0.055447105 -0.02559946 0.018558862 -0.070117235
-0.07876955 -0.052636787 0.053798538 0.056868225 -0.05660201 0.050963197 0.043945707 -0.06910051
0.043135162 -0.07401848 0.026043296 -0.06469853 0.04974758 -0.074378684 -0.0732413 0.012430181
0.032169335 -0.014239909 -0.06840525 0.022071537 0.048959035 0.009938456 0.062746994 0.028161004
0.04590424 -0.056116752 -0.042034384 -0.04691408 -0.041748323 0.04921632 -0.018291377 0.03246245
00000000: 2046 a1bc a9a3 913d 69e1 233d 9371 0f3d
00000010: de2d 673d d91f 5e3d 0873 88bc 32e2 95bd
00000020: f604 4d3d e415 01bc 5fce 42bd d57d 3cbd
00000030: 8d5a 7dbd 1111 73bd 15ec 683d 7367 163d
00000040: 385f 81bc 0fa7 213d 7d43 9fbd a257 343d
00000050: 01a4 68bd 71b5 353d c7e5 0e3d 9146 373d
00000060: ec46 54bd 1c3f 933d 0bd7 29ba e736 89bd
00000070: 7a1a 35bd a21b 82bd 3b7e 81bd c24f 8cbd
00000080: 6a60 62bd 3f04 08bd e7d0 493d db5d 6a3d
00000090: 659a 3f3d 8ed0 b13b 4969 67bd 3ca0 10bd
000000a0: 284f 013d 7885 523d a7b9 5f3d 2b1e 313a
000000b0: 318c 193c bce6 ffbc f615 7ebd c1b1 443d
000000c0: 624f 9bbd 296d 17bc 4c8b 6dbd df35 9abd
000000d0: d5aa 6b3d 39bf 34bd fd0f 433d e4ba 453d
000000e0: a2e5 5a3d 0065 1f3c a691 abbc 10ac 0b3d
000000f0: 8696 2cbd f2bc a0bd 3c39 5bbd 171f 84bd
00000100: 05d9 733d 1a41 d13c bbb5 373d 2e00 b5bc
00000110: 6109 5fbd 290d 8fbd 790d 6c3d 2397 70bd
00000120: 1075 483d 8877 77bd 7348 173d 162d 2c3d
00000130: c1e3 5a3d d826 5c3d fa58 3c3d 74b7 b3bc
00000140: 206c 973a 304b aabb dd4f 453d c3e6 e3bc
00000150: f413 413d d3de a8bc 93c6 473d 78bd 623d
00000160: c880 6fbd 04eb 80bd 8d4b 85bd 9cc1 97bd
00000170: 811c 633d f5b5 d1bc c108 983c a099 8fbd
00000180: ee51 a1bd ac99 57bd db5b 5c3d a8ee 683d
00000190: 82d7 67bd c9be 503d 6a00 343d 9184 8dbd
000001a0: 7fae 303d 0097 97bd c058 d53c aa80 84bd
000001b0: 1ec4 4b3d da53 98bd 89ff 95bd f5a7 4b3c
000001c0: fec3 033d 824e 69bc 0d18 8cbd 5ecf b43c
000001d0: 4589 483d e8d4 223c 7f81 803d e8b1 e63c
000001e0: 1606 3c3d aeda 65bd 3f2c 2cbd fa28 40bd
000001f0: 4a00 2bbd 0d97 493d ccd7 95bc 59f7 043d

network_body._body_endoder.seq_layers.0.weight f4 [128, 48]
-0.19136514 0.15053514 0.061298568 -0.11089013 0.023539072 -0.26173043 -0.119510435 -0.21546666
0.099277735 0.006093638 0.018653017 -0.10319958 0.06904381 -0.19555688 0.04573323 0.0069600134
0.025393598 -0.06522694 -0.089936025 -0.21291742 0.26006818 -0.018125098 -0.009669619 0.06251161
0.18800668 -0.06871365 -0.0053620455 0.10976764 -0.16360843 0.2015627 0.009713625 -0.33951497
0.2153684 0.020846482 -0.057936724 0.06445337 -0.4271157 0.007769689 -0.091483146 -0.33289796
0.14451519 0.16738467 -0.04564362 -0.31068888 -0.02722106 -0.030996969 0.051495228 -0.021656688
-0.0014808589 -0.019405587 0.15237458 -0.07387589 -0.0741292 -0.062876545 0.13324393 -0.019979734
0.25959286 -0.06881835 0.038003247 0.0912855 0.17614165 -0.075246036 0.10228307 -0.09867123
0.034956247 -0.06756127 0.11896332 -0.045497175 0.03626042 -0.061257362 0.10939165 -0.0669821
0.09770297 -0.21528257 0.019590488 0.01742354 0.04146312 0.2285177 -0.025937306 -0.13494487
0.0842021 0.013657056 0.07456074 0.18456343 -0.13572435 -0.332797 0.15468775 0.059034582
-0.03770772 0.01331965 0.27774674 0.20383343 0.002361623 0.13815111 0.05847156 -0.036195435
0.087258175 -0.053731292 0.2572704 0.034609884 -0.02784667 0.09090414 -0.03254492 0.17054005
0.10026949 0.21528618 0.36676002 -0.08348729 0.10886656 -0.231784 0.21977754 -0.010316438
0.17753711 0.05273654 -0.28792235 -0.13021457 0.02673502 -0.031176884 0.16863082 0.16381586
-0.006389723 0.09572171 -0.04654972 0.18025094 0.16853558 0.15625137 -0.11649019 0.07758605
0.24478441 0.04740657 0.10888079 0.15471724 -0.124582276 0.017803561 -0.15142877 -0.10402598
0.026664073 0.02546684 0.114939176 0.062185213 -0.08423444 0.06598004 -0.0776376 -0.14470647
0.31139684 -0.043698948 0.11507639 -0.094121195 0.04882346 -0.030938795 0.15128654 0.100117594
0.076347016 0.3234957 0.0028051867 0.19122863 0.13002062 -0.0009385592 -0.009334262 -0.2676843
0.15178728 0.24890342 0.2054021 -0.09114067 0.054671876 -0.040602703 -0.004743225 0.12974
0.1476688 0.24404934 0.10238593 0.007358101 0.23121439 0.13696899 -0.24746868 -0.063488126
0.13086616 -0.11417757 0.075129285 -0.0949194 -0.1234317 -0.019535942 -0.20340964 -0.136598
-0.18955418 -0.18616852 -0.2855562 -0.014741428 0.038647663 0.08942563 -0.09788053 0.18730958
-0.15262933 -0.057265215 0.15785027 0.032792572 0.19302018 0.046387237 -0.209364 0.09069152
0.21861978 0.0111200465 0.18074626 0.02868941 0.12563245 0.055307828 -0.0326488 -0.07729853
-0.009465651 0.16420199 0.14022514 0.035538077 0.10513095 -0.045386028 -0.06818029 -0.310502
0.16891462 0.037863795 -0.008258056 -0.097952224 0.20615312 -0.0029812877 0.00029387596 0.016223444
-0.09678052 -0.05406375 0.08858002 -0.079793096 -0.0036177144 -0.18395412 -0.03643104 0.11548158
-0.09711046 0.21417959 -0.12703104 -0.00033508072 0.15015967 0.23638192 -0.0032211156 -0.1898665
-0.13465108 -0.022327662 0.043508917 -0.012774594 -0.11900352 -0.008692139 0.14909469 -0.105200045
-0.06439041 0.06893277 0.060775626 0.032749135 -0.07342663 0.1992785 0.14336163 0.097644255
00000000: 39f5 43be e225 1a3e 3514 7b3d 5d1a e3bd
00000010: 03d5 c03c 8801 86be e3c1 f4bd 4ba3 5cbe
00000020: 2052 cb3d 24ad c73b 36ce 983c 4d5a d3bd
00000030: d766 8d3d 1040 48be c452 3b3d d310 e43b
00000040: 3c06 d03c b495 85bd 6130 b8bd 0607 5abe
00000050: a827 853e 167b 94bc 526d 1ebc 1606 803d
00000060: d384 403e beb9 8cbd 19b4 afbb dbcd e03d
00000070: f888 27be 7466 4e3e e525 1f3c e8d4 adbe
00000080: 8989 5c3e 3ec6 aa3c 0f4f 6dbd 2100 843d
00000090: e9ae dabe e098 fe3b 845b bbbd 9a71 aabe
000000a0: cafb 133e e366 2b3e cef4 3abd 9d12 9fbe
000000b0: b3fe debc 5bed fdbc a9ec 523d 5e69 b1bc
000000c0: 6119 c2ba 77f8 9ebc 1508 1c3e 3e4c 97bd
000000d0: 0dd1 97bd 6bc5 80bd 1971 083e 8aac a3bc
000000e0: 5be9 843e a3f0 8cbd 4ba9 1b3d e4f3 ba3d
000000f0: 7a5e 343e 981a 9abd c979 d13d 2414 cabd
00000100: 482e 0f3d 905d 8abd 0ba3 f33d 3f5b 3abd
00000110: ce85 143d 00e9 7abd bb08 e03d e92d 89bd
00000120: 7f18 c83d 0973 5cbe 3b7c a03c d0bb 8e3c
00000130: 3cd5 293d 8b00 6a3e 797a d4bc fd2e 0abe
00000140: 2772 ac3d d8c1 5f3c 4db3 983d 32fe 3c3e
00000150: 53fb 0abe 5e64 aabe 7766 1e3e 3fce 713d
00000160: 6973 1abd a93a 5a3c d234 8e3e b6b9 503e
00000170: 76c5 1a3b 7c77 0d3e e07f 6f3d aa41 14bd
00000180: 6ab4 b23d 5815 5cbd f2b8 833e 18c3 0d3d
00000190: b31e e4bc f32b ba3d d24d 05bd 0da2 2e3e
000001a0: 175a cd3d fb73 5c3e f8c7 bb3e 62fb aabd
000001b0: 6ef5 de3d c958 6dbe 5d0d 613e 4706 29bc
000001c0: 4acc 353e 4502 583d 8f6a 93be f856 05be
000001d0: 6703 db3c aa66 ffbc 8fad 2c3e 58bf 273e
000001e0: e260 d1bb be09 c43d ebaa 3ebd b493 383e
000001f0: 9794 2c3e 5c00 203e 6992 eebd 6fe5 9e3d
00000200: c4a8 7a3e 642d 423d e4fc de3d 326e 1e3e
00000210: fe24 ffbd c6d8 913c 2510 1bbe 930b d5bd
00000220: 9d6e da3c d69f d03c 3b65 eb3d ecb5 7e3d
00000230: 1b83 acbd 8b20 873d 7600 9fbd ef2d 14be
00000240: 686f 9f3e abfd 32bd 2cad eb3d 9dc2 c0bd
00000250: 1cfb 473d 5b73 fdbc dcea 1a3e 740a cd3d
00000260: d35b 9c3d 3aa1 a53e 39d7 373b 70d1 433e
00000270: 2024 053e a409 76ba bcee 18bc eb0d 89be
00000280: 206e 1b3e 8ae0 7e3e ee54 523e f6a7 babd
00000290: 9eef 5f3d 054f 26bd 0e6d 9bbb 90da 043e
000002a0: 7d36 173e 12e8 793e b7af d13d 3a1c f13b
000002b0: 77c3 6c3e 9941 0c3e 6e68 7dbe 1006 82bd
000002c0: c701 063e eed5 e9bd 62dd 993d 1a65 c2bd
000002d0: c2c9 fcbd d709 a0bc 9e4a 50be 59e0 0bbe
000002e0: 7e1a 42be f6a2 3ebe 6c34 92be 0886 71bc
000002f0: 034d 1e3d c924 b73d 9675 c8bd 15ce 3f3e
00000300: dd4a 1cbe ee8e 6abd 80a3 213e 8151 063d
00000310: 15a7 453e 8b00 3e3d 8463 56be 7abc b93d
00000320: dddd 5f3e db30 363c 8c15 393e 0e06 eb3c
00000330: cba5 003e 768a 623d c0ba 05bd b14e 9ebd
00000340: d115 1bbc 9124 283e 2e97 0f3e 6090 113d
00000350: e54e d73d b3e6 39bd 1ca2 8bbd 1efa 9ebe
00000360: f4f7 2c3e 1117 1b3d cc4c 07bc 2d9b c8bd
00000370: ce19 533e b561 43bb 5d13 9a39 07e7 843c
00000380: de34 c6bd f371 5dbd 7169 b53d 906a a3bd
00000390: 2d17 6dbb 785e 3cbe b738 15bd 9b81 ec3d
000003a0: d9e1 c6bd e551 5b3e 6d14 02be c6ad afb9
000003b0: 75c3 193e 1a0e 723e 5a19 53bb 5d6c 42be
000003c0: f9e1 09be 80e8 b6bc 6836 323d 884c 51bc
000003d0: 1eb8 f3bd 7969 0ebc 47ac 183e 1f73 d7bd
000003e0: 1fdf 83bd a02c 8d3d ddef 783d f523 063d
000003f0: b360 96bd aa0f 4c3e 64cd 123e b6f9 c73d

network_body._body_endoder.seq_layers.2.bias f4 [128]
-0.02036238 0.04023434 -0.051722087 0.025934521 -0.039784424 -0.025174681 -0.03589301 -0.03934579
0.020170089 -0.04989249 0.033960737 0.06149317 -0.050564237 0.026145864 -0.04129749 0.05302328
-0.037652865 -0.043456737 -0.04069859 0.04336897 0.041922208 0.0035793677 0.05073085 -0.0482864
0.042225655 0.039959997 0.048733156 -0.017322207 0.051629987 -0.028585345 -0.053863347 0.050080124
0.05807887 0.011737046 -0.047900002 0.012072487 0.04746073 -0.056008346 -0.02305659 -0.016544947
0.03964619 -0.059176743 0.04595994 -0.015435619 -0.048414495 -0.04256026 -0.04087411 -0.028487802
0.04715443 0.035910506 -0.046759013 -0.04699736 -0.035899516 0.019919837 0.03911712 -0.055174604
-0.038220234 0.053895514 0.05759613 -0.050001897 0.05125713 0.0575812 -0.046557713 -0.05329971
0.036160134 -0.057672545 0.031577926 0.033705607 0.027102467 -0.04060028 -0.052566633 -0.059953835
-0.050233234 0.02604669 -0.048901416 0.049863845 0.015803158 0.03833774 0.039279927 -0.05869271
0.018740848 0.047399096 -0.038842726 -0.047005232 0.05773067 -0.05343256 -0.007397733 0.049574863
0.057510033 -0.023081169 0.05897054 0.022606267 0.021344097 0.05332579 0.05837761 0.04925912
0.009811817 0.006414876 -0.045894567 0.04788118 -0.025697902 -0.021802593 -0.020079002 0.031299043
0.028090123 -0.033675175 -0.046707965 -0.04442783 0.019632189 -0.05467952 -0.01861217 0.035345916
-0.05812722 0.018016296 -0.045287285 -0.03801277 -0.03087692 0.034662638 0.023537412 0.04769005
0.038863577 0.029778045 0.04053921 -0.051736545 -0.01284646 -0.022642752 -0.05017135 -0.04163756
00000000: 02cf a6bc c3cc 243d 8ada 53bd a274 d43c
00000010: fef4 22bd 223b cebc 8d04 13bd 0d29 21bd
00000020: be3b a53c 115c 4cbd 6a1a 0b3d 43e0 7b3d
00000030: 721c 4fbd da2f d63c 8f27 29bd f02e 593d
00000040: e439 1abd b1ff 31bd 91b3 26bd a9a3 313d
00000050: 9fb6 2b3d d393 6a3b 27cb 4f3d f6c7 45bd
00000060: cff4 2c3d 18ad 233d 6b9c 473d 4de7 8dbc
00000070: f779 533d d02b eabc d09f 5cbd d120 4d3d
00000080: 1ce4 6d3d bd4c 403c cb32 44bd aecb 453c
00000090: 2f66 423d 0269 65bd 2de1 bcbc 4589 87bc
000000a0: 0b64 223d 5063 72bd 7d40 3c3d aee5 7cbc
000000b0: 474e 46bd ab53 2ebd 9c6b 27bd 405f e9bc
000000c0: 0125 413d e516 133d 6186 3fbd 4e80 40bd
000000d0: 5f0b 13bd ed2e a33c 4639 203d c4fe 61bd
000000e0: d28c 1cbd 8bc1 5c3d ebe9 6b3d cace 4cbd
000000f0: fff2 513d 44da 6b3d 4db3 3ebd cc50 5abd
00000100: a61c 143d 0c3a 6cbd db57 013d e40e 0a3d
00000110: fe05 de3c 7b4c 26bd 1c50 57bd 2792 75bd
00000120: 5dc1 4dbd de5f d53c da4c 48bd 083e 4c3d
00000130: a075 813c 0908 1d3d fde3 203d c467 70bd
00000140: 6886 993c 8e25 423d 8d19 1fbd 8f88 40bd
00000150: ff76 6c3d 1adc 5abd af68 f2bb 030f 4b3d
00000160: a48f 6b3d b814 bdbc 188b 713d c730 b93c
00000170: d1d9 ae3c 256c 5a3d 5c1d 6f3d eec3 493d
00000180: bec1 203c e133 d23b f1fb 3bbd 0e1f 443d
00000190: 6884 d2bc 5a9b b2bc b87c a4bc 6d33 003d
000001a0: 421d e63c fbee 09bd da50 3fbd f5f9 35bd
000001b0: afd3 a03c a2f7 5fbd 8d78 98bc e1c6 103d
000001c0: cf16 6ebd e996 933c 297f 39bd 47b3 1bbd
000001d0: 98f1 fcbc 69fa 0d3d 88d1 c03c a456 433d
000001e0: 6a2f 1f3d 16f1 f33c 710c 263d b3e9 53bd
000001f0: f579 52bc 4b7d b9bc 7980 4dbd 258c 2abd

network_body._body_endoder.seq_layers.2.weight f4 [128, 128]
-0.013774092 0.13204327 -0.08419652 -0.041295916 -0.10658012 0.009356696 0.11149824 0.14000581
-0.019125767 -0.039336763 0.04109076 0.044493545 0.06480284 0.09529491 0.054428805 0.1367816
-0.085765846 0.0021049262 0.14893627 -0.00817573 -0.04588923 0.07066147 0.15783936 0.119064525
0.09372674 -0.14238 0.033606973 0.01721991 0.21135649 0.0054561226 0.09980397 -0.030045345
0.05735014 -0.004811196 -0.053710528 -0.10525215 0.005200402 -0.030241085 -0.033563726 0.057093136
-0.10359733 -0.041231953 -0.064020365 -0.10903957 -0.057451017 -0.05931919 0.06664058 -0.033786174
0.23835145 0.08050304 0.027415963 -0.08349637 0.037061557 -0.031475462 -0.14814718 -0.21365903
-0.11664917 0.030492425 0.034194935 0.006129219 0.25294757 0.09061102 -0.03399815 -0.0015568256
0.04080705 -0.10607054 -0.08965225 0.07095787 0.086967126 -0.0681863 -0.096452564 0.014815248
0.07849228 -0.026584867 0.02228049 -0.15965109 -0.12775174 -0.022177115 0.06022724 -0.064001895
0.07616898 -0.061486337 -0.098658435 -0.0097197285 -0.02665136 0.13906227 -0.0052552666 0.01710498
-0.0012726466 -0.06321206 0.16252016 -0.088586435 0.050990533 -0.11592431 0.10385747 0.05733386
0.019945625 -0.014026492 0.11907528 0.13104363 0.11829275 0.028057842 -0.0608093 -0.048702143
-0.082162865 0.011854152 -0.052960124 -0.07930944 0.028137537 0.09338398 0.03070832 -0.25124335
0.17155518 0.14300835 0.0288585 -0.08151828 0.04256142 -0.05753152 0.029072788 0.17871688
-0.021000065 0.11557549 0.14319925 -0.009776245 0.029589968 -0.045736246 0.08230227 -0.15157385
-0.08183677 0.049622215 -0.0062808506 0.0064402875 0.053764805 0.16675657 0.0043032197 -0.012372858
0.17175543 -0.08825973 -0.03123259 -0.1157829 -0.027823402 0.011194579 -0.09142725 -0.13010304
-0.029607909 0.086030155 0.00552031 0.004493835 -0.007781534 -0.07658874 -0.0127577195 0.10761095
-0.06723145 -0.091350414 0.12717523 -0.017588975 0.026693998 -0.014579841 0.033650782 -0.012652206
-0.06934201 -0.10206097 0.03760071 -0.07817632 0.046843503 0.08312715 -0.11064552 -0.11323717
-0.027316293 0.031626612 0.18046007 -0.073073335 -0.12404988 0.022345182 -0.03896365 0.07757447
-0.13691533 -0.016958062 0.08408886 -0.120487735 0.07183821 -0.09347241 0.04780009 0.121220864
0.11147941 -0.016232401 -0.07247042 0.022435917 0.030722741 0.04783889 0.056833275 -0.0087983
0.012232027 0.25442073 0.06037981 -0.07218848 0.0459555 -0.042640004 0.037511457 0.098225296
-0.003947623 -0.01745972 0.012317298 0.038232695 -0.046910588 0.037156887 0.05690419 0.10288947
0.00041608087 -0.07842399 0.18771653 -0.08678661 0.101660855 -0.1427549 0.034545965 0.17033745
0.060934767 0.17225108 0.161662 -0.14464374 -0.034861177 0.08935448 0.012817803 -0.17181876
-0.12437126 -0.02677834 0.012948109 0.07359865 -0.070975706 -0.039032537 -0.051070493 -0.032612126
-0.08052712 -0.031174662 -0.062749945 -0.034457464 0.0043204436 0.12631863 0.007937773 0.013135317
0.0055460944 -0.058329005 -0.0871989 -0.0703539 0.00044925424 0.08278831 0.08659156 0.08355264
-0.11553515 -0.12773818 -0.015800167 -0.008449784 -0.048497498 0.088454366 0.058604095 -0.065349706
00000000: bbac 61bc 5a36 073e 3a6f acbd e825 29bd
00000010: ae46 dabd d44c 193c 3059 e43d af5d 0f3e
00000020: a4ad 9cbc 961f 21bd c94e 283d dd3e 363d
00000030: 5ab7 843d fa29 c33d bdf0 5e3d 7a10 0c3e
00000040: 01a6 afbd cdf2 093b c082 183e 7ff3 05bc
00000050: 58f6 3bbd f6b6 903d a4a0 213e 1ad8 f33d
00000060: cef3 bf3d 10cc 11be 77a7 093d c510 8d3c
00000070: d66d 583e 46c9 b23b 0666 cc3d a821 f6bc
00000080: fbe7 6a3d 3da7 9dbb 92ff 5bbd 708e d7bd
00000090: 2268 aa3b 27bc f7bc 1e7a 09bd 7eda 693d
000000a0: d62a d4bd d6e2 28bd 1c1d 83bd 2350 dfbd
000000b0: c251 6bbd aef8 72bd db7a 883d 5f63 0abd
000000c0: 6712 743e c7de a43d 7197 e03c 2500 abbd
000000d0: dccd 173d 6aec 00bd e5b3 17be 6fc9 5abe
000000e0: c3e5 eebd 40cb f93c fd0f 0c3d 9ed7 c83b
000000f0: 5882 813e 4592 b93d a541 0bbd 660e ccba
00000100: 4b25 273d 833b d9bd 999b b7bd 5c52 913d
00000110: d21b b23d 42a5 8bbd ec88 c5bd a7bb 723c
00000120: 8fc0 a03d 82c8 d9bc 9385 b63c 937b 23be
00000130: 5ad1 02be c8ac b5bc d7b0 763d 6d13 83bd
00000140: 7bfe 9b3d 19d9 7bbd 6f0d cabd 7f3f 1fbc
00000150: f453 dabc 5766 0e3e 5f34 acbb be1f 8c3c
00000160: efce a6ba 5375 81bd af6b 263e ce6c b5bd
00000170: 73db 503d ba69 edbd 3ab3 d43d e9d6 6a3d
00000180: 0265 a33c 5fcf 65bc bedd f33d 4d30 063e
00000190: 7843 f23d 8fd9 e53c 2c13 79bd e67b 47bd
000001a0: 0145 a8bd eb37 423c b7ec 58bd fd6c a2bd
000001b0: b180 e63c 1a40 bf3d 0490 fb3c f8a2 80be
000001c0: 29ac 2f3e c870 123e a968 ec3c 0ef3 a6bd
000001d0: e254 2e3d 2ca6 6bbd 0e2a ee3c 8f01 373e
000001e0: 5408 acbc d8b2 ec3d d3a2 123e 8b2c 20bc
000001f0: a966 f23c ee55 3bbd 188e a83d 2d36 1bbe
00000200: 099a a7bd aa40 4b3d 98cf cdbb 0c09 d33b
00000210: 7c38 5c3d 3cc2 2a3e 0602 8d3b 87b7 4abc
00000220: a8e0 2f3e 84c1 b4bd 7ddb ffbc 961f edbd
00000230: e7ed e3bc 7869 373c 363e bbbd bb39 05be
00000240: 498c f2bc 9430 b03d b7e3 b43b 0541 933b
00000250: 3dfc febb 8fda 9cbd c105 51bc 2163 dc3d
00000260: a4b0 89bd ed15 bbbd 393a 023e c116 90bc
00000270: 5fad da3c 49e0 6ebc 67d5 093d 334b 4fbc
00000280: 2f03 8ebd 5805 d1bd 3403 1a3d e81a a0bd
00000290: f9de 3f3d 913e aa3d 1e9a e2bd e4e8 e7bd
000002a0: 6bc6 dfbc e88a 013d 86ca 383e 79a7 95bd
000002b0: dd0d febd 3e0d b73c 5998 1fbd 5ddf 9e3d
000002c0: 8833 0cbe a2eb 8abc c836 ac3d 46c2 f6bd
000002d0: e91f 933d 776e bfbd 07ca 433d a542 f83d
000002e0: 514f e43d d0f9 84bc 5f6b 94bd 87cb b73c
000002f0: 42ae fb3c b6f2 433d 02ca 683d bf26 10bc
00000300: d768 483c 6f43 823e d250 773d 8ed7 93bd
00000310: d63b 3c3d 49a7 2ebd 9da5 193d 582a c93d
00000320: 105b 81bb b007 8fbc 7ece 493c e399 1c3d
00000330: 5125 40bd d231 183d 5e14 693d b7b7 d23d
00000340: 6e25 da39 c29c a0bd c338 403e 2ebd b1bd
00000350: 9133 d03d 572e 12be 1280 0d3d f16c 2e3e
00000360: bc96 793d 9662 303e b98a 253e 7d1d 14be
00000370: 98ca 0ebd 7bff b63d c301 523c 42f1 2fbe
00000380: 5cb6 febd 405e dbbc 4e24 543c e4ba 963d
00000390: b65b 91bd 95e0 1fbd 4b2f 51bd 4b94 05bd
000003a0: 67eb a4bd 0162 ffbc 0b83 80bd 4523 0dbd
000003b0: 8292 8d3b ac59 013e 6f0d 023c 8335 573c
000003c0: 03bc b53b 65ea 6ebd 5695 b2bd b515 90bd
000003d0: e289 eb39 eb8c a93d ea56 b13d a61d ab3d
000003e0: b19d ecbd cccd 02be 5a6f 81bc f670 0abc
000003f0: 50a5 46bd 9027 b53d d90a 703d 11d6 85bd
