results/ppo/MlAgent/MlAgent-12760.onnx (onnx, 134638 bytes, 7 tensors)

action_model._continuous_distribution.log_sigma f4 [1, 3]
0.0039061178 0.0030852633 -0.0029964235
00000000: c8fd 7f3b 2132 4a3b a55f 44bb

action_model._continuous_distribution.mu.bias f4 [3]
0.00028859315 -0.00041744046 -0.000106092324
00000000: 514e 9739 e9db dab9 e27d deb8

action_model._continuous_distribution.mu.weight f4 [3, 128]
0.014903115 -0.01444485 0.021912241 0.019651318 0.015826836 0.001199867 -0.030083938 0.0064730057
0.038914178 -0.005535286 0.0036996847 -0.018805083 0.008731257 0.016570242 -0.013770083 0.010648227
0.01832644 0.01170329 -0.033295922 0.011117301 0.012409316 0.023317646 0.009111982 -0.0120651685
0.00048339443 0.0063425177 -0.032167412 -0.01335966 -0.012236322 0.026338419 0.0046410137 -0.018722415
0.027166523 0.0048453133 -0.006325634 0.007716716 0.008508377 -0.0021062924 -0.007391719 -0.015241782
-0.003963554 -0.012556192 0.01186668 0.01573957 -0.0018870253 -0.00287241 0.015703049 -0.0038540827
0.019735765 -0.034279794 0.004095578 -0.0012195583 -0.026050026 0.035549678 -0.006445563 -0.017975124
0.0156055465 0.009331251 -0.015772646 -0.007890598 0.0024295475 0.0005645634 0.018788932 -0.022366624
0.00616098 0.022740025 -0.005368756 0.010585125 0.008038322 0.011895078 0.010362151 0.016590608
0.004987816 0.014377965 0.01929804 0.019521516 0.028212221 -0.010800163 -0.0041518374 -0.05148936
-0.026080163 0.0067901993 -0.008272418 0.023428304 -0.0055366326 0.014141215 -0.019638572 0.010003397
0.013250592 -0.015922429 -0.008554845 0.0102305645 0.00025720824 -0.03478603 -3.4092605e-05 -0.041771088
0.008751234 -0.0062242523 -0.008960288 0.018851118 0.010364245 -0.0024330395 0.005696776 -0.004155322
0.013107822 0.0004027423 0.010859718 0.002908102 -0.017835682 -0.01835518 0.04352753 -0.01957925
0.0045696166 -0.012299171 -0.009842916 0.00981136 0.0117611205 0.032316703 -0.005658062 -0.021957844
0.023868853 0.017550971 -0.008119579 -0.02936051 -0.011141484 0.0011094587 -0.009991002 -0.009534281
0.015485559 -0.0015514103 0.019460773 0.0040147975 0.010141775 -0.012934334 0.018264359 0.01578835
0.0044933013 -0.020329919 -0.007704175 -0.022896081 0.0071125277 0.03795922 -0.006644573 -0.0051183677
-0.009622103 -0.026231691 0.0012394716 0.031636078 0.025162311 0.011600263 -0.0050918353 0.009332851
-0.013829204 -0.010181205 -0.02282249 0.004852535 0.010378988 0.02565887 -0.028080797 -0.017633045
-0.008626196 -0.03904573 0.00581143 0.0007452625 0.017074147 0.011411678 0.023636485 -0.017584292
0.02534015 -0.009284501 -0.0145774875 0.00019471308 -0.00067535066 -0.009474762 0.00016121584 -0.008184221
-0.0053453157 0.01390578 -0.0020003158 -0.015824521 0.0056232917 -0.012017842 -0.032188654 -0.00025524333
-0.025115503 0.0010571573 0.005441529 0.015210049 0.005614834 -0.020593558 -0.006016542 0.018412603
-0.014179668 -0.027504247 -0.007813288 -0.041195597 0.023699237 -0.032096867 0.012757451 0.013031355
-0.005133436 0.0078254575 0.0046212804 -0.011092118 -0.0071580736 0.0052334727 -0.020410882 -0.013652426
-0.0009086855 0.021296594 -0.0022537552 0.007143502 0.006186282 -0.04583172 0.0023020227 0.023128351
-0.015693976 -0.011590024 0.0063064457 0.025350092 -0.01703093 0.011208962 0.004543417 0.008404992
-0.03892928 -0.0016863834 -0.008925435 -0.00015397934 -0.03945958 -0.012092174 0.006180494 0.018463833
0.008914326 0.001819126 0.018529862 0.006198561 0.03405505 -0.024604026 0.011474209 -0.0052303323
0.007785 0.029272119 0.0108826775 -0.022729937 0.004009654 0.007799375 0.011102747 -0.01402246
-0.011488423 -0.03410661 -0.014589308 0.0139455 0.009233773 0.012748567 -0.0009147138 0.0049772062
00000000: 322c 743c 18aa 6cbc 4d81 b33c cdfb a03c
00000010: 48a7 813c db44 9d3a 9772 f6bc 821b d43b
00000020: 7964 1f3d 5861 b5bb 6976 723b 1e0d 9abc
00000030: 8c0d 0f3c 51be 873c ea9b 61bc e775 2e3c
00000040: 5521 963c 28bf 3f3c 4e61 08bd 5725 363c
00000050: 7250 4b3c a604 bf3c 6c4a 153c fcac 45bc
00000060: 1a70 fd39 e5d4 cf3b fac1 03bd 7ae2 5abc
00000070: db7a 48bc abc3 d73c a513 983b c05f 99bc
00000080: 548c de3c 6fc5 9e3b 4447 cfbb 81dc fc3b
00000090: b866 0b3c b909 0abb 3c36 f2bb abb8 79bc
000000a0: b3e0 81bb 7db8 4dbc 776c 423c 45f0 803c
000000b0: 1056 f7ba 0b3f 3cbb aea3 803c c794 7cbb
000000c0: e6ac a13c f868 0cbd 3334 863b 96d9 9fba
000000d0: dd66 d5bc 8a9c 113d 4d35 d3bb 9140 93bc
000000e0: 68ae 7f3c 1ae2 183c a335 81bc 9147 01bc
000000f0: 0b39 1f3b 35ff 133a 3feb 993c 363a b7bc
00000100: 0ce2 c93b 4a49 ba3c 64ec afbb 3b6d 2d3c
00000110: 2bb3 033c 93e3 423c 03c6 293c 07e9 873c
00000120: d570 a33b 8e91 6b3c ec16 9e3c 96eb 9f3c
00000130: 511d e73c 2bf3 30bc 230c 88bb 82e6 52bd
00000140: 11a6 d5bc 5280 de3b 0989 07bc b7ec bf3c
00000150: a46c b5bb 8eb0 673c 12e1 a0bc 4ae5 233c
00000160: 0319 593c c16f 82bc 9f29 0cbc 199e 273c
00000170: e8d9 8639 cc7b 0ebd a8fe 0eb8 2918 2bbd
00000180: 5661 0f3c d0f4 cbbb 2cce 12bc a96d 9a3c
00000190: cbce 293c a173 1fbb 05ac ba3b 5e29 88bb
000001a0: 31c2 563c 2827 d339 f5ec 313c db95 3e3b
000001b0: 231c 92bc 9a5d 96bc ec49 323d aa64 a0bc
000001c0: b9bc 953b 7682 49bc 2f44 21bc d4bf 203c
000001d0: b7b1 403c 855e 043d 4467 b9bb f0e0 b3bc
000001e0: 9d88 c33c 0ec7 8f3c fc07 05bc 7485 f0bc
000001f0: c58a 36bc 426b 913a 4db1 23bc ac35 1cbc
00000200: 24b7 7d3c b158 cbba 336c 9f3c 908e 833b
00000210: b029 263c 87ea 53bc 239f 953c 9256 813c
00000220: 8b3c 933b ee8a a6bc 4e73 fcbb 9090 bbbc
00000230: 3510 e93b 217b 1b3d b8ba d9bb fbb7 a7bb
00000240: 06a6 1dbc d8e3 d6bc c475 a23a d594 013d
00000250: 3121 ce3c 080f 3e3c 69d9 a6bb d0e8 183c
00000260: e393 62bc 12cf 26bc 3bf6 babc 0402 9f3b
00000270: a20c 2a3c 8d32 d23c b309 e6bc 2d73 90bc
00000280: e354 0dbc 6aee 1fbd cf6d be3b b85d 433a
00000290: 15df 8b3c 0cf8 3a3c 4da1 c13c ef0c 90bc
000002a0: 2596 cf3c 051e 18bc 6ad6 6ebc e52b 4c39
000002b0: 040a 31ba 083c 1bbc 0c0c 2939 1c17 06bc
000002c0: c227 afbb 12d5 633c bb17 03bb 6da2 81bc
000002d0: 9743 b83b 7ce6 44bc 40d8 03bd 2ed2 85b9
000002e0: 07bf cdbc 5090 8a3a db4e b23b 9233 793c
000002f0: a4fc b73b d2b3 a8bc 6a26 c5bb 07d6 963c
00000300: d751 68bc 9650 e1bc 4e03 00bc b7bc 28bd
00000310: e724 c23c 0178 03bd a104 513c 7781 553c
00000320: 6236 a8bb 5936 003c 1c6e 973b b7bb 35bc
00000330: 468e eabb 8d7d ab3b b934 a7bc 6dae 5fbc
00000340: da34 6eba 3276 ae3c bdb3 13bb 0a14 ea3b
00000350: 4bb6 ca3b 0bba 3bbd 88dd 163b ab77 bd3c
00000360: a790 80bc 16e4 3dbc 4da6 ce3b ffaa cf3c
00000370: 7384 8bbc cba5 373c f2e0 943b 17b5 093c
00000380: 4f74 1fbd a309 ddba fd3b 12bc 8475 21b9
00000390: 5ea0 21bd 411e 46bc be85 ca3b 7741 973c
000003a0: 650d 123c bd6f ee3a f0cb 973c 4c1d cb3b
000003b0: 4f7d 0b3d 628e c9bc 52fe 3b3c 3563 abbb
000003c0: 5019 ff3b 15cc ef3c 424d 323c 2234 babc
000003d0: 6a63 833b e691 ff3b 4ce8 353c 76be 65bc
000003e0: f039 3cbc 5fb3 0bbd fe07 6fbc ab7b 643c
000003f0: 4049 173c 5edf 503c 67c9 6fba d517 a33b

network_body._body_endoder.seq_layers.0.bias f4 [128]
-8.106065e-05 -0.0005312759 -0.0004192224 -0.00040169084 0.00014219292 -0.00049922365 0.0022038883 0.0004273221
-0.00026017553 0.0003497113 0.0005750797 -0.00024733713 -0.00033240078 -0.0005783425 -0.00022726145 -0.00026484963
0.00036426762 0.00021532085 -5.969406e-05 0.0003911405 -0.00051499583 -0.00013531993 0.00017290335 -0.00094167463
-0.00083615945 0.00057276676 -0.00046421314 -0.00049569254 -0.0005226151 -0.0007067823 -0.00033770935 -0.0005246251
-0.0007639921 -0.00012686102 -0.0003693437 -0.0002814917 -0.00018840947 0.0009916119 0.0027090085 -0.00065805105
-0.00025525846 -0.00044957144 0.00032386527 0.00022704774 -9.1936345e-06 -0.00039707983 -6.233299e-05 0.00047138456
2.8951561e-05 -9.327475e-05 -0.0009863024 -0.0003373223 -0.00070978334 0.0005953935 -8.229607e-05 0.00013849144
-0.00067453034 -0.0002810338 0.00015031332 0.0004052749 -0.00057662715 -0.00039464087 0.00064675085 -0.0012887173
0.00020294765 -8.644452e-05 0.00021952529 -0.0005864244 -0.0005425402 -0.000133063 0.0014811055 4.5011824e-05
0.00029059727 0.001540364 -0.00020269728 -0.0013135856 -4.291042e-05 0.00034604393 0.00044054788 0.00030037446
-0.0011019221 0.00048670807 -0.00012093696 -7.1261646e-05 -6.029492e-05 0.0013083009 -3.4263492e-05 0.00044926658
-0.00021735571 -0.0006821572 0.0005741232 -0.0011669323 0.00072266476 0.000457003 0.000220162 -0.0009235264
-0.00015011399 -0.00069280603 -0.00029518476 0.00017284682 0.0026663574 0.00025561202 -0.00060750905 0.00032367688
-0.00020284635 -8.526933e-05 -0.00025722818 -0.0001787329 0.0005115546 -0.00089167675 8.4707135e-05 6.3750034e-05
-0.0004769002 -0.00029644452 0.00040275857 0.00028902068 8.507889e-05 -0.00047578232 -0.00031683687 -0.00033572013
8.5928434e-05 0.00027917535 0.00016417321 0.0003329395 -0.00022708534 5.267799e-05 0.00039223657 -0.00032283127
00000000: 1bff a9b8 5245 0bba 14cb dbb9 089a d2b9
00000010: 9f19 1539 55de 02ba 1c6f 103b 340a e039
00000020: 2b68 88b9 7559 b739 f2c0 163a 07ad 81b9
00000030: 1446 aeb9 e89b 17ba 084d 6eb9 84db 8ab9
00000040: 2cfb be39 c0c7 6139 0260 7ab8 fd11 cd39
00000050: c900 07ba abe4 0db9 644d 3539 b7da 76ba
00000060: b631 5bba ba25 163a a261 f3b9 5df1 01ba
00000070: 1b00 09ba 5b47 39ba 950e b1b9 ff86 09ba
00000080: a446 48ba ff05 05b9 79a4 c1b9 2d95 93b9
00000090: c88f 45b9 f9f8 813a 9f89 313b 0f81 2cba
000000a0: 36d4 85b9 75b4 ebb9 76cc a939 aa13 6e39
000000b0: 5c3e 1ab7 272f d0b9 c5b8 82b8 2a24 f739
000000c0: 01dd f237 809c c3b8 d146 81ba a2da b0b9
000000d0: c110 3aba 2e14 1c3a 5e96 acb8 0338 1139
000000e0: f7d2 30ba b857 93b9 6d9d 1d39 147b d439
000000f0: cb28 17ba cde7 ceb9 b78a 293a 2dea a8ba
00000100: 58ce 5439 8c49 b5b8 5f30 6639 46ba 19ba
00000110: 4239 0eba d486 0bb9 a721 c23a 14cb 3c38
00000120: 4e5b 9839 0ae6 c93a 238b 54b9 9e2c acba
00000130: b6fa 33b8 3b6d b539 56f9 e639 947b 9d39
00000140: 5f6e 90ba da2c ff39 899f fdb8 4e72 95b8
00000150: 2de5 7cb8 4b7b ab3a 25b6 0fb8 8a8b eb39
00000160: fbe9 63b9 cbd2 32ba c180 163a c0f3 98ba
00000170: 3671 3d3a e899 ef39 49db 6639 cf18 72ba
00000180: eb67 1db9 6d9d 35ba 07c3 9ab9 373e 3539
00000190: 0ebe 2e3b aa03 8639 3e41 1fba 2db3 a939
000001a0: 27b3 54b9 9fd2 b2b8 95dc 86b9 3f6a 3bb9
000001b0: d919 063a 6abf 69ba cca4 b138 8ab1 8538
000001c0: 7608 fab9 1c6c 9bb9 5729 d339 b387 9739
000001d0: 626c b238 6c72 f9b9 201d a6b9 9803 b0b9
000001e0: 7a34 b438 485e 9239 e925 2c39 628e ae39
000001f0: c21d 6eb9 90f2 5c38 1aa5 cd39 ae41 a9b9

network_body._body_endoder.seq_layers.0.weight f4 [128, 126]
0.0051863524 -0.09936604 -0.04781366 -0.07436109 -0.014671064 -0.01252199 -0.08902275 0.034332514
-0.04100597 -0.043495286 0.0070104287 0.018149607 0.033999074 -0.18867444 -0.019242683 0.051442757
0.14934257 -0.06242822 0.211555 0.107653685 0.007073873 0.032009616 0.065558895 -0.19877988
0.10789887 -0.041963812 -0.07912859 0.10663535 -0.036027506 0.012003016 0.098433666 -0.11471583
-0.0909685 0.08090797 0.0984706 0.099479884 0.2361392 0.18043195 -0.057455327 -0.013238826
-0.05102608 0.05306111 -0.02730671 0.12732655 -0.03937021 -0.20070812 0.014137818 -0.093411356
-0.096909836 -0.0063812733 -0.09981331 -0.06589676 -0.038633637 0.09406656 -0.013738884 0.15714148
-0.0532368 0.093475886 -0.1302155 0.03365591 0.06334203 0.054604672 -0.07796889 -0.013119052
0.12981026 0.010003152 0.09893725 0.14026064 -0.039731074 -0.15826084 -0.049856596 0.11250842
-0.013867097 0.108764976 -0.04373392 0.005825171 -0.06658343 -0.002513953 0.052675627 -0.065942965
-0.029407639 0.053408746 -0.04270471 0.017445954 -0.033749346 0.081768945 0.04756042 0.06772953
0.12425759 0.0311689 -0.024980435 0.0632082 0.010497655 0.13270786 -0.023820983 -0.021380752
0.16727772 -0.15334293 0.11279393 0.051914707 0.044676438 0.015859133 0.0011557644 0.031774383
0.008988208 0.068866685 -0.011857933 -0.0924166 0.06745246 -0.024991076 0.030790746 0.079929784
0.04986804 -0.14366181 -0.005509255 -0.04483188 0.018536802 0.013480521 0.15100686 -0.029169565
0.08492532 -0.07151922 0.050818477 -0.060716983 0.044895895 -0.10219666 0.020632962 -0.06442734
-0.07400074 -0.04938662 -0.060548734 -0.11075712 -0.06524919 0.06776953 0.00933831 0.04612122
-0.041673277 0.19659449 -0.13723156 -0.054606814 0.1040668 0.022609608 -0.067495644 -0.024902845
0.0034396849 0.098623104 -0.056138195 -0.06433511 0.010393084 -0.047279444 -0.043175995 -0.080478415
-0.06846172 0.11703196 0.048034422 0.103796616 -0.010291733 -0.02476411 -0.10155205 0.011861424
0.07872909 -0.0985745 -0.09443165 0.16948831 -0.17182866 -0.15905851 -0.04550027 0.0007064999
-0.06991493 5.845835e-05 -0.011177898 0.010820691 -0.072968826 -0.08654569 0.095754355 -0.017215528
-0.01153994 -0.04119392 0.023442114 -0.11433152 -0.038129117 -0.15576586 0.043809127 -0.11203617
-0.01930532 -0.0560209 0.0998564 0.032086045 -0.01953655 0.10457194 -0.060700074 0.12118286
-0.10673403 0.06665508 0.026363583 -0.031482317 0.061984718 0.012582679 0.018580427 -0.0002322938
0.07458249 -0.08179224 0.12559463 -0.08118987 -0.02274227 0.14614156 -0.075619906 0.0034243856
-0.044886455 0.0011124269 0.057713024 -0.010675034 -0.028134804 -0.08513435 -0.11059838 -0.2225763
-0.038745984 0.12318398 -0.027710766 0.17049858 -0.051407702 0.0643942 0.08410314 -0.14209345
0.0110262465 0.038355768 0.016802063 -0.11076134 0.054135613 -0.07354728 -0.17964235 0.06476663
0.16128619 -0.03559527 0.0133051025 -0.15752013 -0.0072169183 -0.14525707 0.09747825 0.10534248
-0.1022953 -0.06472979 -0.04554272 0.11725113 0.015182586 -0.008860644 -0.055950917 0.008574342
-0.13709831 -0.06404545 -0.21007304 -0.011964033 0.04226002 -0.014064133 0.07540158 -0.109359756
00000000: 47f2 a93b 6c80 cbbd 42d8 43bd a14a 98bd
00000010: e75e 70bc 0829 4dbc 8f51 b6bd 40a0 0c3d
00000020: e0f5 27bd 1d28 32bd bdb7 e53b 7cae 943c
00000030: 9d42 0b3d df33 41be d5a2 9dbc a4b5 523d
00000040: 42ed 183e bcb4 7fbd e0a1 583e 8979 dc3d
00000050: f3cb e73b 841c 033d be43 863d f48c 4bbe
00000060: 15fa dc3d 3fe2 2bbd 2c0e a2bd a263 da3d
00000070: 9491 13bd 4ca8 443c 9797 c93d 22f0 eabd
00000080: b14d babd 14b3 a53d f4aa c93d 1cbc cb3d
00000090: 79ce 713e 27c3 383e 4756 6bbd a9e7 58bc
000000a0: b900 51bd 9b56 593d 52b2 dfbc e461 023e
000000b0: a842 21bd 6e86 4dbe 4ea2 673c 744e bfbd
000000c0: aa78 c6bd 001a d1bb ec6a ccbd e1f4 86bd
000000d0: 4e3e 1ebd f8a5 c03d 0e19 61bc b2e9 203e
000000e0: d50e 5abd 4970 bf3d 3657 05be c8da 093d
000000f0: 77b9 813d 26a9 5f3d 27ae 9fbd 4bf1 56bc
00000100: fbec 043e 43e4 233c 9d9f ca3d 7ca0 0f3e
00000110: 0dbd 22bd 210f 22be 6e36 4cbd d16a e63d
00000120: d232 63bc 2cc0 de3d 5722 33bd 13e1 be3b
00000130: e55c 88bd 22c1 24bb 66c2 573d 1b0d 87bd
00000140: 4ae8 f0bc 21c3 5a3d 22eb 2ebd d1ea 8e3c
00000150: c13c 0abd 7a76 a73d b7ce 423d c8b5 8a3d
00000160: c37a fe3d ec55 ff3c c5a3 ccbc 4d73 813d
00000170: 5bfe 2b3c 92e4 073e 3924 c3bc b026 afbc
00000180: da4a 2b3e ee05 1dbe 8100 e73d 84a4 543d
00000190: a4fe 363d 03eb 813c 057d 973a db25 023d
000001a0: 4743 133c fa09 8d3d c747 42bc ea44 bdbd
000001b0: 8424 8a3d 16ba ccbc e03c fc3c 3ab2 a33d
000001c0: 6e42 4c3d 151c 13be fb86 b4bb a2a1 37bd
000001d0: 7eda 973c 67dd 5c3c 8ba1 1a3e 03f5 eebc
000001e0: 54ed ad3d ab78 92bd 0927 503d 5fb2 78bd
000001f0: c2e4 373d 7c4c d1bd 7506 a93c 7bf2 83bd
00000200: b38d 97bd a049 4abd f301 78bd a1d4 e2bd
00000210: 5ea1 85bd c0ca 8a3d b6ff 183c 9be9 3c3d
00000220: 99b1 2abd 1150 493e 6e86 0cbe 65ab 5fbd
00000230: f920 d53d c937 b93c 283b 8abd 0d01 ccbc
00000240: 566c 613b e9fa c93d 2af1 65bd 20c2 83bd
00000250: c147 2a3c 17a8 41bd 50d9 30bd ded1 a4bd
00000260: a935 8cbd 74ae ef3d bebf 443d 5293 d43d
00000270: a89e 28bc 1ade cabc 85fa cfbd 6b56 423c
00000280: b83c a13d 6de1 c9bd 6265 c1bd 588e 2d3e
00000290: daf3 2fbe 3ce0 22be 7e5e 3abd 6834 393a
000002a0: 8f2f 8fbd 2d31 7538 8123 37bc 4449 313c
000002b0: ae70 95bd de3e b1bd dc1a c43d 9407 8dbc
000002c0: 0412 3dbc f5ba 28bd ad09 c03c a526 eabd
000002d0: 472d 1cbd 1681 1fbe 3371 333d 3873 e5bd
000002e0: 3126 9ebc 2c76 65bd 8381 cc3d a86c 033d
000002f0: 1d0b a0bc d029 d63d a4a0 78bd b82e f83d
00000300: 5f97 dabd 7582 883d 71f8 d73c 9af3 00bd
00000310: b0e3 7d3d 9527 4e3c fb35 983c e493 73b9
00000320: b4be 983d b182 a7bd e19b 003e e046 a6bd
00000330: ff4d babc 22a6 153e 9cde 9abd a86b 603b
00000340: dcda 37bd dace 913a 7e64 6c3d 56e6 2ebc
00000350: f67a e6bc eb5a aebd 6781 e2bd 0beb 63be
00000360: 1cb4 1ebd e247 fc3d b001 e3bc 2e97 2e3e
00000370: e290 52bd 1be1 833d 443e ac3d f280 11be
00000380: 6ea7 343c f01a 1d3d 7ba4 893c d7d6 e2bd
00000390: 4ebd 5d3d f59f 96bd 2af4 37be 5ea4 843d
000003a0: 3528 253e 59cc 11bd a5fd 593c f54c 21be
000003b0: e67b ecbb 45be 14be ada2 c73d ccbd d73d
000003c0: 3380 d1bd 0d91 84bd 018b 3abd 5c21 f03d
000003d0: 62c0 783c 3c2c 11bc ca2c 65bd 667b 0c3c
000003e0: 8063 0cbe 432a 83bd 631d 57be cb04 44bc
000003f0: d818 2d3d 406d 66bc 256c 9a3d 02f8 dfbd

network_body._body_endoder.seq_layers.2.bias f4 [128]
7.774976e-05 -0.000580125 -0.00083597505 -0.0004297042 -0.00067323307 0.0001389419 9.4600124e-05 -0.0008358091
0.001195369 -0.0002521645 0.0005460224 -0.0005106185 -0.0004099832 -0.00060001685 0.00019906757 -4.7280253e-05
0.00043379804 -4.573794e-05 -0.0004112382 2.4214358e-05 -0.00040135716 0.0002599333 -0.0007670673 1.9082087e-05
5.636022e-05 -0.0009151135 -4.226162e-05 -0.00052697153 0.0027488624 -0.0004707191 0.00079535885 0.0002743407
0.00024548624 0.00030460095 0.0011034821 -0.00011368858 -0.0003731657 -0.0002598026 -0.00036319776 3.5951539e-06
-0.00031260762 -0.0004737729 -0.00019477338 -0.0008544605 -0.00025903754 0.00011972013 0.00013071882 -0.0015971833
0.00026182292 0.00033116984 -0.0002626778 0.00022114758 -0.0010287623 0.00033763397 0.00034203645 0.00060221646
0.0008673555 -0.00019761405 -0.0014861794 -0.0003745902 -0.00067105365 -0.00015165494 0.0002198221 0.00022437608
-0.00040984293 -3.5692916e-05 2.8118684e-05 1.0882177e-06 -0.0010737636 0.0008030784 -0.0002871933 0.0003702033
-0.00026262045 0.0002784246 -0.00037168156 -0.00037206194 -0.00039144646 0.00012761171 0.0003634299 0.00025080703
0.002234303 0.00038354244 -0.00032628563 -0.0005660167 0.00022046716 0.0011601285 -0.0005653776 -0.00039232927
-0.00031683187 -0.0004651332 -0.00033404594 -0.00027631884 -0.0019753184 0.00011020351 -7.49455e-05 -0.00039555732
-6.8322704e-05 -0.0005998423 0.0010288797 0.0001059 0.0001982172 -0.00047899858 0.00018938801 -0.0010569565
-0.00065573613 -0.0009110011 0.00020159395 0.000263521 -4.5673776e-05 0.00024341358 -0.00032256302 -0.0002392564
-0.00035999902 -0.0001857015 -0.00031594126 2.5673937e-05 -0.0007851979 -0.00029732872 0.00041379634 0.0001949538
-0.00013292173 -0.00031773458 -0.00020108289 -0.00034217836 -3.6430363e-06 0.0011323993 -0.0002575769 0.00059925084
00000000: 960d a338 8813 18ba 5625 5bba ec49 e1b9
00000010: e87b 30ba efb0 1139 0e64 c638 331a 5bba
00000020: eead 9c3a f234 84b9 f122 0f3a 07db 05ba
00000030: 03f3 d6b9 734a 1dba cbbc 5039 c94e 46b8
00000040: 636f e339 bdd6 3fb8 759b d7b9 f01f cb37
00000050: 3f6d d2b9 a847 8839 0415 49ba 7812 a037
00000060: 5364 6c38 3ae4 6fba 1242 31b8 7624 0aba
00000070: 4226 343b d9ca f6b9 a17f 503a 63d5 8f39
00000080: 9bb4 8039 d9b2 9f39 b7a2 903a 176c eeb8
00000090: 74a5 c3b9 1d36 88b9 946b beb9 4644 7136
000000a0: 7ce5 a3b9 b964 f8b9 153c 4cb9 e0fd 5fba
000000b0: 6ecf 87b9 4112 fb38 9111 0939 9458 d1ba
000000c0: 4745 8939 dda0 ad39 04b8 89b9 dae3 6739
000000d0: 89d7 86ba 7704 b139 5b53 b339 10de 1d3a
000000e0: 3e5f 633a 9e36 4fb9 e8cb c2ba a564 c4b9
000000f0: a6e9 2fba 9005 1fb9 0c80 6639 7f46 6b39
00000100: 30e0 d6b9 fab4 15b8 6ae0 eb37 e00e 9235
00000110: 87bd 8cba ae85 523a 6f92 96b9 d917 c239
00000120: 52b0 89b9 84f9 9139 41de c2b9 4f11 c3b9
00000130: 0e3b cdb9 82cf 0539 bc8a be39 c07e 8339
00000140: 626d 123b 3216 c939 5111 abb9 bd60 14ba
00000150: 342d 6739 740f 983a d935 14ba 8bb1 cdb9
00000160: 741c a6b9 1fdd f3b9 e322 afb9 e3de 90b9
00000170: 5874 01bb 0f1d e738 0f2c 9db8 ce62 cfb9
00000180: 7948 8fb8 bc3e 1dba 79db 863a a116 de38
00000190: 86d8 4f39 1a22 fbb9 7596 4639 9389 8aba
000001a0: b5e5 2bba 40d0 6eba f762 5339 3129 8a39
000001b0: d891 3fb8 d63c 7f39 ad1d a9b9 e7e0 7ab9
000001c0: 40be bcb9 deb8 42b9 eba4 a5b9 5c5e d737
000001d0: bdd5 4dba c9e2 9bb9 cef2 d839 836c 4c39
000001e0: e860 0bb9 9d95 a6b9 c7d9 52b9 6766 b3b9
000001f0: e37a 74b6 046d 943a 630b 87b9 0b17 1d3a

network_body._body_endoder.seq_layers.2.weight f4 [128, 128]
-0.044350903 0.115525395 0.12497067 0.31350344 0.0788192 0.045264546 -0.04536059 0.047050714
-0.021598224 0.012712466 0.0314832 0.040264823 0.1022459 0.0009059432 0.11857699 -0.076396815
-0.052896023 -0.05576906 0.04168886 0.097065724 -0.03500712 -0.058887806 0.06921581 -0.10435102
-0.107870035 -0.097742796 -0.016885288 -0.12724814 -0.03117004 -0.13165984 0.10415575 -0.06556357
-0.035914976 -0.14562468 0.25644302 -0.027183853 0.034720078 -0.14490514 -0.13836662 -0.0054229177
-0.024257211 0.087969676 0.009915367 0.11023104 0.04607521 -0.035126228 -0.0598556 -0.16453075
0.113673024 -0.08072753 0.0098521495 0.004427826 0.0183945 -0.07827344 -0.03999931 -0.13234662
0.020129917 -0.10093595 0.05788349 0.16960382 -0.054167077 -0.11215192 -0.07065209 0.025343513
0.033430528 0.03248331 -0.2168883 0.03340885 -0.15568112 -0.036993515 -0.08748516 0.016738594
0.113828994 -0.06666379 -0.065680034 0.104517266 -0.117920406 -0.14034253 0.060892582 0.043256287
0.08353105 0.044262215 -0.0039352546 -0.0045538414 0.071686044 0.20436189 0.05887599 -0.07540185
0.06518202 -0.10333114 -0.16829336 -0.21224104 -0.121049784 0.13514423 0.047632743 -0.091647446
-0.026090655 0.0014519737 0.080003515 -0.060412742 -0.052649576 0.063812256 0.105647296 -0.06629334
0.038284358 0.08993084 0.059607405 -0.12632793 -0.13594073 -0.0642558 0.08392515 -0.20044462
-0.082883835 0.028116507 0.17442298 0.19036144 -0.11417459 0.073245965 -0.028537095 -0.06910961
-0.040697098 -0.03935112 0.017010598 0.0109515125 -0.083280854 0.120568536 0.18796194 0.017177597
-0.0061339065 0.019217 0.03977832 0.08286909 0.09574125 0.12155965 -0.20662093 0.06730089
0.12124576 0.1402986 -0.0007014243 0.013194409 -0.022967398 0.13337128 -0.039551158 0.03444375
-0.11902812 0.07099097 -0.053285982 0.038008776 -0.0542297 -0.025161268 0.05045818 -0.1298099
0.028438492 -0.11678961 0.14538985 -0.08501783 0.059035007 0.12841253 0.116966724 0.043656763
-0.09313181 -0.087812 0.069124974 -0.026709307 -0.037362173 0.09903135 0.022922685 -0.09753676
-0.00048216368 0.08101178 -0.047229357 0.058298483 0.12710646 -0.092470594 0.03770427 0.0028461774
-0.17575958 -0.06073382 -0.043885514 0.08420696 0.09144043 -0.10225116 -0.12642246 -0.03198177
0.0031297093 -0.028863454 -0.07208369 -0.06486066 0.10095102 0.1285642 0.113693625 0.11516076
0.071336456 -0.19844134 0.023350744 -0.0041285455 0.027106969 -0.05058444 0.1705085 0.055405565
-0.036043942 0.10140576 0.070605256 -0.09490645 0.04508957 -0.021231653 -0.027301008 0.023122229
0.045060657 -0.014972047 -0.10421101 0.014397772 -0.052856218 -0.1716957 0.054858916 -0.03840838
-0.050356917 -0.18242685 -0.008758867 0.013270876 -0.15128142 0.08550498 -0.1682871 0.06398933
-0.0061037643 -0.03478934 0.0143522285 0.16328144 -0.029188124 0.07356983 -0.1546987 -0.09533579
0.16054906 0.044564903 -0.018431183 0.08809054 0.0039481786 -0.15527517 -0.007841494 -0.083703585
-0.14932245 -0.14170997 -0.09930848 -0.05894888 -0.02750415 0.026147012 -0.10020642 -0.024178624
-0.059095625 -0.049801398 -0.17236431 0.001222236 -0.0035101313 0.032159522 -0.15284312 0.22095305
00000000: 4ba9 35bd 9498 ec3d 9ff0 ff3d 8683 a03e
00000010: f66b a13d 5167 393d 07cc 39bd 40b8 403d
00000020: c2ee b0bc f247 503c 87f4 003d baec 243d
00000030: 4c66 d13d d27c 6d3a 7ed8 f23d ef75 9cbd
00000040: 80a9 58bd 196e 64bd f0c1 2a3d 65ca c63d
00000050: a063 0fbd 5734 71bd 05c1 8d3d fdb5 d5bd
00000060: f7ea dcbd 602d c8bd 0453 8abc 564d 02be
00000070: 5058 ffbc d6d1 06be 9c4f d53d 3146 86bd
00000080: 951b 13bd a31e 15be 804c 833e acb0 debc
00000090: a436 0e3d 0362 14be fbaf 0dbe bbb2 b1bb
000000a0: 0fb7 c6bc 7229 b43d 1074 223c d0c0 e13d
000000b0: 5cb9 3c3d 85e0 0fbd 252b 75bd c07a 28be
000000c0: 67cd e83d 7a54 a5bd e96a 213c 4c17 913b
000000d0: 10b0 963c d34d a0bd 51d6 23bd df85 07be
000000e0: 7fe7 a43c 82b7 cebd 3d17 6d3d a0ac 2d3e
000000f0: 4cde 5dbd e8af e5bd 0bb2 90bd 339d cf3c
00000100: 73ee 083d 380d 053d f717 5ebe b8d7 083d
00000110: df6a 1fbe 8386 17bd 6b2b b3bd 601f 893c
00000120: 2d1f e93d 0687 88bd 4183 86bd 260d d63d
00000130: 4180 f1bd f4b5 0fbe 806a 793d 812d 313d
00000140: 5412 ab3d 4c4c 353d 4ff3 80bb 6438 95bb
00000150: 22d0 923d 3e44 513e f327 713d 496c 9abd
00000160: 277e 853d 479f d3bd 1855 2cbe b755 59be
00000170: f3e8 f7bd 4063 0a3e 8d1a 433d a8b1 bbbd
00000180: 12bc d5bc 2750 be3a e2d8 a33d 5a73 77bd
00000190: 15a7 57bd 00b0 823d 9c5d d83d cdc4 87bd
000001a0: 0fd0 1c3d a92d b83d e526 743d 1c5c 01be
000001b0: 0c34 0bbe 8b98 83bd f3e0 ab3d 5b41 4dbe
000001c0: 00bf a9bd 9754 e63c f09b 323e 1cee 423e
000001d0: 5ed4 e9bd fb01 963d a0c6 e9bc 5789 8dbd
000001e0: 00b2 26bd a42e 21bd cf59 8b3c f96d 333c
000001f0: 278f aabd a3ec f63d 1879 403e 08b8 8c3c
00000200: f0fe c8bb f86c 9d3c 97ee 223d 45b7 a93d
00000210: fd13 c43d 44f4 f83d 7094 53be 0dd5 893d
00000220: b24f f83d 70aa 0f3e cadf 37ba 5d2d 583c
00000230: 2026 bcbc 7b92 083e 6500 22bd e414 0d3d
00000240: 04c5 f3bd b763 913d 6742 5abd 17af 1b3d
00000250: f61f 5ebd 011f cebc 3dad 4e3d e3ec 04be
00000260: d7f7 e83c 642f efbd 14e1 143e d41d aebd
00000270: b1ce 713d 937e 033e 408c ef3d 6fd1 323d
00000280: e4bb bebd c7d6 b3bd 6591 8d3d 7acd dabc
00000290: 1409 19bd f3d0 ca3d 5bc8 bb3c 5ac1 c7bd
000002a0: eaca fcb9 81e9 a53d 9273 41bd 64ca 6e3d
000002b0: 3228 023e 3961 bdbd cb6f 1a3d ef86 3a3b
000002c0: 52fa 33be 07c4 78bd 4cc1 33bd b374 ac3d
000002d0: 1f45 bb3d 0e69 d1bd e474 01be 51ff 02bd
000002e0: cf1b 4d3b 0d73 ecbc 9da0 93bd aad5 84bd
000002f0: 69bf ce3d 55a6 033e 34d8 e83d 68d9 eb3d
00000300: d918 923d 3534 4bbe 0f4a bf3c c048 87bb
00000310: 6f0f de3c a131 4fbd c899 2e3e f2f0 623d
00000320: d0a2 13bd d3ad cf3d 7d99 903d 505e c2bd
00000330: d7af 383d 01ee adbc 5da6 dfbc d46a bd3c
00000340: 8691 383d 514d 75bc 956c d5bd a2e4 6b3c
00000350: c37f 58bd ffd0 2fbe beb3 603d 1b52 1dbd
00000360: 0e43 4ebd 1bce 3abe 5a81 0fbc 176e 593c
00000370: 84e9 1abe 3c1d af3d 7453 2cbe d60c 833d
00000380: 1602 c8bb 447f 0ebd 9c25 6b3c 4033 273e
00000390: ef1b efbc c7ab 963d 5669 1ebe 693f c3bd
000003a0: f966 243e b089 363d fefc 96bc d068 b43d
000003b0: b95f 813b 7400 1fbe 9c79 00bc c96c abbd
000003c0: fce7 18be 6b1c 11be 3f62 cbbd 6174 71bd
000003d0: 6250 e1bc 4232 d63c 0639 cdbd 4012 c6bc
000003e0: 410e 72bd 8dfc 4bbd 4580 30be 6f33 a03a
000003f0: 3b0a 66bb b4b9 033d e882 1cbe 8441 623e
