results/ppo/MlAgent/MlAgent-3328.onnx (onnx, 134638 bytes, 7 tensors)

action_model._continuous_distribution.log_sigma f4 [1, 3]
00000000: 0000 0000 0000 0000 0000 0000
0.0 0.0 0.0

action_model._continuous_distribution.mu.bias f4 [3]
00000000: 0000 0000 0000 0000 0000 0000
0.0 0.0 0.0

action_model._continuous_distribution.mu.weight f4 [3, 128]
00000000: f48f 2a3d c910 30bc 2e59 a5bc c70a 0a3c
00000010: aa6d d1bb 77ff 873b 427d 393b 9b23 bf3c
00000020: b2d0 51ba 0da0 63bc a81e 68bc b747 98bc
00000030: 23c4 b33c 4f45 873c dfd8 89bb ef2c 03bc
00000040: c89c 55bc 1c2a 823b 8764 8b3c 4846 fb3c
00000050: ed35 093d 7741 dbbc 3fa0 193c ccf1 863b
00000060: e304 823b 85e7 0cbd 481d f03b 2055 55bc
00000070: d8cc ecba c88a 153c aab2 f8bb fa46 94bc
00000080: 58b0 fb3b 5a6c cebc 671c ab3c 48fb 64bc
00000090: d41b a03c ffb5 60bb 9c0a 0d3c a00f 59bc
000000a0: d78c e7ba ba24 2a3c 173f 4d3c 0217 26bc
000000b0: 191d cb3c e1b0 1bbc 0072 bc39 ffb6 c1bc
000000c0: 7f94 79bc 09cf 0f3c ab17 d73c 60e7 d63c
000000d0: d809 a43c bb42 cbb9 32bd 0abc bbec 0bbd
000000e0: 83da b5bc af58 f0bb 79ba 813b 8d9a 1c3d
000000f0: 977b 98bc c8d4 91bb fec2 0fbc a4b7 093d
00000100: 74a9 8cbc 7272 693c 174b be3c dbf9 4ebc
00000110: 171b 203c 3f0d 253b 5dff e23b 9d2e 443a
00000120: 33fe 0bbb 1ffd 86bc 3aab d3ba ffff a6bc
00000130: ad3a 4dbc 2331 16bc 8182 c1bc 60d3 90ba
00000140: 0b32 7bbc 437a ccba 1556 d7bc 8788 35bd
00000150: e446 103d 2a59 50bd a0c6 fabc 2d5e 03bc
00000160: 1f1e 22bc f7fb efbb e868 88bc 8e56 ad3c
00000170: 6a3c ff3c 817d c23c 4754 35bc 0b53 cdbb
00000180: 924c d8ba 9798 423c 7b0e a93c f3af 433c
00000190: 5681 c03c 2a3e 823c 5165 8d3c e55a fa3c
000001a0: c9d0 1dbc 4555 56bd cbc5 9cbc 25fe 303d
000001b0: 6b41 1d3c 0a4b 7cbc fb9f 1abd a71e 803b
000001c0: 1b2d bcbc 23aa a5ba 5a0b 9fba 46d9 933c
000001d0: 86bc 80bc 4ba6 84bb e319 343b 50d1 013d
000001e0: cff3 2f3c fa58 6fbc 3db1 98bc 1b33 a93c
000001f0: 7cf5 9aba 4b98 dc3c ed70 d1bc 2a3e 0a3c
00000200: 00b6 263d 45b4 603c 672a d1bc db48 24bc
00000210: cdcb 6abc 88c6 7bbb 3517 15bd 8ab1 57bb
00000220: 57da 0f3d 63e1 793c b1ec 823c 45e9 323a
00000230: 7f75 b6bb b884 68bc efd4 4c3c 49fd 473c
00000240: 83c8 38bc 0cf3 c9bc b134 0fba 87c5 52bb
00000250: 751b 253c 2e3c 3a3c 859b 833a 0158 91bc
00000260: a7b0 1ebd 2777 223c 6fab 9dbc 4af3 ffbc
00000270: 759c 0ebd a50e 5abb 20f1 74bc db9a cd3c
00000280: eaf6 debb ad65 09bc f8d8 ec3a 2afd b839
00000290: ae8f 28bc 159a 6e3c 2bcc 96bc 61d0 1d3c
000002a0: 289d 69bb 9fe7 a0b9 c79d 4dbc 37f8 963a
000002b0: 2b6a ac3b 3b8f 04bd fa9f 243c 583a 4cbc
000002c0: d3f7 8abb 5c63 17bd 08cd 663c ff1d a63c
000002d0: f5fb 6abc ae9a 30bd 8664 1b3c 69bf a9bb
000002e0: 6760 ce3b e36a 49bc 5f83 08bd 66a0 b6bc
000002f0: bf2f 94ba e070 80bc 547e 833c cb06 933b
00000300: f7c6 b93c 369a 23bb 8b37 94bc ec22 433b
00000310: bd47 b8bc 8ca4 1f3c 6f0d a03b ce39 11b9
00000320: 278d bdba 21e6 34bc 34cf b7bb aabc 063b
00000330: c03d 783c bb00 4b3d 1aa3 a4bc 38a2 24bc
00000340: 5b20 12bc d807 2f3d 6a2a 21bc 87f7 833c
00000350: 4b64 eabb 80f3 f43b 9106 163c f5e0 e53c
00000360: 1e88 c9ba d067 503c 3bdc a03c 5d88 f33b
00000370: 92cc b63a dc93 903c 2b85 213c 1061 803c
00000380: 5ee1 43bc 4d29 883c aaad 893c f528 99bc
00000390: 4adc 74bb 20a4 ca3c f46c afbc 0b71 15bc
000003a0: 68b2 343d 9bd7 3dbc 17bb 61bb 519c 0cbd
000003b0: fb16 02ba 401f fcba 2449 bebc a37e 283d
000003c0: 01cf 473c 5bf5 e43c 4dd6 0a3c 3cba a93c
000003d0: bdab 21bb 5fe3 0dbb 570f b23c 3785 543c
000003e0: 5f05 683c 5458 bdba eefd c4bc b389 39bb
000003f0: f818 e9bb b983 433b ab43 a63c 87a8 c639
0.04164119 -0.010746189 -0.020184126 0.008425421 -0.006391247 0.004150327 0.002830342 0.023332408
-0.00080038153 -0.01389314 -0.014167465 -0.018588884 0.021944111 0.016512541 -0.0042067613 -0.0080063185
-0.013037868 0.003972305 0.017015709 0.030673161 0.033498693 -0.026764615 0.009376585 0.00411818
0.0039678677 -0.03440048 0.0073277093 -0.013020784 -0.0018066419 0.009127326 -0.007589658 -0.01810025
0.007680934 -0.02519815 0.020887567 -0.013975926 0.01954452 -0.0034288166 0.0086084865 -0.013248354
-0.0017665875 0.010384733 0.012527249 -0.010137321 0.024794148 -0.00950262 0.0003594309 -0.02364683
-0.015233158 0.008777388 0.026256403 0.026233375 0.020024225 -0.00038768895 -0.008467959 -0.03416131
-0.022198921 -0.0073347907 0.003958997 0.03823333 -0.01861362 -0.0044504143 -0.008774517 0.0336224
-0.017170645 0.014248477 0.023229165 -0.012632812 0.009772084 0.0025184897 0.0069274143 0.00074837526
-0.0021361231 -0.01647812 -0.0016149052 -0.02038574 -0.012526196 -0.009166989 -0.0236218 -0.0011049323
-0.015331755 -0.0015600402 -0.026286164 -0.044319656 0.035223857 -0.050866283 -0.03061229 -0.008018059
-0.009894877 -0.0073237377 -0.016651586 0.021159437 0.031156737 0.023741486 -0.011067457 -0.006266003
-0.0016502312 0.011877201 0.020636788 0.011943805 0.023499172 0.015898783 0.017260225 0.03056092
-0.009632298 -0.052327413 -0.019137284 0.04321112 0.009598116 -0.01539875 -0.037750226 0.003909904
-0.022970727 -0.0012639206 -0.001213412 0.01804794 -0.015714895 -0.004048144 0.002748125 0.031693757
0.010739281 -0.014608616 -0.018639201 0.020654252 -0.0011822428 0.026928088 -0.025566543 0.008437673
0.040700912 0.013714855 -0.025532914 -0.010027136 -0.014330816 -0.0038417894 -0.036399085 -0.0032912218
0.035120334 0.01525149 0.015982004 0.0006824921 -0.005568206 -0.014191799 0.012501939 0.012206384
-0.0112782745 -0.024652027 -0.0005462869 -0.0032161193 0.010077347 0.011366887 0.0010040855 -0.017742159
-0.038742688 0.009916103 -0.019246785 -0.031243939 -0.034817178 -0.003327289 -0.014950067 0.025098255
-0.006804337 -0.008386058 0.0018070033 0.00035283837 -0.010288162 0.014563103 -0.018407902 0.009632201
-0.003564665 -0.0003069015 -0.012549824 0.0011518066 0.0052616796 -0.032363158 0.010047907 -0.012465082
-0.0042409687 -0.03695999 0.014086969 0.020277975 -0.014342298 -0.043116264 0.009484416 -0.0051802886
0.006298113 -0.01229355 -0.03332841 -0.02229328 -0.0011305733 -0.015678823 0.016051449 0.004486894
0.022677882 -0.0024963743 -0.018092891 0.0029775454 -0.022495145 0.009743821 0.004884414 -0.00013849812
-0.0014461622 -0.011041195 -0.0056094173 0.002055923 0.015151441 0.049561244 -0.020097304 -0.010048442
-0.008918847 0.04273209 -0.009836772 0.016109241 -0.007153069 0.0074753165 0.009156839 0.02806137
-0.0015375649 0.012720063 0.019636264 0.0074320273 0.0013946465 0.01764863 0.00985841 0.015671283
-0.011955587 0.016621256 0.016806442 -0.018696288 -0.0037362748 0.024736464 -0.021414258 -0.00912119
0.044115454 -0.011587049 -0.003444379 -0.034328762 -0.0004962531 -0.0019235387 -0.023228236 0.041136395
0.01219535 0.027949026 0.008473945 0.020718686 -0.0024669014 -0.0021650416 0.02173583 0.012971214
0.014161437 -0.001444588 -0.024046864 -0.0028310835 -0.007113572 0.0029833151 0.020295938 0.00037891066

network_body._body_endoder.seq_layers.0.bias f4 [128]
00000000: 0000 0000 0000 0000 0000 0000 0000 0000
00000010: 0000 0000 0000 0000 0000 0000 0000 0000
00000020: 0000 0000 0000 0000 0000 0000 0000 0000
00000030: 0000 0000 0000 0000 0000 0000 0000 0000
00000040: 0000 0000 0000 0000 0000 0000 0000 0000
00000050: 0000 0000 0000 0000 0000 0000 0000 0000
00000060: 0000 0000 0000 0000 0000 0000 0000 0000
00000070: 0000 0000 0000 0000 0000 0000 0000 0000
00000080: 0000 0000 0000 0000 0000 0000 0000 0000
00000090: 0000 0000 0000 0000 0000 0000 0000 0000
000000a0: 0000 0000 0000 0000 0000 0000 0000 0000
000000b0: 0000 0000 0000 0000 0000 0000 0000 0000
000000c0: 0000 0000 0000 0000 0000 0000 0000 0000
000000d0: 0000 0000 0000 0000 0000 0000 0000 0000
000000e0: 0000 0000 0000 0000 0000 0000 0000 0000
000000f0: 0000 0000 0000 0000 0000 0000 0000 0000
00000100: 0000 0000 0000 0000 0000 0000 0000 0000
00000110: 0000 0000 0000 0000 0000 0000 0000 0000
00000120: 0000 0000 0000 0000 0000 0000 0000 0000
00000130: 0000 0000 0000 0000 0000 0000 0000 0000
00000140: 0000 0000 0000 0000 0000 0000 0000 0000
00000150: 0000 0000 0000 0000 0000 0000 0000 0000
00000160: 0000 0000 0000 0000 0000 0000 0000 0000
00000170: 0000 0000 0000 0000 0000 0000 0000 0000
00000180: 0000 0000 0000 0000 0000 0000 0000 0000
00000190: 0000 0000 0000 0000 0000 0000 0000 0000
000001a0: 0000 0000 0000 0000 0000 0000 0000 0000
000001b0: 0000 0000 0000 0000 0000 0000 0000 0000
000001c0: 0000 0000 0000 0000 0000 0000 0000 0000
000001d0: 0000 0000 0000 0000 0000 0000 0000 0000
000001e0: 0000 0000 0000 0000 0000 0000 0000 0000
000001f0: 0000 0000 0000 0000 0000 0000 0000 0000
0.0 0.0 0.0 0.0 0.0 0.0 0.0 0.0
0.0 0.0 0.0 0.0 0.0 0.0 0.0 0.0
0.0 0.0 0.0 0.0 0.0 0.0 0.0 0.0
0.0 0.0 0.0 0.0 0.0 0.0 0.0 0.0
0.0 0.0 0.0 0.0 0.0 0.0 0.0 0.0
0.0 0.0 0.0 0.0 0.0 0.0 0.0 0.0
0.0 0.0 0.0 0.0 0.0 0.0 0.0 0.0
0.0 0.0 0.0 0.0 0.0 0.0 0.0 0.0
0.0 0.0 0.0 0.0 0.0 0.0 0.0 0.0
0.0 0.0 0.0 0.0 0.0 0.0 0.0 0.0
0.0 0.0 0.0 0.0 0.0 0.0 0.0 0.0
0.0 0.0 0.0 0.0 0.0 0.0 0.0 0.0
0.0 0.0 0.0 0.0 0.0 0.0 0.0 0.0
0.0 0.0 0.0 0.0 0.0 0.0 0.0 0.0
0.0 0.0 0.0 0.0 0.0 0.0 0.0 0.0
0.0 0.0 0.0 0.0 0.0 0.0 0.0 0.0

network_body._body_endoder.seq_layers.0.weight f4 [128, 126]
00000000: 2496 98bd e5a5 1c3e d4e4 6bbe b527 e6bd
00000010: 605a 063d c41d 70bd c4d4 363b fd13 153e
00000020: 1390 9d3d 4d73 2fbd c892 d33a 9113 a2bd
00000030: d9ae 64bd 5ba5 3f3c 3790 a03d 4e15 813c
00000040: e621 133e 5792 94bc 5911 003d e42d cebc
00000050: bca9 15bd c7a2 63bd 0769 c03d 230e 5dbe
00000060: bf2f 1abe 7c2e edbc 3ec0 ef3d ecb9 d6bd
00000070: c15c fd3c 25e6 bcbb 5f27 3c3d 2d81 ddbc
00000080: fe88 b63d 5d92 a8bd 6162 3dbb c48c cb3d
00000090: 41cb 1e3c b215 82bc c8e4 33bd 685c 0a3e
000000a0: 1fac 9cbd a431 5abd cae0 db3d fc10 dabd
000000b0: 7775 2bbe e6c7 04bd b240 75bd df8d aabc
000000c0: a84a c8bc caa0 c93c 981c 3bbd b627 343e
000000d0: 98b7 263c 24ce 3b3c df9f fabc ce12 7cbd
000000e0: a2ba 753d 377b 27be 2f6e 873d fa01 d0bd
000000f0: ede8 c53c 03f1 9b38 420f 40be 73ef 3239
00000100: 3264 e33b fc09 6d3d 4bf2 6c3d d982 e53c
00000110: 571b 00bd 7066 d33d feba 773d e869 1fbe
00000120: c61d 10be 0758 16bd 4056 0ebe 388f cb3d
00000130: 605f ef3d 23ef d73c 031c 68bd d477 7c3d
00000140: 7f7c 513d 525e ae3d 2264 483b 5304 ecbd
00000150: 57b1 6b3c 90fa fe3c 4ce5 433d b1e9 29be
00000160: 3845 1ebc 464b 443d 3f2f b7bd 6867 79bd
00000170: b0dd 1cbe c77c dbbd 6d4d aebd 0e82 e5bc
00000180: 3447 4cbc 4933 b83d c8d2 e5bb bba5 123d
00000190: 79b9 7a3d c7ca c2bd a983 92bd 34c5 f33d
000001a0: 94db 123e 3e0a 3f3d e1f7 b3bb 80a8 66ba
000001b0: ad86 2b3d 46fc ffbd b7f9 cd3c d298 2d3d
000001c0: 1afe d8bd da4c ce3b 3f19 053e aa56 fc3d
000001d0: 0c87 813d 32ae 8abb 27ff 82bd a63f 46bc
000001e0: e8f8 9dbd 2cf4 36bd b0ab d0bc 8179 173d
000001f0: 23c6 f9bc c03b d13d 780b 053d cb35 333e
00000200: 1dfb 60bb ca84 46bd 07b0 a8bc d7a0 a33d
00000210: 941e 063c b53e e33c d0a5 a9bd 8e9f 883d
00000220: 1afe debd 15d8 193e 6dff 8f3c 730b 643d
00000230: 5643 913d d491 dfbd 56e4 83bd 25ee a3bb
00000240: bb0d 68bd 5a18 223d b161 263e 4034 af3d
00000250: 70d6 cfbc e972 e1bc e74b f23a 5e5d 8e3d
00000260: 4fd5 3abd 6863 c33d e2ce 4c3e 1e21 bc3d
00000270: 19bc 9abc 02ed f3bd c366 08be aaa6 7b3c
00000280: 7030 b93d 0324 d83d c6a4 3abe 0a56 ffba
00000290: abfa a43d 18f3 5a3e ad8e 50ba b9d5 f3bd
000002a0: 2640 0fbc d962 51bd 448d 863d 711a 87bd
000002b0: f6fc a1bd 91bd 693d 2fe3 a2bd 0cc8 843d
000002c0: 216e b13d 87d2 56bd a9d6 f63d 05c4 1e3e
000002d0: 5e2b 08be 1425 bdbc 80c4 7e3d aa0a bbbd
000002e0: 0d41 f53c 7e35 f63b fed8 d7bd 2057 473d
000002f0: c1de e2bd 25b2 3dbc 65fb 203e 951a 1c3c
00000300: eba2 c03b 8918 60bc 6183 79be 71ea d53d
00000310: 37df 263d d604 f93c 6570 a73d 160a 563c
00000320: 4c2a cc3c 92b4 95bc 99b9 95bd 8103 093c
00000330: a9b5 fa3d 0daf bcbc 742f 1bbd 862c 713d
00000340: 09ae 0abe 33a7 85bd be92 e9bc c7eb d03d
00000350: ff06 8cbb 3cfb 86bc 3345 cc3d 0e49 71bc
00000360: 2f81 e0bd b40e 003e 0551 f93c fe52 a03d
00000370: b866 83bd a971 41bd 919d c53d 0b54 9c3d
00000380: 3d29 e43d d45f eebd 2335 fe3d e89f 87bd
00000390: ab84 9a3d 930b 39bc 2eba 3ebe 33b8 b9bd
000003a0: b3b6 8ebd 1e27 6c3d dcc1 e5bd d66d 0e3e
000003b0: b095 183c 09d6 14bd d661 fc3d 7afd fbbd
000003c0: 7070 a1bc d5e3 72bd 69fa b9bd 7924 293d
000003d0: 3a78 4fbe d5d7 0b3e a807 ccbd 90dd abbd
000003e0: a474 cfbd a946 25be 5532 133e 44a2 b33d
000003f0: 309f 933d 06ab 423e f553 c5bd 6f57 f23c
-0.07450512 0.15297659 -0.2303651 -0.11238042 0.032801032 -0.058622137 0.0027897814 0.14558406
0.076934956 -0.04283457 0.0016141767 -0.07913888 -0.05583081 0.011697139 0.07840007 0.01575723
0.143684 -0.018136187 0.031266544 -0.025168367 -0.036538824 -0.05557516 0.093950324 -0.21587424
-0.15057276 -0.02895283 0.11706589 -0.104846805 0.030928018 -0.00576474 0.045935985 -0.027039135
0.08912848 -0.082310416 -0.002889775 0.09938958 0.009692014 -0.015879486 -0.043919355 0.13511813
-0.07650017 -0.053269997 0.107362345 -0.10647771 -0.16744028 -0.0324172 -0.05987615 -0.020819603
-0.024449661 0.024612803 -0.045681566 0.17593274 0.010175608 0.011462722 -0.03059381 -0.06154137
0.05999244 -0.16355596 0.06612813 -0.10156627 0.02415892 7.435868e-05 -0.1875582 0.00017064605
0.0069394344 0.05787085 0.057848256 0.028016495 -0.031276073 0.10322273 0.060481064 -0.15567744
-0.14073858 -0.036705043 -0.1390009 0.09939426 0.11688113 0.026359146 -0.05666734 0.061637715
0.05114412 0.08514084 0.0030577262 -0.11524262 0.014385543 0.031125337 0.047826096 -0.16593052
-0.009660058 0.04792335 -0.08944558 -0.06088963 -0.15318942 -0.10717159 -0.085108615 -0.028016116
-0.012468148 0.08994157 -0.0070136525 0.035802584 0.061212037 -0.09511333 -0.071540184 0.11902848
0.14341575 0.046640627 -0.005492196 -0.0008798912 0.041876484 -0.12499289 0.025143487 0.04238207
-0.10595341 0.0062957825 0.12997912 0.12321217 0.06324586 -0.0042321915 -0.06396323 -0.012100136
-0.07713491 -0.044666454 -0.025472492 0.03698111 -0.030489987 0.102164745 0.03248164 0.17500989
-0.0034329363 -0.04846648 -0.020591749 0.07989662 0.008186001 0.027739862 -0.08283579 0.06671058
-0.1088831 0.15023835 0.017577851 0.05567498 0.070929214 -0.109164864 -0.06440036 -0.0050027543
-0.05665372 0.039574005 0.16248204 0.08554888 -0.025370806 -0.027520614 0.0018485755 0.06951402
-0.045613583 0.095404446 0.20000795 0.09186004 -0.01888852 -0.1191044 -0.1332045 0.01535956
0.09042442 0.10553744 -0.18226919 -0.0019480598 0.080556236 0.21381795 -0.00079558307 -0.11905999
-0.0087433215 -0.05111966 0.06569913 -0.0659684 -0.079095766 0.05706555 -0.07953488 0.064834684
0.086635835 -0.05244687 0.12052662 0.15504463 -0.13297793 -0.02308897 0.062199116 -0.091328934
0.029938245 0.007513701 -0.10539435 0.048667073 -0.11077643 -0.0115781175 0.157209 0.009527822
0.0058787963 -0.013677725 -0.24366523 0.10445107 0.040740218 0.030397814 0.081757344 0.013063928
0.024922512 -0.01827458 -0.073107906 0.008362652 0.1224168 -0.02303269 -0.03788705 0.05888035
-0.13542952 -0.06526031 -0.028512355 0.10201221 -0.004273295 -0.01647722 0.09974136 -0.01472689
-0.1096214 0.12505609 0.030434141 0.078283295 -0.064160764 -0.047227535 0.09649194 0.076332174
0.11140678 -0.116393715 0.12412479 -0.066222966 0.07544836 -0.011294263 -0.1862571 -0.09068336
-0.06968441 0.057654493 -0.11218616 0.13909087 0.009313032 -0.036336932 0.12323348 -0.12304206
-0.019706935 -0.05929931 -0.09080965 0.04129455 -0.20260707 0.13656552 -0.09962398 -0.08391869
-0.10129669 -0.16140236 0.14374669 0.08771184 0.07208097 0.19010553 -0.09635154 0.029582707

network_body._body_endoder.seq_layers.2.bias f4 [128]
00000000: 0000 0000 0000 0000 0000 0000 0000 0000
00000010: 0000 0000 0000 0000 0000 0000 0000 0000
00000020: 0000 0000 0000 0000 0000 0000 0000 0000
00000030: 0000 0000 0000 0000 0000 0000 0000 0000
00000040: 0000 0000 0000 0000 0000 0000 0000 0000
00000050: 0000 0000 0000 0000 0000 0000 0000 0000
00000060: 0000 0000 0000 0000 0000 0000 0000 0000
00000070: 0000 0000 0000 0000 0000 0000 0000 0000
00000080: 0000 0000 0000 0000 0000 0000 0000 0000
00000090: 0000 0000 0000 0000 0000 0000 0000 0000
000000a0: 0000 0000 0000 0000 0000 0000 0000 0000
000000b0: 0000 0000 0000 0000 0000 0000 0000 0000
000000c0: 0000 0000 0000 0000 0000 0000 0000 0000
000000d0: 0000 0000 0000 0000 0000 0000 0000 0000
000000e0: 0000 0000 0000 0000 0000 0000 0000 0000
000000f0: 0000 0000 0000 0000 0000 0000 0000 0000
00000100: 0000 0000 0000 0000 0000 0000 0000 0000
00000110: 0000 0000 0000 0000 0000 0000 0000 0000
00000120: 0000 0000 0000 0000 0000 0000 0000 0000
00000130: 0000 0000 0000 0000 0000 0000 0000 0000
00000140: 0000 0000 0000 0000 0000 0000 0000 0000
00000150: 0000 0000 0000 0000 0000 0000 0000 0000
00000160: 0000 0000 0000 0000 0000 0000 0000 0000
00000170: 0000 0000 0000 0000 0000 0000 0000 0000
00000180: 0000 0000 0000 0000 0000 0000 0000 0000
00000190: 0000 0000 0000 0000 0000 0000 0000 0000
000001a0: 0000 0000 0000 0000 0000 0000 0000 0000
000001b0: 0000 0000 0000 0000 0000 0000 0000 0000
000001c0: 0000 0000 0000 0000 0000 0000 0000 0000
000001d0: 0000 0000 0000 0000 0000 0000 0000 0000
000001e0: 0000 0000 0000 0000 0000 0000 0000 0000
000001f0: 0000 0000 0000 0000 0000 0000 0000 0000
0.0 0.0 0.0 0.0 0.0 0.0 0.0 0.0
0.0 0.0 0.0 0.0 0.0 0.0 0.0 0.0
0.0 0.0 0.0 0.0 0.0 0.0 0.0 0.0
0.0 0.0 0.0 0.0 0.0 0.0 0.0 0.0
0.0 0.0 0.0 0.0 0.0 0.0 0.0 0.0
0.0 0.0 0.0 0.0 0.0 0.0 0.0 0.0
0.0 0.0 0.0 0.0 0.0 0.0 0.0 0.0
0.0 0.0 0.0 0.0 0.0 0.0 0.0 0.0
0.0 0.0 0.0 0.0 0.0 0.0 0.0 0.0
0.0 0.0 0.0 0.0 0.0 0.0 0.0 0.0
0.0 0.0 0.0 0.0 0.0 0.0 0.0 0.0
0.0 0.0 0.0 0.0 0.0 0.0 0.0 0.0
0.0 0.0 0.0 0.0 0.0 0.0 0.0 0.0
0.0 0.0 0.0 0.0 0.0 0.0 0.0 0.0
0.0 0.0 0.0 0.0 0.0 0.0 0.0 0.0
0.0 0.0 0.0 0.0 0.0 0.0 0.0 0.0

network_body._body_endoder.seq_layers.2.weight f4 [128, 128]
00000000: 20b6 4bbd 9baf 0ebd c949 c23d ab9f 453d
00000010: 27b7 2dbe b0ae 6a3d 5b9a 8ebe 2fca 2fbe
00000020: e553 6b3d 465b ba3d 2c87 013b 2152 f33c
00000030: a61b 4ebd 8250 0b3e 5ab8 2cbc b56a 123e
00000040: 4825 c43d 9f55 4a3d 0814 ddbd 7d8c dfbc
00000050: 63ee 3fbb 70d1 e53d ae8b 2c3d a362 01be
00000060: f74e 7bbb 134e d93c 0ce7 86be ef32 323e
00000070: 4456 aa3d d4df 033d d089 5dbd 74c9 4f3d
00000080: cb27 cfbd 9922 473e c56f 873d 64b6 be3d
00000090: 5af3 c3bc 0dae 7d3d 8689 ab3d 2633 60bd
000000a0: e011 45be 135f 21bd 2a0b af3d 7fde c7bd
000000b0: 848e acbd df3e 48bc 5eb5 963d 0347 153d
000000c0: 776c eabd 5f45 d4bd d3c5 383d 6aea 52be
000000d0: 9a46 053c a2eb 2abd 0fe0 79bd d73c 333e
000000e0: 0f67 a03d 792b fc3c 06ef 0dbd 39f5 46bd
000000f0: 9b84 833d 61ec 38bd 8c05 283a c28e 5f3c
00000100: 7aae df3d 0ab9 0fbe 61c4 0abe 52bf fc3d
00000110: 284e 843c 21ea 9e3d b4da 563d c4cb 053c
00000120: 155b 0d3e 683d 5fbd 3b57 32bc 4c3c 4d3d
00000130: a181 a33d 4b8f 6d3d f86e 9bbd 060f 0bbd
00000140: f47a cabd af31 b1bd a649 243d e634 6fbd
00000150: 4032 eb3d 34c7 253d f6a6 ac3c cdc7 6abb
00000160: 31a3 2ebe 2f4a c9bb fffd 123d c2fe 7bbd
00000170: 6e8f 3c3e 6142 483b 27c6 0bbd 858b 23be
00000180: f71c b43d e6a5 243d e4f5 c8bc 1434 e63c
00000190: 3703 c93d 0a23 fe3c dc38 683e ce7a 033d
000001a0: 5871 773d 10ab f23d be08 44be 1931 40bd
000001b0: 0b19 78bd 5057 8d3d 6faa 8dbc 286a cd3d
000001c0: fe37 803d 0b62 993d cbe6 343c b197 f4bc
000001d0: 8f25 2fbe da25 373e cda1 46bc 11d2 4dbd
000001e0: 3632 9abd 3afa d9bc cb2c 6dbd 9b1a cebd
000001f0: ccae ef3c e5bb e6bc 3797 c93b b86b a33d
00000200: 2965 f8bd 4ea6 01bd 4623 b33d ffd3 8bbc
00000210: 770e ec3d ff44 c3bc 9cfb c83d fee0 5cbd
00000220: 6f3a 853d c0b8 66bd 36df 07bd 14d2 50be
00000230: 61fe 1dbe 64b4 273e 286e 1b3e 2918 f0bd
00000240: 99c1 a7bd 9795 5d3c 4641 7d3d ddab ff3d
00000250: e268 30be 0dac 283d 94f2 7dbc b916 afbd
00000260: 0469 dcbd 5655 e8bd 119e a7bd 5e4d 483b
00000270: 4bee 943d f58b 32bc 4fe6 22bc f260 46bd
00000280: b2f0 3e3e d07d 703a fe3a 27bd 57ae 10bd
00000290: 56f3 80bd c461 ed3c d1af be3c ee0a 293d
000002a0: b3e6 b33d d4a5 fa3c 2b1a b4bc 2d04 093e
000002b0: af07 9c3c 3a4d e43d 92ff 143d 8f82 a23d
000002c0: f0b4 4abe 3a19 683d b167 b9bd db9c 9f3b
000002d0: 1a2a bbbd f792 09bd 44f0 a339 e0bf 4bbd
000002e0: 6e90 6abb 09b7 a13d 746a 01bd 67f7 d63d
000002f0: 7f00 2fbe 2624 abbd 955e 213d cdfb 00be
00000300: ccce cbbd f850 47be f60b e63d a347 7dbd
00000310: 516c 78bd 26bc 6fbd 0aa3 1a3d edea 623d
00000320: 7c22 2b3e 346f 003e 92cf f6bd bb6a fa3c
00000330: a43e 3dbd e726 0c3e 6487 ccbd 312f 6cbd
00000340: 5992 e93c 2dac 373c 3838 7ebd dd1d 37bd
00000350: cb52 fcbb aeb5 9c3d 296b 7a3c 2032 7abc
00000360: 0e8b 9abd e1ab 813d eb1b 9a3c ad7e c0ba
00000370: 9755 63bd ac58 6b3e e08d c93c bf1e 123e
00000380: c57a 0bbe bd1c f8bd 9156 ad3d 4c9e 5b3d
00000390: 3ca7 35bd 02a3 bf3d fb12 883d 25da 403d
000003a0: a3a5 f8bd 95c5 7a39 ac5c febc 3cff 24bd
000003b0: d6f3 90bc 8e86 48be dc4c a1bd f535 85bd
000003c0: e4a2 d1bd d702 d1bc 1cc0 7e3b 284d 24be
000003d0: 197a af3d 2e20 1ebd e4d7 ea3d 3315 1ebe
000003e0: ac3c b7bd b1ae eb3c b877 7f3c 47a2 66bc
000003f0: 672b 453b 7b1f 493d d7f0 44bd dcf4 b03b
-0.049734235 -0.03483544 0.0948673 0.048247974 -0.16964398 0.0572955 -0.2785214 -0.1716697
0.057453055 0.0909944 0.0019764407 0.029702248 -0.050319336 0.1360493 -0.010542 0.14298518
0.09577423 0.04939806 -0.10794836 -0.02728867 -0.0029286377 0.11221588 0.042125396 -0.12635283
-0.0038346627 0.026526487 -0.2634815 0.17402242 0.08317235 0.03219588 -0.054086506 0.05072923
-0.10115012 0.19446792 0.06613115 0.09312132 -0.02391975 0.061933566 0.0837584 -0.05473628
-0.192451 -0.03939731 0.08547051 -0.09759235 -0.0842562 -0.012222021 0.07358812 0.036444675
-0.11446469 -0.10364794 0.045110535 -0.20597234 0.0081345085 -0.041728623 -0.061004695 0.17503677
0.07832157 0.030782448 -0.03465178 -0.048573706 0.06421777 -0.045147303 0.0006409518 0.013644876
0.10921951 -0.1403543 -0.13551475 0.12341179 0.016150549 0.077595 0.052454665 0.008166257
0.13804276 -0.05450192 -0.010885055 0.05010633 0.07983709 0.057997983 -0.07589525 -0.033949874
-0.09886733 -0.086520545 0.0401093 -0.058400057 0.11484194 0.040473178 0.021075707 -0.0035824657
-0.1705444 -0.0061428766 0.03588676 -0.061522253 0.18414089 0.0030557143 -0.03412452 -0.15971191
0.08794587 0.040197276 -0.024531312 0.028101005 0.09815066 0.031022567 0.2267794 0.032099538
0.060410827 0.11849034 -0.1914396 -0.046921823 -0.060570758 0.06901419 -0.017293183 0.10030013
0.0626068 0.07489403 0.011041353 -0.029857488 -0.17104171 0.17885533 -0.012123537 -0.050249163
-0.07529108 -0.026608575 -0.057904046 -0.10063668 0.029258154 -0.028165767 0.0061520594 0.0797953
-0.1212867 -0.03165274 0.08746962 -0.017068861 0.115261964 -0.02383661 0.09813616 -0.053925507
0.06505286 -0.056328535 -0.033171855 -0.20392638 -0.15429069 0.16377407 0.1517874 -0.11723358
-0.08191223 0.0135244345 0.061829828 0.12483952 -0.1722751 0.041179705 -0.01549973 -0.08549256
-0.10762218 -0.113444015 -0.08184446 0.0030563693 0.07272013 -0.010897626 -0.009942605 -0.048432298
0.18646505 0.0009174021 -0.040827744 -0.035322513 -0.06296413 0.028977282 0.023277195 0.04127019
0.08784237 0.030596651 -0.021985134 0.13380499 0.019046633 0.11147542 0.036376543 0.07935058
-0.19795585 0.056664683 -0.09052981 0.0048709936 -0.091388896 -0.033587422 0.00031268795 -0.049743533
-0.0035791653 0.07896239 -0.031595662 0.10496407 -0.17090033 -0.08356504 0.03939684 -0.12596054
-0.09951553 -0.19464481 0.1123275 -0.061835896 -0.060650174 -0.05852904 0.037753142 0.055399824
0.16712373 0.1254242 -0.1205131 0.030568471 -0.046202317 0.13686715 -0.09986761 -0.057662193
0.028512167 0.0112104835 -0.062065333 -0.044706214 -0.0077002994 0.0765184 0.015284338 -0.01527074
-0.07546054 0.063316114 0.01881214 -0.001468619 -0.055501547 0.22983044 0.024603784 0.14269541
-0.13621052 -0.121148564 0.08463777 0.05361776 -0.04434894 0.09357263 0.06644245 0.04708304
-0.12140968 0.00023915463 -0.031050049 -0.040282473 -0.017694395 -0.19582579 -0.07875988 -0.06504432
-0.10236147 -0.02551405 0.003887183 -0.16045058 0.0856821 -0.038604908 0.11466959 -0.15437774
-0.08947119 0.028769823 0.015592508 -0.014076776 0.0030085684 0.049102288 -0.048081245 0.0054002833
