results/ppo/MlAgent/MlAgent-3328.pt (torch, 273103 bytes, 12 tensors)

network_body._body_endoder.seq_layers.0.weight f4 [128, 126]
0	0xbd989624	-0.07450512
1	0x3e1ca5e5	0.15297659
2	0xbe6be4d4	-0.2303651
3	0xbde627b5	-0.11238042
4	0x3d065a60	0.032801032
5	0xbd701dc4	-0.058622137
6	0x3b36d4c4	0.0027897814
7	0x3e1513fd	0.14558406
8	0x3d9d9013	0.076934956
9	0xbd2f734d	-0.04283457
10	0x3ad392c8	0.0016141767
11	0xbda21391	-0.07913888
12	0xbd64aed9	-0.05583081
13	0x3c3fa55b	0.011697139
14	0x3da09037	0.07840007
15	0x3c81154e	0.01575723
16	0x3e1321e6	0.143684
17	0xbc949257	-0.018136187
18	0x3d001159	0.031266544
19	0xbcce2de4	-0.025168367
20	0xbd15a9bc	-0.036538824
21	0xbd63a2c7	-0.05557516
22	0x3dc06907	0.093950324
23	0xbe5d0e23	-0.21587424
24	0xbe1a2fbf	-0.15057276
25	0xbced2e7c	-0.02895283
26	0x3defc03e	0.11706589
27	0xbdd6b9ec	-0.104846805
28	0x3cfd5cc1	0.030928018
29	0xbbbce625	-0.00576474
30	0x3d3c275f	0.045935985
31	0xbcdd812d	-0.027039135
32	0x3db688fe	0.08912848
33	0xbda8925d	-0.082310416
34	0xbb3d6261	-0.002889775
35	0x3dcb8cc4	0.09938958
36	0x3c1ecb41	0.009692014
37	0xbc8215b2	-0.015879486
38	0xbd33e4c8	-0.043919355
39	0x3e0a5c68	0.13511813
40	0xbd9cac1f	-0.07650017
41	0xbd5a31a4	-0.053269997
42	0x3ddbe0ca	0.107362345
43	0xbdda10fc	-0.10647771
44	0xbe2b7577	-0.16744028
45	0xbd04c7e6	-0.0324172
46	0xbd7540b2	-0.05987615
47	0xbcaa8ddf	-0.020819603
48	0xbcc84aa8	-0.024449661
49	0x3cc9a0ca	0.024612803
50	0xbd3b1c98	-0.045681566
51	0x3e3427b6	0.17593274
52	0x3c26b798	0.010175608
53	0x3c3bce24	0.011462722
54	0xbcfa9fdf	-0.03059381
55	0xbd7c12ce	-0.06154137
56	0x3d75baa2	0.05999244
57	0xbe277b37	-0.16355596
58	0x3d876e2f	0.06612813
59	0xbdd001fa	-0.10156627
60	0x3cc5e8ed	0.02415892
61	0x389bf103	7.435868e-05
62	0xbe400f42	-0.1875582
63	0x3932ef73	0.00017064605
64	0x3be36432	0.0069394344
65	0x3d6d09fc	0.05787085
66	0x3d6cf24b	0.057848256
67	0x3ce582d9	0.028016495
68	0xbd001b57	-0.031276073
69	0x3dd36670	0.10322273
70	0x3d77bafe	0.060481064
71	0xbe1f69e8	-0.15567744
72	0xbe101dc6	-0.14073858
73	0xbd165807	-0.036705043
74	0xbe0e5640	-0.1390009
75	0x3dcb8f38	0.09939426
76	0x3def5f60	0.11688113
77	0x3cd7ef23	0.026359146
78	0xbd681c03	-0.05666734
79	0x3d7c77d4	0.061637715
80	0x3d517c7f	0.05114412
81	0x3dae5e52	0.08514084
82	0x3b486422	0.0030577262
83	0xbdec0453	-0.11524262
84	0x3c6bb157	0.014385543
85	0x3cfefa90	0.031125337
86	0x3d43e54c	0.047826096
87	0xbe29e9b1	-0.16593052
88	0xbc1e4538	-0.009660058
89	0x3d444b46	0.04792335
90	0xbdb72f3f	-0.08944558
91	0xbd796768	-0.06088963
92	0xbe1cddb0	-0.15318942
93	0xbddb7cc7	-0.10717159
94	0xbdae4d6d	-0.085108615
95	0xbce5820e	-0.028016116
96	0xbc4c4734	-0.012468148
97	0x3db83349	0.08994157
98	0xbbe5d2c8	-0.0070136525
99	0x3d12a5bb	0.035802584
100	0x3d7ab979	0.061212037
101	0xbdc2cac7	-0.09511333
102	0xbd9283a9	-0.071540184
103	0x3df3c534	0.11902848
104	0x3e12db94	0.14341575
105	0x3d3f0a3e	0.046640627
106	0xbbb3f7e1	-0.005492196
107	0xba66a880	-0.0008798912
108	0x3d2b86ad	0.041876484
109	0xbdfffc46	-0.12499289
110	0x3ccdf9b7	0.025143487
111	0x3d2d98d2	0.04238207
112	0xbdd8fe1a	-0.10595341
113	0x3bce4cda	0.0062957825
114	0x3e05193f	0.12997912
115	0x3dfc56aa	0.12321217
116	0x3d81870c	0.06324586
117	0xbb8aae32	-0.0042321915
118	0xbd82ff27	-0.06396323
119	0xbc463fa6	-0.012100136
120	0xbd9df8e8	-0.07713491
121	0xbd36f42c	-0.044666454
122	0xbcd0abb0	-0.025472492
123	0x3d177981	0.03698111
124	0xbcf9c623	-0.030489987
125	0x3dd13bc0	0.102164745
126	0x3d050b78	0.03248164
127	0x3e3335cb	0.17500989
128	0xbb60fb1d	-0.0034329363
129	0xbd4684ca	-0.04846648
130	0xbca8b007	-0.020591749
131	0x3da3a0d7	0.07989662
132	0x3c061e94	0.008186001
133	0x3ce33eb5	0.027739862
134	0xbda9a5d0	-0.08283579
135	0x3d889f8e	0.06671058
136	0xbddefe1a	-0.1088831
137	0x3e19d815	0.15023835
138	0x3c8fff6d	0.017577851
139	0x3d640b73	0.05567498
140	0x3d914356	0.070929214
141	0xbddf91d4	-0.109164864
142	0xbd83e456	-0.06440036
143	0xbba3ee25	-0.0050027543
144	0xbd680dbb	-0.05665372
145	0x3d22185a	0.039574005
146	0x3e2661b1	0.16248204
147	0x3daf3440	0.08554888
148	0xbccfd670	-0.025370806
149	0xbce172e9	-0.027520614
150	0x3af24be7	0.0018485755
151	0x3d8e5d5e	0.06951402
152	0xbd3ad54f	-0.045613583
153	0x3dc36368	0.095404446
154	0x3e4ccee2	0.20000795
155	0x3dbc211e	0.09186004
156	0xbc9abc19	-0.01888852
157	0xbdf3ed02	-0.1191044
158	0xbe0866c3	-0.1332045
159	0x3c7ba6aa	0.01535956
160	0x3db93070	0.09042442
161	0x3dd82403	0.10553744
162	0xbe3aa4c6	-0.18226919
163	0xbaff560a	-0.0019480598
164	0x3da4faab	0.080556236
165	0x3e5af318	0.21381795
166	0xba508ead	-0.00079558307
167	0xbdf3d5b9	-0.11905999
168	0xbc0f4026	-0.0087433215
169	0xbd5162d9	-0.05111966
170	0x3d868d44	0.06569913
171	0xbd871a71	-0.0659684
172	0xbda1fcf6	-0.079095766
173	0x3d69bd91	0.05706555
174	0xbda2e32f	-0.07953488
175	0x3d84c80c	0.064834684
176	0x3db16e21	0.086635835
177	0xbd56d287	-0.05244687
178	0x3df6d6a9	0.12052662
179	0x3e1ec405	0.15504463
180	0xbe082b5e	-0.13297793
181	0xbcbd2514	-0.02308897
182	0x3d7ec480	0.062199116
183	0xbdbb0aaa	-0.091328934
184	0x3cf5410d	0.029938245
185	0x3bf6357e	0.007513701
186	0xbdd7d8fe	-0.10539435
187	0x3d475720	0.048667073
188	0xbde2dec1	-0.11077643
189	0xbc3db225	-0.0115781175
190	0x3e20fb65	0.157209
191	0x3c1c1a95	0.009527822
192	0x3bc0a2eb	0.0058787963
193	0xbc601889	-0.013677725
194	0xbe798361	-0.24366523
195	0x3dd5ea71	0.10445107
196	0x3d26df37	0.040740218
197	0x3cf904d6	0.030397814
198	0x3da77065	0.081757344
199	0x3c560a16	0.013063928
200	0x3ccc2a4c	0.024922512
201	0xbc95b492	-0.01827458
202	0xbd95b999	-0.073107906
203	0x3c090381	0.008362652
204	0x3dfab5a9	0.1224168
205	0xbcbcaf0d	-0.02303269
206	0xbd1b2f74	-0.03788705
207	0x3d712c86	0.05888035
208	0xbe0aae09	-0.13542952
209	0xbd85a733	-0.06526031
210	0xbce992be	-0.028512355
211	0x3dd0ebc7	0.10201221
212	0xbb8c06ff	-0.004273295
213	0xbc86fb3c	-0.01647722
214	0x3dcc4533	0.09974136
215	0xbc71490e	-0.01472689
216	0xbde0812f	-0.1096214
217	0x3e000eb4	0.12505609
218	0x3cf95105	0.030434141
219	0x3da052fe	0.078283295
220	0xbd8366b8	-0.064160764
221	0xbd4171a9	-0.047227535
222	0x3dc59d91	0.09649194
223	0x3d9c540b	0.076332174
224	0x3de4293d	0.11140678
225	0xbdee5fd4	-0.116393715
226	0x3dfe3523	0.12412479
227	0xbd879fe8	-0.066222966
228	0x3d9a84ab	0.07544836
229	0xbc390b93	-0.011294263
230	0xbe3eba2e	-0.1862571
231	0xbdb9b833	-0.09068336
232	0xbd8eb6b3	-0.06968441
233	0x3d6c271e	0.057654493
234	0xbde5c1dc	-0.11218616
235	0x3e0e6dd6	0.13909087
236	0x3c1895b0	0.009313032
237	0xbd14d609	-0.036336932
238	0x3dfc61d6	0.12323348
239	0xbdfbfd7a	-0.12304206
240	0xbca17070	-0.019706935
241	0xbd72e3d5	-0.05929931
242	0xbdb9fa69	-0.09080965
243	0x3d292479	0.04129455
244	0xbe4f783a	-0.20260707
245	0x3e0bd7d5	0.13656552
246	0xbdcc07a8	-0.09962398
247	0xbdabdd90	-0.08391869
248	0xbdcf74a4	-0.10129669
249	0xbe2546a9	-0.16140236
250	0x3e133255	0.14374669
251	0x3db3a244	0.08771184
252	0x3d939f30	0.07208097
253	0x3e42ab06	0.19010553
254	0xbdc553f5	-0.09635154
255	0x3cf2576f	0.029582707

network_body._body_endoder.seq_layers.0.bias f4 [128]
0	0x00000000	0.0
1	0x00000000	0.0
2	0x00000000	0.0
3	0x00000000	0.0
4	0x00000000	0.0
5	0x00000000	0.0
6	0x00000000	0.0
7	0x00000000	0.0
8	0x00000000	0.0
9	0x00000000	0.0
10	0x00000000	0.0
11	0x00000000	0.0
12	0x00000000	0.0
13	0x00000000	0.0
14	0x00000000	0.0
15	0x00000000	0.0
16	0x00000000	0.0
17	0x00000000	0.0
18	0x00000000	0.0
19	0x00000000	0.0
20	0x00000000	0.0
21	0x00000000	0.0
22	0x00000000	0.0
23	0x00000000	0.0
24	0x00000000	0.0
25	0x00000000	0.0
26	0x00000000	0.0
27	0x00000000	0.0
28	0x00000000	0.0
29	0x00000000	0.0
30	0x00000000	0.0
31	0x00000000	0.0
32	0x00000000	0.0
33	0x00000000	0.0
34	0x00000000	0.0
35	0x00000000	0.0
36	0x00000000	0.0
37	0x00000000	0.0
38	0x00000000	0.0
39	0x00000000	0.0
40	0x00000000	0.0
41	0x00000000	0.0
42	0x00000000	0.0
43	0x00000000	0.0
44	0x00000000	0.0
45	0x00000000	0.0
46	0x00000000	0.0
47	0x00000000	0.0
48	0x00000000	0.0
49	0x00000000	0.0
50	0x00000000	0.0
51	0x00000000	0.0
52	0x00000000	0.0
53	0x00000000	0.0
54	0x00000000	0.0
55	0x00000000	0.0
56	0x00000000	0.0
57	0x00000000	0.0
58	0x00000000	0.0
59	0x00000000	0.0
60	0x00000000	0.0
61	0x00000000	0.0
62	0x00000000	0.0
63	0x00000000	0.0
64	0x00000000	0.0
65	0x00000000	0.0
66	0x00000000	0.0
67	0x00000000	0.0
68	0x00000000	0.0
69	0x00000000	0.0
70	0x00000000	0.0
71	0x00000000	0.0
72	0x00000000	0.0
73	0x00000000	0.0
74	0x00000000	0.0
75	0x00000000	0.0
76	0x00000000	0.0
77	0x00000000	0.0
78	0x00000000	0.0
79	0x00000000	0.0
80	0x00000000	0.0
81	0x00000000	0.0
82	0x00000000	0.0
83	0x00000000	0.0
84	0x00000000	0.0
85	0x00000000	0.0
86	0x00000000	0.0
87	0x00000000	0.0
88	0x00000000	0.0
89	0x00000000	0.0
90	0x00000000	0.0
91	0x00000000	0.0
92	0x00000000	0.0
93	0x00000000	0.0
94	0x00000000	0.0
95	0x00000000	0.0
96	0x00000000	0.0
97	0x00000000	0.0
98	0x00000000	0.0
99	0x00000000	0.0
100	0x00000000	0.0
101	0x00000000	0.0
102	0x00000000	0.0
103	0x00000000	0.0
104	0x00000000	0.0
105	0x00000000	0.0
106	0x00000000	0.0
107	0x00000000	0.0
108	0x00000000	0.0
109	0x00000000	0.0
110	0x00000000	0.0
111	0x00000000	0.0
112	0x00000000	0.0
113	0x00000000	0.0
114	0x00000000	0.0
115	0x00000000	0.0
116	0x00000000	0.0
117	0x00000000	0.0
118	0x00000000	0.0
119	0x00000000	0.0
120	0x00000000	0.0
121	0x00000000	0.0
122	0x00000000	0.0
123	0x00000000	0.0
124	0x00000000	0.0
125	0x00000000	0.0
126	0x00000000	0.0
127	0x00000000	0.0

network_body._body_endoder.seq_layers.2.weight f4 [128, 128]
0	0xbd4bb620	-0.049734235
1	0xbd0eaf9b	-0.03483544
2	0x3dc249c9	0.0948673
3	0x3d459fab	0.048247974
4	0xbe2db727	-0.16964398
5	0x3d6aaeb0	0.0572955
6	0xbe8e9a5b	-0.2785214
7	0xbe2fca2f	-0.1716697
8	0x3d6b53e5	0.057453055
9	0x3dba5b46	0.0909944
10	0x3b01872c	0.0019764407
11	0x3cf35221	0.029702248
12	0xbd4e1ba6	-0.050319336
13	0x3e0b5082	0.1360493
14	0xbc2cb85a	-0.010542
15	0x3e126ab5	0.14298518
16	0x3dc42548	0.09577423
17	0x3d4a559f	0.04939806
18	0xbddd1408	-0.10794836
19	0xbcdf8c7d	-0.02728867
20	0xbb3fee63	-0.0029286377
21	0x3de5d170	0.11221588
22	0x3d2c8bae	0.042125396
23	0xbe0162a3	-0.12635283
24	0xbb7b4ef7	-0.0038346627
25	0x3cd94e13	0.026526487
26	0xbe86e70c	-0.2634815
27	0x3e3232ef	0.17402242
28	0x3daa5644	0.08317235
29	0x3d03dfd4	0.03219588
30	0xbd5d89d0	-0.054086506
31	0x3d4fc974	0.05072923
32	0xbdcf27cb	-0.10115012
33	0x3e472299	0.19446792
34	0x3d876fc5	0.06613115
35	0x3dbeb664	0.09312132
36	0xbcc3f35a	-0.02391975
37	0x3d7dae0d	0.061933566
38	0x3dab8986	0.0837584
39	0xbd603326	-0.05473628
40	0xbe4511e0	-0.192451
41	0xbd215f13	-0.03939731
42	0x3daf0b2a	0.08547051
43	0xbdc7de7f	-0.09759235
44	0xbdac8e84	-0.0842562
45	0xbc483edf	-0.012222021
46	0x3d96b55e	0.07358812
47	0x3d154703	0.036444675
48	0xbdea6c77	-0.11446469
49	0xbdd4455f	-0.10364794
50	0x3d38c5d3	0.045110535
51	0xbe52ea6a	-0.20597234
52	0x3c05469a	0.0081345085
53	0xbd2aeba2	-0.041728623
54	0xbd79e00f	-0.061004695
55	0x3e333cd7	0.17503677
56	0x3da0670f	0.07832157
57	0x3cfc2b79	0.030782448
58	0xbd0def06	-0.03465178
59	0xbd46f539	-0.048573706
60	0x3d83849b	0.06421777
61	0xbd38ec61	-0.045147303
62	0x3a28058c	0.0006409518
63	0x3c5f8ec2	0.013644876
64	0x3ddfae7a	0.10921951
65	0xbe0fb90a	-0.1403543
66	0xbe0ac461	-0.13551475
67	0x3dfcbf52	0.12341179
68	0x3c844e28	0.016150549
69	0x3d9eea21	0.077595
70	0x3d56dab4	0.052454665
71	0x3c05cbc4	0.008166257
72	0x3e0d5b15	0.13804276
73	0xbd5f3d68	-0.05450192
74	0xbc32573b	-0.010885055
75	0x3d4d3c4c	0.05010633
76	0x3da381a1	0.07983709
77	0x3d6d8f4b	0.057997983
78	0xbd9b6ef8	-0.07589525
79	0xbd0b0f06	-0.033949874
80	0xbdca7af4	-0.09886733
81	0xbdb131af	-0.086520545
82	0x3d2449a6	0.0401093
83	0xbd6f34e6	-0.058400057
84	0x3deb3240	0.11484194
85	0x3d25c734	0.040473178
86	0x3caca6f6	0.021075707
87	0xbb6ac7cd	-0.0035824657
88	0xbe2ea331	-0.1705444
89	0xbbc94a2f	-0.0061428766
90	0x3d12fdff	0.03588676
91	0xbd7bfec2	-0.061522253
92	0x3e3c8f6e	0.18414089
93	0x3b484261	0.0030557143
94	0xbd0bc627	-0.03412452
95	0xbe238b85	-0.15971191
96	0x3db41cf7	0.08794587
97	0x3d24a5e6	0.040197276
98	0xbcc8f5e4	-0.024531312
99	0x3ce63414	0.028101005
100	0x3dc90337	0.09815066
101	0x3cfe230a	0.031022567
102	0x3e6838dc	0.2267794
103	0x3d037ace	0.032099538
104	0x3d777158	0.060410827
105	0x3df2ab10	0.11849034
106	0xbe4408be	-0.1914396
107	0xbd403119	-0.046921823
108	0xbd78190b	-0.060570758
109	0x3d8d5750	0.06901419
110	0xbc8daa6f	-0.017293183
111	0x3dcd6a28	0.10030013
112	0x3d8037fe	0.0626068
113	0x3d99620b	0.07489403
114	0x3c34e6cb	0.011041353
115	0xbcf497b1	-0.029857488
116	0xbe2f258f	-0.17104171
117	0x3e3725da	0.17885533
118	0xbc46a1cd	-0.012123537
119	0xbd4dd211	-0.050249163
120	0xbd9a3236	-0.07529108
121	0xbcd9fa3a	-0.026608575
122	0xbd6d2ccb	-0.057904046
123	0xbdce1a9b	-0.10063668
124	0x3cefaecc	0.029258154
125	0xbce6bbe5	-0.028165767
126	0x3bc99737	0.0061520594
127	0x3da36bb8	0.0797953
128	0xbdf86529	-0.1212867
129	0xbd01a64e	-0.03165274
130	0x3db32346	0.08746962
131	0xbc8bd3ff	-0.017068861
132	0x3dec0e77	0.115261964
133	0xbcc344ff	-0.02383661
134	0x3dc8fb9c	0.09813616
135	0xbd5ce0fe	-0.053925507
136	0x3d853a6f	0.06505286
137	0xbd66b8c0	-0.056328535
138	0xbd07df36	-0.033171855
139	0xbe50d214	-0.20392638
140	0xbe1dfe61	-0.15429069
141	0x3e27b464	0.16377407
142	0x3e1b6e28	0.1517874
143	0xbdf01829	-0.11723358
144	0xbda7c199	-0.08191223
145	0x3c5d9597	0.0135244345
146	0x3d7d4146	0.061829828
147	0x3dffabdd	0.12483952
148	0xbe3068e2	-0.1722751
149	0x3d28ac0d	0.041179705
150	0xbc7df294	-0.01549973
151	0xbdaf16b9	-0.08549256
152	0xbddc6904	-0.10762218
153	0xbde85556	-0.113444015
154	0xbda79e11	-0.08184446
155	0x3b484d5e	0.0030563693
156	0x3d94ee4b	0.07272013
157	0xbc328bf5	-0.010897626
158	0xbc22e64f	-0.009942605
159	0xbd4660f2	-0.048432298
160	0x3e3ef0b2	0.18646505
161	0x3a707dd0	0.0009174021
162	0xbd273afe	-0.040827744
163	0xbd10ae57	-0.035322513
164	0xbd80f356	-0.06296413
165	0x3ced61c4	0.028977282
166	0x3cbeafd1	0.023277195
167	0x3d290aee	0.04127019
168	0x3db3e6b3	0.08784237
169	0x3cfaa5d4	0.030596651
170	0xbcb41a2b	-0.021985134
171	0x3e09042d	0.13380499
172	0x3c9c07af	0.019046633
173	0x3de44d3a	0.11147542
174	0x3d14ff92	0.036376543
175	0x3da2828f	0.07935058
176	0xbe4ab4f0	-0.19795585
177	0x3d68193a	0.056664683
178	0xbdb967b1	-0.09052981
179	0x3b9f9cdb	0.0048709936
180	0xbdbb2a1a	-0.091388896
181	0xbd0992f7	-0.033587422
182	0x39a3f044	0.00031268795
183	0xbd4bbfe0	-0.049743533
184	0xbb6a906e	-0.0035791653
185	0x3da1b709	0.07896239
186	0xbd016a74	-0.031595662
187	0x3dd6f767	0.10496407
188	0xbe2f007f	-0.17090033
189	0xbdab2426	-0.08356504
190	0x3d215e95	0.03939684
191	0xbe00fbcd	-0.12596054
192	0xbdcbcecc	-0.09951553
193	0xbe4750f8	-0.19464481
194	0x3de60bf6	0.1123275
195	0xbd7d47a3	-0.061835896
196	0xbd786c51	-0.060650174
197	0xbd6fbc26	-0.05852904
198	0x3d1aa30a	0.037753142
199	0x3d62eaed	0.055399824
200	0x3e2b227c	0.16712373
201	0x3e006f34	0.1254242
202	0xbdf6cf92	-0.1205131
203	0x3cfa6abb	0.030568471
204	0xbd3d3ea4	-0.046202317
205	0x3e0c26e7	0.13686715
206	0xbdcc8764	-0.09986761
207	0xbd6c2f31	-0.057662193
208	0x3ce99259	0.028512167
209	0x3c37ac2d	0.0112104835
210	0xbd7e3838	-0.062065333
211	0xbd371ddd	-0.044706214
212	0xbbfc52cb	-0.0077002994
213	0x3d9cb5ae	0.0765184
214	0x3c7a6b29	0.015284338
215	0xbc7a3220	-0.01527074
216	0xbd9a8b0e	-0.07546054
217	0x3d81abe1	0.063316114
218	0x3c9a1beb	0.01881214
219	0xbac07ead	-0.001468619
220	0xbd635597	-0.055501547
221	0x3e6b58ac	0.22983044
222	0x3cc98de0	0.024603784
223	0x3e121ebf	0.14269541
224	0xbe0b7ac5	-0.13621052
225	0xbdf81cbd	-0.121148564
226	0x3dad5691	0.08463777
227	0x3d5b9e4c	0.05361776
228	0xbd35a73c	-0.04434894
229	0x3dbfa302	0.09357263
230	0x3d8812fb	0.06644245
231	0x3d40da25	0.04708304
232	0xbdf8a5a3	-0.12140968
233	0x397ac595	0.00023915463
234	0xbcfe5cac	-0.031050049
235	0xbd24ff3c	-0.040282473
236	0xbc90f3d6	-0.017694395
237	0xbe48868e	-0.19582579
238	0xbda14cdc	-0.07875988
239	0xbd8535f5	-0.06504432
240	0xbdd1a2e4	-0.10236147
241	0xbcd102d7	-0.02551405
242	0x3b7ec01c	0.003887183
243	0xbe244d28	-0.16045058
244	0x3daf7a19	0.0856821
245	0xbd1e202e	-0.038604908
246	0x3dead7e4	0.11466959
247	0xbe1e1533	-0.15437774
248	0xbdb73cac	-0.08947119
249	0x3cebaeb1	0.028769823
250	0x3c7f77b8	0.015592508
251	0xbc66a247	-0.014076776
252	0x3b452b67	0.0030085684
253	0x3d491f7b	0.049102288
254	0xbd44f0d7	-0.048081245
255	0x3bb0f4dc	0.0054002833

network_body._body_endoder.seq_layers.2.bias f4 [128]
0	0x00000000	0.0
1	0x00000000	0.0
2	0x00000000	0.0
3	0x00000000	0.0
4	0x00000000	0.0
5	0x00000000	0.0
6	0x00000000	0.0
7	0x00000000	0.0
8	0x00000000	0.0
9	0x00000000	0.0
10	0x00000000	0.0
11	0x00000000	0.0
12	0x00000000	0.0
13	0x00000000	0.0
14	0x00000000	0.0
15	0x00000000	0.0
16	0x00000000	0.0
17	0x00000000	0.0
18	0x00000000	0.0
19	0x00000000	0.0
20	0x00000000	0.0
21	0x00000000	0.0
22	0x00000000	0.0
23	0x00000000	0.0
24	0x00000000	0.0
25	0x00000000	0.0
26	0x00000000	0.0
27	0x00000000	0.0
28	0x00000000	0.0
29	0x00000000	0.0
30	0x00000000	0.0
31	0x00000000	0.0
32	0x00000000	0.0
33	0x00000000	0.0
34	0x00000000	0.0
35	0x00000000	0.0
36	0x00000000	0.0
37	0x00000000	0.0
38	0x00000000	0.0
39	0x00000000	0.0
40	0x00000000	0.0
41	0x00000000	0.0
42	0x00000000	0.0
43	0x00000000	0.0
44	0x00000000	0.0
45	0x00000000	0.0
46	0x00000000	0.0
47	0x00000000	0.0
48	0x00000000	0.0
49	0x00000000	0.0
50	0x00000000	0.0
51	0x00000000	0.0
52	0x00000000	0.0
53	0x00000000	0.0
54	0x00000000	0.0
55	0x00000000	0.0
56	0x00000000	0.0
57	0x00000000	0.0
58	0x00000000	0.0
59	0x00000000	0.0
60	0x00000000	0.0
61	0x00000000	0.0
62	0x00000000	0.0
63	0x00000000	0.0
64	0x00000000	0.0
65	0x00000000	0.0
66	0x00000000	0.0
67	0x00000000	0.0
68	0x00000000	0.0
69	0x00000000	0.0
70	0x00000000	0.0
71	0x00000000	0.0
72	0x00000000	0.0
73	0x00000000	0.0
74	0x00000000	0.0
75	0x00000000	0.0
76	0x00000000	0.0
77	0x00000000	0.0
78	0x00000000	0.0
79	0x00000000	0.0
80	0x00000000	0.0
81	0x00000000	0.0
82	0x00000000	0.0
83	0x00000000	0.0
84	0x00000000	0.0
85	0x00000000	0.0
86	0x00000000	0.0
87	0x00000000	0.0
88	0x00000000	0.0
89	0x00000000	0.0
90	0x00000000	0.0
91	0x00000000	0.0
92	0x00000000	0.0
93	0x00000000	0.0
94	0x00000000	0.0
95	0x00000000	0.0
96	0x00000000	0.0
97	0x00000000	0.0
98	0x00000000	0.0
99	0x00000000	0.0
100	0x00000000	0.0
101	0x00000000	0.0
102	0x00000000	0.0
103	0x00000000	0.0
104	0x00000000	0.0
105	0x00000000	0.0
106	0x00000000	0.0
107	0x00000000	0.0
108	0x00000000	0.0
109	0x00000000	0.0
110	0x00000000	0.0
111	0x00000000	0.0
112	0x00000000	0.0
113	0x00000000	0.0
114	0x00000000	0.0
115	0x00000000	0.0
116	0x00000000	0.0
117	0x00000000	0.0
118	0x00000000	0.0
119	0x00000000	0.0
120	0x00000000	0.0
121	0x00000000	0.0
122	0x00000000	0.0
123	0x00000000	0.0
124	0x00000000	0.0
125	0x00000000	0.0
126	0x00000000	0.0
127	0x00000000	0.0

action_model._continuous_distribution.log_sigma f4 [1, 3]
0	0x00000000	0.0
1	0x00000000	0.0
2	0x00000000	0.0

action_model._continuous_distribution.mu.weight f4 [3, 128]
0	0x3d2a8ff4	0.04164119
1	0xbc3010c9	-0.010746189
2	0xbca5592e	-0.020184126
3	0x3c0a0ac7	0.008425421
4	0xbbd16daa	-0.006391247
5	0x3b87ff77	0.004150327
6	0x3b397d42	0.002830342
7	0x3cbf239b	0.023332408
8	0xba51d0b2	-0.00080038153
9	0xbc63a00d	-0.01389314
10	0xbc681ea8	-0.014167465
11	0xbc9847b7	-0.018588884
12	0x3cb3c423	0.021944111
13	0x3c87454f	0.016512541
14	0xbb89d8df	-0.0042067613
15	0xbc032cef	-0.0080063185
16	0xbc559cc8	-0.013037868
17	0x3b822a1c	0.003972305
18	0x3c8b6487	0.017015709
19	0x3cfb4648	0.030673161
20	0x3d0935ed	0.033498693
21	0xbcdb4177	-0.026764615
22	0x3c19a03f	0.009376585
23	0x3b86f1cc	0.00411818
24	0x3b8204e3	0.0039678677
25	0xbd0ce785	-0.03440048
26	0x3bf01d48	0.0073277093
27	0xbc555520	-0.013020784
28	0xbaecccd8	-0.0018066419
29	0x3c158ac8	0.009127326
30	0xbbf8b2aa	-0.007589658
31	0xbc9446fa	-0.01810025
32	0x3bfbb058	0.007680934
33	0xbcce6c5a	-0.02519815
34	0x3cab1c67	0.020887567
35	0xbc64fb48	-0.013975926
36	0x3ca01bd4	0.01954452
37	0xbb60b5ff	-0.0034288166
38	0x3c0d0a9c	0.0086084865
39	0xbc590fa0	-0.013248354
40	0xbae78cd7	-0.0017665875
41	0x3c2a24ba	0.010384733
42	0x3c4d3f17	0.012527249
43	0xbc261702	-0.010137321
44	0x3ccb1d19	0.024794148
45	0xbc1bb0e1	-0.00950262
46	0x39bc7200	0.0003594309
47	0xbcc1b6ff	-0.02364683
48	0xbc79947f	-0.015233158
49	0x3c0fcf09	0.008777388
50	0x3cd717ab	0.026256403
51	0x3cd6e760	0.026233375
52	0x3ca409d8	0.020024225
53	0xb9cb42bb	-0.00038768895
54	0xbc0abd32	-0.008467959
55	0xbd0becbb	-0.03416131
56	0xbcb5da83	-0.022198921
57	0xbbf058af	-0.0073347907
58	0x3b81ba79	0.003958997
59	0x3d1c9a8d	0.03823333
60	0xbc987b97	-0.01861362
61	0xbb91d4c8	-0.0044504143
62	0xbc0fc2fe	-0.008774517
63	0x3d09b7a4	0.0336224
64	0xbc8ca974	-0.017170645
65	0x3c697272	0.014248477
66	0x3cbe4b17	0.023229165
67	0xbc4ef9db	-0.012632812
68	0x3c201b17	0.009772084
69	0x3b250d3f	0.0025184897
70	0x3be2ff5d	0.0069274143
71	0x3a442e9d	0.00074837526
72	0xbb0bfe33	-0.0021361231
73	0xbc86fd1f	-0.01647812
74	0xbad3ab3a	-0.0016149052
75	0xbca6ffff	-0.02038574
76	0xbc4d3aad	-0.012526196
77	0xbc163123	-0.009166989
78	0xbcc18281	-0.0236218
79	0xba90d360	-0.0011049323
80	0xbc7b320b	-0.015331755
81	0xbacc7a43	-0.0015600402
82	0xbcd75615	-0.026286164
83	0xbd358887	-0.044319656
84	0x3d1046e4	0.035223857
85	0xbd50592a	-0.050866283
86	0xbcfac6a0	-0.03061229
87	0xbc035e2d	-0.008018059
88	0xbc221e1f	-0.009894877
89	0xbbeffbf7	-0.0073237377
90	0xbc8868e8	-0.016651586
91	0x3cad568e	0.021159437
92	0x3cff3c6a	0.031156737
93	0x3cc27d81	0.023741486
94	0xbc355447	-0.011067457
95	0xbbcd530b	-0.006266003
96	0xbad84c92	-0.0016502312
97	0x3c429897	0.011877201
98	0x3ca90e7b	0.020636788
99	0x3c43aff3	0.011943805
100	0x3cc08156	0.023499172
101	0x3c823e2a	0.015898783
102	0x3c8d6551	0.017260225
103	0x3cfa5ae5	0.03056092
104	0xbc1dd0c9	-0.009632298
105	0xbd565545	-0.052327413
106	0xbc9cc5cb	-0.019137284
107	0x3d30fe25	0.04321112
108	0x3c1d416b	0.009598116
109	0xbc7c4b0a	-0.01539875
110	0xbd1a9ffb	-0.037750226
111	0x3b801ea7	0.003909904
112	0xbcbc2d1b	-0.022970727
113	0xbaa5aa23	-0.0012639206
114	0xba9f0b5a	-0.001213412
115	0x3c93d946	0.01804794
116	0xbc80bc86	-0.015714895
117	0xbb84a64b	-0.004048144
118	0x3b3419e3	0.002748125
119	0x3d01d150	0.031693757
120	0x3c2ff3cf	0.010739281
121	0xbc6f58fa	-0.014608616
122	0xbc98b13d	-0.018639201
123	0x3ca9331b	0.020654252
124	0xba9af57c	-0.0011822428
125	0x3cdc984b	0.026928088
126	0xbcd170ed	-0.025566543
127	0x3c0a3e2a	0.008437673
128	0x3d26b600	0.040700912
129	0x3c60b445	0.013714855
130	0xbcd12a67	-0.025532914
131	0xbc2448db	-0.010027136
132	0xbc6acbcd	-0.014330816
133	0xbb7bc688	-0.0038417894
134	0xbd151735	-0.036399085
135	0xbb57b18a	-0.0032912218
136	0x3d0fda57	0.035120334
137	0x3c79e163	0.01525149
138	0x3c82ecb1	0.015982004
139	0x3a32e945	0.0006824921
140	0xbbb6757f	-0.005568206
141	0xbc6884b8	-0.014191799
142	0x3c4cd4ef	0.012501939
143	0x3c47fd49	0.012206384
144	0xbc38c883	-0.0112782745
145	0xbcc9f30c	-0.024652027
146	0xba0f34b1	-0.0005462869
147	0xbb52c587	-0.0032161193
148	0x3c251b75	0.010077347
149	0x3c3a3c2e	0.011366887
150	0x3a839b85	0.0010040855
151	0xbc915801	-0.017742159
152	0xbd1eb0a7	-0.038742688
153	0x3c227727	0.009916103
154	0xbc9dab6f	-0.019246785
155	0xbcfff34a	-0.031243939
156	0xbd0e9c75	-0.034817178
157	0xbb5a0ea5	-0.003327289
158	0xbc74f120	-0.014950067
159	0x3ccd9adb	0.025098255
160	0xbbdef6ea	-0.006804337
161	0xbc0965ad	-0.008386058
162	0x3aecd8f8	0.0018070033
163	0x39b8fd2a	0.00035283837
164	0xbc288fae	-0.010288162
165	0x3c6e9a15	0.014563103
166	0xbc96cc2b	-0.018407902
167	0x3c1dd061	0.009632201
168	0xbb699d28	-0.003564665
169	0xb9a0e79f	-0.0003069015
170	0xbc4d9dc7	-0.012549824
171	0x3a96f837	0.0011518066
172	0x3bac6a2b	0.0052616796
173	0xbd048f3b	-0.032363158
174	0x3c249ffa	0.010047907
175	0xbc4c3a58	-0.012465082
176	0xbb8af7d3	-0.0042409687
177	0xbd17635c	-0.03695999
178	0x3c66cd08	0.014086969
179	0x3ca61dff	0.020277975
180	0xbc6afbf5	-0.014342298
181	0xbd309aae	-0.043116264
182	0x3c1b6486	0.009484416
183	0xbba9bf69	-0.0051802886
184	0x3bce6067	0.006298113
185	0xbc496ae3	-0.01229355
186	0xbd08835f	-0.03332841
187	0xbcb6a066	-0.02229328
188	0xba942fbf	-0.0011305733
189	0xbc8070e0	-0.015678823
190	0x3c837e54	0.016051449
191	0x3b9306cb	0.004486894
192	0x3cb9c6f7	0.022677882
193	0xbb239a36	-0.0024963743
194	0xbc94378b	-0.018092891
195	0x3b4322ec	0.0029775454
196	0xbcb847bd	-0.022495145
197	0x3c1fa48c	0.009743821
198	0x3ba00d6f	0.004884414
199	0xb91139ce	-0.00013849812
200	0xbabd8d27	-0.0014461622
201	0xbc34e621	-0.011041195
202	0xbbb7cf34	-0.0056094173
203	0x3b06bcaa	0.002055923
204	0x3c783dc0	0.015151441
205	0x3d4b00bb	0.049561244
206	0xbca4a31a	-0.020097304
207	0xbc24a238	-0.010048442
208	0xbc12205b	-0.008918847
209	0x3d2f07d8	0.04273209
210	0xbc212a6a	-0.009836772
211	0x3c83f787	0.016109241
212	0xbbea644b	-0.007153069
213	0x3bf4f380	0.0074753165
214	0x3c160691	0.009156839
215	0x3ce5e0f5	0.02806137
216	0xbac9881e	-0.0015375649
217	0x3c5067d0	0.012720063
218	0x3ca0dc3b	0.019636264
219	0x3bf3885d	0.0074320273
220	0x3ab6cc92	0.0013946465
221	0x3c9093dc	0.01764863
222	0x3c21852b	0.00985841
223	0x3c806110	0.015671283
224	0xbc43e15e	-0.011955587
225	0x3c88294d	0.016621256
226	0x3c89adaa	0.016806442
227	0xbc9928f5	-0.018696288
228	0xbb74dc4a	-0.0037362748
229	0x3ccaa420	0.024736464
230	0xbcaf6cf4	-0.021414258
231	0xbc15710b	-0.00912119
232	0x3d34b268	0.044115454
233	0xbc3dd79b	-0.011587049
234	0xbb61bb17	-0.003444379
235	0xbd0c9c51	-0.034328762
236	0xba0216fb	-0.0004962531
237	0xbafc1f40	-0.0019235387
238	0xbcbe4924	-0.023228236
239	0x3d287ea3	0.041136395
240	0x3c47cf01	0.01219535
241	0x3ce4f55b	0.027949026
242	0x3c0ad64d	0.008473945
243	0x3ca9ba3c	0.020718686
244	0xbb21abbd	-0.0024669014
245	0xbb0de35f	-0.0021650416
246	0x3cb20f57	0.02173583
247	0x3c548537	0.012971214
248	0x3c68055f	0.014161437
249	0xbabd5854	-0.001444588
250	0xbcc4fdee	-0.024046864
251	0xbb3989b3	-0.0028310835
252	0xbbe918f8	-0.007113572
253	0x3b4383b9	0.0029833151
254	0x3ca643ab	0.020295938
255	0x39c6a887	0.00037891066

action_model._continuous_distribution.mu.bias f4 [3]
0	0x00000000	0.0
1	0x00000000	0.0
2	0x00000000	0.0

network_body._body_endoder.seq_layers.0.weight f4 [128, 126]
0	0xbc7c1717	-0.015386364
1	0x3d2dd8d6	0.04244312
2	0x3d0776f9	0.033072446
3	0x3dcad1b8	0.09903282
4	0xbd8d8f0f	-0.06912052
5	0xbcd07d53	-0.025450384
6	0xbd0ed710	-0.03487307
7	0xbc281282	-0.010258319
8	0x3dc16342	0.0944276
9	0xbd1ea5a8	-0.0387322
10	0xbdb6eaf0	-0.089315295
11	0xbe54717d	-0.20746417
12	0x3e34c4fa	0.17653266
13	0xbdc6a2e7	-0.0969904
14	0x3c46496d	0.012102467
15	0xbccd57c7	-0.02506627
16	0x3d7f3b93	0.062312674
17	0x3cd4cfa3	0.025977915
18	0xbdcf6849	-0.10127313
19	0x3d74589b	0.059654813
20	0x3ce45f1d	0.027877385
21	0x3d8481b0	0.064700484
22	0xbd95aa6c	-0.07307896
23	0xbbde5de7	-0.0067860964
24	0x3d16b97d	0.03679799
25	0xbd03c5d0	-0.03217107
26	0xbdee34ef	-0.1163119
27	0xbe5a5386	-0.21320924
28	0x3dc9a872	0.098465815
29	0xbd3fe0ad	-0.046845127
30	0xbe13b893	-0.14425878
31	0xbda95b9c	-0.08269426
32	0x3bbb9298	0.0057242624
33	0x3e017a16	0.12644228
34	0x3d9fb8eb	0.07798942
35	0x3d4cfb69	0.05004445
36	0x3d05f6cc	0.032706067
37	0xbd758203	-0.059938442
38	0xbdf90ea0	-0.121609926
39	0x3d0771c3	0.033067476
40	0xbe391f73	-0.18078403
41	0x3a9faf65	0.0012183009
42	0xbd966c7e	-0.07344912
43	0xbdd1c688	-0.10242945
44	0x3c485466	0.012227153
45	0xbd09892e	-0.03357809
46	0x3d58fc96	0.05297526
47	0x3be382fb	0.0069431043
48	0xbc409f30	-0.011756703
49	0xba093d57	-0.00052352756
50	0x3da2458c	0.07923421
51	0x3dd5cbbf	0.10439252
52	0xbdac812e	-0.084230766
53	0xbe2ed835	-0.17074664
54	0xbcf48aaf	-0.029851286
55	0x3c890439	0.016725646
56	0x3d508228	0.050905377
57	0x3d6357b9	0.05550358
58	0x3d600adf	0.054697867
59	0x3da21605	0.07914356
60	0xbddeab82	-0.10872556
61	0x3bdf51e2	0.006815181
62	0xbdcdb6bc	-0.100446194
63	0x3e13642a	0.14393678
64	0xbca171b5	-0.01970754
65	0x3d3623a8	0.0444676
66	0x3e02c9c4	0.1277228
67	0xbc428c83	-0.011874321
68	0x3d366fb3	0.04454012
69	0x3d94db12	0.07268347
70	0x3d376cab	0.04478137
71	0x3d350572	0.044194646
72	0xbe0cce6e	-0.13750622
73	0x3ced9484	0.029001482
74	0xbd2904f1	-0.041264478
75	0xbd0fd8df	-0.035118934
76	0xbdbbc98c	-0.091693014
77	0xbaff2166	-0.001946491
78	0xbd70495b	-0.058663707
79	0x3d67d2b7	0.056597438
80	0xbcddde7f	-0.027083633
81	0x3d591a93	0.05300386
82	0xbc49b297	-0.012310646
83	0xbc016be0	-0.007899255
84	0xbd07bb13	-0.033137392
85	0xbbb8e1e0	-0.005642161
86	0xbdbf0963	-0.09327962
87	0xbc9b1491	-0.018930705
88	0xbdb383bf	-0.08765363
89	0xbbc61601	-0.0060451035
90	0xbd12c3ff	-0.035831448
91	0x3dc84455	0.09778658
92	0x3e34c5c6	0.1765357
93	0x3da7426f	0.08166968
94	0x3e72bc9a	0.23704758
95	0x3db592c6	0.088658854
96	0x3e1eaebf	0.15496348
97	0x3d69d31c	0.057086095
98	0x3e865eab	0.262441
99	0x3ce14467	0.027498437
100	0xbd36f597	-0.044667806
101	0xbd25a9b9	-0.040445063
102	0xbe2ed7dd	-0.17074533
103	0xbd24782b	-0.040153664
104	0xbd18a80a	-0.03726963
105	0xbd49d47a	-0.0492749
106	0x3d69aaaa	0.057047524
107	0xbcf9b87c	-0.030483477
108	0xbc5c315a	-0.013439501
109	0xbd8b0dd1	-0.06789745
110	0xbd8b5964	-0.06804159
111	0xbcd0fe94	-0.025512017
112	0xbc85bde2	-0.016325895
113	0xbdf21066	-0.11819534
114	0xbd19eae9	-0.037577543
115	0x3d314468	0.043278128
116	0xbbc3ecda	-0.0059791626
117	0x38918d41	6.9404494e-05
118	0x3dddcfa5	0.10830621
119	0xbe39d7e9	-0.1814877
120	0x3d8d3c43	0.0689626
121	0x3d8cee42	0.068813816
122	0x3c355544	0.011067692
123	0x3c190a85	0.009340887
124	0x3d4e9a2d	0.050440002
125	0x3e00d4a4	0.12581116
126	0x3e1586ea	0.14602247
127	0xbd564c87	-0.052319076
128	0x3dd205a3	0.10254981
129	0x3c935aaf	0.017987577
130	0x3da5a5cd	0.080882646
131	0x3c94be24	0.018157072
132	0xbd9bc252	-0.07605423
133	0xbd971efd	-0.073789574
134	0xbddb1122	-0.10696627
135	0xbd1feb64	-0.039042845
136	0x3d84ab44	0.06477979
137	0xbdfce654	-0.12348619
138	0xbdf6c95a	-0.120501235
139	0xbdcd8d67	-0.10036736
140	0xbe2d6ce6	-0.16936073
141	0xbe1a0bc2	-0.15043548
142	0xbc008cdc	-0.0078460835
143	0xbc9264e3	-0.017870372
144	0x3d43bc47	0.047786977
145	0x3e0b7091	0.1361716
146	0xbdbc167d	-0.09183977
147	0x3d96d79f	0.07365345
148	0x3c45e2fe	0.012078045
149	0x3e155278	0.1458224
150	0x3d9700d5	0.073732056
151	0x3c1bb4d7	0.009503565
152	0x3dd8b17a	0.10580726
153	0x3d3f4c93	0.046703886
154	0xbdc89532	-0.09794082
155	0xbdaf02c5	-0.0854545
156	0xb9a8faff	-0.00032230464
157	0x3daecf5d	0.08535645
158	0x3e01989e	0.12655875
159	0x3d624b6a	0.0552477
160	0xbe01e1ce	-0.12683794
161	0xbdf7e3e3	-0.12104013
162	0xbce805f5	-0.028323153
163	0xbb52f735	-0.0032190804
164	0x3d150508	0.03638175
165	0xbe124845	-0.14285381
166	0xbe0168cf	-0.12637638
167	0xbcc0b00c	-0.023521446
168	0x3e59c218	0.21265447
169	0xbdb7a909	-0.08967788
170	0xbc42703c	-0.011867579
171	0x3c33acf3	0.010966527
172	0x3dd46627	0.103710465
173	0x3a32b753	0.00068174786
174	0x3d4af534	0.04955025
175	0xbce66b3d	-0.028127307
176	0x3d341a19	0.0439702
177	0xbd860212	-0.06543364
178	0xbe61f4e9	-0.22066082
179	0xbcf61b3d	-0.030042285
180	0xbd89bc33	-0.06725349
181	0x3c9d26d8	0.019183561
182	0xbe0482e9	-0.12940563
183	0xbc773bd6	-0.01508995
184	0x3bfb46de	0.00766836
185	0x3cea7402	0.02861977
186	0xbd2e928a	-0.04262022
187	0xbe3da6ef	-0.18520711
188	0xbbb2da06	-0.0054581193
189	0xbdfdbafb	-0.12389179
190	0x3d32e378	0.043673962
191	0xbda9e5a2	-0.08295752
192	0xbe1a672f	-0.15078424
193	0xbccd7d01	-0.02508402
194	0xbe00770e	-0.12545416
195	0x3d0ba180	0.034089565
196	0x3d5c4749	0.05377892
197	0x3d67e1d3	0.056611847
198	0xbdefb6fb	-0.11704823
199	0x3d914a78	0.07094282
200	0x3cd6bc7e	0.026212927
201	0xbde4de59	-0.11175222
202	0x3d617888	0.05504659
203	0x3d3d5ec9	0.046232972
204	0x3c807c7a	0.015684355
205	0xbd08a8fd	-0.033364285
206	0x3e2105b4	0.15724832
207	0x3e15dfa5	0.14636095
208	0x3dba8f2b	0.091093384
209	0x3d436e97	0.04771289
210	0xbc86fd06	-0.016478073
211	0x3cc48c99	0.023992823
212	0x3d3820fa	0.044953324
213	0x3d8c26d9	0.06843347
214	0x3d9c5ebd	0.076352574
215	0xbcb14cf9	-0.021643149
216	0xbdb2782d	-0.08714328
217	0x3cf0e5e5	0.029406497
218	0x3df9bee1	0.121946104
219	0x3da4a02d	0.080383636
220	0xbceee50b	-0.02916195
221	0xbd7b2c6b	-0.061321657
222	0x3d678afa	0.056529023
223	0x3e2daef4	0.1696127
224	0x3caa4e1d	0.0207892
225	0xbe63bdf3	-0.22240429
226	0x3dd03c2e	0.10167728
227	0xbd49802c	-0.0491945
228	0xbda9ecd7	-0.08297127
229	0x3da1a149	0.07892091
230	0xbd11fa48	-0.035639077
231	0x3d8c9ae8	0.068654835
232	0xbdc7ba46	-0.09752326
233	0x3da59224	0.08084515
234	0xbe111cbc	-0.14171118
235	0x3e26b05a	0.1627821
236	0x3d2811a6	0.041032456
237	0x3c2c2757	0.010507426
238	0x3a8f29ea	0.0010922526
239	0x3d641d61	0.05569208
240	0xbd69f2cf	-0.057116326
241	0x3d8cf561	0.0688274
242	0x3cc3e9dd	0.023915226
243	0x3d9b1f2a	0.075743034
244	0x3c96c687	0.018405212
245	0x3d8e7253	0.06955399
246	0xbd9dfc82	-0.07714178
247	0xbb8e7984	-0.004347982
248	0x3daae8e9	0.08345205
249	0xbddff27a	-0.109349206
250	0xbd5f1bfb	-0.054470044
251	0x3e2ef86e	0.17086956
252	0x3e2c3771	0.16818024
253	0xbe7b8950	-0.245641
254	0xbe16a69a	-0.14711991
255	0x3e35e9c9	0.17764963

network_body._body_endoder.seq_layers.0.bias f4 [128]
0	0x00000000	0.0
1	0x00000000	0.0
2	0x00000000	0.0
3	0x00000000	0.0
4	0x00000000	0.0
5	0x00000000	0.0
6	0x00000000	0.0
7	0x00000000	0.0
8	0x00000000	0.0
9	0x00000000	0.0
10	0x00000000	0.0
11	0x00000000	0.0
12	0x00000000	0.0
13	0x00000000	0.0
14	0x00000000	0.0
15	0x00000000	0.0
16	0x00000000	0.0
17	0x00000000	0.0
18	0x00000000	0.0
19	0x00000000	0.0
20	0x00000000	0.0
21	0x00000000	0.0
22	0x00000000	0.0
23	0x00000000	0.0
24	0x00000000	0.0
25	0x00000000	0.0
26	0x00000000	0.0
27	0x00000000	0.0
28	0x00000000	0.0
29	0x00000000	0.0
30	0x00000000	0.0
31	0x00000000	0.0
32	0x00000000	0.0
33	0x00000000	0.0
34	0x00000000	0.0
35	0x00000000	0.0
36	0x00000000	0.0
37	0x00000000	0.0
38	0x00000000	0.0
39	0x00000000	0.0
40	0x00000000	0.0
41	0x00000000	0.0
42	0x00000000	0.0
43	0x00000000	0.0
44	0x00000000	0.0
45	0x00000000	0.0
46	0x00000000	0.0
47	0x00000000	0.0
48	0x00000000	0.0
49	0x00000000	0.0
50	0x00000000	0.0
51	0x00000000	0.0
52	0x00000000	0.0
53	0x00000000	0.0
54	0x00000000	0.0
55	0x00000000	0.0
56	0x00000000	0.0
57	0x00000000	0.0
58	0x00000000	0.0
59	0x00000000	0.0
60	0x00000000	0.0
61	0x00000000	0.0
62	0x00000000	0.0
63	0x00000000	0.0
64	0x00000000	0.0
65	0x00000000	0.0
66	0x00000000	0.0
67	0x00000000	0.0
68	0x00000000	0.0
69	0x00000000	0.0
70	0x00000000	0.0
71	0x00000000	0.0
72	0x00000000	0.0
73	0x00000000	0.0
74	0x00000000	0.0
75	0x00000000	0.0
76	0x00000000	0.0
77	0x00000000	0.0
78	0x00000000	0.0
79	0x00000000	0.0
80	0x00000000	0.0
81	0x00000000	0.0
82	0x00000000	0.0
83	0x00000000	0.0
84	0x00000000	0.0
85	0x00000000	0.0
86	0x00000000	0.0
87	0x00000000	0.0
88	0x00000000	0.0
89	0x00000000	0.0
90	0x00000000	0.0
91	0x00000000	0.0
92	0x00000000	0.0
93	0x00000000	0.0
94	0x00000000	0.0
95	0x00000000	0.0
96	0x00000000	0.0
97	0x00000000	0.0
98	0x00000000	0.0
99	0x00000000	0.0
100	0x00000000	0.0
101	0x00000000	0.0
102	0x00000000	0.0
103	0x00000000	0.0
104	0x00000000	0.0
105	0x00000000	0.0
106	0x00000000	0.0
107	0x00000000	0.0
108	0x00000000	0.0
109	0x00000000	0.0
110	0x00000000	0.0
111	0x00000000	0.0
112	0x00000000	0.0
113	0x00000000	0.0
114	0x00000000	0.0
115	0x00000000	0.0
116	0x00000000	0.0
117	0x00000000	0.0
118	0x00000000	0.0
119	0x00000000	0.0
120	0x00000000	0.0
121	0x00000000	0.0
122	0x00000000	0.0
123	0x00000000	0.0
124	0x00000000	0.0
125	0x00000000	0.0
126	0x00000000	0.0
127	0x00000000	0.0

network_body._body_endoder.seq_layers.2.weight f4 [128, 128]
0	0x3d885af8	0.06657976
1	0x3e172b8d	0.14762707
2	0x3d25d06f	0.04048198
3	0x3d9fcabe	0.07802342
4	0x3aff330e	0.0019470172
5	0x3e07bb8b	0.13255136
6	0xbc50f3d5	-0.012753447
7	0xbe743fb0	-0.2385242
8	0xbd1ad573	-0.037801217
9	0xbc298b0f	-0.010348096
10	0x3e9069dc	0.28205764
11	0xbe7bf7e7	-0.24606286
12	0xbd062265	-0.032747645
13	0xbd64b5bf	-0.05583739
14	0x3e03428d	0.12818356
15	0xbdb94e2d	-0.09048114
16	0x3bbb209b	0.005710674
17	0xbcec3ee7	-0.028838588
18	0xbdd0c73c	-0.10194251
19	0xbcf7c264	-0.03024406
20	0x3db7cb14	0.08974281
21	0x3d51d132	0.051224895
22	0x3de7b7b8	0.113143384
23	0x3e0dc584	0.13844877
24	0xbbafc02d	-0.0053634853
25	0xbdfa4496	-0.12220113
26	0x3cec5311	0.028848203
27	0xbda75b49	-0.08171708
28	0x3e692598	0.22768247
29	0x3db4831e	0.08814071
30	0xbcca8081	-0.024719479
31	0x3d9768f2	0.073930636
32	0xbe5049ba	-0.20340624
33	0x3c787588	0.01516474
34	0x3d041509	0.032246623
35	0x3d271fa1	0.040801648
36	0xbcc12b94	-0.02358035
37	0xbde109b2	-0.10988177
38	0xbda80288	-0.08203608
39	0x3cd3eb99	0.025869178
40	0x3da10e75	0.078640856
41	0xbe1158f8	-0.14194095
42	0x3d98b03c	0.07455489
43	0x3dc21996	0.094775364
44	0xbdb4c8b7	-0.08827346
45	0xbda8f9b0	-0.08250749
46	0x3c3ead86	0.011638051
47	0xbd57057a	-0.052495457
48	0xbb9753bf	-0.0046181376
49	0xbd2a0d71	-0.041516725
50	0x3df77e63	0.12084653
51	0x3db7595f	0.08952593
52	0xbe0b6a42	-0.13614753
53	0xbcb944e2	-0.022615854
54	0x3e015371	0.12629487
55	0xbcd6aecf	-0.026206402
56	0xbb736e3a	-0.0037144558
57	0xbda96ce5	-0.08272723
58	0xbdeae10d	-0.11468706
59	0xbd9742e5	-0.07385806
60	0xbd39636d	-0.045260835
61	0xbdadfbcf	-0.08495294
62	0x3c8ee37d	0.01744246
63	0xbb377650	-0.0027994104
64	0x3de1b0a5	0.110200204
65	0x3dd09157	0.101839714
66	0xbcaa14f5	-0.020761946
67	0x3d90440c	0.07044229
68	0xbe3c8e6f	-0.18413709
69	0xbd706452	-0.058689423
70	0xbd917eb2	-0.07104243
71	0x3d1016e7	0.03517809
72	0x3ca9af76	0.02071355
73	0x3d282c86	0.041058086
74	0xbde29a3a	-0.11064573
75	0x3c60bcf9	0.01371693
76	0xbe272a1f	-0.16324662
77	0xbd649411	-0.05580527
78	0x3cf13149	0.029442446
79	0x3e0e7eb5	0.13915522
80	0x3df192f6	0.11795609
81	0xbe294c27	-0.16532956
82	0xbcd20785	-0.025638351
83	0xbdb9e641	-0.090771206
84	0xbd7fe6db	-0.06247602
85	0xbe19d656	-0.15023169
86	0x3e13faaa	0.1445109
87	0x3daaaca8	0.08333713
88	0x3dc1952b	0.0945228
89	0x3b9ba10b	0.0047494224
90	0xbdb5f57d	-0.08884714
91	0x3d35f644	0.04442431
92	0x3cb1ce32	0.021704767
93	0x3df0f9e4	0.11766413
94	0x3d6b8d71	0.057507936
95	0xbb9f2807	-0.0048570666
96	0x3e307e07	0.17235576
97	0x3d927d7f	0.07152843
98	0xbe0056ce	-0.12533113
99	0xbba38ebe	-0.0049913814
100	0xbe06727d	-0.13129611
101	0x3e3cd140	0.18439198
102	0xbd190a66	-0.037363432
103	0x3d410957	0.047128048
104	0x3ba6a43e	0.005085497
105	0xbd074d4a	-0.033032693
106	0xbe3ca9d0	-0.18424153
107	0xbdfbd0e8	-0.12295705
108	0xbe1bdd73	-0.15221195
109	0x3cfaa640	0.030596852
110	0x3c75e54f	0.015008285
111	0xbcfe025e	-0.031006988
112	0xbc699b1c	-0.014258172
113	0xbd103b1b	-0.035212617
114	0xbdaf56c9	-0.08561475
115	0xbe067c6c	-0.131334
116	0x3e19cf6c	0.15020531
117	0x3dba98ae	0.091111526
118	0x3db6ce30	0.08926046
119	0x3da4823c	0.08032653
120	0x3c7b6dcb	0.015346001
121	0x3d469c57	0.04848894
122	0x3d916f0a	0.07101257
123	0xbe2d96af	-0.16952012
124	0xbc90efd0	-0.017692477
125	0xbe296c2e	-0.16545174
126	0xbe256aff	-0.16154097
127	0xbd279d06	-0.040921234
128	0xbde680f6	-0.11255066
129	0x3cb022ea	0.021501023
130	0x3cd5f023	0.026115483
131	0x3e1c95fc	0.1529159
132	0xbdada738	-0.0847916
133	0x3da76916	0.081743404
134	0xbdd0f408	-0.10202795
135	0xbd9e4708	-0.07728392
136	0x3cb639b9	0.022244321
137	0xbdb67524	-0.089090616
138	0x3bdf5ed2	0.0068167234
139	0x3d350d8c	0.044202372
140	0x3cdc0856	0.026859444
141	0x3e11fe71	0.14257218
142	0x3d04b54e	0.032399468
143	0x3d4898ef	0.048973974
144	0xbdecd781	-0.115645416
145	0xbd2672cb	-0.04063682
146	0x3bbea884	0.0058184285
147	0xbd12f53f	-0.035878416
148	0xbe41b99b	-0.18918459
149	0x3e177736	0.14791569
150	0xbd91cea1	-0.071194895
151	0xb8fb2dc0	-0.00011977134
152	0x3cb3987f	0.021923302
153	0x3c568a41	0.013094486
154	0xbd64151b	-0.05568419
155	0xbe68c438	-0.22731102
156	0x3cb7e091	0.022445949
157	0xbccecd36	-0.025244337
158	0xbbd84f51	-0.006601252
159	0xbc808e71	-0.015692921
160	0x3e1df80a	0.1542665
161	0x3bbb9765	0.0057248347
162	0x3cf921e5	0.03041167
163	0xbdb46be4	-0.08809641
164	0xbd96005f	-0.073242895
165	0xbbdd358a	-0.006750767
166	0xbe132fed	-0.14373751
167	0xbd14949d	-0.03627454
168	0xbcd29081	-0.02570367
169	0xba9f5277	-0.0012155314
170	0xbcba9ea3	-0.022780722
171	0xbe673496	-0.22578654
172	0xbc16d744	-0.009206597
173	0xbdda7ae4	-0.10667971
174	0x3a99a7a2	0.0011722932
175	0x3e804f7f	0.2506065
176	0xbe21cd53	-0.15800981
177	0xbdbc9787	-0.09208589
178	0xbda283f5	-0.07935325
179	0x3d594005	0.05303957
180	0x3e23495b	0.15945952
181	0xbe2e860d	-0.17043324
182	0xbcb30d4c	-0.021856926
183	0xbddb5588	-0.10709673
184	0x3c134e4c	0.008990835
185	0x3e234789	0.15945257
186	0xbde668a6	-0.11250429
187	0x3e08faeb	0.13376968
188	0xbd57e8b4	-0.052712157
189	0x3c5da400	0.01352787
190	0x3bea502f	0.007150672
191	0xbdd7f54b	-0.10544833
192	0xbc6edfbb	-0.014579709
193	0xbc9c48e2	-0.019077722
194	0xbe567a44	-0.20945078
195	0xbcfcb1eb	-0.030846557
196	0x3de50f55	0.11184565
197	0x3e537315	0.20649369
198	0xbd695f27	-0.05697551
199	0x3dc1e4e9	0.09467489
200	0x3df25bc6	0.11833911
201	0xbc9b7659	-0.018977331
202	0xbdbda7b7	-0.09260505
203	0x3cbe6cb1	0.023245187
204	0x3da40f57	0.08010738
205	0xbc12f041	-0.008968414
206	0xbd522635	-0.05130597
207	0x3d8ff860	0.07029796
208	0x3decee39	0.11568875
209	0x3c243ce4	0.010024283
210	0x3c61f45f	0.013791173
211	0xbd87a4ba	-0.06623216
212	0x3ce0ee2a	0.027457315
213	0xbd371087	-0.044693496
214	0x3e08561a	0.13314095
215	0x3d88c2b4	0.06677762
216	0x3cc3d205	0.023903856
217	0xbd2ab916	-0.041680418
218	0xbe0200f6	-0.12695679
219	0xbda87ce3	-0.08226945
220	0x3da4319e	0.08017276
221	0xbca0966e	-0.01960298
222	0x3d0b09cf	0.0339449
223	0x3db99092	0.09060778
224	0x3d82c17b	0.0638456
225	0xbe167ebf	-0.14696787
226	0x3df55d66	0.11980705
227	0x3d398636	0.04529401
228	0xbc8a4d2e	-0.016882505
229	0x3d140de3	0.036146056
230	0xbc7d9735	-0.015477945
231	0x3d2d78ea	0.04235164
232	0x3da0f8d4	0.0785996
233	0x3e1d4df8	0.15361774
234	0xbdb98f31	-0.09060515
235	0xbb9ccc24	-0.0047850776
236	0xbdfa3c2b	-0.122185074
237	0x3d599edc	0.053130016
238	0x3d893750	0.06700003
239	0x3d094288	0.033510715
240	0xbc132ae0	-0.00898239
241	0x3c23e0cf	0.010002329
242	0x3d942a8c	0.07234678
243	0x3b010e6a	0.001969243
244	0xbc42f846	-0.011900013
245	0xbd405956	-0.046960197
246	0xbd141b6d	-0.036158968
247	0xbcc1da13	-0.023663556
248	0xbc745fb9	-0.0149154
249	0xbd1810c8	-0.03712538
250	0x3e3141ae	0.17310211
251	0x3cdca463	0.026933854
252	0xbd4f86fb	-0.050665837
253	0x3df72cc2	0.12069084
254	0x3d889c1f	0.06670403
255	0x3d8e61be	0.069522366

network_body._body_endoder.seq_layers.2.bias f4 [128]
0	0x00000000	0.0
1	0x00000000	0.0
2	0x00000000	0.0
3	0x00000000	0.0
4	0x00000000	0.0
5	0x00000000	0.0
6	0x00000000	0.0
7	0x00000000	0.0
8	0x00000000	0.0
9	0x00000000	0.0
10	0x00000000	0.0
11	0x00000000	0.0
12	0x00000000	0.0
13	0x00000000	0.0
14	0x00000000	0.0
15	0x00000000	0.0
16	0x00000000	0.0
17	0x00000000	0.0
18	0x00000000	0.0
19	0x00000000	0.0
20	0x00000000	0.0
21	0x00000000	0.0
22	0x00000000	0.0
23	0x00000000	0.0
24	0x00000000	0.0
25	0x00000000	0.0
26	0x00000000	0.0
27	0x00000000	0.0
28	0x00000000	0.0
29	0x00000000	0.0
30	0x00000000	0.0
31	0x00000000	0.0
32	0x00000000	0.0
33	0x00000000	0.0
34	0x00000000	0.0
35	0x00000000	0.0
36	0x00000000	0.0
37	0x00000000	0.0
38	0x00000000	0.0
39	0x00000000	0.0
40	0x00000000	0.0
41	0x00000000	0.0
42	0x00000000	0.0
43	0x00000000	0.0
44	0x00000000	0.0
45	0x00000000	0.0
46	0x00000000	0.0
47	0x00000000	0.0
48	0x00000000	0.0
49	0x00000000	0.0
50	0x00000000	0.0
51	0x00000000	0.0
52	0x00000000	0.0
53	0x00000000	0.0
54	0x00000000	0.0
55	0x00000000	0.0
56	0x00000000	0.0
57	0x00000000	0.0
58	0x00000000	0.0
59	0x00000000	0.0
60	0x00000000	0.0
61	0x00000000	0.0
62	0x00000000	0.0
63	0x00000000	0.0
64	0x00000000	0.0
65	0x00000000	0.0
66	0x00000000	0.0
67	0x00000000	0.0
68	0x00000000	0.0
69	0x00000000	0.0
70	0x00000000	0.0
71	0x00000000	0.0
72	0x00000000	0.0
73	0x00000000	0.0
74	0x00000000	0.0
75	0x00000000	0.0
76	0x00000000	0.0
77	0x00000000	0.0
78	0x00000000	0.0
79	0x00000000	0.0
80	0x00000000	0.0
81	0x00000000	0.0
82	0x00000000	0.0
83	0x00000000	0.0
84	0x00000000	0.0
85	0x00000000	0.0
86	0x00000000	0.0
87	0x00000000	0.0
88	0x00000000	0.0
89	0x00000000	0.0
90	0x00000000	0.0
91	0x00000000	0.0
92	0x00000000	0.0
93	0x00000000	0.0
94	0x00000000	0.0
95	0x00000000	0.0
96	0x00000000	0.0
97	0x00000000	0.0
98	0x00000000	0.0
99	0x00000000	0.0
100	0x00000000	0.0
101	0x00000000	0.0
102	0x00000000	0.0
103	0x00000000	0.0
104	0x00000000	0.0
105	0x00000000	0.0
106	0x00000000	0.0
107	0x00000000	0.0
108	0x00000000	0.0
109	0x00000000	0.0
110	0x00000000	0.0
111	0x00000000	0.0
112	0x00000000	0.0
113	0x00000000	0.0
114	0x00000000	0.0
115	0x00000000	0.0
116	0x00000000	0.0
117	0x00000000	0.0
118	0x00000000	0.0
119	0x00000000	0.0
120	0x00000000	0.0
121	0x00000000	0.0
122	0x00000000	0.0
123	0x00000000	0.0
124	0x00000000	0.0
125	0x00000000	0.0
126	0x00000000	0.0
127	0x00000000	0.0

value_heads.value_heads.extrinsic.weight f4 [1, 128]
0	0xbdf7a77f	-0.12092494
1	0x3e350277	0.17676722
2	0xbcc50186	-0.024048578
3	0xbe50a71c	-0.20376247
4	0x3e541f47	0.20715056
5	0xbe4b4155	-0.19849141
6	0x3e182134	0.14856416
7	0xbc0ddbde	-0.008658377
8	0xbdd74d0d	-0.10512743
9	0x3d6044c9	0.0547531
10	0xbe5be2f5	-0.21473296
11	0xbd630e20	-0.055433393
12	0xbe56533c	-0.20930189
13	0xbe597db2	-0.21239355
14	0x3e4b3d48	0.19847596
15	0x3e152554	0.14565021
16	0xbe199e06	-0.15001687
17	0xbd779955	-0.060448963
18	0xbcfef04e	-0.031120446
19	0x3d0768d7	0.033058967
20	0x3e3f99a3	0.18710952
21	0x3d705ad6	0.058680378
22	0xbe5abc70	-0.21360946
23	0xbdb69e90	-0.08916962
24	0x3dcc78a1	0.09983946
25	0x3e21f28e	0.15815184
26	0xbba81dc9	-0.005130504
27	0xbca37864	-0.019954868
28	0x3e2b4043	0.16723733
29	0xbdc601e5	-0.0966833
30	0xbe315cd3	-0.17320566
31	0xbe4e1c68	-0.20128024
32	0xbd8a7a59	-0.06761617
33	0x3ddfa60e	0.10920344
34	0xbdfb51c5	-0.12271456
35	0xbe4400ac	-0.19140881
36	0x3dbe082d	0.09278903
37	0x3d916ce7	0.071008496
38	0x3d84d42a	0.064857796
39	0xbdfead74	-0.12435427
40	0xbbcd8e12	-0.0062730396
41	0x3d18855c	0.037236556
42	0x3d013813	0.031547617
43	0x3e4d4644	0.20046335
44	0x3d09225d	0.033480037
45	0x3dfe2961	0.12410236
46	0x3e0e8a67	0.13919984
47	0xbdea17d2	-0.114303246
48	0xbe43eead	-0.19134016
49	0x3de1c13b	0.11023184
50	0x3e59aa62	0.21256402
51	0x3dff163f	0.12455415
52	0x3e2dc82f	0.16970895
53	0xbe2329f8	-0.15933979
54	0xbe570091	-0.2099631
55	0x3de51af2	0.1118678
56	0x3d4af6a1	0.04955161
57	0x3dcc1352	0.099646226
58	0xbd680252	-0.056642838
59	0x3e481f8c	0.19543284
60	0x3e4368b0	0.19082904
61	0xbe446186	-0.19177827
62	0xbd626ca9	-0.055279408
63	0xbe380944	-0.17972285
64	0xbcfde6e7	-0.030993892
65	0x3e59765d	0.21236558
66	0xbdea7b95	-0.11449353
67	0xbe5c93f1	-0.2154081
68	0xbd88df9d	-0.06683276
69	0x3dff059a	0.1245224
70	0xbdba1cc1	-0.090875156
71	0x3da2c75b	0.0794818
72	0xbdc0402c	-0.0938724
73	0x3e0392f3	0.12849025
74	0xbca52d99	-0.020163344
75	0xbd9c2398	-0.076239765
76	0x3c407fcb	0.011749218
77	0xbe135f41	-0.14391805
78	0xbd582048	-0.05276516
79	0x3c326aba	0.010889703
80	0xbdca5eee	-0.09881388
81	0x3e3c478f	0.18386672
82	0x3e01db20	0.12681246
83	0xbc379645	-0.011205261
84	0x3e20a2fc	0.15687174
85	0x3e495db3	0.1966465
86	0xbc04c04f	-0.008102491
87	0x3c9f251c	0.019426875
88	0xbb3ce678	-0.0028823894
89	0xbe3db141	-0.18524648
90	0xbe304775	-0.17214759
91	0xbe049c1f	-0.1295018
92	0x3d9f80c1	0.0778823
93	0x3c2fa03a	0.010719353
94	0xbe0018ad	-0.12509413
95	0xbd71f570	-0.059071958
96	0x3e24fdab	0.16112392
97	0x3e366b20	0.17814302
98	0xbe132825	-0.14370783
99	0xbe366287	-0.17811023
100	0x3dcd2b2d	0.10018001
101	0xbc18573c	-0.009298142
102	0x3d4d0045	0.050049085
103	0x3c869241	0.016427161
104	0x3d33d7fc	0.04390715
105	0xbcdb79ba	-0.026791442
106	0x3d38d9fb	0.045129757
107	0xbe4744b2	-0.19459799
108	0x3e357a5b	0.17722456
109	0x3e426dae	0.18987152
110	0x3b3aee07	0.0028523223
111	0xbb08ef93	-0.002089475
112	0xbe5b5a87	-0.21421252
113	0xbe5a6887	-0.21328937
114	0x3e2d6e58	0.16936624
115	0xbcec1066	-0.028816413
116	0x3e55c052	0.20874146
117	0xbd5bc2d7	-0.05365261
118	0x3d82a6cd	0.06379471
119	0x3db7138c	0.08939275
120	0xbd9a3950	-0.07530463
121	0xbdb4cc75	-0.088280596
122	0x3e07d7bd	0.13265891
123	0xbe37cd3a	-0.17949381
124	0x3d01d690	0.031698763
125	0xbde326e9	-0.11091406
126	0x3dac2191	0.0840484
127	0x3e3da071	0.18518235
