results/ppo/MlAgent/MlAgent-9480.pt (torch, 187551 bytes, 14 tensors)

network_body._body_endoder.seq_layers.0.weight f4 [128, 40]
-0.23991245 -0.20564313 0.20114292 -0.11941001 -0.013260123 -0.09012151 -0.07397553 -0.11224976
-0.119896136 -0.037775025 0.091732405 0.0030820363 -0.20167956 -0.12936774 -0.0494407 -0.15542586
-0.053836774 0.07307404 -0.14903441 -0.14211099 -0.18746811 0.079504125 -0.05329901 -0.13138427
0.021538174 -0.051009133 0.085384205 0.08786211 0.058845874 -0.0948966 -0.143466 0.28098807
-0.050607387 -0.1485702 -0.0036802224 -0.12835936 -0.05452221 -0.050134033 0.3074524 0.21859744
-0.21727559 0.21432917 -0.38547882 0.08619251 -0.10839787 -0.39893395 0.11049523 0.022982135
0.16119134 0.06699592 -0.01915638 0.07367549 -2.2887987e-05 0.15030344 -0.01713818 -0.12911211
0.07228581 -0.08555379 -0.09016191 -0.10095411 -0.23559347 0.29469052 0.12997033 0.074037135
-0.18596393 -0.098686226 -0.09100686 -0.043979917 -0.0061178515 -0.085341655 -0.056059208 0.006914113
-0.06198288 0.008797095 -0.0029838094 0.27510968 -0.08999991 0.026759678 0.030455736 0.035305526
0.083131075 -0.34459504 -0.12314474 0.08619381 0.3605414 -0.2084054 -0.05145056 0.016657377
0.11662177 0.12578994 -0.076719254 0.06452535 -0.25250036 0.012854467 0.048517577 -0.095393516
0.03945445 0.18479252 -0.025346393 0.04516458 0.059089594 -0.22697122 0.21210542 -0.29453677
-0.16966608 -0.04697295 0.0602961 -0.011296639 0.02019686 0.15546666 -0.061846785 -0.13781574
-0.09915249 -0.21515617 -0.1371512 -0.12607591 0.21293722 -0.20635173 -0.0018459746 0.08724157
-0.05103883 0.20839286 0.16247033 -0.113897875 0.01643279 -0.0097808065 0.03003413 0.0092953695
-0.264979 0.3282383 0.1045211 0.16202639 0.28987643 -0.14656536 -0.12517907 0.023951633
-0.15785958 0.26830667 0.07742778 -0.26082212 -0.039451204 -0.03639694 0.46882358 0.02107364
-0.14524324 -0.07592421 0.07030077 -0.0456742 -0.2854983 -0.112423904 0.1900927 0.17864625
0.106479324 -0.061766457 -0.0031603843 -0.038334645 -0.055552337 -0.12098562 0.072290346 0.042759717
0.16517282 0.059280418 0.22717433 -0.27409622 -0.29290727 0.10502263 0.069864064 -0.028379142
-0.014872563 -0.19236214 0.17756703 0.015130105 -9.0010006e-05 0.04342145 -0.14506164 0.1813558
-0.207928 0.19320154 0.013067261 -0.061360713 -0.04304218 -0.34994236 -0.06869582 -0.116313525
-0.09671705 0.03226996 0.10201741 -0.119487695 -0.065936826 0.05816881 -0.064777486 -0.34396836
-0.25930604 -0.035666514 -0.10650275 0.110683955 0.23366441 -0.11535948 -0.10835293 0.0020687783
-0.008290226 -0.016219074 -0.14953674 -0.025333978 0.06504182 -0.06795015 0.1485292 -0.10672334
0.08797798 -0.28158277 -0.13845724 -0.16194238 -0.087569594 0.1341434 -0.008060192 0.08376946
0.02298938 0.2737509 -0.21766715 0.17047109 0.16084075 0.042956404 0.12061604 0.3263483
0.010076759 0.099104725 0.09886466 -0.34284705 -0.030595053 -0.10224104 0.11015856 -0.240517
0.06345014 0.06070108 -0.16568659 -0.17520495 -0.011023421 -0.26718247 0.22690032 -0.10502652
0.08502614 0.03133475 -0.2458252 -0.078982815 -0.12540616 0.29369983 -0.098102786 -0.11839303
-0.14912094 0.3804593 -0.20949288 -0.44118598 0.16513455 0.021688284 -0.051412493 0.011287703
00000000: 9cab 75be 1d94 52be 69f8 4d3e 3c8d f4bd
00000010: fd40 59bc a091 b8bd 7c80 97bd 34e3 e5bd
00000020: 1b8c f5bd fcb9 1abd 33de bb3d fdfb 493b
00000030: 1685 4ebe fa78 04be 5582 4abd f527 1fbe
00000040: f383 5cbd d8a7 953d 7a9c 18be 8b85 11be
00000050: a4f7 3fbe 0fd3 a23d 1050 5abd 9989 06be
00000060: d370 b03c f4ee 50bd eadd ae3d 0df1 b33d
00000070: 5f08 713d 2659 c2bd c0e8 12be abdd 8f3e
00000080: b149 4fbd c922 18be e32f 71bb a370 03be
00000090: ae52 5fbd 5859 4dbd 676a 9d3e 02d8 5f3e
000000a0: 7e7d 5ebe 1b79 5b3e 7b5d c5be b385 b03d
000000b0: b4ff ddbd 1241 ccbe 534b e23d 0845 bc3c
000000c0: 580f 253e 2835 893d d7ed 9cbc 2de3 963d
000000d0: 94ff bfb7 25e9 193e 5e65 8cbc f735 04be
000000e0: 950a 943d d336 afbd cfa6 b8bd 07c1 cebd
000000f0: 6a3f 71be ade1 963e f116 053e c8a0 973d
00000100: 546d 3ebe 011c cabd ce61 babd 4924 34bd
00000110: 4278 c8bb 9bc7 aebd 579e 65bd c98f e23b
00000120: c3e1 7dbd b121 103c 048c 43bb 2ddb 8c3e
00000130: df51 b8bd 1d37 db3c 4f7e f93c 879c 103d
00000140: a040 aa3d c36e b0be 4f33 fcbd 6186 b03d
00000150: e298 b83e 3a68 55be d3bd 52bd 0d75 883c
00000160: 65d7 ee3d 14cf 003e fc1e 9dbd de25 843d
00000170: ba47 81be 8b9b 523c 5eba 463d ad5d c3bd
00000180: fd9a 213d 403a 3d3e 3da3 cfbc 7ffe 383d
00000190: ee07 723d 256b 68be 2a32 593e 86cd 96be
000001a0: f2bc 2dbe b566 40bd 0bf9 763d 8a15 39bc
000001b0: e373 a53c a732 1f3e 0e53 7dbd 921f 0dbe
000001c0: 7610 cbbd e651 5cbe 5d71 0cbe 0b1a 01be
000001d0: 370c 5a3e de4d 53be a1f4 f1ba b5ab b23d
000001e0: 180e 51bd f064 553e 9f5e 263e 4a43 e9bd
000001f0: 0f9e 863c ad3f 20bc 230a f63c 9b4b 183c
00000200: 54ab 87be da0e a83e 290f d63d 3fea 253e
00000210: af6a 943e 3b15 16be f12e 00be 3736 c43c
00000220: f1a5 21be 7e5f 893e 7592 9e3d 7a8a 85be
00000230: 9697 21bd f514 15bd a509 f03e a0a2 ac3c
00000240: a5ba 14be 277e 9bbd daf9 8f3d df14 3bbd
00000250: d52c 92be 813e e6bd a9a7 423e 0bef 363e
00000260: d511 da3d d3fe 7cbd 731e 4fbb ca04 1dbd
00000270: d98a 63bd 4fc7 f7bd f60c 943d d024 2f3d
00000280: 1023 293e 06d0 723d 63a0 683e 5756 8cbe
00000290: f1f7 95be 1b16 d73d e414 8f3d 607b e8bc
000002a0: 0dac 73bc 95fa 44be 22d4 353e 43e4 773c
000002b0: c1c3 bcb8 b1da 313d 0a8b 14be 56b5 393e
000002c0: 14eb 54be a0d6 453e 1118 563c 5f55 7bbd
000002d0: ff4c 30bd a52b b3be 65b0 8cbd c935 eebd
000002e0: 9713 c6bd 812d 043d 81ee d03d f7b5 f4bd
000002f0: e309 87bd 6b42 6e3d 0faa 84bd 9f1c b0be
00000300: c3c3 84be 0d17 12bd 1d1e dabd 45ae e23d
00000310: b945 6f3e 9741 ecbd 24e8 ddbd 5794 073b
00000320: bad3 07bc dddd 84bc 2920 19be 3489 cfbc
00000330: a534 853d 7329 8bbd 0a18 183e c491 dabd
00000340: cd2d b43d 9e2b 90be bcc7 0dbe 39d4 25be
00000350: b057 b3bd e35c 093e e50e 04bc 538f ab3d
00000360: 3954 bc3c 1429 8c3e 23e4 5ebe f98f 2e3e
00000370: 70b3 243e 0ef3 2f3d 8b05 f73d 2017 a73e
00000380: fe18 253c 6bf7 ca3d 8e79 ca3d a689 afbe
00000390: 7aa2 fabc c063 d1bd d09a e13d 174a 76be
000003a0: 26f2 813d b2a1 783d bfa9 29be ed68 33be
000003b0: 949b 34bc 24cc 88be 8f58 683e 2518 d7bd
000003c0: 2f22 ae3d de58 003d 9ab9 7bbe bec1 a1bd
000003d0: 796a 00be d35f 963e 1dea c8bd 0b78 f2bd
000003e0: 29b3 18be 90cb c23e 4d85 56be 21e3 e1be
000003f0: 0819 293e a1ab b13c e895 52bd 0ff0 383c

network_body._body_endoder.seq_layers.0.bias f4 [128]
0.0 0.0 0.0 0.0 0.0 0.0 0.0 0.0
0.0 0.0 0.0 0.0 0.0 0.0 0.0 0.0
0.0 0.0 0.0 0.0 0.0 0.0 0.0 0.0
0.0 0.0 0.0 0.0 0.0 0.0 0.0 0.0
0.0 0.0 0.0 0.0 0.0 0.0 0.0 0.0
0.0 0.0 0.0 0.0 0.0 0.0 0.0 0.0
0.0 0.0 0.0 0.0 0.0 0.0 0.0 0.0
0.0 0.0 0.0 0.0 0.0 0.0 0.0 0.0
0.0 0.0 0.0 0.0 0.0 0.0 0.0 0.0
0.0 0.0 0.0 0.0 0.0 0.0 0.0 0.0
0.0 0.0 0.0 0.0 0.0 0.0 0.0 0.0
0.0 0.0 0.0 0.0 0.0 0.0 0.0 0.0
0.0 0.0 0.0 0.0 0.0 0.0 0.0 0.0
0.0 0.0 0.0 0.0 0.0 0.0 0.0 0.0
0.0 0.0 0.0 0.0 0.0 0.0 0.0 0.0
0.0 0.0 0.0 0.0 0.0 0.0 0.0 0.0
00000000: 0000 0000 0000 0000 0000 0000 0000 0000
00000010: 0000 0000 0000 0000 0000 0000 0000 0000
00000020: 0000 0000 0000 0000 0000 0000 0000 0000
00000030: 0000 0000 0000 0000 0000 0000 0000 0000
00000040: 0000 0000 0000 0000 0000 0000 0000 0000
00000050: 0000 0000 0000 0000 0000 0000 0000 0000
00000060: 0000 0000 0000 0000 0000 0000 0000 0000
00000070: 0000 0000 0000 0000 0000 0000 0000 0000
00000080: 0000 0000 0000 0000 0000 0000 0000 0000
00000090: 0000 0000 0000 0000 0000 0000 0000 0000
000000a0: 0000 0000 0000 0000 0000 0000 0000 0000
000000b0: 0000 0000 0000 0000 0000 0000 0000 0000
000000c0: 0000 0000 0000 0000 0000 0000 0000 0000
000000d0: 0000 0000 0000 0000 0000 0000 0000 0000
000000e0: 0000 0000 0000 0000 0000 0000 0000 0000
000000f0: 0000 0000 0000 0000 0000 0000 0000 0000
00000100: 0000 0000 0000 0000 0000 0000 0000 0000
00000110: 0000 0000 0000 0000 0000 0000 0000 0000
00000120: 0000 0000 0000 0000 0000 0000 0000 0000
00000130: 0000 0000 0000 0000 0000 0000 0000 0000
00000140: 0000 0000 0000 0000 0000 0000 0000 0000
00000150: 0000 0000 0000 0000 0000 0000 0000 0000
00000160: 0000 0000 0000 0000 0000 0000 0000 0000
00000170: 0000 0000 0000 0000 0000 0000 0000 0000
00000180: 0000 0000 0000 0000 0000 0000 0000 0000
00000190: 0000 0000 0000 0000 0000 0000 0000 0000
000001a0: 0000 0000 0000 0000 0000 0000 0000 0000
000001b0: 0000 0000 0000 0000 0000 0000 0000 0000
000001c0: 0000 0000 0000 0000 0000 0000 0000 0000
000001d0: 0000 0000 0000 0000 0000 0000 0000 0000
000001e0: 0000 0000 0000 0000 0000 0000 0000 0000
000001f0: 0000 0000 0000 0000 0000 0000 0000 0000

network_body._body_endoder.seq_layers.2.weight f4 [128, 128]
-0.09346376 0.0012855517 -0.01231283 -0.08843683 0.046190917 0.08802118 -0.08646494 0.013019253
-0.13516483 -0.05717834 0.069645844 -0.06346716 0.05711856 -0.0025770473 0.0017247099 0.098858304
0.12024173 0.03420184 0.037763722 -0.17136012 -0.21737345 0.048925214 0.06138251 0.0015211266
-0.04616608 0.1258125 -0.12052737 -0.056165367 0.005128185 0.14577681 -0.06833275 0.047604714
0.11911078 0.05124161 0.25643447 0.06490094 -0.116593406 0.01718727 -0.10304339 0.074925035
-0.058213953 0.06587909 0.099270895 0.09891781 0.026810132 -0.014093588 0.08099219 0.10067423
0.1032128 0.023123752 0.083441205 -0.015149288 -0.048538417 0.13327298 -0.14086102 -0.013400793
-0.07568272 0.13844673 0.037728276 -0.06853469 0.045601666 -0.10026905 -0.13244607 -0.08155088
-0.052561045 -0.030685028 -0.026665505 -0.012311804 -0.08968446 0.003717933 -0.12264431 0.053430237
0.030547459 0.14165907 0.031086633 0.1242424 -0.044229683 -0.10937124 0.012146302 0.11193827
-0.059078038 -0.18518431 0.17521325 0.0046989718 -0.034103587 -0.02826354 -0.042026687 -0.15935192
-0.049069643 -0.01298655 0.08331121 -0.06119189 0.13480653 -0.010084199 0.07723803 0.10330473
-0.16263883 -0.012103384 0.07091978 -0.0304381 0.06392843 0.08506587 -0.10533556 0.0072637643
-0.09017187 0.0072964695 0.015817024 0.12514818 0.06877659 -0.007542398 0.16716973 -0.07075126
0.08769165 0.14186236 0.010285531 0.059893135 -0.07413456 -0.056734603 -0.027006216 -0.0177866
-0.0047457535 -0.06731807 0.06576926 0.019775098 -0.0015540776 0.0579329 -0.08624967 0.03969859
0.10139453 -0.02165646 -0.08852485 -0.11281919 0.076535195 0.08347878 0.09836916 0.053857308
-0.040376574 -0.1344575 -0.079858296 0.09481993 0.10840321 0.023007754 -0.033613123 -0.06273739
0.14989465 -0.0985947 0.035312653 -0.0015375554 0.002639194 -0.09029809 0.051926713 -0.05323255
0.05202606 0.0131531395 0.016454544 -0.07240054 -0.114389084 -0.19429977 -0.05245075 -0.03662045
8.9779205e-05 0.024432842 -0.12863685 -0.102640264 0.030652225 -0.03473197 -0.079206996 0.05761427
0.07514494 -0.087626554 -0.12351619 -0.052793574 0.15572268 0.0046835793 -0.0013827651 -0.08609102
-0.01132346 0.07200209 0.030302398 -0.022145063 -0.08387196 -0.022962604 -0.08707876 0.018814582
0.12181692 0.060536303 -0.002385515 -0.1338771 0.062182855 0.039541747 -0.02737332 -0.036860984
0.06342542 0.010329761 0.0009396046 0.20557235 -0.05175484 0.2651086 0.0007657604 -0.034492947
-0.05349427 0.17296621 -0.0026996403 0.14351608 0.17208996 0.17854151 0.006670645 -0.049156617
0.12224609 0.10505837 -0.19945833 -0.076283984 0.026177866 -0.0144526195 0.083466746 0.022547547
0.10972993 0.058648024 0.018831495 0.075871155 0.03203203 -0.113903575 -0.028950343 0.07204392
-0.041780084 0.1976875 0.020249512 -0.037037145 -0.0073411334 -0.0071901013 -0.05217585 -0.025394673
-0.026303219 0.08196689 -0.11532918 0.06890976 -0.17440984 0.08516222 0.11824391 -0.05880827
-0.07344189 -0.09149045 0.028446611 -0.13755614 0.10594661 -0.0111957835 0.091197915 -0.04126864
-0.15214328 -0.15031062 0.16638811 -0.0044034948 -0.02105798 0.01676557 0.014309029 0.005935345
00000000: ee69 bfbd f57f a83a c1bb 49bc 5e1e b5bd
00000010: b032 3d3d 7344 b43d 8814 b1bd b44e 553c
00000020: a668 0abe d633 6abd 7ba2 8e3d 12fb 81bd
00000030: 27f5 693d aee3 28bb a90f e23a 3976 ca3d
00000040: 4c41 f63d 3b17 0c3d 22ae 1a3d 0779 2fbe
00000050: 2597 5ebe ce65 483d 3a6c 7b3d 8a60 c73a
00000060: a518 3dbd fed4 003e 0ed7 f6bd a80d 66bd
00000070: 550a a83b 8446 153e 0af2 8bbd 29fd 423d
00000080: 5af0 f33d b9e2 513d 614b 833e c9ea 843d
00000090: 86c8 eebd 51cc 8c3c 6a08 d3bd 4c72 993d
000000a0: c171 6ebd 9eeb 863d 8a4e cb3d 6c95 ca3d
000000b0: eca0 db3c cbe8 66bc 3cdf a53d 4a2e ce3d
000000c0: 3c61 d33d 066e bd3c 39e3 aa3d b834 78bc
000000d0: 38d0 46bd b678 083e df3d 10be 008f 5bbc
000000e0: 8bff 9abd fbc4 0d3e f788 1a3d ea5b 8cbd
000000f0: d0c8 3a3d dc59 cdbd f19f 07be 2604 a7bd
00000100: 404a 57bd 2b5f fbbc 9e71 dabc 73b7 49bc
00000110: 7cac b7bd 91a8 733b f12c fbbd aad9 5a3d
00000120: aa3e fa3c 130f 113e 65a9 fe3c cd72 fe3d
00000130: 2f2a 35bd 07fe dfbd 4801 473c e43f e53d
00000140: d0fb 71bd f5a0 3dbe 1a6b 333e d5f9 993b
00000150: 34b0 0bbd f088 e7bc 2d24 2cbd 262d 23be
00000160: 40fd 48bd 8ac5 54bc 119f aa3d 59a4 7abd
00000170: b90a 0a3e 3238 25bc f92e 9e3d 6e91 d33d
00000180: cb8a 26be 464d 46bc 643e 913d 5359 f9bc
00000190: e9ec 823d 0437 ae3d 2cba d7bd df04 ee3b
000001a0: 08ac b8bd 3917 ef3b b492 813c d826 003e
000001b0: beda 8c3d 3826 f7bb 8b2e 2b3e 09e6 90bd
000001c0: ae97 b33d 5e44 113e a584 283c 8152 753d
000001d0: dcd3 97bd 8b62 68bd 243c ddbc 34b5 91bc
000001e0: 4482 9bbb 0ede 89bd 09b2 863d 63ff a13c
000001f0: 31b2 cbba 0c4b 6d3d aba3 b0bd fd9a 223d
00000200: efa7 cf3d e368 b1bc 844c b5bd bf0d e7bd
00000210: 7cbe 9c3d ecf6 aa3d c575 c93d 7b99 5c3d
00000220: e861 25bd 3aaf 09be bf8c a3bd f430 c23d
00000230: 8102 de3d c27a bc3c eaad 09bd 767c 80bd
00000240: fc7d 193e 05ec c9bd 00a4 103d cc87 c9ba
00000250: 54f6 2c3b 34ee b8bd 1bb1 543d 600a 5abd
00000260: 4719 553d 4480 573c aecb 863c bc46 94bd
00000270: d344 eabd 85f6 46be 99d6 56bd 53ff 15bd
00000280: d847 bc38 6227 c83c 61b9 03be 0f35 d2bd
00000290: 601a fb3c 1c43 0ebd 4737 a2bd f1fc 6b3d
000002a0: 97e5 993d 8d75 b3bd 0ef6 fcbd 133e 58bd
000002b0: c475 1f3e b678 993b e63d b5ba 7d50 b0bd
000002c0: 0986 39bc d575 933d bc3c f83c 9069 b5bc
000002d0: 10c5 abbd 121c bcbc 5956 b2bd 0a21 9a3c
000002e0: 267b f93d eaf4 773d 4d56 1cbb 1417 09be
000002f0: 73b3 7e3d 87f6 213d 033e e0bc 8bfb 16bd
00000300: 30e5 813d 283e 293c cc4f 763a 8f81 523e
00000310: e2fc 53bd 50bc 873e 4fbd 483a 7a48 0dbd
00000320: cf1c 5bbd 0e1e 313e 73ec 30bb e1f5 123e
00000330: 5a38 303e 96d3 363e 6d95 da3b 7358 49bd
00000340: 285c fa3d d828 d73d ce3e 4cbe c73a 9cbd
00000350: f772 d63c aeca 6cbc 9df0 aa3d a2b5 b83c
00000360: 16ba e03d e938 703d 8244 9a3c 5662 9b3d
00000370: 0534 033d 4746 e9bd 4529 edbc c38b 933d
00000380: 9821 2bbd 986e 4a3e 4ee2 a53c 43b4 17bd
00000390: e48d f0bb f19a ebbb 58b6 55bd 7d08 d0bc
000003a0: d979 d7bc 42de a73d b531 ecbd 8f20 8d3d
000003b0: 7e98 32be 8869 ae3d dd29 f23d f1e0 70bd
000003c0: b468 96bd 585f bbbd de08 e93c 84db 0cbe
000003d0: 89fa d83d 856e 37bc f9c5 ba3d 4e09 29bd
000003e0: 73cb 1bbe 07eb 19be a561 2a3e 314b 90bb
000003f0: c981 acbc f357 893c 6b70 6a3c 487d c23b

network_body._body_endoder.seq_layers.2.bias f4 [128]
0.0 0.0 0.0 0.0 0.0 0.0 0.0 0.0
0.0 0.0 0.0 0.0 0.0 0.0 0.0 0.0
0.0 0.0 0.0 0.0 0.0 0.0 0.0 0.0
0.0 0.0 0.0 0.0 0.0 0.0 0.0 0.0
0.0 0.0 0.0 0.0 0.0 0.0 0.0 0.0
0.0 0.0 0.0 0.0 0.0 0.0 0.0 0.0
0.0 0.0 0.0 0.0 0.0 0.0 0.0 0.0
0.0 0.0 0.0 0.0 0.0 0.0 0.0 0.0
0.0 0.0 0.0 0.0 0.0 0.0 0.0 0.0
0.0 0.0 0.0 0.0 0.0 0.0 0.0 0.0
0.0 0.0 0.0 0.0 0.0 0.0 0.0 0.0
0.0 0.0 0.0 0.0 0.0 0.0 0.0 0.0
0.0 0.0 0.0 0.0 0.0 0.0 0.0 0.0
0.0 0.0 0.0 0.0 0.0 0.0 0.0 0.0
0.0 0.0 0.0 0.0 0.0 0.0 0.0 0.0
0.0 0.0 0.0 0.0 0.0 0.0 0.0 0.0
00000000: 0000 0000 0000 0000 0000 0000 0000 0000
00000010: 0000 0000 0000 0000 0000 0000 0000 0000
00000020: 0000 0000 0000 0000 0000 0000 0000 0000
00000030: 0000 0000 0000 0000 0000 0000 0000 0000
00000040: 0000 0000 0000 0000 0000 0000 0000 0000
00000050: 0000 0000 0000 0000 0000 0000 0000 0000
00000060: 0000 0000 0000 0000 0000 0000 0000 0000
00000070: 0000 0000 0000 0000 0000 0000 0000 0000
00000080: 0000 0000 0000 0000 0000 0000 0000 0000
00000090: 0000 0000 0000 0000 0000 0000 0000 0000
000000a0: 0000 0000 0000 0000 0000 0000 0000 0000
000000b0: 0000 0000 0000 0000 0000 0000 0000 0000
000000c0: 0000 0000 0000 0000 0000 0000 0000 0000
000000d0: 0000 0000 0000 0000 0000 0000 0000 0000
000000e0: 0000 0000 0000 0000 0000 0000 0000 0000
000000f0: 0000 0000 0000 0000 0000 0000 0000 0000
00000100: 0000 0000 0000 0000 0000 0000 0000 0000
00000110: 0000 0000 0000 0000 0000 0000 0000 0000
00000120: 0000 0000 0000 0000 0000 0000 0000 0000
00000130: 0000 0000 0000 0000 0000 0000 0000 0000
00000140: 0000 0000 0000 0000 0000 0000 0000 0000
00000150: 0000 0000 0000 0000 0000 0000 0000 0000
00000160: 0000 0000 0000 0000 0000 0000 0000 0000
00000170: 0000 0000 0000 0000 0000 0000 0000 0000
00000180: 0000 0000 0000 0000 0000 0000 0000 0000
00000190: 0000 0000 0000 0000 0000 0000 0000 0000
000001a0: 0000 0000 0000 0000 0000 0000 0000 0000
000001b0: 0000 0000 0000 0000 0000 0000 0000 0000
000001c0: 0000 0000 0000 0000 0000 0000 0000 0000
000001d0: 0000 0000 0000 0000 0000 0000 0000 0000
000001e0: 0000 0000 0000 0000 0000 0000 0000 0000
000001f0: 0000 0000 0000 0000 0000 0000 0000 0000

action_model._continuous_distribution.log_sigma f4 [1, 3]
0.0 0.0 0.0
00000000: 0000 0000 0000 0000 0000 0000

action_model._continuous_distribution.mu.weight f4 [3, 128]
-0.021448102 -0.024171777 0.055168528 -0.010715458 -0.011251696 0.01226929 -0.017105078 -0.030388525
-0.0052143573 -0.0048207724 -0.03527605 -0.0018129759 -0.006983278 -0.03887972 0.019437382 -0.008195799
-0.036359396 0.04358318 -0.02784628 -0.027548162 -0.013247253 -0.021875432 0.003633795 0.020382684
0.02127183 -0.010384016 -0.013408566 -0.006212814 -0.0034933423 -0.0012652584 -0.00085427146 0.00058282935
0.015500061 0.000606317 -0.004023977 0.016232101 -0.0013802903 0.008892625 -0.030045709 0.02064025
0.005183818 0.014821346 -0.024475127 0.0057315305 -0.012918633 -0.009905209 0.022133555 -0.015556643
-0.003881848 0.0014581209 0.008343062 -0.02683039 -0.0015671725 -0.020076519 0.009382824 0.02988956
0.028566405 0.009926083 -0.01470653 -0.006885295 -0.0046151183 -0.029648582 -0.006483982 0.006378407
0.005398138 0.03201778 0.0040443144 -0.00066094217 -0.008199553 0.0003097932 -0.017041419 0.010734328
0.011978426 -0.00397518 0.01570439 -0.010543675 -0.010672695 0.012570781 0.00879972 -0.019610805
-0.013929295 0.023923893 -0.006666018 -0.018772664 -0.021717513 -0.0060358364 9.746162e-05 -0.002027074
0.02258262 0.008374229 -0.029675594 0.010306567 0.0143906325 -0.0071563125 -0.004037724 -0.005924403
-0.017224869 -0.021033814 0.018543666 0.007875191 -0.018547324 -0.013598395 0.0005724958 -0.0166935
0.005036639 -0.02420899 -0.009611061 -0.026649917 -0.010028007 0.0065600276 -0.010968885 -0.012675295
0.0015261609 0.0230443 0.0009433981 -0.013848449 0.011422529 0.027221713 -0.023340175 0.0051246635
-0.014825627 0.0051697358 -0.0024239093 0.008451585 0.014536683 -0.00019609688 0.03177901 -0.0038841409
-0.011964166 -0.0050293733 -0.005952221 0.022520825 -0.029447174 0.01518366 -0.0048684976 -0.009038077
0.02298185 -0.02916331 0.029767249 0.015963601 -0.026271334 0.0140176965 0.0027138586 -0.0047988077
0.01746676 -0.028043685 0.045398515 0.03030929 0.0102491705 0.010859128 0.014562808 -0.006912166
0.00678406 0.0123903975 0.037359443 -0.021433836 -0.0062625445 0.008006788 -0.0040540243 0.019194713
0.018817188 -0.0008289818 0.039564475 -0.03330199 -0.0064512887 -0.024554968 0.02469693 -0.015438884
0.00066747994 0.0025217012 -0.012160084 -0.01779878 0.020977411 -0.0011387531 0.00091259193 -0.009936388
-0.003499191 0.00948936 0.001316529 -0.021139378 0.0071287267 0.0018657594 0.004373948 -0.01597512
0.019629417 -0.00058514724 0.019438362 0.017502023 -0.02488799 0.007462673 0.034172457 -0.011671602
0.017145045 0.0063716634 0.024571333 -0.004072047 -0.0027821425 -0.0030805224 0.015415241 0.027215375
-0.019569485 -0.012982373 -0.011922785 0.023402197 0.0040461924 -0.011888947 -0.024496634 -0.0008210347
0.0017752405 0.0007939865 -0.0003254303 0.014336802 -0.011352423 0.004795623 -0.011398481 0.0054898853
0.005903726 0.0014404809 0.022077812 0.011928689 0.018189484 -9.865981e-05 -0.024018394 0.014676032
-0.028931031 -0.02806612 -0.0028937107 0.004454364 -0.026510818 0.006493341 0.007890546 0.025816394
0.006284038 -0.0012674801 -0.0028231016 0.0075997636 0.0029765258 -0.019374227 0.023532882 0.005229508
-0.02291373 -0.0047885156 -0.020648522 -0.013219528 -0.0030327835 -0.01814655 -0.010089447 -0.02059516
-0.002976326 -0.0023055016 0.0070418403 0.0117953485 0.0063984874 -0.0062794313 0.027249282 0.016659347
00000000: eeb3 afbc e403 c6bc 65f8 613d e38f 2fbc
00000010: 0959 38bc 2205 493c f31f 8cbc 5bf1 f8bc
00000020: 33dd aabb 92f7 9dbb 9f7d 10bd 60a1 edba
00000030: fbd3 e4bb 5740 1fbd 253b 9f3c ac47 06bc
00000040: 97ed 14bd 4784 323d e21d e4bc afac e1bc
00000050: 020b 59bc 1b34 b3bc f724 6e3b 96f9 a63c
00000060: 4342 ae3c b821 2abc 9aaf 5bbc dc94 cbbb
00000070: 8ff0 64bb 07d7 a5ba 30f1 5fba 04c9 183a
00000080: f8f3 7d3c 3ff1 1e3a 91db 83bb 2ff9 843c
00000090: dbea b4ba 5fb2 113c 6b22 f6bc be15 a93c
000000a0: 04dd a93b 3bd5 723c 1080 c8bc 90cf bb3b
000000b0: ada8 53bc 7549 22bc 6e51 b53c 4ae1 7ebc
000000c0: 9a66 7ebb 6b1e bf3a 57b1 083c 68cb dbbc
000000d0: 9569 cdba 8377 a4bc 6bba 193c f3da f43c
000000e0: 1804 ea3c 02a1 223c a8f3 70bc 0a9e e1bb
000000f0: 6b3a 97bb 95e1 f2bc 9577 d4bb f501 d13b
00000100: dde2 b03b 1325 033d 2b86 843b 1443 2dba
00000110: 6b57 06bc bd6b a239 729a 8bbc 09df 2f3c
00000120: 2941 443c 3a42 82bb 7ea6 803c 61bf 2cbc
00000130: 87dc 2ebc adf5 4d3c b32c 103c d7a6 a0bc
00000140: b337 64bc 0afc c33c 9d6e dabb 21c9 99bc
00000150: ede8 b1bc 44c8 c5bb 4f64 cc38 a9d8 04bb
00000160: 30ff b83c 1034 093c 3b1a f3bc e0dc 283c
00000170: b0c6 6b3c 807f eabb e24e 84bb 7f21 c2bb
00000180: 2b1b 8dbc 1b4f acbc e3e8 973c f206 013c
00000190: 8ff0 97bc cdcb 5ebc 8b13 163a cfc0 88bc
000001a0: 640a a53b ef51 c6bc b677 1dbc ed50 dabc
000001b0: 834c 24bc 80f5 d63b d7b6 33bc 0aac 4fbc
000001c0: 7609 c83a 66c7 bc3c 604e 773a 9be4 62bc
000001d0: 8f25 3b3c 1200 df3c e533 bfbc cbec a73b
000001e0: 30e7 72bc e366 a93b 73da 1ebb 8478 0a3c
000001f0: 452b 6e3c 5b9f 4db9 b52a 023d 128d 7ebb
00000200: 5905 44bc 71cd a4bb d90a c3bb 987d b83c
00000210: 333b f1bc e3c4 783c eb87 9fbb 7114 14bc
00000220: 6f44 bc3c e5e7 eebc 72da f33c 19c6 823c
00000230: fb36 d7bc 7baa 653c feda 313b 513f 9dbb
00000240: 7316 8f3c dfbb e5bc cbf3 393d 304b f83c
00000250: 23ec 273c 7cea 313c d898 6e3c 737f e2bb
00000260: d24c de3b 1801 4b3c 3706 193d 0396 afbc
00000270: 0836 cdbb e72e 033c 9fd7 84bb 3b3e 9d3c
00000280: 8126 9a3c 0750 59ba 5c0e 223d ab67 08bd
00000290: 5565 d3bb 8027 c9bc 3751 ca3c 5ff3 7cbc
000002a0: d2f9 2e3a 2043 253b 173b 47bc bfce 91bc
000002b0: d2d8 ab3c 3742 95ba 023b 6f3a 3bcc 22bc
000002c0: af52 65bb 4379 1b3c 628f ac3a 7d2c adbc
000002d0: 1898 e93b 7f8c f43a 5653 8f3b 41de 82bc
000002e0: dfcd a03c 9164 19ba 333d 9f3c 6760 8f3c
000002f0: e6e1 cbbc 7089 f43b 6bf8 0b3d 3f3a 3fbc
00000300: c473 8c3c 63c9 d03b d249 c93c ce6e 85bb
00000310: 9b54 36bb 97e2 49bb 3590 7c3c c7f2 de3c
00000320: 2f50 a0bc 05b4 54bc c957 43bc f7b5 bf3c
00000330: ec95 843b dcc9 42bc 2aad c8bc b53a 57ba
00000340: 30af e83a 8823 503a 849e aab9 e8e4 6a3c
00000350: 83ff 39bc 9a24 9d3b b2c0 3abc 7fe4 b33b
00000360: 0b74 c13b 85ce bc3a 87dc b43c 8c70 433c
00000370: 1d02 953c 95e7 ceb8 39c2 c4bc bd73 703c
00000380: c500 edbc ebea e5bc 69a4 3dbb eaf5 913b
00000390: 372d d9bc 18c6 d43b 5947 013c e77c d33c
000003a0: 55ea cd3b 9321 a6ba c903 39bb 7007 f93b
000003b0: d111 433b b3b6 9ebc 08c8 c03c 4b5c ab3b
000003c0: 93b5 bbbc fbe8 9cbb 1727 a9bc b896 58bc
000003d0: aac1 46bb 13a8 94bc 354e 25bc 2eb7 a8bc
000003e0: 770e 43bb e617 17bb 3dbf e63b 4741 413c
000003f0: 67aa d13b b0c3 cdbb e339 df3c 2f79 883c

action_model._continuous_distribution.mu.bias f4 [3]
0.0 0.0 0.0
00000000: 0000 0000 0000 0000 0000 0000

action_model._discrete_distribution.branches.0.weight f4 [3, 128]
0.0130211655 0.0010437837 -0.0037375947 0.012403771 0.011490231 0.00085820764 0.00692736 0.007126204
-0.00014457632 -0.0040836455 -0.011347397 -0.008814675 -0.010461809 0.0030310524 -0.006157447 0.00023181704
-0.0043264003 -0.027053637 -0.015973335 0.012097696 0.005861925 0.0038151008 0.018217633 0.006161141
0.0029949993 -0.007956716 -0.0004974318 -6.4444495e-05 -0.0141615765 -0.012716834 0.0022795412 -0.010241501
-0.007946348 -0.0054898574 -0.00071573205 -0.0049408674 -0.00087976217 -0.019347794 0.013298439 0.014701346
-0.0013842402 0.006420488 -0.014713841 0.0002800912 -0.0069326493 0.0045180107 0.0014857773 -0.007017714
0.01131264 -0.008100475 -0.008920719 -0.0011179867 -0.0017542497 0.004904688 0.012485016 0.007879677
0.015405555 -0.0029570523 -0.00830352 0.009088752 -0.0035955445 -0.0024815751 0.012846428 -0.008146745
-0.0015745899 0.0026704825 0.012498244 0.009979448 0.0061897873 -0.017273696 -0.0029768557 -0.00577661
0.0076881545 -0.0019248186 0.009897763 -0.001127626 -0.008377112 -0.0113537125 0.0051432136 -0.019732332
-0.0032477328 -0.0031672367 0.00070600817 -0.008234366 -0.0075449543 -0.0012021567 0.0025750175 -0.012742463
-0.012308057 -0.008489458 -0.030047236 -0.0049748127 0.021078965 0.01204251 -0.019033838 -0.008042037
-0.0062859915 -0.0075541795 0.0034177073 0.010040595 0.010230098 0.0039308667 -0.009316513 -0.00419152
-0.014462127 -0.007249327 -0.00050677254 0.003880222 0.023916222 -0.0015338759 0.003818065 0.0019283518
-0.018530605 -0.0013534154 0.00765986 0.0006372901 0.0052593607 -0.003053297 0.00634068 -0.00051207247
-0.0043562087 0.0026545736 -0.0026625672 -0.019493086 0.002533324 -0.014886039 -0.012284853 -0.018906653
0.004910164 -0.002642601 0.007306833 0.008936445 0.024910534 0.0068452233 -0.0045944685 -0.009536398
-0.0022486653 0.0059904736 0.020139595 0.012055144 -0.0013455175 0.009336247 -0.010849622 -0.008285149
0.0029441605 0.006221609 0.016763734 0.0039871014 0.008843005 -0.0032630067 0.010933443 -0.0066206306
0.0024931736 -0.005834328 0.014077178 0.0009133738 0.0034754635 -0.0075317896 -0.0025364887 -0.013008623
-0.009199449 0.008405863 -0.0005815555 -0.0044154394 -0.0026238202 0.008014179 0.005679332 -0.0048111365
0.013149485 0.0110387085 0.024825914 -0.0008715298 0.0016809985 -0.0024370744 -0.013681759 -0.00027797025
-0.009094071 -0.018691018 7.022772e-05 -0.007420331 -0.0051024775 -0.015443225 0.0050335997 -0.008998897
-0.003093385 -0.018196972 -0.006583553 -0.0041643796 -0.010681364 -0.0047897296 -0.0055625634 -0.018848153
0.00017729522 -0.0025761968 -0.009314551 0.012157044 -0.00034685768 -0.013431738 0.0011439229 0.00858092
-0.012867657 -0.006292522 -0.016400186 0.003322726 0.012535435 0.0037041444 0.007563469 -0.0031358579
0.0041948236 0.026124453 0.0063490877 0.012821542 0.0021579904 0.0040367 -0.0059613846 0.005491718
0.012188841 -0.014533161 0.013969533 -0.004760831 -0.0035319426 0.0064290813 -0.012298216 0.015858242
0.016123788 0.01022692 -0.013010531 0.014076406 0.0059175887 -0.008836222 -0.005897724 0.0015742164
0.016197614 0.0018639936 -0.0019674269 -0.004540624 -0.0053270217 -0.0023182298 -0.0017888984 -0.013967267
0.001836475 -0.011496004 0.005472903 -0.019258216 0.008920788 0.0028737562 -0.005501986 0.014884616
-0.0116249975 -0.00783298 0.003615814 8.132565e-07 0.003327775 0.013107011 -0.010100779 0.0012726359
00000000: ba56 553c 92cf 883a 6ff2 74bb 3039 4b3c
00000010: 8641 3c3c 57f9 603a e8fe e23b ef82 e93b
00000020: 6999 17b9 1ad0 85bb 6fea 39bc 6d6b 10bc
00000030: 0268 2bbc 9fa4 463b 69c4 c9bb ea13 7339
00000040: 7ac4 8dbb 979f ddbc 83da 82bc 6a35 463c
00000050: 6415 c03b c506 7a3b 253d 953c 66e3 c93b
00000060: c047 443b e35c 02bc 1566 02ba 6026 87b8
00000070: f505 68bc 455a 50bc 5b64 153b f8cb 27bc
00000080: 6631 02bc 43e4 b3bb f79f 3bba 00e7 a1bb
00000090: d79f 66ba 447f 9ebc b2e1 593c eadd 703c
000000a0: 656f b5ba f562 d23b 5212 71bc 34d9 9239
000000b0: 472b e3bb d20b 943b 6abe c23a daf4 e5bb
000000c0: a758 393c dbb7 04bc 3528 12bc 6989 92ba
000000d0: daee e5ba 81b7 a03b f48d 4c3c c319 013c
000000e0: 9567 7c3c 1bcb 41bb 7d0b 08bc fde8 143c
000000f0: 3aa3 6bbb eca1 22bb d379 523c ed79 05bc
00000100: 7862 ceba 4303 2f3b 6fc5 4c3c d780 233c
00000110: b3d3 ca3b 9181 8dbc 5a17 43bb b849 bdbb
00000120: eaec fb3b 324a fcba 3a2a 223c dacc 93ba
00000130: 2840 09bc ec04 3abc 6788 a83b b3a5 a1bc
00000140: ead7 54bb 6a91 4fbb 6813 393a 6fe9 06bc
00000150: aa3b f7bb af91 9dba a0c1 283b c3c5 50bc
00000160: bca7 49bc 5e17 0bbc 9f25 f6bc c103 a3bb
00000170: cbad ac3c f34d 453c daec 9bbc bfc2 03bc
00000180: b8fa cdbb 0d89 f7bb 9dfb 5f3b 4f81 243c
00000190: 249c 273c 80ce 803b 4aa4 18bc 0559 89bb
000001a0: 8ff2 6cbc c38b edbb eed8 04ba 534b 7e3b
000001b0: f4eb c33c 560c c9ba 8038 7a3b c0c0 fc3a
000001c0: 7fcd 97bc 1665 b1ba 90ff fa3b d10f 273a
000001d0: b756 ac3b d319 48bb 7bc5 cf3b 9a3c 06ba
000001e0: 87be 8ebb 5bf8 2d3b 777e 2ebb f7af 9fbc
000001f0: 2006 263b 93e4 73bc 6846 49bc 20e2 9abc
00000200: 71e5 a03b 7d2f 2dbb 286e ef3b 2b6a 123c
00000210: 2d11 cc3c e54d e03b 328d 96bb 8d3e 1cbc
00000220: 585e 13bb bc4b c43b cbfb a43c f082 453c
00000230: 135c b0ba 0ff7 183c 9dc2 31bc 6fbe 07bc
00000240: d1f2 403b a4de cb3b 1954 893c 3ba6 823b
00000250: 40e2 103c 2bd8 55bb 2f22 333c e0f1 d8bb
00000260: 8364 233b e42d bfbb f7a3 663c 7a6f 6f3a
00000270: 9ac4 633b 3bcd f6bb 383b 26bb 1f22 55bc
00000280: 49b9 16bc bfb8 093c 8773 18ba 64af 90bb
00000290: 66f4 2bbb e74d 033c b119 ba3b bda6 9dbb
000002a0: f070 573c b3db 343c b75f cb3c 6077 64ba
000002b0: f354 dc3a 53b7 1fbb 7529 60bc 89bc 91b9
000002c0: 4cff 14bc e81d 99bc 3847 9338 3f26 f3bb
000002d0: af32 a7bb 9505 7dbc e5f0 a43b 1c70 13bc
000002e0: 63ba 4abb d111 95bc d8ba d7bb 5975 88bb
000002f0: e300 2fbc 2af3 9cbb 2a46 b6bb 7167 9abc
00000300: 53e8 3939 69d5 28bb 0f9c 18bc 572e 473c
00000310: 73da b5b9 cb10 5cbc afef 953a fd96 0c3c
00000320: ddd2 52bc 8031 cebb af59 86bc 18c2 593b
00000330: 6d61 4d3c 3bc1 723b fad6 f73b f782 4dbb
00000340: bb74 893b f302 d63c 020c d03b 7211 523c
00000350: 126d 0d3b 4b46 843b b857 c3bb dff3 b33b
00000360: b4b3 473c 7f1c 6ebc 78e0 643c bf00 9cbb
00000370: 2a78 67bb 0bab d23b 757e 49bc 25e9 813c
00000380: 0916 843c d08e 273c 1f2a 55bc baa0 663c
00000390: 55e8 c13b cdc5 10bc b241 c1bb f055 ce3a
000003a0: dcb0 843c 3f51 f43a f2ef 00bb 84c9 94bb
000003b0: 4c8e aebb 71ed 17bb 7879 eaba f7d6 64bc
000003c0: e0b5 f03a bc59 3cbc 0a56 b33b 68c3 9dbc
000003d0: 7f28 123c a155 3c3b 014a b4bb 9bde 733c
000003e0: c676 3ebc e655 00bc 4bf7 6c3b 904e 5a35
000003f0: cd16 5a3b cabe 563c bd7d 25bc 93ce a63a

action_model._discrete_distribution.branches.0.bias f4 [3]
0.0 0.0 0.0
00000000: 0000 0000 0000 0000 0000 0000

network_body._body_endoder.seq_layers.0.weight f4 [128, 40]
-0.32466015 0.18163352 0.07377297 0.22221614 0.20685717 0.14166778 -0.026397936 -0.08948037
-0.13795044 -0.14754811 0.17223378 0.035164494 -0.019344358 -0.03009034 -0.12308513 0.22065347
-0.04460385 -0.34206495 0.2927839 -0.29143727 0.02335294 -0.33757064 -0.07188857 -0.010253125
0.18150862 0.007230156 -0.03395606 -0.17084134 0.33674452 -0.07090109 -0.046422083 -0.19788294
-0.16311562 -0.24285331 -0.11686094 -0.091326624 -0.090170585 0.13394678 0.20168874 0.007380378
-0.29685998 -0.15159024 -0.03186993 0.17130217 0.25847077 -0.010864503 0.2845101 0.29156333
-0.11227888 0.2621892 -0.00020526901 0.045415737 -0.123242 -0.1946396 -0.23686449 0.096988365
0.25156444 0.07047111 -0.109098226 0.2622874 -0.026043538 -0.10147226 0.12685911 -0.13176678
0.14362763 0.15092628 -0.022650259 -0.010234288 0.16043897 0.04596976 0.023386005 0.013781341
-0.17553005 -0.34549868 -0.121629275 -0.1921334 0.023666639 -0.08500791 0.114682816 -0.07314551
-0.004273103 -0.0525529 0.013643425 -0.20909473 0.110495284 -0.07293131 -0.08192397 0.07167945
0.17124718 0.43035874 0.11274124 0.141602 -0.030929571 0.107943654 0.15793891 -0.2042816
0.10457118 0.026915874 -0.057331804 0.016739057 0.04927404 -0.34612113 -0.031983327 -0.05644457
-0.07101027 0.009418999 0.037101876 0.16111913 0.034800354 -0.123959176 -0.07634041 -0.52870846
-0.08850388 -0.23583849 0.020016422 -0.20591941 0.055614177 0.12546776 0.04877146 0.09425242
0.13383508 -0.04263779 -0.21238005 0.08663148 0.11058156 -0.302486 -0.009657329 0.09170535
-0.2794884 -0.057909902 -0.023128906 -0.09301022 -0.033242486 0.076542884 0.046878576 0.06394382
0.11826088 0.22769411 0.01276441 -0.24443087 0.11605763 -0.06316518 0.062912524 0.083394535
-0.06409641 0.012276482 -0.19165565 -0.30710846 -0.029191807 -0.020037461 -0.13857841 -0.12145655
-0.25558472 -0.084226534 0.007635555 0.02859804 -0.25877994 -0.010192977 0.10588006 0.0122131305
-0.06721811 -0.06633224 -0.009089688 -0.060874794 -0.09076022 0.03141123 -0.29356006 0.18724324
0.14042291 -0.052870642 0.052926015 0.16159949 -0.14806445 0.42765012 0.12112001 0.18090689
-0.09414288 0.12451203 0.1339374 0.03647196 0.2611263 -0.06696177 0.058805455 -0.22517015
-0.16685596 0.018899813 -0.23906957 -0.2712461 -0.084961526 0.23092796 0.00811641 -0.08429561
0.07671216 -0.14371511 0.14080481 -0.10429991 0.055305492 0.17468768 0.10765168 0.055937234
0.11941161 -0.1241851 0.19700758 -0.07135139 -0.099431805 0.34867164 -0.1272721 -0.076747045
0.0041632815 0.012813511 0.038077828 -0.11119477 -0.10324371 -0.10712964 0.22844765 -0.13573208
0.21347637 0.12007724 0.27222776 0.20814274 -0.02262672 0.050067507 0.064891934 -0.24926472
-0.0678295 0.011588828 0.17604053 0.18413645 -0.12085048 0.12492587 -0.025088 -0.11156607
-0.11154542 -0.13692144 0.12020069 -0.0307715 0.15504993 -0.30102885 0.037773997 0.13087504
-0.18809234 -0.015394643 -0.13332795 0.18872908 -0.17245659 0.12427683 -0.06999079 -0.14126453
0.1147581 0.37042394 -0.29657203 0.16217743 -0.14579353 -0.13885331 -0.09187269 0.20968765
00000000: db39 a6be 23fe 393e 4816 973d a18c 633e
00000010: 5ed2 533e 5c11 113e 7c40 d8bc 7c41 b7bd
00000020: e142 0dbe da16 17be 0d5e 303e a508 103d
00000030: 0f78 9ebc 0480 f6bc 0e14 fcbd fcf2 613e
00000040: 87b2 36bd 2323 afbe c5e7 953e 4437 95be
00000050: aa4e bf3c 0fd6 acbe 513a 93bd b9fc 27bc
00000060: 65dd 393e f2ea ec3b 8215 0bbd 08f1 2ebe
00000070: c769 ac3e 9734 91bd 1525 3ebd d3a1 4abe
00000080: c807 27be 8aae 78be ca54 efbd 7409 bbbd
00000090: 5bab b8bd 5829 093e 7e87 4e3e 19d7 f13b
000000a0: 08fe 97be 793a 1bbe 0b8a 02bd d669 2f3e
000000b0: 4856 843e 0701 32bc 4fab 913e ca47 953e
000000c0: 78f2 e5bd aa3d 863e 7b3d 57b9 da05 3a3d
000000d0: 4d66 fcbd 9a4f 47be 9b8c 72be d6a1 c63d
000000e0: 0ecd 803e 2853 903d e46e dfbd 894a 863e
000000f0: 4259 d5bc b0d0 cfbd 5be7 013e dfed 06be
00000100: 1f13 133e 6b8c 1a3e 098d b9bc b7ad 27bc
00000110: 1d4a 243e c94a 3c3d 0294 bf3c 22cb 613c
00000120: 26be 33be 34e5 b0be c518 f9bd 9ebe 44be
00000130: 8ae0 c13c a118 aebd d3de ea3d 50cd 95bd
00000140: 6305 8cbb b641 57bd ac88 5f3c ee1c 56be
00000150: 5a4b e23d 035d 95bd c1c7 a7bd adcc 923d
00000160: 6c5b 2f3e fb57 dc3e e1e4 e63d 1d00 113e
00000170: 0360 fdbc 9011 dd3d bdba 213e 322f 51be
00000180: 6a29 d63d ae7e dc3c c1d4 6abd 5920 893c
00000190: 93d3 493d ca36 b1be f300 03bd 6c32 67bd
000001a0: d56d 91bd 2552 1a3c 23f8 173d 6afc 243e
000001b0: d18a 0e3d 4fde fdbd 5c58 9cbd 7059 07bf
000001c0: 8641 b5bd a57f 71be 7bf9 a33c 8adc 52be
000001d0: b1cb 633d 9f7a 003e 95c4 473d 6a07 c13d
000001e0: 100c 093e f7a4 2ebd 287a 59be d86b b13d
000001f0: 9678 e23d 72df 9abe c639 1ebc 04d0 bb3d
00000200: 1b19 8fbe ef32 6dbd d578 bdbc 247c bebd
00000210: 4629 08bd 84c2 9c3d c003 403d faf4 823d
00000220: c332 f23d a528 693e d121 513c 164c 7abe
00000230: 9faf ed3d bf5c 81bd 48d8 803d c1ca aa3d
00000240: fb44 83bd 4c23 493c 6141 44be 523d 9dbe
00000250: a823 efbc 9a25 a4bc 80e7 0dbe 36be f8bd
00000260: 00dc 82be f67e acbd ae33 fa3b 7046 ea3c
00000270: ce7e 84be 7200 27bc a5d7 d83d 9519 483c
00000280: a6a9 89bd 33d9 87bd eaec 14bc d957 79bd
00000290: 7fe0 b9bd 10a9 003d 814d 96be b1bc 3f3e
000002a0: 06cb 0f3e e38e 58bd f3c8 583d 567a 253e
000002b0: 359e 17be f5f4 da3e c50d f83d a83f 393e
000002c0: fbcd c0bd 2a00 ff3d e326 093e 9f63 153d
000002d0: 59b2 853e 4123 89bd fddd 703d 0193 66be
000002e0: 4adc 2abe c8d3 9a3c a7ce 74be c5e0 8abe
000002f0: 4f00 aebd 6178 6c3e b1fa 043c 2da3 acbd
00000300: 441b 9d3d 0e2a 13be 232f 103e 319b d5bd
00000310: 0388 623d 54e1 323e 7c78 dc3d 711e 653d
00000320: 138e f43d c254 febd 5bbc 493e ad20 92bd
00000330: e7a2 cbbd 1785 b23e 9e53 02be 8e2d 9dbd
00000340: 236c 883b c3ef 513c 7ff7 1b3d 15ba e3bd
00000350: 7071 d3bd c966 dbbd 2eee 693e 5afd 0abe
00000360: 8d99 5a3e 0eeb f53d 7061 8b3e 5f23 553e
00000370: ac5b b9bc 9613 4d3d 10e6 843d 403f 7fbe
00000380: 31ea 8abd 11df 3d3c f843 343e 448e 3c3e
00000390: 7580 f7bd 22d9 ff3d 5985 cdbc c07c e4bd
000003a0: ed71 e4bd 2235 0cbe c82b f63d 8314 fcbc
000003b0: 69c5 1e3e 7420 9abe e8b8 1a3d 1b04 063e
000003c0: 479b 40be d039 7cbc 1f87 08be 3242 413e
000003d0: 7698 30be da84 fe3d 5557 8fbd a6a7 10be
000003e0: 4b06 eb3d 35a8 bd3e 4ad8 97be d711 263e
000003f0: e64a 15be 902f 0ebe c027 bcbd 5cb8 563e

network_body._body_endoder.seq_layers.0.bias f4 [128]
0.0 0.0 0.0 0.0 0.0 0.0 0.0 0.0
0.0 0.0 0.0 0.0 0.0 0.0 0.0 0.0
0.0 0.0 0.0 0.0 0.0 0.0 0.0 0.0
0.0 0.0 0.0 0.0 0.0 0.0 0.0 0.0
0.0 0.0 0.0 0.0 0.0 0.0 0.0 0.0
0.0 0.0 0.0 0.0 0.0 0.0 0.0 0.0
0.0 0.0 0.0 0.0 0.0 0.0 0.0 0.0
0.0 0.0 0.0 0.0 0.0 0.0 0.0 0.0
0.0 0.0 0.0 0.0 0.0 0.0 0.0 0.0
0.0 0.0 0.0 0.0 0.0 0.0 0.0 0.0
0.0 0.0 0.0 0.0 0.0 0.0 0.0 0.0
0.0 0.0 0.0 0.0 0.0 0.0 0.0 0.0
0.0 0.0 0.0 0.0 0.0 0.0 0.0 0.0
0.0 0.0 0.0 0.0 0.0 0.0 0.0 0.0
0.0 0.0 0.0 0.0 0.0 0.0 0.0 0.0
0.0 0.0 0.0 0.0 0.0 0.0 0.0 0.0
00000000: 0000 0000 0000 0000 0000 0000 0000 0000
00000010: 0000 0000 0000 0000 0000 0000 0000 0000
00000020: 0000 0000 0000 0000 0000 0000 0000 0000
00000030: 0000 0000 0000 0000 0000 0000 0000 0000
00000040: 0000 0000 0000 0000 0000 0000 0000 0000
00000050: 0000 0000 0000 0000 0000 0000 0000 0000
00000060: 0000 0000 0000 0000 0000 0000 0000 0000
00000070: 0000 0000 0000 0000 0000 0000 0000 0000
00000080: 0000 0000 0000 0000 0000 0000 0000 0000
00000090: 0000 0000 0000 0000 0000 0000 0000 0000
000000a0: 0000 0000 0000 0000 0000 0000 0000 0000
000000b0: 0000 0000 0000 0000 0000 0000 0000 0000
000000c0: 0000 0000 0000 0000 0000 0000 0000 0000
000000d0: 0000 0000 0000 0000 0000 0000 0000 0000
000000e0: 0000 0000 0000 0000 0000 0000 0000 0000
000000f0: 0000 0000 0000 0000 0000 0000 0000 0000
00000100: 0000 0000 0000 0000 0000 0000 0000 0000
00000110: 0000 0000 0000 0000 0000 0000 0000 0000
00000120: 0000 0000 0000 0000 0000 0000 0000 0000
00000130: 0000 0000 0000 0000 0000 0000 0000 0000
00000140: 0000 0000 0000 0000 0000 0000 0000 0000
00000150: 0000 0000 0000 0000 0000 0000 0000 0000
00000160: 0000 0000 0000 0000 0000 0000 0000 0000
00000170: 0000 0000 0000 0000 0000 0000 0000 0000
00000180: 0000 0000 0000 0000 0000 0000 0000 0000
00000190: 0000 0000 0000 0000 0000 0000 0000 0000
000001a0: 0000 0000 0000 0000 0000 0000 0000 0000
000001b0: 0000 0000 0000 0000 0000 0000 0000 0000
000001c0: 0000 0000 0000 0000 0000 0000 0000 0000
000001d0: 0000 0000 0000 0000 0000 0000 0000 0000
000001e0: 0000 0000 0000 0000 0000 0000 0000 0000
000001f0: 0000 0000 0000 0000 0000 0000 0000 0000

network_body._body_endoder.seq_layers.2.weight f4 [128, 128]
-0.18048768 -0.07964045 -0.10419989 -0.06940657 0.06411457 -0.0016225851 -0.01701881 -0.017708763
-0.07485005 0.01195098 -0.022016592 0.18856105 -0.030236289 0.14744106 0.078214705 0.12199911
-0.0026701952 -0.044674326 -0.07036002 0.014144357 0.022569118 -0.030184684 -0.05439802 0.034752484
-0.053501755 -0.057761565 0.172017 0.09950184 0.111723 -0.021124408 0.10091513 -0.045643866
0.082016304 -0.048281122 -0.029669724 -0.11856359 0.03897826 -0.0092411665 0.039149255 0.03764896
0.048674148 0.15943454 0.020148624 0.038312763 -0.19903149 0.00032198828 -0.021365108 0.13414334
0.0065309913 0.061774567 0.052368518 -0.06817075 -0.11582545 0.077306695 0.04851502 -0.118350014
0.011671672 0.06569721 -0.1036829 0.016861452 -0.053088192 0.051664166 0.04317617 -0.06655369
-0.09624852 -0.10193847 -0.12690404 -0.00933137 0.09404085 0.06119275 -0.026149796 0.07815759
0.029112313 -0.06070011 0.07515894 -0.11103783 0.0028765774 0.0648694 -0.01827869 -0.110099316
-0.052348994 -0.19393666 0.107298195 -0.057421524 0.060913447 -0.19678023 -0.016878154 0.054083977
0.062905096 -0.028993646 -0.14067166 0.09120033 0.088744484 0.057989348 -0.0664258 0.032606576
0.04814441 0.0644605 -0.023816979 -0.018573847 0.035902757 0.04922516 -0.043651972 0.05399969
0.0044056424 0.029771717 0.0424332 -0.026109213 0.0118423635 0.035530582 -0.12010566 -0.037418794
0.117765255 -0.119308844 0.029725175 0.07052655 0.060653497 0.10997521 0.046209794 0.017437628
0.007734742 -0.103534006 -0.008080094 -0.064704 0.0067678373 0.21505715 -0.058307923 0.1741372
0.122978315 -0.06224498 0.06802499 0.098846845 0.019092096 0.14438899 -0.17917533 0.19036026
-0.0946958 0.016559137 0.17335258 -0.07177239 0.07854043 -0.03696674 -0.108957335 0.036515214
0.06945811 -0.0035143115 -0.13891377 0.09087483 -0.08357724 0.020718003 0.17723809 0.052828573
0.10846722 0.11897803 -0.07539063 0.0012078212 -0.0093601495 0.13372283 -0.091286056 -0.13210902
-0.05074023 0.024182918 0.046740122 0.084999494 -0.09335366 0.11720007 -0.06618073 -0.12364155
0.16292714 0.09616718 -0.19949159 -0.014084604 -0.041144986 0.04230699 0.105659366 -0.050014812
-0.006919409 -0.1762402 -0.00575524 0.149086 0.08177589 -0.0987606 -0.2250532 0.027171345
0.08729804 0.06062841 -0.023308687 0.034800448 -0.1282324 -0.046403017 -0.059900004 -0.068454586
0.09425602 0.03931532 -0.04194108 -0.11315649 -0.18797038 0.0656262 0.008327299 0.0569139
-0.1178395 0.06836749 0.10828348 -0.13548857 -0.003141253 0.03140739 -0.11999532 -0.121940315
0.029487563 -0.09430308 0.15002194 0.06888814 0.0245719 0.08107418 -0.06324937 0.06438061
-0.10310345 -0.08230216 0.022142285 -0.038646866 0.11331569 -0.038434748 0.039257277 0.024752649
0.10592994 0.021901041 0.13593252 -0.048374332 0.08530954 -0.10269695 0.1253673 0.017935395
0.09318941 0.040837053 -0.09629879 0.05277606 0.05962273 -0.026390493 0.09521038 -0.10554073
0.10808939 0.07749931 -0.03363794 -0.07969983 0.05412545 -0.10147914 0.05793406 -0.12509847
0.02202133 -0.024109032 0.009011876 -0.009766623 0.0858073 -0.026086 -0.007357794 -0.060854405
00000000: c3d1 38be 881a a3bd c066 d5bd 0825 8ebd
00000010: 804e 833d ecac d4ba 086b 8bbc f811 91bc
00000020: fc4a 99bd 0bce 433c 245c b4bc 2616 413e
00000030: 18b2 f7bc cafa 163e 082f a03d abda f93d
00000040: 71fe 2ebb 6dfc 36bd ea18 90bd bcbd 673c
00000050: dfe2 b83c df45 f7bc 75d0 5ebd 9f58 0e3d
00000060: a824 5bbd 6497 6cbd 3925 303e 9fc7 cb3d
00000070: 07cf e43d 180d adbc 97ac ce3d 10f5 3abd
00000080: 2af8 a73d 6dc2 45bd ec0d f3bc 78d1 f2bd
00000090: aba7 1f3d 4368 17bc f85a 203d cc35 1a3d
000000a0: 8b5e 473d cf42 233e ba0e a53c d8ed 1c3d
000000b0: e9ce 4bbe 89d0 a839 e105 afbc df5c 093e
000000c0: ed01 d63b 5407 7d3d 5f80 563d 1b9d 8bbd
000000d0: e535 edbd f952 9e3d b0b7 463d 7e61 f2bd
000000e0: 8a3a 3f3c 428c 863d b357 d4bd 0721 8a3c
000000f0: 0173 59bd ce9d 533d 7fd9 303d 4d4d 88bd
00000100: f21d c5bd 1ec5 d0bd 22f3 01be 9ae2 18bc
00000110: 7d98 c03d 40a5 7a3d 1938 d6bc 1611 a03d
00000120: f27c ee3c aea0 78bd eeec 993d cd67 e3bd
00000130: f684 3c3b 3fda 843d 31bd 95bc c07b e1bd
00000140: e66b 56bd 5597 46be 28bf db3d d532 6bbd
00000150: 6180 793d c280 49be 0e44 8abc 2987 5d3d
00000160: 63d4 803d 1584 edbc 3b0c 10be 3dc7 ba3d
00000170: abbf b53d 3d86 6d3d 400a 88bd 798e 053d
00000180: 1333 453d de03 843d d31b c3bc 2e28 98bc
00000190: c50e 133d 52a0 493d 69cc 32bd c72e 5d3d
000001a0: 355d 903b d1e3 f33c 6fce 2d3d fde2 d5bc
000001b0: 7906 423c 8488 113d f5f9 f5bd 7344 19bd
000001c0: e92e f13d 3258 f4bd 3682 f33c 3970 903d
000001d0: cd6f 783d af3a e13d 7b46 3d3d 5bd9 8e3c
000001e0: b873 fd3b a309 d4bd 5f62 04bc 8883 84bd
000001f0: bcc4 dd3b f137 5c3e 4ad4 6ebd 0651 323e
00000200: 0edc fb3d 98f4 7ebd b050 8b3d 3770 ca3d
00000210: 0767 9c3c b5da 133e bd79 37be cded 423e
00000220: dfef c1bd 07a7 873c 5783 313e 67fd 92bd
00000230: ced9 a03d 706a 17bd 0625 dfbd fa90 153d
00000240: 0e40 8e3d 5d50 66bb 693f 0ebe 951c ba3d
00000250: 8b2a abbd cdb8 a93c e77d 353e c662 583d
00000260: 1024 de3d c1aa f33d 6766 9abd c14f 9e3a
00000270: 505b 19bc a3ee 083e 2ff4 babd 9647 07be
00000280: fdd4 4fbd 411b c63c 9272 3f3d 3714 ae3d
00000290: 3430 bfbd 9706 f03d c389 87bd c837 fdbd
000002a0: 5fd6 263e 4cf3 c43d 8647 4cbe 1cc3 66bc
000002b0: a587 28bd 184a 2d3d f063 d83d 55dc 4cbd
000002c0: 36bc e2bb 5078 34be 7496 bcbb 00aa 183e
000002d0: 1e7a a73d ff42 cabd 5974 66be 7196 de3c
000002e0: 51c9 b23d 7f55 783d dcf1 bebc ea8a 0e3d
000002f0: 5b4f 03be 1711 3ebd b559 75bd eb31 8cbd
00000300: 4d09 c13d 1a09 213d 69ca 2bbd 97be e7bd
00000310: 4f7b 40be 0767 863d 396f 083c 8d1e 693d
00000320: d655 f1bd 4104 8c3d bbc3 dd3d 84bd 0abe
00000330: 7bdd 4dbb 09a5 003d 1bc0 f5bd d8bb f9bd
00000340: e78f f13c f921 c1bd 5a9f 193e 3a15 8d3d
00000350: 024b c93c 380a a63d e388 81bd fbd9 833d
00000360: e727 d3bd 098e a8bd bd63 b53c 2d4c 1ebd
00000370: 0e12 e83d c16d 1dbd 3dcc 203d 11c6 ca3c
00000380: ccf1 d83d d069 b33c e531 0b3e 2a24 46bd
00000390: c5b6 ae3d c752 d2bd 4960 003e 40ed 923c
000003a0: 17da be3d c144 273d 4d38 c5bd b62b 583d
000003b0: f736 743d e030 d8bc a9fd c23d bd25 d8bd
000003c0: f85d dd3d f5b7 9e3d f0c7 09bd aa39 a3bd
000003d0: a6b2 5d3d 4cd4 cfbd 444c 6d3d d019 00be
000003e0: 1466 b43c 4e80 c5bc 8ca6 133c 3004 20bc
000003f0: bdbb af3d 4fb2 d5bc a619 f1bb 7842 79bd

network_body._body_endoder.seq_layers.2.bias f4 [128]
0.0 0.0 0.0 0.0 0.0 0.0 0.0 0.0
0.0 0.0 0.0 0.0 0.0 0.0 0.0 0.0
0.0 0.0 0.0 0.0 0.0 0.0 0.0 0.0
0.0 0.0 0.0 0.0 0.0 0.0 0.0 0.0
0.0 0.0 0.0 0.0 0.0 0.0 0.0 0.0
0.0 0.0 0.0 0.0 0.0 0.0 0.0 0.0
0.0 0.0 0.0 0.0 0.0 0.0 0.0 0.0
0.0 0.0 0.0 0.0 0.0 0.0 0.0 0.0
0.0 0.0 0.0 0.0 0.0 0.0 0.0 0.0
0.0 0.0 0.0 0.0 0.0 0.0 0.0 0.0
0.0 0.0 0.0 0.0 0.0 0.0 0.0 0.0
0.0 0.0 0.0 0.0 0.0 0.0 0.0 0.0
0.0 0.0 0.0 0.0 0.0 0.0 0.0 0.0
0.0 0.0 0.0 0.0 0.0 0.0 0.0 0.0
0.0 0.0 0.0 0.0 0.0 0.0 0.0 0.0
0.0 0.0 0.0 0.0 0.0 0.0 0.0 0.0
00000000: 0000 0000 0000 0000 0000 0000 0000 0000
00000010: 0000 0000 0000 0000 0000 0000 0000 0000
00000020: 0000 0000 0000 0000 0000 0000 0000 0000
00000030: 0000 0000 0000 0000 0000 0000 0000 0000
00000040: 0000 0000 0000 0000 0000 0000 0000 0000
00000050: 0000 0000 0000 0000 0000 0000 0000 0000
00000060: 0000 0000 0000 0000 0000 0000 0000 0000
00000070: 0000 0000 0000 0000 0000 0000 0000 0000
00000080: 0000 0000 0000 0000 0000 0000 0000 0000
00000090: 0000 0000 0000 0000 0000 0000 0000 0000
000000a0: 0000 0000 0000 0000 0000 0000 0000 0000
000000b0: 0000 0000 0000 0000 0000 0000 0000 0000
000000c0: 0000 0000 0000 0000 0000 0000 0000 0000
000000d0: 0000 0000 0000 0000 0000 0000 0000 0000
000000e0: 0000 0000 0000 0000 0000 0000 0000 0000
000000f0: 0000 0000 0000 0000 0000 0000 0000 0000
00000100: 0000 0000 0000 0000 0000 0000 0000 0000
00000110: 0000 0000 0000 0000 0000 0000 0000 0000
00000120: 0000 0000 0000 0000 0000 0000 0000 0000
00000130: 0000 0000 0000 0000 0000 0000 0000 0000
00000140: 0000 0000 0000 0000 0000 0000 0000 0000
00000150: 0000 0000 0000 0000 0000 0000 0000 0000
00000160: 0000 0000 0000 0000 0000 0000 0000 0000
00000170: 0000 0000 0000 0000 0000 0000 0000 0000
00000180: 0000 0000 0000 0000 0000 0000 0000 0000
00000190: 0000 0000 0000 0000 0000 0000 0000 0000
000001a0: 0000 0000 0000 0000 0000 0000 0000 0000
000001b0: 0000 0000 0000 0000 0000 0000 0000 0000
000001c0: 0000 0000 0000 0000 0000 0000 0000 0000
000001d0: 0000 0000 0000 0000 0000 0000 0000 0000
000001e0: 0000 0000 0000 0000 0000 0000 0000 0000
000001f0: 0000 0000 0000 0000 0000 0000 0000 0000

value_heads.value_heads.extrinsic.weight f4 [1, 128]
0.19807126 -0.10498244 0.14798032 -0.11265941 -0.1275639 -0.11726565 -0.05185649 0.11579313
0.000498864 -0.044377066 -0.10090483 0.040884323 0.09556667 0.048855685 0.18815944 0.0412785
0.0150897615 -0.07994902 -0.13954853 -0.2130422 0.10734108 0.07783679 0.103857055 0.027771508
0.19091414 0.19968976 0.1407797 -0.10016197 -0.17554022 -0.09600504 -0.18367435 0.04581859
-0.15401824 0.04392453 0.09669829 -0.08349706 -0.046337556 0.17397253 -0.07825614 0.104600236
-0.025966674 -0.19078936 0.13737872 0.01581947 -0.09991096 -0.15740103 -0.13341168 0.1493474
-0.124543756 -0.19476907 0.027904144 0.14471439 -0.1727815 -0.17181708 0.1096749 -0.05308059
0.028941128 -0.063011564 0.14688914 -0.19919933 0.113104165 -0.12149759 0.10431206 -0.13655064
0.03917635 0.11676111 0.181957 -0.18167992 -0.03578098 -0.085966446 -0.07578871 0.19213657
0.16459906 -0.07165055 -0.18130831 -0.08947227 -0.008002134 -0.15080826 -0.015404405 0.1585367
-0.16430587 0.055952232 0.115302004 0.048513878 -0.059836786 0.087521836 -0.18694888 0.18687323
0.1220932 0.12519175 -0.11577363 0.09641428 0.16649248 -0.025552934 0.0032131271 -0.18752064
0.1693191 0.05153146 0.0017716304 0.16296017 0.13368703 0.15510607 0.14549156 0.2119398
0.12965319 0.20168167 0.03428096 0.21003187 -0.16661482 0.18889095 0.015712056 -0.021565776
-0.17686118 0.044957146 0.18684697 -0.16384989 -0.1426531 -0.05782688 -0.17991972 -0.09120716
-0.20639363 0.03661786 0.17604594 0.14596015 -0.05925592 -0.11052867 0.15793587 -0.035400767
00000000: 31d3 4a3e 0901 d7bd 2788 173e fab9 e6bd
00000010: 1ca0 02be f928 f0bd 7967 54bd f324 ed3d
00000020: 32c6 023a bac4 35bd 31a7 cebd 5276 273d
00000030: 75b8 c33d e61c 483d deac 403e a513 293d
00000040: 0c3b 773c 50bc a3bd cfe5 0ebe bc27 5abe
00000050: a4d5 db3d e568 9f3d 02b3 d43d 1381 e33c
00000060: ff7e 433e 797b 4c3e 8e28 103e b821 cdbd
00000070: d1c0 33be 4a9e c4bd 2115 3cbe 46ac 3b3d
00000080: f5b6 1dbe 35ea 333d c109 c63d 8200 abbd
00000090: 73cc 3dbd db25 323e c144 a0bd a638 d63d
000000a0: 10b8 d4bc 495e 43be 02ad 0c3e d597 813c
000000b0: 1e9e ccbd bc2d 21be 129d 08be 86ee 183e
000000c0: cc10 ffbd 8b71 47be 3b97 e43c 0230 143e
000000d0: a2ed 30be d1f0 2fbe 3c9d e03d 086b 59bd
000000e0: f215 ed3c 350c 81bd 1b6a 163e e9fa 4bbe
000000f0: 28a3 e73d bad3 f8bd 90a1 d53d eed3 0bbe
00000100: 6177 203d 7320 ef3d f052 3a3e 4d0a 3abe
00000110: 148f 12bd 2d0f b0bd 1c37 9bbd 73bf 443e
00000120: a88c 283e 86bd 92bd e3a8 39be 3d3d b7bd
00000130: 621b 03bc 7b6d 1abe c262 7cbc 7257 223e
00000140: cc3f 28be 2b2e 653d 7523 ec3d 7db6 463d
00000150: 6b17 75bd a63e b33d 876f 3fbe b25b 3f3e
00000160: 000c fa3d 4432 003e ba1a edbd da74 c53d
00000170: 017d 2a3e 6354 d1bc 5493 523b 6905 40be
00000180: fc61 2d3e a712 533d 0d36 e83a 08df 263e
00000190: 41e5 083e 20d4 1e3e bdfb 143e bf06 593e
000001a0: cec3 043e a485 4e3e 316a 0c3d 9812 573e
000001b0: 139d 2abe a16c 413e 92b6 803c b6aa b0bc
000001c0: 191b 35be fc24 383d d054 3f3e 44c8 27be
000001d0: a713 12be e1db 6cbd e03c 38be d2ca babd
000001e0: da58 53be 9cfc 153d 6345 343e 9476 153e
000001f0: 56b6 72bd db5c e2bd f1b9 213e 6500 11bd
