results/ppo/MlAgent/MlAgent-4520.pt (torch, 273567 bytes, 14 tensors)

network_body._body_endoder.seq_layers.0.weight f4 [128, 124]
0.10205076 0.12874195 -0.028064338 -0.17593342 -0.08397754 0.04803806 0.13672307 -0.0498522
-0.19313872 0.003932977 -0.024984565 -0.06281224 0.12963672 0.17171285 -0.023629127 0.022996549
0.11869151 -0.034100123 -0.12784623 0.1453131 0.013476917 -0.00094131584 -0.13342647 0.035390683
0.2546428 0.11094471 -0.107792005 -0.04807243 0.034786087 0.0524292 0.07397345 -0.12480534
0.009669224 -0.0134493625 0.048594534 0.16133778 0.004635946 0.10179837 -0.057077076 0.037042655
-0.19646835 -0.068844005 0.11798872 0.00560806 0.10495425 -0.012634434 0.01927274 -0.044825707
0.083305575 -0.10277197 0.02354216 0.09099906 0.0134922145 -0.0855928 0.075654276 -0.100919895
0.0676509 0.09202663 -0.03787721 0.0062151384 -0.1502654 0.013850671 0.15224934 -0.1330771
0.055788238 -0.041600093 0.11470136 0.08124547 0.05757657 0.06025395 -0.08257968 -0.091541044
-0.07302038 0.09970351 0.11105077 0.1330676 0.059529174 -0.16987753 0.11471941 0.10125954
-0.11771112 0.011514399 -0.005305295 0.05677111 0.07867126 0.049014777 0.044142142 0.016933227
-0.11274756 -0.01818512 -0.017691383 0.082108594 -0.13433665 0.011039426 -0.06651655 -0.008090231
-0.038552575 -0.09519882 0.016702063 0.0054677906 0.048999093 -0.014977848 0.03435496 0.044260193
0.06348968 -0.09664343 -0.097217984 0.13034193 0.016393103 0.2493849 0.11843071 0.032286823
0.0005617785 0.16127211 0.046210602 -0.0026325553 0.007150541 0.19492203 -0.055241007 -0.019703934
0.028492717 0.035332605 -0.26678333 -0.057310782 0.1739852 -0.11012381 -0.023717532 0.11525548
-0.12097121 -0.20375237 0.023227524 -0.14714356 0.034181595 -0.012864147 -0.0049531804 0.09264684
0.15788679 0.13169676 0.013561018 0.12405787 -0.05541178 0.09581681 -0.13508618 -0.0031127671
0.1154995 0.0017241292 0.009592537 0.045289703 0.0054668784 -0.017658478 0.073091656 -0.005152413
0.0784379 0.08469992 -0.0064196615 -0.020397818 -0.15856232 -0.061032414 0.035790283 0.19107538
-0.06985288 -0.056224532 -0.09552444 -0.14997885 0.03872851 0.02601801 0.23385024 -0.25220904
-0.1051318 -0.066084355 -0.07996024 0.06604924 0.0018172738 -0.14060378 0.0886728 -0.048788637
-0.029892994 -0.06978281 0.22142899 0.09146127 0.033212256 0.1233694 0.06296386 0.0843941
-0.018546026 0.0051675607 0.10015076 0.16278946 0.1728146 0.1187643 0.093769416 0.049043346
-0.055405863 0.13442762 0.025284046 -0.027157264 -0.04568985 0.052449383 -0.194074 -0.082371235
-0.07691705 -0.026502794 0.09041552 -0.054603245 -0.027478982 0.009650902 -0.010439848 -0.022376189
0.015031925 -0.059379376 0.024775568 0.05456977 -0.049643457 0.015319824 -0.00029816036 0.019167274
-0.008746785 -0.14381167 -0.120111614 -0.02911664 -0.11999005 -0.04880189 0.07445718 0.07066645
-0.0035803246 0.05353895 0.007646532 0.032709472 0.013507742 -0.05243459 -0.0012447526 0.05171045
-0.012041884 -0.07355046 -0.08329923 0.006917874 0.053658195 0.038111888 -0.12398082 -0.08631245
0.1512878 -0.13209255 0.068298526 0.22560087 0.005844077 -0.109802164 -0.04447575 0.0074293716
-0.029482955 0.008532355 0.0014647709 -0.032442383 -0.024096651 -0.13298996 0.034581497 0.007974637
00000000: fdff d03d eed4 033e 2fe7 e5bc e427 34be
00000010: 6bfc abbd 8fc3 443d 2201 0c3e d231 4cbd
00000020: 28c6 45be 34e0 803b 6eac ccbc b4a3 80bd
00000030: 7dbf 043e 7ed5 2f3e df91 c1bc 4263 bc3c
00000040: 8914 f33d 92ac 0bbd 1fea 02be f5cc 143e
00000050: 49ce 5c3c a3c2 76ba f3a0 08be d2f5 103d
00000060: 8b60 823e fb36 e33d 0ec2 dcbd 99e7 44bd
00000070: db7b 0e3d 00c0 563d 647f 973d f199 ffbd
00000080: aa6b 1e3c b75a 5cbc 100b 473d bb35 253e
00000090: 22e9 973b aa7b d03d a7c9 69bd 0aba 173d
000000a0: 002f 49be 16fe 8cbd 12a4 f13d d1c3 b73b
000000b0: 41f2 d63d a800 4fbc dee1 9d3c 299b 37bd
000000c0: 1d9c aa3d 1c7a d2bd 7ddb c03c b75d ba3d
000000d0: 730e 5d3c 474b afbd a1f0 9a3d 17af cebd
000000e0: 8e8c 8a3d 7578 bc3d 2225 1bbd 5ca8 cb3b
000000f0: 2cdf 19be eded 623c 40e7 1b3e 5d45 08be
00000100: 3582 643d dc64 2abd 8ce8 ea3d 0664 a63d
00000110: 69d5 6b3d d9cc 763d 891f a9bd df79 bbbd
00000120: b68b 95bd 5b31 cc3d 966e e33d df42 083e
00000130: ddd4 733d 60f4 2dbe 03f2 ea3d 2961 cf3d
00000140: 8712 f1bd e4a6 3c3c 0ad8 adbb d388 683d
00000150: 661e a13d b8c3 483d 64ce 343d 8db7 8a3c
00000160: 31e8 e6bd f6f8 94bc 85ed 90bc 8d28 a83d
00000170: 8c8f 09be b5de 343c d439 88bd e38c 04bc
00000180: 4ee9 1dbd 99f7 c2bd c4d2 883c 272b b33b
00000190: 46b3 483d a665 75bc c9b7 0c3d 2d4a 353d
000001a0: e106 823d feec c5bd 391a c7bd 5b78 053e
000001b0: d44a 863c c15e 7f3e cd8b f23d 303f 043d
000001c0: 5144 133a 8424 253e 5447 3d3d f386 2cbb
000001d0: 164f ea3b a499 473e 6544 62bd 256a a1bc
000001e0: 8f69 e93c ecb8 103d d397 88be b6be 6abd
000001f0: 2d29 323e 9888 e1bd 454b c2bc 110b ec3d
00000200: c1bf f7bd 76a4 50be a647 be3c cdac 16be
00000210: 0002 0c3d 25c4 52bc 4a4e a2bb a0bd bd3d
00000220: 13ad 213e 84db 063e 082f 5e3c 0d12 fe3d
00000230: 76f7 62bd 9b3b c43d 0854 0abe 91ff 4bbb
00000240: 008b ec3d 2dfc e13a 042a 1d3c b281 393d
00000250: 8023 b33b 83a8 90bc 14b1 953d 93d5 a8bb
00000260: 0da4 a03d 2777 ad3d 065c d2bb 5319 a7bc
00000270: 295e 22be 20fd 79bd d598 123d 44a9 433e
00000280: 070f 8fbd b24b 66bd 51a2 c3bd 0e94 19be
00000290: c9a1 1e3d b923 d53c 7076 6f3e 8b21 81be
000002a0: 574f d7bd 3c57 87bd 32c2 a3bd d344 873d
000002b0: 9731 ee3a 70fa 0fbe 169a b53d 98d6 47bd
000002c0: 27e2 f4bc 4aea 8ebd 48be 623e 0c50 bb3d
000002d0: 9309 083d 19a9 fc3d 32f3 803d d0d6 ac3d
000002e0: d6ed 97bc a454 a93b d71b cd3d 48b2 263e
000002f0: 4ff6 303e b33a f33d 2e0a c03d ade1 483d
00000300: 42f1 62bd 65a7 093e 7d20 cf3c e978 debc
00000310: 4825 3bbd 2ad5 563d 56bb 46be 40b2 a8bd
00000320: b086 9dbd 631c d9bc c62b b93d a7a7 5fbd
00000330: 9a1b e1bc d11e 1e3c e50b 2bbc 454e b7bc
00000340: 7748 763c ca37 73bd 22f6 ca3c 8d84 5f3d
00000350: f056 4bbd 0000 7b3c 6852 9cb9 b004 9d3c
00000360: ad4e 0fbc 5e43 13be 14fd f5bd 0586 eebc
00000370: 58bd f5bd 7ee4 47bd 027d 983d 92b9 903d
00000380: e1a3 6abb a84b 5b3d c28f fa3b 5efa 053d
00000390: 944f 5d3c a7c5 56bd f726 a3ba 56ce 533d
000003a0: 524b 45bc a0a1 96bd c998 aabd 55af e23b
000003b0: b2c8 5b3d 361b 1c3d a8e9 fdbd 95c4 b0bd
000003c0: 30eb 1a3e 4543 07be 19e0 8b3d ea03 673e
000003d0: ac7f bf3b f5df e0bd 342c 36bd 1672 f33b
000003e0: 3d86 f1bc 4acb 0b3c 8efd bf3a 4ee2 04bd
000003f0: 5766 c5bc 852e 08be 54a5 0d3d 0da8 023c

network_body._body_endoder.seq_layers.0.bias f4 [128]
0.0 0.0 0.0 0.0 0.0 0.0 0.0 0.0
0.0 0.0 0.0 0.0 0.0 0.0 0.0 0.0
0.0 0.0 0.0 0.0 0.0 0.0 0.0 0.0
0.0 0.0 0.0 0.0 0.0 0.0 0.0 0.0
0.0 0.0 0.0 0.0 0.0 0.0 0.0 0.0
0.0 0.0 0.0 0.0 0.0 0.0 0.0 0.0
0.0 0.0 0.0 0.0 0.0 0.0 0.0 0.0
0.0 0.0 0.0 0.0 0.0 0.0 0.0 0.0
0.0 0.0 0.0 0.0 0.0 0.0 0.0 0.0
0.0 0.0 0.0 0.0 0.0 0.0 0.0 0.0
0.0 0.0 0.0 0.0 0.0 0.0 0.0 0.0
0.0 0.0 0.0 0.0 0.0 0.0 0.0 0.0
0.0 0.0 0.0 0.0 0.0 0.0 0.0 0.0
0.0 0.0 0.0 0.0 0.0 0.0 0.0 0.0
0.0 0.0 0.0 0.0 0.0 0.0 0.0 0.0
0.0 0.0 0.0 0.0 0.0 0.0 0.0 0.0
00000000: 0000 0000 0000 0000 0000 0000 0000 0000
00000010: 0000 0000 0000 0000 0000 0000 0000 0000
00000020: 0000 0000 0000 0000 0000 0000 0000 0000
00000030: 0000 0000 0000 0000 0000 0000 0000 0000
00000040: 0000 0000 0000 0000 0000 0000 0000 0000
00000050: 0000 0000 0000 0000 0000 0000 0000 0000
00000060: 0000 0000 0000 0000 0000 0000 0000 0000
00000070: 0000 0000 0000 0000 0000 0000 0000 0000
00000080: 0000 0000 0000 0000 0000 0000 0000 0000
00000090: 0000 0000 0000 0000 0000 0000 0000 0000
000000a0: 0000 0000 0000 0000 0000 0000 0000 0000
000000b0: 0000 0000 0000 0000 0000 0000 0000 0000
000000c0: 0000 0000 0000 0000 0000 0000 0000 0000
000000d0: 0000 0000 0000 0000 0000 0000 0000 0000
000000e0: 0000 0000 0000 0000 0000 0000 0000 0000
000000f0: 0000 0000 0000 0000 0000 0000 0000 0000
00000100: 0000 0000 0000 0000 0000 0000 0000 0000
00000110: 0000 0000 0000 0000 0000 0000 0000 0000
00000120: 0000 0000 0000 0000 0000 0000 0000 0000
00000130: 0000 0000 0000 0000 0000 0000 0000 0000
00000140: 0000 0000 0000 0000 0000 0000 0000 0000
00000150: 0000 0000 0000 0000 0000 0000 0000 0000
00000160: 0000 0000 0000 0000 0000 0000 0000 0000
00000170: 0000 0000 0000 0000 0000 0000 0000 0000
00000180: 0000 0000 0000 0000 0000 0000 0000 0000
00000190: 0000 0000 0000 0000 0000 0000 0000 0000
000001a0: 0000 0000 0000 0000 0000 0000 0000 0000
000001b0: 0000 0000 0000 0000 0000 0000 0000 0000
000001c0: 0000 0000 0000 0000 0000 0000 0000 0000
000001d0: 0000 0000 0000 0000 0000 0000 0000 0000
000001e0: 0000 0000 0000 0000 0000 0000 0000 0000
000001f0: 0000 0000 0000 0000 0000 0000 0000 0000

network_body._body_endoder.seq_layers.2.weight f4 [128, 128]
-0.056657843 -0.00783079 0.023508063 -0.014616676 -0.036851294 -0.03189671 -0.015494549 -0.029013408
0.033615842 -0.0051576495 -0.16330466 0.023716498 0.06508541 -0.14095163 -0.13509278 -0.057591792
0.11806589 0.12856618 0.09268422 0.1975976 -0.0911296 -0.22252609 0.06444373 -0.037778165
-0.076314904 -0.093074314 -0.03172271 0.13286592 -0.28905568 0.121680245 -0.032777842 0.02214154
-0.017397584 -0.01830859 0.065378904 0.09634167 -0.13045356 0.033745266 -0.069020666 -0.14031509
0.12409426 -0.021944309 -0.012270942 -0.090403706 0.07895496 -0.09193138 0.16404952 0.16256052
-0.098785214 -0.054638594 0.019608496 0.13253386 0.13791244 -0.025959644 -0.030117558 0.17947902
-0.06111813 0.00036112324 0.07321446 0.031878646 -0.06686739 -0.12605295 -0.0025386433 -0.04085284
-0.13998698 -0.077969395 0.023341693 -0.032791197 0.09432961 -0.09973814 -0.044313755 -0.07587296
0.039125107 -0.0740321 0.1862953 0.033643678 0.121413276 0.043278486 -0.23991676 0.0074504656
0.03255765 -0.08423432 -0.011429091 0.06266845 0.1686724 0.07549654 0.115274295 -0.014626403
-0.03247937 -0.03814164 0.016848208 0.057454567 0.06679842 -0.0013375762 0.13213114 0.0166378
0.031673532 0.0029571387 0.04944356 -0.15295331 -0.07441461 0.11048208 -0.16727176 -0.11352901
0.034517873 -0.005255485 0.104393095 -0.20171009 -0.016559426 0.044953864 0.038159505 -0.014888111
-0.021424629 0.02905193 -0.19596279 0.017519865 0.08043825 0.038722064 0.0003771777 -0.047521546
0.016417552 0.05002443 0.16983052 0.04285264 0.07812315 -0.091571204 -0.058349293 -0.0040432075
0.10232396 -0.16497217 -0.1505383 0.015322538 -0.16155194 0.057414692 -0.083044015 0.013193656
-0.13983294 0.08518094 -0.008537333 0.026491715 0.11572938 -0.02620362 -0.060469184 0.028099498
0.01329557 0.10136435 -0.1413812 0.061322793 0.075926356 0.26025528 0.20064999 0.063308075
-0.07259947 0.16324642 0.054344956 0.049248356 -0.006071027 0.1393772 -0.012454078 0.03964572
0.055921253 -0.020915696 0.011215025 0.11047513 -0.046330437 0.04085702 0.10540307 0.15908195
-0.019648561 0.015106514 0.02982602 -0.0119110625 -0.039072726 0.04444154 -0.053903326 0.09427184
0.056233216 -0.03615232 -0.08585193 0.075434014 -0.12686338 -0.09668447 -0.1695789 -0.14239344
-0.08014628 0.1044298 -0.015073394 -0.009239572 0.1009761 -0.104867764 0.025948597 -0.092745654
0.03818639 0.036339797 -0.043553542 0.0075469688 -0.034771454 0.13908489 0.0026995835 -0.10602895
-0.05838321 0.027140303 -0.14838794 -0.023831358 0.09714851 0.14319213 0.043190226 -0.035817184
0.01594076 -0.105639674 0.1339338 0.12574357 -0.07721951 0.17326058 0.0426547 0.015317875
0.06336029 -0.15671228 0.09972632 -0.032105442 0.096671686 0.06472045 -0.17113845 -0.08243836
0.000289234 0.0029190667 -0.010051821 0.016240593 0.25255218 -0.14117458 -0.024300909 0.05805889
-0.015536633 -0.017614521 0.07671887 -0.11695502 -0.040995743 0.048335005 0.07868581 0.045491
-0.114590906 -0.13637847 -0.00031024584 0.051684 0.012882403 0.11610909 -0.0031740828 -0.02489349
0.12109488 0.007439903 -0.06465974 -0.06515541 -0.03409956 -0.19210137 -0.08714338 0.10300681
00000000: 0e12 68bd b74c 00bc fb93 c03c c87a 6fbc
00000010: 62f1 16bd 20a6 02bd d9dc 7dbc 87ad edbc
00000020: c4b0 093d 8001 a9bb 5639 27be 1a49 c23c
00000030: 804b 853d a055 10be c355 0abe 5fe5 6bbd
00000040: 88cc f13d daa6 033e 39d1 bd3d 0657 4a3e
00000050: 28a2 babd e1dd 63be 13fb 833d 47bd 1abd
00000060: fd4a 9cbd bf9d bebd acef 01bd 010e 083e
00000070: 1bff 93be 7e33 f93d 0f42 06bd 2d62 b53c
00000080: 6185 8ebc e5fb 95bc 60e5 853d c84e c53d
00000090: 9e95 05be 7a38 0a3d b55a 8dbd c2ae 0fbe
000000a0: 2225 fe3d 8dc4 b3bc 100c 49bc 9425 b9bd
000000b0: 23b3 a13d 8546 bcbd 99fc 273e 4476 263e
000000c0: e74f cabd b8cc 5fbd ffa1 a03c f5b6 073e
000000d0: eb38 0d3e 52a9 d4bc 19b9 f6bc 59c9 373e
000000e0: 0157 7abd 2455 bd39 76f1 953d 2f93 023d
000000f0: c5f1 88bd 0614 01be 5e5f 26bb 4f55 27bd
00000100: bf58 0fbe 6bae 9fbd 1437 bf3c 1050 06bd
00000110: e22f c13d 8343 ccbd 5782 35bd 4863 9bbd
00000120: a641 203d 249e 97bd 32c4 3e3e f4cd 093d
00000130: 86a7 f83d c844 313d bdac 75be 0923 f43b
00000140: 2c5b 053d 0b83 acbd 1541 3bbc 5158 803d
00000150: 75b8 2c3e ee9d 9a3d ee14 ec3d 95a3 6fbc
00000160: 1609 05bd 693a 1cbd 4105 8a3c 7b55 6b3d
00000170: 9ccd 883d 9c51 afba 634d 073e ff4b 883c
00000180: 1bbc 013d 8ecc 413b 5585 4a3d cb9f 1cbe
00000190: b066 98bd 6e44 e23d 4a49 2bbe e681 e8bd
000001a0: 9d62 0d3d 3436 acbb 0ccc d53d 178d 4ebe
000001b0: a2a7 87bc 8b21 383d 244d 1c3d 43ed 73bc
000001c0: b482 afbc 50fe ed3c 78aa 48be d285 8f3c
000001d0: cfbc a43d 079b 1e3d efbf c539 f4a5 42bd
000001e0: 1a7e 863c 6be6 4c3d 0de8 2d3e 4086 2f3d
000001f0: 08ff 9f3d af89 bbbd abff 6ebd e27c 84bb
00000200: 398f d13d 77ee 28be b626 1abe 620b 7b3c
00000210: df6d 25be ab2b 6b3d fb12 aabd 342a 583c
00000220: 5e30 0fbe 5873 ae3d 2ce0 0bbc 2705 d93c
00000230: 8603 ed3d f9a8 d6bc 89ae 77bd eb30 e63c
00000240: aad5 593c 1d98 cf3d 3cc6 10be 9c2d 7b3d
00000250: 477f 9b3d 2e40 853e 3177 4d3e aaa7 813d
00000260: 08af 94bd 122a 273e d198 5e3d a5b8 493d
00000270: 77ef c6bb e6b8 0e3e 300c 4cbc 8d63 223d
00000280: af0d 653d 6557 abbc 39bf 373c c940 e23d
00000290: fcc4 3dbd b159 273d 91dd d73d 61e6 223e
000002a0: 05f6 a0bc 5081 773c b355 f43c 9e26 43bc
000002b0: b90a 20bd 5508 363d bcc9 5cbd 9811 c13d
000002c0: cd54 663d 7514 14bd 23d3 afbd 267d 9a3d
000002d0: 79e8 01be 8202 c6bd 17a6 2dbe 96cf 11be
000002e0: bc23 a4bd 4adf d53d 66f6 76bc 9361 17bc
000002f0: 8fcc ce3d e9c4 d6bd 2792 d43c 6ff1 bdbd
00000300: 5569 1c3d 0ad9 143d 3365 32bd 904c f73b
00000310: 836c 0ebd 456c 0e3e 7feb 303b b525 d9bd
00000320: 3c23 6fbd 5755 de3c 02f3 17be fb39 c3bc
00000330: ccf5 c63d f5a0 123e 3ce8 303d 0ab5 12bd
00000340: 3296 823c 9d59 d8bd f125 093e ecc2 003e
00000350: 4325 9ebd 396b 313e b2b6 2e3d d3f7 7a3c
00000360: 0ac3 813d 2f79 20be 503d cc3d ff80 03bd
00000370: cefb c53d 288c 843d eb3e 2fbe 71d5 a8bd
00000380: 55a4 9739 d04d 3f3b 65b0 24bc fe0a 853c
00000390: 854e 813e 1290 10be b312 c7bc 29cf 6d3d
000003a0: 5d8d 7ebc 544c 90bc c81e 9d3d 1d86 efbd
000003b0: 27eb 27bd edfa 453d 0726 a13d c554 3a3d
000003c0: a3ae eabd cca6 0bbe 7ea8 a2b9 9ab2 533d
000003d0: b710 533c 9aca ed3d 4604 50bb 6fed cbbc
000003e0: 9800 f83d 6eca f33b 536c 84bd 3370 85bd
000003f0: fbab 0bbd 39b6 44be 3a78 b2bd 3cf5 d23d

network_body._body_endoder.seq_layers.2.bias f4 [128]
0.0 0.0 0.0 0.0 0.0 0.0 0.0 0.0
0.0 0.0 0.0 0.0 0.0 0.0 0.0 0.0
0.0 0.0 0.0 0.0 0.0 0.0 0.0 0.0
0.0 0.0 0.0 0.0 0.0 0.0 0.0 0.0
0.0 0.0 0.0 0.0 0.0 0.0 0.0 0.0
0.0 0.0 0.0 0.0 0.0 0.0 0.0 0.0
0.0 0.0 0.0 0.0 0.0 0.0 0.0 0.0
0.0 0.0 0.0 0.0 0.0 0.0 0.0 0.0
0.0 0.0 0.0 0.0 0.0 0.0 0.0 0.0
0.0 0.0 0.0 0.0 0.0 0.0 0.0 0.0
0.0 0.0 0.0 0.0 0.0 0.0 0.0 0.0
0.0 0.0 0.0 0.0 0.0 0.0 0.0 0.0
0.0 0.0 0.0 0.0 0.0 0.0 0.0 0.0
0.0 0.0 0.0 0.0 0.0 0.0 0.0 0.0
0.0 0.0 0.0 0.0 0.0 0.0 0.0 0.0
0.0 0.0 0.0 0.0 0.0 0.0 0.0 0.0
00000000: 0000 0000 0000 0000 0000 0000 0000 0000
00000010: 0000 0000 0000 0000 0000 0000 0000 0000
00000020: 0000 0000 0000 0000 0000 0000 0000 0000
00000030: 0000 0000 0000 0000 0000 0000 0000 0000
00000040: 0000 0000 0000 0000 0000 0000 0000 0000
00000050: 0000 0000 0000 0000 0000 0000 0000 0000
00000060: 0000 0000 0000 0000 0000 0000 0000 0000
00000070: 0000 0000 0000 0000 0000 0000 0000 0000
00000080: 0000 0000 0000 0000 0000 0000 0000 0000
00000090: 0000 0000 0000 0000 0000 0000 0000 0000
000000a0: 0000 0000 0000 0000 0000 0000 0000 0000
000000b0: 0000 0000 0000 0000 0000 0000 0000 0000
000000c0: 0000 0000 0000 0000 0000 0000 0000 0000
000000d0: 0000 0000 0000 0000 0000 0000 0000 0000
000000e0: 0000 0000 0000 0000 0000 0000 0000 0000
000000f0: 0000 0000 0000 0000 0000 0000 0000 0000
00000100: 0000 0000 0000 0000 0000 0000 0000 0000
00000110: 0000 0000 0000 0000 0000 0000 0000 0000
00000120: 0000 0000 0000 0000 0000 0000 0000 0000
00000130: 0000 0000 0000 0000 0000 0000 0000 0000
00000140: 0000 0000 0000 0000 0000 0000 0000 0000
00000150: 0000 0000 0000 0000 0000 0000 0000 0000
00000160: 0000 0000 0000 0000 0000 0000 0000 0000
00000170: 0000 0000 0000 0000 0000 0000 0000 0000
00000180: 0000 0000 0000 0000 0000 0000 0000 0000
00000190: 0000 0000 0000 0000 0000 0000 0000 0000
000001a0: 0000 0000 0000 0000 0000 0000 0000 0000
000001b0: 0000 0000 0000 0000 0000 0000 0000 0000
000001c0: 0000 0000 0000 0000 0000 0000 0000 0000
000001d0: 0000 0000 0000 0000 0000 0000 0000 0000
000001e0: 0000 0000 0000 0000 0000 0000 0000 0000
000001f0: 0000 0000 0000 0000 0000 0000 0000 0000

action_model._continuous_distribution.log_sigma f4 [1, 3]
0.0 0.0 0.0
00000000: 0000 0000 0000 0000 0000 0000

action_model._continuous_distribution.mu.weight f4 [3, 128]
0.017999623 -0.008995182 0.033952773 0.0052712196 -0.0065119355 -0.0067827464 -0.010269959 -0.0066855247
0.013854376 0.0048792674 -0.014579532 0.01922217 0.018071352 0.0040138457 0.021547062 0.005878502
-0.014424778 -0.01794138 -0.009291594 0.021815958 -0.0010933949 0.02742814 -0.019623926 0.02298145
0.0018123133 -0.0073489505 0.013963053 -0.012306611 0.031359363 -0.017226603 -0.017267508 -0.015401566
0.016048394 0.015625134 0.008860635 -0.00074731256 0.016058143 -0.014091516 -0.010685156 0.04597393
-0.0045356383 -0.0061823702 0.014809029 -0.021374179 -0.021461837 -0.0031620737 -0.008587281 -0.004981639
0.009321343 0.0081750695 0.00878263 -0.015398415 -0.021455174 0.041645523 -0.020135717 -0.020431148
0.003040804 -0.0024954581 0.003895151 0.0054947473 -0.013517926 -0.019710882 0.0033882856 0.027273113
0.015356518 -0.0037153375 0.002724202 0.0061709466 0.02509271 0.001973501 0.039318167 -0.006548643
-0.0053098644 0.013076954 -0.0025782608 0.006086962 -0.010029045 -0.0011077775 0.011047767 0.04314756
0.0007836781 0.007913052 0.013640456 -0.021993272 0.004002745 -0.022723973 0.009306128 -0.016469589
0.011425704 0.018651823 0.008450418 0.010635699 0.019599892 -0.0060246084 -0.026458297 0.015931172
0.00039872053 0.0072760875 0.016015023 -0.015811155 -0.0034914785 0.009219873 -0.01404876 0.027467549
0.006657665 -0.013514519 0.0025168469 -0.026613606 -0.024137909 -0.005972607 0.0148929 -0.018615482
0.0034313349 0.00041465802 0.031463753 0.007537698 -0.012142549 -0.009749494 0.009979598 0.0077911667
0.029458288 0.020755393 0.001691057 0.016589414 0.0012441664 -0.01130139 0.006827444 -5.050265e-05
0.017889202 0.0019906044 0.0086864885 -0.012242862 -0.038131997 0.01690484 -0.014481175 0.012406944
0.030394306 0.008960134 -0.01348225 0.0012787953 0.026536316 -0.015096451 -0.017569376 0.010765455
-0.023392696 0.01410419 7.902673e-05 0.0041196183 0.0207001 0.007685829 -0.019102322 0.020595565
-0.0051848358 0.015305884 -0.0018939415 -0.025846308 0.033001024 -0.005306817 -0.020318206 0.0017961074
0.0068534636 -0.012426829 0.010560374 0.00070704607 -0.010982111 -0.02962769 0.043786857 0.0164498
0.0024272387 -0.010433924 -0.0029820902 0.013015429 0.008403516 0.03253464 0.027106756 0.02817038
-0.017149834 0.008291952 -0.0064447 0.019893516 -0.0066778525 -0.025967175 0.041653126 0.024108207
0.0056847665 0.00047230316 -0.0017597331 0.006688162 -0.001346365 -0.02391252 0.0004872492 0.009560437
0.0037631511 0.012214985 -0.02724093 -0.009314886 0.0014759331 -0.022440286 0.022274483 0.026745165
-0.0066292114 -0.012408613 -0.0053423992 -0.008239637 0.011275896 0.023287743 -0.02658968 -0.0015810457
-0.0097276885 0.0051972154 0.005911584 -0.016017217 -0.0007767719 0.004059039 0.0033200344 0.0060012885
-0.011299459 -0.031539936 -0.0129969185 -0.0007540106 -0.014700814 -0.007792157 -0.015868463 -0.012524922
0.00021844018 0.005781989 -0.0073018484 0.014440812 0.021570066 0.019586055 0.029737968 -0.025786197
0.026213676 0.0067733163 -0.0025433837 0.0029741595 0.011572289 -0.00082080637 -0.0015326422 -0.018532215
0.0073476657 -0.028697181 0.0044998038 -0.004085508 0.027665406 -0.052167874 0.016295237 0.005437502
-0.02217509 -0.0053505776 -0.009940181 0.044516414 0.005154973 0.001098102 -0.0012135953 -0.024743613
00000000: f273 933c 8760 13bc 1012 0b3d 32ba ac3b
00000010: 1362 d5bb cd41 debb 5543 28bc 3f12 dbbb
00000020: 77fd 623c 43e2 9f3b fdde 6ebc d077 9d3c
00000030: 5f0a 943c 9486 833b 7783 b03c 73a0 c03b
00000040: e755 6cbc cdf9 92bc c53b 18bc 61b7 b23c
00000050: 3f50 8fba fbb0 e03c 5bc2 a0bc 9843 bc3c
00000060: 258b ed3a 77cf f0bb 4ac5 643c aba1 49bc
00000070: ad72 003d ce1e 8dbc 9774 8dbc da56 7cbc
00000080: ec77 833c 4800 803c 322c 113c 4ce7 43ba
00000090: 5e8c 833c 1ae0 66bc cb10 2fbc 294f 3c3d
000000a0: b19f 94bb 7b95 cabb 92a1 723c e718 afbc
000000b0: bcd0 afbc cb3a 4fbb abb1 0cbc 043d a3bb
000000c0: 8cb8 183c baf0 053c 05e5 0f3c a249 7cbc
000000d0: c3c2 afbc 7f94 2a3d a9f3 a4bc 395f a7bc
000000e0: 3a48 473b d78a 23bb ca45 7f3b 480d b43b
000000f0: 4b7a 5dbc b778 a1bc 000e 5e3b dd6b df3c
00000100: e899 7b3c 057d 73bb 8688 323b a735 ca3b
00000110: 3a8f cd3c da55 013b 160c 213d 0096 d6bb
00000120: 5ffe adbb b840 563c 0af8 28bb 2375 c73b
00000130: dd50 24bc d832 91ba b101 353c 7fbb 303d
00000140: bf6f 4d3a bfa5 013c 387c 5f3c 3c2b b4bc
00000150: 7529 833b a027 babc bb78 183c 3beb 86bc
00000160: e032 3b3c b5cb 983c 9f73 0a3c 5b41 2e3c
00000170: f48f a03c 146a c5bb 12bf d8bc 1782 823c
00000180: 5d0b d139 3f6c ee3b f031 833c 6586 81bc
00000190: 4ad1 64bb f30e 173c c52c 66bc a003 e13c
000001a0: 8b28 da3b 006c 5dbc aff1 243b c704 dabc
000001b0: ddbc c5bc dcb5 c3bb 5a01 743c 7f7f 98bc
000001c0: 3fe0 603b 7566 d939 23e0 003d cbfe f63b
000001d0: 8bf1 46bc 57bc 1fbc 7881 233c 0b4d ff3b
000001e0: 8252 f13c 3707 aa3c 75a6 dd3a 86e6 873c
000001f0: 4c13 a33a 7729 39bc c0b8 df3b cfd2 53b8
00000200: 608c 923c cd74 023b c651 0e3c 4996 48bc
00000210: 4c30 1cbd 057c 8a3c 7342 6dbc 7f46 4b3c
00000220: 7bfd f83c 87cd 123c a8e4 5cbc 409d a73a
00000230: b062 d93c 1b57 77bc a7ed 8fbc 9761 303c
00000240: 0aa2 bfbc 4315 673c 27bb a538 ddfd 863b
00000250: 4293 a93c 68d9 fb3b 797c 9cbc 08b8 a83c
00000260: 8ee5 a9bb 88c5 7a3c 223e f8ba a3bb d3bc
00000270: 152c 073d cfe4 adbb 5e72 a6bc 5d6b eb3a
00000280: 0593 e03b e699 4bbc 6b05 2d3c 0f59 393a
00000290: 50ee 33bc c5b5 f2bc d959 333d bbc1 863c
000002a0: 4f12 1f3b 0df3 2abc 2c6f 43bb aa3e 553c
000002b0: e7ae 093c 0b43 053d fd0e de3c 92c5 e63c
000002c0: cf7d 8cbc f8da 073c 102e d3bb baf7 a23c
000002d0: e3d1 dabb 1db9 d4bc 789c 2a3d 937e c53c
000002e0: 4747 ba3b 759f f739 d8a6 e6ba 5f28 db3b
000002f0: 8378 b0ba 30e4 c3bc 7b75 ff39 61a3 1c3c
00000300: 339f 763b 5c21 483c 5f28 dfbc 779d 18bc
00000310: 1974 c13a b1d4 b7bc fa78 b63c ad18 db3c
00000320: db39 d9bb 7f4d 4bbc 4b0f afbb 8bff 06bc
00000330: 89be 383c f0c5 be3c 9ad2 d9bc 173b cfba
00000340: e260 1fbc 674d aa3b f6b5 c13b 8a36 83bc
00000350: 48a0 4bba b001 853b ef94 593b 75a6 c43b
00000360: 5e21 39bc 0530 01bd 07f1 54bc cba8 45ba
00000370: afdb 70bc 5a55 ffbb 94fe 81bc 5535 4dbc
00000380: 170d 6539 d776 bd3b 5844 efbb 2899 6c3c
00000390: b5b3 b03c ef72 a03c 0a9d f33c 933d d3bc
000003a0: 10be d63c b2f2 dd3b e6ae 26bb 1eea 423b
000003b0: b399 3d3c 622b 57ba f0e2 c8ba dfd0 97bc
000003c0: b0c4 f03b 5a16 ebbc 1773 933b badf 85bb
000003d0: 90a2 e23c fbad 55bd 977d 853c 132d b23b
000003e0: 89a8 b5bc e653 afbb 24dc 22bc d856 363d
000003f0: 0ceb a83b 30ee 8f3a 8011 9fba 1eb3 cabc

action_model._continuous_distribution.mu.bias f4 [3]
0.0 0.0 0.0
00000000: 0000 0000 0000 0000 0000 0000

action_model._discrete_distribution.branches.0.weight f4 [3, 128]
0.0067192363 -0.00789806 0.0013492105 0.011927529 -0.01416263 0.012849336 0.007552404 -0.004182817
0.0048191287 -0.014015408 0.01580595 -0.011907279 -0.0031501234 0.011070141 -0.009108909 -0.0078066303
0.00041429276 0.022441655 -0.001008415 0.010522906 -0.002006345 0.0034152765 -0.0011796115 0.0032074747
0.015322253 0.010587337 -0.008436607 0.007832254 -0.0049647274 -0.012355827 0.0075116716 0.020273102
-0.0019593807 0.009192245 0.0058895713 0.005554225 -0.010458145 -0.002141482 -0.006688262 0.008215593
-0.0028562166 0.003296528 0.0057156105 0.011396873 -0.004747323 -0.015240562 0.01027236 -0.012916485
-0.0043444857 0.0009519633 0.005049566 -0.0039260867 0.013968867 0.0018709152 0.0029564274 -0.0012557985
-0.012696641 -0.004695258 0.01225202 -0.0022780804 0.013698302 0.00051392027 0.0018166638 0.004086253
-0.0049547995 -0.01196426 -0.0049803774 0.0011197471 0.0027559118 -0.006312585 0.0090810545 0.0037477617
-0.008489153 0.015006109 -0.014877922 -0.013140276 -0.008214723 -0.010462303 0.008244683 0.003625114
-0.013247596 -0.0056706225 0.004661271 -0.0039282753 0.0021818236 0.007970533 -0.0016492397 0.0073206574
-0.004828519 -0.002390971 -0.0105285505 -0.019130254 0.0054251472 0.002106152 -0.0041908664 7.9912585e-05
0.006537638 0.01693525 0.014378709 -0.012887753 0.000105990446 -0.004734147 0.006395768 -0.006761537
-0.009993407 0.0018578641 -0.0007963474 0.015544762 0.007739141 -0.0007778877 0.0021669467 -0.0008637937
-0.0002636848 -0.008489654 -0.0035411082 0.010784786 -0.015024758 -0.013340737 -0.0099928845 0.005500967
0.006068298 -0.00089718326 -0.0034104795 0.018351814 -0.006367205 0.0014868251 -0.0069572786 0.0021688696
-0.0028912383 -0.011919863 0.0045916964 -0.0032852057 -0.0112045035 -0.013324546 0.0119672995 0.0011719404
0.0051747174 0.0021468338 -0.005463052 0.0025256835 0.019021913 0.005794379 0.0014391646 -0.019628039
-0.0005760803 -0.0035067534 0.010991077 -0.004707511 -0.015160131 -0.004448141 0.00067777355 0.010240923
-0.0042675375 -0.0040949564 -0.019236267 -0.00793821 0.01992356 -0.004204665 -0.0027542382 0.020416012
0.0019167031 0.0062575997 0.0042352434 -0.007900887 0.008830625 0.0059927995 0.01500234 -0.006732126
-0.021631885 0.005668511 -0.018390127 0.01451338 -0.00825474 0.00357287 -0.0047687492 0.012839474
-0.009453808 -0.010902381 -0.013067259 0.002400088 -0.007886221 0.010805457 -0.02035938 0.0023371505
0.013091317 0.01290025 0.011328363 -0.00097215845 -0.0045212 -0.00018300666 -0.0032238576 0.01742998
-0.01628994 0.010842442 -0.011643468 0.004352485 0.0011386571 -0.0038746854 -0.0040875017 -0.007288748
0.0114689125 -0.02382876 -0.0008686227 0.008820737 -0.023226783 0.0046205795 0.00310861 0.0057165097
0.0017927143 0.004806447 -0.0017683561 -0.0027127168 0.009094457 0.008848159 0.019510193 -0.01176954
0.008360957 -0.006561585 -0.00020527377 0.010333958 -0.010260522 0.007849171 0.011263212 -0.004477533
-0.015096498 -0.00065301574 0.0071995156 -0.0038187776 0.013062467 0.0057148756 -0.0016643846 -0.0011131497
-0.0034941284 -0.004937924 -0.013506818 -0.010314257 -0.008773077 0.0011834974 0.0107957 -0.011316746
0.003516793 -0.0076758834 0.0023678348 0.0047328486 0.001401366 -0.0026077344 -0.019658837 -0.00873259
-0.008227767 -0.0029924707 0.0007441152 -0.006153231 0.0089391135 0.001850074 -0.0052372194 -0.0016930444
00000000: 0a2d dc3b dd66 01bc fed7 b03a af6b 433c
00000010: 600a 68bc 0586 523c 287a f73b 0310 89bb
00000020: c8e9 9d3b e2a0 65bc 7b7b 813c bf16 43bc
00000030: 4d72 4ebb 895f 353c 893d 15bc c3ce ffbb
00000040: 6f35 d939 90d7 b73c cb2c 84ba 4468 2c3c
00000050: e27c 03bb d5d2 5f3b 329d 9aba 7f34 523b
00000060: 300a 7b3c 8376 2d3c b239 0abc db52 003c
00000070: 27af a2bb 1870 4abc 7824 f63b c713 a63c
00000080: f468 00bb 129b 163c 4efd c03b 3700 b63b
00000090: a458 2bbc 1b58 0cbb 3529 dbbb b29a 063c
000000a0: 5d2f 3bbb 900a 583b 044a bb3b f3b9 3a3c
000000b0: 6f8f 9bbb 8db3 79bc 674d 283c aa9f 53bc
000000c0: 305c 8ebb 2d8d 793a d476 a53b 67a6 80bb
000000d0: addd 643c 7f39 f53a 9fc0 413b 9b99 a4ba
000000e0: 9205 50bc aeda 99bb b2bc 483c d94b 15bb
000000f0: d86e 603c 9bb8 063a 1f1d ee3a f9e5 853b
00000100: df5b a2bb be05 44bc 6f32 a3bb 7ac4 923a
00000110: 879c 343b cdd9 cebb b4c8 143c 029d 753b
00000120: 1716 0bbc 2fdc 753c 87c2 73bc 504a 57bc
00000130: 0c97 06bc 146a 2bbc b514 073c 5293 6d3b
00000140: 720c 59bc a1d0 b9bb 93bd 983b c3b8 80bb
00000150: edfc 0e3b d796 023c 4d2b d8ba 20e2 ef3b
00000160: 8e38 9ebb d6b1 1cbb f17f 2cbc 0db7 9cbc
00000170: 6fc5 b13b 5e07 0a3b 8953 89bb be96 a738
00000180: af39 d63b cbbb 8a3c ad94 6b3c 2727 53bc
00000190: 3047 de38 e720 9bbb 9793 d13b e28f ddbb
000001a0: 63bb 23bc 9383 f33a f8c1 50ba 75af 7e3c
000001b0: 9f98 fd3b 29eb 4bba 5503 0e3b 3770 62ba
000001c0: 2d3f 8ab9 3118 0bbc f011 68bb acb2 303c
000001d0: 672a 76bc 1b93 5abc 32b9 23bc 7541 b43b
000001e0: 93d8 c63b f330 6bba 5a82 5fbb 8b56 963c
000001f0: fda3 d0bb 92e1 c23a e2f9 e3bb 9823 0e3b
00000200: ee7a 3dbb 874b 43bc f175 963b 9b4c 57bb
00000210: 1893 37bc 324f 5abc 7e12 443c cb9b 993a
00000220: ad90 a93b e5b1 0c3b 6703 b3bb f085 253b
00000230: d8d3 9b3c c6de bd3b 5aa2 bc3a fbca a0bc
00000240: 1804 17ba 8fd1 65bb eb13 343c 7741 9abb
00000250: 3362 78bc b6c1 91bb 9dac 313a 8bc9 273c
00000260: b3d6 8bbb fc2e 86bb 6095 9dbc 440f 02bc
00000270: bc36 a33c 49c7 89bb 7380 34bb 7b3f a73c
00000280: e239 fb3a 8d0c cd3b ccc7 8a3b b972 01bc
00000290: 53ae 103c 3f5f c43b 60cc 753c 2b99 dcbb
000002a0: 5a35 b1bc ebbe b93b e4a6 96bc 87c9 6d3c
000002b0: e43e 07bc d026 6a3b 2b43 9cbb a85c 523c
000002c0: 25e4 1abc e69f 32bc 0f18 56bc cb4a 1d3b
000002d0: 3535 01bc 5f09 313c b7c8 a6bc e12a 193b
000002e0: f77c 563c 925b 533c 999a 393c 73d8 7eba
000002f0: 9326 94bb 7ae5 3fb9 5b47 53bb 51c9 8e3c
00000300: 7b72 85bc 7fa4 313c 3fc4 3ebc 4a9f 8e3b
00000310: fe3e 953a 6fee 7dbb 73f0 85bb 73d6 eebb
00000320: 1be8 3b3c 8834 c3bc 48b4 63ba da84 103c
00000330: 1846 bebc 3b68 973b d2b9 4b3b 8f51 bb3b
00000340: 83f9 ea3a 667f 9d3b 2fc8 e7ba d6c7 31bb
00000350: eb00 153c def7 103c d7d3 9f3c 07d5 40bc
00000360: 65fc 083c 9002 d7bb c23e 57b9 c34f 293c
00000370: c01b 28bc cf99 003c 5689 383c 45b8 92bb
00000380: 4d57 77bc 252f 2bba eae9 eb3b 7544 7abb
00000390: f503 563c da43 bb3b 7b27 daba 1be7 91ba
000003a0: bffd 64bb 4fce a1bb b34b 5dbc 21fd 28bc
000003b0: f4bc 0fbc 951f 9b3a 73e0 303c df69 39bc
000003c0: ff79 663b fa85 fbbb ad2d 1b3b 0316 9b3b
000003d0: 0aae b73a 86e6 2abb 920b a1bc 2313 0fbc
000003e0: c2cd 06bc 541d 44bb ba10 433a 0ba1 c9bb
000003f0: 5c75 123c 2f7e f23a fb9c abbb 25e9 ddba

action_model._discrete_distribution.branches.0.bias f4 [3]
0.0 0.0 0.0
00000000: 0000 0000 0000 0000 0000 0000

network_body._body_endoder.seq_layers.0.weight f4 [128, 124]
0.06337047 0.085903294 0.11300737 0.22404686 0.041582078 -0.17848171 -0.2084609 0.050030574
-0.06818089 -0.12917392 -0.05833505 0.005115103 -0.03526578 0.0682311 -0.10245362 0.111228496
-0.09470774 -0.10479621 -0.0030063218 0.040805 -0.08195921 -0.029901367 0.009699538 -0.05270285
0.0028881382 0.044192024 0.0420547 -0.07355687 0.046870757 0.040596858 0.020521846 -0.114063084
-0.0048438823 0.028445145 0.026380574 -0.03744726 -0.05259785 -0.0710804 -0.07896698 0.12200153
-0.03662618 -0.01750688 -0.0154314255 0.10180551 0.060332116 0.026141046 0.04328585 -0.022461312
0.030017613 0.041617155 -0.015194509 -0.15622784 -0.03383416 -0.022104066 -0.072567426 -0.044340447
0.008704096 0.016240116 -0.25233153 -0.070447765 0.15462723 -0.039580584 -0.075932555 -0.07661081
-0.0037742162 0.030508611 -0.028674904 0.021672243 0.028696211 0.08011989 0.017584031 0.00041741773
-0.04619812 -0.0013908681 -0.032835096 0.075284734 0.09486481 0.045029722 0.13414867 0.143331
0.071466 -0.02382128 0.09437381 0.06553512 -0.080082506 0.12824267 -0.065243 -0.03969952
0.12352043 0.080200665 -0.01840098 -0.14307101 -0.029239235 -0.007917982 0.07115588 0.022143135
0.04495551 -0.023530772 0.046402562 -0.032975417 -0.059318103 -0.011882868 0.0669105 0.03795291
-0.0069502937 -0.09008583 0.09783394 0.08855537 0.11818422 -0.08250729 0.04494101 0.029996425
-0.04674974 -0.09276751 -0.01092989 0.09608303 0.1613142 0.15091233 -0.013232559 0.04981294
0.05433237 0.09596714 0.023659635 -0.04961071 0.12961076 0.13404547 -0.017501114 -0.18444733
0.036019307 -0.015463493 0.06313209 -0.0702979 -0.082350224 0.18310855 0.008559081 -0.06732915
0.02203932 0.08013487 -0.02942319 0.03270764 0.051051367 -0.07502007 0.12506522 -0.062171523
0.03435951 -0.07736996 -0.0625891 -0.110480085 0.046073947 0.022476645 0.007635411 -0.037411448
-0.006679259 0.1536728 -0.041015342 -0.27691883 0.1258169 0.051096596 0.07466513 0.23919597
0.08626036 -0.071283974 0.021104302 0.077660024 0.065267086 -0.029960047 -0.12809359 -0.08673066
0.06791504 0.1926034 0.115491316 0.107658766 0.15682265 0.014169769 -0.015185876 -0.012648938
-0.035051197 0.021793732 -0.12963587 0.064256385 0.04662429 0.014016563 -0.00970232 0.08283162
-0.036320053 -0.11095351 0.028684853 -0.0739363 -0.01820048 0.04877579 -0.12408081 0.11975101
-0.064895056 0.023395207 0.024476167 0.013623334 -0.038096093 -0.043518126 -0.088051416 0.10470869
0.01825049 0.020618426 -0.020609444 0.06960673 0.010422527 0.21869779 -0.07560071 -0.116831824
-0.053838816 0.045203045 -0.02427442 -0.13460402 0.02767803 -0.150495 -0.016861172 -0.02173024
0.02060594 0.089778 -0.039922144 -0.07951795 0.01328588 -0.025057606 -0.049413763 -0.030131346
0.12973687 -0.0633549 0.05418061 0.06980876 -0.08662993 0.13156189 -0.20983508 0.0941729
0.15310137 0.05566071 -0.038456425 0.010474337 -0.03809576 0.0802867 0.021425026 0.30062297
0.06927566 0.033212323 0.026078511 -0.008163671 0.18376368 -0.059509862 -0.035874117 0.14665249
-0.022965144 0.0339272 -0.09847116 -0.054224446 0.10753558 -0.052994266 0.028101768 0.032918025
00000000: 61c8 813d 11ee af3d 6870 e73d 8a6c 653e
00000010: f851 2a3d e9c3 36be c676 55be dcec 4c3d
00000020: 6ca2 8bbd 2b46 04be bcf0 6ebd 989c a73b
00000030: da72 10bd bfbc 8b3d 34d3 d1bd c4cb e33d
00000040: 22f6 c1bd 659f d6bd b605 45bb 2523 273d
00000050: 3bda a7bd b6f3 f4bc d0ea 1e3c f2de 57bd
00000060: eb46 3d3b b202 353d 8d41 2c3d fca4 96bd
00000070: 8dfb 3f3d e448 263d 6e1d a83c e899 e9bd
00000080: 6eb9 9ebb cb05 e93c 131c d83c 4c62 19bd
00000090: d870 57bd 9a92 91bd 71b9 a1bd f0db f93d
000000a0: 5505 16bd 976a 8fbc 17d4 7cbc 687f d03d
000000b0: cf1e 773d bf25 d63c 814c 313d c900 b8bc
000000c0: 7fe7 f53c c076 2a3d 64f2 78bc 31fa 1fbe
000000d0: b095 0abd 9613 b5bc 3b9e 94bd 549e 35bd
000000e0: a09b 0e3c fe09 853c 9931 81be eb46 90bd
000000f0: 9a56 1e3e 401f 22bd 8782 9bbd 21e6 9cbd
00000100: d758 77bb 32ed f93c a2e7 eabc fd89 b13c
00000110: 5114 eb3c e615 a43d 630c 903c dcd8 da39
00000120: 3d3a 3dbd ca4d b6ba 187e 06bd e22e 9a3d
00000130: 7b48 c23d 1671 383d 455e 093e 5dc5 123e
00000140: c45c 923d d824 c3bc 0e47 c13d 4737 863d
00000150: 4c02 a4bd 0c52 033e 1f9e 85bd f79b 22bd
00000160: 47f8 fc3d 3f40 a43d a7bd 96bc 3581 12be
00000170: 1f87 efbc 6cba 01bc 2dba 913d 8565 b53c
00000180: 4523 383d 9bc3 c0bc 9d10 3e3d 3b11 07bd
00000190: 8af7 72bd 5cb0 42bc 5f08 893d 8374 1b3d
000001a0: 4abf e3bb eb7e b8bd 295d c83d 855c b53d
000001b0: 910a f23d 95f9 a8bd 1114 383d 10bb f53c
000001c0: a87c 3fbd e4fc bdbd 4813 33bc 2ec7 c43d
000001d0: 8d2f 253e c388 1a3e 60cd 58bc a708 4c3d
000001e0: 9f8b 5e3d 6b8a c43d dad1 c13c 9a34 4bbd
000001f0: afb8 043e 3743 093e 7f5e 8fbc c3df 3cbe
00000200: fb88 133d 975a 7dbc 664b 813d 58f8 8fbd
00000210: 3ca7 a8bd cf80 3b3e 633b 0c3c dee3 89bd
00000220: ce8b b43c c01d a43d e708 f1bc 72f8 053d
00000230: 3d1b 513d 1fa4 99bd 1911 003e 91a7 7ebd
00000240: 8fbc 0c3d 2474 9ebd b72e 80bd 6243 e2bd
00000250: 09b8 3c3d f120 b83c 7832 fa3b bf3c 19bd
00000260: afdd dabb 675c 1d3e b4ff 27bd 4ec8 8dbe
00000270: 25d6 003e aa4a 513d 08ea 983d caef 743e
00000280: 46a9 b03d 55fd 91bd eee2 ac3c 380c 9f3d
00000290: c0aa 853d c66e f5bc f72a 03be d89f b1bd
000002a0: 0a17 8b3d d339 453e b686 ec3d 337c dc3d
000002b0: 1e96 203e 5228 683c 2ece 78bc 7e3d 4fbc
000002c0: d891 0fbd c588 b23c 44bf 04be da98 833d
000002d0: 1df9 3e3d baa5 653c 7bf6 1ebc a0a3 a93d
000002e0: 56c4 14bd 983b e3bd 7ffc ea3c ea6b 97bd
000002f0: 2c19 95bc 1fc9 473d 141e febd 0440 f53d
00000300: b3e7 84bd 4ea7 bf3c 3e82 c83c 6734 5f3c
00000310: a60a 1cbd 1040 32bd 4d54 b4bd 8271 d63d
00000320: 0d82 953c f9e7 a83c 23d5 a8bc f98d 8e3d
00000330: 3fc3 2a3c 50f2 5f3e 8cd4 9abd 8645 efbd
00000340: 1786 5cbd d426 393d 26db c6bc a3d5 09be
00000350: 09bd e23c 5c1b 1abe 7120 8abc 9e03 b2bc
00000360: cacd a83c 87dd b73d 6785 23bd 4fda a2bd
00000370: 05ad 593c 9c45 cdbc 1666 4abd 03d6 f6bc
00000380: bed9 043e 37c0 81bd 7dec 5d3d e5f7 8e3d
00000390: 086b b1bd 29b8 063e 02df 56be b9dd c03d
000003a0: 9bc6 1c3e 7cfc 633d 7c84 1dbd 8e9c 2b3c
000003b0: 4d0a 1cbd 5a6d a43d 8983 af3c 41eb 993e
000003c0: 66e0 8d3d a509 083d 9aa2 d53c ebc0 05bc
000003d0: 8c2c 3c3e 9dc0 73bd bdf0 12bd 122c 163e
000003e0: 6621 bcbc 3ff7 0a3d 3fab c9bd 741a 5ebd
000003f0: 9d3b dc3d 8410 59bd ae35 e63c 0dd5 063d

network_body._body_endoder.seq_layers.0.bias f4 [128]
0.0 0.0 0.0 0.0 0.0 0.0 0.0 0.0
0.0 0.0 0.0 0.0 0.0 0.0 0.0 0.0
0.0 0.0 0.0 0.0 0.0 0.0 0.0 0.0
0.0 0.0 0.0 0.0 0.0 0.0 0.0 0.0
0.0 0.0 0.0 0.0 0.0 0.0 0.0 0.0
0.0 0.0 0.0 0.0 0.0 0.0 0.0 0.0
0.0 0.0 0.0 0.0 0.0 0.0 0.0 0.0
0.0 0.0 0.0 0.0 0.0 0.0 0.0 0.0
0.0 0.0 0.0 0.0 0.0 0.0 0.0 0.0
0.0 0.0 0.0 0.0 0.0 0.0 0.0 0.0
0.0 0.0 0.0 0.0 0.0 0.0 0.0 0.0
0.0 0.0 0.0 0.0 0.0 0.0 0.0 0.0
0.0 0.0 0.0 0.0 0.0 0.0 0.0 0.0
0.0 0.0 0.0 0.0 0.0 0.0 0.0 0.0
0.0 0.0 0.0 0.0 0.0 0.0 0.0 0.0
0.0 0.0 0.0 0.0 0.0 0.0 0.0 0.0
00000000: 0000 0000 0000 0000 0000 0000 0000 0000
00000010: 0000 0000 0000 0000 0000 0000 0000 0000
00000020: 0000 0000 0000 0000 0000 0000 0000 0000
00000030: 0000 0000 0000 0000 0000 0000 0000 0000
00000040: 0000 0000 0000 0000 0000 0000 0000 0000
00000050: 0000 0000 0000 0000 0000 0000 0000 0000
00000060: 0000 0000 0000 0000 0000 0000 0000 0000
00000070: 0000 0000 0000 0000 0000 0000 0000 0000
00000080: 0000 0000 0000 0000 0000 0000 0000 0000
00000090: 0000 0000 0000 0000 0000 0000 0000 0000
000000a0: 0000 0000 0000 0000 0000 0000 0000 0000
000000b0: 0000 0000 0000 0000 0000 0000 0000 0000
000000c0: 0000 0000 0000 0000 0000 0000 0000 0000
000000d0: 0000 0000 0000 0000 0000 0000 0000 0000
000000e0: 0000 0000 0000 0000 0000 0000 0000 0000
000000f0: 0000 0000 0000 0000 0000 0000 0000 0000
00000100: 0000 0000 0000 0000 0000 0000 0000 0000
00000110: 0000 0000 0000 0000 0000 0000 0000 0000
00000120: 0000 0000 0000 0000 0000 0000 0000 0000
00000130: 0000 0000 0000 0000 0000 0000 0000 0000
00000140: 0000 0000 0000 0000 0000 0000 0000 0000
00000150: 0000 0000 0000 0000 0000 0000 0000 0000
00000160: 0000 0000 0000 0000 0000 0000 0000 0000
00000170: 0000 0000 0000 0000 0000 0000 0000 0000
00000180: 0000 0000 0000 0000 0000 0000 0000 0000
00000190: 0000 0000 0000 0000 0000 0000 0000 0000
000001a0: 0000 0000 0000 0000 0000 0000 0000 0000
000001b0: 0000 0000 0000 0000 0000 0000 0000 0000
000001c0: 0000 0000 0000 0000 0000 0000 0000 0000
000001d0: 0000 0000 0000 0000 0000 0000 0000 0000
000001e0: 0000 0000 0000 0000 0000 0000 0000 0000
000001f0: 0000 0000 0000 0000 0000 0000 0000 0000

network_body._body_endoder.seq_layers.2.weight f4 [128, 128]
-0.06640756 0.0072986796 0.005059587 0.08753898 0.05431686 0.004922583 0.18510424 -0.08376795
0.16057667 -0.05344641 0.0023095573 -0.06563636 0.039450668 -0.03453169 0.002473604 0.04978407
-0.032591492 -0.1353304 0.06950432 -0.10142515 0.056776047 0.09529384 0.014965237 0.05242329
0.13289666 0.05000238 0.08390906 -0.1493063 -0.030868161 0.051326092 -0.04398752 0.074040264
-0.035843987 -0.015500823 -0.029239513 -0.08470717 0.08118376 -0.062757544 -0.07367478 0.07844257
-0.021597676 -0.015743855 -0.03334962 -0.019936144 -0.06337676 0.041647628 0.02245101 0.018376153
0.019021513 -0.017902438 0.107136615 0.10170675 -0.14103916 -0.133015 0.03593724 -0.0322152
-0.14040767 0.11129884 -0.01702662 -0.07251862 0.043286756 -0.10696371 -0.1321522 -0.04286596
-0.032705892 0.007773973 -0.031653363 -0.011876351 0.0414576 0.00028629816 0.14423151 0.09438655
-0.019760074 0.014452834 -0.06528139 -0.04804905 -0.08936307 0.04135269 -0.037513316 0.16925447
0.0035097678 -0.003235142 -0.044061225 -0.069653206 0.057704657 0.0550919 -0.11073823 0.09499743
0.027959678 0.07014277 0.16349198 -0.2359452 -0.03168249 -0.022589952 0.042349473 -0.10516597
-0.031557716 -0.04380218 -0.22795744 0.008074992 0.13137323 -0.04318746 0.17425567 0.09899494
0.084189296 -0.049878623 -0.09496099 0.13229053 0.060940586 -0.07685916 0.15007925 0.06042669
0.006518311 0.011537357 0.077631876 -0.07217563 -0.108347744 -0.18238677 0.10104022 0.0723602
0.115605526 -0.1270511 0.07357878 0.041262932 0.04152742 -0.009824529 0.10424571 -0.094099484
-0.001311455 0.021599887 -0.06842044 -0.045336597 -0.06709674 0.104232535 0.12167156 0.089363575
-0.057285085 0.06837995 0.13667652 -0.00024350749 0.15241523 -0.06690838 -0.08015636 -0.0799018
0.048775066 0.0567441 -0.06730326 0.07387989 0.06562931 -0.15024483 0.021148326 0.011748997
-0.095605224 -0.05019498 -0.12238058 -0.025755676 -0.1866065 0.117520794 -0.038685445 0.19593458
-0.020455157 -0.13009599 -0.0947641 -0.058812667 -0.15982334 -0.02820694 0.021528658 -0.0045420723
0.010636704 -0.043956146 -0.08485236 -0.0034113126 0.13410729 -0.06523558 -0.08819215 0.09305577
-0.00093463995 -0.11431953 0.14265363 -0.008431071 -0.087948136 -0.07364048 -0.05242252 0.008037211
0.17605656 0.08014358 -0.08610535 0.032262836 -0.10096531 0.1338491 0.1635764 0.025278011
-0.11780869 0.010682903 0.10192054 0.12531507 -0.10442032 -0.042028178 0.02211348 0.031875554
0.12153245 -0.08350418 0.021436533 0.07103316 0.030100534 0.08334046 0.12348999 -0.006647215
0.02772103 -0.0006269793 0.077680975 -0.15553746 -0.07038601 0.07974386 -0.17293791 -0.018748838
0.028049193 -0.015896648 -0.109097116 0.0030417766 -0.00021030013 -0.09065197 0.017150922 0.18190491
-0.09765409 -0.012099774 -0.114804685 0.067443416 0.009220998 0.028998317 0.120656446 -0.01631851
-0.010438813 -0.06250876 0.008347447 -0.046753682 0.20106082 -0.032650124 -0.10749379 0.041634567
0.079145335 -0.055030797 -0.16273662 0.03770215 0.049870275 0.0026610508 -0.09925362 0.018008165
0.06388433 0.02929415 -0.004159552 -0.08609924 0.040586088 0.0020773842 -0.041197564 0.08115856
00000000: b000 88bd c329 ef3b e4ca a53b a347 b33d
00000010: 5b7b 5e3d 9e4d a13b f78b 3d3e 888e abbd
00000020: 366e 243e 9fea 5abd f15b 173b 5b6c 86bd
00000030: 0697 213d 1a71 0dbd 301c 223b 62ea 4b3d
00000040: a87e 05bd 0d94 0abe 4858 8e3d fdb7 cfbd
00000050: 008e 683d 6b29 c33d c130 753c ceb9 563d
00000060: 1016 083e 4ccf 4c3d 83d8 ab3d c0e3 18be
00000070: 3adf fcbc 4f3b 523d 422c 34bd 6ca2 973d
00000080: 25d1 12bd 2af7 7dbc b487 efbc f47a adbd
00000090: ac43 a63d 0787 80bd cee2 96bd 80a6 a03d
000000a0: 9ced b0bc 42f9 80bc 9c99 08bd 2051 a3bc
000000b0: adcb 81bd b496 2a3d 2eeb b73c 9689 963c
000000c0: 01d3 9b3c 22a8 92bc 716a db3d a14b d03d
000000d0: 926c 10be 1635 08be ed32 133d 16f4 03bd
000000e0: 07c7 0fbe a5f0 e33d 697b 8bbc a484 94bd
000000f0: 744d 313d ca0f dbbd e852 07be 3894 2fbd
00000100: 9df6 05bd d0bc fe3b f5a6 01bd 0795 42bc
00000110: 72cf 293d 4a1a 9639 6db1 133e bc4d c13d
00000120: e1df a1bc 94cb 6c3c 40b2 85bd 15cf 44bd
00000130: fc03 b7bd 7061 293d 90a7 19bd 0b51 2d3e
00000140: 2204 663b ad04 54bb 8b79 34bd 57a6 8ebd
00000150: b85b 6c3d 0ba8 613d baca e2bd 038e c23d
00000160: b20b e53c 03a7 8f3d 716a 273e 9e9b 71be
00000170: 80c5 01bd 900e b9bc a476 2d3d 4261 d7bd
00000180: aa42 01bd ea69 33bd ad6d 69be f94c 043c
00000190: b486 063e 56e5 30bd 1470 323e dcbd ca3d
000001a0: 706b ac3d 874d 4cbd e87a c2bd 2b77 073e
000001b0: d69c 793d 5668 9dbd 60ae 193e fa81 773d
000001c0: 8e97 d53b 2f07 3d3c 76fd 9e3d d1d0 93bd
000001d0: 6ce5 ddbd 99c3 3abe 2dee ce3d 9631 943d
000001e0: 97c2 ec3d af19 02be 79b0 963d 5203 293d
000001f0: a818 2a3d 10f7 20bc c67e d53d 3bb7 c0bd
00000200: 21e5 abba 3ff2 b03c 0420 8cbd deb2 39bd
00000210: 046a 89bd de77 d53d f02e f93d 4004 b73d
00000220: c4a3 6abd ca0a 8c3d eef4 0b3e 0b56 7fb9
00000230: bd12 1c3e 4307 89bd 0529 a4bd 8ea3 a3bd
00000240: 5dc8 473d 806c 683d 4bd6 89bd 574e 973d
00000250: a968 863d c8d9 19be 413f ad3c dd7e 403c
00000260: accc c3bd 4099 4dbd aba2 fabd 91fd d2bc
00000270: c615 3fbe beae f03d a174 1ebd 13a3 483e
00000280: 9391 a7bc e237 05be ae13 c2bd 8de5 70bd
00000290: bba8 23be 3e12 e7bc de5c b03c aad5 94bb
000002a0: 9245 2e3c 5c0b 34bd 13c7 adbd 5490 5fbb
000002b0: 6c53 093e 3b9a 85bd 169e b4bd 0694 be3d
000002c0: a002 75ba 5c20 eabd cb13 123e 7a22 0abc
000002d0: 271e b4bd d2d0 96bd ffb8 56bd 82ae 033c
000002e0: 2c48 343e 5122 a43d 0058 b0bd 0926 043d
000002f0: e7c6 cebd bd0f 093e 9280 273e d513 cf3c
00000300: af45 f1bd 5807 2f3c b7bb d03d 9852 003e
00000310: 52da d5bd bd25 2cbd 5427 b53c f18f 023d
00000320: 01e6 f83d 3d04 abbd ab9b af3c d579 913d
00000330: 6595 f63c 67ae aa3d 52e8 fc3d e2d0 d9bb
00000340: 3717 e33c de5b 24ba 3417 9f3d 3645 1fbe
00000350: 8a26 90bd c050 a33d a316 31be 2a97 99bc
00000360: 6cc7 e53c b039 82bc 4f6e dfbd 8b58 473b
00000370: 0384 5cb9 bda7 b9bd 1780 8c3c 4845 3a3e
00000380: defe c7bd 213e 46bc b81e ebbd c61f 8a3d
00000390: ab13 173c e18d ed3c ba1a f73d 65ae 85bc
000003a0: 8e07 2bbc 9804 80bd bbc3 083c ca80 3fbd
000003b0: e3e2 4d3e 23bc 05bd b425 dcbd 0289 2a3d
000003c0: f316 a23d f967 61bd 6ea4 26be 926d 1a3d
000003d0: c644 4c3d 0665 2e3b 7b45 cbbd dc85 933c
000003e0: cad5 823d 49fa ef3c da4c 88bb cc54 b0bd
000003f0: 993d 263d b924 083b c7be 28bd 7636 a63d

network_body._body_endoder.seq_layers.2.bias f4 [128]
0.0 0.0 0.0 0.0 0.0 0.0 0.0 0.0
0.0 0.0 0.0 0.0 0.0 0.0 0.0 0.0
0.0 0.0 0.0 0.0 0.0 0.0 0.0 0.0
0.0 0.0 0.0 0.0 0.0 0.0 0.0 0.0
0.0 0.0 0.0 0.0 0.0 0.0 0.0 0.0
0.0 0.0 0.0 0.0 0.0 0.0 0.0 0.0
0.0 0.0 0.0 0.0 0.0 0.0 0.0 0.0
0.0 0.0 0.0 0.0 0.0 0.0 0.0 0.0
0.0 0.0 0.0 0.0 0.0 0.0 0.0 0.0
0.0 0.0 0.0 0.0 0.0 0.0 0.0 0.0
0.0 0.0 0.0 0.0 0.0 0.0 0.0 0.0
0.0 0.0 0.0 0.0 0.0 0.0 0.0 0.0
0.0 0.0 0.0 0.0 0.0 0.0 0.0 0.0
0.0 0.0 0.0 0.0 0.0 0.0 0.0 0.0
0.0 0.0 0.0 0.0 0.0 0.0 0.0 0.0
0.0 0.0 0.0 0.0 0.0 0.0 0.0 0.0
00000000: 0000 0000 0000 0000 0000 0000 0000 0000
00000010: 0000 0000 0000 0000 0000 0000 0000 0000
00000020: 0000 0000 0000 0000 0000 0000 0000 0000
00000030: 0000 0000 0000 0000 0000 0000 0000 0000
00000040: 0000 0000 0000 0000 0000 0000 0000 0000
00000050: 0000 0000 0000 0000 0000 0000 0000 0000
00000060: 0000 0000 0000 0000 0000 0000 0000 0000
00000070: 0000 0000 0000 0000 0000 0000 0000 0000
00000080: 0000 0000 0000 0000 0000 0000 0000 0000
00000090: 0000 0000 0000 0000 0000 0000 0000 0000
000000a0: 0000 0000 0000 0000 0000 0000 0000 0000
000000b0: 0000 0000 0000 0000 0000 0000 0000 0000
000000c0: 0000 0000 0000 0000 0000 0000 0000 0000
000000d0: 0000 0000 0000 0000 0000 0000 0000 0000
000000e0: 0000 0000 0000 0000 0000 0000 0000 0000
000000f0: 0000 0000 0000 0000 0000 0000 0000 0000
00000100: 0000 0000 0000 0000 0000 0000 0000 0000
00000110: 0000 0000 0000 0000 0000 0000 0000 0000
00000120: 0000 0000 0000 0000 0000 0000 0000 0000
00000130: 0000 0000 0000 0000 0000 0000 0000 0000
00000140: 0000 0000 0000 0000 0000 0000 0000 0000
00000150: 0000 0000 0000 0000 0000 0000 0000 0000
00000160: 0000 0000 0000 0000 0000 0000 0000 0000
00000170: 0000 0000 0000 0000 0000 0000 0000 0000
00000180: 0000 0000 0000 0000 0000 0000 0000 0000
00000190: 0000 0000 0000 0000 0000 0000 0000 0000
000001a0: 0000 0000 0000 0000 0000 0000 0000 0000
000001b0: 0000 0000 0000 0000 0000 0000 0000 0000
000001c0: 0000 0000 0000 0000 0000 0000 0000 0000
000001d0: 0000 0000 0000 0000 0000 0000 0000 0000
000001e0: 0000 0000 0000 0000 0000 0000 0000 0000
000001f0: 0000 0000 0000 0000 0000 0000 0000 0000

value_heads.value_heads.extrinsic.weight f4 [1, 128]
0.19518596 -0.029836636 -0.108502746 0.05759357 -0.13067019 -0.14206317 -0.081342205 0.12676518
-0.066226676 -0.040969588 0.15069361 -0.070565365 0.09585551 -0.105470665 0.014493716 0.055546027
-0.11892012 0.14854616 -2.6480618e-06 0.06257956 -0.1255903 -0.20239909 0.119275846 0.0680983
-0.029874017 0.09231138 0.10385045 0.07622734 -0.0200005 0.10235134 0.025278294 -0.05613626
-0.11174162 0.1703423 0.016773595 -0.1705655 -0.17279284 -0.1853553 -0.098859675 0.030754255
0.060906526 0.06670493 -0.16846094 0.20361494 -0.11649608 0.13704717 -0.02957588 0.13406427
0.18074779 -0.004424024 -0.14811891 0.019483615 -0.1926683 0.2119076 0.014150136 0.03617512
0.09547548 -0.20514955 -0.13866138 -0.07959333 -0.16063544 -0.18123323 -0.048523173 -0.13565244
-0.012523108 0.0961659 0.14441824 0.15739167 -0.04011762 0.06982044 -0.15979522 -0.15434729
0.12745303 0.021944333 -0.19200717 0.13146383 0.14765383 0.11816582 0.14415063 0.004704037
0.032642707 0.19998445 0.0148638785 0.17836371 -0.0829551 -0.09429815 -0.14468868 0.082228586
-0.04718139 -0.10129079 0.18621846 0.20256037 -0.21380286 -0.07831418 0.09292928 0.107303366
0.17182752 -0.060316857 0.18836391 -0.10294668 -0.15217921 0.15098962 0.15087038 0.0011701605
-0.17953189 0.10483155 0.156098 -0.13641608 0.1192961 -0.087808155 -0.08658227 0.17573823
0.18177761 0.105379716 0.09269003 0.14293237 0.09087253 0.020527827 0.026739484 0.18520564
0.012713344 0.16660982 -0.08265305 -0.11863437 0.09107273 -0.12502606 0.038045526 0.17614068
00000000: d4de 473e f66b f4bc b036 debd 3ce7 6b3d
00000010: 68ce 05be 0279 11be be96 a6bd bbce 013e
00000020: daa1 87bd bacf 27bd 6d4f 1a3e 9384 90bd
00000030: e54f c43d 0101 d8bd 0d77 6d3c 3b84 633d
00000040: 648c f3bd 7c1c 183e 5bb5 31b6 b629 803d
00000050: be9a 00be b541 4fbe e546 f43d 1f77 8b3d
00000060: 5bba f4bc c00d bd3d 8baf d43d 141d 9c3d
00000070: 17d8 a3bc 949d d13d 6d14 cf3c 23ef 65bd
00000080: cad8 e4bd 366e 2e3e c768 893c b9a8 2ebe
00000090: 9bf0 30be c8cd 3dbe f176 cabd 59f0 fb3c
000000a0: 1f79 793d 989c 883d 0681 2cbe 6f80 503e
000000b0: 7f95 eebd 1856 0c3e 1e49 f2bc 2548 093e
000000c0: f315 393e 67f7 90bb 7cac 17be 1a9c 9f3c
000000d0: d74a 45be 4efe 583e f9d5 673c 5d2c 143d
000000e0: a688 c33d b912 52be 40fd 0dbe d401 a3bd
000000f0: 9e7d 24be 3495 39be 3cc0 46bd 79e8 0abe
00000100: b92d 4dbc a1f2 c43d 60e2 133e 482b 213e
00000110: 6052 24bd 05fe 8e3d 5ca1 23be 370d 1ebe
00000120: 0c83 023e 9ac4 b33c 879d 44be 749e 063e
00000130: 9132 173e ec00 f23d 399c 133e 5324 9a3b
00000140: 5cb4 053d b9c8 4c3e a087 733c faa4 363e
00000150: 5de4 a9bd 631f c1bd 4529 14be 7667 a83d
00000160: 4641 41bd 8c71 cfbd 0db0 3e3e fc6b 4f3e
00000170: 23ef 5abe 2f63 a0bd b551 be3d dec1 db3d
00000180: 8ef3 2f3e cf0e 77bd 78e2 403e b5d5 d2bd
00000190: ded4 1bbe 069d 1a3e c47d 1a3e 1260 993a
000001a0: 35d7 37be ecb1 d63d 27d8 1f3e a8b0 0bbe
000001b0: 8451 f43d c3d4 b3bd 0c52 b1bd b9f4 333e
000001c0: e923 3a3e 52d1 d73d 45d4 bd3d dd5c 123e
000001d0: 611b ba3d f929 a83c c30c db3c 8ca6 3d3e
000001e0: a14b 503c c49b 2a3e 0146 a9bd 94f6 f2bd
000001f0: 5784 ba3d d506 00be a0d5 1b3d 395e 343e
