results/ppo/MlAgent/MlAgent-18604.onnx (onnx, 98321 bytes, 9 tensors)

action_model._discrete_distribution.branches.0.bias f4 [4]
000000 a7 cb a8 3a d9 1c bb ba 44 96 df 3a 99 0f 18 ba
       0.0012878076 -0.0014275565 0.0017058332 -0.0005800664

action_model._discrete_distribution.branches.0.weight f4 [4, 128]
000000 97 61 55 3c 2d 5a 48 bc b9 1f ae 3c b9 91 43 bc
       0.0130237555 -0.012228531 0.02125536 -0.011936598
000010 bf 8e 9a bc a8 e2 61 bc 20 ec 89 3c 0b 02 23 3c
       -0.018866895 -0.013786949 0.016836226 0.009949218
000020 b1 c8 dd bb a0 34 23 bc be ae 5f bb 8b 69 29 3b
       -0.006768309 -0.009961277 -0.0034131254 0.0025850262
000030 14 d5 88 bb 52 bc 9e bc 49 8c 5e bc 50 f5 5d 3b
       -0.0041757915 -0.019376907 -0.013583251 0.0033868141
000040 f0 54 14 bc 9a b2 a9 3b 4f 76 87 bb aa a1 97 bc
       -0.009053454 0.0051787617 -0.0041339765 -0.018509705
000050 01 eb 19 3b e1 c5 26 3c 47 70 da 39 e1 67 a6 3b
       0.002348602 0.010179014 0.00041663853 0.0050783013
000060 2f 99 b4 ba c8 92 cd 39 21 ee 4d bb da c9 8e 3b
       -0.0013778562 0.00039210008 -0.0031422453 0.0043575587
000070 25 45 31 bb d0 5f 55 bb cc 4e 85 3b 46 97 d6 bb
       -0.002704927 -0.003255833 0.004068231 -0.006548795
000080 41 0d 0a bc c1 db ac 3b 9e 7e 0d bc f8 98 1b 3c
       -0.008426012 0.00527522 -0.008636145 0.00949692
000090 34 82 c5 3c 75 60 ab 3b 24 db 48 3a bf a0 7f 3b
       0.024109937 0.0052300044 0.0007662049 0.0039005724
0000a0 92 69 c1 ba 80 3f 58 bb 77 f0 20 3c d3 4b 80 3b
       -0.0014756194 -0.0032996833 0.009822956 0.003915289
0000b0 2c f2 0d 3c d9 1f d7 bb d5 81 53 bb c6 3c ed 3b
       0.008663695 -0.006565076 -0.003227343 0.007239911
0000c0 74 1b a2 bc c3 2b 6c bc 56 f3 2b bb 7a 62 4b 3a
       -0.019788481 -0.0144147305 -0.0026237569 0.00077585096
0000d0 ec e7 16 bb 2a 81 8b bb 88 d9 81 3a f4 a9 2f ba
       -0.002302642 -0.004257341 0.0009906748 -0.0006701045
0000e0 ca ad e9 bb b3 bc 89 bb ab 15 cf 3b 00 74 0d bc
       -0.007131313 -0.004203403 0.0063197217 -0.008633614
0000f0 0f 8c 23 bc 2a 5c a5 3b 5f 83 38 bc c6 d7 5f 3c
       -0.009982123 0.005046387 -0.01126179 0.013662284
000100 26 6d b8 3b df 7c c8 3b 46 07 86 3b 38 5e 9c 3b
       0.005628246 0.0061184014 0.0040902225 0.004771974
000110 0d da 95 bc 92 d7 31 3c c5 77 51 bc 33 d6 8a 3c
       -0.018292451 0.010854619 -0.012784903 0.016947841
000120 09 ce f8 3b fe e1 58 bc 05 7c 50 3b 59 94 6f 3c
       0.0075929207 -0.0132374745 0.0031812203 0.014622771
000130 9f 46 09 3b 75 dd 61 bc 0a 1c f8 bb c0 78 80 ba
       0.0020946634 -0.01378571 -0.007571702 -0.0009801611
000140 99 56 cd 3b 48 50 17 3c ab 94 0a 39 c9 ac 0e bb
       0.0062664268 0.009235449 0.00013216089 -0.0021770468
000150 e9 1e 81 3c 0f 67 2f bc d5 ff 64 3b 00 fc 96 3b
       0.01576181 -0.010705723 0.0034942527 0.0046076775
000160 a5 b2 cb 3b 40 02 a7 bb 82 83 14 bb ce 3e 2b 3b
       0.0062163644 -0.005096704 -0.0022661393 0.0026129964
000170 31 64 53 bc 53 0f 1d bc 54 e7 a1 3b 82 b3 ae bb
       -0.012902305 -0.009586173 0.0049409065 -0.0053314576
000180 04 3b 9b bb c3 01 06 3b 67 34 51 3b 41 cf ac bb
       -0.00473726 0.0020447827 0.0031922103 -0.00527373
000190 61 1b 2c 3c ab 4a 5c bb c5 b2 58 3c ac 3b bb bb
       0.0105045745 -0.0033613842 0.013226216 -0.0057139006
0001a0 c7 34 e2 3b 38 58 c0 bb d4 45 14 bc e8 69 5b 3c
       0.006903264 -0.0058698915 -0.009049851 0.013391949
0001b0 05 b7 d8 3a ee 0b a1 bc a3 bb ae bc 87 da f1 b9
       0.0016534036 -0.019659009 -0.021329707 -0.00046129918
0001c0 6b 82 79 3b 9e 70 ec 3b 78 57 c1 bb 71 c5 40 bc
       0.003807212 0.0072155735 -0.0059003197 -0.011765824
0001d0 b2 b4 be 3b 3b de 0d 3c 2f 83 d2 b9 d0 4a 8d bb
       0.0058198804 0.008658941 -0.0004015206 -0.004311897
0001e0 e3 46 90 3c d8 af 06 3b 46 f7 63 bc b7 ad 01 bc
       0.017611926 0.0020551588 -0.013913935 -0.007914952
0001f0 aa 8f 62 3c b5 6c 22 3c 94 30 45 bc 91 0f 84 3b
       0.0138281975 0.009913613 -0.012035508 0.004030176
000200 81 91 87 bc 64 04 e7 bb 6f 5b 8e ba 73 8e 6c 3c
       -0.016548874 -0.007050084 -0.001086099 0.014438259
000210 1c 03 1c 3a 60 f3 ac bb 4c b3 9c ba a5 76 30 3c
       0.0005951391 -0.005278036 -0.001195529 0.010770475
000220 24 a1 0e bc 65 e5 f6 ba 69 3d 84 3c 28 66 1e bc
       -0.008705411 -0.0018836675 0.016142564 -0.009667911
000230 84 ca 77 3b 4a 77 71 3b 5b 77 c8 bb 46 fe cc bb
       0.0037809918 0.0036844783 -0.006117744 -0.0062558977
000240 23 39 49 bc 56 5c 4c 3c cf ba 90 3c d3 09 19 bc
       -0.012281689 0.0124731865 0.017667202 -0.009340721
000250 70 f4 08 ba fe 22 51 bb 3c 52 a7 3b 44 28 51 3c
       -0.00052244123 -0.0031911726 0.0051062386 0.012765948
000260 04 12 0a bb 3d b3 3e 3b f3 0a 91 bb 97 6f 83 3c
       -0.0021067867 0.0029098534 -0.004426354 0.016044421
000270 c6 13 1d 3c 91 32 ab 3b b7 56 77 3c ed 20 da 3a
       0.009587234 0.005224534 0.015096358 0.0016641893
000280 0f a3 15 bb 0f b2 33 bc 29 83 f8 3b d0 58 03 bc
       -0.0022832786 -0.010967745 0.007583995 -0.00801678
000290 c6 9a 04 3c c1 07 22 3c 69 2a 6f 3c 1a 57 cd 3b
       0.0080935415 0.009889544 0.014597514 0.006266487
0002a0 fd 55 b0 39 5d cd 81 3c 99 84 97 bb f4 78 89 bc
       0.00033633402 0.015844995 -0.004623961 -0.016781308
0002b0 3e 4c 69 bc 90 6b 15 bc aa 38 3d bc b7 74 38 3c
       -0.014239369 -0.009119883 -0.011549154 0.011258296
0002c0 b3 10 9d 39 ad e4 f4 bb 51 c7 1d bc 00 46 01 3d
       0.00029957815 -0.0074735493 -0.00963004 0.031560898
0002d0 c0 7a 87 3a 5c 0a 0d 3b a9 8f e8 ba a4 4a e1 38
       0.0010336265 0.0021521067 -0.0017743009 0.00010742739
0002e0 71 30 ba 3b 5d e1 6f bb 4c 42 17 3c a2 a9 fc ba
       0.005682044 -0.0036602833 0.009232115 -0.0019276629
0002f0 c4 f0 0f bb 68 8d 91 bc 75 dc 14 3b 9c 7d 1d bc
       -0.0021963576 -0.017767623 0.002271441 -0.009612467
000300 b0 14 45 3a 50 a5 ab 3b 59 d4 5d bb 3b 22 37 3c
       0.0007518036 0.0052382126 -0.0033848493 0.011177595
000310 5a 16 8a 3c f3 6e 43 bb 05 90 13 bc 49 45 6c bb
       0.016856361 -0.002982077 -0.009006505 -0.003605204
000320 a8 cd 80 3c ed 47 57 bc f8 3d cd bb cc 4a 90 3b
       0.015723065 -0.013139707 -0.0062634908 0.0044034477
000330 47 9a 36 3b d6 ca ab bb c5 5c 97 bb 13 6e 8a 3c
       0.0027862953 -0.005242686 -0.0046192133 0.01689819
000340 e7 3a a4 bc bc 99 18 3c fa c1 1b bc 7e 3f 9d 3c
       -0.020047618 0.009313997 -0.009506697 0.019195314
000350 d1 6c 28 bb 3f ff 7b 3c c8 3b 23 bc 68 6c 3b bb
       -0.0025699625 0.01538068 -0.009962983 -0.002859855
000360 1a b4 c0 bb 3c 2d 15 3b 31 50 76 b9 23 0e 9c bb
       -0.005880845 0.0022762557 -0.00023490262 -0.0047624274
000370 b2 01 88 3a b3 c6 b2 bb 6b 56 59 3c 0e 30 14 3c
       0.0010376482 -0.0054558157 0.013265233 0.00904466
000380 df 62 1f bc 03 9b e2 38 06 77 19 bb a1 39 0e bb
       -0.009728163 0.00010805393 -0.002341689 -0.002170183
000390 e7 61 ad 3a 36 55 d1 bb 26 46 01 bb 91 26 02 bc
       0.001322803 -0.0063883318 -0.001972565 -0.007943765
0003a0 a7 33 86 3b e2 c0 c5 3b ac d0 52 3b 2a 7f 86 3c
       0.004095513 0.0060349563 0.0032167835 0.016418058
0003b0 33 f9 c7 3b 13 b7 df 3a 95 b8 ec 3b b6 49 b2 3c
       0.006102705 0.001706811 0.0072241523 0.021763664
0003c0 e3 7f 69 3c aa d8 96 bb 82 f6 05 3c a5 f7 55 bb
       0.014251682 -0.004603465 0.008176448 -0.0032648828
0003d0 94 d4 f4 38 a1 ad 9e 3b e0 02 f5 3b de c6 de bb
       0.000116744224 0.0048424755 0.0074771494 -0.006798609
0003e0 19 72 0e bc c7 ac a6 bb ac e4 8b 3a 54 a0 7b bc
       -0.008694195 -0.0050865146 0.0010673008 -0.015358049
0003f0 82 6a fc 3b a2 b6 22 bb 8c 25 61 39 8d 91 04 bc
       0.0077031264 -0.0024828096 0.0002147166 -0.008091343

action_model._discrete_distribution.branches.1.bias f4 [4]
000000 2b 5f 4f 3a 12 56 1b ba 2b e9 a1 ba 06 19 e3 3a
       0.00079106045 -0.0005925606 -0.0012352815 0.0017326183

action_model._discrete_distribution.branches.1.weight f4 [4, 128]
000000 c0 2e 21 bb 27 32 3f 3c 15 cb 8b 3c de c9 78 bb
       -0.0024594516 0.011669672 0.01706461 -0.003796212
000010 f0 7c 7e bb ce cb 53 3c 45 58 c0 ba 35 a6 23 bb
       -0.0038831793 0.012927009 -0.0014674744 -0.0024970893
000020 80 21 05 3c 9e 83 00 bc 66 d4 be ba 1b c9 58 bb
       0.008125663 -0.00784388 -0.0014559149 -0.0033078853
000030 2e 2b 78 3c 94 88 18 bc c7 1d 99 bb 73 74 74 bc
       0.015147014 -0.0093099065 -0.004672739 -0.014920342
000040 e3 51 00 ba 5a f9 8e bb d6 7d 85 bb 67 5f 73 3b
       -0.00048950146 -0.004363221 -0.0040738387 0.0037135722
000050 29 26 82 bb c0 f5 ec 3b 7f e1 a2 3b 2b 94 59 3c
       -0.003971834 0.007231444 0.004970729 0.013279955
000060 dc 66 b1 bb cc fb 5e 3a e3 15 b4 bb ce 5f 23 bc
       -0.005413873 0.00085061486 -0.005495773 -0.009971572
000070 7f da 53 b9 35 96 ad b9 aa 94 28 3c b0 67 34 bc
       -0.00020203924 -0.00033109044 0.0102893505 -0.011011049
000080 9f dd ec 3b 16 74 85 3c 16 2a 50 bb 15 32 d9 3b
       0.0072285677 0.016290706 -0.0031763366 0.0066282847
000090 8c ac 93 3a e2 b7 7d 3b 77 8b 97 bb da 14 22 3c
       0.0011266633 0.003871434 -0.00462478 0.009892667
0000a0 36 89 14 3c 44 73 00 3c 9f 89 ac 3c 1e 4c 1a bc
       0.009065917 0.0078399815 0.021061717 -0.009417562
0000b0 30 ee 09 3b dd 78 47 3c 54 2b 35 bb 93 26 00 bb
       0.0021046512 0.012174812 -0.0027644234 -0.0019554242
0000c0 41 c4 4a bb af c7 21 3b 19 15 2f bc 85 da 83 3c
       -0.003093973 0.002468567 -0.010686182 0.01609541
0000d0 23 82 45 3c 62 61 a9 bc fe 3f fb bb 28 86 ef bb
       0.012054953 -0.020676319 -0.0076675406 -0.007309694
0000e0 af b3 d7 ba 0a 11 27 3c ca fb fb bb ad ca 32 bc
       -0.0016456748 0.0101969335 -0.0076899277 -0.0109125795
0000f0 13 1b bd bb 13 7c 12 3c 92 c5 a5 bb 8d 78 b0 3b
       -0.0057710498 0.008940714 -0.0050589526 0.0053854645
000100 41 6d 08 3c 2c d5 47 bc 7c 8b d6 bc ed e8 b4 3b
       0.008326829 -0.01219682 -0.026189558 0.005520931
000110 c1 41 12 bb dc 07 1c 3b d1 93 3c bc 57 88 86 3b
       -0.0022317024 0.0023808395 -0.011509852 0.0041056084
000120 2a 45 d2 3b d2 e6 be 3b 8b 71 1f 3c 10 94 f8 bb
       0.0064169364 0.005825856 0.009731661 -0.00758601
000130 6c 35 2a 3c dd 4f 8a 3a d6 16 0d 3b c1 7b 31 3c
       0.010388713 0.0010552366 0.0021528504 0.010832728
000140 cc 2d eb 3b 14 02 14 3c 3e 4f 4b 39 79 e9 a0 bb
       0.0071770903 0.009033699 0.00019389109 -0.0049106446
000150 36 42 40 3c d0 df 0b bb f6 bc 33 bc 5c a2 07 bb
       0.011734536 -0.002134312 -0.010970345 -0.002069614
000160 2f ac f2 bb ac aa 04 3a 14 d6 c8 3b 41 83 2b bc
       -0.00740578 0.00050608325 0.0061290357 -0.010468305
000170 53 69 f8 3a 27 59 0b bc f3 93 f1 3a 05 ec ad bb
       0.0018952288 -0.008505142 0.0018430933 -0.0053076767
000180 9a b1 20 3c 6e 8d 38 bb 37 00 3a 3c 57 fa 85 3b
       0.0098079685 -0.002816047 0.01135259 0.0040886807
000190 69 51 8f 3b 48 53 32 3c 80 6f 41 3c 36 49 90 bb
       0.0043737185 0.010884114 0.011806369 -0.0044032587
0001a0 58 23 ed 3a 3f 75 b8 39 94 4b 4e bc 9d 8e b1 3b
       0.0018092198 0.0003518257 -0.012591261 0.005418612
0001b0 b4 9e b6 3a 67 67 47 3c 72 4a 1c bc 12 53 26 3b
       0.0013932795 0.012170649 -0.0095392335 0.0025379104
0001c0 9e 98 68 bb da fe c5 bb b2 72 df b9 eb cd 80 bc
       -0.0035491358 -0.0060423436 -0.0004261933 -0.01572319
0001d0 11 42 1d 3c ac bf 15 bb 02 5f 04 bc 1a 74 8c bb
       0.009598271 -0.002284984 -0.008079292 -0.0042863013
0001e0 c8 06 16 bc d7 c6 b8 3b fa de c1 ba f7 26 10 3c
       -0.00915689 0.005638938 -0.0014791184 0.008798352
0001f0 7a 6a 8c 3c d4 8e f2 3b 1a 8f 5f bc 7f 35 4b 3c
       0.017140616 0.0074022803 -0.013644958 0.012402891
000200 06 9a 24 bb 1a c2 74 bc 5f ed ac 3a ad 73 7a bb
       -0.002511622 -0.014938856 0.0013193301 -0.003821592
000210 86 9e 8a bc 93 fc 46 3b 3c 0f 3c 3c c4 fa 28 3b
       -0.016921293 0.0030362948 0.0114782415 0.0025784234
000220 ea 8d 50 bc 26 60 fb 3a 00 4e 92 3a cc 4c 01 ba
       -0.012729147 0.0019178435 0.0011162162 -0.0004932403
000230 9b 59 d4 3b 68 bf 57 3b 2f 7b 1a bc e1 13 48 bc
       0.0064804084 0.0032920483 -0.009428783 -0.012211771
000240 ad f8 7b 3c 76 45 0d 3c 35 f0 0d 3c e8 6a 43 bc
       0.015379113 0.008622518 0.008663227 -0.011927344
000250 5b 0f 61 3c 7d 17 dd bb 45 7d 0d bc 90 5c 5f 3a
       0.013736571 -0.006747185 -0.008635824 0.0008520568
000260 a2 31 4a 3c b8 ae 1b 3c 8a 19 aa bc e4 b7 3e 3c
       0.012340935 0.009502105 -0.020764131 0.011640523
000270 5e 58 26 bc 35 63 3c bc 86 a8 ea ba 1b 4b 5e bc
       -0.010152904 -0.011498262 -0.0017903007 -0.013567711
000280 fa 20 16 bb cb 99 07 3c e5 bf 0a bc 4e 85 1f b9
       -0.002290784 0.008276413 -0.008468603 -0.00015213081
000290 e5 f3 d4 3c a9 2d 25 bc e1 42 25 ba 9f 1c 50 3b
       0.025995204 -0.010081687 -0.0006304216 0.003175534
0002a0 00 c1 d7 39 82 bd 07 bb ef ed 87 3b b5 80 2b bb
       0.00041151792 -0.002071232 0.004148237 -0.0026169245
0002b0 81 fc 97 bc 6b 8d e5 3a ba cf 22 3c 68 a6 03 3a
       -0.01855302 0.0017513459 0.009937221 0.000502205
0002c0 6d a0 30 bb 32 32 7d ba 0e 08 a6 39 60 87 cb 3b
       -0.002695109 -0.0009658664 0.00031667989 0.0062112063
0002d0 4e ac 00 3c db 54 7c 3c 00 e9 87 3b 3b 22 9e 3b
       0.007853581 0.0154010905 0.004147649 0.004825858
0002e0 da 52 e0 3b 4b d0 57 3b 91 2b 6d 3c 47 9b 93 3c
       0.006845814 0.0032930549 0.014475719 0.018018378
0002f0 95 10 c9 3b 5e 48 af bb 25 bb d4 3b 0c c5 a8 3c
       0.00613601 -0.005349203 0.006492036 0.020601772
000300 ab b7 7d bb 43 7a 30 3c 02 ab fa 3b 03 5b 17 ba
       -0.003871421 0.010771337 0.0076497803 -0.00057737547
000310 04 79 03 3c a4 ab 19 bc 3b 5e 8c 3c 7a fb df 3a
       0.008024458 -0.009379301 0.017134776 0.0017088496
000320 e0 61 15 ba d7 7c 4f bc 63 2d 70 ba 30 63 fc 39
       -0.00056984834 -0.0126640415 -0.00091620366 0.00048139086
000330 6a 12 df 3b f0 b0 fa 3b 93 c8 bb 3a 5b 5f a6 3b
       0.006807615 0.007650487 0.0014326744 0.005077285
000340 4f f3 41 bc fe 8b 2f bb 03 62 f7 bb 73 73 2a 3c
       -0.011837794 -0.0026786323 -0.0075495257 0.010403502
000350 63 df 05 3c 3c 1c 08 3c 27 1e aa bb 0d 04 60 bc
       0.008170935 0.008307513 -0.0051915827 -0.013672841
000360 57 29 a4 3b c0 cc 2c bc 56 80 c3 ba f8 f6 db bb
       0.005009811 -0.010546863 -0.0014915566 -0.0067127906
000370 36 4e 0c bc 3a 52 8a 3c ae ad ad bb 6b 27 11 bc
       -0.008563569 0.016884912 -0.0053002452 -0.008859496
000380 0e 9b 06 3c 6f 76 9e 3b 5f 90 3b 3c d2 2b 16 b9
       0.008215679 0.0048358957 0.011447995 -0.00014321439
000390 f4 d1 95 bb 53 81 c2 bb c2 c3 af 3a 41 e2 2e 3c
       -0.0045721475 -0.005935827 0.0013409781 0.01067406
0003a0 eb 7c 55 bc 38 f7 0b bc 2e 1e 05 3c de 1a 3a ba
       -0.013030271 -0.008542828 0.008124871 -0.00070993404
0003b0 49 e8 c6 3a 6d cb 91 3b ab be 25 3c 9b de e3 3b
       0.0015175428 0.004449299 0.01011626 0.006954027
0003c0 12 39 34 bc bc ff 30 3b b6 21 8a 3c a4 d4 7f 3b
       -0.010999935 0.0027007898 0.016861778 0.0039036656
0003d0 4d 34 52 3b c6 5c ad 3c ea 8f 00 bc fa 6b b5 bb
       0.003207463 0.021162402 -0.007846812 -0.0055365534
0003e0 cd 3d 8b bb cf ea d3 3b 31 eb 27 bb 11 32 19 bc
       -0.0042493106 0.0064672004 -0.0025622363 -0.009350316
0003f0 7b 62 2e bc d4 08 56 3c a7 49 4a 3b 6c 09 07 3c
       -0.010643597 0.013063628 0.0030866654 0.008241992

discrete_action_output_shape f4 [1, 2]
000000 00 00 80 40 00 00 80 40
       4.0 4.0

network_body._body_endoder.seq_layers.0.bias f4 [128]
000000 b8 da 80 bb e9 bf e0 ba ca b8 16 3b ce 3d af 39
       -0.0039323233 -0.0017147037 0.0022998326 0.0003342465
000010 b7 dd 2e bb 73 52 93 3a 86 c7 64 bb 0a 18 a6 3a
       -0.0026682445 0.0011239782 -0.0034908964 0.0012671959
000020 ea 9b 04 bb d4 4c 88 39 cf ed 95 ba 86 ea 99 3a
       -0.0020234534 0.00025997183 -0.001143867 0.0011742867
000030 bb 91 8a ba 5e d5 14 b9 be d6 3d 3a 5d 3c 54 bb
       -0.0010571996 -0.00014193865 0.0007241777 -0.0032384612
000040 d5 fd 70 b8 5e b2 15 3b 7e 55 b5 ba b1 75 c1 3a
       -5.745686e-05 0.002284191 -0.0013834683 0.0014759806
000050 18 9e bc ba 4e 2b f3 ba 56 84 fa b9 69 be 62 bb
       -0.0014390377 -0.0018552335 -0.00047782314 -0.0034598357
000060 a8 52 99 ba 80 02 ef ba 96 52 2c b9 ee 8b ba 3a
       -0.0011697607 -0.0018234998 -0.00016433964 0.0014232376
000070 77 c2 db ba e6 ae a8 38 5e b2 8c 3a 84 9b c3 ba
       -0.0016766329 8.0434416e-05 0.001073431 -0.0014923667
000080 58 66 ab b8 01 fb 7a ba e5 9a 8c 3a 04 80 37 3b
       -8.1729784e-05 -0.00095741457 0.0010727315 0.0027999887
000090 4b 53 0c 3b fc cb 2e bb 0a 81 32 bb 45 30 15 3b
       0.0021411951 -0.0026671877 -0.0027237558 0.0022764367
0000a0 ea 96 fd b9 ad 6b 47 3a bf a4 d1 3a 7e 9c a6 ba
       -0.0004836836 0.00076072925 0.0015994533 -0.0012711433
0000b0 16 f5 3a ba 2b 7f 12 3b 31 8d ff ba b8 6f 1d b9
       -0.00071318576 0.002235363 -0.0019497034 -0.00015014305
0000c0 e3 e1 c2 39 9b 8c 8b 3a 18 3c 6f ba 36 bf 6d 3a
       0.00037170862 0.0010646762 -0.0009126081 0.0009069325
0000d0 84 da d9 ba 0d b6 9a 3b a8 5a 4e bb 71 76 0b bb
       -0.0016620909 0.004721409 -0.003148714 -0.0021280313
0000e0 33 74 e7 3a d8 a3 9d 3a 64 d4 71 3b cb a3 04 bb
       0.0017658531 0.0012026979 0.0036900276 -0.002023923
0000f0 9c 9b 4a ba 07 20 3c 3b 5e 94 10 ba 9d da cf b9
       -0.0007728876 0.0028705613 -0.00055152725 -0.00039644996
000100 01 2f 18 bb 27 33 36 39 82 7b 5d ba 79 cf e2 3a
       -0.0023221376 0.00017375928 -0.0008448885 0.0017304263
000110 b1 c4 15 3b 10 67 91 3b c4 68 f0 ba d4 43 bf 35
       0.0022852833 0.004437335 -0.001834177 1.425035e-06
000120 19 52 05 bb 9f 00 9d ba c2 4b b6 ba 2b 18 bc 3a
       -0.0020343123 -0.0011978335 -0.0013908076 0.0014350464
000130 98 53 36 ba f5 5b c7 3a 7a 86 ef 3a 58 69 cd ba
       -0.00069552055 0.00152099 0.001827433 -0.0015671654
000140 b6 9c ab b9 9f 5c 89 39 48 0f b3 39 3d 97 89 39
       -0.0003273242 0.00026199684 0.00034152926 0.00026243358
000150 ec b3 21 bb bf 24 1f 38 31 83 4e 3b b9 e2 ce 3b
       -0.0024673892 3.7942777e-05 0.0031511302 0.0063136485
000160 8d ea 08 b9 b9 10 61 ba 41 19 51 3b e3 8b 5d 39
       -0.00013057348 -0.0008585561 0.0031905922 0.00021128314
000170 57 eb b0 39 cc 91 77 bb 69 30 14 3b 7b a1 c0 ba
       0.00033744678 -0.003777611 0.0022611863 -0.0014696562
000180 97 6e b9 3a d2 af 75 39 53 e4 06 3a 0d 02 98 ba
       0.0014147338 0.00023430519 0.00051457173 -0.0011597291
000190 3c 61 6b b9 4e 65 04 3b 65 fa 6c 3a d3 22 59 3a
       -0.00022447569 0.0020201984 0.0009039997 0.0008283082
0001a0 8a a0 e0 ba 91 21 2b ba 8e ab d3 ba 69 4d e6 3a
       -0.0017137688 -0.0006528134 -0.001614915 0.0017570677
0001b0 b3 0b fd ba 77 f5 20 bb 86 f0 06 ba 6c be 63 ba
       -0.0019305855 -0.002456037 -0.0005147535 -0.0008687738
0001c0 19 c4 be 3a bb 0a 9d ba 77 e6 40 3b 2a 6a 4b 3b
       0.0014554291 -0.0011981347 0.0029434243 0.003103862
0001d0 98 c5 26 ba d9 ed 8b 39 87 8c 9e 3a ab ce 9c ba
       -0.0006361841 0.00026689356 0.0012096324 -0.0011963447
0001e0 90 fe 13 bb 14 64 8f 3a 3d bc ec b9 e0 10 15 bb
       -0.002258215 0.001093986 -0.00045153676 -0.0022745654
0001f0 a7 0e a2 38 4a c7 c4 39 fb 11 f0 ba af 3e 4b ba
       7.727491e-05 0.00037532515 -0.0018315905 -0.0007753176

network_body._body_endoder.seq_layers.0.weight f4 [128, 48]
000000 6d 1b a6 bc f5 cd fc ba d3 eb ed bc 9f 04 5c 3d
       -0.02027675 -0.0019287454 -0.029043114 0.053715345
000010 d7 85 27 be 2a f3 2e be 48 16 3a 3e e5 6c 95 3d
       -0.1635965 -0.17084947 0.18172562 0.072961606
000020 2a 80 c1 3d e1 12 b0 bd 8a 7c 80 3c 6d cb 32 3d
       0.094482735 -0.08597351 0.015684385 0.043651033
000030 47 d8 9f 3d 6b 53 7c 3d 2a eb 9a bd db 70 10 3e
       0.078049235 0.06160299 -0.07564385 0.14105551
000040 42 bc a0 3d 07 42 18 3e 17 86 5c 3c 02 50 eb bd
       0.07848407 0.14868937 0.013459704 -0.1148987
000050 d2 d5 d5 3d 6b f5 9c bd e0 8f 18 be c2 ef 98 bc
       0.104411736 -0.07663997 -0.14898634 -0.018669013
000060 cf 26 66 bc d7 16 22 3e 0b 1a 30 be 3d aa 7a bd
       -0.014047339 0.15829025 -0.17197435 -0.061197508
000070 38 25 75 be 8e 3d 23 3d 74 02 1a 3e 76 4e cd bd
       -0.23939979 0.039853625 0.15039998 -0.10024731
000080 d3 10 d8 bb 4a 11 0a 3f e2 6f 86 bd 8b bd bb be
       -0.0065938025 0.5393263 -0.06564309 -0.36668047
000090 74 17 48 3c 21 81 c1 3d e4 d1 f4 bb 0f 9a 08 3d
       0.012212623 0.094484575 -0.00747131 0.033350047
0000a0 1e 63 65 be 97 b5 09 bd 44 11 e4 3c 98 fc ab 3b
       -0.22401091 -0.033620443 0.027840264 0.0052486174
0000b0 7f 85 7f be db 60 2e bd d4 87 20 3c 8a 6e b7 bd
       -0.24953268 -0.042572837 0.009798009 -0.089566305
0000c0 cb 16 5b 3d d2 cd be 3d ad 7d 91 3e 4c c2 1a be
       0.053488534 0.09316601 0.28416196 -0.15113181
0000d0 10 d7 14 be f0 a6 91 bc d4 fe 00 be b0 60 b9 bd
       -0.14535165 -0.017779797 -0.12597209 -0.09051645
0000e0 36 58 8a be 59 3a 62 3e 1f 36 89 bd 84 22 60 3d
       -0.27020425 0.2209257 -0.06699776 0.054720417
0000f0 f9 df 0f 3e 94 ed bc bd 7c a4 92 be 47 29 64 3c
       0.14050283 -0.09225002 -0.28641117 0.013925857
000100 d8 e3 6b be 60 7d ed bc c2 fc 4d 3e 0f f4 2d 3e
       -0.23036134 -0.028990448 0.2011595 0.16987632
000110 3a 00 81 bd db b8 2c 3e 4f da c6 bd e5 39 04 be
       -0.06298871 0.16867392 -0.09709608 -0.1291271
000120 03 09 ae 3e 6d e5 3d 3e 5f 5b 1a bd f1 03 7b 3d
       0.3399125 0.1854455 -0.037684795 0.061283056
000130 9a 11 08 bc bb d6 11 be c0 36 80 bb 39 c5 a2 bd
       -0.008304978 -0.1424207 -0.0039127767 -0.079477735
000140 bc 08 f4 bd b7 26 66 be 24 00 39 be 3e 8f d9 3c
       -0.119157284 -0.22475706 -0.1806646 0.026557561
000150 23 ee 20 be 0f d3 3e be 35 b1 a8 3e fa 5a 5f be
       -0.15715842 -0.186352 0.32947698 -0.21812049
000160 5a 0b 74 3a b7 b9 1e 3d 26 c1 aa bd b6 2e 83 3d
       0.0009309553 0.03875133 -0.083376214 0.06405394
000170 a8 16 d2 bd 40 0f 5c 3e a4 cb 52 bc ef 05 35 3d
       -0.102582276 0.21490192 -0.0128659345 0.04419511
000180 dc 8d e3 bc 39 0a 62 3d e2 32 dd bd 50 e7 93 bd
       -0.027777605 0.05518553 -0.10800721 -0.07221854
000190 b6 cc 22 be c7 26 1c bc ba 88 2f be 22 00 10 3e
       -0.15898404 -0.00953073 -0.17142001 0.1406255
0001a0 e4 0d 41 bb 90 ea f4 3d f0 33 9c 3b a0 af b6 bc
       -0.0029457742 0.11958802 0.0047669336 -0.022300541
0001b0 4c 00 96 bd 27 86 ef 3d a3 b0 86 be e9 d9 91 bc
       -0.073242754 0.116955094 -0.26306638 -0.017804103
0001c0 5c 77 e5 bd 3f e8 5f 3a e2 1e 02 3c 92 86 eb 3e
       -0.112044066 0.0008541382 0.007941933 0.46001107
0001d0 6f 33 63 be a0 d1 ab bd a0 a8 bd bc dd 5c 91 3d
       -0.22187589 -0.08389592 -0.023151696 0.070977904
0001e0 a3 7e ed ba a8 f3 31 3e f0 9a 49 be db f5 3f 3e
       -0.0018119406 0.17378104 -0.1968801 0.1874613
0001f0 97 f2 cc bd 36 27 3a 3e 17 22 51 3d db b5 46 bd
       -0.10007208 0.1817902 0.0510579 -0.048513275
000200 34 0d 91 bd 33 42 4d be a4 7b b2 3d dc 88 71 3d
       -0.070825964 -0.20044784 0.08714989 0.05896841
000210 74 79 c7 bd ca dc 6f be 48 9f 1e 3e 6f f2 22 3e
       -0.09739962 -0.23424068 0.15490448 0.15912794
000220 9b c1 50 3d cc 73 4f be 2b 6a 01 bd 58 31 17 3d
       0.050965887 -0.20259017 -0.03159539 0.036912292
000230 56 d6 72 3d 2d 20 31 3e 7e b3 7c bd c4 6b 4f 3d
       0.059286438 0.1729743 -0.061694615 0.050639883
000240 6e 6a a1 3d d9 0b 26 be 8f 4f ff 3c 10 3e 97 bd
       0.07881628 -0.16215457 0.031165866 -0.07384884
000250 8e 84 73 3d 9e cd 98 3d 54 3c 99 3d d0 ff 48 3e
       0.059452586 0.07461093 0.0748221 0.19628835
000260 ea 3d 0e 3e 7f 4c fa bd 63 5b 10 be 4a a3 35 3d
       0.13890806 -0.12221622 -0.14097361 0.044345178
000270 61 71 89 be 05 72 96 bd 55 99 46 3d c9 41 57 bd
       -0.26844314 -0.07345966 0.048486073 -0.052552972
000280 99 ad 56 bd 62 80 72 3c 91 cd 59 be 8a f9 87 be
       -0.05241165 0.014801117 -0.21269824 -0.2655757
000290 47 43 08 3e 58 d2 07 be 8a 3d 08 be 9d e7 84 be
       0.13306914 -0.13263834 -0.13304725 -0.25957957
0002a0 9c 62 78 be 06 35 16 3c 9d af 12 be b2 25 97 bd
       -0.24256366 0.009167915 -0.14324804 -0.07380237
0002b0 e1 92 76 3e 5b f2 3b be 21 f1 f5 bd 55 94 37 3d
       0.24079467 -0.1835417 -0.12008882 0.044819195
0002c0 cf dc f4 bc f3 0e c4 3d 5f 70 8b bd c6 93 0a 3e
       -0.029890446 0.09573164 -0.068085425 0.13532934
0002d0 43 76 41 bd 32 48 44 3b 3e 3b f3 bd 4d 51 75 3d
       -0.047231924 0.0029950258 -0.11876534 0.059891988
0002e0 81 b2 e5 3d 5c 95 40 3e 88 5d 89 bb d7 08 0a 3e
       0.112156875 0.18806976 -0.004192058 0.13479935
0002f0 ce 33 8a 3e d0 47 43 3e 5c 32 94 3b 27 db 0d 3e
       0.2699265 0.19070363 0.004522605 0.13853131
000300 94 2c 4a be 38 b6 61 3e d6 2c 01 3e fb f4 e3 bd
       -0.19743568 0.22042167 0.1261476 -0.11130711
000310 af 3e e8 3b 0f 61 50 3d 5a 95 bc bd 61 dd 97 bc
       0.0070875506 0.050873812 -0.09208174 -0.018538179
000320 65 cb 77 3d 80 57 98 3e 06 75 06 3c ad ad 35 3c
       0.060496707 0.29754257 0.0082066115 0.011088771
000330 4c 35 ed 3d d9 28 61 3c ea 8f 88 bd 34 c4 34 be
       0.11582431 0.013742649 -0.066680744 -0.1765297
000340 ac d1 5e bd 77 13 89 3d ce d2 95 bc 77 99 ab be
       -0.054399177 0.06693166 -0.018288996 -0.33515522
000350 4b 1c 3a bd c3 b9 4b be 41 6e 1f be aa 16 b3 bc
       -0.04543714 -0.19895081 -0.15569402 -0.021861393
000360 62 83 c9 bd af 68 4d bd df c6 91 bc 4d 14 25 3d
       -0.098395124 -0.050148662 -0.017795024 0.040302563
000370 52 12 3b bd 56 e0 f8 bd 6d e3 1d 3e 4c b2 8d be
       -0.04567177 -0.12152164 0.15418787 -0.27675092
000380 e3 f5 52 be b2 52 42 be ce 43 e2 bd ca 40 3a 3d
       -0.20601611 -0.18976858 -0.11048089 0.045471944
000390 af 91 1e be 52 8d ec bd 65 0a b3 3d bd 08 89 bd
       -0.15485261 -0.11550392 0.08742217 -0.0669112
0003a0 91 f8 1e be 6a cb d4 bd 74 ab be 3c a6 2f 09 3e
       -0.15524508 -0.10390361 0.023275115 0.13397083
0003b0 8b 62 c3 bd 56 b8 dc 3d 6d 70 90 3d 5b 46 af 3c
       -0.0954028 0.10777347 0.070526935 0.021395853
0003c0 0f 22 1e be fa 55 a4 bd ce df c7 3d d4 8f 2d 3e
       -0.1544268 -0.08024211 0.09759484 0.16949397
0003d0 fa 14 59 bd da 03 48 bd dd df 53 3c b0 85 4a bc
       -0.05299852 -0.048831798 0.012931791 -0.012360975
0003e0 cb a3 2c be 75 6a 85 3e 2b 17 70 bd d4 66 85 be
       -0.16859357 0.26057783 -0.058615845 -0.26055014
0003f0 bc f0 67 be 01 2e 7e 3d a0 16 22 bd fb a8 12 be
       -0.22650427 0.06205559 -0.039572358 -0.14322273

network_body._body_endoder.seq_layers.2.bias f4 [128]
000000 54 88 e8 39 ac 1e e5 3a 27 56 21 3b b8 58 92 ba
       0.0004435206 0.0017480454 0.0024618001 -0.0011165356
000010 24 0c 07 3a 51 70 85 bb e3 7e 00 39 35 6f 80 ba
       0.00051516504 -0.004072227 0.000122543 -0.0009798767
000020 56 9f 3b 3a 4e 56 55 ba 01 15 3f bb 7f 98 3d ba
       0.0007157227 -0.00081381656 -0.0029156806 -0.00072325015
000030 c4 82 16 b8 df e1 b0 39 3b d4 87 3b 3f e8 99 ba
       -3.5884572e-05 0.00033737623 0.004145173 -0.0011742188
000040 79 0b 11 3a 97 02 17 bb cd 0b 8d ba 3e 0d 87 39
       0.00055330206 -0.0023042315 -0.0010760963 0.00025759073
000050 90 bb 9e ba 72 a8 10 3b 34 41 53 ba 10 f2 4d 39
       -0.0012110341 0.0022073057 -0.0008058727 0.00019640499
000060 bd f3 bd 39 f1 3c 16 3b dc e6 0f 3b b7 78 f6 ba
       0.00036230488 0.0022924508 0.0021957671 -0.0018804286
000070 ea 1f 16 3a 89 35 63 bb bf 07 f3 b9 23 9f d1 b9
       0.00057268015 -0.003466936 -0.00046354343 -0.00039982153
000080 de 19 84 39 9c 29 e8 3a 95 67 f0 ba 3f 2b 0e 3b
       0.00025196275 0.0017712596 -0.0018341417 0.0021693257
000090 4e ac 28 39 0d a7 3a 3a 1d f3 75 ba 7d 17 6e 3a
       0.00016085917 0.00071202294 -0.0009382235 0.00090824795
0000a0 dc 6f 13 bb d3 19 fa ba 7c 56 9d 3a e5 c2 3b 3b
       -0.0022497093 -0.0019081183 0.0012003924 0.0028650102
0000b0 98 29 54 3a 6e 7b db 3a f2 83 80 3b a3 b5 c7 ba
       0.0008093356 0.0016745159 0.003921979 -0.0015236627
0000c0 65 10 85 ba 7b 81 ed b9 48 1e 63 ba 94 32 75 3a
       -0.0010151981 -0.00045300633 -0.0008663875 0.0009353545
0000d0 04 60 57 3a 6d 22 9a 3a 37 5f cb 39 e4 4e 67 ba
       0.00082159066 0.0011759527 0.00038790118 -0.00088237063
0000e0 f5 d1 86 ba d1 61 19 3b c0 c1 ca ba d7 53 f8 ba
       -0.0010285961 0.002340425 -0.0015469119 -0.0018945885
0000f0 69 eb 18 bb 3c fb a1 3a 76 18 38 39 7c ee f3 39
       -0.0023333675 0.0012358199 0.0001755672 0.00046526256
000100 c8 3b 49 3a eb 94 ab ba fb b0 82 ba 49 67 2c bb
       0.00076764496 -0.0013090646 -0.0009970957 -0.002630668
000110 5b 3f 02 bb 98 0e 2b 39 3f 33 15 bb bc 50 2b 3a
       -0.0019874189 0.00016313267 -0.002276614 0.00065351627
000120 dc a9 64 ba e5 f0 47 ba 30 dc 73 3b 4e 0e 9a b9
       -0.0008722821 -0.00076271436 0.00372101 -0.00029383827
000130 b2 bc 47 ba 39 23 c8 3a c3 d9 ea ba bd af b4 3a
       -0.00076193654 0.0015269286 -0.0017917681 0.0013785284
000140 75 2d ca 3a a5 07 05 3b 78 da ac ba 1c 6e ad bb
       0.0015424924 0.0020298746 -0.0013187667 -0.005292667
000150 6d f0 f7 39 e6 3d 3c bb 0f 2e 02 bb 18 71 03 bb
       0.00047290642 -0.0028723418 -0.001986388 -0.0020056423
000160 38 39 ba ba 8a 6e 09 bb 70 aa b5 3a 23 f0 6d 3a
       -0.0014207726 -0.0020970427 0.0013859998 0.00090766157
000170 76 1c e4 ba 84 05 af ba be 4f c3 ba 45 a9 d6 3a
       -0.0017403502 -0.0013353084 -0.0014901084 0.001637735
000180 5d 7f 97 3a a4 a0 1b bb 0a a8 21 ba d0 7e 52 ba
       0.0011558343 -0.0023746872 -0.00061667024 -0.0008029761
000190 f6 6d 6d 39 34 35 35 39 6a d1 cc 3a 10 f7 44 b9
       0.00022643045 0.00017281325 0.0015626375 -0.00018784055
0001a0 14 91 86 3a ba f3 47 3a 8e 59 d0 ba 90 13 0f bb
       0.0010266625 0.00076275656 -0.001589583 -0.0021831729
0001b0 1b d8 7e ba c8 6a 56 ba f0 e5 2a 3a a6 d6 ac ba
       -0.0009721533 -0.0008179364 0.0006519249 -0.0013186529
0001c0 8c a6 af ba 1b c9 0b 3b cd 33 59 b8 fd 16 18 bb
       -0.0013401075 0.0021329585 -5.1785075e-05 -0.0023207061
0001d0 af 4e 41 3b 76 4d 46 ba d8 b1 59 3a e6 40 c5 39
       0.0029496362 -0.0007564643 0.0008304394 0.0003762312
0001e0 e5 fc ed 3a a4 9a 36 3b fb d4 10 3b 99 df d8 ba
       0.0018157033 0.002786317 0.0022099603 -0.001654613
0001f0 7a c8 3f ba df 27 bc b9 ba 14 6a b8 54 e8 02 3b
       -0.0007315945 -0.0003588786 -5.580925e-05 0.0019974904

network_body._body_endoder.seq_layers.2.weight f4 [128, 128]
000000 15 92 b9 3d e9 9f af bd 01 ee 25 3e d4 1a c2 bc
       0.09061066 -0.08575422 0.16204073 -0.023694433
000010 28 6d 13 3d d6 fd 2a 3d ba 22 f8 bd 9f d4 d6 bd
       0.03599277 0.041745983 -0.121159986 -0.10489773
000020 81 ea 53 3c 31 5a 8d 3c e3 48 2c 3e bc 2e 0e be
       0.012934328 0.01725492 0.16824679 -0.13885015
000030 0a d5 fb bc 80 fa 0d be 45 18 45 3d c8 34 a0 bd
       -0.030741233 -0.1386509 0.04811885 -0.07822567
000040 19 e7 dc 3c 94 1d df bb 4f 99 6e 3d 7d 8d ad 3c
       0.026965665 -0.006808946 0.058251675 0.021185631
000050 b5 e9 2e bd 52 e5 92 ba 6a 63 43 bd 7f 2a c0 bd
       -0.04270335 -0.0011207259 -0.04770223 -0.093831055
000060 c3 90 aa bd 0c 4e a2 3d 98 ff 23 be ef ad ec bd
       -0.08328392 0.079250425 -0.1601547 -0.11556613
000070 0f 6c a2 bc 28 a2 36 3e cc 62 fe bd 06 a3 40 3d
       -0.019826917 0.17835295 -0.12421188 0.04703047
000080 19 86 d4 3a d2 87 8e 3d c0 39 5c 3d ae 0f c0 bd
       0.0016214281 0.069594994 0.053766012 -0.09377991
000090 5a ea 11 3c 7e cd 36 bb d7 f3 c7 bd c9 aa 03 bd
       0.008905971 -0.002789348 -0.09763306 -0.032145295
0000a0 1f 04 2d be b8 52 51 bc b7 c1 69 3d de 22 11 3d
       -0.16896103 -0.012776069 0.057069506 0.035433643
0000b0 95 5c 04 3e 97 08 19 3e 43 8d ec 3c 07 7d a1 bd
       0.12925942 0.14944683 0.028875953 -0.07885175
0000c0 b3 61 51 3b 7a 25 76 3d 9a 4d 95 bd e4 2d 89 bd
       0.0031949102 0.060094334 -0.07290192 -0.06698206
0000d0 a9 d0 06 be 83 47 f3 3d 6a e4 a2 3d 17 d6 16 3c
       -0.13165535 0.11878874 0.07953723 0.009206316
0000e0 1a df b7 3d 28 82 32 3e 3d 8e fc 3c be 43 27 3e
       0.089781 0.17432463 0.030829543 0.16334435
0000f0 51 c3 24 3d 5e 6e b0 3c 9c 5b b1 3d 1b bf 85 bd
       0.04022533 0.021537002 0.08660051 -0.06530591
000100 f4 06 2f bb 0d 7f 44 3d 43 3d ac bc 97 74 fc 3c
       -0.0026707025 0.047972728 -0.021025306 0.030817313
000110 02 7d 01 3e ac 18 2b ba 6b 1b 3b 3d ca ff bb 3d
       0.12645343 -0.0006526809 0.045680445 0.09179647
000120 8c fe b1 3d cb 3e de 3c 0e f5 2f 3e fb 66 21 bd
       0.08691129 0.027129551 0.17183325 -0.03940485
000130 2f 9f ac 3c 28 80 b3 bc 60 e0 fa bd 89 be 93 3b
       0.021071998 -0.021911696 -0.122498274 0.0045087975
000140 ab 58 a3 bd 0f 54 df 3d 98 7c 22 bb ac e4 bd 3d
       -0.079758964 0.10904705 -0.0024793502 0.09272131
000150 4d 83 23 be 29 66 73 be 15 bc 7c bb 18 fc de ba
       -0.15968056 -0.2376944 -0.0038564254 -0.0017012386
000160 99 29 a1 3c b6 41 47 3d 71 9b fa bd d4 3e de bd
       0.019673156 0.04864665 -0.12236679 -0.10851827
000170 2a f4 33 bd 2f a4 0c bd c2 13 67 3d 57 fd 2f 3e
       -0.043934025 -0.034336265 0.056415327 0.17186485
000180 ec 6f 9f 3d 9a 22 c5 bd a2 10 0e be 1c d5 d5 3d
       0.07785019 -0.0962574 -0.13873532 0.10441038
000190 a1 38 7d bd d7 5c df 3c 04 6e 0b 3e 11 f0 a4 bb
       -0.061821584 0.02726595 0.13616186 -0.005033501
0001a0 35 fb 76 bd 96 12 bd bd c6 41 c2 3d 5b 69 1e be
       -0.060298163 -0.092320606 0.094852015 -0.15469877
0001b0 b7 cd d8 bd 3f 07 0e bb 64 e1 51 3e f5 f8 b3 bd
       -0.10586112 -0.00216718 0.20496136 -0.08787719
0001c0 8a d9 6a 3b 51 a4 87 3c 2c 62 a3 3d 12 d0 b3 bd
       0.003583523 0.016557844 0.07977709 -0.08779921
0001d0 85 38 9e bb 57 dd 1b bd 26 e6 36 3d 4e fa ac bd
       -0.004828515 -0.038052883 0.04465308 -0.08446179
0001e0 37 a2 ca bb ef dd 5f 3b f4 da 61 3d 0b 5c 8b 3c
       -0.0061838883 0.0034159382 0.05514045 0.017011663
0001f0 2d 7b 11 3e 1c 92 d0 3d ef 45 dc bc 03 b6 09 3e
       0.14207144 0.10184118 -0.026888816 0.13448338
000200 c2 02 de 3d 47 d5 a6 bc 35 88 d9 bd 24 c8 b4 3d
       0.1084037 -0.02036537 -0.106216826 0.08827236
000210 b4 c5 3c 3d 84 0c 3d bc 6b 55 93 bc 03 38 9a bd
       0.046086982 -0.0115386285 -0.017985066 -0.07530215
000220 6c e9 2e 3d 4c e2 0d 3e ee 8b a3 bd 23 36 4e 3c
       0.042703077 0.13855857 -0.07985674 0.012586149
000230 05 ef f5 bd 13 8a 9f bd 97 1f 73 3d ec c3 23 bd
       -0.1200848 -0.077900074 0.0593563 -0.039981768
000240 ac ae c6 bd 9e f7 d0 bd be a0 14 be e5 52 eb 3d
       -0.09701285 -0.10203479 -0.14514443 0.1149042
000250 43 1a 5c 3d 63 e6 39 3d 1d 49 98 3d 17 be b8 3d
       0.053735983 0.04538573 0.0743582 0.09020632
000260 16 99 d3 bd ae 32 d3 ba 16 03 96 3d b4 e1 b3 bd
       -0.10331933 -0.0016113126 0.07324807 -0.08783284
000270 81 3d 2a 3e 4a 0b 29 3d 97 20 49 bd b5 79 39 be
       0.16625024 0.04127053 -0.049103346 -0.18112834
000280 f7 62 e2 bd 8d fa 59 bd c7 98 d5 3d a0 e2 84 bc
       -0.11054032 -0.05321746 0.104295306 -0.016221344
000290 52 bd c7 3d 96 d5 b7 3d ba 9a ac 3d a3 07 ff bd
       0.09752907 0.08976285 0.08427949 -0.124526285
0002a0 d6 a0 4a 3d b6 12 48 3e 38 31 25 be 08 ab 16 3e
       0.04946979 0.19538388 -0.16132057 0.1471368
0002b0 b9 de 15 bd 0e 8e 2e 3d dc 4c ec bd ee 7f 59 bc
       -0.036589358 0.042615943 -0.11538097 -0.01327513
0002c0 11 43 44 3b b3 c9 d2 3d 70 37 b8 bd a6 af 75 bd
       0.0029947201 0.10292377 -0.08994949 -0.059981965
0002d0 3b 85 df 3c 12 db 20 be 82 36 af bb fa 19 65 3d
       0.027285209 -0.15708569 -0.005347074 0.055932976
0002e0 0e 09 05 3e a2 30 0f be 46 3f e1 3d 2e 7a dd 3d
       0.12991735 -0.13983396 0.109983966 0.108143196
0002f0 9c 31 be bd 29 2e 67 bd 2a 72 14 be 94 c2 c5 bd
       -0.09286806 -0.056440506 -0.14496675 -0.096562535
000300 10 27 69 bd 04 8a 81 ba a1 82 20 3d 41 e6 a7 3a
       -0.05692202 -0.0009883051 0.039187077 0.001280971
000310 e9 3f 35 be a8 67 43 3d b5 73 60 bd 57 f5 26 bd
       -0.17700161 0.047706276 -0.054797847 -0.040761318
000320 7e 6e 78 3d 5a ea 1c be 21 e3 8a 3d ac d0 91 3d
       0.06065225 -0.15323773 0.06781603 0.07119879
000330 c1 70 36 be cd c4 01 3e 46 22 9f 3d ac 51 f3 3c
       -0.1781645 0.1267273 0.07770209 0.02970203
000340 30 da 33 3d b4 d9 31 ba 8e 44 4f 3d 58 43 b3 bc
       0.04390925 -0.00067844545 0.05060249 -0.021882698
000350 7f c3 5a 3d ed 31 03 3d 57 ee cb bc 8a 84 5b 3c
       0.053409096 0.032030035 -0.024893923 0.013398299
000360 f4 39 ab 3c e5 1d 8a 3c 1f f5 6e be 9b 00 e5 3d
       0.020901658 0.016859958 -0.23335694 0.11181756
000370 8d 80 2b be db ea 9b 3d 20 8f 54 bd 39 1d dc bd
       -0.16748257 0.076131545 -0.051894307 -0.10747761
000380 e7 cd 8c 3e 0c e6 88 bd 6d 20 0a 3e 9c 34 a3 3b
       0.2750084 -0.06684503 0.13488932 0.0049806368
000390 cf 12 bc 3d 98 bc 0a be 68 7a 52 3d a1 9f c3 3d
       0.09183275 -0.13548505 0.051386267 0.09551931
0003a0 5d a0 0e 3e 35 a5 84 bc 9e fe e6 3d 4f ed c5 3c
       0.13928361 -0.016192058 0.11279033 0.02416101
0003b0 e5 30 59 bd 0a 29 2e be 80 9a d5 bd 8a 33 8c bd
       -0.053025145 -0.17007843 -0.10429859 -0.06845768
0003c0 2a 96 a0 3d f8 58 fa bd 4c ff ba bd 4b 9e 13 3d
       0.078411415 -0.12224001 -0.09130725 0.03603963
0003d0 03 36 27 3d d7 b3 ba bd b0 8a 53 bc 33 3d f3 3c
       0.040822994 -0.09116333 -0.012911484 0.029692268
0003e0 eb dc 80 bc 7d 00 3a bc 16 8e 8d bc a4 fb 05 be
       -0.015730342 -0.0113526555 -0.017279666 -0.13084275
0003f0 88 aa 0e 3d 79 cc 32 bd 04 46 51 bd 78 16 88 3d
       0.0348306 -0.04365203 -0.051092163 0.066449106
