results/ppo/MlAgent/MlAgent-8192.onnx (onnx, 94853 bytes, 6 tensors)

action_model._discrete_distribution.branches.0.bias f4 [3]
0.0 0.0 0.0
00000000: 0000 0000 0000 0000 0000 0000

action_model._discrete_distribution.branches.0.weight f4 [3, 128]
-0.0024103483 -0.0015118762 0.006701647 -0.012120166 -0.0025652885 0.009950096 0.006797617 0.0006266735
-0.010529929 0.016911326 0.0057817786 -0.02063448 0.0054806317 -0.01321312 -0.002371664 -0.009661855
0.017581379 0.024112439 -0.0079930425 0.008320103 0.0014253617 0.012376004 -0.004892183 -0.010736231
-0.0036539752 -0.012022241 0.009171464 -0.022748517 0.00411522 -0.010984806 0.008699006 -0.0032044859
-0.00087008113 0.0067191212 0.0040697576 -0.008984162 -0.0001608052 -0.0064127096 0.00615868 -0.007818724
0.00641242 -0.01715221 0.0021347993 0.003372872 0.011743545 0.0028038605 -0.009615351 0.004619542
0.018022034 0.022649847 0.0035873286 0.00443637 -0.014246526 0.0048204134 -0.011178133 0.010223765
-0.0032534779 0.0067536766 -0.0069134794 0.005878442 -0.0058291336 -0.010876744 -0.00037500894 -0.0024028511
-0.0048966478 0.018810919 0.0027223935 -0.004726136 0.017972475 -0.0043069744 0.0014973223 0.0115516335
0.020396367 0.0017454783 0.003992868 9.6601805e-05 0.004292634 -0.0036124669 0.015133016 -0.0005779434
0.011560224 0.006801209 0.018892312 -0.009276325 -0.0127264885 0.0056324927 -0.014279063 -0.005300502
-0.009468998 -0.0030417345 -0.011818007 0.0007815847 0.0054425704 0.0069372407 0.008075415 0.005273911
0.012127924 -0.0056922263 -0.014513991 0.0048431573 0.004282867 -0.0073010623 -0.0017718585 0.0018525051
0.009935026 -0.015775325 0.005323461 0.004679153 -0.022466889 -0.019074492 -0.0036280488 0.009196351
-0.00044056942 -5.828201e-05 0.000213475 0.0032406189 -0.016593978 -0.0022073553 -0.0026356087 0.0011791545
0.0005509821 0.0011161274 0.00024431007 0.00015507636 -0.0019992555 -0.0054967143 0.0003802327 -0.015823804
0.0036100615 -0.011155537 -0.022780938 0.00435185 0.0009232469 0.012437958 -0.008428543 0.008467068
-0.005685016 0.016348345 -0.002377738 -0.0015708996 -0.013199339 -0.020479953 0.0053588306 0.0017413795
-0.0013867515 0.009688399 0.0042532305 0.0032595375 0.0060934033 -0.007309367 -0.0036982966 -0.005414845
0.006838798 0.000618708 -0.0006756047 -0.0114214 -0.009491529 -0.013195339 -0.001274465 0.005732342
-0.0063095912 -0.0021688126 0.00845996 -5.766842e-05 -0.0036696158 -0.0053353054 -0.003537168 -0.0033343215
0.00402787 0.0044724415 0.002912476 0.00043877686 -0.008164087 -0.010727294 0.007358031 -0.0073829787
-0.010974039 0.001751652 0.006003079 0.00019047153 -0.0027433801 -0.015076025 -0.0046839598 0.018343119
-0.008074448 0.0010100583 0.0084958095 -0.0050263 0.018598644 0.0071722665 0.00067235954 -0.009920858
-0.002794755 -0.010865192 0.0029374843 -0.029428212 -0.004181025 0.0058634896 0.0104605295 -0.0027090441
0.0014844021 -0.013771884 -0.004755894 0.0012495867 -0.0021099697 0.0020081825 0.003298853 0.010315559
0.0013784381 0.0068963277 -0.006312184 0.010971726 0.0023112162 -0.00818568 -0.0038577456 0.00017724046
0.0090592755 -0.0033648075 -0.0005438331 -0.012045264 -0.0017818194 0.018632593 -0.01333047 0.006201736
-0.0050511765 0.013807035 -0.014118649 0.0103783645 0.0019887253 -0.009286462 -0.007713937 -0.009595092
0.00190766 -0.008946239 -0.0018492014 0.0031437748 -0.002080837 0.0077242004 -0.003814157 0.0045046876
0.010782125 0.004929079 0.00386722 0.0010608664 -0.0030002936 0.004758104 -0.00096360984 0.009825782
0.00011983535 -0.0033236572 -0.01728152 -0.0043623177 0.007076427 -0.0036426806 0.006462101 -5.6098168e-05
00000000: eff6 1dbb 262a c6ba 7d99 db3b a993 46bc
00000010: 661e 28bb ba05 233c 8bbe de3b 5947 243a
00000020: b985 2cbc 9f89 8a3c 1375 bd3b a409 a9bc
00000030: df96 b33b d87b 58bc eb6d 1bbb c24c 1ebc
00000040: d306 903c 7387 c53c 40f5 02bc 0b51 083c
00000050: 34d3 ba3a b9c4 4a3c 9b4e a0bb 04e7 2fbc
00000060: 8877 6fbb eff8 44bc e843 163c 195b babc
00000070: f8d8 863b 9ef9 33bc 4786 0e3c 5a02 52bb
00000080: 2816 64ba 132c dc3b 9a5b 853b 4e32 13bc
00000090: d19d 28b9 b521 d2bb c1ce c93b 1b1a 00bc
000000a0: 471f d23b cb82 8cbc fde7 0b3b 670b 5d3b
000000b0: ff67 403c f9c0 373b b589 1dbc 875f 973b
000000c0: f2a2 933c 2c8c b93c 6319 6b3b f85e 913b
000000d0: 436a 69bc 8ff4 9d3b 7d24 37bc 9481 273c
000000e0: 4d38 55bb f24d dd3b 788a e2bb f29f c03b
000000f0: 5102 bfbb 5f34 32bc d99c c4b9 2779 1dbb
00000100: 0f74 a0bb 5b19 9a3c 2f6a 323b b4dd 9abb
00000110: 033b 933c 8521 8dbb cd41 c43a 1043 3d3c
00000120: 4816 a73c 88c8 e43a 9bd6 823b b396 ca38
00000130: 39a9 8c3b 23bf 6cbb 78f0 773c 2081 17ba
00000140: 1867 3d3c addc de3b 0dc4 9a3c bafb 17bc
00000150: c382 50bc c690 b83b bbf2 69bc d5af adbb
00000160: db23 1bbc d657 47bb 50a0 41bc 43e3 4c3a
00000170: 9757 b23b cb51 e33b bf4e 043c c6d0 ac3b
00000180: 33b4 463c db85 babb 17cc 6dbc 59b3 9e3b
00000190: 4b57 8c3b c03d efbb b53d e8ba c2cf f23a
000001a0: 85c6 223c 413b 81bc 6d70 ae3b 9553 993b
000001b0: 7b0c b8bc 1c42 9cbc 8fc4 6dbb 4bac 163c
000001c0: 3afc e6b9 d573 74b8 42d8 5f39 9060 543b
000001d0: 18f0 87bc 47a9 10bb 2dba 2cbb dc8d 9a3a
000001e0: c86f 103a 054b 923a be16 8039 fe9b 2239
000001f0: f105 03bb c81d b4bb f859 c739 eca0 81bc
00000200: c896 6c3b b7c5 36bc 179f babc f799 8e3b
00000210: 0d06 723a 94c8 4b3c df17 0abc 75b9 0a3c
00000220: 5f49 babb f7ec 853c d3d3 1bbb a5e6 cdba
00000230: 0a42 58bc 93c5 a7bc 2199 af3b 003f e43a
00000240: a9c3 b5ba 17bc 1e3c af5e 8b3b f79d 553b
00000250: 2cab c73b 6a83 efbb 1f5f 72bb 036f b1bb
00000260: ff17 e03b cb30 223a 101b 31ba d320 3bbc
00000270: 5c82 1bbc 4331 58bc f30b a7ba 5fd6 bb3b
00000280: b0c0 cebb a322 0ebb a59b 0a3c ffe0 71b8
00000290: f07d 70bb c9d3 aebb d5cf 67bb a284 5abb
000002a0: 39fc 833b 8f8d 923b 3ddf 3e3b a20b e639
000002b0: aac2 05bc 88c1 2fbc a31b f13b eaec f1bb
000002c0: 75cc 33bc b097 e53a 7ab5 c43b 50b9 4739
000002d0: 48ca 33bb 6f01 77bc e77b 99bb 4f44 963c
000002e0: b14a 04bc ef63 843a 0232 0b3c a9b3 a4bb
000002f0: 2f5c 983c 5505 eb3b 4941 303a 188b 22bc
00000300: 3528 37bb eb03 32bc cf82 403b 6f13 f1bc
00000310: fb00 89bb 8422 c03b a462 2b3c 388a 31bb
00000320: 4590 c23a 78a3 61bc 55d7 9bbb 2cc9 a33a
00000330: 6b47 0abb b69b 033b 9231 583b 9702 293c
00000340: b5ac b43a 97fa e13b 70d6 cebb c1c2 333c
00000350: c677 173b 3b1d 06bc 3bd2 7cbb a0d9 3939
00000360: 5b6d 143c 1a84 5cbb 0690 0eba 8059 45bc
00000370: f08b e9ba 61a3 983c 0b68 5abc ef37 cb3b
00000380: 5784 a5bb e736 623c e851 67bc 040a 2a3c
00000390: 4655 023b 3f26 18bc 32c5 fcbb bc34 1dbc
000003a0: 730a fa3a 3f93 12bc e760 f2ba ca07 4e3b
000003b0: a75e 08bb 4a1b fd3b f0f6 79bb 0f9c 933b
000003c0: 83a7 303c 1d84 a13b 2f71 7d3b c50c 8b3a
000003d0: 93a0 44bb dfe9 9b3b c39a 7cba 51fc 203c
000003e0: 1d50 fb38 b7d1 59bb f991 8dbc c6f1 8ebb
000003f0: 5fe1 e73b 0aba 6ebb 08c0 d33b f34a 6bb8

network_body._body_endoder.seq_layers.0.bias f4 [128]
0.0 0.0 0.0 0.0 0.0 0.0 0.0 0.0
0.0 0.0 0.0 0.0 0.0 0.0 0.0 0.0
0.0 0.0 0.0 0.0 0.0 0.0 0.0 0.0
0.0 0.0 0.0 0.0 0.0 0.0 0.0 0.0
0.0 0.0 0.0 0.0 0.0 0.0 0.0 0.0
0.0 0.0 0.0 0.0 0.0 0.0 0.0 0.0
0.0 0.0 0.0 0.0 0.0 0.0 0.0 0.0
0.0 0.0 0.0 0.0 0.0 0.0 0.0 0.0
0.0 0.0 0.0 0.0 0.0 0.0 0.0 0.0
0.0 0.0 0.0 0.0 0.0 0.0 0.0 0.0
0.0 0.0 0.0 0.0 0.0 0.0 0.0 0.0
0.0 0.0 0.0 0.0 0.0 0.0 0.0 0.0
0.0 0.0 0.0 0.0 0.0 0.0 0.0 0.0
0.0 0.0 0.0 0.0 0.0 0.0 0.0 0.0
0.0 0.0 0.0 0.0 0.0 0.0 0.0 0.0
0.0 0.0 0.0 0.0 0.0 0.0 0.0 0.0
00000000: 0000 0000 0000 0000 0000 0000 0000 0000
00000010: 0000 0000 0000 0000 0000 0000 0000 0000
00000020: 0000 0000 0000 0000 0000 0000 0000 0000
00000030: 0000 0000 0000 0000 0000 0000 0000 0000
00000040: 0000 0000 0000 0000 0000 0000 0000 0000
00000050: 0000 0000 0000 0000 0000 0000 0000 0000
00000060: 0000 0000 0000 0000 0000 0000 0000 0000
00000070: 0000 0000 0000 0000 0000 0000 0000 0000
00000080: 0000 0000 0000 0000 0000 0000 0000 0000
00000090: 0000 0000 0000 0000 0000 0000 0000 0000
000000a0: 0000 0000 0000 0000 0000 0000 0000 0000
000000b0: 0000 0000 0000 0000 0000 0000 0000 0000
000000c0: 0000 0000 0000 0000 0000 0000 0000 0000
000000d0: 0000 0000 0000 0000 0000 0000 0000 0000
000000e0: 0000 0000 0000 0000 0000 0000 0000 0000
000000f0: 0000 0000 0000 0000 0000 0000 0000 0000
00000100: 0000 0000 0000 0000 0000 0000 0000 0000
00000110: 0000 0000 0000 0000 0000 0000 0000 0000
00000120: 0000 0000 0000 0000 0000 0000 0000 0000
00000130: 0000 0000 0000 0000 0000 0000 0000 0000
00000140: 0000 0000 0000 0000 0000 0000 0000 0000
00000150: 0000 0000 0000 0000 0000 0000 0000 0000
00000160: 0000 0000 0000 0000 0000 0000 0000 0000
00000170: 0000 0000 0000 0000 0000 0000 0000 0000
00000180: 0000 0000 0000 0000 0000 0000 0000 0000
00000190: 0000 0000 0000 0000 0000 0000 0000 0000
000001a0: 0000 0000 0000 0000 0000 0000 0000 0000
000001b0: 0000 0000 0000 0000 0000 0000 0000 0000
000001c0: 0000 0000 0000 0000 0000 0000 0000 0000
000001d0: 0000 0000 0000 0000 0000 0000 0000 0000
000001e0: 0000 0000 0000 0000 0000 0000 0000 0000
000001f0: 0000 0000 0000 0000 0000 0000 0000 0000

network_body._body_endoder.seq_layers.0.weight f4 [128, 48]
-0.052935496 -0.06162145 0.083779305 0.18954788 -0.09284124 0.041562572 -0.03831199 0.0076580844
0.13333037 0.06983078 0.054839715 -0.1736982 -0.09841825 -0.1297969 -0.27657366 0.15044117
0.07883589 0.10747251 -0.008132217 0.00074259983 -0.06703632 0.14166199 0.26326084 0.004928751
-0.032853846 -0.05142718 0.009840771 -0.008139745 0.012147892 -0.22746271 -0.19404416 0.050260592
-0.20834048 0.1666472 -0.032813225 0.06771721 -0.014573121 0.022463651 -0.004561662 0.11608156
-0.08347256 -0.07695403 0.04235391 0.02876498 -0.06799172 0.030851325 0.09735567 -0.20995349
-0.1973347 -0.084459625 -0.08888397 -0.17209679 0.19539778 0.05016791 0.05259237 0.14059408
0.15176435 0.34491062 0.070440106 0.21340789 0.22495505 -0.051267672 0.02291378 -0.09129478
0.25521687 0.09129745 -0.25234148 0.29804304 -0.04544953 -0.079058856 0.12444361 0.17583944
-0.22735912 -0.06321687 0.0965251 -0.17826293 0.00015686355 0.02115944 0.07328315 0.16012289
-0.18088467 -0.026206415 -0.13652116 -0.078041255 -0.050204206 0.028596442 0.12806027 0.16041483
0.064884275 -0.13067378 -0.091606386 0.005754037 0.031987958 -0.09109838 0.09727762 0.048781816
-0.08639721 0.06751948 0.34727255 0.20561987 0.054851755 -0.10573611 0.19793779 0.22931981
-0.03336716 -0.009392536 0.03832847 0.0025257736 0.08385394 -0.17851865 -0.27961835 0.16950932
0.2602515 0.022863494 -0.07628927 -0.26211756 -0.053633887 0.017497694 0.12548137 0.05240129
-0.03705131 0.078729115 -0.20974968 -0.13312991 -0.117144525 0.07733246 0.018927805 0.15739389
-0.00062064774 0.12976244 0.18531235 0.100090094 -0.15130042 -0.10773798 0.07926368 0.10412137
-0.05819896 -0.19176385 -0.10790833 -0.13204104 -0.048405103 0.16090846 -0.021216597 -0.09720391
0.03262548 -0.10061347 0.042333424 0.084781334 0.012617199 0.40138513 0.1089889 -0.02549135
-0.30245396 0.13083535 -0.026435379 -0.124542415 -0.059068304 0.20190953 -0.2005459 0.012944677
0.1394955 0.09813165 -0.15837197 0.112632014 0.27190652 -0.24277405 0.2717172 -0.12527868
-0.050740797 -0.021929199 -0.065646455 0.07600872 -0.2000257 -0.08601163 0.34191018 -0.07778387
-0.3177119 0.12486627 -0.08083258 -0.07148615 0.29853415 -0.2718955 0.07534949 -0.016145146
-0.42050108 -0.17048089 0.001405693 -0.121767215 0.04072311 -0.06675556 0.060391333 -0.20733598
-0.15836246 0.017952004 -0.23263744 -0.14212601 -0.12626623 -0.015048629 -0.15600395 0.18123412
-0.2244769 0.03118626 -0.12549132 -0.062921844 0.0113402335 0.34875062 -0.14324853 -0.17177823
-0.0736592 0.058773242 -0.024957864 -0.2676025 0.0156545 0.026860977 -0.041995537 0.01884241
0.14046308 -0.12086824 0.03605571 0.19684127 -0.24646091 0.12653263 -0.2678251 0.08286191
0.120212585 -0.015950609 0.016330993 -0.033825725 0.021887753 -0.013183124 0.12617342 0.18210186
0.12791218 0.21613905 0.059691593 0.12028332 -0.051233463 -0.2430178 0.09245292 0.05679179
-0.15425538 -0.06549144 0.22905102 0.1287652 -0.03071121 -0.034576397 -0.10784663 0.120309494
0.27096295 -0.19780697 -0.05104187 0.21828723 -0.3452498 0.0022861473 -0.00037355133 0.30122426
00000000: e4d2 58bd c666 7cbd 7c94 ab3d d718 423e
00000010: 8c23 bebd 843d 2a3d 09ed 1cbd abf0 fa3b
00000020: c287 083e 7103 8f3d 9c9f 603d f1dd 31be
00000030: 828f c9bd 7be9 04be 109b 8dbe 400d 1a3e
00000040: b674 a13d 8c1a dc3d fe3c 05bc 08ab 423a
00000050: 574a 89bd d70f 113e 20ca 863e 5c81 a13b
00000060: c191 06bd 4fa5 52bd 2f3b 213c 915c 05bc
00000070: f407 473c fceb 68be 83b3 46be 0dde 4d3d
00000080: 3557 55be 90a5 2a3e 2967 06bd 52af 8a3d
00000090: 1ac4 6ebc b105 b83c ff79 95bb 2bbc ed3d
000000a0: a9f3 aabd 139a 9dbd 4b7b 2d3d 89a4 eb3c
000000b0: 3e3f 8bbd ebbb fc3c 6962 c73d 0cfe 56be
000000c0: 1c12 4abe 2bf9 acbd cd08 b6bd 243a 30be
000000d0: 5b16 483e de7c 4d3d 196b 573d e5f7 0f3e
000000e0: 1d68 1b3e 2098 b03e e742 903d 9987 5a3e
000000f0: 9e5a 663e 0dfe 51bd aeb5 bb3c c2f8 babd
00000100: c9ab 823e 28fa ba3d e732 81be 1999 983e
00000110: 4929 3abd 9ce9 a1bd 4bdc fe3d 410f 343e
00000120: d4d0 68be d977 81bd f4ae c53d 8f8a 36be
00000130: bd7b 2439 9056 ad3c 7a15 963d 41f7 233e
00000140: d539 39be d6ae d6bc 34cc 0bbe 18d4 9fbd
00000150: eda2 4dbd 1643 ea3c 3b22 033e c943 243e
00000160: 0ce2 843d 59cf 05be 219c bbbd 5c8c bc3b
00000170: ce05 033d ca91 babd 7d39 c73d 71cf 473d
00000180: 05f1 b0bd a747 8a3d b5cd b13e 048e 523e
00000190: 3cac 603d 2c8c d8bd 34b0 4a3e d0d2 6a3e
000001a0: 01ac 08bd 27e3 19bc 50fe 1c3d 7387 253b
000001b0: 9dbb ab3d 98cd 36be 232a 8fbe da93 2d3e
000001c0: af3f 853e 394c bb3c 8c3d 9cbd 4634 86be
000001d0: 35af 5bbd 5357 8f3c 307e 003e bca2 563d
000001e0: 1dc3 17bd bb3c a13d 9fc8 56be 3553 08be
000001f0: 78e9 efbd 7b60 9e3d 7c0e 9b3c dd2b 213e
00000200: f7b2 22ba 72e0 043e 85c2 3d3e 09fc cc3d
00000210: 7fee 1abe bba5 dcbd ff54 a23d 963d d53d
00000220: 0862 6ebd be5d 44be 0bff dcbd c435 07be
00000230: 6e44 46bd 30c5 243e 6ece adbc d812 c7bd
00000240: 4ca2 053d 6f0e cebd d065 2d3d d6a1 ad3d
00000250: 5eb8 4e3c 5a82 cd3e 9335 df3d 3cd3 d0bc
00000260: 3fdb 9abe b4f9 053e 028f d8bc 1810 ffbd
00000270: 9bf1 71bd 5fc1 4e3e e85b 4dbe e915 543c
00000280: e9d7 0e3e 3ff9 c83d 432c 22be 9dab e63d
00000290: 5537 8b3e c399 78be 841e 8b3e 0e49 00be
000002a0: 95d5 4fbd dda4 b3bc a671 86bd 76aa 9b3d
000002b0: 89d3 4cbe de26 b0bd da0e af3e 264d 9fbd
000002c0: 22ab a2be e3b9 ff3d 8d8b a5bd 5567 92bd
000002d0: 78d9 983e e335 8bbe d550 9a3d d342 84bc
000002e0: eb4b d7be 8b92 2ebe 3b3f b83a 1761 f9bd
000002f0: 47cd 263d 24b7 88bd e75c 773d e24f 54be
00000300: c529 22be 1510 933c 8238 6ebe 7b89 11be
00000310: ef4b 01be 868e 76bc 80bf 1fbe 7095 393e
00000320: 46dd 65be 547a ff3c cc80 00be 2bdd 80bd
00000330: 63cc 393c 718f b23e beaf 12be a2e6 2fbe
00000340: a2da 96bd 36bc 703d 6f74 ccbc 3203 89be
00000350: de3d 803c 8d0b dc3c 8303 2cbd 665b 9a3c
00000360: 8ed5 0f3e c589 f7bd 27af 133d c290 493e
00000370: 4060 7cbe c591 013e 5f20 89be 81b3 a93d
00000380: 0432 f63d daaa 82bc 93c8 853c d88c 0abd
00000390: f24d b33c 08fe 57bc 9b33 013e e978 3a3e
000003a0: 69fb 023e 8e53 5d3e 2c7f 743d 1a57 f63d
000003b0: 2eda 51bd a8d9 78be f557 bd3d 829e 683d
000003c0: 1ff5 1dbe 6020 86bd 5a8c 6a3e 06db 033e
000003d0: 1396 fbbc fb9f 0dbd b2de dcbd d364 f63d
000003e0: a8bb 8a3e e98d 4abe 4811 51bd b086 5f3e
000003f0: 95c4 b0be 30d3 153b 36d9 c3b9 113a 9a3e

network_body._body_endoder.seq_layers.2.bias f4 [128]
0.0 0.0 0.0 0.0 0.0 0.0 0.0 0.0
0.0 0.0 0.0 0.0 0.0 0.0 0.0 0.0
0.0 0.0 0.0 0.0 0.0 0.0 0.0 0.0
0.0 0.0 0.0 0.0 0.0 0.0 0.0 0.0
0.0 0.0 0.0 0.0 0.0 0.0 0.0 0.0
0.0 0.0 0.0 0.0 0.0 0.0 0.0 0.0
0.0 0.0 0.0 0.0 0.0 0.0 0.0 0.0
0.0 0.0 0.0 0.0 0.0 0.0 0.0 0.0
0.0 0.0 0.0 0.0 0.0 0.0 0.0 0.0
0.0 0.0 0.0 0.0 0.0 0.0 0.0 0.0
0.0 0.0 0.0 0.0 0.0 0.0 0.0 0.0
0.0 0.0 0.0 0.0 0.0 0.0 0.0 0.0
0.0 0.0 0.0 0.0 0.0 0.0 0.0 0.0
0.0 0.0 0.0 0.0 0.0 0.0 0.0 0.0
0.0 0.0 0.0 0.0 0.0 0.0 0.0 0.0
0.0 0.0 0.0 0.0 0.0 0.0 0.0 0.0
00000000: 0000 0000 0000 0000 0000 0000 0000 0000
00000010: 0000 0000 0000 0000 0000 0000 0000 0000
00000020: 0000 0000 0000 0000 0000 0000 0000 0000
00000030: 0000 0000 0000 0000 0000 0000 0000 0000
00000040: 0000 0000 0000 0000 0000 0000 0000 0000
00000050: 0000 0000 0000 0000 0000 0000 0000 0000
00000060: 0000 0000 0000 0000 0000 0000 0000 0000
00000070: 0000 0000 0000 0000 0000 0000 0000 0000
00000080: 0000 0000 0000 0000 0000 0000 0000 0000
00000090: 0000 0000 0000 0000 0000 0000 0000 0000
000000a0: 0000 0000 0000 0000 0000 0000 0000 0000
000000b0: 0000 0000 0000 0000 0000 0000 0000 0000
000000c0: 0000 0000 0000 0000 0000 0000 0000 0000
000000d0: 0000 0000 0000 0000 0000 0000 0000 0000
000000e0: 0000 0000 0000 0000 0000 0000 0000 0000
000000f0: 0000 0000 0000 0000 0000 0000 0000 0000
00000100: 0000 0000 0000 0000 0000 0000 0000 0000
00000110: 0000 0000 0000 0000 0000 0000 0000 0000
00000120: 0000 0000 0000 0000 0000 0000 0000 0000
00000130: 0000 0000 0000 0000 0000 0000 0000 0000
00000140: 0000 0000 0000 0000 0000 0000 0000 0000
00000150: 0000 0000 0000 0000 0000 0000 0000 0000
00000160: 0000 0000 0000 0000 0000 0000 0000 0000
00000170: 0000 0000 0000 0000 0000 0000 0000 0000
00000180: 0000 0000 0000 0000 0000 0000 0000 0000
00000190: 0000 0000 0000 0000 0000 0000 0000 0000
000001a0: 0000 0000 0000 0000 0000 0000 0000 0000
000001b0: 0000 0000 0000 0000 0000 0000 0000 0000
000001c0: 0000 0000 0000 0000 0000 0000 0000 0000
000001d0: 0000 0000 0000 0000 0000 0000 0000 0000
000001e0: 0000 0000 0000 0000 0000 0000 0000 0000
000001f0: 0000 0000 0000 0000 0000 0000 0000 0000

network_body._body_endoder.seq_layers.2.weight f4 [128, 128]
-0.1207572 0.053302195 -0.029523896 -0.06842165 -0.05058193 0.046312694 -0.05677049 -0.027653769
0.0953652 0.020701045 0.08868218 -0.000512164 0.046079047 -0.098926514 -0.015392883 -0.009228113
-0.14057903 -0.0075260946 -0.02687111 0.0675645 -0.033276882 -0.047758732 -0.046901487 0.08960507
-0.27769676 -0.022695651 0.046670955 -0.036396418 -0.031126494 -0.08033005 0.095915444 -0.022877133
0.05133158 -0.25451863 0.009743007 0.004295234 0.062185176 -0.113850154 0.02815986 -0.11767963
0.006718799 -0.13808061 0.013192167 0.021892173 -0.17155309 -0.07833646 0.019198013 0.1649807
0.013041035 -0.16426623 0.018512122 -0.05947689 0.0069518834 0.17552689 0.07580745 -0.11461101
-0.09798847 0.17015359 -0.057181966 -0.06488536 -0.02263816 0.016775658 -0.13483669 0.0941671
-0.0017631606 0.1434555 -0.1468757 -0.120551646 0.014764126 0.0895088 -0.015915824 -0.073957235
0.0032586625 0.1504943 0.084873006 0.053628597 0.14855485 0.02622756 0.035879023 -0.08820408
-0.007912669 -0.124640524 -0.009687999 0.0596939 0.19245116 -0.20863906 -0.11824259 0.042651407
-0.041227154 0.09927908 0.13059047 -0.09750649 -0.13200566 0.030844733 -0.042763155 0.1285239
-0.061108615 -0.018537035 0.027482055 0.06739517 -0.022132624 -0.019368447 0.036223833 -0.0035810238
-0.10199123 -0.08217186 0.086733125 -0.134052 -0.07063717 -0.09173094 -0.022790732 -0.1418702
-0.09423664 0.0021561363 0.00042737977 -0.018985894 -0.0011940429 0.04725495 -0.01309288 -0.048225235
0.04629156 0.0729825 -0.08351729 0.042829912 -0.017845297 0.07939922 -0.026830388 0.068932325
0.038544696 -0.06031536 -0.08465357 -0.061300483 -0.10923598 -0.026387418 -0.016860198 0.027409064
-0.00013522945 -0.13381018 -0.09704402 0.14200357 0.09918472 0.07681569 0.016547937 -0.038414698
0.08130507 0.058305092 -0.020473434 -0.007137442 -0.012516738 0.008858531 -0.13439447 0.03230314
0.08277486 -0.08746805 -0.072655864 0.079646565 0.057538744 0.06030955 0.052962966 0.027411457
-0.047350604 0.019659119 -0.14242713 0.0057889554 -0.12708534 0.050082315 0.020980788 -0.067107275
-0.030173467 -0.1039521 0.059937827 0.05918296 -0.098286994 0.13105582 0.089690514 0.18845773
-0.079109736 0.074491374 -0.1089567 0.08680192 -0.07532954 0.027583795 0.05836898 0.04146332
-0.0067637814 -0.15810378 0.013194603 0.042428706 0.13698116 -0.18989524 -0.03689788 -0.05723562
-0.006207825 0.05095912 0.1690251 -0.18083017 -0.07945994 0.00719685 -0.079787165 0.09104657
0.017962141 0.10181077 0.05884095 0.017965872 0.05398877 -0.22266513 -0.043828197 0.116968006
-0.044041954 0.04169554 0.013270777 0.062662385 0.08319786 -0.013760335 -0.117406264 0.102278344
-0.010907337 -0.07174307 0.26182306 0.079396926 0.019515062 0.09930875 -0.044787258 0.008096536
0.042623084 0.01821504 0.016681317 0.08824446 0.072954126 -0.009317675 -0.07127525 0.095912695
0.12841138 -0.15126395 0.15313423 0.031637628 -0.030340387 -0.023937477 -0.06818197 -0.11174357
0.14013124 -0.029322192 -0.15137921 0.038740925 -0.039688315 -0.09779512 0.0041667093 0.12671156
0.14032717 0.0073733665 0.13245498 0.0047073094 -0.09922893 0.12154563 0.14180554 0.12096322
00000000: 8d4f f7bd 6753 5a3d 19dc f1bc a620 8cbd
00000010: ff2e 4fbd 61b2 3d3d 2c88 68bd 288a e2bc
00000020: d44e c33d 3d95 a93c 019f b53d bf42 06ba
00000030: 62bd 3c3d fc99 cabd 6e32 7cbc 8331 17bc
00000040: f3f3 0fbe 759d f6bb cd20 dcbc 425f 8a3d
00000050: 574d 08bd a99e 43bd c61b 40bd dd82 b73d
00000060: 452e 8ebe 3bec b9bc 0b2a 3f3d 6914 15bd
00000070: fdfc febc 1584 a4bd 516f c43d d368 bbbc
00000080: 1041 523d 4450 82be 22a1 1f3c 09bf 8c3b
00000090: e2b5 7e3d 452a e9bd 82af e63c 0502 f1bd
000000a0: 5f29 dc3b 0165 0dbe f523 583c 3757 b33c
000000b0: 9dab 2fbe de6e a0bd 2745 9d3c b3f0 283e
000000c0: 11aa 553c 6835 28be bca6 973c 0a9e 73bd
000000d0: a0cc e33b 52bd 333e f040 9b3d 2db9 eabd
000000e0: 2eae c8bd be3c 2e3e a337 6abd 9ee2 84bd
000000f0: aa73 b9bc 1b6d 893c a112 0abe aeda c03d
00000100: da19 e7ba 00e6 123e 9566 16be c8e3 f6bd
00000110: 3ce5 713c 6450 b73d e761 82bc e476 97bd
00000120: 498f 553b 2e1b 1a3e e6d1 ad3d a9a9 5b3d
00000130: c31e 183e 2edb d63c e2f5 123d 57a4 b4bd
00000140: 24a4 01bc 8843 ffbd 6aba 1ebc 9781 743d
00000150: eb11 453e 7aa5 55be 2c29 f2bd 3eb3 2e3d
00000160: cedd 28bd d552 cb3d 82b9 053e 7cb1 c7bd
00000170: 7e2c 07be 18ae fc3c 6b28 2fbd c59b 033e
00000180: 074d 7abd fbda 97bc 0c22 e13c 7b06 8a3d
00000190: 7a4f b5bc 94aa 9ebc 715f 143d 9caf 6abb
000001a0: c7e0 d0bd b849 a8bd 23a1 b13d ed44 09be
000001b0: 38aa 90bd 6edd bbbd a1b3 babc 6c46 11be
000001c0: 24ff c0bd f74d 0d3b f111 e039 4e88 9bbc
000001d0: 6e81 9cba 688e 413d 8583 56bc d387 45bd
000001e0: 389c 3d3d d977 953d 1d0b abbd 6b6e 2f3d
000001f0: 4d30 92bc 0f9c a23d 67cb dbbc 642c 8d3d
00000200: 0be1 1d3d 3d0d 77bd da5e adbd 3716 7bbd
00000210: 1db7 dfbd 6d2a d8bc 661e 8abc f988 e03c
00000220: 61cc 0db9 8905 09be 04bf c6bd 6269 113e
00000230: 5c21 cb3d 8b51 9d3d 8a8f 873c bb58 1dbd
00000240: 4683 a63d 52d1 6e3d e7b7 a7bc 34e1 e9bb
00000250: 0113 4dbc 5f23 113c b49e 09be 4c50 043d
00000260: de85 a93d 7322 b3bd 99cc 94bd bd1d a33d
00000270: bfad 6b3d 2607 773d b2ef 583d fe8d e03c
00000280: b5f2 41bd 290c a13c 6bd8 11be 47b1 bd3b
00000290: a922 02be 1d23 4d3d e7df ab3c 8a6f 89bd
000002a0: 592e f7bc d7e4 d4bd 5e81 753d d569 723d
000002b0: b14a c9bd 7f33 063e a9af b73d 10fb 403e
000002c0: 4904 a2bd ef8e 983d b124 dfbd 34c5 b13d
000002d0: 6046 9abd 69f7 e13c 5014 6f3d 71d5 293d
000002e0: b6a2 ddbb f5e5 21be 2d2e 583c b9c9 2d3d
000002f0: ca44 0c3e e673 42be 3b22 17bd e66f 6abd
00000300: 036b cbbb 83ba 503d ea14 2d3e 8b2b 39be
00000310: e5bb a2bd 8ed3 eb3b 7467 a3bd a076 ba3d
00000320: 5725 933c 2a82 d03d 3503 713d 2a2d 933c
00000330: 5423 5d3d 5402 64be 3285 33bd ec8c ef3d
00000340: 5665 34bd f1c8 2a3d ac6d 593c 2355 803d
00000350: a463 aa3d 0773 61bc b272 f0bd 4f77 d13d
00000360: b0b4 32bc 08ee 92bd ac0d 863e db9a a23d
00000370: 0dde 9f3c 6362 cb3d d872 37bd 55a7 043c
00000380: 8b95 2e3d b537 953c 42a7 883c 83b9 b43d
00000390: f968 953d 29a9 18bc c2f8 91bd e06d c43d
000003a0: 467e 033e f0e4 1abe 38cf 1c3e 7596 013d
000003b0: 678c f8bc 8718 c4bc fda2 8bbd d0d9 e4bd
000003c0: 907e 0f3e 1835 f0bc 2703 1bbe ceae 1e3d
000003d0: 3790 22bd cf48 c8bd e488 883b adc0 013e
000003e0: edb1 0f3e 489c f13b 47a2 073e c63f 9a3b
000003f0: 8a38 cbbd eaec f83d 7935 113e 91bb f73d
