results/ppo/MlAgent/MlAgent-26368.pt (torch, 778487 bytes, 40 tensors)

discrete_act_size_vector f4 [1, 2]
000000 00 00 80 40 00 00 80 40
       4.0 4.0

network_body._body_endoder.seq_layers.0.weight f4 [128, 113]
000000 b7 0b e3 bd 41 74 00 3e 70 bc d7 bd 8f d6 0b 3e
       -0.11086219 0.12544347 -0.105339885 0.13656066
000010 e3 8c 45 bd 73 fb 9b 3d 97 fd 91 3d 30 e9 db bd
       -0.048230063 0.076163195 0.071284465 -0.10737836
000020 2a 65 da 3d 1a 50 9d bd 4d 98 dc ba 78 0e 29 3d
       0.10663827 -0.07681294 -0.0016830057 0.041273564
000030 1c 39 d8 3d 36 74 88 3d 3e 72 7f bd 3c 49 60 ba
       0.10557768 0.066627905 -0.06236481 -0.00085558346
000040 2b ff 25 bd cd bd 22 3e 1f bb 41 be f2 54 27 be
       -0.04052655 0.15892716 -0.18919037 -0.16340998
000050 e7 f5 31 bd b9 6e 3f 3d 14 88 42 be 6e 78 2a bd
       -0.0434474 0.046736453 -0.18997222 -0.041618757
000060 8c f8 b6 bd ea 05 5e bb 32 c9 b0 bd 3e 5c 61 3d
       -0.08934125 -0.0033878037 -0.08632125 0.05501961
000070 3a e6 77 3c d9 9c ab 3b 01 56 0f be 47 d5 d6 bd
       0.015130574 0.0052372036 -0.13997652 -0.10489898
000080 69 3c 7b bc 6f d0 85 bd e2 c6 73 3d 77 36 e0 3d
       -0.015334227 -0.06533896 0.05951584 0.10947888
000090 83 92 9e 3d 81 a2 85 3d 9a e5 85 3c ab 4b 35 3d
       0.07742789 0.06525136 0.016344834 0.044261616
0000a0 b2 34 f3 3c d3 11 33 be 01 b8 e9 bd d7 0a 0d bd
       0.029688213 -0.17487268 -0.11412049 -0.034434166
0000b0 fb 04 b8 3d 4e d1 0c 3e 64 fe 96 3d a4 96 e3 3d
       0.08985325 0.13751718 0.0737274 0.11112717
0000c0 ab 9a c4 bd 1a ce b6 3d d3 71 13 3e 55 26 c9 ba
       -0.09599813 0.089260295 0.14398889 -0.0015346507
0000d0 fa 5d c8 3d 42 5f f3 bd cf 46 22 ba 76 65 45 3d
       0.097835496 -0.11883403 -0.0006190361 0.048192464
0000e0 c1 7b 13 bd 06 52 fa 3d f4 83 28 3e b5 b5 dc 3b
       -0.036006693 0.12222676 0.16456586 0.0067355284
0000f0 ec 46 89 3e 74 f9 7a 3d 86 49 23 3d 8f 1a 35 be
       0.26811922 0.061273053 0.03986504 -0.17685913
000100 17 36 84 3d 24 c9 ba bd a0 fe 0b bb 7c 86 18 3d
       0.06455629 -0.09120396 -0.0021361485 0.03723763
000110 76 0c 0f bd 9f 04 91 3d 3c 37 b8 3d ad f5 84 3d
       -0.034923993 0.070809595 0.0899491 0.064921714
000120 07 6b 43 bd 26 c3 a2 bc 4a 74 54 bc 2b 90 00 bd
       -0.04770949 -0.019868445 -0.012967179 -0.03138749
000130 2e 4f 50 3d 2f 63 23 bd 82 b2 67 bd 1e f7 75 3d
       0.05085676 -0.03988951 -0.056566723 0.060050122
000140 54 c6 99 3d fa 6d 25 3e 69 3f 31 bd 87 19 00 3e
       0.07508531 0.16155234 -0.043273363 0.12509738
000150 58 05 28 bd ce bd b3 bd cb d2 ce bd b9 1d 42 3e
       -0.04102072 -0.08776437 -0.10098799 0.18956651
000160 fe df 19 3e 4c 2e ce bd cb 74 16 3e 7f be f4 3c
       0.15026852 -0.10067424 0.1469299 0.029875992
000170 23 1d ee bd 4c ad d2 bb 38 36 b2 3d 55 9d 8d bd
       -0.11626651 -0.00642935 0.08701748 -0.06914774
000180 c1 b8 a5 bd 6b e9 11 3d 25 97 0e be 00 a5 ad bd
       -0.0809188 0.035622995 -0.13924845 -0.08478737
000190 7e ed 4b bc 0c 26 9a 3d 57 49 50 3c 8a 80 8b bd
       -0.012446759 0.07526788 0.012712798 -0.06811626
0001a0 f2 c8 16 3e bb 66 46 3d 29 f4 18 3d 4e f4 b6 3b
       0.14725092 0.048437815 0.037342224 0.0055833226
0001b0 a7 3b 1c 3e 2c 64 f1 3d b5 12 df 3d 2d fb 67 3d
       0.1525713 0.117866844 0.1089224 0.056636024
0001c0 d8 8e 82 be 4b bb 43 be 44 3a 23 bd 82 52 7b bd
       -0.25499606 -0.19114415 -0.03985049 -0.061357982
0001d0 4d e0 e0 bd 13 20 62 3d 1b 87 9c 3c ed c0 29 3e
       -0.10980282 0.05520637 0.019107392 0.16577502
0001e0 96 c4 1f 3d 67 41 5b 3d 30 42 35 3d f3 c6 cb 3d
       0.03900584 0.05352917 0.044252574 0.09950056
0001f0 6c 7d 04 3e 17 51 4e 3d 2b 5d a2 bd 7d c5 93 3d
       0.1293847 0.050370302 -0.07927927 0.07215402
000200 7d 60 ae 3d a7 c5 da 3d 6c 21 f6 bb d5 4d ef bd
       0.085144974 0.106822304 -0.0075113084 -0.11684767
000210 af ac 66 bc 0b 20 3f bc 40 b8 53 bc 6d 81 bc 3d
       -0.014079257 -0.0116653545 -0.012922347 0.092043735
000220 ae 93 36 bb 6c b5 9d 3c e2 ac ee bc d8 22 35 3c
       -0.002785902 0.019251548 -0.029135171 0.011055671
000230 3b ff 3f 3d f9 99 37 be 41 ae fb bd da 39 81 3c
       0.046874266 -0.1792983 -0.12289096 0.015774656
000240 e3 84 ca 3d 5f 55 5b bd c4 31 c0 3d 93 bb 84 bc
       0.098886274 -0.053548213 0.09384492 -0.016202724
000250 ef 88 19 bd 48 f2 85 bd 54 8c 1f 3d 52 74 be bd
       -0.037484106 -0.06540352 0.038952187 -0.0929953
000260 7d df 5c be 0c f1 d3 bb 16 62 21 bd 88 dd d1 bd
       -0.21569629 -0.006467944 -0.039400183 -0.10247332
000270 65 e8 bb bd ee e1 6c 3c 26 f8 bd 3d 89 05 3f 3c
       -0.09175185 0.014458163 0.09275846 0.0116590345
000280 5b ee 17 3d fe 9d 06 3d fa bb b4 3d 5c 77 e2 bc
       0.037092548 0.032865517 0.08824916 -0.027644806
000290 a3 62 12 be 48 cb ab bd 62 7d f9 3d 2a b8 d1 bd
       -0.1429544 -0.08388382 0.12182118 -0.10240205
0002a0 f1 57 45 be 2f 1a 45 be a9 92 57 bd ac 8c 50 bb
       -0.19271828 -0.1924827 -0.0526301 -0.0031822128
0002b0 a6 4e 22 3c 39 54 8a 3d 55 56 bd bd d2 74 57 bd
       0.009906447 0.067543454 -0.09244982 -0.052601643
0002c0 ee e7 e8 bc 5b 85 d5 3b 21 a5 0a 3d b6 72 dd bd
       -0.028430905 0.0065161414 0.033848885 -0.10812895
0002d0 5b 22 48 bc 5a 9c e8 3d 94 af 06 be 69 52 f1 bc
       -0.012215222 0.11357947 -0.13152915 -0.029458242
0002e0 fe 25 08 3e e4 ad e9 3c 21 2c 6b 3d 36 e5 08 3e
       0.13295743 0.0285253 0.05741513 0.13368687
0002f0 ef a2 52 3e 76 a0 ed 3d 0b 4d 29 3c 0f b6 41 be
       0.20569967 0.11602871 0.01033331 -0.18917106
000300 a4 cd bd 3c d2 39 22 bd 01 99 6a 3d c6 01 0b 3d
       0.023169346 -0.039605923 0.057274822 0.03393724
000310 35 91 50 3d eb 97 24 bc e2 ff 6d bd 02 f0 5d bd
       0.05091973 -0.010045986 -0.058105357 -0.054183967
000320 f0 7e 15 3d c3 da fd 3d fd 2a b3 3d 94 6c 99 3c
       0.03649801 0.12395241 0.08748434 0.018728532
000330 8f a4 0d 3e 75 e8 f2 3c 5d 6a 86 3e dd f6 86 bd
       0.13832305 0.02965186 0.26253024 -0.06590054
000340 15 91 0d 3e 0c 8c b7 bd 28 e1 61 bc fe bf cc bd
       0.13824876 -0.08962259 -0.013786592 -0.09997557
000350 82 a5 83 3d bd e3 35 bd d9 fc 6d bd 94 c9 b5 3d
       0.064280525 -0.04440664 -0.058102462 0.088763386
000360 c1 f0 2b 3e f0 86 ba bd 8d f8 33 3e 7b c2 98 bd
       0.16791059 -0.091077685 0.17575283 -0.07458969
000370 6d 3f 84 bd 25 ea 07 3e d0 97 02 be 34 32 c5 bd
       -0.0645741 0.13272913 -0.12753224 -0.09628716
000380 d1 ae 07 bc 3d 9e 3b 3e f7 b2 a8 3c 90 66 b6 3d
       -0.008281426 0.18322082 0.02059315 0.08906281
000390 db c8 2f 3e 16 8f 82 3e e3 45 18 bd d7 3c 1e be
       0.17166464 0.2549979 -0.037176024 -0.15452896
0003a0 39 2e 9d 3d ec 51 e1 bc 10 e9 36 be ef e3 b9 bd
       0.07674832 -0.027504884 -0.17862344 -0.09076678
0003b0 ff 07 f2 3d 97 95 f5 ba 4a fb 95 bd 5d 88 bd 3d
       0.118179314 -0.0018736598 -0.0732332 0.09254525
0003c0 60 ef a5 bc fb 73 5e 3c 41 7e 41 3d ca 6c 8a 3d
       -0.020255744 0.013577457 0.047239546 0.06759031
0003d0 db fd 57 3d 51 1b 02 bb cd da 43 bd 41 ff ce bd
       0.05273233 -0.0019852708 -0.047816087 -0.101072796
0003e0 04 95 fa bd 86 62 c2 bd bb e0 30 3e cc f2 0b 3e
       -0.12235454 -0.09491448 0.17273228 0.13666838
0003f0 30 cc 32 3d 91 34 80 3d 68 34 87 bd 99 83 e7 bb
       0.04365176 0.06260026 -0.066017926 -0.007065248

network_body._body_endoder.seq_layers.0.bias f4 [128]
000000 10 f6 61 3b ad 79 83 39 99 ca 8b 3b 84 3c 54 3b
       0.003447894 0.00025076923 0.004266095 0.0032384703
000010 f6 71 a4 b9 db a2 33 3b 19 21 33 bb d4 dc 8d 3b
       -0.00031365425 0.0027410302 -0.002733296 0.0043293033
000020 0c 1b 43 3b c6 50 a3 3a c5 ba 66 39 a7 5c 03 bb
       0.002977076 0.0012459985 0.00022004086 -0.0020044239
000030 99 df 5f 3b 2d 62 4e ba ba 88 76 3b 0f 0e 70 3a
       0.0034160374 -0.00078729057 0.0037618116 0.00091573683
000040 34 c3 30 39 1b 9d 0a 3b b5 a6 40 3b c7 28 1f b9
       0.00016857387 0.002115077 0.002939624 -0.00015178612
000050 79 cf 31 3b 9b 76 63 3b 3e 94 3b bb 6c fd e6 b9
       0.002713172 0.0034708146 -0.0028622295 -0.00044057833
000060 1f c5 8c 3b 0e fd 14 3b 33 91 14 3a ad 06 d1 b8
       0.0042959596 0.002273384 0.00056673883 -9.96714e-05
000070 4f e6 80 bb d4 be c4 ba 39 ca 93 3a 1e c4 82 3b
       -0.003933705 -0.0015010484 0.0011275477 0.003990664
000080 cd ff d8 b9 f8 ff eb 3b a8 06 1a 3b ce d0 aa 3a
       -0.00041389317 0.0072021447 0.0023502503 0.0013032199
000090 5b 4c 36 bb 42 07 d5 ba 51 d7 c6 3a 94 b0 ec 3a
       -0.0027816507 -0.0016252773 0.001517037 0.0018057995
0000a0 2d ab 74 ba d8 a1 86 3b 40 96 87 3a 9a 69 71 bb
       -0.00093333685 0.0041086487 0.0010344461 -0.0036836625
0000b0 8b 59 3c bb 0e f8 f3 39 e8 77 db 3a 28 31 d7 3a
       -0.0028739895 0.00046533387 0.0016744109 0.0016417848
0000c0 7c a1 18 3b 48 e0 c4 b8 b1 7c f8 ba c7 18 9f ba
       0.0023289612 -9.387784e-05 -0.0018958059 -0.0012138122
0000d0 da 31 2f 3b 08 24 18 3b 9e b8 83 3b db 24 18 bb
       0.0026732595 0.0023214836 0.004019811 -0.0023215327
0000e0 02 e4 9b bb c4 5b 9e 3b 18 cd 2c bb 0c e0 8b bb
       -0.0047574053 0.0048327167 -0.0026367363 -0.004268652
0000f0 1d 35 de b8 63 88 40 bb da 18 50 3a d1 24 c1 3b
       -0.00010595678 -0.0029378168 0.00079382735 0.0058942814
000100 31 f5 d8 39 bb c5 31 bb 5e 6b 84 bb ef 74 86 ba
       0.00041381412 -0.0027125913 -0.0040411195 -0.0010258238
000110 80 2f f3 b9 df 00 01 bb 81 00 7b 3b 62 6d 55 3a
       -0.00046383962 -0.0019684357 0.003829986 0.00081416045
000120 da af 26 bb 35 82 4d 3b 5a ed 3e bb a6 2b 57 bb
       -0.0025434406 0.0031358127 -0.0029133172 -0.0032832413
000130 cd f1 96 3b 42 2e 16 b9 5f 81 ad bb 2e 8e b9 3b
       0.0046064616 -0.00014322347 -0.0052949633 0.005662701
000140 8c d2 78 bb b0 05 04 3b 78 71 37 3b 24 02 eb ba
       -0.0037967293 0.0020144992 0.0027991217 -0.0017929715
000150 1c 5f ce 38 b5 5b 38 bb 91 4a af ba 18 1a f3 ba
       9.840561e-05 -0.0028130834 -0.0013373663 -0.0018547205
000160 f7 c9 2e ba f0 1e f9 3a 29 0c ad 3b d1 95 63 3b
       -0.00066676683 0.0019006412 0.0052809906 0.0034726749
000170 50 b0 81 bb b5 33 ae 3b 5e ce ed ba a4 0f 61 3a
       -0.0039577857 0.0053162226 -0.0018143167 0.00085853995
000180 14 9c ce 3a 4a 2f 89 3b 2f e0 88 3b 30 5f 90 3a
       0.0015763068 0.0041865455 0.0041771154 0.0011014696
000190 b8 55 ee 38 8f d4 03 bb ed 75 33 3b 44 b6 6b bb
       0.00011364691 -0.0020115708 0.0027383522 -0.0035966793
0001a0 55 e3 c1 3b c3 14 8c bb 8d 49 8e 3b 5a f1 bc 3b
       0.0059169927 -0.004274936 0.004342264 0.005766076
0001b0 9a 44 b6 ba 3b 52 4f 3b 1d 5d ff 3a d1 83 a1 3b
       -0.0013905943 0.0031634707 0.0019482706 0.004929044
0001c0 70 2a 4d bb 2a f7 a2 3a 08 13 90 3a 19 96 dc b9
       -0.0031305812 0.001243328 0.0010992 -0.000420735
0001d0 df 50 2f 3a d6 0f 86 b9 94 07 da 3b d8 86 23 3b
       0.0006687771 -0.0002557027 0.0066537354 0.00249522
0001e0 f4 c5 76 bb 8b 97 04 3c 9f ec b1 bb bc 59 83 bb
       -0.003765461 0.008092771 -0.0054298188 -0.0040085
0001f0 6d 90 a7 3a 0b 66 b8 3b 8d 18 27 3a ad f0 1c bb
       0.0012784131 0.005627399 0.0006374203 -0.0023947165

network_body._body_endoder.seq_layers.2.weight f4 [128, 128]
000000 70 fb a4 3d 88 6b a9 3c 32 8e 06 3c e3 24 5f 3d
       0.080557704 0.020681158 0.008212613 0.054478537
000010 06 8b 8c bd 0e 0c 9e 3d bb 9e 9b bd 44 ef 3a 3b
       -0.06862454 0.07717143 -0.07598635 0.002852396
000020 3e 59 81 bd ad e6 ee bc e8 2a b5 bb b6 01 54 be
       -0.0631585 -0.02916273 -0.0055287965 -0.20703778
000030 0b 44 65 3d 67 54 10 bc fb 41 0b 3e 05 ed d0 3d
       0.055973094 -0.008809186 0.13599388 0.10201458
000040 14 37 1f be 61 a0 d1 bc 20 4a 66 bd ef 18 08 3c
       -0.15548354 -0.02558917 -0.056223035 0.008306726
000050 ed b6 17 3d bb a2 72 3c be d3 90 3d 47 af 50 3d
       0.037039686 0.014809306 0.070716366 0.050948408
000060 cd 27 df 3d ea 43 32 be c5 52 a4 3b 65 75 90 3c
       0.10896263 -0.1740872 0.0050147497 0.017634103
000070 f3 1d 93 3d ce d9 01 3e cb 0f f1 bc b4 b6 07 3e
       0.07183447 0.12680742 -0.029426476 0.1325329
000080 5c 5f 05 3e 5b ba 24 3d b4 ce 0a 3e 49 6c bb bb
       0.13024658 0.040216785 0.13555413 -0.0057196957
000090 20 49 78 3d 95 b9 f0 bd f1 68 3e bd 24 d4 40 3e
       0.060616612 -0.11754147 -0.0464868 0.18830925
0000a0 f0 7b 6a be 66 06 7a bd ab 9c b1 3d 27 ef bb bd
       -0.22898841 -0.06104126 0.0867246 -0.09176474
0000b0 76 eb 21 bc ea 07 8e bd 01 34 a2 3d 00 62 98 bc
       -0.009882798 -0.06935103 0.07920075 -0.018601418
0000c0 da 12 63 bc d2 7e cb bd f2 de 49 3d 7f 5a 81 3d
       -0.013859475 -0.099362984 0.049284883 0.06316089
0000d0 0b a0 6e 3d 1d 5b e1 b9 06 9b e1 3d 13 83 9f 3c
       0.058258098 -0.0004298323 0.110158965 0.01947168
0000e0 af 8a 9e bd 91 e1 b2 3d be 16 10 be 5e bf 97 bc
       -0.077412955 0.0873443 -0.14071175 -0.018523868
0000f0 44 db e5 bd 15 a8 06 3d b5 29 48 3d 47 21 f4 bd
       -0.11223462 0.03287514 0.0488679 -0.1192041
000100 6e 06 92 3d 18 b4 fb 3d fe bd 22 be 31 1c 2d 3e
       0.071301326 0.122902095 -0.15892789 0.16905285
000110 5e 2c d9 bd d4 6b e5 bd d7 74 2e bd 01 19 46 3d
       -0.106041655 -0.11202207 -0.042591896 0.04836369
000120 68 aa 8a 3d 91 34 d9 3d 46 4a aa bd f5 62 1a 3d
       0.06770784 0.10605729 -0.08314948 0.03769203
000130 54 87 11 3b 89 06 0f be 53 6e 05 bd 55 b7 db bd
       0.0022205906 -0.13967337 -0.032575916 -0.10728327
000140 a0 97 af 3d af a7 67 3c 0c 5b 83 3d 98 dd c4 bd
       0.08573842 0.0141391 0.0641385 -0.09612578
000150 e3 3a 2b bd 6d 38 92 bd 6b 2b 58 3d b8 ad d9 bd
       -0.041804206 -0.071396686 0.05277578 -0.10628837
000160 9b 48 08 3d 51 c3 f9 bd cb 6a fa 3c 01 db 2e 3e
       0.033272367 -0.12195457 0.030568501 0.17075731
000170 ac 2d 7e bd 74 d6 29 bd ce f5 2d bd c6 36 74 3e
       -0.062055275 -0.041464284 -0.042470746 0.2384902
000180 66 95 5f 3e 25 84 f3 3d b7 d6 df 3c 03 50 a6 bd
       0.21834335 0.11890439 0.027324064 -0.0812073
000190 03 b7 9f bd 6c 07 15 3e 4d e1 f1 3c 3a bf c6 3d
       -0.077985786 0.14553612 0.029526377 0.09704442
0001a0 3a 4c b9 3d 69 e1 3e 3d fd b7 b3 bc 8f 9a b3 bd
       0.09047742 0.046601687 -0.021938318 -0.08769714
0001b0 52 2d 2b bd 21 35 38 3d 37 a9 0c bc e4 10 cf bc
       -0.041791268 0.044972543 -0.008585266 -0.025276609
0001c0 88 4a 16 3d 75 d0 90 3c 5a f8 91 bc 4f 1d f9 bc
       0.036692172 0.017677525 -0.017818619 -0.030409483
0001d0 fd 7b bd 3c ef 69 9a 3d d0 75 98 bd 50 55 0c 3e
       0.023130411 0.075397365 -0.07444346 0.13704419
0001e0 d5 19 83 3d 78 af 1f 3e d8 47 06 bd 89 3f e4 3c
       0.064014114 0.1559428 -0.03278336 0.027862327
0001f0 2b a2 15 be 75 1c 75 3d 90 87 e2 bd 34 f1 70 3d
       -0.14612643 0.059841592 -0.11061013 0.05882378
000200 93 fb 31 be 28 67 7e 3d a5 8e a1 3c 2f 67 b1 bc
       -0.17381124 0.062110096 0.019721339 -0.021655647
000210 a1 44 80 bd 15 fc 82 bd ea 92 48 bd 44 cf 1c 3e
       -0.0626309 -0.06395737 -0.048968233 0.1531344
000220 6b 18 a4 bd d8 b6 df bd 41 cd f9 3b 6f 29 e2 3c
       -0.0801247 -0.109235466 0.007623345 0.027607648
000230 0d 0c 9f bc 93 86 6b bd 12 d9 8e bc 8c e7 c1 3d
       -0.019414926 -0.057501387 -0.017437492 0.09467992
000240 5d a8 cf bd bf ac 2f be 6d 9e 06 bd 5e be 32 3d
       -0.101395346 -0.17155741 -0.03286593 0.04363858
000250 92 ee b8 bd 0e 3a e3 3d 93 92 ee bd 45 be c1 bc
       -0.09029879 0.110950574 -0.116490506 -0.023650298
000260 3f 45 e8 3d 57 d2 b3 bd 10 fc 01 3e 5e 85 83 3b
       0.11341333 -0.087803535 0.1269381 0.0040137013
000270 50 ae ce 3d ab f3 0a be 16 71 37 be b4 9a 18 3d
       0.10091841 -0.13569514 -0.17914233 0.03725691
000280 9b 9c c2 3d 62 50 88 bc 94 ce 56 3d 03 68 1f 3e
       0.095025264 -0.016639892 0.052443102 0.15567021
000290 fa 0e 93 3c 94 09 4b 3d d5 b7 4c 3d 0a 72 e2 bc
       0.017951477 0.04956968 0.049980003 -0.027642269
0002a0 ac a5 30 bd c8 c0 e9 3c 79 1a 03 be 36 bd e3 3d
       -0.043126747 0.028534308 -0.12803067 0.111200735
0002b0 e2 46 b2 3c 6f ad 4b bd de 00 17 3d 78 7b 50 3c
       0.021762315 -0.049725946 0.03686606 0.01272475
0002c0 f9 db a2 bd a1 93 dd bc 53 f7 a0 bc e0 b6 03 3d
       -0.07952113 -0.027047934 -0.019649183 0.032156825
0002d0 7f 6f fb bc ef 04 b0 bc 02 12 e6 3d 55 0b 4c be
       -0.030692814 -0.021486728 0.112339035 -0.19926198
0002e0 d4 9b 2b 3c 85 2f 9f 3d 8d 8a bb bd 9e 82 73 3e
       0.010474164 0.077727355 -0.09157286 0.23780295
0002f0 86 98 15 bc ee c9 74 bd 07 3d f3 3d 75 99 3d 39
       -0.009130603 -0.059762888 0.118768744 0.00018081612
000300 cb 7e 35 bd df be 00 3e 97 c5 f9 bd 30 b7 b0 3d
       -0.044310372 0.12572812 -0.121958904 0.0862869
000310 4c 61 91 bd fb ac fe 3c 6d 6d 1c 3d b3 0b 8b 3c
       -0.07098636 0.031088343 0.038190294 0.016973352
000320 cf e0 37 bd a5 24 01 bd d2 c5 27 bb fb 2a 88 bd
       -0.04489213 -0.031529088 -0.0025600088 -0.06648823
000330 da 09 ac 3d ff 4b 31 3e 26 cd 8f 3d 0c 10 50 3d
       0.084003165 0.17314146 0.07021551 0.050796553
000340 f6 a7 5b 3d 07 91 8f bd 1f 4e 84 3d fc 50 76 bd
       0.053626977 -0.07010084 0.06460213 -0.060135826
000350 45 c6 e7 3c 78 19 80 3d c7 29 e4 3c 77 46 07 3e
       0.028292784 0.06254858 0.027851952 0.13210474
000360 87 d3 c2 3d 3e 77 9b 3d da 5f 30 bc 07 d6 1c be
       0.09513002 0.07591103 -0.01076504 -0.1531602
000370 11 07 99 bd 81 2b 05 be ea 09 dc 3d e3 f8 aa 3d
       -0.07472051 -0.13004877 0.107440785 0.083482526
000380 1c e6 8e bd 9c 70 18 3d e3 12 70 be 83 bb f4 bd
       -0.06977484 0.037216768 -0.23444705 -0.119498275
000390 1a 4a 5c bd e9 cb e9 bc 61 f5 37 3d c1 81 f1 bd
       -0.053781606 -0.028539615 0.044911746 -0.11792327
0003a0 e4 46 02 be e1 55 20 3c 85 eb 15 be 6d 9d 94 3d
       -0.12722355 0.0097861 -0.14640625 0.07256589
0003b0 b9 9d 0e 3d c7 cb 30 bc a1 2b ee bc de d5 e2 bd
       0.034818385 -0.010790772 -0.029073538 -0.11075948
0003c0 d6 43 1c bc 86 43 0b 3e 02 c4 48 3d 65 ef 29 3d
       -0.009537658 0.13599977 0.049015053 0.04148807
0003d0 a3 d6 9d 3d d2 a6 3f 3d d0 c9 2e bd 49 d3 27 3c
       0.07706954 0.04678995 -0.042672932 0.010243245
0003e0 5a dc df 3c 80 97 3a bd 67 50 19 bd 2b 87 4e bb
       0.027326752 -0.045554638 -0.037430193 -0.0031513672
0003f0 fc ce a2 3d 2f 2e 9f bd 46 6b c1 bc b9 19 59 bc
       0.079496354 -0.07772481 -0.023610722 -0.013250762

network_body._body_endoder.seq_layers.2.bias f4 [128]
000000 21 24 07 bb d6 53 ac bb ec d4 77 bb 46 2c 0f 3b
       -0.00206209 -0.0052590175 -0.003781612 0.0021846457
000010 e2 a8 a1 3b e2 44 44 bb d9 ba 5c 3b 04 e6 fb 39
       0.0049334625 -0.0029948284 0.0033680706 0.00048045826
000020 40 89 e3 39 75 f8 93 3b dd 91 7f 3b d7 16 53 bb
       0.00043399073 0.0045157024 0.0038996853 -0.0032209659
000030 1a bd 6d 39 25 b1 81 3b 38 29 f3 3a 13 51 8a ba
       0.00022672527 0.003957885 0.0018551713 -0.0010552726
000040 63 e9 10 3b 79 39 87 3b f8 f4 ef ba e6 1a 06 3b
       0.0022111766 0.0041267243 -0.0018307259 0.002046281
000050 6d c9 45 3b bf fa 24 bb 1d c6 05 bb 2b 83 33 bb
       0.0030179874 -0.002517387 -0.0020412274 -0.0027391415
000060 16 81 50 b9 ea 10 9c 3b 29 28 55 bb 10 6b 3b bb
       -0.00019884514 0.0047627585 -0.0032525158 -0.002859775
000070 94 72 42 39 bd e7 9f 3b b1 a3 55 bb 90 3f af 3b
       0.00018543965 0.0048799203 -0.0032598788 0.0053481534
000080 2b 7e eb 3a d9 2c 52 ba 8f 20 70 3a c2 f0 d3 ba
       0.0017966678 -0.0008017547 0.0009160125 -0.0016169774
000090 09 94 11 3b 7b 4a 7c 3a ee e8 6d 3b ff 5f 9b bb
       0.002221348 0.00096241356 0.0036302167 -0.0047416682
0000a0 eb 62 15 39 36 f3 99 bb 87 ed 17 bb 2d 13 5f b9
       0.00014246597 -0.0046981825 -0.0023182349 -0.00021274081
0000b0 43 80 5b 3b 9a 40 b6 ba 67 c2 7f b8 48 b6 53 3b
       0.0033493198 -0.0013904751 -6.097779e-05 0.0032304693
0000c0 5c e0 8a 3b 18 a4 05 3b a8 d9 ee 3a c6 31 86 bb
       0.0042381715 0.0020391997 0.0018222826 -0.004095289
0000d0 05 15 d8 3a 31 51 cd 3b 60 16 54 3a 0f 09 d3 39
       0.0016485756 0.0062657823 0.00080904923 0.00040251805
0000e0 d2 81 b3 3a df b5 a7 bb ff cc bf bb 01 0b 97 3b
       0.0013695306 -0.0051181163 -0.005853295 0.004609466
0000f0 02 96 4f bb 1e 7f 97 38 99 70 61 3b 54 36 33 bb
       -0.0031675105 7.2239185e-05 0.0034399389 -0.0027345615
000100 a0 2b 8b bb 08 ad 51 3b ad be 28 3b 70 06 6a ba
       -0.004247144 0.0031994004 0.0025748417 -0.0008927351
000110 9e e3 49 bb 1d 41 ae ba e3 fc c5 3b 88 36 85 3b
       -0.0030805836 -0.0013294552 0.0060421093 0.0040653385
000120 ce 66 b1 bb e2 9c 27 bb 6c b6 e1 ba 9f 5d 8f 3b
       -0.0054138666 -0.0025575687 -0.0017220504 0.004375174
000130 af e4 5e 3b ae c4 a3 3b ca a1 6b 39 e8 11 04 3b
       0.0034010818 0.0049978113 0.00022471618 0.0020152275
000140 d3 cf 21 ba 5f 38 87 bb e9 eb 1b 3b 3b b8 86 bb
       -0.0006172631 -0.004126593 0.0023791736 -0.0041113175
000150 fb d6 01 3b 6b 70 19 b9 e0 36 53 ba b0 3b 21 3b
       0.0019811976 -0.00014633096 -0.0008057188 0.0024602227
000160 38 96 c1 ba 27 28 0a bb de 7b cd ba b2 e8 5a 3a
       -0.00147695 -0.0021081062 -0.0015677174 0.00083507143
000170 e8 17 21 bb a4 d7 3f 3b b9 2d d3 ba ec d4 a6 b9
       -0.00245809 0.002927282 -0.0016111649 -0.00031820626
000180 b7 53 2e 3b c2 53 6d bb 80 b5 4f bb ee 8e 39 bb
       0.002660019 -0.0036213254 -0.0031693876 -0.0028313952
000190 e1 29 97 bb 04 6c a2 3a ad 16 f3 ba 78 7e df ba
       -0.0046131467 0.001239181 -0.0018546187 -0.001705124
0001a0 87 73 ad bb ea c2 3e bb 68 09 09 3b 5c a4 00 bb
       -0.005293313 -0.0029107877 0.0020910148 -0.0019629216
0001b0 b8 0c 9e bb d0 7d 06 3b 77 c1 a7 39 c3 83 27 3b
       -0.0048232935 0.0020521767 0.00031996865 0.0025560714
0001c0 68 f5 22 bb 06 12 70 ba 1c b3 c8 3b 4a f4 2f 3b
       -0.0024865512 -0.0009157959 0.006124867 0.0026848488
0001d0 3e e4 6e 3b 31 8c ee ba 61 d4 5d bb de b7 73 bb
       0.003645196 -0.0018199739 -0.0033848512 -0.003718845
0001e0 59 b3 93 3b 29 26 94 bb ef 58 02 3a c4 5e 5d 3b
       0.004507464 -0.0045211506 0.00049723586 0.0033778409
0001f0 5b da 3c bb c1 21 81 bb 48 76 fa 3a 6b 37 a0 bb
       -0.0028816673 -0.0039407914 0.0019108737 -0.004889419

action_model._discrete_distribution.branches.0.weight f4 [4, 128]
000000 76 64 2d bb fa fd 2e bc 38 3e cb ba 99 21 c4 3b
       -0.0026457584 -0.01068067 -0.0015506214 0.0059854505
000010 01 4b 78 3c 23 63 2f bb b1 eb 6e 3a 7d 4c 99 3c
       0.015154601 -0.002676197 0.00091141 0.01871323
000020 63 1d 3f 3c 06 90 a9 3c 3a 97 88 bb f5 e9 63 bb
       0.011664721 0.020698559 -0.0041684182 -0.00347769
000030 09 1a 30 3c a3 e1 39 3c 95 45 3f 3b ed 65 3b bc
       0.010748395 0.0113453 0.0029185761 -0.011437875
000040 ad c0 31 bb e7 8f 10 3c b2 fc b8 bb 7b 16 5d 3b
       -0.00271229 0.0088233715 -0.005645358 0.0033735323
000050 77 b3 5f 3c 8d 4f 2e bc b0 ce 2e bb ce 49 9e bc
       0.013653628 -0.010639084 -0.0026673488 -0.019322302
000060 51 0d b3 3b 1d 29 6f 3c b0 78 57 bb e7 2b d1 bc
       0.005464234 0.0145972045 -0.0032878332 -0.02553363
000070 97 a1 52 bb 87 a2 cc bb 69 15 ab bb e0 f9 f5 3b
       -0.0032139772 -0.0062449607 -0.005221058 0.007506594
000080 0c 14 a0 3b f6 01 da bb 56 5d 48 bb ae 44 c1 bb
       0.0048852023 -0.006653066 -0.003057321 -0.00589808
000090 ba 43 b8 3a 19 5e a7 ba d1 63 11 3c 9d c6 09 3b
       0.001405827 -0.0012769132 0.008873896 0.0021022924
0000a0 f6 a8 00 3a 51 ec 43 bc 4b 52 4e bc f9 f6 fd ba
       0.00049079896 -0.011958198 -0.012592862 -0.0019375972
0000b0 29 42 9d 3c f3 b4 67 bb 30 a5 2a bb 3e 6a 30 3c
       0.019196587 -0.0035355657 -0.00260384 0.010767518
0000c0 66 d7 3e 3c 5c a6 56 3c cd be 85 3b 11 8c f0 bb
       0.011648035 0.013101187 0.004081583 -0.007340916
0000d0 a8 3a bf 3b 6a b2 b0 3b 3d 30 d9 3a 55 04 08 bc
       0.00583585 0.0053923624 0.0016570162 -0.008301814
0000e0 fc 1e e8 3b 95 46 a1 bc ac 44 04 bc 63 a8 fe 3b
       0.0070837718 -0.019686976 -0.008073013 0.007771538
0000f0 3b 90 47 bc 53 5f c7 3c 17 57 c1 3b e2 88 7d bc
       -0.012180383 0.024337446 0.0059002745 -0.01547453
000100 79 1e d7 39 42 ef 22 3c ac 05 1f 3c 04 50 9f bc
       0.000410307 0.009944739 0.009705942 -0.019447334
000110 a7 91 bd ba 15 d3 cb bb b7 c9 ee 3b 59 7c 36 3b
       -0.0014462963 -0.0062202313 0.00728723 0.0027845113
000120 15 dc 4f bc 22 71 0f 3c 71 f0 3b 3c 13 30 c7 3c
       -0.012686749 0.008755 0.0114709 0.024314916
000130 8e ea 09 3c 5f f8 93 3b cc 6a b4 ba 2b b8 0d 3c
       0.008417739 0.004515692 -0.0013764738 0.008649866
000140 45 7b de 3b 52 42 3b 3c 94 23 8a 3b 42 bb b0 bc
       0.006789597 0.011429386 0.004215667 -0.021573666
000150 9c 8b 6e bb 03 1c c8 ba f6 15 65 3b 25 8d 1d bc
       -0.0036399132 -0.0015267137 0.0034955717 -0.009616171
000160 0d 11 00 bc 23 28 ac bc b4 f4 56 3b 13 e8 2f 3c
       -0.007816565 -0.021015232 0.0032799663 0.010736483
000170 8b 08 cb 3a 2b 78 06 3c bd d1 b3 bb a3 17 52 bb
       0.0015490217 0.008207361 -0.0054876492 -0.0032057546
000180 56 39 37 3c 62 9b ca b8 92 c4 94 bc 14 6f 24 bb
       0.011183104 -9.661053e-05 -0.018160138 -0.0025090622
000190 4f 86 6f bc 15 0c 2a 3c d2 ab a8 3a cc 10 72 bb
       -0.014619424 0.010378857 0.0012868589 -0.0036936281
0001a0 35 15 9a bc 23 32 b9 3b 46 09 58 37 ce bc 4e bb
       -0.01880894 0.0056517287 1.2876762e-05 -0.0031545642
0001b0 94 b7 4e bc 40 9d 8d 3c 6a ac 1d ba 83 03 bc 3b
       -0.012617011 0.017286897 -0.00060147664 0.0057377233
0001c0 a9 92 0e 3b b4 d4 13 bb 69 17 f0 3b 95 41 8a 3c
       0.0021754897 -0.00225572 0.0073270095 0.016876975
0001d0 4a ef 5b 39 c0 f3 10 bc b9 2d 37 bc 1a 6f c8 3b
       0.0002097461 -0.008847177 -0.011180335 0.00611676
0001e0 d3 be f9 3b 8f 91 12 bc e3 e8 59 bc bf f9 67 3c
       0.007621625 -0.008945837 -0.013300153 0.014158665
0001f0 ab ba 92 ba 43 01 bd bc 70 00 28 3c 88 c0 64 bc
       -0.0011194547 -0.02307189 0.010254011 -0.013961919
000200 cd a8 15 bc ed 91 43 3c e1 67 05 3c 0e e5 7c bc
       -0.0091344835 0.011936647 0.008142442 -0.01543547
000210 5c c5 b3 bb 63 08 d0 3a f8 d0 ca bc 79 f2 91 b9
       -0.0054861736 0.001587164 -0.024757847 -0.0002783721
000220 80 a0 7c ba 7a a7 32 bb 94 9a cf 3b 42 8d 20 3b
       -0.00096369535 -0.0027260468 0.006335566 0.0024498259
000230 ea 76 0a 3c 7c b5 cc bb 60 2e 76 3a ed 46 7a bc
       0.008451203 -0.0062472206 0.00093910657 -0.015275699
000240 40 8d 4a bc 51 5c cf bb 63 82 78 bc ba 68 20 3c
       -0.012362778 -0.0063281436 -0.015167805 0.009790594
000250 30 2c f4 ba ad c3 10 3c ec ab 64 3c 3a 35 88 3c
       -0.0018628892 0.008835715 0.013957005 0.016626943
000260 ab 81 80 3a 7b ce 80 bb 80 55 9c 3a 9d a7 8e b8
       0.0009804269 -0.0039308644 0.0011927336 -6.802308e-05
000270 b9 18 72 3b 90 a9 eb bb a5 ec b8 3c 12 af 32 bc
       0.0036941005 -0.0071918443 0.022573778 -0.010905998
000280 6c a8 7b 3b cb 62 1f 3c f7 ed 8a ba 76 87 c8 3a
       0.0038399948 0.009728144 -0.0010599484 0.001529916
000290 ef 40 a8 bc 13 a3 86 3c 33 e8 1f bb 85 5f 8d 3b
       -0.020538775 0.016435182 -0.0024399876 0.0043143653
0002a0 75 07 48 3c 6c 5b 86 3c 5e 1d 81 bb 0a 7c d7 3b
       0.012208809 0.016401015 -0.0039402684 0.006576066
0002b0 99 64 55 bb e2 62 c4 3c 90 99 cb bb 90 a5 01 3c
       -0.0032561182 0.023972932 -0.0062133744 0.007913008
0002c0 31 2b fa bb 8d f9 8f bb 83 4d 9b 3b 34 ac c2 3b
       -0.0076345433 -0.0043937624 0.0047394647 0.0059409384
0002d0 b3 5e 3e 3b b7 59 85 bc b0 1e 9f 3c 9c 0f 35 3a
       0.0029048144 -0.016278131 0.019423813 0.0006906928
0002e0 e2 49 47 bc 82 ed 48 3b f4 ae 9a bb d0 34 d8 bb
       -0.012163611 0.0030659144 -0.004720563 -0.0065980926
0002f0 b7 13 00 3a a5 93 48 3a 64 0b 1e ba 43 0b 88 3c
       0.000488575 0.0007651395 -0.0006028919 0.016606933
000300 42 d4 75 3c 2d 53 7c ba e1 d8 ac bc d3 95 c8 bb
       0.0150042195 -0.0009625431 -0.02109951 -0.006121376
000310 0a 65 71 3c 27 07 f3 3b ff df 4c bc 7e bb 04 bc
       0.014733562 0.007416624 -0.012504577 -0.008101342
000320 b8 4b 1e 3c a7 30 75 3b f1 2e 1c bb a3 84 39 bc
       0.009661607 0.0037413032 -0.002383169 -0.011323127
000330 8d f0 2e bc e3 ad 52 bc 6d 85 6b bb 68 aa 60 ba
       -0.010677469 -0.012858841 -0.0035937682 -0.00085703144
000340 40 3f 27 3b 04 03 fa 39 5d 1c 4e 3c b0 a3 1e 3b
       0.0025519878 0.00047685963 0.0125800045 0.0024206452
000350 c3 bd ad bb 1f 25 c2 3c 86 14 57 bb 85 d8 43 3b
       -0.0053021624 0.023699341 -0.003281863 0.0029883694
000360 6e 92 04 3b 05 8d 18 3c 80 a0 15 3b 32 f7 c4 3c
       0.002022888 0.009310965 0.002283126 0.024043653
000370 28 66 51 3c 2d ff 40 bc d6 c8 4a 3c 94 61 8b ba
       0.012780704 -0.011779589 0.012376985 -0.0010633939
000380 27 41 b6 3b 2e 33 fe 3b 8d 9a 05 3c 63 4f eb 3b
       0.005561966 0.007757566 0.008154524 0.0071810945
000390 ce 25 c3 3b dc 89 b0 3a f5 ab 0d 3c a0 6f cb 3b
       0.0059554344 0.001346882 0.008646955 0.006208375
0003a0 fe f0 df 3a 3f 63 96 3c c7 8a bb bb c9 3d 99 3b
       0.0017085371 0.018357871 -0.0057233307 0.004676555
0003b0 3e 30 93 3a 1c a1 e9 bb 25 24 63 3b 68 5f 8a bb
       0.0011229587 -0.0071298014 0.0034658995 -0.004222799
0003c0 ad 6f 73 bb fb e9 08 3c 2f 95 b6 bb 4c 0d f9 3b
       -0.0037145421 0.008356567 -0.0055719833 0.007600462
0003d0 25 66 12 ba 27 b6 1b bc 2c a5 6f bb 2c a9 dc 39
       -0.0005584679 -0.009503878 -0.0036566956 0.00042087713
0003e0 fe 89 82 bb 98 b2 e8 3b 21 bf 8f bc 15 bb 39 3c
       -0.003983735 0.007101368 -0.017547192 0.011336108
0003f0 c7 ed ae 3b 0c c2 52 3c 99 94 68 bb 3b d9 47 3c
       0.005338404 0.012863647 -0.0035488962 0.012197788

action_model._discrete_distribution.branches.0.bias f4 [4]
000000 87 72 9d 3b 6f a0 29 bb 03 b0 51 bb 24 2e 1a 3b
       0.0048049125 -0.002588298 -0.003199578 0.0023526037

action_model._discrete_distribution.branches.1.weight f4 [4, 128]
000000 fe 8e e8 3a ea af 6a 3c 25 8d af 3a bb 9e 75 bb
       0.001774281 0.014324168 0.0013393505 -0.0037478644
000010 de 2e 2f 3c 67 1a 9b 3b a9 43 75 bc 8f dd a7 3a
       0.010692326 0.004733372 -0.014969745 0.0012807118
000020 f7 4d 69 3b 37 31 2d bb 20 d3 63 bc 38 ee 5b 3c
       0.003559945 -0.002642704 -0.013905317 0.013423495
000030 94 e7 3d bc 99 b6 cd bb c8 70 fa bb 73 a5 21 3c
       -0.011590857 -0.006277871 -0.007642839 0.009866106
000040 fc a8 51 3b 9f dd 3a bb 71 4f 97 3c 6a 70 10 bc
       0.0031991592 -0.0028513444 0.018470498 -0.008815864
000050 cf 11 63 bb 74 1c 1b bc f2 6d e6 3b 0a 1b 65 3c
       -0.0034648066 -0.009467233 0.0070321495 0.013983497
000060 b6 9e 5c bc 11 3d 20 bc 03 15 e7 3b 21 ee 39 bc
       -0.013465574 -0.009780184 0.0070520653 -0.011348278
000070 b5 7e 20 bc cb e5 0f bc 53 a7 86 3c 82 a3 09 3b
       -0.009795834 -0.008782814 0.016437208 0.0021002
000080 16 fd 0d bc 66 e2 55 bc ad 97 0d 3b 75 c6 03 3c
       -0.008666297 -0.013054466 0.0021605298 0.008042921
000090 0f 21 02 bc 50 42 e6 ba 26 87 51 bb 9e 79 d4 3b
       -0.007942452 -0.001756737 -0.0031971424 0.0064842245
0000a0 b9 9d 2a 3c de e2 72 3c a9 74 ba 3a 11 0e 97 3c
       0.010413581 0.014824597 0.0014225441 0.018439325
0000b0 8e 4a da bb 77 8f e5 3a 39 f1 2f bc 9c 82 81 bc
       -0.0066617196 0.0017514069 -0.010738664 -0.01580935
0000c0 3c 86 ba 3b 8a 03 2c bb 39 55 73 3c 8d 21 2d 3c
       0.0056922715 -0.0026247227 0.014851862 0.010567081
0000d0 42 18 84 3c a1 92 0c bc 21 e3 fa 39 61 6e 8e bb
       0.016124848 -0.008579881 0.0004785294 -0.0043466543
0000e0 8d 5d 73 ba 00 8b fe 3b c0 37 55 3c 9d f0 8f 3c
       -0.00092836545 0.007768035 0.01301378 0.017570788
0000f0 8a 6e be 3b 6f 85 18 3c 79 ee 0f bc 1f d5 5b 3c
       0.005811517 0.009309157 -0.008784884 0.013417511
000100 e8 56 e3 3b 4a 85 5f bb 6e b9 4f bc 76 e8 1a bb
       0.0069378503 -0.0034106546 -0.012678487 -0.0023637093
000110 99 18 32 bb 46 f2 84 3c 56 9c 22 bb 92 05 11 3b
       -0.0027175306 0.016228806 -0.0024812422 0.0022128564
000120 90 a2 33 3c 52 37 3b bb 4b 14 4b 3a 7c 5e 9f ba
       0.010964051 -0.002856691 0.00077468593 -0.0012158896
000130 98 ac 87 3a f3 d9 a0 bc ca d1 21 3c 8b 86 71 3c
       0.001035112 -0.019635176 0.009876678 0.01474155
000140 52 90 ee 3a 77 a2 9a 3c 16 47 88 3c 64 67 9c b9
       0.001820097 0.018876297 0.016635459 -0.0002983167
000150 bc 4d 84 3c de f6 33 bc 81 8d 39 3b 9b bd 12 bb
       0.016150348 -0.010984151 0.0028313103 -0.0022390846
000160 b0 07 9b 3c 2e 9f 0e 3b 20 74 fb 3a 3b 4e f1 3b
       0.018924564 0.002176236 0.0019184388 0.007364062
000170 a4 fb ac 3b 4d ce 26 bc 48 10 0b 3c c0 38 b2 ba
       0.0052790213 -0.010181022 0.0084877685 -0.0013597235
000180 34 ee 3d bb 4d d0 78 3c d6 fe b2 bb 59 92 a0 3b
       -0.0028981091 0.0151863815 -0.0054625077 0.0049002585
000190 dd 69 c2 bb a2 55 b0 3b 27 ac 0d 3c bc ee 13 3c
       -0.00593303 0.005381302 0.008647001 0.009029087
0001a0 64 bd 0c bb 8f 9b 6e bb 6b 16 25 bc 75 9b 2b bc
       -0.002147519 -0.0036408638 -0.010076146 -0.010474076
0001b0 ee c3 73 bb 2f aa ac 3c ec fa 13 3c bf 53 bd ba
       -0.003719564 0.021077244 0.009031992 -0.0014444514
0001c0 30 6b 4c 39 4e cd cd bb 09 66 a5 bb ab 1b 34 bc
       0.00019494887 -0.0062805777 -0.005047564 -0.010992925
0001d0 43 76 a5 3b dc af b5 39 82 9a 4d bb c3 b2 56 bc
       0.0050494983 0.00034654036 -0.0031372611 -0.013104144
0001e0 76 e3 2b 3a 46 e3 00 3c 57 95 0b bc ba 94 62 3a
       0.00065570266 0.007866686 -0.008519492 0.0008643378
0001f0 3f e2 b7 3b 02 2f 10 3b 7b c9 53 b8 f7 38 b1 bb
       0.0056116874 0.0022000675 -5.0493963e-05 -0.005408402
000200 36 46 5d bb 53 ba ef ba df ef e0 bb 30 34 33 3a
       -0.0033763773 -0.0018289782 -0.0068645324 0.00068360846
000210 d2 36 ab 3b a3 83 06 3b b4 64 f6 3b b3 6d c3 bb
       0.005225041 0.002052524 0.007519329 -0.005964005
000220 71 1a f1 3b ee 2c b3 3c 2e fb 03 bc 99 ac 01 bc
       0.0073578884 0.02187201 -0.008055491 -0.007914686
000230 dd a8 81 3b d4 5d 95 3b 02 cd e0 ba 41 64 90 ba
       0.0039568976 0.0045583043 -0.0017150941 -0.0011016206
000240 f4 9d 2d 3c a0 f6 f6 3b fb ee 5b bb 56 b5 90 bb
       0.010596741 0.007536724 -0.0033559192 -0.004416148
000250 9d fd dd bb 5e 01 14 bb 4d cc 84 3a d9 50 19 3c
       -0.006774618 -0.0022583823 0.0010131687 0.0093576545
000260 9f 10 52 bc ed cf 14 3b 9d 8e b8 3b 66 02 41 bc
       -0.012821346 0.0022706941 0.005632235 -0.011780357
000270 57 3a 68 bc 12 8b 8e bb 24 75 6e bc 6c 0d b7 3b
       -0.014174066 -0.0043500746 -0.014554296 0.005586317
000280 59 bd e8 ba 9e 78 57 bc 46 f2 1a 3c 4e f0 08 3c
       -0.0017756625 -0.013151316 0.009457177 0.008358074
000290 ba 27 21 3c 19 b4 56 bc 70 b6 02 bc c4 f4 5e bb
       0.009836132 -0.013104462 -0.007978067 -0.0034020403
0002a0 12 a7 42 bb cb 8f 6d 3c 52 01 22 bb 84 0a 74 3c
       -0.0029701632 0.014499615 -0.0024720025 0.014895085
0002b0 b0 95 c1 3c 65 1b 10 bb ce b2 19 ba 5f bf ae 39
       0.023630947 -0.0021988985 -0.0005863131 0.0003333045
0002c0 1b 88 11 bc 68 be 0c bb b9 40 bf ba 9b 4c f7 3b
       -0.008882548 -0.0021475796 -0.0014591432 0.007546974
0002d0 87 13 5e bc e4 38 1c 3c 35 b2 30 3b 8e 65 ae 3b
       -0.01355446 0.009535048 0.0026961688 0.005322165
0002e0 d3 9f 20 3c 00 af 05 bc 36 f2 6f bc 0f 4f a6 3b
       0.00980373 -0.008159399 -0.01464515 0.0050753425
0002f0 50 64 fa bb 6c 29 06 3c 36 83 b3 b9 d9 22 63 bb
       -0.0076413527 0.008188587 -0.000342393 -0.0034658222
000300 97 b1 10 bc dd bf 1a bc c9 56 9e 3b f5 24 b1 bb
       -0.008831403 -0.009445158 0.004832123 -0.005406017
000310 f4 21 19 3b f6 2d 9a bc 48 1d 4f 3c 4f b3 0e 3c
       0.0023366185 -0.018820744 0.012641259 0.008709743
000320 01 b9 3d bb 06 f7 c1 38 28 32 5e ba 51 fc 8a bc
       -0.0028949382 9.248969e-05 -0.0008476102 -0.016966017
000330 39 22 47 3c 2b a4 d7 b8 0d bb db 3b ca a5 6e bc
       0.012154155 -0.000102825776 0.006705648 -0.014565894
000340 39 38 0f 3c e5 e5 25 bc 25 07 35 bc dd 06 8b 3c
       0.008741432 -0.010125612 -0.011049067 0.016971046
000350 4b 75 50 bc 19 21 3e bb 92 01 fd bb 1f 39 b2 3b
       -0.012723277 -0.0029011427 -0.0077211345 0.0054389383
000360 fe ce da 3a fd ea b5 3b fc 62 b4 bb 03 7d 6f ba
       0.0016693769 0.0055516944 -0.005504964 -0.00091357547
000370 1c 6f 9e 38 b5 93 fa bb 39 ad b1 3a 85 cf 76 bc
       7.554723e-05 -0.0076470026 0.0013555653 -0.015064125
000380 a0 6b 37 bc ce 67 db 3b ef 8d 31 bc 26 20 37 bb
       -0.011195093 0.006695724 -0.010837062 -0.0027942746
000390 8f f3 f5 3a 5c 57 a6 3b 04 1d f5 bb af a4 69 bc
       0.0018764603 0.005076332 -0.0074802656 -0.014260455
0003a0 2d 5d 23 3a a4 45 32 bb 67 ff 14 3c ae 16 38 3c
       0.0006231841 -0.0027202154 0.009094096 0.011235876
0003b0 94 00 45 bc 2f 3b 6a 3c 3a e6 c9 ba 9f 6a 05 bb
       -0.012024064 0.014296337 -0.0015403696 -0.002035774
0003c0 ee cb 00 bb 80 a2 c1 3b da 32 bb 3b 4f 43 3f 3c
       -0.0019652802 0.005909264 0.005712849 0.011673762
0003d0 51 df ac bb 2a 87 73 3c 67 5e 05 3c 10 72 5b bc
       -0.005275645 0.014863769 0.008140183 -0.013393894
0003e0 c9 e3 92 3c c1 3b bd ba 07 24 9e 3a 6c 76 9e 3c
       0.017930882 -0.0014437364 0.001206518 0.019343577
0003f0 bd 90 4a 3b 61 ef f6 bb 15 9c 79 bc 5d e7 75 bc
       0.0030909025 -0.0075358604 -0.015234967 -0.015008775

action_model._discrete_distribution.branches.1.bias f4 [4]
000000 d1 c2 93 bb 97 cb 60 3a a1 8f e0 3a 4e 0b 3c ba
       -0.004509308 0.0008575259 0.0017132648 -0.00071733154

exp_avg f4 [128, 113]
000000 00 00 00 00 ae 36 aa 36 ae 36 aa 36 00 00 00 00
       0.0 5.0727604e-06 5.0727604e-06 0.0
000010 ae 36 aa 36 ae 36 aa 36 00 00 00 00 ae 36 aa 36
       5.0727604e-06 5.0727604e-06 0.0 5.0727604e-06
000020 ae 36 aa 36 00 00 00 00 ae 36 aa 36 ae 36 aa 36
       5.0727604e-06 0.0 5.0727604e-06 5.0727604e-06
000030 00 00 00 00 ae 36 aa 36 ae 36 aa 36 00 00 00 00
       0.0 5.0727604e-06 5.0727604e-06 0.0
000040 ae 36 aa 36 ae 36 aa 36 00 00 00 00 ae 36 aa 36
       5.0727604e-06 5.0727604e-06 0.0 5.0727604e-06
000050 ae 36 aa 36 00 00 00 00 ae 36 aa 36 ae 36 aa 36
       5.0727604e-06 0.0 5.0727604e-06 5.0727604e-06
000060 00 00 00 00 ae 36 aa 36 ae 36 aa 36 ce 53 f7 36
       0.0 5.0727604e-06 5.0727604e-06 7.37093e-06
000070 34 3a 1a b6 cc e5 0c 34 00 00 00 00 ae 36 aa 36
       -2.2981667e-06 1.3122116e-07 0.0 5.0727604e-06
000080 ae 36 aa 36 00 00 00 00 ae 36 aa 36 ae 36 aa 36
       5.0727604e-06 0.0 5.0727604e-06 5.0727604e-06
000090 34 3a 1a b6 ce 53 f7 36 76 13 e0 36 00 00 00 00
       -2.2981667e-06 7.37093e-06 6.6779858e-06 0.0
0000a0 ae 36 aa 36 ae 36 aa 36 34 3a 1a b6 ce 53 f7 36
       5.0727604e-06 5.0727604e-06 -2.2981667e-06 7.37093e-06
0000b0 07 3a e0 36 00 00 00 00 ae 36 aa 36 ae 36 aa 36
       6.6824755e-06 0.0 5.0727604e-06 5.0727604e-06
0000c0 00 00 00 00 ae 36 aa 36 ae 36 aa 36 00 00 00 00
       0.0 5.0727604e-06 5.0727604e-06 0.0
0000d0 ae 36 aa 36 ae 36 aa 36 00 00 00 00 ae 36 aa 36
       5.0727604e-06 5.0727604e-06 0.0 5.0727604e-06
0000e0 ae 36 aa 36 00 00 00 00 ae 36 aa 36 ae 36 aa 36
       5.0727604e-06 0.0 5.0727604e-06 5.0727604e-06
0000f0 00 00 00 00 ae 36 aa 36 ae 36 aa 36 00 00 00 00
       0.0 5.0727604e-06 5.0727604e-06 0.0
000100 34 3a 1a b6 36 7d a9 36 00 00 00 00 34 3a 1a b6
       -2.2981667e-06 5.051169e-06 0.0 -2.2981667e-06
000110 36 7d a9 36 95 fc 02 37 e8 84 37 b6 00 00 00 00
       5.051169e-06 7.807413e-06 -2.7346487e-06 0.0
000120 3e ee 99 33 ac 09 1f b6 00 00 00 00 00 00 00 00
       7.167954e-08 -2.3698476e-06 0.0 0.0
000130 00 00 00 00 00 00 00 00 00 00 00 00 00 00 00 00
       0.0 0.0 0.0 0.0
000140 00 00 00 00 00 00 00 00 00 00 00 00 00 00 00 00
       0.0 0.0 0.0 0.0
000150 00 00 00 00 00 00 00 00 00 00 00 00 00 00 00 00
       0.0 0.0 0.0 0.0
000160 00 00 00 00 00 00 00 00 00 00 00 00 00 00 00 00
       0.0 0.0 0.0 0.0
000170 00 00 00 00 00 00 00 00 00 00 00 00 00 00 00 00
       0.0 0.0 0.0 0.0
000180 00 00 00 00 00 00 00 00 00 00 00 00 00 00 00 00
       0.0 0.0 0.0 0.0
000190 00 00 00 00 00 00 00 00 00 00 00 00 00 00 00 00
       0.0 0.0 0.0 0.0
0001a0 00 00 00 00 00 00 00 00 00 00 00 00 00 00 00 00
       0.0 0.0 0.0 0.0
0001b0 00 00 00 00 00 00 00 00 00 00 00 00 00 00 00 00
       0.0 0.0 0.0 0.0
0001c0 00 00 00 00 00 00 00 00 83 62 b0 b6 83 62 b0 b6
       0.0 0.0 -5.256677e-06 -5.256677e-06
0001d0 00 00 00 00 83 62 b0 b6 83 62 b0 b6 00 00 00 00
       0.0 -5.256677e-06 -5.256677e-06 0.0
0001e0 83 62 b0 b6 83 62 b0 b6 00 00 00 00 83 62 b0 b6
       -5.256677e-06 -5.256677e-06 0.0 -5.256677e-06
0001f0 83 62 b0 b6 00 00 00 00 83 62 b0 b6 83 62 b0 b6
       -5.256677e-06 0.0 -5.256677e-06 -5.256677e-06
000200 00 00 00 00 83 62 b0 b6 83 62 b0 b6 00 00 00 00
       0.0 -5.256677e-06 -5.256677e-06 0.0
000210 83 62 b0 b6 83 62 b0 b6 00 00 00 00 83 62 b0 b6
       -5.256677e-06 -5.256677e-06 0.0 -5.256677e-06
000220 83 62 b0 b6 00 00 00 00 83 62 b0 b6 83 62 b0 b6
       -5.256677e-06 0.0 -5.256677e-06 -5.256677e-06
000230 ba ae c2 35 34 0e e1 b6 94 03 d1 b6 00 00 00 00
       1.4504978e-06 -6.707176e-06 -6.229102e-06 0.0
000240 83 62 b0 b6 83 62 b0 b6 00 00 00 00 83 62 b0 b6
       -5.256677e-06 -5.256677e-06 0.0 -5.256677e-06
000250 83 62 b0 b6 34 0e e1 b6 ba ae c2 35 6b 7e 19 b5
       -5.256677e-06 -6.707176e-06 1.4504978e-06 -5.7180904e-07
000260 00 00 00 00 83 62 b0 b6 83 62 b0 b6 34 0e e1 b6
       0.0 -5.256677e-06 -5.256677e-06 -6.707176e-06
000270 ba ae c2 35 40 fa 15 b5 00 00 00 00 83 62 b0 b6
       1.4504978e-06 -5.5870987e-07 0.0 -5.256677e-06
000280 83 62 b0 b6 00 00 00 00 83 62 b0 b6 83 62 b0 b6
       -5.256677e-06 0.0 -5.256677e-06 -5.256677e-06
000290 00 00 00 00 83 62 b0 b6 83 62 b0 b6 00 00 00 00
       0.0 -5.256677e-06 -5.256677e-06 0.0
0002a0 83 62 b0 b6 83 62 b0 b6 00 00 00 00 83 62 b0 b6
       -5.256677e-06 -5.256677e-06 0.0 -5.256677e-06
0002b0 83 62 b0 b6 00 00 00 00 83 62 b0 b6 83 62 b0 b6
       -5.256677e-06 0.0 -5.256677e-06 -5.256677e-06
0002c0 00 00 00 00 34 0e e1 b6 fd 86 b0 b6 00 00 00 00
       0.0 -6.707176e-06 -5.2609234e-06 0.0
0002d0 34 0e e1 b6 fd 86 b0 b6 70 56 07 36 c0 0d f4 b6
       -6.707176e-06 -5.2609234e-06 2.016688e-06 -7.2733674e-06
0002e0 00 00 00 00 d8 9c b9 34 04 a8 ec b6 00 00 00 00
       0.0 3.4573054e-07 -7.0529077e-06 0.0
0002f0 00 00 00 00 00 00 00 00 00 00 00 00 00 00 00 00
       0.0 0.0 0.0 0.0
000300 00 00 00 00 00 00 00 00 00 00 00 00 00 00 00 00
       0.0 0.0 0.0 0.0
000310 00 00 00 00 00 00 00 00 00 00 00 00 00 00 00 00
       0.0 0.0 0.0 0.0
000320 00 00 00 00 00 00 00 00 00 00 00 00 00 00 00 00
       0.0 0.0 0.0 0.0
000330 00 00 00 00 00 00 00 00 00 00 00 00 00 00 00 00
       0.0 0.0 0.0 0.0
000340 00 00 00 00 00 00 00 00 00 00 00 00 00 00 00 00
       0.0 0.0 0.0 0.0
000350 00 00 00 00 00 00 00 00 00 00 00 00 00 00 00 00
       0.0 0.0 0.0 0.0
000360 00 00 00 00 00 00 00 00 00 00 00 00 00 00 00 00
       0.0 0.0 0.0 0.0
000370 00 00 00 00 00 00 00 00 00 00 00 00 00 00 00 00
       0.0 0.0 0.0 0.0
000380 00 00 00 00 00 00 00 00 00 00 00 00 7e cb 5f 36
       0.0 0.0 0.0 3.3348038e-06
000390 7e cb 5f 36 00 00 00 00 7e cb 5f 36 7e cb 5f 36
       3.3348038e-06 0.0 3.3348038e-06 3.3348038e-06
0003a0 00 00 00 00 7e cb 5f 36 7e cb 5f 36 00 00 00 00
       0.0 3.3348038e-06 3.3348038e-06 0.0
0003b0 7e cb 5f 36 7e cb 5f 36 00 00 00 00 7e cb 5f 36
       3.3348038e-06 3.3348038e-06 0.0 3.3348038e-06
0003c0 7e cb 5f 36 00 00 00 00 7e cb 5f 36 7e cb 5f 36
       3.3348038e-06 0.0 3.3348038e-06 3.3348038e-06
0003d0 00 00 00 00 7e cb 5f 36 7e cb 5f 36 00 00 00 00
       0.0 3.3348038e-06 3.3348038e-06 0.0
0003e0 7e cb 5f 36 7e cb 5f 36 00 00 00 00 7e cb 5f 36
       3.3348038e-06 3.3348038e-06 0.0 3.3348038e-06
0003f0 7e cb 5f 36 39 c7 84 35 e3 67 1d 36 81 49 33 36
       3.3348038e-06 9.892748e-07 2.3455293e-06 2.6715863e-06

exp_avg_sq f4 [128, 113]
000000 00 00 00 00 78 41 79 2f 78 41 79 2f 00 00 00 00
       0.0 2.2669677e-10 2.2669677e-10 0.0
000010 78 41 79 2f 78 41 79 2f 00 00 00 00 78 41 79 2f
       2.2669677e-10 2.2669677e-10 0.0 2.2669677e-10
000020 78 41 79 2f 00 00 00 00 78 41 79 2f 78 41 79 2f
       2.2669677e-10 0.0 2.2669677e-10 2.2669677e-10
000030 00 00 00 00 78 41 79 2f 78 41 79 2f 00 00 00 00
       0.0 2.2669677e-10 2.2669677e-10 0.0
000040 78 41 79 2f 78 41 79 2f 00 00 00 00 78 41 79 2f
       2.2669677e-10 2.2669677e-10 0.0 2.2669677e-10
000050 78 41 79 2f 00 00 00 00 78 41 79 2f 78 41 79 2f
       2.2669677e-10 0.0 2.2669677e-10 2.2669677e-10
000060 00 00 00 00 78 41 79 2f 78 41 79 2f d4 75 ff 2e
       0.0 2.2669677e-10 2.2669677e-10 1.1616988e-10
000070 9c cb 29 2f e5 c2 27 2f 00 00 00 00 78 41 79 2f
       1.5442797e-10 1.5257802e-10 0.0 2.2669677e-10
000080 78 41 79 2f 00 00 00 00 78 41 79 2f 78 41 79 2f
       2.2669677e-10 0.0 2.2669677e-10 2.2669677e-10
000090 9c cb 29 2f d4 75 ff 2e b9 9c 00 2f 00 00 00 00
       1.5442797e-10 1.1616988e-10 1.1697211e-10 0.0
0000a0 78 41 79 2f 78 41 79 2f 9c cb 29 2f d4 75 ff 2e
       2.2669677e-10 2.2669677e-10 1.5442797e-10 1.1616988e-10
0000b0 d5 81 00 2f 00 00 00 00 78 41 79 2f 78 41 79 2f
       1.1687658e-10 0.0 2.2669677e-10 2.2669677e-10
0000c0 00 00 00 00 78 41 79 2f 78 41 79 2f 00 00 00 00
       0.0 2.2669677e-10 2.2669677e-10 0.0
0000d0 78 41 79 2f 78 41 79 2f 00 00 00 00 78 41 79 2f
       2.2669677e-10 2.2669677e-10 0.0 2.2669677e-10
0000e0 78 41 79 2f 00 00 00 00 78 41 79 2f 78 41 79 2f
       2.2669677e-10 0.0 2.2669677e-10 2.2669677e-10
0000f0 00 00 00 00 78 41 79 2f 78 41 79 2f 00 00 00 00
       0.0 2.2669677e-10 2.2669677e-10 0.0
000100 9c cb 29 2f 54 a6 78 2f 00 00 00 00 9c cb 29 2f
       1.5442797e-10 2.261456e-10 0.0 1.5442797e-10
000110 54 a6 78 2f 7e 9f 06 2f 4e 75 3a 2f 00 00 00 00
       2.261456e-10 1.2243892e-10 1.6958276e-10 0.0
000120 aa 99 d2 2d bc 02 23 2f 00 00 00 00 00 00 00 00
       2.3942476e-11 1.4825735e-10 0.0 0.0
000130 00 00 00 00 00 00 00 00 00 00 00 00 00 00 00 00
       0.0 0.0 0.0 0.0
000140 00 00 00 00 00 00 00 00 00 00 00 00 00 00 00 00
       0.0 0.0 0.0 0.0
000150 00 00 00 00 00 00 00 00 00 00 00 00 00 00 00 00
       0.0 0.0 0.0 0.0
000160 00 00 00 00 00 00 00 00 00 00 00 00 00 00 00 00
       0.0 0.0 0.0 0.0
000170 00 00 00 00 00 00 00 00 00 00 00 00 00 00 00 00
       0.0 0.0 0.0 0.0
000180 00 00 00 00 00 00 00 00 00 00 00 00 00 00 00 00
       0.0 0.0 0.0 0.0
000190 00 00 00 00 00 00 00 00 00 00 00 00 00 00 00 00
       0.0 0.0 0.0 0.0
0001a0 00 00 00 00 00 00 00 00 00 00 00 00 00 00 00 00
       0.0 0.0 0.0 0.0
0001b0 00 00 00 00 00 00 00 00 00 00 00 00 00 00 00 00
       0.0 0.0 0.0 0.0
0001c0 00 00 00 00 00 00 00 00 82 27 d5 2e 82 27 d5 2e
       0.0 0.0 9.6931366e-11 9.6931366e-11
0001d0 00 00 00 00 82 27 d5 2e 82 27 d5 2e 00 00 00 00
       0.0 9.6931366e-11 9.6931366e-11 0.0
0001e0 82 27 d5 2e 82 27 d5 2e 00 00 00 00 82 27 d5 2e
       9.6931366e-11 9.6931366e-11 0.0 9.6931366e-11
0001f0 82 27 d5 2e 00 00 00 00 82 27 d5 2e 82 27 d5 2e
       9.6931366e-11 0.0 9.6931366e-11 9.6931366e-11
000200 00 00 00 00 82 27 d5 2e 82 27 d5 2e 00 00 00 00
       0.0 9.6931366e-11 9.6931366e-11 0.0
000210 82 27 d5 2e 82 27 d5 2e 00 00 00 00 82 27 d5 2e
       9.6931366e-11 9.6931366e-11 0.0 9.6931366e-11
000220 82 27 d5 2e 00 00 00 00 82 27 d5 2e 82 27 d5 2e
       9.6931366e-11 0.0 9.6931366e-11 9.6931366e-11
000230 ad b3 82 2e db c2 1b 2e bd 2b 3b 2e 00 00 00 00
       5.9436324e-11 3.5415986e-11 4.2557725e-11 0.0
000240 82 27 d5 2e 82 27 d5 2e 00 00 00 00 82 27 d5 2e
       9.6931366e-11 9.6931366e-11 0.0 9.6931366e-11
000250 82 27 d5 2e db c2 1b 2e ad b3 82 2e 0f 29 8b 2e
       9.6931366e-11 3.5415986e-11 5.9436324e-11 6.3282816e-11
000260 00 00 00 00 82 27 d5 2e 82 27 d5 2e db c2 1b 2e
       0.0 9.6931366e-11 9.6931366e-11 3.5415986e-11
000270 ad b3 82 2e 60 0f 8b 2e 00 00 00 00 82 27 d5 2e
       5.9436324e-11 6.323719e-11 0.0 9.6931366e-11
000280 82 27 d5 2e 00 00 00 00 82 27 d5 2e 82 27 d5 2e
       9.6931366e-11 0.0 9.6931366e-11 9.6931366e-11
000290 00 00 00 00 82 27 d5 2e 82 27 d5 2e 00 00 00 00
       0.0 9.6931366e-11 9.6931366e-11 0.0
0002a0 82 27 d5 2e 82 27 d5 2e 00 00 00 00 82 27 d5 2e
       9.6931366e-11 9.6931366e-11 0.0 9.6931366e-11
0002b0 82 27 d5 2e 00 00 00 00 82 27 d5 2e 82 27 d5 2e
       9.6931366e-11 0.0 9.6931366e-11 9.6931366e-11
0002c0 00 00 00 00 db c2 1b 2e 44 60 d4 2e 00 00 00 00
       0.0 3.5415986e-11 9.657744e-11 0.0
0002d0 db c2 1b 2e 44 60 d4 2e 51 ce 0c 2e 3a 57 64 2e
       3.5415986e-11 9.657744e-11 3.201556e-11 5.191867e-11
0002e0 00 00 00 00 1b 8f 0d 2d 69 b2 00 2e 00 00 00 00
       0.0 8.046698e-12 2.926229e-11 0.0
0002f0 00 00 00 00 00 00 00 00 00 00 00 00 00 00 00 00
       0.0 0.0 0.0 0.0
000300 00 00 00 00 00 00 00 00 00 00 00 00 00 00 00 00
       0.0 0.0 0.0 0.0
000310 00 00 00 00 00 00 00 00 00 00 00 00 00 00 00 00
       0.0 0.0 0.0 0.0
000320 00 00 00 00 00 00 00 00 00 00 00 00 00 00 00 00
       0.0 0.0 0.0 0.0
000330 00 00 00 00 00 00 00 00 00 00 00 00 00 00 00 00
       0.0 0.0 0.0 0.0
000340 00 00 00 00 00 00 00 00 00 00 00 00 00 00 00 00
       0.0 0.0 0.0 0.0
000350 00 00 00 00 00 00 00 00 00 00 00 00 00 00 00 00
       0.0 0.0 0.0 0.0
000360 00 00 00 00 00 00 00 00 00 00 00 00 00 00 00 00
       0.0 0.0 0.0 0.0
000370 00 00 00 00 00 00 00 00 00 00 00 00 00 00 00 00
       0.0 0.0 0.0 0.0
000380 00 00 00 00 00 00 00 00 00 00 00 00 0f 2c 28 2f
       0.0 0.0 0.0 1.5295164e-10
000390 0f 2c 28 2f 00 00 00 00 0f 2c 28 2f 0f 2c 28 2f
       1.5295164e-10 0.0 1.5295164e-10 1.5295164e-10
0003a0 00 00 00 00 0f 2c 28 2f 0f 2c 28 2f 00 00 00 00
       0.0 1.5295164e-10 1.5295164e-10 0.0
0003b0 0f 2c 28 2f 0f 2c 28 2f 00 00 00 00 0f 2c 28 2f
       1.5295164e-10 1.5295164e-10 0.0 1.5295164e-10
0003c0 0f 2c 28 2f 00 00 00 00 0f 2c 28 2f 0f 2c 28 2f
       1.5295164e-10 0.0 1.5295164e-10 1.5295164e-10
0003d0 00 00 00 00 0f 2c 28 2f 0f 2c 28 2f 00 00 00 00
       0.0 1.5295164e-10 1.5295164e-10 0.0
0003e0 0f 2c 28 2f 0f 2c 28 2f 00 00 00 00 0f 2c 28 2f
       1.5295164e-10 1.5295164e-10 0.0 1.5295164e-10
0003f0 0f 2c 28 2f 8e b3 fe 2e 23 0d 7d 2e 94 66 8b 2e
       1.5295164e-10 1.1582478e-10 5.7537208e-11 6.33921e-11
