results/ppo/MlAgent/MlAgent-15872.pt (torch, 809567 bytes, 36 tensors)

network_body._body_endoder.seq_layers.0.weight f4 [128, 126]
0	0x3e50234c	0.20325965
1	0xbdb9e406	-0.09076695
2	0xbeaf62b0	-0.3425498
3	0x3e0bdabe	0.13657662
4	0xbcbd6882	-0.023121122
5	0x3ba55194	0.0050451253
6	0x3e8a0fc8	0.26965165
7	0xbdd18851	-0.102310784
8	0x3d634db2	0.055494018
9	0xbd21edd9	-0.03953347
10	0x3e541d73	0.20714359
11	0x3d8c8d6f	0.06862914
12	0xbe1e92c6	-0.15485677
13	0x3b6f36ed	0.0036501244
14	0xbd99e5e1	-0.07514549
15	0x3d46527d	0.04841851
16	0x3d830488	0.06397349
17	0xbae0d902	-0.0017154517
18	0x3dedd6b2	0.116132155
19	0xbe0b577f	-0.13607596
20	0x3d49332e	0.049121074
21	0x3d0e16d1	0.03468973
22	0x3de0c5e7	0.10975247
23	0x3dcbc026	0.09948759
24	0x3d384728	0.044989735
25	0x3d3919fc	0.045190796
26	0x3d2b735a	0.041858055
27	0xbd1c661b	-0.038183313
28	0x3d423828	0.047416836
29	0xbd00a0c7	-0.03140333
30	0xbdf02345	-0.11725477
31	0xbcd86728	-0.026416376
32	0xbe000ddb	-0.12505285
33	0xbd949bdc	-0.0725629
34	0xbe097a0b	-0.13425462
35	0xbd026761	-0.03183687
36	0x3dfd1ef9	0.12359423
37	0x3db9fa76	0.09080975
38	0xbe0f7e97	-0.14013134
39	0xbd024e13	-0.03181274
40	0x3c84f7a5	0.016231367
41	0xbdbb88dc	-0.09156963
42	0xbd5bbba8	-0.05364576
43	0xbd07ecff	-0.033185
44	0xbd867591	-0.06565393
45	0x3b527109	0.0032110831
46	0xbe2bfe0f	-0.16796134
47	0xbd301160	-0.04298532
48	0x3c5eecd7	0.013606272
49	0x3ccc9c3c	0.024976842
50	0x3cbd7c1d	0.02313047
51	0xbd4a3cbc	-0.049374327
52	0xbbaa38f0	-0.0051947758
53	0xbcf7c387	-0.030244602
54	0x3c8667dd	0.016406948
55	0x3d622743	0.055213224
56	0x3dd05a75	0.10173503
57	0xbd6ae2e8	-0.0573453
58	0x3db4fc3e	0.08837174
59	0x3c9278cf	0.017879872
60	0x3cf6b48d	0.03011539
61	0xbd5ca8e6	-0.05387201
62	0x3da6d5c9	0.08146245
63	0xbdaba894	-0.08381763
64	0xbdc545e7	-0.096324734
65	0x3e1191bf	0.14215754
66	0xbe2d2dbf	-0.16911982
67	0x3d4a680c	0.049415633
68	0xbc334851	-0.010942535
69	0x3ba089a4	0.0048992205
70	0xbe8da0e2	-0.27661806
71	0xbd7888c2	-0.060677297
72	0xbc81c81d	-0.015842492
73	0xbd442d51	-0.04789478
74	0x3e85a3e2	0.26101595
75	0x3d408fdc	0.047012195
76	0x3d5a0d7d	0.05323552
77	0x3d6cac81	0.0577817
78	0xbcd87021	-0.026420655
79	0x3c609f3d	0.01370984
80	0xbc973d62	-0.018461887
81	0x3daffc6d	0.08593068
82	0x3d334e72	0.043775983
83	0xbd0f0481	-0.034916405
84	0xbd9c61bf	-0.07635831
85	0xbdee1f6d	-0.11627088
86	0x3c2630fc	0.010143515
87	0xbe0c4402	-0.13697818
88	0x3c81eae9	0.015859084
89	0x3de72b33	0.112875365
90	0xbb3927c0	-0.0028252453
91	0xbe0e17cd	-0.13876267
92	0xbb19fff3	-0.0023498505
93	0xbc370a01	-0.011171819
94	0xbd3d520d	-0.046220828
95	0xbda6519e	-0.08121036
96	0xbd11e1d4	-0.035615757
97	0xbd840d2d	-0.064478256
98	0xbde95045	-0.11392263
99	0x3de8ad30	0.11361158
100	0x3c22ab02	0.009928467
101	0x3cfa24f4	0.030535199
102	0xbdc03122	-0.09384371
103	0x3d298af9	0.0413923
104	0xbd2fed42	-0.042950876
105	0x3e40a655	0.1881345
106	0x3d4d4564	0.050115004
107	0xbe027fe0	-0.12744093
108	0xbdb20142	-0.08691646
109	0xbdba161a	-0.09086247
110	0xbc8e4dc3	-0.017371064
111	0xbda31c84	-0.07964423
112	0xbc792311	-0.015206114
113	0xbcafd743	-0.02146495
114	0x3c8b9019	0.017036485
115	0x3d82c389	0.063849516
116	0xbd2cedb1	-0.042218868
117	0x3dee58ea	0.11638053
118	0x3d78feba	0.0607898
119	0x3db74c3a	0.08950086
120	0x3e23c872	0.15994433
121	0xbe3cc350	-0.18433881
122	0xbdee7fa6	-0.11645441
123	0xbe50b0cc	-0.20379943
124	0xbe456ee4	-0.19280583
125	0x3da26087	0.079285674
126	0x3da742e5	0.08167056
127	0xbd35a0f2	-0.044342943
128	0x3c92cd0b	0.017920038
129	0xbd9c2f52	-0.07626213
130	0x3d99fa08	0.07518393
131	0x3e651e4e	0.22374842
132	0x3d70e481	0.05881167
133	0x3d944aeb	0.07240852
134	0xbe1e24e9	-0.15443768
135	0xbced519f	-0.028969584
136	0x3d13485f	0.03595769
137	0x3c4d816c	0.012543064
138	0xbdcae82f	-0.09907567
139	0x3c90e024	0.017685004
140	0x3e03a90f	0.1285746
141	0xbd18e0b7	-0.03732368
142	0xbe09c98f	-0.13455795
143	0x3ca9930d	0.020700002
144	0x3d009885	0.031395454
145	0x3e5326e1	0.206203
146	0x3cf3eafb	0.029775133
147	0xbdaa696f	-0.08320891
148	0xbe35e81c	-0.17764324
149	0xbce52ee8	-0.027976468
150	0xbd840c80	-0.06447697
151	0x3bc87371	0.0061172773
152	0x3d74d49b	0.05977307
153	0xbda92a0c	-0.08259973
154	0xbe158652	-0.1460202
155	0xbc84912e	-0.016182508
156	0xbe181751	-0.14852645
157	0x3d1231dc	0.03569208
158	0xbd148403	-0.03625871
159	0xbd18a35a	-0.03726516
160	0x3ce547f2	0.027988408
161	0x3ca53da9	0.020171003
162	0xbd595f04	-0.05306913
163	0x3d07e079	0.03317306
164	0x3c1e21ee	0.009651644
165	0xbd53bc7e	-0.051693432
166	0x3e3d670b	0.18496339
167	0xbe3025e8	-0.1720196
168	0x3c6aa158	0.014320694
169	0xbd4038cb	-0.046929162
170	0x3e240ac4	0.16019732
171	0xbdf31d9a	-0.118708804
172	0xbce51130	-0.027962297
173	0xbdc540b3	-0.09631481
174	0x3d85ade0	0.06527305
175	0xbb49bf39	-0.0030784144
176	0x3ce438b7	0.027859075
177	0xbdabff61	-0.08398319
178	0x3e00ab26	0.12565288
179	0x3dd2c1ef	0.10290896
180	0xbc4f5de7	-0.012656665
181	0x3c9d55e2	0.019205991
182	0x3ddf6b27	0.109091096
183	0x3a1c25c4	0.0005956555
184	0xbce06269	-0.027390676
185	0xbdc8b00b	-0.097992025
186	0xbc435cad	-0.011923951
187	0xbc930cef	-0.017950503
188	0x3df2c43f	0.11853837
189	0x3a398c5f	0.0007078107
190	0x3dfd6c6e	0.12374197
191	0x3d966c31	0.073448546
192	0x3d3d6de6	0.046247385
193	0xbcf3bdf5	-0.029753665
194	0x3e01fc8b	0.12693994
195	0x3c745c5b	0.014914597
196	0xbd3a9e33	-0.045561027
197	0x3cbebea6	0.023284268
198	0xbd83a0e9	-0.064271756
199	0xbd214c5a	-0.039379455
200	0x3ddcaa26	0.10774641
201	0x3e29db97	0.16587673
202	0xbcb05348	-0.021524087
203	0x3d3e21a2	0.046418793
204	0xbd950d1a	-0.072778895
205	0x3d900b8c	0.070334524
206	0x3d8ac3e9	0.06775648
207	0x3dd0003c	0.10156295
208	0xbdc1886b	-0.09449848
209	0xbcf5ca21	-0.03000361
210	0xbdea3942	-0.11436702
211	0x3c927937	0.017880065
212	0xbe30eedd	-0.17278619
213	0x3d07fa42	0.03319765
214	0x3d29a4d3	0.041416954
215	0x3d93b0ed	0.0721148
216	0x3cf40084	0.029785402
217	0xbd85bc62	-0.06530072
218	0x3b07da26	0.0020729392
219	0xbdc5f8fb	-0.0966663
220	0x3ce9e249	0.028550284
221	0x3d971b07	0.07378202
222	0x3d98647a	0.074410394
223	0x3d4811f9	0.048845265
224	0x3de78731	0.113050826
225	0xbd3e4f11	-0.046462122
226	0x3d7282bb	0.059206706
227	0x3dea0004	0.11425784
228	0x3dcddc9b	0.10051843
229	0xbd602303	-0.05472089
230	0x3e1260e7	0.14294778
231	0xbc28f4e7	-0.0103122955
232	0xbd447074	-0.047958806
233	0xbde6a81c	-0.11262533
234	0xbe630dcb	-0.2217323
235	0xbdd3a517	-0.10334223
236	0xbda161a5	-0.07879952
237	0xbc886df8	-0.016654
238	0x3da711c6	0.08157687
239	0xbd1f2f25	-0.03886332
240	0x3dad770d	0.08469973
241	0x3c57c9d9	0.013170683
242	0x3e25ff03	0.1621056
243	0x3c19e0ce	0.0093919765
244	0x3da626b2	0.08112849
245	0xbc9e3539	-0.019312488
246	0x3e349499	0.1763481
247	0xbdab6bca	-0.083701685
248	0xba441a8e	-0.00074807636
249	0x3cac37a6	0.021022629
250	0x3cabf078	0.020988688
251	0xbb9813ae	-0.004641018
252	0xbcaa39a9	-0.020779448
253	0x3e837750	0.25676966
254	0x3b64b444	0.0034897486
255	0x3d199a86	0.03750088

network_body._body_endoder.seq_layers.0.bias f4 [128]
0	0xb9efc66b	-0.00045733465
1	0xb9bb896e	-0.00035769813
2	0xba0e55ca	-0.00054296537
3	0x39f0fbb1	0.00045963892
4	0xbad0082a	-0.0015871574
5	0x3a75721a	0.0009363011
6	0xb70bd2b0	-8.3341e-06
7	0xb9e70f44	-0.00044071127
8	0xb94ebb78	-0.00019715528
9	0xb99c7f23	-0.00029849363
10	0xb9f182fa	-0.00046064687
11	0x38868a3f	6.415368e-05
12	0xb93ff2ac	-0.00018305582
13	0xb8970310	-7.2008115e-05
14	0xb7159140	-8.914911e-06
15	0xb72c5656	-1.0272101e-05
16	0x390730db	0.00012892803
17	0xba157602	-0.00057014835
18	0x39ab6e4e	0.00032697845
19	0xb8ceaf1a	-9.855461e-05
20	0xb92d3793	-0.00016519269
21	0x3aa2ca35	0.0012419882
22	0x3a0dab6d	0.00054042676
23	0xb9d6f0db	-0.00040996712
24	0xb9e055b7	-0.00042788472
25	0xbaf1e3d7	-0.0018454742
26	0xba2df4ed	-0.0006635923
27	0x39bfcf09	0.00036584612
28	0x399dc57c	0.0003009251
29	0x387d2f70	6.036408e-05
30	0xb9b99cb5	-0.00035402706
31	0xb8e765c4	-0.00011033894
32	0x36ecf590	7.0619353e-06
33	0xb8b43f89	-8.594903e-05
34	0xb80064fa	-3.061162e-05
35	0xba24b854	-0.00062835705
36	0xba3d410e	-0.0007219472
37	0xb99def33	-0.0003012359
38	0xbaa85dcd	-0.0012845338
39	0xb9ada670	-0.00033121137
40	0xba0c4f13	-0.0005352359
41	0x39aabf2f	0.0003256737
42	0x3a6f784c	0.0009135052
43	0xba3d58ad	-0.00072229916
44	0xb99dd9c1	-0.00030107613
45	0xba78ddc6	-0.0009493496
46	0x39909f80	0.00027584657
47	0x3a09cfd4	0.0005257104
48	0xb92d9131	-0.00016552654
49	0xb9464ff0	-0.0001891253
50	0xbaae4124	-0.001329456
51	0x390d4123	0.00013471073
52	0xb8215fba	-3.8474544e-05
53	0xba657288	-0.0008752723
54	0xb85fe601	-5.338155e-05
55	0xb93d93bb	-0.00018079478
56	0x3a6e61b3	0.0009093538
57	0xba3aa16a	-0.00071193895
58	0xba5c25ff	-0.0008397996
59	0x3985a8a3	0.0002549338
60	0xb9d05b6e	-0.00039740972
61	0x3a1e4785	0.0006037879
62	0x382f377e	4.1774932e-05
63	0xb92878ad	-0.00016066684
64	0x398f222e	0.0002730055
65	0xbb036c94	-0.0020053731
66	0xb9b38aeb	-0.00034245042
67	0x3b5999f0	0.0033203326
68	0x398d6b83	0.00026973718
69	0xb9a491e2	-0.0003138921
70	0xb92072b5	-0.00015301521
71	0xb9fcc04c	-0.00048208458
72	0xb9f864a8	-0.0004737724
73	0xb9e61472	-0.00043884251
74	0x3a74544c	0.00093204225
75	0xbab32327	-0.0013667092
76	0xb97b27dd	-0.00023952076
77	0xb6fe82ef	-7.5850326e-06
78	0x3983b82f	0.00025123495
79	0xb921e2e4	-0.0001543868
80	0xba1db216	-0.00060156116
81	0x3a41f4b7	0.0007398831
82	0x37fab6c9	2.9887438e-05
83	0x391e79a9	0.00015113376
84	0x38d62016	0.00010210292
85	0xb8610873	-5.365205e-05
86	0xba45d70e	-0.0007546999
87	0x38b2842d	8.512321e-05
88	0xbb1481ba	-0.002266033
89	0xb91467a1	-0.00014152985
90	0xba35fe0a	-0.0006942457
91	0xb8ca3053	-9.641112e-05
92	0xb898e365	-7.29028e-05
93	0xba893438	-0.0010467833
94	0xb95d7261	-0.00021118812
95	0x39658466	0.00021888464
96	0xba26e9eb	-0.0006367254
97	0xba46bed4	-0.0007581536
98	0x374fddc3	1.2389794e-05
99	0xb9db9326	-0.0004188057
100	0xb9d9f573	-0.0004157234
101	0xb8123b7a	-3.4864504e-05
102	0xb9d674ea	-0.00040904369
103	0x3986b50a	0.00025693356
104	0xb8bbed50	-8.961058e-05
105	0x386ce7df	5.648273e-05
106	0xb9e9bc22	-0.00044581393
107	0xb9db6b5d	-0.00041850927
108	0xb9c51c41	-0.0003759582
109	0x3b2d35de	0.0026429812
110	0x398ff07a	0.00027454254
111	0x383a2740	4.438241e-05
112	0x38f5d540	0.00011722231
113	0x3929409b	0.00016141163
114	0xba96c8fb	-0.0011503989
115	0x39a74de7	0.00031910764
116	0xb8b9170a	-8.825779e-05
117	0x3a01abb9	0.0004946548
118	0xb995cebb	-0.0002857352
119	0x3a04f0b5	0.00050712685
120	0x3879dbeb	5.957104e-05
121	0x393432fd	0.00017185132
122	0xb89b8780	-7.416215e-05
123	0x3a39d375	0.00070886995
124	0xb9bacf00	-0.00035630912
125	0xb8a4bd0f	-7.855344e-05
126	0xb9709d6b	-0.00022946826
127	0xb8c23b61	-9.261701e-05

network_body._body_endoder.seq_layers.2.weight f4 [128, 128]
0	0xbe1c24b7	-0.1524838
1	0x3d85c6bb	0.065320455
2	0xbe54ea90	-0.20792603
3	0x3e0c2fc0	0.1369009
4	0xbdaaaccb	-0.08333739
5	0x3de99e5b	0.11407157
6	0x3d2b381a	0.04180155
7	0xbd6b834e	-0.05749827
8	0x3d850438	0.06494945
9	0xbca853e1	-0.02054781
10	0x3bb40ea3	0.005494909
11	0x3c735f64	0.014854286
12	0x3d9f62b2	0.077824965
13	0xbddf4445	-0.10901693
14	0x3dbabe46	0.09118323
15	0x3d958cb4	0.073022276
16	0x3ba8ff89	0.0051574153
17	0xbd4b7c30	-0.04967898
18	0xbe2efc12	-0.17088345
19	0xbdbf2047	-0.09332328
20	0x3dc18616	0.09449403
21	0x3dc11a78	0.09428877
22	0xbd7c00cb	-0.061524194
23	0xbcfe1cbd	-0.031019563
24	0xbbacc929	-0.0052730036
25	0xbcc3eb03	-0.023915773
26	0x3c7deba2	0.015498074
27	0xbd02f9ca	-0.0319765
28	0x3baf3375	0.0053467103
29	0xbd29dbb0	-0.041469276
30	0x3d7c20d9	0.061554763
31	0xbde06ac6	-0.109578654
32	0x3da79e3f	0.0818448
33	0xbbe58bb9	-0.0070051816
34	0x3d5e13f9	0.054218266
35	0xbd5f2076	-0.054474317
36	0xbd27624d	-0.04086523
37	0x3d9d7681	0.076886185
38	0x3d94fb71	0.07274521
39	0xbe1536be	-0.14571664
40	0x3e012459	0.12611522
41	0xbdcd1303	-0.10013392
42	0xbdde4687	-0.10853296
43	0x3d9f4057	0.07775944
44	0x3dd2df6d	0.10296521
45	0x3b9a7301	0.0047134166
46	0x3c148a66	0.0090662
47	0xbca9f3c5	-0.020746121
48	0x3d15f9da	0.03661523
49	0xbbc89fca	-0.006122564
50	0x3dc778a5	0.09739808
51	0xbc3dccd8	-0.011584483
52	0x3d58b6b4	0.052908614
53	0xbde16504	-0.11005595
54	0xbd701939	-0.058617804
55	0x3dc3c593	0.09559169
56	0xbdb9b145	-0.090670146
57	0xbdfeafdb	-0.124358855
58	0x3dca78ba	0.09886308
59	0x3dceafc6	0.1009212
60	0x3d9f0cfe	0.0776615
61	0x3dc4d4b6	0.09610884
62	0x3e060a7f	0.13089941
63	0xbc1bb21f	-0.009502917
64	0xbcb34ce9	-0.02188726
65	0xbe4b3fe8	-0.19848597
66	0xbe309ee2	-0.17248109
67	0x3d1df48f	0.038563307
68	0x3bb1cdfe	0.0054261675
69	0xbdf6ee46	-0.12057166
70	0xbdb695a4	-0.089152604
71	0xbdccbad9	-0.09996576
72	0x3d4b2024	0.0495912
73	0xbd0caaf4	-0.03434272
74	0xbccb5038	-0.024818525
75	0x3d89c4df	0.06727003
76	0xbdcfeabf	-0.10152196
77	0x3dc771d5	0.097385086
78	0xbd65c7fa	-0.056098916
79	0xbd69b142	-0.05705381
80	0x3c93040e	0.01794627
81	0xbc4d1330	-0.012516782
82	0x3d9b746c	0.07590565
83	0xbd963a8e	-0.07335387
84	0x3d797dc3	0.06091095
85	0xbe423682	-0.18966106
86	0xbdcb1a09	-0.09917075
87	0xbd0daa89	-0.034586463
88	0x3de90686	0.11378197
89	0xbdf4928f	-0.11942016
90	0x3d636bd3	0.05552275
91	0x3e11d47d	0.14241214
92	0xbd301801	-0.042991642
93	0xbde218c5	-0.11039881
94	0x3d777f92	0.060424395
95	0xbd87998c	-0.066210836
96	0xbdc436c2	-0.09580757
97	0xbd8d75d7	-0.06907242
98	0x3dfde3fe	0.12397002
99	0xbdc568c3	-0.09639122
100	0xbe025ab4	-0.12729913
101	0x3b1d6bc1	0.0024020525
102	0xbc995949	-0.018719332
103	0xbde6fda3	-0.11278846
104	0x3d1624b9	0.036656115
105	0xbda6b5ff	-0.08140182
106	0x3da9e82c	0.082962364
107	0xbe313f6f	-0.17309354
108	0xbdb17eb4	-0.08666745
109	0xbd54bb35	-0.051936347
110	0x3ccb5d35	0.024824718
111	0x3dfe4665	0.124157704
112	0x3d7bc1bc	0.061464056
113	0x3b857732	0.004073047
114	0x3d8a3f69	0.06750376
115	0xbdd522d5	-0.10407034
116	0xbe175bce	-0.14781114
117	0xbdd923d6	-0.10602538
118	0x3cc42e86	0.023947965
119	0x3bbb6621	0.005718962
120	0x3d058e3c	0.03260635
121	0xbce7631b	-0.0282455
122	0xbd064eb1	-0.03278989
123	0x3da2b38e	0.079444036
124	0x3e0bf787	0.13668643
125	0x3cfd470d	0.030917669
126	0x3d2672f4	0.04063697
127	0x3d9d3331	0.076757796
128	0xbd401ddb	-0.046903472
129	0x3d76962f	0.06020182
130	0xbdd2eca2	-0.102990404
131	0x3cbead13	0.023275888
132	0x3c5d93b1	0.013523982
133	0x3c82403a	0.015899766
134	0xbc9d8cad	-0.019232119
135	0x3d756740	0.05991292
136	0xbd25649d	-0.040379155
137	0xbd18222f	-0.037141975
138	0xbcaa6723	-0.020801133
139	0xbd861240	-0.0654645
140	0xbd2598e9	-0.04042903
141	0xbd8fb6fe	-0.07017325
142	0x3d200afb	0.03907297
143	0xbe2e7368	-0.17036211
144	0x3e3262f5	0.17420562
145	0x3d62a431	0.055332366
146	0xbd775876	-0.060387097
147	0x3d6aa25f	0.057283755
148	0xbd1b2041	-0.037872557
149	0x3bddeac5	0.0067723715
150	0x3d5d1a90	0.05398041
151	0xbc30b00f	-0.010784163
152	0x3d81172e	0.06303249
153	0xbd886ca8	-0.066613495
154	0xbe322727	-0.17397748
155	0xbe5872c6	-0.21137533
156	0xbdcdb5cb	-0.1004444
157	0x3d92d3f0	0.0716933
158	0xbdccc111	-0.09997762
159	0x3d04185d	0.032249797
160	0x3d666e09	0.05625728
161	0x3e04e0a6	0.12976322
162	0xbd5f1597	-0.05446395
163	0x3cf8ca4f	0.030369906
164	0x3dcac5b4	0.0990099
165	0x3e02b52a	0.12764421
166	0xbd66a379	-0.056308243
167	0x3e0930cb	0.1339752
168	0xbc84c6d0	-0.016208082
169	0x3df2fe14	0.11864868
170	0x3e0ad616	0.1355823
171	0xbd11b7f4	-0.035575822
172	0xbc82f679	-0.015986668
173	0x3d83b33c	0.064306706
174	0x3cc5d374	0.02414868
175	0xbd623cb3	-0.05523367
176	0xbd46ecee	-0.048565798
177	0x3ce8d713	0.028422868
178	0x3df77e89	0.120846815
179	0xbdd53350	-0.10410178
180	0x3caf82dd	0.021424705
181	0xbd0a80ac	-0.033814117
182	0x3d504487	0.050846603
183	0xbcc45ca2	-0.023969952
184	0x39d02924	0.00039703504
185	0x3d00957f	0.03139257
186	0xbd68f124	-0.056870595
187	0xbd17dea0	-0.037077546
188	0xbd254b8c	-0.04035525
189	0xbdd6f685	-0.104962386
190	0x3d862106	0.065492675
191	0x3e26af1e	0.1627774
192	0xbc8bcc98	-0.017065331
193	0xbe0aa2fb	-0.13538735
194	0x3d979ba2	0.074027315
195	0x3d887807	0.066635184
196	0x3d23ff29	0.04003826
197	0xbd4b3e0e	-0.049619727
198	0x3d16c649	0.036810193
199	0x3db06875	0.086136736
200	0x3daa7f90	0.08325112
201	0xbdcdbf8a	-0.10046299
202	0xbe307bd7	-0.17234741
203	0x3ca18532	0.019716833
204	0xbd24ce15	-0.040235598
205	0x3c32dc30	0.010916755
206	0x3d8403ed	0.06446061
207	0xbaa2f47d	-0.0012432482
208	0x3d0fdeb8	0.03512451
209	0xbddaa7ac	-0.10676512
210	0x3d8b56f3	0.068036936
211	0xbd8ec2fc	-0.06970784
212	0x3da30b39	0.07961125
213	0xbd898662	-0.067150846
214	0x3e182065	0.14856108
215	0xbd39b11f	-0.04533493
216	0xbd24c10c	-0.040223166
217	0xbdc9a063	-0.098450445
218	0xbd54f33a	-0.05198977
219	0x3c9a7f05	0.018859396
220	0x3e0fea32	0.14054182
221	0xbc35b062	-0.011089416
222	0xbd7487ee	-0.059699945
223	0x3cb20174	0.021729209
224	0xbd14a474	-0.036289647
225	0x3b8635bc	0.004095761
226	0xbc254da9	-0.010089316
227	0x3d3f8d1f	0.046765443
228	0x3b5fb807	0.0034136788
229	0x3daf4405	0.085578956
230	0xb9ca523c	-0.00038589712
231	0x3c41d5ed	0.011830789
232	0xbd649f40	-0.055815935
233	0xbd4e750c	-0.050404593
234	0x3bb5ea75	0.005551631
235	0xbe032652	-0.12807587
236	0xbd6fa4fb	-0.058506947
237	0xba9d3dd0	-0.0011996571
238	0xbc53273c	-0.012887772
239	0xbd324fc8	-0.043533117
240	0x3cdff1a0	0.027336895
241	0x3dacd835	0.08439676
242	0x3d3198ca	0.0433586
243	0x3dbd044c	0.09229335
244	0x3e1ba2b7	0.1519879
245	0xbd9af7cd	-0.075667955
246	0xbd6298fa	-0.05532167
247	0xbc07e697	-0.008294723
248	0x3da8ecc9	0.08248288
249	0xbd793e89	-0.060850654
250	0x3d88ae8f	0.066739194
251	0xbe0e9140	-0.13922596
252	0x3e3dd634	0.18538743
253	0xbdbc6918	-0.091997325
254	0xbd6fe896	-0.05857142
255	0x3c89552c	0.016764246

network_body._body_endoder.seq_layers.2.bias f4 [128]
0	0x39ae793c	0.00033278193
1	0x39482f93	0.00019091209
2	0xb8cc2a79	-9.735389e-05
3	0xba50df3f	-0.00079678366
4	0xbacbdefa	-0.0015554123
5	0xb98326ad	-0.00025015083
6	0xb9b895e3	-0.0003520689
7	0xb9ee817c	-0.0004549137
8	0x39009f91	0.00012266474
9	0x3a5485be	0.00081070873
10	0xba123aa0	-0.0005578194
11	0x3952cd15	0.0002010356
12	0xbae3d8fe	-0.0017383394
13	0xba555971	-0.0008138633
14	0xba10fa50	-0.00055304635
15	0xb96228c7	-0.0002156823
16	0xb98a066e	-0.00026326202
17	0xb8eba816	-0.00011236982
18	0x3940837a	0.00018359526
19	0x37b0e488	2.1087253e-05
20	0xbaf9a0ea	-0.0019045149
21	0x399d5487	0.0003000835
22	0xb856376b	-5.1073188e-05
23	0xbb596d3e	-0.0033176686
24	0xb9f6c7ba	-0.00047069584
25	0x39999ada	0.00029297807
26	0x3922bc45	0.0001551966
27	0xb99b5590	-0.00029627653
28	0xbaab924e	-0.0013089867
29	0xb9c59ae4	-0.0003769017
30	0xb9a356f1	-0.0003115456
31	0xb848aaae	-4.7842674e-05
32	0x38759d50	5.855906e-05
33	0xb890d1fc	-6.905568e-05
34	0xb5a7b178	-1.249412e-06
35	0xb8eadab7	-0.00011198728
36	0xb970c348	-0.00022960932
37	0x398d6e1c	0.00026975654
38	0xbae885c4	-0.001774006
39	0xb98df289	-0.00027074318
40	0xba18da9e	-0.00058309163
41	0xba61bbe4	-0.0008611067
42	0x3912e102	0.00014007467
43	0x399511a0	0.00028432626
44	0xbb148c52	-0.0022666645
45	0xb922f3ba	-0.00015540319
46	0xb97f6c30	-0.00024358998
47	0xb9874380	-0.00025799498
48	0xb9e2a3ca	-0.00043228111
49	0xb96cdbc5	-0.00022588584
50	0xb99279d9	-0.00027938074
51	0xb94a9c28	-0.00019322394
52	0x350b6ead	5.194259e-07
53	0xbb0ff391	-0.0021965245
54	0xb78dfe29	-1.6926862e-05
55	0x39bf25e4	0.0003645859
56	0x38db269e	0.00010449927
57	0xba42e1db	-0.0007434168
58	0x3ab8903a	0.0014081069
59	0xb9ea62cf	-0.00044705576
60	0x396c3908	0.0002252796
61	0xb993497e	-0.0002809278
62	0x372788da	9.985839e-06
63	0xb5d8ba83	-1.6147536e-06
64	0x38400ea1	4.578999e-05
65	0x3b31b43d	0.0027115487
66	0xb997f72f	-0.0002898513
67	0xb9eb4797	-0.00044876031
68	0xb92d4887	-0.00016525584
69	0xb902eaa2	-0.00012485174
70	0xb9880cc4	-0.00025949453
71	0x39f7053b	0.00047115408
72	0xba26f729	-0.0006369227
73	0xb8afddb0	-8.385943e-05
74	0x3978be68	0.00023722055
75	0x3b1a3d75	0.0023535166
76	0xb993d139	-0.00028193908
77	0x3a1c5a5c	0.00059643923
78	0xb917d692	-0.00014480416
79	0x37cc9794	2.438928e-05
80	0xb9641a1e	-0.00021753504
81	0x39331251	0.00017077594
82	0xb774f2b2	-1.460004e-05
83	0xb96e040b	-0.00022698955
84	0xb94b1588	-0.0001936761
85	0xb9f7d232	-0.0004726812
86	0xb9c2277d	-0.00037031985
87	0x3ad469ec	0.0016205884
88	0x3a8bc62f	0.0010663922
89	0xb96d6a1b	-0.00022641609
90	0x37161528	8.9456225e-06
91	0xbaac1195	-0.0013127798
92	0x380387df	3.1359374e-05
93	0x3a0445f3	0.00050458236
94	0xb87b41a0	-5.990418e-05
95	0xb98e1b17	-0.00027104534
96	0x3a37f24a	0.0007017
97	0xb8d40991	-0.000101107296
98	0x39f3b8c9	0.00046486247
99	0x39115669	0.00013860468
100	0xb97c362c	-0.00024052773
101	0x36c7b7d9	5.952065e-06
102	0xb9ae0cd4	-0.00033197424
103	0xba4aaabb	-0.00077311293
104	0x39f148c1	0.00046021308
105	0xb9a68187	-0.00031758493
106	0x3a750b89	0.0009347727
107	0xb9e860b3	-0.00044322535
108	0xb969de69	-0.00022303466
109	0x38d63c01	0.00010215492
110	0x385c4068	5.251207e-05
111	0x3b14b594	0.0022691237
112	0xb862e177	-5.409258e-05
113	0x3893ae15	7.0419315e-05
114	0x39b36601	0.0003421754
115	0xba28cce7	-0.0006439224
116	0x391a7f39	0.00014733979
117	0xb7c9e4e7	-2.4067658e-05
118	0xba8a23e0	-0.0010539256
119	0x37576b8e	1.2840041e-05
120	0xb996f4e2	-0.0002879268
121	0xb945b368	-0.00018854218
122	0x399ac818	0.0002952225
123	0xb90d406b	-0.00013470805
124	0xba1126de	-0.00055371027
125	0xb9761fcc	-0.00023472233
126	0xb9ab5a55	-0.00032682964
127	0x3947913a	0.0001903222

action_model._continuous_distribution.log_sigma f4 [1, 3]
0	0xbb09f9b3	-0.0021053373
1	0xbb301d1d	-0.0026872822
2	0x3a909d36	0.0011033181

action_model._continuous_distribution.mu.weight f4 [3, 128]
0	0xbbd7dc57	-0.006587546
1	0x3b176ea6	0.0023106723
2	0x3bda20dd	0.0066567496
3	0xbc12eeae	-0.0089680385
4	0x3c28d85c	0.01030549
5	0xbca9468e	-0.020663526
6	0xbbe557e7	-0.006999004
7	0xbc39ca73	-0.011339772
8	0xb9ee313b	-0.00045431577
9	0xbc8b7c8b	-0.01702716
10	0x3c6683b3	0.0140694855
11	0xbc4fd62a	-0.012685338
12	0x3bc8c176	0.006126578
13	0xbc5288b1	-0.012849973
14	0x3b2d2ef1	0.0026425684
15	0x3c744ff6	0.014911642
16	0x3c314970	0.0108207315
17	0xbc2beec7	-0.010493941
18	0xbc1b2226	-0.009468591
19	0xbc20f803	-0.009824756
20	0x3d12f5c2	0.035878904
21	0xbc20b260	-0.009808153
22	0x3c80411d	0.015656048
23	0xbc656813	-0.014001864
24	0x3c574796	0.013139626
25	0x3c1a1235	0.009403755
26	0xbcea67a5	-0.028613875
27	0x3b93dd07	0.0045124325
28	0x3d009372	0.031390615
29	0xbc74a18e	-0.014931096
30	0xbb878c63	-0.0041366084
31	0x3c7fbf68	0.0156096
32	0x3c875174	0.016518332
33	0x3d271220	0.04078877
34	0x3cae28fd	0.02125978
35	0xbd072dcc	-0.03300266
36	0x3ccc7e60	0.024962604
37	0xbc80c929	-0.01572092
38	0x3c748986	0.014925366
39	0xbc70c2c3	-0.014694872
40	0xbc980669	-0.018557744
41	0xbcbe1f7f	-0.023208378
42	0xbbec8b7e	-0.007218777
43	0xbc839a1e	-0.0160647
44	0x3c212745	0.009836023
45	0xbc127215	-0.008938332
46	0xbc29db50	-0.01036723
47	0xbc9b2bc8	-0.018941775
48	0xbafa7996	-0.0019109722
49	0x3bb55dd9	0.005534869
50	0x3bdfa8c6	0.0068255393
51	0xbbb2bef1	-0.005454891
52	0xbcd85609	-0.026408212
53	0x3bf80726	0.0075692115
54	0xbd1ae391	-0.03781468
55	0xbd46c506	-0.04852774
56	0x3c77c911	0.015123622
57	0xbb8e260e	-0.0043380326
58	0xbc82b392	-0.015954766
59	0xbcf38272	-0.029725287
60	0x3c795b5d	0.015219537
61	0xbcb91c8e	-0.022596624
62	0x3c0598ae	0.008154077
63	0x3b97bab2	0.00463041
64	0x3c8d1cd3	0.017225659
65	0x3b4f6bd4	0.0031649964
66	0xbc4856d5	-0.012227734
67	0x3c83fea5	0.016112635
68	0xbcea18f3	-0.02857635
69	0x3c0c341d	0.008557347
70	0x3b94d43a	0.004541901
71	0x3bf19763	0.007372783
72	0x3b00cbe4	0.0019652778
73	0xbcb17d7f	-0.021666287
74	0x3c765e7b	0.015037174
75	0xb89a1ede	-7.349042e-05
76	0x3bdee82e	0.0068025803
77	0xbcd16aa1	-0.02556354
78	0xbbc239e5	-0.0059273117
79	0x3c20b548	0.009808846
80	0xbcd15511	-0.025553258
81	0xbcbb9f24	-0.022903033
82	0x3b765ea1	0.0037593024
83	0x3b69a5fe	0.0035651918
84	0x3cbb7636	0.022883516
85	0x3aad9e9a	0.001324612
86	0xbbde8df6	-0.0067918254
87	0xbcab8828	-0.020938948
88	0xbb8beb2f	-0.0042699794
89	0x3c8f9bdb	0.017530372
90	0x3c7a46b4	0.015275646
91	0xbc2b4d27	-0.010455406
92	0xbc041401	-0.00806141
93	0xbc90bcc4	-0.017668135
94	0xbd6ce620	-0.05783665
95	0xbc47f389	-0.012204059
96	0xbc442e65	-0.011973952
97	0xbbb98d68	-0.005662609
98	0x3aabbd5b	0.0013102697
99	0x3b9cb9c9	0.0047828895
100	0xbbf968ca	-0.007611369
101	0xbceb3ed2	-0.028716478
102	0xbbef4ee4	-0.0073031057
103	0xbc6996b6	-0.014257124
104	0x3cb3bbc0	0.021940112
105	0x3caa4b43	0.02078784
106	0x3a35e343	0.00069384667
107	0x3c1631bc	0.009167131
108	0x3cb9d216	0.022683185
109	0x3bbf8bdb	0.0058455295
110	0xbc1ae745	-0.009454553
111	0xbbff8363	-0.007797645
112	0xbc9f5f35	-0.019454578
113	0x3cb0932b	0.02155455
114	0xbc785026	-0.015155828
115	0xbca817eb	-0.020519217
116	0xbcd89c0b	-0.026441595
117	0x3cb1afbb	0.02169024
118	0x3c8cee0e	0.017203357
119	0xbc05ce95	-0.008166929
120	0xbc25bb4e	-0.010115458
121	0x3d2a154d	0.04152422
122	0xbccef8e0	-0.025265157
123	0x3bfad8cf	0.00765524
124	0xbc2a985f	-0.010412305
125	0xbbd8d6a0	-0.006617382
126	0x3c1303ea	0.008973101
127	0xbc90084c	-0.017582081
128	0x3cab6fa9	0.020927267
129	0x3ca6c8f8	0.020359501
130	0x3d07d756	0.033164345
131	0xbc6d5c93	-0.014487403
132	0x3bcbb9e1	0.006217227
133	0x3cb67bf2	0.022275899
134	0xbc23ad70	-0.009990081
135	0x3c74be65	0.014937972
136	0x3b6e7312	0.0036384505
137	0x3c8de9ef	0.017323462
138	0x3bda5bdb	0.006663782
139	0xbca79caa	-0.020460445
140	0x3c8ca158	0.017166778
141	0xbcc248d7	-0.023716373
142	0xbc8ddf37	-0.017318351
143	0xbd00cd7c	-0.031445965
144	0x3bc32f60	0.0059565753
145	0xbd0f0378	-0.034915417
146	0xbc3b876e	-0.011445863
147	0x3a936bf6	0.0011247385
148	0xbca11adf	-0.019666133
149	0xbc5a664d	-0.0133300545
150	0x3b58cd3e	0.0033081318
151	0x39fe88a3	0.00048548458
152	0xbc77f82c	-0.015134852
153	0x3c1a4776	0.009416452
154	0x3ca3ef06	0.020011436
155	0x3bb62011	0.005558022
156	0x3cd2a3c9	0.025712864
157	0xbc8b3e39	-0.016997444
158	0x3b338c8e	0.002739701
159	0x3cbbed07	0.022940172
160	0x3d5e27f6	0.05423733
161	0xbc8abb02	-0.016934875
162	0x3d0c80f8	0.03430268
163	0xbcba1b8a	-0.02271821
164	0x3b118cef	0.0022209247
165	0x3cb270cd	0.021782303
166	0x3c85ff3e	0.01635706
167	0x3b7d7daf	0.003867965
168	0x3cab2aa2	0.020894352
169	0x3c884020	0.01663214
170	0xbb3e91e1	-0.002907865
171	0xbc5ee333	-0.013603973
172	0x3acf012e	0.0015793198
173	0xbc27bc41	-0.010237754
174	0x3c664ccc	0.014056396
175	0xbcc949aa	-0.024571259
176	0xbb94e39f	-0.004543736
177	0x3cb397b7	0.02192293
178	0xbb11eede	-0.002226762
179	0xbb39a82c	-0.0028328998
180	0xbc875a5e	-0.016522583
181	0xbd0ce9de	-0.03440272
182	0xbbd209fe	-0.0064098826
183	0xbaec33f9	-0.001802086
184	0x3bd5b482	0.0065217623
185	0x3c04bb44	0.008101288
186	0x3cec6c8d	0.028860355
187	0x3b16d970	0.0023017786
188	0xbcd7d33b	-0.02634584
189	0xbcf3111a	-0.02967124
190	0xbbbe66cd	-0.0058105947
191	0xba44309c	-0.000748405
192	0xbd48a0d0	-0.048981488
193	0x3c89fc36	0.016843896
194	0x3c518698	0.012788437
195	0x3c74cb7b	0.014941092
196	0x3c41f5e2	0.011838408
197	0x3bf70115	0.007537971
198	0x3c307318	0.010769628
199	0x3b3ba59a	0.0028632642
200	0x3c568ec3	0.0130955605
201	0xbba39994	-0.004992673
202	0xbb84514f	-0.004038013
203	0x3c0c04aa	0.008546034
204	0x3cc403df	0.023927627
205	0xbbe58f3e	-0.007005601
206	0xbc86c81b	-0.01645284
207	0xbd1c6a33	-0.038187217
208	0x3c83b027	0.016075207
209	0xbc6f9381	-0.01462257
210	0x3ca56aa5	0.020192454
211	0xbbb74172	-0.0055925185
212	0x3984e739	0.00025349276
213	0xbc6cf5f1	-0.014462934
214	0x3bfa76b6	0.007643546
215	0x3b87b02c	0.0041408744
216	0x3ce1ca39	0.027562248
217	0xbca697ab	-0.020335993
218	0xbc991a42	-0.018689279
219	0x3ab95681	0.001414016
220	0x3c0730dd	0.008251396
221	0xbc07c69f	-0.008287101
222	0xbd4055eb	-0.046956938
223	0xba08a2f7	-0.0005212272
224	0x3cd6f21d	0.026238495
225	0x3cc99ae6	0.024609994
226	0x3ca15da3	0.01969797
227	0x3a2dc9d8	0.00066295033
228	0xbca9e911	-0.020741018
229	0xbcb35497	-0.021890922
230	0xbb687817	-0.003547197
231	0x3c074dde	0.008258311
232	0xbb9ce527	-0.0047880593
233	0x395e7052	0.00021213412
234	0x3ced3cb4	0.02895961
235	0xbb85c21b	-0.004081977
236	0xbc267a22	-0.010160955
237	0xbb7bfe2e	-0.0038451063
238	0xbbf53dc3	-0.007484169
239	0x3c5dd8db	0.013540472
240	0x3d0fdb77	0.035121407
241	0x3c2c388a	0.010511527
242	0xbbfa56ca	-0.0076397406
243	0x3c24fff3	0.010070789
244	0x38c1e241	9.2451e-05
245	0xbc983c1c	-0.01858335
246	0x3bf6a920	0.0075274855
247	0x3be1aecc	0.0068872925
248	0xbc89d524	-0.016825266
249	0x3d17b417	0.03703698
250	0xbb9a2538	-0.004704144
251	0x3c956b87	0.01823975
252	0xbbb56eae	-0.0055368757
253	0x3c515ab6	0.012777975
254	0xbb21062a	-0.0024570324
255	0xbd0b8543	-0.034062635

action_model._continuous_distribution.mu.bias f4 [3]
0	0x38ac7402	8.223207e-05
1	0xb80d64d6	-3.371093e-05
2	0xb965a3b7	-0.0002190013

exp_avg f4 [128, 126]
0	0x321c7949	9.107972e-09
1	0x335cd826	5.1419327e-08
2	0x3323e5d9	3.816044e-08
3	0xb2675bb2	-1.3466819e-08
4	0x338932fb	6.388833e-08
5	0x335e2839	5.1724985e-08
6	0x315e58f9	3.2355827e-09
7	0x33650d68	5.333041e-08
8	0x3331efac	4.1429004e-08
9	0xb1a226fc	-4.7192525e-09
10	0x3357ef14	5.027603e-08
11	0x3351ea72	4.887483e-08
12	0x323795e9	1.0686088e-08
13	0x33680ae4	5.4026614e-08
14	0x332d850f	4.0400717e-08
15	0xb1105cb4	-2.1007454e-09
16	0x3352ebea	4.9108998e-08
17	0x3348a88c	4.671942e-08
18	0x32de4993	2.587766e-08
19	0x33131fff	3.4255205e-08
20	0x3334f784	4.213463e-08
21	0xae8981e3	-6.253111e-11
22	0x33703397	5.5926275e-08
23	0x3330a6f2	4.113003e-08
24	0xb19ba7e9	-4.530183e-09
25	0x335f86c1	5.204379e-08
26	0x33313c55	4.1265896e-08
27	0x3294c25e	1.7317856e-08
28	0x331b370a	3.6138808e-08
29	0x330ef0b3	3.3280866e-08
30	0x3225be53	9.647539e-09
31	0x3322e922	3.7930597e-08
32	0x330b9298	3.2496786e-08
33	0x32c73d63	2.3194564e-08
34	0x3310327d	3.357353e-08
35	0x33081500	3.1684067e-08
36	0x32822e27	1.515498e-08
37	0x32fa03dc	2.9105585e-08
38	0x32f14a48	2.8089872e-08
39	0x32c0ad88	2.2430655e-08
40	0x328919de	1.5960662e-08
41	0x330fd313	3.3486753e-08
42	0x31f316bf	7.0748167e-09
43	0x330a655b	3.222281e-08
44	0x32edc2e2	2.7679054e-08
45	0x32c6988d	2.3119606e-08
46	0x33104002	3.3585827e-08
47	0x32fc8d94	2.9401043e-08
48	0x31a2b138	4.734968e-09
49	0x32dd001f	2.5727841e-08
50	0x32ffdb5e	2.9785664e-08
51	0x3275d8e4	1.4310192e-08
52	0x33478866	4.645735e-08
53	0x32e19077	2.6259142e-08
54	0xb0704897	-8.741465e-10
55	0x33522445	4.8927422e-08
56	0x33006d37	2.9901653e-08
57	0x32078f9a	7.890685e-09
58	0x32fc5111	2.9373526e-08
59	0x32f83e64	2.8899372e-08
60	0xb28ec2fd	-1.6619646e-08
61	0x33162043	3.495394e-08
62	0x331410a7	3.447408e-08
63	0xb22568a5	-9.6280575e-09
64	0x334fbe90	4.836926e-08
65	0x333baa89	4.369443e-08
66	0xb2363ab8	-1.0607145e-08
67	0x3306b65b	3.1365158e-08
68	0x32f9cdae	2.9080947e-08
69	0xb28fd0a0	-1.6742263e-08
70	0x337bbac0	5.861034e-08
71	0x33723fe0	5.640311e-08
72	0x301f092e	5.785691e-10
73	0x330fe9bb	3.350736e-08
74	0x3300d550	2.999633e-08
75	0x30932311	1.0705624e-09
76	0x33a4c833	7.673261e-08
77	0x336c13d5	5.496607e-08
78	0x31afd308	5.117162e-09
79	0x32255724	9.6240775e-09
80	0x32c5373b	2.2958934e-08
81	0xb0260494	-6.0396954e-10
82	0x335f4514	5.198406e-08
83	0x3371aca2	5.6269194e-08
84	0x3263f9e1	1.3269955e-08
85	0xb189ffaf	-4.0162926e-09
86	0x32b84bb4	2.1454845e-08
87	0xb28ab06d	-1.6145544e-08
88	0x3358c497	5.0470216e-08
89	0x33836349	6.118223e-08
90	0x323de1f6	1.10526255e-08
91	0xb15abb88	-3.1829774e-09
92	0x32b87ff9	2.1478614e-08
93	0xb23a16d2	-1.0831814e-08
94	0x3328f49b	3.9338016e-08
95	0x33717acf	5.622388e-08
96	0x31a6da6d	4.856068e-09
97	0xb149fd98	-2.93935e-09
98	0x32bbadc4	2.1848685e-08
99	0x31e04614	6.527225e-09
100	0x32a64348	1.935554e-08
101	0x333eca92	4.442206e-08
102	0xb02a8706	-6.203752e-10
103	0xb1cccfb3	-5.960794e-09
104	0x32e098ab	2.6146457e-08
105	0x31e255af	6.587207e-09
106	0x3261c5e8	1.3141722e-08
107	0x333bd1c8	4.3730125e-08
108	0x328d9a3d	1.64847e-08
109	0xb29532d8	-1.7369004e-08
110	0x32e08490	2.6137315e-08
111	0x3177874a	3.6020134e-09
112	0x3335261c	4.2177007e-08
113	0x3334fc48	4.2138964e-08
114	0x3231c1e1	1.0346839e-08
115	0xb108eabb	-1.9924034e-09
116	0x331ea7b0	3.6939753e-08
117	0xb11e5449	-2.3039937e-09
118	0x3347c39c	4.6511204e-08
119	0x33559ef4	4.9737494e-08
120	0xb0ff34f7	-1.8568745e-09
121	0x3334b6d2	4.207579e-08
122	0x33536879	4.9222283e-08
123	0x360e8e89	2.1242615e-06
124	0x329b9516	1.8112171e-08
125	0x31a2d2de	4.7387934e-09
126	0x35f46807	1.8209693e-06
127	0xb89c210c	-7.444815e-05
128	0xb869e71c	-5.5766766e-05
129	0x37a52cfd	1.9690482e-05
130	0xb8ba765c	-8.891217e-05
131	0xb88c232d	-6.682272e-05
132	0x377399d9	1.4519749e-05
133	0xb8b22b52	-8.4957705e-05
134	0xb87fbae0	-6.097078e-05
135	0x371ff1fe	9.533482e-06
136	0xb8843e1a	-6.305818e-05
137	0xb882fdb5	-6.24614e-05
138	0x36641e04	3.399212e-06
139	0xb8ba6cb3	-8.889418e-05
140	0xb87cb2b2	-6.0247905e-05
141	0x37061906	7.992849e-06
142	0xb86bd1ad	-5.6223642e-05
143	0xb87016d5	-5.7241723e-05
144	0xb7ae503e	-2.0779782e-05
145	0xb85b58e9	-5.2296473e-05
146	0xb8817679	-6.1732666e-05
147	0x3638650b	2.7476951e-06
148	0xb8837a06	-6.2692954e-05
149	0xb8540317	-5.0547616e-05
150	0x37856e10	1.5906087e-05
151	0xb899ba5f	-7.330323e-05
152	0xb87e2694	-6.0594248e-05
153	0xb7428c29	-1.1595935e-05
154	0xb85fbc53	-5.3342734e-05
155	0xb8343af7	-4.297026e-05
156	0xb6a8f240	-5.034992e-06
157	0xb87c21c5	-6.0112932e-05
158	0xb84b5eb5	-4.8487174e-05
159	0xb7d4a5e3	-2.5349616e-05
160	0xb831986f	-4.2342053e-05
161	0xb8270f86	-3.983036e-05
162	0xb69877f0	-4.5439156e-06
163	0xb83c072f	-4.4829383e-05
164	0xb8406d6c	-4.5878274e-05
165	0xb80c1238	-3.339557e-05
166	0xb7672bd1	-1.3778875e-05
167	0xb821fd75	-3.862144e-05
168	0xb6dbaabb	-6.5465842e-06
169	0xb85469cc	-5.064327e-05
170	0xb82eef65	-4.1707786e-05
171	0xb7a444df	-1.9582394e-05
172	0xb83f234a	-4.5570814e-05
173	0xb82511a1	-3.9355484e-05
174	0xb7144c25	-8.839216e-06
175	0xb8122677	-3.4844936e-05
176	0xb83720f2	-4.3661283e-05
177	0xb79da1b6	-1.8791161e-05
178	0xb864d137	-5.4554283e-05
179	0xb808a48b	-3.257817e-05
180	0x36223b39	2.4174353e-06
181	0xb88e6967	-6.79072e-05
182	0xb845f5ee	-4.71975e-05
183	0xb65b8f1c	-3.2716844e-06
184	0xb843d6a4	-4.6691523e-05
185	0xb81cf24d	-3.741896e-05
186	0x379e7803	1.8890953e-05
187	0xb85bddda	-5.2420284e-05
188	0xb856b1d9	-5.118721e-05
189	0x37b475ae	2.1512471e-05
190	0xb88463ff	-6.312876e-05
191	0xb85b6583	-5.230821e-05
192	0x37d5d209	2.5489384e-05
193	0xb8685018	-5.5387703e-05
194	0xb840981b	-4.5918026e-05
195	0x37a9ddac	2.0249594e-05
196	0xb8989d39	-7.27721e-05
197	0xb8833d68	-6.2580046e-05
198	0x329f05b7	1.8512635e-08
199	0xb8496a50	-4.8021146e-05
200	0xb832ce89	-4.2630858e-05
201	0x357689ca	9.184265e-07
202	0xb8ba5097	-8.884182e-05
203	0xb87cf5ee	-6.031052e-05
204	0xb6e2bd5b	-6.7573687e-06
205	0xb78a505e	-1.6488306e-05
206	0xb80a4956	-3.2970063e-05
207	0x34aa3d9e	3.17098e-07
208	0xb876570b	-5.8732036e-05
209	0xb88028e4	-6.111132e-05
210	0xb7dae6f0	-2.6095164e-05
211	0x35d23a07	1.5663107e-06
212	0xb7ff218c	-3.041399e-05
213	0x3787e8dc	1.6201688e-05
214	0xb86bada1	-5.619007e-05
215	0xb88bec40	-6.6720415e-05
216	0xb7d4052e	-2.5274781e-05
217	0xb6aeb15c	-5.2062514e-06
218	0xb7f1c2b4	-2.8820104e-05
219	0x3727a20a	9.991703e-06
220	0xb86dc8aa	-5.6692086e-05
221	0xb887a9b8	-6.468914e-05
222	0xb7643651	-1.36025055e-05
223	0xb740beed	-1.1488545e-05
224	0xb800ff51	-3.075536e-05
225	0xb5327d45	-6.649246e-07
226	0xb80c96fa	-3.351921e-05
227	0xb87527cf	-5.8449627e-05
228	0xb68b00c5	-4.1426124e-06
229	0xb71f564b	-9.49723e-06
230	0xb804defa	-3.1678916e-05
231	0x35b2f61a	1.3333658e-06
232	0xb828b22b	-4.0220253e-05
233	0xb87a78cc	-5.9717146e-05
234	0xb7f3d878	-2.9068658e-05
235	0x3772d86e	1.44747155e-05
236	0xb8057424	-3.1817835e-05
237	0xb61273c3	-2.1823078e-06
238	0xb890c842	-6.903756e-05
239	0xb871bcc0	-5.7634665e-05
240	0xb75da613	-1.3211294e-05
241	0xb797544e	-1.803986e-05
242	0xb85248e9	-5.0135804e-05
243	0xb64430ae	-2.9234611e-06
244	0xb882d7ab	-6.239054e-05
245	0xb8824bbb	-6.212989e-05
246	0x372f7d7d	1.046003e-05
247	0xb89dbfa7	-7.5220414e-05
248	0xb88d0700	-6.724708e-05
249	0xbb0efc78	-0.0021817964
250	0xb74383f7	-1.1653631e-05
251	0xb62231a6	-2.416878e-06
252	0xb6aec736	-5.2087953e-06
253	0xb6845d3d	-3.944761e-06
254	0x363060be	2.6282355e-06
255	0x364edbb5	3.0824278e-06

exp_avg_sq f4 [128, 126]
0	0x251904c9	1.3272256e-16
1	0x26da6302	1.5153625e-15
2	0x2704584e	1.836655e-15
3	0x24e938b5	1.0114371e-16
4	0x26ef5212	1.6606202e-15
5	0x27092784	1.903399e-15
6	0x250fb1eb	1.2463554e-16
7	0x26e75e61	1.6054426e-15
8	0x270879a8	1.8939741e-15
9	0x24936308	6.391885e-17
10	0x26dccb1e	1.5320622e-15
11	0x2709fbec	1.9149136e-15
12	0x24df5e17	9.687023e-17
13	0x26c723c2	1.3818091e-15
14	0x2702a297	1.8129264e-15
15	0x24a8a21a	7.3133e-17
16	0x26e2fc6a	1.5750317e-15
17	0x270cb5e1	1.95275e-15
18	0x2500cfe4	1.1172666e-16
19	0x26c68d3c	1.3777292e-15
20	0x26f4d1a0	1.698772e-15
21	0x2492632d	6.348542e-17
22	0x26f158f4	1.6746845e-15
23	0x271500fc	2.0678437e-15
24	0x24955916	6.476937e-17
25	0x26a26172	1.1267421e-15
26	0x26e854c1	1.6121206e-15
27	0x2483ec7e	5.721283e-17
28	0x26fd4513	1.7574124e-15
29	0x2716d510	2.0932183e-15
30	0x2464c0dc	4.9602977e-17
31	0x26a2ea33	1.1304488e-15
32	0x26d9e48b	1.5119346e-15
33	0x2482dbec	5.6751075e-17
34	0x26fdb1be	1.7603579e-15
35	0x271b3b8b	2.154285e-15
36	0x24489c34	4.3500396e-17
37	0x268a406e	9.593137e-16
38	0x26cdbe51	1.4276318e-15
39	0x24a29aa8	7.05183e-17
40	0x26ed0914	1.6447639e-15
41	0x271a04c9	2.1374387e-15
42	0x245354bd	4.5825108e-17
43	0x268508eb	9.231146e-16
44	0x26c65818	1.3762888e-15
45	0x248453f2	5.7388084e-17
46	0x26fe8cd7	1.7662965e-15
47	0x271ad122	2.1485164e-15
48	0x2421a9d5	3.5055163e-17
49	0x2683feae	9.158982e-16
50	0x26c8a3d2	1.3922191e-15
51	0x24a06456	6.9558915e-17
52	0x2715027c	2.067925e-15
53	0x271fa9bd	2.2157698e-15
54	0x24252e3c	3.5817834e-17
55	0x2696c323	1.0461233e-15
56	0x26c925bc	1.3957405e-15
57	0x24648e22	4.956001e-17
58	0x270dc34b	1.967355e-15
59	0x271d1b02	2.1802768e-15
60	0x244ab120	4.39518e-17
61	0x26981bdb	1.0554669e-15
62	0x26c3b08a	1.3578694e-15
63	0x243d4048	4.103729e-17
64	0x27043f62	1.835304e-15
65	0x271ec5fb	2.203423e-15
66	0x243bb587	4.070292e-17
67	0x26804656	8.900849e-16
68	0x26b794db	1.2738523e-15
69	0x24589268	4.6961545e-17
70	0x26e42078	1.5829479e-15
71	0x271a36c6	2.1401486e-15
72	0x23736581	1.3194551e-17
73	0x26847e66	9.1936e-16
74	0x26b5d667	1.2617512e-15
75	0x2470ec05	5.224162e-17
76	0x26db6e2b	1.5226039e-15
77	0x2713dbba	2.0519462e-15
78	0x23ad8b84	1.8815785e-17
79	0x264a6a21	7.022666e-16
80	0x26a7f07f	1.1653139e-15
81	0x242f412f	3.800229e-17
82	0x26b630d7	1.2642025e-15
83	0x270641e4	1.8631955e-15
84	0x240dc956	3.074504e-17
85	0x2631f14b	6.1736224e-16
86	0x2698f8a6	1.0614515e-15
87	0x2433361d	3.8860274e-17
88	0x26bcac38	1.30918e-15
89	0x270165bb	1.7957494e-15
90	0x23aab6ba	1.8508825e-17
91	0x260a1629	4.79084e-16
92	0x268fd18b	9.979415e-16
93	0x23f3c627	2.6430034e-17
94	0x268f742f	9.95411e-16
95	0x26e86cd6	1.6127734e-15
96	0x2478031e	5.3779068e-17
97	0x2601ddf4	4.505667e-16
98	0x2688b78c	9.486646e-16
99	0x243420d6	3.905909e-17
100	0x26786998	8.618539e-16
101	0x26d3d437	1.4698587e-15
102	0x23fc89de	2.7380284e-17
103	0x2623e8a3	5.6867267e-16
104	0x268fae9c	9.969946e-16
105	0x2422446b	3.5186103e-17
106	0x26720cd2	8.397799e-16
107	0x26cfdb75	1.4422994e-15
108	0x245182ac	4.5430334e-17
109	0x260522a9	4.619062e-16
110	0x26928588	1.0166979e-15
111	0x238158e7	1.402386e-17
112	0x268242ec	9.038701e-16
113	0x26ced926	1.435298e-15
114	0x24a033b4	6.947653e-17
115	0x25d7570b	3.7355537e-16
116	0x269c7aa5	1.0857917e-15
117	0x23e7bcac	2.5124976e-17
118	0x267123c4	8.3662143e-16
119	0x26c666a6	1.3766833e-15
120	0x248e13cd	6.161623e-17
121	0x262340fa	5.6640045e-16
122	0x26a3e4ff	1.1372467e-15
123	0x2c97b1e1	4.3114266e-12
124	0x2633d578	6.2392405e-16
125	0x25b5bc74	3.1526196e-16
126	0x2e8d3407	6.4211796e-11
127	0x3128d097	2.4565787e-09
128	0x313d8bf6	2.7582678e-09
129	0x2ef20313	1.1005432e-10
130	0x3132a49d	2.599598e-09
131	0x3139f214	2.7058649e-09
132	0x2ec553d6	8.973415e-11
133	0x31307c45	2.568201e-09
134	0x31417b09	2.8155134e-09
135	0x2ed70b03	9.779024e-11
136	0x311677ee	2.1896045e-09
137	0x313963cb	2.697777e-09
138	0x2eb33ffb	8.151343e-11
139	0x311cae75	2.2800155e-09
140	0x313a3c28	2.7100757e-09
141	0x2ed6fce2	9.776514e-11
142	0x310d623e	2.0574045e-09
143	0x31349b94	2.6281883e-09
144	0x2eaca8a1	7.851609e-11
145	0x312bd06d	2.5002251e-09
146	0x31384c87	2.6819025e-09
147	0x2ea97153	7.705361e-11
148	0x31160e34	2.1835946e-09
149	0x313ec22e	2.7759017e-09
150	0x2e851b74	6.0530164e-11
151	0x31138ec2	2.1472464e-09
152	0x31334069	2.6084541e-09
153	0x2e60f5e9	5.1150115e-11
154	0x3129904b	2.4674758e-09
155	0x31445f14	2.85758e-09
156	0x2e622401	5.141843e-11
157	0x3117898f	2.2051585e-09
158	0x312ae8fc	2.4870692e-09
159	0x2e841096	6.005611e-11
160	0x3125a38b	2.4103624e-09
161	0x3146c413	2.8924247e-09
162	0x2dc7ede3	2.2729324e-11
163	0x30f81a16	1.8051789e-09
164	0x312302c6	2.3721198e-09
165	0x2ee24544	1.0289594e-10
166	0x311445f7	2.1576605e-09
167	0x314046bf	2.7979892e-09
168	0x2e7e02dd	5.7755457e-11
169	0x30f48ab3	1.7792757e-09
170	0x311bbab9	2.2661608e-09
171	0x2e9bf36b	7.091824e-11
172	0x3115fc08	2.1825617e-09
173	0x313f4eff	2.7839062e-09
174	0x2e560818	4.8665155e-11
175	0x30f7a0a3	1.8017271e-09
176	0x311ee907	2.3124487e-09
177	0x2ee38fd8	1.03483166e-10
178	0x312a700b	2.4801945e-09
179	0x3143fe1d	2.8520681e-09
180	0x2e73f231	5.5466912e-11
181	0x31008b80	1.8705748e-09
182	0x311e0955	2.299733e-09
183	0x2eb281b1	8.117541e-11
184	0x3124d1b0	2.3984335e-09
185	0x313ec0d4	2.775825e-09
186	0x2eb16819	8.0675196e-11
187	0x31003b22	1.8660065e-09
188	0x31188d09	2.219908e-09
189	0x2e8dae29	6.442875e-11
190	0x3123c687	2.3832472e-09
191	0x3142a9d9	2.8327263e-09
192	0x2ee72c7e	1.0512567e-10
193	0x30d8920a	1.5757575e-09
194	0x310d3100	2.0546054e-09
195	0x2e8b7940	6.3425265e-11
196	0x31126ba0	2.1306974e-09
197	0x31419a24	2.8172815e-09
198	0x2de2664f	2.573866e-11
199	0x30e2ad17	1.6492859e-09
200	0x310cce7e	2.0490059e-09
201	0x2e8549b1	6.06123e-11
202	0x310a45a5	2.0121231e-09
203	0x313abe4c	2.7174734e-09
204	0x2ddb7a73	2.4951796e-11
205	0x30ccc5d5	1.4899181e-09
206	0x3109e23f	2.006473e-09
207	0x2e22a2d7	3.6979166e-11
208	0x30ef9736	1.7432515e-09
209	0x312973b3	2.4658504e-09
210	0x2e8baafb	6.3513604e-11
211	0x30bedbdc	1.3886807e-09
212	0x31015c67	1.8824495e-09
213	0x2e510053	4.7521386e-11
214	0x30ea1979	1.7032981e-09
215	0x31243653	2.389602e-09
216	0x2e3fb500	4.3589132e-11
217	0x309f5973	1.1594196e-09
218	0x30fb7e59	1.8298564e-09
219	0x2e1f84c0	3.627032e-11
220	0x30c0c4e2	1.4025796e-09
221	0x3119159b	2.2276712e-09
222	0x2f135b27	1.3401956e-10
223	0x30877638	9.856143e-10
224	0x30ec8523	1.72091e-09
225	0x2dcb6f4c	2.3127854e-11
226	0x30af288a	1.2744448e-09
227	0x310ffe85	2.0953916e-09
228	0x2e65733d	5.2170924e-11
229	0x30b79fb3	1.3360392e-09
230	0x30f8d15b	1.8103877e-09
231	0x2dcd3e0a	2.3333353e-11
232	0x30a7d0ed	1.221023e-09
233	0x310e7432	2.072977e-09
234	0x2eb5fdbb	8.2759986e-11
235	0x3086989f	9.793161e-10
236	0x30f377b1	1.7714595e-09
237	0x2deb0e8e	2.672287e-11
238	0x30a1896e	1.1753352e-09
239	0x310f7bd4	2.0879627e-09
240	0x2ee2b62d	1.0309651e-10
241	0x30435738	7.106453e-10
242	0x30f6c078	1.7953559e-09
243	0x2e2ce888	3.93148e-11
244	0x30914160	1.0568719e-09
245	0x310c6a81	2.0433222e-09
246	0x2eb44486	8.1976245e-11
247	0x308272c7	9.491367e-10
248	0x30f4c00d	1.7807921e-09
249	0x36bdc21c	5.6552362e-06
250	0x30840b94	9.607555e-10
251	0x2f97bd6f	2.760134e-10
252	0x2db9375b	2.1056648e-11
253	0x303ca309	6.862569e-10
254	0x307661cc	8.9633256e-10
255	0x2e017c41	2.9441564e-11

exp_avg f4 [128]
0	0x335e8d3d	5.181686e-08
1	0xb85f3337	-5.321504e-05
2	0x352accc6	6.362792e-07
3	0x37abba35	2.0471498e-05
4	0xb6475a76	-2.9705966e-06
5	0x35aa19c4	1.2673486e-06
6	0xb7358b5d	-1.0820889e-05
7	0x386c1a77	5.6291432e-05
8	0xb6aaf1dc	-5.094551e-06
9	0xb846d400	-4.740432e-05
10	0x36d50493	6.348427e-06
11	0x38448b17	4.685958e-05
12	0xb3149f13	-3.4603612e-08
13	0xb5f52523	-1.8264731e-06
14	0xb68132ed	-3.850428e-06
15	0xb67ddcb8	-3.7828413e-06
16	0x37d0a558	2.4872526e-05
17	0xb5ab71bb	-1.2773593e-06
18	0xb7dd6a3b	-2.639472e-05
19	0xb8c75670	-9.50516e-05
20	0xb5b1f98b	-1.3260154e-06
21	0xb5017d46	-4.823854e-07
22	0xb49d2dd7	-2.9276882e-07
23	0x38abfc89	8.200954e-05
24	0x38adfe33	8.296631e-05
25	0x369d73da	4.6924515e-06
26	0xb75e57ca	-1.3252671e-05
27	0x38384fc9	4.3943324e-05
28	0xb6081a16	-2.0280763e-06
29	0x37b1489c	2.1133856e-05
30	0xb798adcf	-1.8200748e-05
31	0x389649b1	7.1662835e-05
32	0x35a64dfa	1.2390658e-06
33	0xb518e6db	-5.696035e-07
34	0xb7473c56	-1.1875372e-05
35	0xb7a4f823	-1.9665871e-05
36	0x38786d65	5.922969e-05
37	0xb78c0610	-1.6692124e-05
38	0xb475a449	-2.287717e-07
39	0xb8aa4458	-8.118962e-05
40	0xb708498b	-8.123355e-06
41	0x37f85216	2.9602128e-05
42	0x35404e0a	7.1639136e-07
43	0xb7cfefcd	-2.4787989e-05
44	0x36008ae9	1.9154343e-06
45	0x36a4871e	4.9033106e-06
46	0xb58ffe87	-1.0728407e-06
47	0xb6f7d674	-7.3861393e-06
48	0x376318e9	1.3536054e-05
49	0xb5df0bcf	-1.6618231e-06
50	0x3339f547	4.3296748e-08
51	0xb58336a3	-9.776162e-07
52	0xb70729b1	-8.056334e-06
53	0xb49ba117	-2.8988208e-07
54	0xb51b642a	-5.788776e-07
55	0x3571b1c3	9.0038174e-07
56	0xb4f02594	-4.4730825e-07
57	0xb6ad6768	-5.16784e-06
58	0x354f9834	7.7334994e-07
59	0xb6671856	-3.4435848e-06
60	0xb85f6b78	-5.326743e-05
61	0xb5243cae	-6.118306e-07
62	0x37b3e837	2.1446596e-05
63	0x3650bfaf	3.110599e-06
64	0x33797798	5.80836e-08
65	0x36165591	2.2401548e-06
66	0x374f2fa1	1.2349251e-05
67	0xb58a669e	-1.0311667e-06
68	0xb60c5410	-2.0910556e-06
69	0xb67e4f09	-3.7894954e-06
70	0xb7e570a4	-2.735138e-05
71	0x38ac8ffd	8.228419e-05
72	0xb615ab52	-2.2302452e-06
73	0x388e85f8	6.796041e-05
74	0xb3879207	-6.3129896e-08
75	0x36e1be4a	6.727675e-06
76	0x320723e3	7.866194e-09
77	0x3544b6f5	7.328193e-07
78	0x36a9b42b	5.057567e-06
79	0x3593815c	1.0990002e-06
80	0xb79a8ec0	-1.8424704e-05
81	0xb5991689	-1.1405947e-06
82	0x368aae1f	4.132991e-06
83	0x37f50973	2.9210676e-05
84	0x35ce564f	1.5373315e-06
85	0xb89817ff	-7.2523944e-05
86	0x35d296a9	1.5690067e-06
87	0x362e4d3c	2.5972977e-06
88	0x3560d5b8	8.3757504e-07
89	0xb81393e4	-3.5185265e-05
90	0x37d85db7	2.5792846e-05
91	0xb7c14078	-2.3037413e-05
92	0xb5475c7e	-7.426787e-07
93	0x3637418c	2.7307278e-06
94	0x366f5682	3.566413e-06
95	0xb6875979	-4.0337295e-06
96	0x370a4e08	8.243609e-06
97	0xb76019f0	-1.33574795e-05
98	0xb6b53cfc	-5.40132e-06
99	0x3813a791	3.520359e-05
100	0xb4f91e10	-4.6401738e-07
101	0xb896a3b0	-7.1830465e-05
102	0xb7cd0547	-2.4440362e-05
103	0x35d290ed	1.5688398e-06
104	0xb7549b41	-1.2672333e-05
105	0x3856765e	5.1131814e-05
106	0xb7ebb128	-2.8096678e-05
107	0x38a86f9d	8.031654e-05
108	0xb7d2efa2	-2.5145539e-05
109	0xb6a0d69f	-4.7933568e-06
110	0xb4fdb1db	-4.725433e-07
111	0x37d7566e	2.5670244e-05
112	0xb6b96531	-5.52521e-06
113	0xb67c6f1e	-3.7615605e-06
114	0x37df1552	2.65936e-05
115	0xb7b6fc3c	-2.1813546e-05
116	0xb78ba05f	-1.664477e-05
117	0xb8103da3	-3.438968e-05
118	0xb5398cb5	-6.9122626e-07
119	0x36276a23	2.494672e-06
120	0x36a213f6	4.8303e-06
121	0x353ed6cf	7.1093103e-07
122	0xb78ab0d6	-1.6533228e-05
123	0xb5102f55	-5.371306e-07
124	0x33889c19	6.3613875e-08
125	0x377fcdeb	1.5247128e-05
126	0xb7813615	-1.5403182e-05
127	0x349330a2	2.741627e-07

exp_avg_sq f4 [128]
0	0x2738ced4	2.5647251e-15
1	0x31673292	3.364367e-09
2	0x308f0411	1.0405775e-09
3	0x3028baec	6.1383676e-10
4	0x2df8a727	2.8268566e-11
5	0x2d0b7597	7.927345e-12
6	0x2f92bc42	2.669101e-10
7	0x31059a5c	1.944179e-09
8	0x30e55ad5	1.6687759e-09
9	0x31159788	2.176849e-09
10	0x2ecb8c0d	9.256249e-11
11	0x310c3470	2.0402489e-09
12	0x2c04e82d	1.8887212e-12
13	0x306bd440	8.579413e-10
14	0x2d6ae9b8	1.3353256e-11
15	0x2cdb95e9	6.2409977e-12
16	0x30ed0680	1.7245867e-09
17	0x2d3b36b3	1.0641865e-11
18	0x30e7c283	1.6862746e-09
19	0x31b6c8f8	5.3197446e-09
20	0x2d699e9a	1.3279733e-11
21	0x2b8c72ac	9.979426e-13
22	0x2b1a1446	5.4739926e-13
23	0x31968b82	4.3814348e-09
24	0x31890afc	3.9884736e-09
25	0x2eee7292	1.0843339e-10
26	0x2fb7f527	3.3461697e-10
27	0x312bc7dc	2.4997382e-09
28	0x2c418b49	2.7504268e-12
29	0x2fa6b335	3.0322558e-10
30	0x2fa5a764	3.0132263e-10
31	0x316a4fca	3.4096836e-09
32	0x2c679edb	3.2915257e-12
33	0x2d17922b	8.615812e-12
34	0x2f245bfc	1.4948393e-10
35	0x31479172	2.9040987e-09
36	0x310313fc	1.9074369e-09
37	0x3150d587	3.038936e-09
38	0x2a1e0be6	1.4037347e-13
39	0x31ca048e	5.8794916e-09
40	0x30dc3289	1.602147e-09
41	0x3188e76c	3.9844306e-09
42	0x2f128d04	1.3328721e-10
43	0x3137c7f9	2.6743676e-09
44	0x2bfa263d	1.7774182e-12
45	0x2dc54e8f	2.2431194e-11
46	0x2c66f750	3.2822252e-12
47	0x2e4ff2fe	4.728217e-11
48	0x319b7b17	4.5250874e-09
49	0x310f977c	2.0895348e-09
50	0x26b1176c	1.2288191e-15
51	0x2df6abbf	2.8043233e-11
52	0x2e9fad99	7.26132e-11
53	0x29afb44b	7.802837e-14
54	0x301b5ea9	5.652319e-10
55	0x2c821e37	3.6981767e-12
56	0x2d517533	1.1906298e-11
57	0x2eeed1cb	1.0860254e-10
58	0x2a8c3e02	2.4912022e-13
59	0x2e150e17	3.3891192e-11
60	0x31a6ab5f	4.8507185e-09
61	0x2ba8c892	1.1992787e-12
62	0x2fa4edda	3.000043e-10
63	0x2d24db64	9.371035e-12
64	0x2917fe33	3.3749218e-14
65	0x2d052775	7.568936e-12
66	0x2f5cfb64	2.0098195e-10
67	0x2b73fc27	8.6680874e-13
68	0x2ca38049	4.646981e-12
69	0x2e97cd37	6.9031385e-11
70	0x31e192b4	6.56504e-09
71	0x31ab50d6	4.985945e-09
72	0x2fbbf91d	3.4192107e-10
73	0x31015547	1.8820445e-09
74	0x2c2b5e02	2.4352746e-12
75	0x2fb9b6ab	3.3781097e-10
76	0x24c9859a	8.7396185e-17
77	0x2d6fe4b3	1.36363585e-11
78	0x2e02675f	2.965039e-11
79	0x2c2778a6	2.37991e-12
80	0x30a47ca9	1.1968001e-09
81	0x2cd04e1e	5.9203883e-12
82	0x2dcae3c4	2.306589e-11
83	0x303339fb	6.5202216e-10
84	0x2cde57ae	6.319354e-12
85	0x31b424ad	5.242859e-09
86	0x2d4b8426	1.1568557e-11
87	0x30ed1b3c	1.725176e-09
88	0x2b1f005d	5.648865e-13
89	0x312bc9ac	2.4998412e-09
90	0x3009b110	5.009193e-10
91	0x317ba73e	3.6620373e-09
92	0x2c38d03f	2.6263572e-12
93	0x2c350292	2.5723074e-12
94	0x2d67338c	1.31422755e-11
95	0x309dbac7	1.1476339e-09
96	0x304cc992	7.4501216e-10
97	0x3073acd3	8.8648483e-10
98	0x30f4fa94	1.7824555e-09
99	0x30a95f6b	1.2323488e-09
100	0x2d8d4018	1.6058307e-11
101	0x314776e9	2.9025904e-09
102	0x301bfa02	5.6743954e-10
103	0x2e0d49ae	3.212513e-11
104	0x2f940346	2.692337e-10
105	0x30e00d34	1.6301898e-09
106	0x30ddb9a1	1.6132625e-09
107	0x31669afa	3.35575e-09
108	0x31a4ad39	4.7927213e-09
109	0x2ec16b18	8.7956475e-11
110	0x2b1eeea3	5.646405e-13
111	0x3060feeb	8.1852986e-10
112	0x2d6a0109	1.330159e-11
113	0x2d9c1080	1.7742474e-11
114	0x30319fbe	6.461923e-10
115	0x2f6dc604	2.1625374e-10
116	0x30bb45f7	1.3625926e-09
117	0x30c29a09	1.4159137e-09
118	0x2b716a18	8.5767634e-13
119	0x30810975	9.388673e-10
120	0x3179c8b1	3.6348349e-09
121	0x2bd3c46b	1.5046969e-12
122	0x30900510	1.0478818e-09
123	0x29de1834	9.862979e-14
124	0x2e6232af	5.1431467e-11
125	0x3068d566	8.4704366e-10
126	0x305245c7	7.6496715e-10
127	0x2c85b76b	3.800451e-12
