results/ppo/MlAgent/MlAgent-5896.onnx (onnx, 137408 bytes, 9 tensors)

action_model._continuous_distribution.log_sigma f4 [1, 3]
000000 00 00 00 00 00 00 00 00 00 00 00 00
       0.0 0.0 0.0

action_model._continuous_distribution.mu.bias f4 [3]
000000 00 00 00 00 00 00 00 00 00 00 00 00
       0.0 0.0 0.0

action_model._continuous_distribution.mu.weight f4 [3, 128]
000000 06 5f b0 3c 6b 5c 67 3c 03 99 f0 bb ea fa 30 3d
       0.021529686 0.014121155 -0.007342459 0.04320804
000010 c8 06 ea 3a 13 00 24 3c 32 13 7b 3b 3a 98 ba bb
       0.0017854804 0.010009783 0.0038311002 -0.0056944164
000020 e2 c8 b7 bc 2b 3b 97 bc 54 9e 88 bc 27 fb 88 3c
       -0.022434656 -0.01846083 -0.01667706 0.016721321
000030 af df c9 3c 5f c1 7e bc 2b d1 94 3b b2 ad b8 bc
       0.024642793 -0.015549033 0.0045415363 -0.022543762
000040 67 f3 02 3c e7 d3 11 bc 82 0c fc 3c a5 4a 5f 3c
       0.007992602 -0.008900619 0.030767683 0.0136286365
000050 02 b1 e6 3c b2 c4 d4 3a 92 37 d9 bb 2b 2a 21 3d
       0.028160576 0.0016232936 -0.006628939 0.039346855
000060 75 5b 39 bc 79 a4 1a bc a0 70 07 bd 7b ba b2 bc
       -0.011313309 -0.009438627 -0.033066392 -0.021817436
000070 38 27 13 3a eb 98 01 bc d2 cf 67 bc 87 b1 b4 bc
       0.0005613449 -0.007909994 -0.014148669 -0.022057308
000080 dc 72 00 bd bf ae fa bb 93 41 28 3a 1f 81 2e bc
       -0.03135954 -0.007650226 0.0006418463 -0.010650902
000090 70 b7 d5 3b 50 ad be bb db e4 a4 bc a5 84 7b 3a
       0.0065221116 -0.0058190003 -0.020128658 0.0009594656
0000a0 87 0f f4 3c 6f 05 dd bc 13 5d d4 3c 37 24 39 3b
       0.02979256 -0.02698013 0.025923287 0.0028250345
0000b0 2f dc 9e bc 48 d4 bf 3c 3a d0 d1 3c 0b 21 84 bc
       -0.019392101 0.023416653 0.025611985 -0.016129037
0000c0 8b 7a 03 bc 1f ba 4c ba cd ec a2 bc 24 0d a1 3c
       -0.008024822 -0.00078097166 -0.019888306 0.019659586
0000d0 12 2f 91 bb 33 f2 b6 3c bf ea d4 3a d7 7d e6 3b
       -0.00443066 0.022332286 0.0016244276 0.0070340442
0000e0 59 4a 03 bc ed 13 74 3c 3f ad 0c 3c ad 37 3c 3b
       -0.008013331 0.014897329 0.008586227 0.0028719709
0000f0 b1 6d ca bc d0 f2 65 bc 8f 57 85 3c b8 78 bb bb
       -0.024710508 -0.014034942 0.016277103 -0.005721178
000100 20 0d 3c bd b7 15 fc 3c 0e 6e 33 3b 2b ad e0 3c
       -0.045910954 0.030772073 0.002737883 0.027426323
000110 b2 b1 f1 bb 68 c6 de 3b 16 77 b4 bc 88 76 f9 ba
       -0.0073759193 0.006798554 -0.02202944 -0.0019032517
000120 5e 17 a9 3c a7 ac b7 3b 6a 8f 5e bc 59 d2 10 bc
       0.020641025 0.0056052986 -0.013583997 -0.008839213
000130 80 71 de bc af 9c 47 3b 87 b4 aa 3c f3 e6 52 3c
       -0.02715373 0.003045838 0.020838035 0.012872445
000140 f4 d1 80 3b d8 8a f2 bb 64 3c ba 3c bf 0b 0e 3c
       0.0039312784 -0.0074018054 0.022733875 0.008669793
000150 56 03 1e ba 80 56 4e b9 0f 11 2d 3c 4d 05 c2 bb
       -0.0006027719 -0.00019677915 0.010563149 -0.005921042
000160 8a 63 59 bb ca cb 87 3c be 8d 0a 3d 20 0e 44 3b
       -0.0033170902 0.016576666 0.033826582 0.0029915646
000170 48 30 9f ba 6b 04 c0 ba 4d e7 44 3c 0a 68 66 3a
       -0.0012145126 -0.0014649754 0.012018037 0.0008789307
000180 2b 96 b5 3c 28 9a 90 bc f9 c5 4b bc 52 8e f6 3b
       0.022166332 -0.017651632 -0.012437337 0.00752429
000190 22 7f ee 3b b3 1c ae 3c 8e a9 b0 3b 1b 3f 0f ba
       0.007278339 0.02125392 0.0053913062 -0.00054644205
0001a0 39 9f 87 bc c7 76 bb bc 43 cc 04 bc e5 65 7d 3a
       -0.016555415 -0.022883786 -0.00810534 0.00096663676
0001b0 78 7f 46 bb a8 53 92 3a 97 96 e1 3a 06 46 2d bc
       -0.003028838 0.0011163848 0.0017211017 -0.010575777
0001c0 38 f4 a4 3b f3 88 df 3b 80 c2 5f bc 99 77 9a 3a
       0.005033996 0.0068217455 -0.013657212 0.001178491
0001d0 cd 85 10 bb 95 9d 25 bb 2f 6c 8c bc 4b a5 af 3b
       -0.0022052408 -0.0025270928 -0.01714143 0.0053602806
0001e0 df e1 5a bc 9a f7 5d 3c d7 d8 31 3b fb bf 72 3c
       -0.013359516 0.013547802 0.0027137303 0.0148162795
0001f0 73 e6 3c bd bb da 10 bc c7 85 5e 3c e7 af a1 bc
       -0.04611821 -0.008841212 0.0135817 -0.019737197
000200 25 1e 42 3c a3 64 8d bb ca 3d 30 bd ad 2c 4a 3b
       0.011848007 -0.0043149753 -0.043027677 0.0030849383
000210 75 b5 6b bc 62 68 62 ba ba 5c 87 bc f7 56 79 bc
       -0.014386524 -0.000863677 -0.016523708 -0.015218488
000220 e1 4c 1d 3c 23 c0 c1 3c 1a 0a 12 3c 43 ce 18 bb
       0.009600849 0.023651188 0.008913541 -0.00233163
000230 64 30 4b bb 15 0d 52 bc 7e 91 8b 3c d5 c2 e1 bc
       -0.0031004185 -0.012820502 0.01703715 -0.027558723
000240 1b c7 c3 bb 6a df 4c bb 6f 7f a3 3b 17 fc b9 bc
       -0.005974663 -0.0031261095 0.0049895565 -0.022703214
000250 fe 6a a8 ba 02 5b 65 bc 19 06 82 3c bb 8f aa bc
       -0.0012849269 -0.013998749 0.015872048 -0.02082049
000260 f3 f6 0a 3d be 82 35 bc 95 f9 7c 3c 4b 50 1e 3b
       0.033926915 -0.011078535 0.015440364 0.0024156745
000270 fb ad be 3c 9f f9 e0 3c ca bd 61 bc bf 8d 5d 3b
       0.02327632 0.027462779 -0.013778159 0.003380641
000280 6c 6b aa 3c c3 a4 ff 3c af 86 2a bb 63 43 48 3c
       0.020803176 0.031206494 -0.002602022 0.0122230975
000290 6f 46 4c bb f9 18 10 3b fa eb 72 bc 70 bd d9 bc
       -0.0031169911 0.002198754 -0.014826769 -0.026579589
0002a0 8d c5 3c bb c1 63 80 3a 71 3c 1d bc c3 97 24 bc
       -0.0028804273 0.0009795354 -0.00959693 -0.010045948
0002b0 fa 33 90 bc 88 c6 a7 bc 12 72 d9 3b f2 cf 19 3b
       -0.01760291 -0.02048041 0.0066359127 0.0023469892
0002c0 f0 b3 6b bc 30 59 8a 3c 9a d1 1b bb f3 70 2b 3b
       -0.014386162 0.016888231 -0.0023776055 0.0026159852
0002d0 5d ac 79 3a 9f 08 09 bc 62 41 79 3c 9d a4 04 3d
       0.00095242803 -0.008363872 0.015213342 0.03238355
0002e0 27 7e c3 3b d4 9f 24 3c ab cd 05 3c 94 89 19 bc
       0.0059659663 0.010047872 0.008166711 -0.00937118
0002f0 c6 09 42 bc 1f 0e fe 3c b1 d3 03 bd 3b 1f 43 bc
       -0.0118431505 0.031012593 -0.032184307 -0.011909301
000300 10 af 67 bc 6f 61 b4 bc 60 f9 7a 3b 73 43 17 3c
       -0.014140859 -0.022019116 0.0038295612 0.00923239
000310 1a f7 d0 3b fc 85 af bc 5d 7c 52 bc 85 b7 0e bd
       0.006377113 -0.021426193 -0.012847033 -0.034842987
000320 4e 90 83 3c 35 91 c1 bc cf 42 3e 3a bd 81 18 3b
       0.01606002 -0.02362881 0.000725788 0.002327069
000330 0b a5 a1 ba ff 8d 07 bc 15 38 ab 3a 10 bc dc bc
       -0.0012332512 -0.008273601 0.0013062978 -0.026945144
000340 9f 71 dc ba e5 36 fa bc 22 20 97 bc a8 fd fc bb
       -0.001681853 -0.030543754 -0.01844794 -0.007720668
000350 ef d9 60 bb f7 e5 e4 ba 66 2b 8c bc b8 9c a1 3c
       -0.0034309586 -0.0017463554 -0.017110538 0.01972805
000360 4a fc 2d bc fb d4 f9 3c d3 23 17 bc 3f f3 a1 3c
       -0.010619232 0.030497065 -0.00922485 0.01976931
000370 b7 09 67 bc 2c 02 84 ba c5 6c 0e 3d e3 e6 84 3c
       -0.014101437 -0.0010071448 0.0347717 0.016223377
000380 c2 eb 70 3c eb a3 cc b8 75 8b 76 3c 03 5e 40 3c
       0.014704647 -9.75801e-05 0.015047898 0.011741164
000390 63 6a aa 3b cd 0d b7 bc 69 a4 a8 3c e5 13 f9 ba
       0.0052006706 -0.022345448 0.02058621 -0.0019003121
0003a0 1b 6b 53 3c 96 ea b6 bb 3d 1f ae 3b c7 01 4c bc
       0.012903954 -0.005582164 0.0053137825 -0.012451596
0003b0 5d 45 f1 3c 7c 3d 24 bc f7 3f e4 bc 5f 01 0c 3c
       0.02945202 -0.010024425 -0.027862532 0.008545249
0003c0 d3 b3 2b bc 27 b9 22 bd e9 d6 01 bc 7e 1a ba 3a
       -0.010479885 -0.039727356 -0.007924774 0.0014198569
0003d0 4f 38 78 3c c3 6b 14 3a 67 de b4 3b 82 fa 90 3b
       0.015150144 0.00056618097 0.0055196765 0.004424394
0003e0 94 1a 33 bb 07 e0 f7 3b 44 5b 38 3c d7 fe dc 3b
       -0.0027329074 0.007564548 0.011252228 0.0067442465
0003f0 12 8d 93 bc 4b 36 9f 39 75 47 68 3b 54 82 82 bc
       -0.018011604 0.00030367295 0.0035442982 -0.015931286

action_model._discrete_distribution.branches.0.bias f4 [3]
000000 00 00 00 00 00 00 00 00 00 00 00 00
       0.0 0.0 0.0

action_model._discrete_distribution.branches.0.weight f4 [3, 128]
000000 1f 81 66 3c 3c 26 19 bc 5f 70 28 3c 3a c9 fc bb
       0.014068871 -0.009347495 0.010280698 -0.0077144178
000010 63 65 ad 3b ad b4 4a 3b 3a ad 60 3c af 31 bd bb
       0.0052916273 0.0030930445 0.013713175 -0.005773745
000020 07 b6 05 bc 5b b0 6d bc b7 a6 15 3b 67 9a 5b 3c
       -0.0081610745 -0.014507378 0.0022834965 0.013403512
000030 2f 31 63 bc f0 ef 9c 3c e3 1c bc 3a 55 51 24 bc
       -0.013866707 0.01915738 0.0014351871 -0.010029157
000040 a1 6d 38 3b f2 c2 dd b9 4e 07 31 bb 23 55 b6 3c
       0.0028141516 -0.0004229765 -0.002701241 0.022257393
000050 3b 29 a6 3c d0 72 dd 3a ad ed 47 3c 13 13 8f bb
       0.020283332 0.0016895179 0.012202662 -0.0043662875
000060 36 3d 0d bb f4 47 4a 3b 00 d7 4a 3b e7 e0 20 3c
       -0.0021551377 0.0030865641 0.0030950904 0.009819246
000070 fb a2 02 bb 49 e3 a5 bb 8d 2c e9 ba a5 84 bc ba
       -0.001993357 -0.005062495 -0.0017789766 -0.0014382793
000080 ab 2f 92 b8 e3 7b d3 3b 1d bc ab 3b 51 12 0a 3c
       -6.970701e-05 0.0064539774 0.0052409307 0.0084272185
000090 68 1b 90 bb dc d6 9a 3a 0b b4 40 3c 33 30 a8 3b
       -0.0043977983 0.0011813301 0.011761676 0.005132699
0000a0 65 88 e7 bb fa 0f d2 bb b1 78 93 bb 9f 80 70 bc
       -0.00706582 -0.006410596 -0.0045004715 -0.014679103
0000b0 28 31 50 bc 7c 2f a8 bb f3 2a 18 3c 5f d7 03 bc
       -0.012707032 -0.0051326137 0.009287584 -0.008046954
0000c0 4d 42 91 3b 20 46 a1 bc c2 4c d0 bb 12 00 e9 3a
       0.0044329525 -0.019686759 -0.0063568065 0.001777651
0000d0 1f 0d d4 bb 79 29 ca 3c 22 ea 26 ba a7 f5 93 bc
       -0.0064712907 0.024677979 -0.0006367286 -0.018061472
0000e0 3e b4 27 3c 39 d7 10 bc ba bc 12 3c c6 b0 95 bb
       0.010235844 -0.008840376 0.008956129 -0.004568192
0000f0 fb 1c be ba 5f b4 8e bb cf 9c 0d bb d5 36 74 37
       -0.0014504486 -0.004354998 -0.0021608358 1.45563e-05
000100 65 19 8b 3c 1b 4e e5 bb 0d 60 78 3b 75 65 cd 3b
       0.016979882 -0.0069978363 0.0037899048 0.006268198
000110 cb 54 91 bb 7b be 64 bc 9b 25 aa ba 84 6d 25 3c
       -0.004435157 -0.01396143 -0.0012981178 0.010096911
000120 97 08 8b 3b db 9e af bb 0b 89 83 bb f0 58 b9 bb
       0.0042429673 -0.005359513 -0.0040141395 -0.005656354
000130 91 60 ad 3b e8 37 01 bc 8a 18 08 3c a2 75 5a bc
       0.0052910526 -0.007886864 0.008306632 -0.01333371
000140 53 db 1c bc 8d cb 76 3b 15 41 ff 3b e3 d7 3f 3b
       -0.009573775 0.0037657947 0.007789741 0.0029272966
000150 e7 9b ed bb 13 df 73 ba 3c b2 af bc 93 da 0c bc
       -0.007251251 -0.0009302955 -0.021447293 -0.008597034
000160 8e 24 0e 3c 07 a8 05 bb 35 d7 10 3c d1 44 b3 3c
       0.0086757075 -0.0020394342 0.008840372 0.0218834
000170 ff d0 cd bb 78 15 52 ba 3a a4 2f bb b6 7e 3b 3c
       -0.006281018 -0.00080140634 -0.0026800768 0.011443784
000180 9f a4 41 bc 82 24 79 ba 2e d9 20 3c da 7b 68 3c
       -0.011819034 -0.0009504036 0.009817405 0.014189685
000190 ba 3b ae 3b 77 e0 f7 ba 65 6f 23 bb 07 16 81 3c
       0.0053171786 -0.00189115 -0.0024938222 0.015757574
0001a0 a6 fe 16 3c cb f9 85 3b 7a ad 57 3b 3f a7 35 3b
       0.009215986 0.0040886155 0.0032909797 0.0027718095
0001b0 e5 1a 76 bc 4f 2d 8a 3b e7 33 06 3c 6b da 20 bc
       -0.015021061 0.004216827 0.008191085 -0.0098177
0001c0 99 62 0c bc 3a 26 68 bc f3 0b e9 bb 6a cd f8 3b
       -0.008568429 -0.01416927 -0.00711202 0.0075928466
0001d0 ff e8 8a bb e8 59 68 bb db 97 9f 3b af 05 18 3c
       -0.004239201 -0.003545398 0.0048703975 0.009278699
0001e0 ad 4b 8c bc 5f 74 66 3b 02 0b c2 bb 63 b5 b1 ba
       -0.017125929 0.0035164577 -0.0059217224 -0.0013558086
0001f0 43 b6 e5 bc 4a cb 4a bc 7f 0f 9b 3b 68 44 dd bb
       -0.02804101 -0.012377569 0.004732072 -0.0067525394
000200 ef 40 3a 3c 33 2a fd 3b 77 4b eb bb 07 1b 77 3b
       0.01136802 0.007725978 -0.007180627 0.0037705319
000210 d5 87 ad bb 6f 48 a9 39 44 01 c1 3a d1 bc 24 bc
       -0.0052957335 0.0003228816 0.0014725109 -0.010054783
000220 3b c8 cb 39 f5 01 8d 3c 8f 5a 83 3c 69 6d b3 bb
       0.0003886836 0.017212847 0.016034393 -0.005475689
000230 c9 ca 9c bb e6 48 08 3c 60 d8 5b 3b 34 41 94 3b
       -0.004784916 0.008318162 0.0033545718 0.0045243744
000240 cf 0f 18 3c 6c 5b 0a ba 6a a5 b7 3a 38 60 16 3b
       0.009281113 -0.0005277905 0.0014011089 0.0022945534
000250 b1 b6 0a b9 eb 29 a8 3b 79 72 19 bb 77 f3 c9 bc
       -0.00013228763 0.00513195 -0.0023414178 -0.024652226
000260 1f 18 c3 3b 3b 07 3a bb d6 55 87 3c 72 09 9e bb
       0.005953803 -0.0028385657 0.016520422 -0.0048229033
000270 d0 eb db bb 1b 30 48 3c a7 34 9a 3c 0f 86 99 bb
       -0.0067114606 0.0122185005 0.018823935 -0.0046851705
000280 48 64 82 bb 94 39 8e bb 82 26 f4 bb 3f f2 df bb
       -0.0039792396 -0.00434036 -0.0074508796 -0.006834298
000290 1b 55 0a 3c db a7 16 3b 77 05 9f bb 2a 1e 89 3a
       0.008443142 0.0022988233 -0.0048529464 0.001046126
0002a0 11 13 ba 3b 43 46 cb bb 97 42 23 bc f3 0b c4 3a
       0.0056785424 -0.006203444 -0.009964607 0.0014957174
0002b0 d1 b0 30 bb d5 8c f0 3b 75 21 fe 38 54 a6 45 ba
       -0.002696086 0.0073410072 0.00012117896 -0.00075397384
0002c0 88 ac c3 bb cb 81 4f 3a e6 70 ba bb 58 dd 72 bc
       -0.005971495 0.0007915764 -0.005689728 -0.01482328
0002d0 96 87 0b 3c 2b 6e 9e bb c7 ba ce bb 8d ee 42 3a
       0.008516213 -0.0048349104 -0.0063088867 0.00074360595
0002e0 9d b9 c9 3b 43 bc 2d bc 44 b5 36 3c 85 cd 5b 3b
       0.00615616 -0.010603967 0.0111516155 0.0033539247
0002f0 93 98 15 bc 1f ea 7b 3b 28 78 70 bb e2 ca 02 bc
       -0.009130615 0.0038439108 -0.0036692712 -0.007982941
000300 0b 01 29 3c 35 39 8c bc 60 ee 38 bc b0 40 94 3b
       0.01031519 -0.017117122 -0.011287302 0.004524313
000310 1b 40 58 3b cf 26 8f bb 8f 59 93 bb 2b 57 8a bb
       0.0032997194 -0.00436864 -0.00449676 -0.004221817
000320 bb aa 08 39 dc 63 15 3c 52 03 09 3b 41 ed 0a ba
       0.00013033573 0.009118047 0.002090652 -0.0005299636
000330 0e 79 22 3c f4 5a 8a bc 56 1f 30 bc b5 60 b3 3a
       0.009916557 -0.016889073 -0.010749659 0.0013685437
000340 1e 2a a1 bb 65 c2 a3 3c 3b 4c 58 bb cc 0f 94 3c
       -0.004918351 0.019990155 -0.0033004421 0.018073939
000350 b7 46 b6 3b b4 3e 29 3c 6f e1 f3 bb cb d2 17 3c
       0.005562629 0.010329891 -0.0074426453 0.009266566
000360 a2 b2 da bb 23 80 13 bc 2e 8c 8d bc ca 5c 63 38
       -0.0066741267 -0.009002718 -0.017278757 5.4207434e-05
000370 7c 89 25 3c 92 07 88 bb 93 3f 3b 3c 02 32 e0 3b
       0.01010358 -0.004151293 0.0114287315 0.006841899
000380 ee 27 47 3c bb 3c 78 bc 14 19 bc 3b dd c9 db 3a
       0.012155516 -0.015151198 0.0057402942 0.0016768534
000390 53 df 5b 3b ef fb 8f 3b 33 f6 cd 3b c8 26 f1 3a
       0.003354986 0.0043940465 0.0062854527 0.0018398399
0003a0 2d 92 ac bb d3 d2 7b b5 cb db 08 bb ba ff 11 3c
       -0.005266449 -9.3811576e-07 -0.002088296 0.008911068
0003b0 77 bd 38 bc ff ae 7a bc 30 c5 91 bb 07 51 8c 3c
       -0.011275641 -0.015300511 -0.0044485554 0.01712848
0003c0 d3 9f 89 3b 8e 92 08 3a 83 a3 5c 3c 43 07 86 bb
       0.0041999607 0.00052098266 0.013466719 -0.004090221
0003d0 6b ac e7 bb c3 c8 3a 3b 85 a8 94 3c 15 e6 dc bb
       -0.0070701144 0.002850101 0.018146763 -0.006741295
0003e0 72 7e 09 bc 83 a3 68 bc 2b 82 b5 bb d0 6a 33 3c
       -0.008391963 -0.0141991405 -0.005539199 0.010950759
0003f0 15 fa e1 bb 4e e1 2c 3c e8 35 3d bb 27 1e 4c b9
       -0.006896267 0.010551764 -0.0028871242 -0.00019466189

network_body._body_endoder.seq_layers.0.bias f4 [128]
000000 00 00 00 00 00 00 00 00 00 00 00 00 00 00 00 00
       0.0 0.0 0.0 0.0
000010 00 00 00 00 00 00 00 00 00 00 00 00 00 00 00 00
       0.0 0.0 0.0 0.0
000020 00 00 00 00 00 00 00 00 00 00 00 00 00 00 00 00
       0.0 0.0 0.0 0.0
000030 00 00 00 00 00 00 00 00 00 00 00 00 00 00 00 00
       0.0 0.0 0.0 0.0
000040 00 00 00 00 00 00 00 00 00 00 00 00 00 00 00 00
       0.0 0.0 0.0 0.0
000050 00 00 00 00 00 00 00 00 00 00 00 00 00 00 00 00
       0.0 0.0 0.0 0.0
000060 00 00 00 00 00 00 00 00 00 00 00 00 00 00 00 00
       0.0 0.0 0.0 0.0
000070 00 00 00 00 00 00 00 00 00 00 00 00 00 00 00 00
       0.0 0.0 0.0 0.0
000080 00 00 00 00 00 00 00 00 00 00 00 00 00 00 00 00
       0.0 0.0 0.0 0.0
000090 00 00 00 00 00 00 00 00 00 00 00 00 00 00 00 00
       0.0 0.0 0.0 0.0
0000a0 00 00 00 00 00 00 00 00 00 00 00 00 00 00 00 00
       0.0 0.0 0.0 0.0
0000b0 00 00 00 00 00 00 00 00 00 00 00 00 00 00 00 00
       0.0 0.0 0.0 0.0
0000c0 00 00 00 00 00 00 00 00 00 00 00 00 00 00 00 00
       0.0 0.0 0.0 0.0
0000d0 00 00 00 00 00 00 00 00 00 00 00 00 00 00 00 00
       0.0 0.0 0.0 0.0
0000e0 00 00 00 00 00 00 00 00 00 00 00 00 00 00 00 00
       0.0 0.0 0.0 0.0
0000f0 00 00 00 00 00 00 00 00 00 00 00 00 00 00 00 00
       0.0 0.0 0.0 0.0
000100 00 00 00 00 00 00 00 00 00 00 00 00 00 00 00 00
       0.0 0.0 0.0 0.0
000110 00 00 00 00 00 00 00 00 00 00 00 00 00 00 00 00
       0.0 0.0 0.0 0.0
000120 00 00 00 00 00 00 00 00 00 00 00 00 00 00 00 00
       0.0 0.0 0.0 0.0
000130 00 00 00 00 00 00 00 00 00 00 00 00 00 00 00 00
       0.0 0.0 0.0 0.0
000140 00 00 00 00 00 00 00 00 00 00 00 00 00 00 00 00
       0.0 0.0 0.0 0.0
000150 00 00 00 00 00 00 00 00 00 00 00 00 00 00 00 00
       0.0 0.0 0.0 0.0
000160 00 00 00 00 00 00 00 00 00 00 00 00 00 00 00 00
       0.0 0.0 0.0 0.0
000170 00 00 00 00 00 00 00 00 00 00 00 00 00 00 00 00
       0.0 0.0 0.0 0.0
000180 00 00 00 00 00 00 00 00 00 00 00 00 00 00 00 00
       0.0 0.0 0.0 0.0
000190 00 00 00 00 00 00 00 00 00 00 00 00 00 00 00 00
       0.0 0.0 0.0 0.0
0001a0 00 00 00 00 00 00 00 00 00 00 00 00 00 00 00 00
       0.0 0.0 0.0 0.0
0001b0 00 00 00 00 00 00 00 00 00 00 00 00 00 00 00 00
       0.0 0.0 0.0 0.0
0001c0 00 00 00 00 00 00 00 00 00 00 00 00 00 00 00 00
       0.0 0.0 0.0 0.0
0001d0 00 00 00 00 00 00 00 00 00 00 00 00 00 00 00 00
       0.0 0.0 0.0 0.0
0001e0 00 00 00 00 00 00 00 00 00 00 00 00 00 00 00 00
       0.0 0.0 0.0 0.0
0001f0 00 00 00 00 00 00 00 00 00 00 00 00 00 00 00 00
       0.0 0.0 0.0 0.0

network_body._body_endoder.seq_layers.0.weight f4 [128, 126]
000000 15 38 84 bd 60 9f 27 bc 39 3a 74 3d bc 38 b0 3d
       -0.06456009 -0.010230869 0.059625838 0.08604571
000010 dd 5d 6a bd 2c 61 b0 3c 33 fa 72 bd 1a 48 09 3e
       -0.05721842 0.02153071 -0.05932064 0.13406411
000020 8e 3f 41 3c 12 40 cf 3d 57 68 8e 3e a0 3e a0 bd
       0.011794938 0.10119642 0.2781398 -0.07824445
000030 38 74 2a bc 8a 1e a0 bd 84 b1 85 bd ef c9 03 bb
       -0.010403685 -0.07818325 -0.06527999 -0.0020109375
000040 b6 0f 3b be 5c d7 c5 bc c6 60 ac 3d 7b 79 84 bd
       -0.18267712 -0.024150543 0.084168956 -0.06468483
000050 db 3e c8 bc a3 84 2a 3e 19 e6 04 bc 66 4d f2 3c
       -0.024444034 0.1665216 -0.0081115 0.029577922
000060 6e 81 a1 bd 6e 44 6a bd 66 88 86 3b 7f df dc 3d
       -0.07886015 -0.057194166 0.0041056154 0.10784816
000070 b7 fd 98 bd 9c 2d 33 3d ae 12 a0 bd 9f d2 7d bd
       -0.07470267 0.04374467 -0.07816063 -0.061968442
000080 2a b6 b0 3c 4f 36 a1 3d 00 48 14 3e 44 41 15 3d
       0.021571238 0.07871687 0.14480591 0.036439195
000090 17 59 8a 3d 48 90 d1 3c 8d f1 20 3d 03 98 2a bc
       0.06755274 0.025581494 0.03929286 -0.010412219
0000a0 f6 cb a2 bd 7f 6a e6 3c 58 36 2e bd 0c 6a 61 bd
       -0.07949059 0.028126953 -0.042532295 -0.055032775
0000b0 9c 0e 8a bc df 7d d8 bd 1e b7 45 bd f0 79 74 bd
       -0.01685267 -0.10570883 -0.048270337 -0.0596866
0000c0 60 2c 1c be 6e 21 48 bc a0 7f d0 3d 6e 09 0d 3e
       -0.15251303 -0.0122150015 0.101805925 0.13773128
0000d0 50 c5 d9 3d 0e ec 0f bd 74 ff d2 bb 4f ae bf 3d
       0.106333375 -0.03513723 -0.006439144 0.093594186
0000e0 bb 25 25 3e 5e 93 94 bd 93 24 1a 3e 71 4b 81 bc
       0.16127674 -0.072546706 0.15053014 -0.015783044
0000f0 5b e9 47 3c c4 08 dc bd d8 64 ae bc 4b 82 49 be
       0.012201632 -0.107438594 -0.02128832 -0.19678609
000100 06 79 d3 bd 41 d9 79 3c e4 58 72 bd 15 d4 27 be
       -0.10325818 0.015249551 -0.059166804 -0.16389497
000110 e8 c2 ae bd 86 b5 e2 3d a3 3d 85 bb e1 d7 20 bc
       -0.08533269 0.11069779 -0.0040661856 -0.009817095
000120 6f 1b ad bd 45 b8 fc 3c ce 69 22 bd 66 df fb bc
       -0.08452498 0.030849585 -0.039651684 -0.030746173
000130 60 3d a5 bd 31 b7 3b 3c d5 45 a6 3d d8 82 a3 bd
       -0.08068347 0.01145725 0.08118788 -0.07983941
000140 40 9f f5 bb 87 1f da b8 2c a0 c8 bc bd 88 56 bd
       -0.0074957907 -0.000104009225 -0.024490438 -0.052376498
000150 49 24 31 be ec 76 21 3d 67 b7 f3 3d 0f 7f b2 bc
       -0.17298998 0.039420053 0.119002156 -0.021789102
000160 0e 4b 0b 3e 98 2a 1e 3c d3 41 ee 3d ee ab ce 39
       0.1360285 0.00965371 0.11633649 0.0003941948
000170 f8 5e 4e 3e a0 06 f2 bc b0 eb e4 bd 29 d1 17 3e
       0.20153415 -0.029544175 -0.11177766 0.14825882
000180 45 43 2b 3e 8c e7 02 bd d7 c5 72 bc cb 24 ce bd
       0.1672488 -0.0319591 -0.0148176765 -0.100656115
000190 c1 4e 35 3e 97 95 bc 3d 6f b2 d7 bd b6 10 a5 3c
       0.17705823 0.092082195 -0.105320804 0.02014957
0001a0 f7 44 96 bc 87 ea 08 3e f0 7d 24 bd 3f 8b 0b 3e
       -0.018343432 0.13370715 -0.040159166 0.13627337
0001b0 51 92 4e bb 80 55 33 bc dc 5c 07 3e a4 5d 62 bd
       -0.0031520317 -0.010945678 0.13219017 -0.055265084
0001c0 0c 23 a4 3d b6 13 19 3e a3 0e 03 3e e9 c4 a9 bd
       0.08014497 0.14948925 0.12798552 -0.08289511
0001d0 1e b9 ec bd ab e1 1f be 98 3e 43 3e bb 4d 27 bd
       -0.11558746 -0.15613429 0.19066846 -0.040845614
0001e0 78 52 d4 3c 88 b6 20 bc 1b 42 2a 3e 8b 8c 47 3e
       0.02591823 -0.009809144 0.1662678 0.19487207
0001f0 b9 c3 4d be d4 cb 8c bc b0 7a 0b bd ae 28 90 bc
       -0.20094194 -0.017187037 -0.03405255 -0.017597523
000200 3d e1 1d 3e b4 cf 24 3e 47 f3 47 be b4 c1 cb bd
       0.15417953 0.16094857 -0.19526397 -0.09949055
000210 62 4b fa bd be e1 73 3d b7 68 28 bd 27 04 3c bd
       -0.122214094 0.059541456 -0.04111549 -0.045902397
000220 36 73 88 3b 79 83 24 3e 60 f8 d4 bc 59 ac 15 be
       0.004164125 0.16065778 -0.02599734 -0.14616527
000230 d8 32 b6 3d 89 94 a3 3d 2e e5 c7 ba bb 82 7b 3b
       0.088964164 0.07987315 -0.0015250796 0.0038377482
000240 97 31 d6 ba 62 12 19 be d3 73 30 bd 09 ee 57 bd
       -0.0016341683 -0.14948419 -0.04307921 -0.052717242
000250 a1 2f 0e be ae 88 d6 3c 16 87 06 be 34 24 0e bd
       -0.13885356 0.02618822 -0.13137469 -0.034702495
000260 08 ea 69 bc c0 b0 57 bd 45 b8 22 3e fb f5 6d 3e
       -0.014276989 -0.052658796 0.15890606 0.23238365
000270 2d a3 7f 3d 0f cd ff bc c1 f4 66 3e da d6 bd bd
       0.062411476 -0.03122571 0.22554304 -0.09269495
000280 8e 30 81 3c 0a a5 59 bd 83 91 aa 3d 91 0c a1 3d
       0.015770223 -0.05313591 0.083285354 0.07863725
000290 ae a3 05 3e 3f c9 4f 3e 02 13 c0 3d 2a 7f 7f bd
       0.1305072 0.20291613 0.093786255 -0.062377132
0002a0 ec 8c a9 bc ac 59 8f bd bb 05 be 3d 78 f2 06 be
       -0.02069708 -0.069995254 0.09278437 -0.13178432
0002b0 d7 47 22 3e 37 f3 02 bd 14 43 00 be 71 7d 4a 3c
       0.15847717 -0.03197023 -0.12525588 0.012359009
0002c0 28 18 04 be 45 9f c2 bd e0 9a 2b 3e 52 d9 3d bd
       -0.1289984 -0.095030345 0.16758299 -0.04634983
0002d0 15 e9 3d bc d7 38 24 bd c2 f1 00 be 0e 74 69 bc
       -0.011591216 -0.04009327 -0.12592223 -0.014248861
0002e0 01 a2 11 bd 5e f0 d9 3c 3f 1b 2f 3d 63 30 db 3d
       -0.03555489 0.026603874 0.042750593 0.107025884
0002f0 c9 c4 7f 3d 21 84 07 3c 01 24 1e bd 15 bd 84 bd
       0.06244353 0.008271248 -0.038608555 -0.06481377
000300 b8 cd ab bc 64 c0 67 bd cd 98 4b 3d 96 f1 8b 3d
       -0.020972118 -0.056579962 0.04970627 0.06833188
000310 dc a2 bd bd 79 cc f1 3c 80 ab 12 bd 6c e0 36 3c
       -0.092595786 0.029516445 -0.035808086 0.011161905
000320 1d 54 c3 3d 7b c7 ee bd b8 58 4b bd 25 38 8f bd
       0.09537528 -0.11659142 -0.049645156 -0.069931306
000330 23 0f 96 3d 13 45 76 bd 5c 2b 0c bd 8b 62 28 bd
       0.07327106 -0.060124468 -0.03422104 -0.041109603
000340 ac 35 f3 bd ff c4 4d 3c 40 28 35 3d b2 fb 81 3d
       -0.118754715 0.012559175 0.04422784 0.06346835
000350 71 d0 29 be 4e c0 9a 3d 64 a3 30 bd fc d6 89 3b
       -0.1658342 0.075562105 -0.04312457 0.0042065363
000360 58 81 19 be 76 14 04 be 92 97 a2 3d ea 12 1f 3e
       -0.14990747 -0.1289843 0.07939066 0.15534559
000370 51 05 49 3d cd 25 0f bd 2f 04 e3 bd 47 14 26 bd
       0.049077336 -0.03494816 -0.11084782 -0.04054668
000380 98 d3 95 bd 77 e0 22 3e 22 dc 1d bc 58 c2 9f 3d
       -0.07315749 0.15905939 -0.009635003 0.0780074
000390 51 22 a2 3a 9d 9d 63 3d c7 ba 03 be 29 22 4c 3e
       0.0012369846 0.055570234 -0.12864219 0.19934906
0003a0 f9 7d f5 bb 27 46 ef bd a8 62 3b 3d ed 0d 61 3c
       -0.0074918238 -0.116833024 0.045748383 0.01373623
0003b0 15 62 90 be 20 34 5e 3b e1 35 07 bd be 42 61 bc
       -0.2819983 0.003390558 -0.033010367 -0.013748823
0003c0 26 44 7b 3d 2d 3c 0f 3c ca ac b8 ba 6e 5c 29 3e
       0.06134429 0.008742374 -0.0014089581 0.16539165
0003d0 00 98 10 be 31 2a d7 bc ec d1 97 3d 60 b9 03 bc
       -0.14120483 -0.026265236 0.07413086 -0.008039802
0003e0 b2 d5 a7 3d 2f 52 15 be 90 61 fe bd 04 8d ce 3c
       0.08195056 -0.14582132 -0.12420952 0.025213726
0003f0 79 c2 6b bc e7 9a 47 3c da bc ee bd c8 f8 6a 3d
       -0.014389628 0.012182928 -0.11657114 0.057366163

network_body._body_endoder.seq_layers.2.bias f4 [128]
000000 00 00 00 00 00 00 00 00 00 00 00 00 00 00 00 00
       0.0 0.0 0.0 0.0
000010 00 00 00 00 00 00 00 00 00 00 00 00 00 00 00 00
       0.0 0.0 0.0 0.0
000020 00 00 00 00 00 00 00 00 00 00 00 00 00 00 00 00
       0.0 0.0 0.0 0.0
000030 00 00 00 00 00 00 00 00 00 00 00 00 00 00 00 00
       0.0 0.0 0.0 0.0
000040 00 00 00 00 00 00 00 00 00 00 00 00 00 00 00 00
       0.0 0.0 0.0 0.0
000050 00 00 00 00 00 00 00 00 00 00 00 00 00 00 00 00
       0.0 0.0 0.0 0.0
000060 00 00 00 00 00 00 00 00 00 00 00 00 00 00 00 00
       0.0 0.0 0.0 0.0
000070 00 00 00 00 00 00 00 00 00 00 00 00 00 00 00 00
       0.0 0.0 0.0 0.0
000080 00 00 00 00 00 00 00 00 00 00 00 00 00 00 00 00
       0.0 0.0 0.0 0.0
000090 00 00 00 00 00 00 00 00 00 00 00 00 00 00 00 00
       0.0 0.0 0.0 0.0
0000a0 00 00 00 00 00 00 00 00 00 00 00 00 00 00 00 00
       0.0 0.0 0.0 0.0
0000b0 00 00 00 00 00 00 00 00 00 00 00 00 00 00 00 00
       0.0 0.0 0.0 0.0
0000c0 00 00 00 00 00 00 00 00 00 00 00 00 00 00 00 00
       0.0 0.0 0.0 0.0
0000d0 00 00 00 00 00 00 00 00 00 00 00 00 00 00 00 00
       0.0 0.0 0.0 0.0
0000e0 00 00 00 00 00 00 00 00 00 00 00 00 00 00 00 00
       0.0 0.0 0.0 0.0
0000f0 00 00 00 00 00 00 00 00 00 00 00 00 00 00 00 00
       0.0 0.0 0.0 0.0
000100 00 00 00 00 00 00 00 00 00 00 00 00 00 00 00 00
       0.0 0.0 0.0 0.0
000110 00 00 00 00 00 00 00 00 00 00 00 00 00 00 00 00
       0.0 0.0 0.0 0.0
000120 00 00 00 00 00 00 00 00 00 00 00 00 00 00 00 00
       0.0 0.0 0.0 0.0
000130 00 00 00 00 00 00 00 00 00 00 00 00 00 00 00 00
       0.0 0.0 0.0 0.0
000140 00 00 00 00 00 00 00 00 00 00 00 00 00 00 00 00
       0.0 0.0 0.0 0.0
000150 00 00 00 00 00 00 00 00 00 00 00 00 00 00 00 00
       0.0 0.0 0.0 0.0
000160 00 00 00 00 00 00 00 00 00 00 00 00 00 00 00 00
       0.0 0.0 0.0 0.0
000170 00 00 00 00 00 00 00 00 00 00 00 00 00 00 00 00
       0.0 0.0 0.0 0.0
000180 00 00 00 00 00 00 00 00 00 00 00 00 00 00 00 00
       0.0 0.0 0.0 0.0
000190 00 00 00 00 00 00 00 00 00 00 00 00 00 00 00 00
       0.0 0.0 0.0 0.0
0001a0 00 00 00 00 00 00 00 00 00 00 00 00 00 00 00 00
       0.0 0.0 0.0 0.0
0001b0 00 00 00 00 00 00 00 00 00 00 00 00 00 00 00 00
       0.0 0.0 0.0 0.0
0001c0 00 00 00 00 00 00 00 00 00 00 00 00 00 00 00 00
       0.0 0.0 0.0 0.0
0001d0 00 00 00 00 00 00 00 00 00 00 00 00 00 00 00 00
       0.0 0.0 0.0 0.0
0001e0 00 00 00 00 00 00 00 00 00 00 00 00 00 00 00 00
       0.0 0.0 0.0 0.0
0001f0 00 00 00 00 00 00 00 00 00 00 00 00 00 00 00 00
       0.0 0.0 0.0 0.0

network_body._body_endoder.seq_layers.2.weight f4 [128, 128]
000000 c1 17 a2 3c ca f1 a7 bd fb bb 95 3c 5a de b5 bb
       0.019786717 -0.082004145 0.018278113 -0.005550188
000010 09 43 8d 3d a8 fd 11 be 90 e3 92 3d 93 de 02 3e
       0.068975516 -0.14256918 0.0717231 0.12780218
000020 65 9e 46 3e f4 c6 1d bd 16 41 98 3d 0b ed cc 3d
       0.1939636 -0.038519815 0.07434289 0.1000615
000030 a9 01 83 3d 80 d3 02 bc b6 73 ae bd 17 5e d4 3d
       0.06396801 -0.007984996 -0.08518164 0.10369509
000040 c9 5c db 3b ad e2 d4 bd c1 da 37 be 23 64 f3 3c
       0.0066944105 -0.103947975 -0.17954542 0.029710835
000050 b8 21 84 bd 90 7a e8 bc 4d e4 85 bb 11 82 1d 3c
       -0.06451744 -0.028378755 -0.0040860535 0.00961353
000060 7d 07 1d bd 22 25 e1 3d 84 08 a5 3d 20 a7 1d 3d
       -0.03833722 0.10993411 0.08058265 0.03848946
000070 29 1c 0a be 25 1e 00 3d 70 80 0b bd 75 7d e4 3d
       -0.13487305 0.031278748 -0.034058034 0.111567415
000080 e4 d7 16 3d 07 02 77 3c da f0 f3 bd 22 e9 d1 bc
       0.036826983 0.015076167 -0.11911173 -0.025623862
000090 e0 e1 f4 bd ed eb 0e 3d 43 3a 44 3d b1 fd a0 bd
       -0.11957145 0.034892965 0.047907125 -0.07860888
0000a0 8b 45 c8 bd 83 83 a8 bb 85 d2 97 bd 2c 93 34 bd
       -0.09778889 -0.0051426305 -0.074132 -0.044085667
0000b0 9b 60 1c 3d 0a fb dc bd 41 b0 d8 3a 98 fb 57 bb
       0.038178068 -0.107900694 0.001653202 -0.0032956358
0000c0 53 70 6d bb 3f c2 90 bd 9e b9 e3 3c 01 75 1a 3d
       -0.003623028 -0.070682995 0.02779847 0.03770924
0000d0 4e 0b e5 bd b5 43 0d 3d 9b ea 27 bb a5 ba 86 bd
       -0.11183797 0.0344884 -0.0025622013 -0.06578568
0000e0 88 3a fd 3c 10 6c 31 3c 96 da f4 bc 67 3d ac 3d
       0.030911699 0.010828987 -0.029889386 0.08410149
0000f0 65 3f 2a bd db 31 df bd d8 87 19 38 33 57 9a bc
       -0.041564364 -0.10898181 3.6604557e-05 -0.018840408
000100 11 98 ba bc 13 b8 1f 3d 9a c0 fe 3d db ef 17 bc
       -0.022777589 0.038993906 0.124390796 -0.009273495
000110 06 db 94 bd 61 62 07 3c 99 3e d4 bc 2c 70 1a bd
       -0.07268338 0.008263201 -0.025908755 -0.03770463
000120 af 31 72 bc b5 00 05 3e 4c 85 1e 3e c2 bd f0 bc
       -0.014782353 0.12988551 0.15480536 -0.029387359
000130 42 30 08 bd b8 21 04 3e 26 a0 0d 3d dd ef 08 be
       -0.033249147 0.12903488 0.034576558 -0.1337275
000140 8b 5d b2 3c 75 4d 0d bd bc 44 e3 3d 38 1f f4 3b
       0.02177312 -0.034497697 0.110970944 0.0074500106
000150 b6 74 c4 bd 5d 3d 11 3c 6b 6e 06 ba 81 34 a8 3d
       -0.09592573 0.008864728 -0.0005128148 0.08213139
000160 25 1e ab be 35 07 02 be 12 17 e7 3c dd 7d aa 3d
       -0.33421436 -0.12698062 0.028209243 0.08324788
000170 90 20 8a 3d 80 dc c0 bc c8 54 3e be 85 76 94 3d
       0.06744492 -0.023542643 -0.18587029 0.07249168
000180 af ad cf 3d 6c cb 4e 3c b2 04 14 3d 92 98 78 3d
       0.101405494 0.012621742 0.03613729 0.060692377
000190 ac 85 bf 3d 0f 2d 1d bd 55 3e a1 3d 19 74 93 3d
       0.09351668 -0.03837305 0.07873217 0.07199878
0001a0 76 7e 1c be 64 97 52 3d d8 90 24 bd b7 d0 d2 bd
       -0.15282616 0.05141391 -0.040177196 -0.102937154
0001b0 52 a3 64 bd 11 c0 e8 3c e5 a8 0c 3e 7b eb 18 3d
       -0.055819817 0.028411897 0.13736303 0.037333947
0001c0 d0 d0 04 bd 9d 43 1b bc ce 47 96 bd b9 91 f3 bd
       -0.0324257 -0.0094765695 -0.073379144 -0.11893029
0001d0 a2 c8 e4 3d 1e 97 72 bc 81 8f e2 bd 58 c7 8c bc
       0.1117108 -0.014806537 -0.110625274 -0.017184898
0001e0 3c 77 48 3e 38 3b 99 3d b7 ab 7c bd 1d 31 bc 3d
       0.19576734 0.07481998 -0.061687198 0.09189055
0001f0 e5 4e ad 3d 67 55 44 bd 6e c3 28 3e 5e d3 ed 3c
       0.084623136 -0.04793301 0.164808 0.029031452
000200 9c 60 25 bd 13 17 95 bd 89 99 6f bc d6 f5 95 bc
       -0.040375337 -0.07279792 -0.014624008 -0.0183057
000210 86 a4 26 3d 47 cb 49 be 16 73 9b 3c 10 d9 a2 bd
       0.040684246 -0.1970645 0.018975776 -0.07951558
000220 95 b6 cb 3d 87 10 90 bb e0 11 f0 bd de e8 85 3c
       0.09946934 -0.0043965015 -0.117221594 0.016346391
000230 16 e6 63 be bb bf 01 3c 58 53 91 bd d4 63 49 3c
       -0.2225574 0.007919247 -0.07095975 0.012291867
000240 ea e9 0d 3c 1f 19 d4 3a a4 02 94 3d e7 15 db bd
       0.0086617265 0.0016181803 0.07227066 -0.10697537
000250 9d 3f ce 3d c4 5c 83 3c b8 dc 87 bd 71 e2 99 3d
       0.10070727 0.016035445 -0.06633896 0.075138934
000260 d9 fe 41 3e 57 f1 21 3d 5e 1d b1 3d b8 86 a2 bd
       0.18944873 0.0395368 0.086481795 -0.07935852
000270 8a 45 3c 3d 1f 7b 16 3e 41 6a f3 3c d4 de 9a bb
       0.045964755 0.14695404 0.029713752 -0.00472627
000280 3b a2 95 3b 77 f7 8b 3d f4 76 f2 3d 56 f5 09 bb
       0.0045664585 0.068343095 0.11839095 -0.0021050773
000290 c8 54 17 bd f3 bb f8 bc bd 9f 85 3d 06 ff e6 ba
       -0.036946088 -0.030363059 0.06524608 -0.001762361
0002a0 68 46 f4 3d 4a 14 d7 bd 2d 52 88 bd 1f 9d ec 3d
       0.119274914 -0.10501917 -0.06656299 0.11553406
0002b0 9d 94 ad bd bd c0 fb bd c0 8e 68 3d b9 58 6f bd
       -0.08475611 -0.12292621 0.056776762 -0.058434222
0002c0 27 f4 e0 3c 13 51 4a bd af 5d c9 3c 58 14 7b bd
       0.02746017 -0.049393725 0.024580805 -0.0612987
0002d0 06 26 45 3e c5 b1 b6 3d 1e 7a 81 bc 27 6b 96 bd
       0.19252786 0.089206256 -0.0158053 -0.073446564
0002e0 12 57 5a 3c f9 b4 a1 3d 83 bd 81 bd 9f f9 22 3d
       0.013326423 0.07895846 -0.063349746 0.03978884
0002f0 f2 4a 94 bd 36 d9 9d bd 89 1f 3a 3d 83 6e c3 bd
       -0.07240857 -0.07707445 0.04544023 -0.09542563
000300 69 92 2a 3e df da 8e bd 98 3d ac bd 22 01 e0 3d
       0.16657414 -0.0697534 -0.084101856 0.10937716
000310 50 38 22 3e 1f ae 8e bd c6 98 0d 3c 30 fa 41 be
       0.15841794 -0.06966805 0.008642381 -0.18943095
000320 2d 93 a6 bd aa e4 5e be 20 f6 18 be 6c 0e 1d 3d
       -0.0813354 -0.21766916 -0.14937639 0.038343832
000330 f5 d9 87 3d 99 27 f0 3d c4 64 e7 bd 68 6e c0 bd
       0.06633369 0.11726303 -0.112985164 -0.09396058
000340 d7 ee db 3d 8f a9 87 3d e2 34 17 3d 6a 93 86 bb
       0.107389145 0.066241376 0.036915667 -0.0041069286
000350 85 85 0a bc b0 4b 90 bd 6a 97 a2 bc 7b 36 f8 bd
       -0.008454685 -0.07045686 -0.01984759 -0.12119766
000360 f7 a2 03 bd e2 9b 90 3c e5 4f e7 3c 25 cb e3 bc
       -0.032137837 0.017652456 0.028236339 -0.027806828
000370 d9 c4 90 bd 52 1c 15 be e3 87 91 3d a7 5d 6c 3e
       -0.07068796 -0.14561585 0.071059965 0.230826
000380 cb b0 da 3c 95 00 12 3e 9e 6b e2 bd ca 51 56 be
       0.02669563 0.14258035 -0.110556826 -0.20929638
000390 3a 66 1b 3d bb 9d 64 bd 97 91 9e 3d c3 be 05 be
       0.037939288 -0.055814486 0.07742613 -0.13061051
0003a0 b8 a5 44 3e ca ec ee 3c d9 ef 63 3d 32 ff 0d 3d
       0.19203842 0.029165644 0.05564866 0.0346672
0003b0 d8 15 79 3d 92 7a e5 bd da 8e 5d 3d c4 45 e0 3c
       0.060811847 -0.11205019 0.054091312 0.027377017
0003c0 9d 8a f2 bd 8c d4 76 3d 2c d1 7c 3d 4a 69 75 bd
       -0.11842845 0.060261294 0.06172292 -0.059914865
0003d0 8e b7 92 bd d8 84 f6 3d 7a b8 58 bd f2 e1 25 3d
       -0.071639165 0.12037057 -0.052910306 0.04049868
0003e0 39 a8 eb bc 84 36 af 3c b2 5f 2b 3c d9 96 4c bd
       -0.028766738 0.0213883 0.010459827 -0.049948547
0003f0 61 4c 75 bc 67 d8 ed 3c 1b 18 18 be c3 c6 81 3d
       -0.014971823 0.029033853 -0.14852946 0.06336739
