results/ppo/MlAgent/MlAgent-3124.onnx (onnx, 99977 bytes, 6 tensors)

action_model._discrete_distribution.branches.0.bias f4 [4]
00000000: 0000 0000 0000 0000 0000 0000 0000 0000
0.0 0.0 0.0 0.0

action_model._discrete_distribution.branches.0.weight f4 [4, 128]
00000000: 352f 753a 9b44 833c 0b12 c63b 7c18 a23c
00000010: 8b13 bebc 26d0 0abc 5741 e5bb 8f90 953b
00000020: 0385 f5bb 68db a03b d7e1 58bb 0818 6e3a
00000030: 10c4 a03b a81e e9bb 3f72 a93a 63ab f93b
00000040: 5b34 213c 3b39 75ba aeb2 93bb 558f fc38
00000050: ee75 433b 143a 0e3c 1bae ac3b 67a2 cd3a
00000060: f5bf 323c c7fa 2fbc 5e0c 1fbc b8e7 1f3c
00000070: 8291 6b3c 05c6 c3ba 9d57 133c 99f3 09bc
00000080: b431 1bbc 2858 2b3c b715 213c 7f7e bebb
00000090: 48a9 1a3b ad95 5e3c 5541 d83b 0584 ed3b
000000a0: 2d1c 023c 9d08 22bc 0e48 41bc 7372 9e3c
000000b0: 22ee 713b df09 1f3c 0ec9 453c 9ab7 d73b
000000c0: 2be4 dab9 9d3d 333b b280 5c3b d09f 5a3c
000000d0: 9b38 b1bb 48af f83b fc3d 373c d0ec acbb
000000e0: a84b 51bb cf81 db3b cfc6 26bc d6f9 8e3b
000000f0: 9fbe 3f3c 08d7 96bb eb8a 583c ba76 4c3b
00000100: ad80 593c ae4f 42bb 4b94 223a 954b 56bc
00000110: 38e7 fabb 99d4 a23b d622 803b 3bbd 22bb
00000120: 7053 87bb b706 f1b9 ea6e e33a b588 693c
00000130: 7993 2bbb 304f 7bb9 482b a7ba 8067 8cb9
00000140: 07ef 8abc b702 4abb 858d bd3a 6fc0 c9bb
00000150: afe1 b4bb bfb7 29bb 0041 5cbc d2e1 bf3b
00000160: 5788 9abb bf92 18bb fe75 1dbb 2daf e4bb
00000170: a0cc 893b b1a1 0fba 25ee a23a 7599 7c3c
00000180: 479e 6fbb e4e3 ba3a b0d9 643c 8215 e33a
00000190: d6c5 22bb 1482 873c 3982 a13b a34d b73b
000001a0: 8ff0 79bb e153 26bc 08a0 50bc 58e1 0cbc
000001b0: 73d5 2e3c 0306 4b3c 37f6 aa3b a3b4 9f3b
000001c0: 19bb a93b c3b0 25bc a30f ac3a 57e2 0abc
000001d0: ff37 ab3b ee88 a7bb 8972 2ebb bdd0 ddbb
000001e0: 9bde 5a3c 5f94 74bc ad51 54ba 4b75 f7bb
000001f0: 705a 85bb eb62 793c 4bb6 9ab9 cc49 a43c
00000200: d06f 04b9 7d30 8ebc 822a 4f3c fbb7 023c
00000210: 8094 153c 63ba f2bb ed5e 60bb 60c9 dd3a
00000220: a2ad c13c 329d d2ba bbfc 45bc fc33 8abb
00000230: bdb2 dd3a 86de 89bb f7b8 fe3b 1bb8 f9bb
00000240: e640 93ba 1795 903a 6f73 033b 7b09 5b3c
00000250: 7728 3c3b 494c 04bb ddd8 73bc fafb b7bb
00000260: c1ba 47bc 04d3 3cbc 2fc7 a7bb 17a7 1dba
00000270: e585 f2bb cffa b8bc 79cd 0e3b 6782 f8bb
00000280: 836d bc3b 5bba 92bb 4286 623c ae18 94bb
00000290: c242 7abb a4d7 1c3b 5a36 e6b9 6531 10bc
000002a0: 3f4f d83b bc0d ad3b ab6a a2bb 6687 1b3b
000002b0: ddc4 443c 7f75 3d3b a6b6 28bb 7704 41bc
000002c0: bf60 183b e876 8939 5efe 123b 7abf 5eba
000002d0: d230 0c3b e7ba 4ebb 123a 923a f582 583c
000002e0: af7e 35bc 683d 9bbb 19f3 9bbc b8df 12bc
000002f0: ef83 213b 957b d5ba 9da1 68bc 8f22 453a
00000300: 67dd 183b d7dc 1fbc cfb9 893c 9349 0e3c
00000310: d3b9 69bb e81f 13bc 5ff0 503c 1c23 063c
00000320: f314 7e3c 80b3 32bc bcfa 043c 1fda 693c
00000330: be2a 4a3c 54e9 aa3b 586c fabb 3cc3 813b
00000340: 1247 493b 45f9 073c 493b 933c 3a45 213b
00000350: 7362 d63b 1334 61bc 604b 103c d521 ebbb
00000360: 6ef8 2a3c 3b4a bc3a 45e2 683c 1662 b9bb
00000370: 0b6c 22bc f07b 5d3b abc6 afbc db4f 08ba
00000380: 64da 003c 6ae8 62ba 9521 8d3c 9340 853c
00000390: 079e 54bb d2ef 36bc 2394 e4bb bf76 3abc
000003a0: eebb 49bb 6375 38bb db48 a2bb 97f8 05bc
000003b0: 850a 6d38 e35d dabb 771d bf3a 15af 56bc
000003c0: 0b43 0bbb 672a beba 5fa8 a73c d765 09ba
000003d0: f84e 003c 7094 83bb 5959 1539 328b 5e3c
000003e0: d5f8 693b cf0e 063c baa2 603c b3e7 c2bb
000003f0: 9fd9 58bc d757 023b 0814 f23b b53c 9e3b
0.00093530427 0.016023925 0.0060446314 0.019787066 -0.023202678 -0.008472478 -0.0069963145 0.004564352
-0.007492663 0.0049089678 -0.0033093595 0.00090825604 0.004906185 -0.00711425 0.0012927725 0.007619308
0.009839143 -0.00093545363 -0.0045073843 0.00012042994 0.002982493 0.008680839 0.0052697784 0.0015688658
0.010910024 -0.010740942 -0.009707538 0.009759836 0.0143779535 -0.0014936334 0.008993057 -0.008419895
-0.009472299 0.01045803 0.009831837 -0.0058134194 0.0023599435 0.01358549 0.006599585 0.007248404
0.007941288 -0.009889749 -0.011796964 0.019341683 0.003691562 0.009706943 0.012071861 0.0065831663
-0.000417502 0.0027349957 0.0033646044 0.013343766 -0.005408359 0.0075892545 0.011184212 -0.0052772537
-0.0031935964 0.006698824 -0.010179236 0.004363279 0.011703162 -0.0046032704 0.013216714 0.0031198696
0.013275308 -0.0029649544 0.0006201907 -0.013079544 -0.007656958 0.0049691913 0.003910403 -0.0024832028
-0.0041298196 -0.00045972105 0.001735178 0.014253785 -0.002618043 -0.00023966725 -0.0012753988 -0.00026779994
-0.01695968 -0.0030824372 0.0014461732 -0.006156973 -0.0055200676 -0.0025896875 -0.013443232 0.0058557773
-0.00471596 -0.0023280827 -0.0024026628 -0.0069788904 0.0042053014 -0.0005479111 0.0012430592 0.015417446
-0.0036562847 0.001425859 0.013967916 0.0017325135 -0.0024837158 0.016541518 0.004928854 0.005593972
-0.003813777 -0.010151834 -0.012733467 -0.008598648 0.010671007 0.01239157 0.0052173394 0.0048738285
0.0051797745 -0.010112944 0.0013127219 -0.008476815 0.005225181 -0.005112759 -0.0026618561 -0.0067692683
0.013358737 -0.014927953 -0.0008099329 -0.007551824 -0.004069619 0.015221338 -0.00029508988 0.02005472
-0.00012630154 -0.017357105 0.012644412 0.007978435 0.009129643 -0.007407473 -0.0034236268 0.0016920976
0.023642365 -0.0016068576 -0.012084181 -0.004217623 0.001691423 -0.004207435 0.0077735144 -0.007620824
-0.0011234551 0.001103076 0.0020057817 0.01336896 0.0028710642 -0.002018707 -0.014883247 -0.0056147547
-0.012190522 -0.011524919 -0.00512018 -0.0006013973 -0.0074012154 -0.022580532 0.0021789952 -0.0075839045
0.0057503595 -0.0044777817 0.013825955 -0.0045195436 -0.0038186763 0.0023932243 -0.00043909514 -0.008800839
0.0066012437 0.0052811783 -0.0049565635 0.0023731827 0.0120098265 0.0028909144 -0.0025743633 -0.01178085
0.0023251025 0.00026219268 0.0022429447 -0.000849716 0.0021391404 -0.0031544508 0.0011156222 0.013214816
-0.011077567 -0.004737545 -0.019036816 -0.0089644715 0.002464529 -0.0016287441 -0.014198688 0.0007520103
0.0023325325 -0.009757242 0.016812233 0.008684534 -0.0035663738 -0.008979775 0.012752621 0.008187082
0.015507924 -0.010907054 0.00811642 0.0142731955 0.012339292 0.005215803 -0.00764231 0.0039600413
0.0030712527 0.008299177 0.017972605 0.0024607913 0.006542498 -0.013745326 0.008807033 -0.007175664
0.010435207 0.0014365384 0.014214103 -0.0056574447 -0.009913455 0.0033795796 -0.021457037 -0.00051998877
0.007864568 -0.0008655848 0.017227927 0.016266143 -0.0032442824 -0.011165576 -0.006975667 -0.01138085
-0.003078218 -0.002814614 -0.0049525327 -0.008176944 5.6515e-05 -0.006664024 0.0014580925 -0.013103266
-0.0021249678 -0.0014508486 0.020466028 -0.00052413106 0.007831328 -0.004015498 0.00014243032 0.013582991
0.0035701294 0.008182242 0.013710672 -0.005948031 -0.013235479 0.0019888782 0.007387642 0.004829014

network_body._body_endoder.seq_layers.0.bias f4 [128]
00000000: 0000 0000 0000 0000 0000 0000 0000 0000
00000010: 0000 0000 0000 0000 0000 0000 0000 0000
00000020: 0000 0000 0000 0000 0000 0000 0000 0000
00000030: 0000 0000 0000 0000 0000 0000 0000 0000
00000040: 0000 0000 0000 0000 0000 0000 0000 0000
00000050: 0000 0000 0000 0000 0000 0000 0000 0000
00000060: 0000 0000 0000 0000 0000 0000 0000 0000
00000070: 0000 0000 0000 0000 0000 0000 0000 0000
00000080: 0000 0000 0000 0000 0000 0000 0000 0000
00000090: 0000 0000 0000 0000 0000 0000 0000 0000
000000a0: 0000 0000 0000 0000 0000 0000 0000 0000
000000b0: 0000 0000 0000 0000 0000 0000 0000 0000
000000c0: 0000 0000 0000 0000 0000 0000 0000 0000
000000d0: 0000 0000 0000 0000 0000 0000 0000 0000
000000e0: 0000 0000 0000 0000 0000 0000 0000 0000
000000f0: 0000 0000 0000 0000 0000 0000 0000 0000
00000100: 0000 0000 0000 0000 0000 0000 0000 0000
00000110: 0000 0000 0000 0000 0000 0000 0000 0000
00000120: 0000 0000 0000 0000 0000 0000 0000 0000
00000130: 0000 0000 0000 0000 0000 0000 0000 0000
00000140: 0000 0000 0000 0000 0000 0000 0000 0000
00000150: 0000 0000 0000 0000 0000 0000 0000 0000
00000160: 0000 0000 0000 0000 0000 0000 0000 0000
00000170: 0000 0000 0000 0000 0000 0000 0000 0000
00000180: 0000 0000 0000 0000 0000 0000 0000 0000
00000190: 0000 0000 0000 0000 0000 0000 0000 0000
000001a0: 0000 0000 0000 0000 0000 0000 0000 0000
000001b0: 0000 0000 0000 0000 0000 0000 0000 0000
000001c0: 0000 0000 0000 0000 0000 0000 0000 0000
000001d0: 0000 0000 0000 0000 0000 0000 0000 0000
000001e0: 0000 0000 0000 0000 0000 0000 0000 0000
000001f0: 0000 0000 0000 0000 0000 0000 0000 0000
0.0 0.0 0.0 0.0 0.0 0.0 0.0 0.0
0.0 0.0 0.0 0.0 0.0 0.0 0.0 0.0
0.0 0.0 0.0 0.0 0.0 0.0 0.0 0.0
0.0 0.0 0.0 0.0 0.0 0.0 0.0 0.0
0.0 0.0 0.0 0.0 0.0 0.0 0.0 0.0
0.0 0.0 0.0 0.0 0.0 0.0 0.0 0.0
0.0 0.0 0.0 0.0 0.0 0.0 0.0 0.0
0.0 0.0 0.0 0.0 0.0 0.0 0.0 0.0
0.0 0.0 0.0 0.0 0.0 0.0 0.0 0.0
0.0 0.0 0.0 0.0 0.0 0.0 0.0 0.0
0.0 0.0 0.0 0.0 0.0 0.0 0.0 0.0
0.0 0.0 0.0 0.0 0.0 0.0 0.0 0.0
0.0 0.0 0.0 0.0 0.0 0.0 0.0 0.0
0.0 0.0 0.0 0.0 0.0 0.0 0.0 0.0
0.0 0.0 0.0 0.0 0.0 0.0 0.0 0.0
0.0 0.0 0.0 0.0 0.0 0.0 0.0 0.0

network_body._body_endoder.seq_layers.0.weight f4 [128, 57]
00000000: e103 89bd 90af ab3d 9810 f1bc 8c5c 8c3d
00000010: 4688 833c 2ba5 243e 13a5 823e 429d 8a3c
00000020: 2eae 183e b6b9 e9bd c100 fb3d aee3 2bbc
00000030: 2753 d53d db13 64be 49c3 3c3b 488d 743b
00000040: 9782 873d e9ff eebd 4dd1 2b3e 7ea5 6e3d
00000050: c512 38bd 7746 f7bd 1559 98bd 7604 403e
00000060: 9398 08bd f59c f93d 1a3d 393e 135c 123d
00000070: 2f36 393d ce3f 8b3d fb3c 30be 203e 833d
00000080: 092f 463d 9a17 22be 9467 a2be 4eea c53d
00000090: 5dc7 ec3d d9a6 7cbd fef0 ddbd 0545 b5bc
000000a0: 87f8 34bc 0b29 ebbd b0bd 1abb 6b8a 8f3c
000000b0: cbd1 2c3e 9015 a3bd 60fd e43d 411d 81bc
000000c0: 4710 5fbe 10bf ae3d 9989 4bbd e29f 54be
000000d0: 398e 57bb 4999 9c3b 7a77 133e d8b7 36b9
000000e0: c770 5bbe 4ed5 d7bc af72 0fbe e74a dabd
000000f0: 3bed 07be 0fd4 9f3e 7aef 52bd 9a8c efbd
00000100: 7413 ebbc 6ec6 0fbe da20 55bd 84f5 d03d
00000110: 85c8 7b3e c585 07be 7c0b 36bd 8e38 5e3e
00000120: 2018 6bbe 033f 96bd c103 5d3e 63bd f5bc
00000130: 711d c03d dc76 363e 92ce 003e 05c3 aabd
00000140: b2c2 3bbe b5a6 d1bd 39e7 1e3e 7e4d a53e
00000150: cc43 3f3e ad2c a4bd 637c 9b3d 967f 813e
00000160: 116f 3cbe a675 023d 5633 7cbe caa8 2d3e
00000170: bffa 4a3c b4d2 64bd 2801 0ebe 1b1b 3ebe
00000180: 95bd 5fbe fa30 4fbc be7c 893e 05cf fcbd
00000190: bb85 0f3e 9ab4 adbd a61b a73e 7a6e 00be
000001a0: f24c 923d 0e3d 6e3e f93a 823d f9ea 633d
000001b0: 796b 6e3d 3de6 893e ea81 f7bb d688 4bbe
000001c0: 0f12 01be 9a29 b83d 3f00 b13c e950 72bd
000001d0: 77cb 0fbe ce5d 31bd 8161 1cbe cc3b 38be
000001e0: a190 173e e072 a7bd 32c7 04be 4271 b63d
000001f0: 00f9 983d ed8a e9bc 860a cdbc 0e2f 8bbd
00000200: 5bf0 193e 99ad 3abe e857 02bd 2635 0c3e
00000210: 8e82 26be 9a3a 1abe c662 0cbe b24d 1fbe
00000220: ab8f 91be 6d37 3d3e c413 d0bb aca2 9bbc
00000230: a8e9 8abd 2365 093e 0f0f 143d a8ee 2d3d
00000240: 4cdb aebc a126 963c 6ded 18be 2a9a 0ebe
00000250: 2ac7 683e 4393 a63d 599e b8bd 7e65 80bd
00000260: ab63 813d 053b 5c3d 42e2 eb3c 4045 99bb
00000270: f09d fdbd 0ee2 2d3d a08c bfbd 3c63 b53d
00000280: 40de 7cbc dc5e 663d 3ef4 6a3e 77de 583e
00000290: 13ce 863e 50d8 853e 3352 b5bd 35ff b13d
000002a0: f8e1 7a3c 007a ecbd e5cc de3b b0ee 483e
000002b0: 74f4 99bd fc9e 8fbd 5b18 8f3d 9fac e1bd
000002c0: 06fa a23d 7b54 13be 5919 c13d e14e 2b3d
000002d0: c2be 8ebd aa88 a9bc 5a1d 82bd 3312 a43d
000002e0: 92bf 203e dc37 043e b6e8 513e 8567 353e
000002f0: 5142 0c3e 2c3f b33a 1656 1f3e 82b9 41be
00000300: f3f3 0d3e ae5e 3c3d c9ec 38bb 86e3 1fbd
00000310: d4d1 543d 3ff7 dc3d 5a8e e3bc f8be db3b
00000320: 89f0 a2bb 3ff8 823d ebaf c53c 934e cebd
00000330: ce34 5f3c a492 873d 617d 25bd 060b d9bd
00000340: 78e0 193e 6326 a3bd 3a2a 053d 11f3 fe3c
00000350: 50ec 4a3e d101 353d 0a6d d23d 1065 403d
00000360: f0a3 733c dae7 d5bd c6dd f83c 9311 9a3d
00000370: fcaa 9b3c fd1d e7bd 1865 f33b 639a 263c
00000380: b9c2 e8bd 8c3b c33d 8cb2 d3bc 4cc7 2bbe
00000390: b950 c7bd 3c32 f93d 1115 a7bc f245 e1bd
000003a0: 32df d53d b85f bb3d 7ba9 983d aa15 b93e
000003b0: bcf3 22be e67a bb3d f61f 4ebe 909b 133e
000003c0: ca5f 54be 5ce4 bc3d 076b 80bb cbed 103d
000003d0: 06c4 ddbc 29fe 3fbe 5f3e 76be bc90 80be
000003e0: 629d 3abe 56d8 7ebe 0b17 99bd 5142 9f3d
000003f0: 66e9 cebc 6b2f 083e ba45 4fbd c79d 9f3c
-0.06690193 0.08383095 -0.029426858 0.068535894 0.016056191 0.16078632 0.25516567 0.01692069
0.14910194 -0.11412375 0.12256003 -0.010491295 0.10416251 -0.222732 0.0028802922 0.0037315655
0.06616705 -0.11669905 0.1677906 0.058263294 -0.044939775 -0.12073987 -0.07438866 0.18751702
-0.03334863 0.1218814 0.18089715 0.03573234 0.04521769 0.06799279 -0.17210762 0.06408334
0.0483847 -0.15829316 -0.3171965 0.09663831 0.11561463 -0.061682556 -0.10836981 -0.022127638
-0.011045582 -0.11482438 -0.0023611598 0.017522058 0.16876905 -0.07963097 0.1118114 -0.01576102
-0.21783553 0.08532536 -0.04969177 -0.20764115 -0.0032891168 0.004779015 0.14401045 -0.0001742536
-0.2142974 -0.026346829 -0.14008592 -0.10658818 -0.1327409 0.31216475 -0.051497914 -0.116967395
-0.0286958 -0.14040539 -0.052033283 0.102030784 0.24588211 -0.13234623 -0.044444546 0.21701261
-0.22958422 -0.07336237 0.21583463 -0.029997533 0.093806155 0.17818779 0.125788 -0.08337978
-0.18335989 -0.10236875 0.15517892 0.32285684 0.18678206 -0.08016334 0.07592084 0.25292653
-0.18401743 0.03185048 -0.24628958 0.16958919 0.012388884 -0.055865005 -0.13867629 -0.18565027
-0.21849664 -0.012645954 0.26852983 -0.12344173 0.14015858 -0.08481713 0.32638282 -0.12542143
0.071435824 0.23265478 0.063589044 0.05564401 0.058207963 0.2693347 -0.0075533288 -0.19876418
-0.12604545 0.0899231 0.021606563 -0.059159193 -0.1404246 -0.04330235 -0.1527157 -0.1799156
0.14801265 -0.081762075 -0.12966612 0.08908321 0.07469368 -0.028508628 -0.025029432 -0.06796084
0.15033095 -0.18230285 -0.031822115 0.1369215 -0.1626074 -0.15061417 -0.13709554 -0.15556982
-0.28429922 0.18478175 -0.0063500125 -0.018998466 -0.06782848 0.13417487 0.036147173 0.04246393
-0.021344803 0.018328967 -0.14934321 -0.13925996 0.22732225 0.08133557 -0.090145774 -0.06269358
0.06317838 0.053767223 0.028794412 -0.0046774447 -0.1238364 0.04245191 -0.09352994 0.08856818
-0.015433848 0.05624281 0.22944734 0.21178614 0.26329097 0.26141596 -0.08853569 0.08691255
0.015312664 -0.11546707 0.0067993277 0.19622302 -0.07517329 -0.07012746 0.06987067 -0.11019253
0.079578444 -0.14387695 0.09428663 0.04182327 -0.06969978 -0.02069505 -0.063532546 0.08011284
0.15698078 0.12911934 0.20498928 0.17715271 0.13697173 0.0013675443 0.15560183 -0.18918422
0.1386259 0.04598873 -0.0028217307 -0.039035343 0.05195792 0.10789346 -0.02777784 0.006706115
-0.0049725217 0.063950054 0.024131736 -0.100735806 0.013623429 0.06619766 -0.040402774 -0.10597806
0.15027034 -0.07966306 0.032510974 0.031121762 0.19816709 0.044191185 0.10274704 0.04697138
0.014870629 -0.10444613 0.030379187 0.07522883 0.01900243 -0.11285017 0.007427823 0.010168645
-0.113652654 0.09532842 -0.025841974 -0.16775244 -0.097321935 0.121677846 -0.020395787 -0.10999669
0.10442962 0.09149116 0.07454201 0.3614934 -0.1591329 0.091543004 -0.2012938 0.14414811
-0.20739666 0.092232436 -0.0039190087 0.035383027 -0.02707101 -0.18749298 -0.2404723 -0.25110424
-0.182241 -0.24887213 -0.07475098 0.07776321 -0.025257777 0.13299339 -0.050603606 0.019484414

network_body._body_endoder.seq_layers.2.bias f4 [128]
00000000: 0000 0000 0000 0000 0000 0000 0000 0000
00000010: 0000 0000 0000 0000 0000 0000 0000 0000
00000020: 0000 0000 0000 0000 0000 0000 0000 0000
00000030: 0000 0000 0000 0000 0000 0000 0000 0000
00000040: 0000 0000 0000 0000 0000 0000 0000 0000
00000050: 0000 0000 0000 0000 0000 0000 0000 0000
00000060: 0000 0000 0000 0000 0000 0000 0000 0000
00000070: 0000 0000 0000 0000 0000 0000 0000 0000
00000080: 0000 0000 0000 0000 0000 0000 0000 0000
00000090: 0000 0000 0000 0000 0000 0000 0000 0000
000000a0: 0000 0000 0000 0000 0000 0000 0000 0000
000000b0: 0000 0000 0000 0000 0000 0000 0000 0000
000000c0: 0000 0000 0000 0000 0000 0000 0000 0000
000000d0: 0000 0000 0000 0000 0000 0000 0000 0000
000000e0: 0000 0000 0000 0000 0000 0000 0000 0000
000000f0: 0000 0000 0000 0000 0000 0000 0000 0000
00000100: 0000 0000 0000 0000 0000 0000 0000 0000
00000110: 0000 0000 0000 0000 0000 0000 0000 0000
00000120: 0000 0000 0000 0000 0000 0000 0000 0000
00000130: 0000 0000 0000 0000 0000 0000 0000 0000
00000140: 0000 0000 0000 0000 0000 0000 0000 0000
00000150: 0000 0000 0000 0000 0000 0000 0000 0000
00000160: 0000 0000 0000 0000 0000 0000 0000 0000
00000170: 0000 0000 0000 0000 0000 0000 0000 0000
00000180: 0000 0000 0000 0000 0000 0000 0000 0000
00000190: 0000 0000 0000 0000 0000 0000 0000 0000
000001a0: 0000 0000 0000 0000 0000 0000 0000 0000
000001b0: 0000 0000 0000 0000 0000 0000 0000 0000
000001c0: 0000 0000 0000 0000 0000 0000 0000 0000
000001d0: 0000 0000 0000 0000 0000 0000 0000 0000
000001e0: 0000 0000 0000 0000 0000 0000 0000 0000
000001f0: 0000 0000 0000 0000 0000 0000 0000 0000
0.0 0.0 0.0 0.0 0.0 0.0 0.0 0.0
0.0 0.0 0.0 0.0 0.0 0.0 0.0 0.0
0.0 0.0 0.0 0.0 0.0 0.0 0.0 0.0
0.0 0.0 0.0 0.0 0.0 0.0 0.0 0.0
0.0 0.0 0.0 0.0 0.0 0.0 0.0 0.0
0.0 0.0 0.0 0.0 0.0 0.0 0.0 0.0
0.0 0.0 0.0 0.0 0.0 0.0 0.0 0.0
0.0 0.0 0.0 0.0 0.0 0.0 0.0 0.0
0.0 0.0 0.0 0.0 0.0 0.0 0.0 0.0
0.0 0.0 0.0 0.0 0.0 0.0 0.0 0.0
0.0 0.0 0.0 0.0 0.0 0.0 0.0 0.0
0.0 0.0 0.0 0.0 0.0 0.0 0.0 0.0
0.0 0.0 0.0 0.0 0.0 0.0 0.0 0.0
0.0 0.0 0.0 0.0 0.0 0.0 0.0 0.0
0.0 0.0 0.0 0.0 0.0 0.0 0.0 0.0
0.0 0.0 0.0 0.0 0.0 0.0 0.0 0.0

network_body._body_endoder.seq_layers.2.weight f4 [128, 128]
00000000: 71c2 1ebe 3bef 3abe a13d 01bd 82b0 023c
00000010: 0960 533d dbb6 e53d 527e 0dbe 20eb 3dbe
00000020: 2048 7a3c 8ee5 85bc ca5c 83bc d0a6 e73d
00000030: 7a83 ae3b 105d 30be 5893 273c 8cd7 4cbd
00000040: 3298 e73c 2821 77bd 7ddc f13d 60f1 28bd
00000050: f0b0 9f3c 7b8a 12be 4963 883c 35b3 1b3d
00000060: 6af7 7d3c 14e4 0abe 66b9 dfbd af14 2cbd
00000070: 4f21 ea3d da13 3cbd 0667 4a3b 6962 383a
00000080: 44fe a4bc 73e8 4abd 1917 0ebe 2241 32bd
00000090: 91a0 a03c 5556 743d f7e5 cd3c a0a6 07bc
000000a0: 8374 94bd dc85 8e3d 6204 9cbd db51 183d
000000b0: d0b6 c93d 9b46 1dbe d616 1b3d c2f9 8a3d
000000c0: 364b 8bbd b6c0 fbbc 8007 6c3e 1f40 a83d
000000d0: aa30 b8bd a8e9 b2bc 9e1c 6abc 31be 2fbe
000000e0: fc0a 1a3d f11c 27bd 5692 d23c 88ef 233e
000000f0: b23b dd3d cd6c 02bc 6a01 5a3c 8a3b a4bc
00000100: bc45 1bbd b5c1 343d 1346 98bd 24c1 fc3c
00000110: c68b 1fbd 7613 dfbd 53ff 253e c33f 0ebe
00000120: cf2b 553d 58e8 2abd 2116 183d e598 83bd
00000130: df1b cfbd 45e7 283d 0339 abbd f2ce d4bd
00000140: bc97 47be d00e 28be e243 5fbc abe1 063d
00000150: fc9d 99bd c6d5 4c3e 7b94 f33b 9986 9d3d
00000160: 5f6c e3bb ea00 94bc be86 f2bd c2d8 7a3d
00000170: 94d9 eabd 754d 303e 1b7a e33c ae7d 47be
00000180: 32cf e43d 2a59 7abd 9bc1 243e d2d4 8a3a
00000190: 8214 8eba b78f 713d b34f 7abd 8441 7dbd
000001a0: 24d6 8a3b 6ebf 313d c122 9bbd bebe a43d
000001b0: caf7 713b 1d5e 9c3d 52cf b2bc 2445 c03d
000001c0: 24e5 d73c 7c4a d4bd 27dc 923d 4f33 443d
000001d0: 0a31 173e 8fa8 2ebe 25bc 033e cb8b 80bd
000001e0: b9dc 78bb 1b4e c33c bea5 c9bd 3c89 15bc
000001f0: 9990 dabb c455 20bd 4b85 1bbe 11c2 b0b9
00000200: 76f5 923d fee7 7abd 5634 03be 9629 8b3c
00000210: 5c58 0ebe b61f 1cbd e6e3 933e 5e29 0bbe
00000220: 0eef 9cbb 01e6 293c 036a b2bc 684c 2a3d
00000230: 023f 0bbd 6f3c 563e 2d3c 753d ee81 9cbc
00000240: 8d8e f83b 1c71 833d 9f7a dabd 651c 26bc
00000250: 52ad 3abd 65a3 2bbd e178 7b3c 1d8a 2bbd
00000260: 0824 303d 2a00 02bd fb95 613e f11f 04be
00000270: 7e7a 093d 3536 e93d 5b49 e03d 4f25 21bd
00000280: 6fac 26be 6ce3 f4bd 0f71 40bc 6741 02be
00000290: e8c1 0d3e b45e 2cbe 437d 063e becf 17bb
000002a0: 83e4 f0bd 7144 023d 26ec 05be cfeb 93bc
000002b0: e33a 28bd b237 573d 1ffc 4bbd 0fae c4bc
000002c0: 33b8 a2bc 3a9e 093e 1264 16be a501 373d
000002d0: b6ba cbbd 23fa 97bb 7e6d 943c 2f7d e7bc
000002e0: 02ca c3bd b37e 45be 20ef ae3d 6eb3 f2bb
000002f0: 4158 013d fa90 ed3d bf07 bfbd 5bd5 823d
00000300: b107 1b3e 2ec3 a9bc a140 c6bd 5053 483d
00000310: 009e 23bd eac6 0bbd f013 48bd 01c2 b13c
00000320: 3bd9 793d 216a 4f3d e372 6e3c e79f 8ebd
00000330: cd78 8e3d 50bf 393e fa11 403d 28d9 9a3c
00000340: 16fe 9fbd 3af4 5c3d dbc6 d43d 61b5 8fbd
00000350: fdac 223d 4f4b df3b 69ed 37be e4cf d33d
00000360: 4221 ffbd 5149 5cbd 9391 afbd 1078 8f3b
00000370: e297 b5bb ec56 57bd 7840 813d 99d3 a1bd
00000380: 6b10 4fbd ce00 1c3e 21a6 e5bb 618c f9bc
00000390: ea37 acbd cc45 fb3c 25bb 473d 9fa2 903e
000003a0: e267 583d 7932 14be 9c80 9ebc 4421 133c
000003b0: 058b 67bd 4581 643d 7c1d e8bc c376 993d
000003c0: fad2 75be c9bf f43c 8a69 0d3e 6ee3 76bd
000003d0: 302f 423d 3686 d93c 9ee3 89bc 1f9e 8bbd
000003e0: fb9a d3bd 4271 2b3e 044c d73d b8c2 8f3d
000003f0: 676f 47bd 4c23 443b 8b27 393d 6ee3 14bd
-0.15503861 -0.18255322 -0.031552915 0.007976653 0.051605258 0.112165175 -0.13817719 -0.18546724
0.015275985 -0.016344812 -0.016035456 0.11311114 0.005325732 -0.17223 0.010228001 -0.05001025
0.028270815 -0.060334355 0.11809633 -0.04124582 0.01949355 -0.14310639 0.016648905 0.038012702
0.015500883 -0.13563567 -0.10924034 -0.042011913 0.11432134 -0.04591737 0.003088416 0.0007033707
-0.020140775 -0.049538087 -0.13875999 -0.043519147 0.019607814 0.059652645 0.02513407 -0.008279473
-0.07248785 0.069591254 -0.076180235 0.03718744 0.09849322 -0.15358965 0.037863575 0.06785919
-0.06801455 -0.03073154 0.23049736 0.08215355 -0.08993657 -0.021839932 -0.014289049 -0.17162396
0.03760813 -0.040799085 0.025704544 0.16009343 0.108024016 -0.00796051 0.013306001 -0.020047922
-0.0379083 0.044130046 -0.074352406 0.030853815 -0.038951658 -0.10892384 0.1621068 -0.1389151
0.052043732 -0.041725487 0.03713048 -0.06425647 -0.10112738 0.04123618 -0.083604835 -0.10391034
-0.19491476 -0.164119 -0.013627024 0.032930057 -0.07500836 0.20003423 0.0074334717 0.07691688
-0.006940409 -0.018066842 -0.11842106 0.061241873 -0.11467281 0.17217048 0.027768185 -0.19481537
0.11172332 -0.06112019 0.1608948 0.001059199 -0.0010839852 0.058974948 -0.061111163 -0.06183006
0.0042369533 0.043395452 -0.07574988 0.08044194 0.0036921375 0.07635138 -0.021827374 0.093881875
0.02635438 -0.10365769 0.07170897 0.047900494 0.147648 -0.17056488 0.1286474 -0.062766634
-0.0037973358 0.023840955 -0.09846066 -0.0091269575 -0.0066700694 -0.039144292 -0.15187566 -0.00033713927
0.07175724 -0.0612564 -0.12812933 0.016987603 -0.13900894 -0.03811618 0.2888481 -0.13589999
-0.0047892397 0.010369779 -0.021779066 0.041576773 -0.033995636 0.20921491 0.05987184 -0.019104924
0.0075853528 0.06418058 -0.10667919 -0.010138606 -0.045575447 -0.041903872 0.015348644 -0.041879762
0.043003112 -0.031738438 0.2202987 -0.1290281 0.033564083 0.11387292 0.109514914 -0.03934222
-0.16276716 -0.1195744 -0.011745705 -0.12720262 0.138435 -0.16833001 0.13133721 -0.0023164595
-0.11762335 0.031803552 -0.13078365 -0.018056778 -0.041071784 0.05254335 -0.04980099 -0.024008779
-0.019863224 0.13439265 -0.14686611 0.044679303 -0.09947722 -0.004637973 0.018118616 -0.028257934
-0.09560014 -0.19286613 0.08541703 -0.0074066436 0.031578306 0.11599918 -0.09327649 0.063883506
0.15139653 -0.020722952 -0.09680296 0.048907578 -0.039945602 -0.034125246 -0.04884714 0.021698954
0.060998183 0.05063832 0.014553758 -0.06964093 0.06956635 0.18139386 0.046892144 0.018902376
-0.07812135 0.05394385 0.10389491 -0.07017017 0.039715756 0.0068143974 -0.17961659 0.10342386
-0.12457515 -0.053780857 -0.08572688 0.0043783262 -0.0055417875 -0.05257313 0.063111246 -0.07901687
-0.050552767 0.15234682 -0.0070083295 -0.030462446 -0.08409102 0.03067293 0.04876246 0.2824907
0.052833445 -0.14472379 -0.019348435 0.008980099 -0.056529064 0.055787344 -0.028334372 0.07493355
-0.24006262 0.029876607 0.13809791 -0.060275488 0.047408283 0.026553255 -0.01683217 -0.068172686
-0.103322946 0.16742423 0.10512546 0.070195615 -0.048690226 0.0029928265 0.045203727 -0.036349706
