results/ppo/MlAgent/MlAgent-4032.onnx (onnx, 134638 bytes, 7 tensors)

action_model._continuous_distribution.log_sigma f4 [1, 3]
00000000: 0000 0000 0000 0000 0000 0000
0.0 0.0 0.0

action_model._continuous_distribution.mu.bias f4 [3]
00000000: 0000 0000 0000 0000 0000 0000
0.0 0.0 0.0

action_model._continuous_distribution.mu.weight f4 [3, 128]
00000000: d949 9d3c 2a0a 6a3b 4ddb ec3b bd72 243d
00000010: 45db 50bc 84e8 8fbb 2bed 013d 772c 043c
00000020: 09f1 1bbb 9d10 b8bb 78a7 3fbc fb44 81bc
00000030: 557a 323c ba4d e6bc 5c91 a3bb 9bf1 8f3c
00000040: 7ce0 30bc 4cef acba 211a b23c f99b a439
00000050: 5f47 ae3a 4321 4cbd 08a6 6f3b ad12 5bba
00000060: 8a3e d43b 0292 4d3b 1733 843c b3c7 a63c
00000070: 0afc 27bb eb8b 6b3c 06a2 443c 2f18 5a3c
00000080: 6909 82bb 18ef 4eba d2df 17bc 9866 d23c
00000090: ef62 03bc bb43 583b bfcf ba3b d934 86bc
000000a0: a88e d5bc 3b33 0f3b 53d9 72bc d66a ae3c
000000b0: d69f 963b cbe2 aabc eb1a 973b 0f69 3e3c
000000c0: 1367 373c 654e 16bd 52e8 e53b 7b8d 2f3c
000000d0: 7bb3 bf3b b259 f43b e161 483c 9a1f 52bc
000000e0: b8be 3c3b d324 5e3c 58ca 0ebc 45ae eb3c
000000f0: 470b d4ba 6aa7 20bc 687c 5c3c b7cc 383d
00000100: 5c8e 8abb 90b4 9d3b c7fe 163c 4cc1 13bd
00000110: 0d0b 89bc a708 943b 5489 40bc ef5e ed3c
00000120: 20c1 65bc c6ca 06bc 4eb5 353c 035e cfba
00000130: 9ebd a03b fdbc 81bc d636 a1bc cd4a edba
00000140: b3a5 853c f5a9 ddbc 0781 afbc 2c84 83bc
00000150: 4858 a7bc 57e7 debb 931d 67ba f944 22bd
00000160: 92ef de3c 9a2c e5ba 4337 a2bb 9444 ad3b
00000170: 4d3f 78bc 5712 dd3c 46bd 223c 374e 843c
00000180: 63a9 8a3b 31e8 9c3c 83c4 bebc 26b7 0a3d
00000190: f7e7 db3b 936c 39bc 42a8 933c b769 733b
000001a0: 789e 263b 5ab6 ce3b 7abc 30bc 9ca9 943c
000001b0: 2b6c 623a 1fbb c2bb f896 e6b9 63a8 b6bc
000001c0: 7044 2c3c b94a 8e3c 98a6 f83c 16fd 16bd
000001d0: dec8 ab3b ccd5 9dbb 5f45 9b3c 2d08 f7bb
000001e0: 1108 06bc 5df6 bdbc e875 32bc dbbe d73a
000001f0: 8e80 ccbb 0224 d1bc a3ef b43c a291 973b
00000200: 3b6b 153d bb59 6b3c e93b a43b 232f 2fbc
00000210: 0b8c 0f3c 07c9 1dbd 9048 9ebb 7706 553a
00000220: 6abf 62bb b5b2 1d3c 3ac7 edbb f720 42bc
00000230: a5f7 373d e5cd 0cbd 6a2f f23b b71f 9f3c
00000240: ebe5 dd3b bbed b239 070f bfbc 6658 c33c
00000250: fd09 74bc 35d3 5abc 43e5 49bc 23b8 ed39
00000260: b219 a93c 0031 523c fff3 7bbb bf76 0b3c
00000270: 8be5 a9bb b77e 76bb 0721 413c 4c15 1ebb
00000280: cb7f 263d 2f45 ae3a 9f03 0cbb cf95 0abd
00000290: 8113 063c 8290 d2bc 081b 07bc 28a1 6ebc
000002a0: 4d15 69bc 9744 2abb b384 c2bb 1814 dcbc
000002b0: 4df7 25bb 1275 79bc eab0 e93b d4b3 04bd
000002c0: 3206 ce3c 4394 1cbc 26df ad3c 9b0e 8cbc
000002d0: c09c 613d 2b27 b93c d6cb 98bc 6a43 713b
000002e0: cfaf 7b3c 0f7a 453c 9b41 51b9 13c9 72bc
000002f0: 45c0 1b3b b552 a83c f91c c5bc 5243 f5bc
00000300: 92b6 f8ba 73d5 383c 7bbe 13bc adf5 57b8
00000310: 1f77 c83a 9098 713b 9b11 68bc b5bd ff3b
00000320: 80fe 603a 00b7 ba3c cfda ca3a 138d d7bb
00000330: 6496 30bc c0b6 763c f4d4 393b 4b44 88bc
00000340: adb7 ee3b 33bb 3cbc 8f11 ffbb 5373 313c
00000350: 8e68 b0bb 40da 81bb c8dd 573c f300 35bc
00000360: a0fb 073d e220 dbbb 83ba b43c 9beb 013b
00000370: 279a 0c3c 7d35 663c 7327 073d 955f 453c
00000380: 2ebd 8a3b b512 893c 6422 bcbc bf8a 423c
00000390: 3340 afbc 4ab9 7fbb e1a6 c23b 9900 9e3c
000003a0: 7f34 1f3d f50e 5a3c e048 9fbc 12f0 123a
000003b0: 7cf7 3e3c 1ab8 60bc 28d3 673b 6fe5 f4bb
000003c0: 85eb 2c3c 092c 943c b9a2 0f3d 1bb0 a43c
000003d0: 0b9f a23c e85b 0e3d 36a8 24bc c4a4 8db8
000003e0: d792 24bc 9e0f b83b 9b74 2f3b f7fc 6abc
000003f0: d3bd d5bc 62fe aebc f3d1 253c e2b0 45bc
0.019200252 0.0035711625 0.007228291 0.040148485 -0.01274759 -0.0043917317 0.03172032 0.008067242
-0.0023794791 -0.005617215 -0.0116976425 -0.015779963 0.010893424 -0.028113235 -0.0049916934 0.017571261
-0.010795709 -0.0013193875 0.021740975 0.00031396726 0.0013296417 -0.04983641 0.0036567468 -0.000835697
0.006477182 0.0031367545 0.016137643 0.020358896 -0.0025632405 0.014376621 0.01200152 0.01331143
-0.003968407 -0.0007893904 -0.0092696715 0.025683686 -0.008019193 0.0032999355 0.005701035 -0.016382622
-0.026069 0.0021850604 -0.014822322 0.021291178 0.0045966906 -0.020860096 0.004611363 0.011621728
0.011194008 -0.036695857 0.00701622 0.010714884 0.005850253 0.0074569816 0.012230367 -0.012824917
0.00288002 0.013558584 -0.008715235 0.028769622 -0.0016177677 -0.00980554 0.013457395 0.045117106
-0.0042283963 0.0048127845 0.009216017 -0.036073014 -0.016728902 0.004517633 -0.011751492 0.028975932
-0.014023095 -0.008227056 0.01109059 -0.0015820864 0.0049054166 -0.015837187 -0.019679468 -0.0018103957
0.016314363 -0.02705858 -0.02142383 -0.016054235 -0.020427838 -0.00680248 -0.00088163576 -0.03961656
0.027213845 -0.0017484606 -0.0049504354 0.005287716 -0.015151811 0.026986284 0.009932822 0.016150577
0.0042316183 0.019153686 -0.023287063 0.03386607 0.006711002 -0.01131739 0.018024568 0.0037141868
0.0025424045 0.006308359 -0.010787124 0.018147282 0.0008637334 -0.0059427167 -0.000439815 -0.02229709
0.010514364 0.017369615 0.030352876 -0.036862455 0.005242451 -0.0048167463 0.018953977 -0.0075388164
-0.008180634 -0.023188764 -0.010892369 0.0016460078 -0.006240911 -0.025529865 0.022086924 0.004625515
0.036479216 0.014364655 0.0050120247 -0.010692391 0.008761416 -0.038521793 -0.0048304275 0.00081262685
-0.0034598955 0.009625127 -0.0072564157 -0.01184868 0.044913907 -0.034376044 0.007390906 0.019424303
0.006771793 0.0003412793 -0.023322595 0.023845863 -0.0148949595 -0.01335602 -0.012322727 0.00045341355
0.020642135 0.012829065 -0.0038444994 0.008512198 -0.0051848344 -0.003761215 0.0117876595 -0.002412158
0.040649217 0.0013295765 -0.0021364463 -0.033834275 0.008183361 -0.025703672 -0.008246191 -0.01456479
-0.01422627 -0.0025980824 -0.005936229 -0.02686505 -0.0025324405 -0.015225666 0.0071316855 -0.03239806
0.025149439 -0.009556833 0.02122457 -0.017096808 0.05508113 0.022601685 -0.018651884 0.0036813864
0.01536174 0.012053027 -0.00019956233 -0.014818448 0.0023765725 0.02054725 -0.024061667 -0.029939327
-0.0018975309 0.011281359 -0.009017582 -5.1488798e-05 0.001529429 0.0036864616 -0.014164354 0.0078045973
0.00085828453 0.02279234 0.0015476587 -0.0065780967 -0.010778043 0.015058219 0.002835569 -0.016634127
0.0072850795 -0.011519241 -0.0077840756 0.010830718 -0.0053835576 -0.003962785 0.013175435 -0.01104759
0.033198953 -0.0066872695 0.022061592 0.001982427 0.008581675 0.014050839 0.032996606 0.012046714
0.0042339778 0.016732553 -0.022965617 0.0118739 -0.021392917 -0.0039020353 0.0059403037 0.019287394
0.038868424 0.01330923 -0.01944393 0.0005605231 0.011655685 -0.013715768 0.0035373662 -0.0074736397
0.010554199 0.018087404 0.035067294 0.020103505 0.019851228 0.034755617 -0.01004987 -6.754094e-05
-0.010044775 0.005617096 0.0026772383 -0.014342538 -0.026091492 -0.021361534 0.010120857 -0.012066098

network_body._body_endoder.seq_layers.0.bias f4 [128]
00000000: 0000 0000 0000 0000 0000 0000 0000 0000
00000010: 0000 0000 0000 0000 0000 0000 0000 0000
00000020: 0000 0000 0000 0000 0000 0000 0000 0000
00000030: 0000 0000 0000 0000 0000 0000 0000 0000
00000040: 0000 0000 0000 0000 0000 0000 0000 0000
00000050: 0000 0000 0000 0000 0000 0000 0000 0000
00000060: 0000 0000 0000 0000 0000 0000 0000 0000
00000070: 0000 0000 0000 0000 0000 0000 0000 0000
00000080: 0000 0000 0000 0000 0000 0000 0000 0000
00000090: 0000 0000 0000 0000 0000 0000 0000 0000
000000a0: 0000 0000 0000 0000 0000 0000 0000 0000
000000b0: 0000 0000 0000 0000 0000 0000 0000 0000
000000c0: 0000 0000 0000 0000 0000 0000 0000 0000
000000d0: 0000 0000 0000 0000 0000 0000 0000 0000
000000e0: 0000 0000 0000 0000 0000 0000 0000 0000
000000f0: 0000 0000 0000 0000 0000 0000 0000 0000
00000100: 0000 0000 0000 0000 0000 0000 0000 0000
00000110: 0000 0000 0000 0000 0000 0000 0000 0000
00000120: 0000 0000 0000 0000 0000 0000 0000 0000
00000130: 0000 0000 0000 0000 0000 0000 0000 0000
00000140: 0000 0000 0000 0000 0000 0000 0000 0000
00000150: 0000 0000 0000 0000 0000 0000 0000 0000
00000160: 0000 0000 0000 0000 0000 0000 0000 0000
00000170: 0000 0000 0000 0000 0000 0000 0000 0000
00000180: 0000 0000 0000 0000 0000 0000 0000 0000
00000190: 0000 0000 0000 0000 0000 0000 0000 0000
000001a0: 0000 0000 0000 0000 0000 0000 0000 0000
000001b0: 0000 0000 0000 0000 0000 0000 0000 0000
000001c0: 0000 0000 0000 0000 0000 0000 0000 0000
000001d0: 0000 0000 0000 0000 0000 0000 0000 0000
000001e0: 0000 0000 0000 0000 0000 0000 0000 0000
000001f0: 0000 0000 0000 0000 0000 0000 0000 0000
0.0 0.0 0.0 0.0 0.0 0.0 0.0 0.0
0.0 0.0 0.0 0.0 0.0 0.0 0.0 0.0
0.0 0.0 0.0 0.0 0.0 0.0 0.0 0.0
0.0 0.0 0.0 0.0 0.0 0.0 0.0 0.0
0.0 0.0 0.0 0.0 0.0 0.0 0.0 0.0
0.0 0.0 0.0 0.0 0.0 0.0 0.0 0.0
0.0 0.0 0.0 0.0 0.0 0.0 0.0 0.0
0.0 0.0 0.0 0.0 0.0 0.0 0.0 0.0
0.0 0.0 0.0 0.0 0.0 0.0 0.0 0.0
0.0 0.0 0.0 0.0 0.0 0.0 0.0 0.0
0.0 0.0 0.0 0.0 0.0 0.0 0.0 0.0
0.0 0.0 0.0 0.0 0.0 0.0 0.0 0.0
0.0 0.0 0.0 0.0 0.0 0.0 0.0 0.0
0.0 0.0 0.0 0.0 0.0 0.0 0.0 0.0
0.0 0.0 0.0 0.0 0.0 0.0 0.0 0.0
0.0 0.0 0.0 0.0 0.0 0.0 0.0 0.0

network_body._body_endoder.seq_layers.0.weight f4 [128, 126]
00000000: afd0 a2bd 9121 f33c 53dd febc 92d8 f4b9
00000010: 9dfb 663d fed0 cfbd c210 c33c be62 82bc
00000020: 6177 0cbd ce8c 2b3c f84c c3bd 0822 883d
00000030: 81a3 983d 566a d93d 3e26 b93d 948b 163d
00000040: 9fcc a8bd 732b 723d 513f ad3d 0d04 e63d
00000050: 90e3 e73b 2b09 a6bd 7ded d13d d866 c5bd
00000060: ba49 f73c bffa 14be 24c2 58be a4a9 563d
00000070: a935 093d b420 0fbe dc20 1d3d 9ee1 443d
00000080: eb96 9d3c e9c7 c7ba 4165 6f3d 8832 abbd
00000090: 0fc1 f9bc dc44 5abc e5f7 c0bc 185c ea3c
000000a0: 64b9 ad3a 5c53 10bd af05 033d c70b 97bc
000000b0: 067f 793d 6e2b cc3d ad2d 293c 8487 3d3e
000000c0: 6d78 03be 6bc4 1b3d c156 073d 92c8 a6bc
000000d0: b4a6 eeba 2a0f 8cba 1f40 26bd fd43 68be
000000e0: e6f9 76bd e48f 0e3c 2d58 f9bd 2ae2 103e
000000f0: a8f7 323c 8892 a9bd ec64 95bc 9628 e9bc
00000100: 413b 653d 9412 08be 3a0e c83b c5c5 ebbb
00000110: 3fd4 6d3d 3a69 fdbc ec31 13be d8e1 d23d
00000120: 5bb7 3b3d 6bbc 53bd 4caf c83d c618 86bd
00000130: dfc8 c3bd 8de9 07bd 8bc1 fabd 923d 02be
00000140: 8abb 91be 639b cd3d 35dc 02bd 86bc f6bd
00000150: f351 6d3d b5bf f0bd 12eb 053e b8b7 08bd
00000160: 4bed 40bd 6441 b0bd 4832 663d c34f 3ebd
00000170: 114d 1b3e da20 dc3c ed48 10be 81d8 953d
00000180: 3308 f73c 09b0 01bd e188 64bc 5f0e e33c
00000190: 8988 c5bd 58e5 cbbd 5a41 273e 9e4f f9bd
000001a0: ea26 86bc 0582 b1bd e26e 893d 3a04 f3bc
000001b0: c474 d3bd cc8e 823c e9e2 5d3d 55a8 a83d
000001c0: afa3 a1bd ea2f fbbc 0cb9 753d 39e7 a13d
000001d0: b83c 2dbe d4c2 8dbc 2b8f a0bc cf3e e5bd
000001e0: abdf 1d3c 1fbf f33d 0dc8 74bc b4ad 963b
000001f0: 976f 8cbd c8bc ab3d 02aa 7e3d 0011 1fbb
00000200: e9ea cb3d 41d8 d03d e26c 373e 3301 813d
00000210: 6935 093d c3ec 823d 5fe9 81be 905c 6fbd
00000220: 2547 963d 5b08 ee3d de17 793c 519a 193e
00000230: f154 853e 3731 2e3e 8e0b a63d 9224 ea3d
00000240: 915b a33d f4c5 f33d a260 e1bd cdf0 823b
00000250: 0451 073c 09cf 52bd a71b a93d 0f2a 813d
00000260: a0f9 f63d b353 35be 1f98 c43d 7602 0b3e
00000270: 6cc3 f8bb 3c40 523c 6cfc d1bd 2043 b43d
00000280: 530e 993d ec1b fd3c 68e6 a5bd e3ba 013e
00000290: 9be7 843d a2b8 f4bb 5e79 d13c 3b50 ccba
000002a0: 13bf cb3d 7575 18be 6a82 dfbc f4f5 0bbe
000002b0: a78d ac3d 9b99 e23d 9397 17bd 2395 e3bc
000002c0: 0e5c 4e3c abdf d73d 306e 8d3c 6e51 f73c
000002d0: 71b1 cabb 8f6e ba3d db57 91be bc8c 293d
000002e0: 0e59 15bd 0b51 313d 1986 433d 75bb 81bc
000002f0: 2a9b a7bc e34c a13c 9a83 333d b1f5 f73c
00000300: 0a0f aa3d e954 d9bd 97fc adbd 46a5 e33c
00000310: c9e9 8e3d 6726 4cbd 9cf4 1c3c be86 b93c
00000320: 21b2 4dbd fc2a aabd 3f4c e4bc 72a3 ab3d
00000330: 6247 a3bd 92b4 1bbd df99 8c3c 0c8b f23d
00000340: 53b9 07be 3cff 2fbd 1686 85bb 62f8 1cbd
00000350: 67e2 b53d 852a 9e3a aae2 3b3e 1146 a8bc
00000360: e53f f7bd ba6b 053d b3bc 48be 6813 1dbd
00000370: 70b8 4fbd 0145 5bbe 34c1 eb3d afdf 9d3c
00000380: 85c1 293c aef8 a13c 6d50 01be b902 283d
00000390: 386c 5b3d 0616 083d f73c a23d 63fc f3bd
000003a0: bd99 7b3d cce1 09bd e564 14bd dbed 203e
000003b0: a31b 0bbb 6515 dc3d 34a2 353d 962c 1e3e
000003c0: c12d d4bd 4e68 713c 51a1 6abc 9516 b7bc
000003d0: 5e08 b8bc 8548 d1bd 1db2 db3c 1852 4e3d
000003e0: e4b8 0bbe 054d fabc d15f 80bc ffb6 d03c
000003f0: b1be a6bd cd61 673d 9460 4a3d a8f2 a8bc
-0.079499595 0.029679092 -0.031111395 -0.00046700664 0.0563923 -0.10147284 0.023811702 -0.015916225
-0.034293536 0.010470582 -0.09536165 0.06647116 0.07453061 0.10615985 0.09040497 0.036754206
-0.082421534 0.059123468 0.08459342 0.112312414 0.007076688 -0.081072174 0.102503754 -0.096387565
0.030186523 -0.14548777 -0.21167809 0.052407876 0.03349844 -0.13977319 0.038361415 0.048066728
0.019237002 -0.0015242073 0.058446173 -0.083592474 -0.030487565 -0.013322081 -0.023555705 0.028608367
0.0013254103 -0.035235748 0.031987842 -0.018438233 0.060912155 0.09969221 0.010325831 0.18508726
-0.12838908 0.038029116 0.03304172 -0.020359311 -0.001820764 -0.0010685672 -0.040588494 -0.22682185
-0.060296915 0.008701298 -0.12175021 0.14148775 0.010923304 -0.08279902 -0.0182366 -0.028461736
0.055964712 -0.13288337 0.0061052116 -0.007195207 0.05806374 -0.030933965 -0.14374512 0.102969825
0.04582916 -0.05169336 0.0979906 -0.06547694 -0.095597975 -0.033181716 -0.12243947 -0.127188
-0.28463393 0.10039403 -0.031948287 -0.12047677 0.05793948 -0.11755315 0.13077953 -0.033378333
-0.0471013 -0.08606222 0.056200296 -0.046462785 0.15166117 0.026871134 -0.14090319 0.073166855
0.030155277 -0.03166202 -0.01394865 0.027716814 -0.09645183 -0.09955853 0.16333523 -0.12173389
-0.016375978 -0.086673774 0.06710602 -0.029665101 -0.10325006 0.015937231 0.054171477 0.08235232
-0.07892548 -0.030662496 0.059990928 0.0790543 -0.16917694 -0.017304815 -0.019599518 -0.111936204
0.009635846 0.11901688 -0.014940274 0.0045983437 -0.068572216 0.083856165 0.06217385 -0.0024271607
0.09956915 0.10197497 0.17912629 0.06299057 0.0334982 0.06392815 -0.2537336 -0.058437884
0.073377885 0.116226874 0.015203444 0.15000273 0.26041368 0.17010961 0.08107673 0.114327565
0.07976449 0.11902991 -0.11004759 0.003995991 0.008259062 -0.051466975 0.082572274 0.0630685
0.12059331 -0.1770771 0.09599327 0.13575158 -0.0075916555 0.0128326975 -0.10253224 0.088018656
0.07473435 0.030897103 -0.08100587 0.12668948 0.06489488 -0.007468299 0.025570568 -0.0015587875
0.09948554 -0.14888556 -0.027283866 -0.13668042 0.084254555 0.11064454 -0.037009787 -0.027781075
0.01259519 0.10540708 0.017264456 0.030190196 -0.0061857034 0.09103119 -0.2838734 0.04139398
-0.036461882 0.04329018 0.047735307 -0.015836457 -0.02045973 0.019689983 0.043826677 0.030268522
0.0830365 -0.106118985 -0.08495443 0.02778877 0.06978185 -0.04984131 0.009579804 0.022647258
-0.050218705 -0.0830898 -0.027868388 0.08380784 -0.079725996 -0.038014002 0.017163215 0.11842927
-0.1325429 -0.04296802 -0.004074822 -0.038322814 0.088810734 0.0012067115 0.18348184 -0.020541223
-0.12072734 0.03257344 -0.19603233 -0.038348585 -0.050713003 -0.21413042 0.1151146 0.0192717
0.01036108 0.0197719 -0.12628336 0.04101822 0.053570002 0.03322413 0.07921784 -0.11913373
0.061425913 -0.033662602 -0.036229033 0.15715735 -0.002122619 0.10746268 0.044344142 0.15446696
-0.10360289 0.014734341 -0.014320687 -0.022349635 -0.022464927 -0.1021891 0.02681833 0.05037126
-0.13644749 -0.030554304 -0.015670689 0.025477884 -0.0814184 0.056489754 0.04940851 -0.02062352

network_body._body_endoder.seq_layers.2.bias f4 [128]
00000000: 0000 0000 0000 0000 0000 0000 0000 0000
00000010: 0000 0000 0000 0000 0000 0000 0000 0000
00000020: 0000 0000 0000 0000 0000 0000 0000 0000
00000030: 0000 0000 0000 0000 0000 0000 0000 0000
00000040: 0000 0000 0000 0000 0000 0000 0000 0000
00000050: 0000 0000 0000 0000 0000 0000 0000 0000
00000060: 0000 0000 0000 0000 0000 0000 0000 0000
00000070: 0000 0000 0000 0000 0000 0000 0000 0000
00000080: 0000 0000 0000 0000 0000 0000 0000 0000
00000090: 0000 0000 0000 0000 0000 0000 0000 0000
000000a0: 0000 0000 0000 0000 0000 0000 0000 0000
000000b0: 0000 0000 0000 0000 0000 0000 0000 0000
000000c0: 0000 0000 0000 0000 0000 0000 0000 0000
000000d0: 0000 0000 0000 0000 0000 0000 0000 0000
000000e0: 0000 0000 0000 0000 0000 0000 0000 0000
000000f0: 0000 0000 0000 0000 0000 0000 0000 0000
00000100: 0000 0000 0000 0000 0000 0000 0000 0000
00000110: 0000 0000 0000 0000 0000 0000 0000 0000
00000120: 0000 0000 0000 0000 0000 0000 0000 0000
00000130: 0000 0000 0000 0000 0000 0000 0000 0000
00000140: 0000 0000 0000 0000 0000 0000 0000 0000
00000150: 0000 0000 0000 0000 0000 0000 0000 0000
00000160: 0000 0000 0000 0000 0000 0000 0000 0000
00000170: 0000 0000 0000 0000 0000 0000 0000 0000
00000180: 0000 0000 0000 0000 0000 0000 0000 0000
00000190: 0000 0000 0000 0000 0000 0000 0000 0000
000001a0: 0000 0000 0000 0000 0000 0000 0000 0000
000001b0: 0000 0000 0000 0000 0000 0000 0000 0000
000001c0: 0000 0000 0000 0000 0000 0000 0000 0000
000001d0: 0000 0000 0000 0000 0000 0000 0000 0000
000001e0: 0000 0000 0000 0000 0000 0000 0000 0000
000001f0: 0000 0000 0000 0000 0000 0000 0000 0000
0.0 0.0 0.0 0.0 0.0 0.0 0.0 0.0
0.0 0.0 0.0 0.0 0.0 0.0 0.0 0.0
0.0 0.0 0.0 0.0 0.0 0.0 0.0 0.0
0.0 0.0 0.0 0.0 0.0 0.0 0.0 0.0
0.0 0.0 0.0 0.0 0.0 0.0 0.0 0.0
0.0 0.0 0.0 0.0 0.0 0.0 0.0 0.0
0.0 0.0 0.0 0.0 0.0 0.0 0.0 0.0
0.0 0.0 0.0 0.0 0.0 0.0 0.0 0.0
0.0 0.0 0.0 0.0 0.0 0.0 0.0 0.0
0.0 0.0 0.0 0.0 0.0 0.0 0.0 0.0
0.0 0.0 0.0 0.0 0.0 0.0 0.0 0.0
0.0 0.0 0.0 0.0 0.0 0.0 0.0 0.0
0.0 0.0 0.0 0.0 0.0 0.0 0.0 0.0
0.0 0.0 0.0 0.0 0.0 0.0 0.0 0.0
0.0 0.0 0.0 0.0 0.0 0.0 0.0 0.0
0.0 0.0 0.0 0.0 0.0 0.0 0.0 0.0

network_body._body_endoder.seq_layers.2.weight f4 [128, 128]
00000000: a26c fd3c 508e 77bd db44 4dbd 9483 d53d
00000010: cd2e 5dbc 515b 8c3d ca86 643b fb78 5f3b
00000020: e99d df3b 70a9 3d3e c7bd b03c b8c6 b8bc
00000030: 4c91 963b d86b 483d 557a 84bd bbd3 0c3d
00000040: e7bd ddbd 1ada c7bd 9afe 07bd f8fc 24bd
00000050: 8ef5 7c3d 12e7 f6bd 8029 2bbd 467e c8bd
00000060: e0f1 52bc 9d19 5abc 2db3 ff39 c45e a6bd
00000070: 2ebc 2d3d 509c 01bd 75b5 0b3e 6e51 1bbc
00000080: ca54 ff3c f370 313d 04a9 003e 4b66 133e
00000090: 8e4d 8abd 701d 9abb 4dfc d83d c6df 16be
000000a0: d46b 2bbe b73a 273c a0e1 283e 866b d6bd
000000b0: 09e2 943c 1262 213d 3f9e e8bb 5ce3 503d
000000c0: eb0a 63bd ac1c df3d 4f4e 3dbb 0cfe ecbc
000000d0: 02f2 01bb f9d2 96bd 2b2e a8bc d2b6 2d3d
000000e0: 9647 80bd fcbe 863b 90d4 103e 9dc0 f2bc
000000f0: 1bf6 4cbd 193a c93d bea2 87bd 718c 20be
00000100: c03e bdbc 1545 343d fa66 843d ea06 d13d
00000110: eae2 2c3d 8965 913d 62de 8e3c d8a8 b2bd
00000120: 8d80 e23b 4561 ec3c eb07 b6bd 52e8 e43d
00000130: 8cfc a1bd 5a25 e73d 6e1a e73d 8850 edbd
00000140: 0735 e63d e91c 023e c26a ccbc 13ca 0c3c
00000150: 9dbb 843d dde2 c53c c2cf f1bb 049a 9a3d
00000160: 1650 d13d 99b8 4a3c 0a81 673c 790c 0abc
00000170: 25fb f1ba b699 183e 4563 0c3d 4fef bbbd
00000180: 89cc 90bd fd10 acbd b065 ad3d 7f2d d7bd
00000190: b5a5 bfbd bf07 fe3c cb2c a6bd ab29 5abc
000001a0: 7ca4 92bd e6b6 b9bd 3c58 bc3c 3bf2 90bd
000001b0: 7c66 483d 6055 7f3c 2159 89bd 1cd3 6cbd
000001c0: 06f6 fabd 1deb 74be 561f e43d af16 bb3d
000001d0: 7e2c 4ebb 1305 bf3d 0467 a2bd 21e6 1abe
000001e0: efdb f2bd a715 f0bc ff41 563c ae91 a6bb
000001f0: c183 d2bb 86e4 93bc c56c 1db9 e29a 9ebc
00000200: 953f 493d c513 f4bc a434 443e 5a8b 4cbc
00000210: ddea 563e 88d8 8fbd 8c96 b53d 2a03 42bb
00000220: 601c 2e3c d64b 6fbd 26e8 b9bd bb03 73bd
00000230: d2d5 edbd 400c 42be 58c2 64bd ae76 233e
00000240: fdbc 683d 66a0 033d 4f49 2e3e dfed b1bd
00000250: a2ee 503a ce18 30bd 26b8 093d 4af4 fb3b
00000260: 0009 babd 61f7 1ebd 9e3c a53d dbef bcbc
00000270: 39a1 3f3d 5f00 033c 6a3c f0bd 06b0 d6bb
00000280: 5a31 5d3b 619f fdbd 7e18 e63d 946d 0fbd
00000290: 46bf a13d ee5d cf3d eac7 c03d af6e 86bc
000002a0: d96c 3dbd f56b 98bd 8971 5cbd 3ecc 613d
000002b0: a349 e9bd d591 96bd 3780 ccbd a489 efbc
000002c0: 1c17 08be 85c2 2c3c bbaf 693d 129a aabd
000002d0: 5933 09be d287 8abd ecbb 263e 75fa 1ebe
000002e0: 7b6b fabd fb9f 93bd 1a64 91ba 62d1 573c
000002f0: d5c9 dc3a eda4 0c3b 33c7 1e3c 074f 9a3d
00000300: 615a 18be ddb2 98bc c387 d4bd 9503 f83d
00000310: 8c8e 043e 8598 95bd 6d91 46bd 2ddd a9bd
00000320: 8372 383d 8c21 0e3e 5da7 1cbd 23af 183d
00000330: e0dc 0dbe da0d 12bd 160a 2a3c a4bc 28bc
00000340: 22f6 693d b953 2dbd 284e 033e 04d1 6b3d
00000350: 3f7b 1b3d 2920 afbd 553a d0bb 9f34 92bd
00000360: 8fa4 313d 8575 2a3e 2db0 cc3c 009e 91bb
00000370: 9171 1c3d 1a78 b33d 2e99 04bd 7dbe 1fbd
00000380: 8c2b 05be 00da 123e bcc2 1dbd c96d 66bd
00000390: 161a e13d d86c d73d 67ea cebc d403 1939
000003a0: 838e 9d3d 0fb4 17be f400 86bd 7114 0d3e
000003b0: bc75 663d 10f5 143d e7d1 b0bd 35bd 2a3e
000003c0: 8a65 b0bd 4006 453e 6cce d23d b10a d9bd
000003d0: d1ca f2bd 85ac 783d 1265 21be 0eb4 e33d
000003e0: e15f 883d d562 42bc 2670 aebd e5f0 163e
000003f0: e586 2a3e baf1 2abd 9578 a53d 8d4d 4ebd
0.03093559 -0.060438454 -0.050114494 0.10425487 -0.013499928 0.06853355 0.003487038 0.003409921
0.0068242443 0.18521667 0.021574868 -0.022555694 0.0045949575 0.048930973 -0.064686455 0.03438161
-0.108272366 -0.097583964 -0.03320179 -0.040280312 0.061757617 -0.12055792 -0.041787624 -0.0978971
-0.01287505 -0.013311771 0.00048770886 -0.08123544 0.04241579 -0.03164321 0.13643439 -0.009479864
0.03116836 0.043320607 0.12564474 0.1439449 -0.06753074 -0.0047032163 0.105949976 -0.147338
-0.16740352 0.01020687 0.16492319 -0.10469727 0.018174188 0.039400168 -0.0070989425 0.050998077
-0.055430334 0.108941406 -0.0028885787 -0.028929733 -0.0019828086 -0.073644586 -0.020529827 0.04241068
-0.06263654 0.0041121226 0.14143586 -0.02963286 -0.050039392 0.098255344 -0.066228375 -0.15678574
-0.02310121 0.044011194 0.06464954 0.10206397 0.04220859 0.070994444 0.017440025 -0.08723611
0.006912297 0.028854975 -0.08888229 0.11177124 -0.079094976 0.11286421 0.11284338 -0.11587626
0.11240583 0.12706341 -0.02495325 0.0085931 0.06481097 0.024156028 -0.007379503 0.075489074
0.10220353 0.012373113 0.014129886 -0.008425825 -0.0018461688 0.14902386 0.03427436 -0.09176504
-0.07070262 -0.08401678 0.08466661 -0.105067246 -0.09357778 0.031009553 -0.08114012 -0.0133155985
-0.07160279 -0.09068088 0.022991292 -0.07077452 0.04892586 0.01558432 -0.06706453 -0.057818517
-0.122539565 -0.23917814 0.11138789 0.09135186 -0.0031459625 0.0932714 -0.07929805 -0.1512685
-0.11858355 -0.0293072 0.013077258 -0.0050832843 -0.0064243977 -0.018053304 -0.00015013207 -0.019360963
0.049132902 -0.029794583 0.19160706 -0.012484396 0.2098803 -0.07023722 0.08866605 -0.0029603937
0.010626882 -0.058421932 -0.09077482 -0.05932973 -0.116130486 -0.18949986 -0.055849403 0.15963241
0.05682086 0.03213539 0.17020153 -0.086879484 0.00079701294 -0.042992406 0.033622883 0.0076890336
-0.09083748 -0.038810138 0.080682024 -0.02306359 0.046784613 0.007995694 -0.11730273 -0.0065517453
0.003375134 -0.12383915 0.1123514 -0.03501661 0.07897811 0.101253375 0.094131306 -0.0164102
-0.046246383 -0.07442466 -0.053819213 0.05512642 -0.11390998 -0.07352034 -0.099853925 -0.029240437
-0.13290066 0.010544424 0.057052355 -0.08330168 -0.13398494 -0.06764187 0.16282624 -0.1552523
-0.122275315 -0.07208248 -0.0011092455 0.013172479 0.0016844819 0.0021460608 0.0096910475 0.075346045
-0.14878227 -0.018639976 -0.10377457 0.12110058 0.12945002 -0.073044814 -0.048478533 -0.08294139
0.045031082 0.13879985 -0.038245548 0.0372764 -0.13853788 -0.03565774 0.010378381 -0.010298882
0.057119496 -0.042316172 0.12822783 0.05757238 0.037959334 -0.08551056 -0.00635461 -0.07138943
0.043369826 0.16646393 0.02498635 -0.004443884 0.038194243 0.08763142 -0.032372646 -0.039000023
-0.13004893 0.14340973 -0.03851579 -0.056257043 0.109913036 0.10518807 -0.025258256 0.00014592643
0.076931976 -0.1481478 -0.065431505 0.13777329 0.056264624 0.036366522 -0.08633786 0.16673739
-0.08613117 0.19240665 0.10293278 -0.10597742 -0.118550904 0.060711402 -0.15761212 0.11118327
0.066589125 -0.011864384 -0.08517484 0.14740331 0.1665302 -0.041734435 0.0807964 -0.050366927
