results/ppo/MlAgent/MlAgent-11424.pt (torch, 546055 bytes, 33 tensors)

network_body._body_endoder.seq_layers.0.weight f4 [128, 40]
000000 53 4d b9 bd 91 26 8e 3d d0 04 39 be 6f cf 76 be
       -0.090479515 0.0694095 -0.18068242 -0.24102567
000010 74 51 8a 3b dc cf e2 bd 4a 71 95 be 23 0d 01 3d
       0.0042211358 -0.11074802 -0.29187995 0.03150667
000020 ce 33 d9 3e 0a 49 75 3c b2 ed 61 3e bf 5d fb 39
       0.42422336 0.014971027 0.2206333 0.00047944297
000030 1c a5 2a be 01 7b 5e bd 39 a9 4f be 67 b1 2b 3d
       -0.16664547 -0.054316524 -0.20279397 0.04191723
000040 b1 8a 63 bd e3 23 c7 bc a7 97 7c be 20 80 b1 3d
       -0.05555219 -0.024309104 -0.24667226 0.08667016
000050 eb d0 c5 bd 14 01 06 be a4 bb 62 be 32 89 30 3e
       -0.096589886 -0.13086349 -0.22141892 0.17239836
000060 97 76 63 be 81 67 c2 be 48 96 0f 3e 63 1d ad bd
       -0.22213207 -0.37969592 0.14022171 -0.08452871
000070 20 c5 51 bd e7 88 cb 3d 07 57 59 be c8 a6 3b 3e
       -0.051213384 0.099382214 -0.21224605 0.18325341
000080 61 f8 01 3e 6e 80 46 be f3 29 1e 3d 5b ac 00 3d
       0.12692405 -0.1938493 0.038614225 0.03141437
000090 85 dd f4 3d d7 ea 1b 3e 94 bc 59 be f2 c5 99 bd
       0.11956314 0.15226303 -0.21263343 -0.07508458
0000a0 69 4a ff bc 5a ae f8 3c de 6b ab 3d 51 a2 47 bd
       -0.031163411 0.030356575 0.083701834 -0.04873878
0000b0 fd a5 40 3e 8b 05 23 be ba dd 0b be 13 7e 8f be
       0.1881332 -0.15920083 -0.136588 -0.28025874
0000c0 00 65 6c 3e bb 79 ab bc 9d 32 22 3e c5 86 9a be
       0.23085403 -0.020932069 0.1583962 -0.30180946
0000d0 71 0f b4 3d 5c eb fa bd dd 8e 3b 3e e8 ee c1 bd
       0.08792008 -0.122519225 0.18316217 -0.09469396
0000e0 fc c5 1c 3d d4 53 d7 bd 48 8b 1c bd 72 b6 93 3d
       0.03827475 -0.10514036 -0.038218766 0.07212533
0000f0 31 7b 0d 3d 70 6b 60 bd b3 8c 2a 3e 68 d8 a9 3d
       0.034541313 -0.05478996 0.16655235 0.08293229
000100 93 1c f7 3d 24 95 83 be eb 5b 06 3e 75 e6 96 be
       0.12065997 -0.25699723 0.13121001 -0.294727
000110 e4 2f df 3c 6f 8d 11 3e 26 b9 42 be 3b 39 de 3c
       0.027244516 0.14214109 -0.19015941 0.027126899
000120 20 10 f0 3d 9e 49 d7 bc 84 13 b8 3d 30 1e c9 bd
       0.117218256 -0.02628022 0.08988097 -0.09820211
000130 46 b7 23 bc 24 41 73 bb 1b af 99 bd 5b 56 f4 3d
       -0.009992426 -0.0037117684 -0.07504102 0.119305335
000140 5e 30 86 3d 35 68 a6 3d cd 2e 99 3e 5f d0 26 be
       0.06552194 0.08125345 0.2991852 -0.16290425
000150 52 b1 64 bd df cb 28 bd 4a d3 5d be c0 6a 64 3d
       -0.05583317 -0.04121005 -0.21662632 0.055765867
000160 a2 9d 59 be bf fa da 3c b3 57 5b bd 4e 18 2c 3e
       -0.21251538 0.026730893 -0.053550433 0.16806147
000170 78 80 29 3e 27 a4 ec 3d 49 e2 16 be 7c 8a 8e 3e
       0.16552913 0.11554747 -0.14734758 0.2784003
000180 f3 fa e2 3d 2b f8 d3 bd 1d d8 3d be 64 19 80 be
       0.11083021 -0.10350069 -0.18539472 -0.25019372
000190 cd fe 70 bc 2b 04 a8 be e9 70 3f be 83 62 e7 3d
       -0.014709187 -0.3281568 -0.18695416 0.112980865
0001a0 f2 3b 87 3d 0d 33 2b be c5 d5 d3 bd 2f ca 91 3d
       0.066032305 -0.16718693 -0.10343508 0.071186416
0001b0 c0 38 29 bc c7 92 f5 3d 4c d2 90 3e f4 e8 fa bd
       -0.010328472 0.11990886 0.28285444 -0.122514635
0001c0 b8 12 8c bd bc 15 b6 bd af 18 31 3d ad 18 a3 3e
       -0.06839508 -0.08890864 0.04323643 0.31854764
0001d0 61 b0 37 bc fe 49 e0 bd 2c f7 37 3e 22 c1 40 3e
       -0.011211486 -0.10951613 0.17965382 0.18823674
0001e0 9d 9e 3a 3e 80 81 9c 3b 36 37 be bc 28 8c 24 3e
       0.18224569 0.00477618 -0.023219686 0.1606909
0001f0 7d 0d 11 be 02 99 9d bd ac 7b 5f 3c ad 9d 54 be
       -0.14165302 -0.076951995 0.0136403255 -0.20763274
000200 a2 54 5f bd 21 d3 22 be 71 4a 75 3c 01 8e ad 3d
       -0.05452407 -0.15900852 0.0149713615 0.08474351
000210 86 ed b9 3d b8 b4 8d 3b 44 d2 b3 bd 9d 3c 18 3e
       0.09078507 0.004324522 -0.08780339 0.14866872
000220 a8 0b 57 3e 0e 12 b0 3d 16 37 97 3e 1b 35 76 be
       0.2100054 0.08597194 0.29534215 -0.24043696
000230 c1 1b 48 be 35 b4 52 bd 3e 76 0b 3e 16 45 a3 3e
       -0.19541837 -0.05144139 0.13619325 0.31888646
000240 c5 a5 1a bd c2 fe 08 3e 1a 6b 96 bd ab 2c 95 3d
       -0.037755746 0.13378432 -0.07344647 0.0728391
000250 ec df d2 3c 80 33 3a be ba 77 c4 bc 7c 66 aa bd
       0.02574154 -0.18183708 -0.023982871 -0.083203286
000260 7e 64 ac bd 13 98 e3 3d ba 4c b9 3d 77 80 30 3e
       -0.08417605 0.1111299 0.090478376 0.17236505
000270 58 5f 42 3e 2c 2f ba bd cb ef 69 be f7 93 2e be
       0.18981683 -0.090910286 -0.2284538 -0.17048632
000280 36 4a 1f 3d d0 57 60 be e1 25 0b 3e b7 8e c0 3e
       0.038889132 -0.21908498 0.13588668 0.37608883
000290 ca 0d c9 3d c6 42 6c 3e 8d 62 9f be 8b ff 6b 3d
       0.09817083 0.23072347 -0.31129876 0.05761675
0002a0 f0 ee 1c 3e e5 8a 4b 3e e2 c0 a0 3c 4e c4 be 3c
       0.15325522 0.19877203 0.019623224 0.023286965
0002b0 f2 ac 28 3e 24 78 42 bb 58 00 cf bd 9d 9d 1a 3e
       0.16472223 -0.002967366 -0.101074874 0.15099187
0002c0 6e cb 3b be c3 65 05 bd 8c 69 03 3e 80 67 00 bc
       -0.18339321 -0.03256775 0.12833232 -0.007837176
0002d0 3d 89 b9 3c 1a eb a3 be e9 ec a2 3e 5a 25 94 3c
       0.022648448 -0.32015306 0.31821373 0.018084217
0002e0 3d 20 4a 3e 5d 05 26 be b1 5c 0d be 28 9d 7e bb
       0.1973886 -0.16212983 -0.1380489 -0.0038850997
0002f0 91 19 53 3e 54 ce e8 bd a8 d7 8e 3d a2 4e 37 be
       0.20615222 -0.11367479 0.06974727 -0.1790109
000300 d9 ad 9d 3b 59 e5 21 be 88 4f 1d be f5 79 8a bc
       0.004811984 -0.15810145 -0.1536237 -0.016903857
000310 d7 21 4d 3e 38 ee 26 3e 35 c6 3a 3e c6 19 04 be
       0.2003244 0.1630181 0.18239672 -0.12900457
000320 de a3 c9 3d 8a f0 67 3d 46 5c 55 3d 64 63 2d bb
       0.09845708 0.05662588 0.052089952 -0.0026456947
000330 1f 02 ab 3b 11 e3 02 be 12 67 d1 bd c6 e9 5e 3d
       0.0052187587 -0.12781931 -0.10224737 0.054422162
000340 01 c8 1b 3e 92 b6 4e be 06 a6 74 3a 56 fd 25 3d
       0.15213014 -0.20186833 0.0009332601 0.040524803
000350 90 bc 97 3d 4d e9 94 bc ec 79 92 3e 11 ca f4 bd
       0.07409012 -0.018177653 0.28608644 -0.119526036
000360 0b 9f c6 3e 20 2b f9 3d f9 08 80 3d 6d 5c ac 3e
       0.38793215 0.121664286 0.062517114 0.33664265
000370 93 7a 17 bc 1e 4f 90 bd f8 ab 29 be d5 1f 6d be
       -0.009245533 -0.070463404 -0.16569507 -0.23156674
000380 ce 19 02 3c a5 30 04 be e2 33 8d be 7b eb 81 3e
       0.007940723 -0.12909181 -0.27578646 0.2537497
000390 5b 3f 72 be ab 96 ad be 64 26 11 be c5 29 7f 3c
       -0.2365698 -0.33904013 -0.14174801 0.0155739235
0003a0 de 1e 62 3e af f9 fc 3c b8 4f 9b 3b 40 8d 16 bd
       0.22082087 0.030880777 0.004739728 -0.0367558
0003b0 a8 be b5 bd 9e 0f c9 3d 3d c2 84 3d 46 57 43 3e
       -0.088742554 0.09817432 0.064823605 0.19076261
0003c0 65 35 b6 bd 1b 81 88 3e 59 f2 16 3c 80 57 3f 3e
       -0.08896903 0.26661 0.009213054 0.18685722
0003d0 87 6f f6 3d 12 0c f7 3e d4 d6 76 3d b8 93 19 3e
       0.12032991 0.48251396 0.06026347 0.14997756
0003e0 1c 52 7c 3b 92 39 68 bd f1 66 f4 bd 55 b8 8f 3e
       0.003850109 -0.05669553 -0.11933697 0.28070322
0003f0 d5 55 3d 3e 24 8c 4f 3d 4c 19 45 bc 5f 83 80 be
       0.18489774 0.050670758 -0.012029957 -0.25100228

network_body._body_endoder.seq_layers.0.bias f4 [128]
000000 e4 94 15 3b c8 42 a6 bb 4a 31 51 bb 2a a7 2f bb
       0.0022824341 -0.005073879 -0.0031920248 -0.0026802518
000010 aa 26 1e bb 34 b8 b6 3a a8 96 46 3b a4 f9 5a bb
       -0.0024131932 0.0013940395 0.00303022 -0.0033412958
000020 43 fe a0 bb 4a c1 65 bb 14 5e 76 3b 24 33 46 3a
       -0.004913123 -0.0035057836 0.0037592696 0.0007560721
000030 0c d9 45 bb 81 1e 17 bb b7 91 8b bb 04 33 44 bb
       -0.0030189184 -0.0023058953 -0.004259314 -0.0029937634
000040 fa 39 2d bb 09 90 0d bb 03 56 0b bb 50 4e 60 3b
       -0.0026432262 -0.0021600744 -0.0021260984 0.0034226365
000050 0d a8 6e bb 55 5f 29 3b de d3 1c bb d6 04 0d 3a
       -0.0036416084 0.0025844176 -0.0023929994 0.0005379444
000060 bd ca 07 bb e9 7f 20 bb 17 91 30 3b d9 d4 fe 3a
       -0.0020720207 -0.0024490303 0.002694195 0.0019442096
000070 d0 dd 2a bb 15 0f 3a bb e5 6c 74 bb 88 ec c1 ba
       -0.0026072152 -0.0028390337 -0.0037296352 -0.0014795223
000080 9b 68 0a 3b 92 4e a5 3a 7e 9a d1 bb 77 89 19 3b
       0.0021119479 0.0012611917 -0.0063965907 0.0023427883
000090 bf bb 49 bb 2c cb 21 3b 38 73 db 3a 2e 17 05 bb
       -0.0030782071 0.002468775 0.0016742712 -0.0020308006
0000a0 4c 12 62 3b 58 3b 51 3b 67 50 2b bb 40 51 81 3a
       0.003449577 0.003192624 -0.0026140453 0.0009866133
0000b0 8d 4a 8b bb bb 04 5e 3a c1 cd 19 bb 4e 4c a6 b9
       -0.0042508305 0.0008469333 -0.0023468586 -0.0003171884
0000c0 8c f7 02 3b 38 39 2a 3b a4 6b 9c 3b db cb 94 3a
       0.0019983975 0.0025974046 0.004773574 0.0011352258
0000d0 89 e1 09 3b 6a e9 d6 bb 94 08 22 bb 15 ea 0e 3b
       0.002103897 -0.006558587 -0.0024724351 0.0021807004
0000e0 84 33 8d 3a 5f e9 be 3a 19 e3 7f b9 a2 53 46 3b
       0.0010772799 0.00145654 -0.00024403296 0.0030262251
0000f0 2e f4 f2 ba 3a 77 4a bb 5a 4b e5 3a 67 66 67 ba
       -0.0018535906 -0.0030893818 0.001749377 -0.000882721
000100 57 93 70 bb fe 67 f0 3a b2 5f a5 ba 45 11 18 bb
       -0.0036708915 0.0018341539 -0.001261702 -0.0023203653
000110 ba db 17 bb 23 12 32 bb 33 4f c7 ba d3 6d d7 3a
       -0.0023171739 -0.0027171455 -0.0015206098 0.0016435928
000120 d5 b6 d5 bb 3f 32 3e bb 08 f7 10 bb a5 80 20 3b
       -0.0065220394 -0.0029021648 -0.0022119898 0.002449074
000130 87 56 d1 ba ab b2 b3 3a 0b be 23 3b 37 31 08 bb
       -0.0015971222 0.0013709863 0.00249851 -0.0020781287
000140 05 e6 7e bb b1 61 95 3a 8f 73 4f bb 1a 89 1b bb
       -0.0038894427 0.0011396912 -0.0031654572 -0.0023732842
000150 ea 6e 23 bb 7c 9a ae ba 02 96 2a bb 0a a3 c0 ba
       -0.0024937936 -0.0013321186 -0.0026029353 -0.0014697027
000160 5a 89 24 3b 00 83 37 bb 0c 82 3d bb 4f 6b 61 bb
       0.0025106282 -0.0028001666 -0.0028916625 -0.0034396236
000170 a8 fd 44 3b 04 be 4c bb 2b 00 c7 b9 ef 05 2c bb
       0.0030058417 -0.0031241188 -0.00037956363 -0.0026248654
000180 ae da 23 bb 2b 75 f1 ba f2 a3 95 bb 9a 8a 3f 3b
       -0.002500217 -0.001842176 -0.004566663 0.00292269
000190 47 4d b4 3a 8a 30 f2 3a 53 c6 14 bb 06 0a 10 bb
       0.0013755941 0.00184776 -0.0022701218 -0.002197863
0001a0 1f 80 32 3b 5e e9 40 bb 63 da ef 3a 07 60 9a bb
       0.002723701 -0.0029435973 0.0018299337 -0.0047111544
0001b0 b1 24 81 3a 1a 0d e7 3a 87 13 0e 3b e7 4f 1a 3b
       0.0009852854 0.0017627806 0.002167912 0.002354616
0001c0 88 f5 23 3b d8 4d 03 3b 7e a4 76 ba 82 12 f7 ba
       0.0025018174 0.0020035412 -0.00094086665 -0.001885012
0001d0 d7 49 15 3b 51 e8 69 3a 28 e7 57 bb 72 90 03 ba
       0.0022779608 0.00089228625 -0.0032944176 -0.00050187774
0001e0 17 dd d8 3a 9b 69 1a 3b cf 4a db 3a ed 1b 2c bb
       0.0016545382 0.002356148 0.0016730669 -0.0026261762
0001f0 f9 dd 51 3b 50 f2 85 bb 9f d9 e7 ba a5 30 fb ba
       0.0032023175 -0.004087724 -0.0017688758 -0.0019164277

network_body._body_endoder.seq_layers.2.weight f4 [128, 128]
000000 46 c1 45 3d 20 0c b6 3d 0f 79 8e 3d 1b 31 f9 bc
       0.048280023 0.088890314 0.06956684 -0.030418923
000010 00 95 36 bb e9 e3 68 3e f2 26 07 be b8 f8 cb 3d
       -0.0027859807 0.22743191 -0.1319845 0.09959549
000020 c7 d9 aa 3d da 49 d7 bc dc b8 ab bd eb bf 2a bd
       0.08342319 -0.026280332 -0.083848685 -0.041686933
000030 4f 7d b6 3d 27 06 f4 3d ca c9 50 3e e6 eb 2e be
       0.089106195 0.11915236 0.20389476 -0.17082176
000040 60 77 fe 3d 91 b1 c6 bd f5 09 57 bd f2 4d ed 3b
       0.12425113 -0.09701837 -0.05249973 0.007241958
000050 8d e5 05 3e 5d dd bf 3d 17 52 a2 bd bf 6e 93 3d
       0.13075848 0.093683936 -0.07925814 0.071988575
000060 f4 21 e9 bd cb 6e 94 3c 30 16 07 be 26 ad cb 3d
       -0.11383429 0.018119236 -0.13192058 0.09945135
000070 3a b8 21 be 17 ac 80 bd 5f ec 83 3b b7 04 be 3d
       -0.15792933 -0.062828235 0.0040259804 0.09278243
000080 a0 78 85 3d 22 36 e1 bd 9c 22 4d bd 61 c1 98 bd
       0.06517148 -0.10996653 -0.050081834 -0.07458759
000090 55 b3 8c 3c bd 7c a6 3d 48 c4 12 be 7b b2 c8 bd
       0.017175356 0.08129261 -0.14332688 -0.097996674
0000a0 f1 5f 56 3d 43 1c 71 bd 4f 87 26 bd 45 dc d0 3d
       0.05233759 -0.058864843 -0.040656384 0.10198263
0000b0 b8 66 fc 3c 7c b3 23 3e e2 f4 1d 3d 72 89 ba 3c
       0.030810699 0.15986437 0.038563617 0.022770617
0000c0 f6 9c f9 bc f5 b6 74 3c 26 7b 8a 3d b3 2d 8b 3d
       -0.030470353 0.0149361985 0.0676177 0.06795826
0000d0 a9 da 46 bd dd b9 73 3c 95 4d aa bd 87 1d 04 bd
       -0.048548374 0.014875856 -0.08315579 -0.032254722
0000e0 a4 ec e3 3d dc 4f af 3d 69 25 e8 3b 3c a1 2f bb
       0.1112912 0.08560154 0.0070845378 -0.0026798984
0000f0 e8 64 b5 3d 79 0f c5 3c 0c 0a 8f bd f4 2f 0b 3e
       0.08857137 0.02405523 -0.06984338 0.13592511
000100 c3 9c ed 3d 99 e6 05 3e 69 15 90 bd c2 67 86 3d
       0.116021655 0.13076247 -0.07035334 0.06562759
000110 fe 96 15 3e 88 42 9a 3c 84 87 e1 bd b8 44 56 3d
       0.1460838 0.018830553 -0.11012176 0.05231163
000120 54 5a 33 3e a6 55 9e 3d 59 84 b0 3d 56 fd a3 bd
       0.17514926 0.0773118 0.08618993 -0.08007304
000130 7a f3 cc bc 1b 75 98 bc 10 88 67 3d cd 0c ef 3d
       -0.025018442 -0.018610528 0.056526244 0.116723634
000140 ac d9 e5 3c 00 98 11 3e fb 91 02 be 2e 7a 96 3d
       0.028057896 0.1421814 -0.12751 0.07347523
000150 f8 1a 88 3d 0c 77 61 3b e5 a9 da 3d e1 97 97 bc
       0.06645769 0.0034403233 0.10676936 -0.018505039
000160 1b 87 26 be 70 38 ae bc 34 c3 77 bc 32 fa b8 3c
       -0.16262476 -0.021267146 -0.015122224 0.02258024
000170 42 30 c4 3d ce 0d 0c 3e 45 ca b4 3d 96 c6 5a bd
       0.09579517 0.13677141 0.08827642 -0.053412043
000180 e3 be 59 bd 5e 88 04 bd f4 d8 82 bd 8b d1 62 be
       -0.05316056 -0.032356612 -0.06389037 -0.22150247
000190 b1 df cc bb 21 01 75 bd db 4c 41 bd 0c d5 d5 3d
       -0.006252252 -0.05981553 -0.047192436 0.10441026
0001a0 53 40 bf 3d 59 12 cc bd 6f 23 20 bd 41 16 d3 3b
       0.09338441 -0.09964437 -0.039096292 0.006441862
0001b0 7b b2 1e 3d 71 8f 53 3d 03 96 0e be d8 9d f9 bd
       0.03874443 0.05165047 -0.13924412 -0.121883094
0001c0 54 d9 8a bd 21 13 eb 3d 61 23 8f bc 88 a5 27 3d
       -0.06779733 0.11478258 -0.017472925 0.040929347
0001d0 ea 08 a5 3d 07 03 06 be ac ef 94 bd f1 7d bd bd
       0.08058341 -0.13087092 -0.07272276 -0.09252537
0001e0 a9 d8 4a bd 08 a1 2c bc d3 1d b4 3d 3e de 5f bd
       -0.04952303 -0.01053644 0.08794751 -0.054655306
0001f0 9a 56 34 ba 4e 87 19 3d 3a 10 c9 3c 6e 64 14 3c
       -0.000687936 0.037482552 0.02454387 0.009057147
000200 76 67 51 3c 75 f2 26 bd 1b c4 9d 3c 57 d0 68 bd
       0.012781015 -0.04075857 0.01925855 -0.056839313
000210 b8 ff 47 3d c5 fc 45 3d 3b f2 3b bd 7f cc a9 bd
       0.048827857 0.048336763 -0.045885306 -0.08290958
000220 a6 5b 6a bc aa 19 1c bd 5f 0d 19 be 61 84 9f bb
       -0.014304077 -0.038110413 -0.14946507 -0.0048680757
000230 e5 b1 89 bd 69 a8 67 bd f7 d3 7a 3d 48 03 dc 3d
       -0.06723384 -0.056557093 0.0612373 0.10742813
000240 dc 5e c3 3d 01 e6 d7 bd f8 da 17 be 9f ce 70 bd
       0.09539577 -0.10541917 -0.14829624 -0.0587908
000250 54 2f 5e bd f7 e7 4e bd a6 ab eb bd 36 d9 ae bd
       -0.054244354 -0.050514188 -0.11507349 -0.085375234
000260 ff fd 19 be 69 14 ab 3d 16 24 cc 3c 43 cc 57 bd
       -0.15038298 0.08353502 0.02491955 -0.052685034
000270 fe 92 d3 3d a7 7b dc 3c 30 a3 23 bc 21 10 a0 3d
       0.10330771 0.02691443 -0.009987637 0.07815576
000280 6c 2d 85 bd 4a 16 88 bd c2 bc 8b 3c 11 3c 30 3d
       -0.06502804 -0.06644876 0.01705778 0.043026034
000290 2c 88 5c bc cf 06 0e be 05 18 b8 bd 90 28 93 3c
       -0.0134602 -0.13869785 -0.08988956 0.017963678
0002a0 4a fc 6e 3d 04 41 88 bb 4b 7b 82 3d 20 a9 30 3c
       0.05834607 -0.004158141 0.063711725 0.01078251
0002b0 07 90 f4 bd 6d b2 ac bd 95 f0 04 bd 88 a3 ff bc
       -0.119415335 -0.084324695 -0.032456 -0.031205907
0002c0 5f 3f bd 3d 02 42 43 3e 5d 81 74 bc 78 4d 49 3d
       0.09240603 0.19068149 -0.014923421 0.049146146
0002d0 4a f3 3b 3d 7e 37 75 bd 37 eb 51 3d 08 b9 6c 3d
       0.045886315 -0.059867375 0.05124971 0.057793647
0002e0 1e 97 77 bc bc 46 f5 bd 40 6e 57 bc 62 76 b5 bd
       -0.015111713 -0.11976382 -0.013148844 -0.0886047
0002f0 36 4a cc ba da a7 49 bd a2 ee 97 3d d9 3e f0 bd
       -0.0015586081 -0.04923234 0.074185625 -0.11730737
000300 f9 fe 64 bd 72 86 18 be 54 01 e2 bc f4 9c 29 bb
       -0.055907223 -0.14895037 -0.027588524 -0.0025880905
000310 af 0c 50 bc 93 fc 87 3d cf 9f 18 bc 8a f4 72 bc
       -0.0126983365 0.066399716 -0.009315445 -0.0148288105
000320 63 0d 90 3d 30 31 97 bd 08 1c f8 3d 85 38 85 bd
       0.07033803 -0.07382429 0.121147215 -0.06504921
000330 57 9f 2f be ce e8 45 ba 5e 0a 03 3d b8 62 8d bd
       -0.17150627 -0.0007549644 0.03199231 -0.06903595
000340 7e 1d 16 3e 5f a1 09 be 34 15 68 3d b6 7d 09 3d
       0.14659688 -0.13440464 0.056660846 0.033567153
000350 b3 24 be bc 1e 79 74 3c 80 69 b3 bd 31 04 b1 bc
       -0.023210859 0.014921455 -0.08760357 -0.021608444
000360 1f d5 11 be 93 68 4b 3d 66 f7 e4 3d b2 6f 94 3d
       -0.14241455 0.049660277 0.1118 0.07247867
000370 d7 8a 33 3c 8f bf 4c 3d 63 33 6a bd 80 e4 d2 3d
       0.010958395 0.049987372 -0.057177912 0.10297489
000380 0b e8 91 3d 49 bc d7 bc cc 71 fe 3a 6b e6 bf 3d
       0.07124337 -0.026334899 0.0019412576 0.093701206
000390 a4 0d 3d 3d 15 b7 37 bd 0a ea d4 bb ad 2f d6 bd
       0.046155587 -0.044852335 -0.006497626 -0.10458312
0003a0 10 51 af bc ce ad a3 bd 81 ec c3 3d 9b 57 75 3d
       -0.021400958 -0.07992135 0.09566594 0.059898
0003b0 d5 63 3e 3c eb 34 c2 bb 33 8f b2 3d ae 2f 24 3d
       0.0116204815 -0.0059267185 0.08718719 0.040084533
0003c0 f1 d6 ad 3b 14 19 cc 3d e8 39 8a 3d d9 c9 35 bd
       0.005305164 0.09965721 0.06749326 -0.04438195
0003d0 c1 ee 5a bd a4 f0 4e 3d e1 14 1e 3e db cc 61 bc
       -0.05345035 0.05052246 0.15437652 -0.0137817515
0003e0 56 77 22 3e c7 74 32 3d 10 56 fb 3d d9 56 09 bd
       0.15865836 0.0435684 0.122722745 -0.03353009
0003f0 28 21 47 3d cc 3d ef 3b c6 e0 c6 bd da 9f 1b bd
       0.048615605 0.007301068 -0.09710841 -0.037994243

network_body._body_endoder.seq_layers.2.bias f4 [128]
000000 05 e7 6b bb 7f 5c 21 3b 0c 8d 3f bb 8d 00 2a bb
       -0.0035995853 0.0024621782 -0.0029228358 -0.002594027
000010 65 d9 07 3b 0e 30 33 bb 90 ec 05 3b 07 f6 49 3b
       0.0020728942 -0.0027341875 0.0020435192 0.003081681
000020 36 6e f5 b9 eb ff 66 bb 36 0b e6 3a d5 c7 55 bb
       -0.00046812155 -0.0035247754 0.0017550949 -0.003262033
000030 34 d1 3c bb b6 d7 35 bb 74 c2 db 3b bd a5 14 3b
       -0.0028811218 -0.0027746982 0.00670653 0.0022681796
000040 36 0f eb 3a 30 ef 9a 3a b1 0d eb ba 70 e3 66 bb
       0.001793361 0.0011820551 -0.0017933158 -0.0035230778
000050 79 02 05 3b 4f 1d 8e bb 33 f3 08 3b a4 38 3a bb
       0.0020295663 -0.00433699 0.002089691 -0.0028415108
000060 5e 8e 5c bb 66 e6 e7 3a d0 fe 38 bb 6d f4 46 bb
       -0.0033654193 0.0017692565 -0.0028228052 -0.0030358091
000070 9c 01 4e ba 9a ef 74 bb 8c 10 85 bb 21 c8 42 bb
       -0.0007858516 -0.003737426 -0.0040608104 -0.0029721337
000080 14 92 9c bb cf 64 5b bb 97 7a b3 3a c7 01 44 bb
       -0.004778156 -0.0033476835 0.0013693151 -0.0029908286
000090 77 e5 b8 3a 4f 41 06 bb da d3 29 bb 01 fe 0b 3b
       0.0014106472 -0.0020485704 -0.0025913627 0.0021361115
0000a0 45 90 11 3b 16 9d d9 ba 52 7b 08 bb d8 b6 04 3b
       0.0022211235 -0.0016602601 -0.0020825458 0.0020250585
0000b0 48 d8 8c 3a 67 3a 83 bb 11 0f 5b 3b 30 3c 89 bb
       0.0010745609 -0.004004765 0.0033425728 -0.004188083
0000c0 36 39 52 bb 4b 33 49 bb 5b 74 85 bb 8b 84 87 bb
       -0.0032077557 -0.003070074 -0.0040727085 -0.0041356734
0000d0 56 2d a4 bb 33 a6 ba 3b e7 1f 7f 3a 81 60 23 bb
       -0.0050102873 0.005696082 0.0009732232 -0.0024929347
0000e0 52 76 27 bb 2f 37 0c 3b f5 83 34 bb 6d 69 68 bb
       -0.0025552702 0.0021395197 -0.0027544473 -0.003546323
0000f0 4c 30 44 bb ea 20 00 3c 05 b2 96 bb e0 e6 05 3b
       -0.0029936014 0.007820347 -0.0045988583 0.0020431802
000100 1a 5f 0a bb 1b 5e 8f 39 db 60 04 3c ce d9 96 3a
       -0.0021113814 0.000273452 0.008079733 0.0011509003
000110 64 ed 2c bb 69 3a d7 3a 31 b9 bc 3a 3c 85 9f 3b
       -0.0026386613 0.0016420606 0.0014398453 0.0048681777
000120 05 12 10 3b ae 52 4d bb 1c f9 eb 3b 17 eb 2c bb
       0.0021983397 -0.0031329799 0.007201327 -0.0026385242
000130 d4 e8 4c 3b 17 51 7f 3a 6d b9 24 3b 23 71 66 bb
       0.0031266706 0.00097395614 0.0025134936 -0.003516265
000140 a7 21 e0 3a 9f cd 0a bb 90 63 ed 3a b6 d8 11 3b
       0.0017099873 -0.0021179689 0.0018111337 0.0022254414
000150 35 40 17 3b fc 35 a8 bb 41 05 cb 3b 37 3b 2a 3b
       0.0023079042 -0.0051333886 0.0061956947 0.0025975236
000160 61 eb 38 bb 33 ff 4e bb 98 c3 8a 3b b8 7f 42 bb
       -0.0028216469 -0.0031585216 0.0042347424 -0.0029678177
000170 fe 8f 09 bb 83 db 56 bb c9 2a 01 3b dc 72 00 3b
       -0.0020990367 -0.0032784648 0.001970934 0.0019599712
000180 71 85 58 bb f1 4d 8b 39 77 2d 4a bb b6 74 29 3b
       -0.0033038522 0.00026570217 -0.0030849853 0.0025856919
000190 c2 12 11 3b 8a da 4a bb 03 7d 03 3b 5f df 64 bb
       0.0022136425 -0.0030953013 0.0020063526 -0.0034923179
0001a0 5b 3d 30 3b c9 d3 3c bb 4d 07 50 bb 5a 35 0c 3b
       0.002689204 -0.0028812757 -0.0031742633 0.0021394105
0001b0 69 f8 ee 3a 7a 84 c3 3a 91 a3 f5 3a c5 77 43 bb
       0.0018231991 0.00149168 0.0018740763 -0.0029826027
0001c0 8d 96 53 3a 91 3f 29 3a eb 11 69 bb ff 3d 87 bb
       0.0008071445 0.00064563105 -0.0035563658 -0.0041272636
0001d0 35 e0 30 bb 96 84 35 bb 08 ee 8f bb f3 dd dd 3a
       -0.0026989107 -0.0027697436 -0.004392389 0.0016927108
0001e0 20 02 81 bb 1f 67 40 bb 6f 94 3b bb 11 f2 53 bb
       -0.003937021 -0.002935834 -0.002862241 -0.0032340328
0001f0 43 e4 7a bb 01 7d ea 3a db b9 41 3a ea da 1e bb
       -0.0038283027 0.0017890037 0.00073900603 -0.002423937

action_model._discrete_distribution.branches.0.weight f4 [4, 128]
000000 6a 60 ae bb e1 c6 c8 bb b7 54 50 bc 9b 8a 95 bc
       -0.005321552 -0.006127224 -0.01271551 -0.018254569
000010 0c c0 0b bc 7d 88 8f bb 24 50 72 bc 2d 3f 6c bb
       -0.008529674 -0.0043802843 -0.014789615 -0.0036048398
000020 36 1f 11 bc b3 ee b6 ba c4 13 77 3b c8 26 34 3c
       -0.008857539 -0.0013956636 0.003770099 0.010995574
000030 c4 1a ce 3b 0c e3 ae ba d1 1f d9 bb a2 91 4a bc
       0.006289812 -0.0013342812 -0.0066261073 -0.012363823
000040 e4 84 83 3c 31 b7 9e bc 45 a1 35 bb dc 6f bd 3b
       0.016054578 -0.019374462 -0.0027714532 0.005781157
000050 b4 a5 3c 3c 8d 01 e1 ba 63 e0 20 bc 8b 5b 3d bc
       0.011514116 -0.00171666 -0.009819123 -0.01155747
000060 65 6d 46 bb d8 0c 46 3c 07 fa 66 bc a1 b6 14 bc
       -0.0030277607 0.012088023 -0.014097697 -0.009076745
000070 e5 05 de 3a 40 52 94 bb 19 44 13 bb 87 9c 9c 3b
       0.0016939013 -0.0045264065 -0.002247101 0.0047794017
000080 19 b1 ca 3b ea 14 8d bb 95 38 9b 3b 90 0c 3f bc
       0.0061856625 -0.0043054717 0.0047369697 -0.01166071
000090 9b 8b 02 3b 95 5c f6 3b 97 40 33 3b 8a d3 9d bc
       0.0019919637 0.007518361 0.002735173 -0.019265909
0000a0 fe 01 3f 3c 4f a5 54 bc 31 98 b3 3b 3b ee 4d 3c
       0.01165819 -0.012978866 0.005480789 0.012569006
0000b0 75 4c 23 bc b1 e7 3a 3c 82 f1 90 3a 25 43 65 3b
       -0.009966959 0.011407779 0.0011058303 0.0034982648
0000c0 bc e9 1d 3b 73 32 8f bb f0 ea 4a bc bd 3c 36 3b
       0.0024095615 -0.0043700277 -0.012385115 0.00278072
0000d0 00 ba 3c 3c ea 30 5b ba 5b 27 57 3b 01 6f 59 ba
       0.011518955 -0.0008361476 0.0032829854 -0.0008294434
0000e0 39 f2 3b bc e1 67 24 3c 14 d3 06 bc a5 c9 35 bb
       -0.011471325 0.010034532 -0.008229036 -0.0027738598
0000f0 6c 75 39 3b 4c 5a f8 bb 46 66 35 3c b9 fa 25 3c
       0.0028298749 -0.0075791236 0.011071747 0.010130578
000100 18 45 93 bc 1c de 8e ba 2e 34 bd ba f9 6f 85 3c
       -0.017977282 -0.0010899934 -0.0014435106 0.016288744
000110 38 b3 4d bb 8c 39 33 3c e3 78 57 bc bd 9b 43 bc
       -0.003138734 0.010939013 -0.01315138 -0.011938986
000120 5a 64 18 bc ac 5b da 3b ae 93 50 bc 19 78 1c b9
       -0.009301269 0.00666376 -0.012730522 -0.00014922059
000130 4f ce 44 3b e0 13 8e 3b eb dc f3 bb 04 b0 92 3b
       0.0030030196 0.0043358654 -0.007442107 0.004476549
000140 08 68 5a 3c 9d 4e c8 bb 2a 5b 2a 3c da ac 77 bc
       0.013330467 -0.006112887 0.010397712 -0.015116895
000150 a6 61 f0 bb 2a ce 20 3c 0c 21 72 ba 7e 75 86 3b
       -0.0073358594 0.009814778 -0.0009236492 0.0041033616
000160 07 03 a1 bb 16 31 2b 3b 5f 00 33 bc 0e 28 3a bb
       -0.004913691 0.0026121787 -0.010925381 -0.0028405222
000170 c4 35 d1 3b 90 67 9c 3b a6 01 84 3b 6b d7 c6 3c
       0.006384583 0.004773088 0.004028517 0.024272641
000180 90 4a 36 bc 11 82 72 3c 13 3a e9 3b 73 a6 03 3c
       -0.0111261755 0.014801518 0.0071175187 0.00803529
000190 6a 4a ba 3a d9 96 80 3b 1a d9 18 3c 66 39 01 3b
       0.0014212851 0.0039242324 0.009329105 0.001971805
0001a0 4a 37 a9 3a da 17 cb bb cb 5b 63 bb 05 3b e7 3a
       0.0012910154 -0.0061979117 -0.0034692164 0.001764149
0001b0 02 d1 98 3c a3 2b 0e 3b 93 0a 8b 3c 3b 59 b4 bb
       0.01865435 0.002169349 0.016972816 -0.005503801
0001c0 cc 10 8e bb d4 08 3e 3c 65 a1 a1 3b 30 6f 0a 3c
       -0.0043354984 0.0115987845 0.00493257 0.008449361
0001d0 ee bd 3c bc 6a ed fb bb dd c0 f3 39 62 c4 d3 3c
       -0.011519892 -0.007688214 0.00046492266 0.025850479
0001e0 21 58 5f 3c ed 6e e7 bb 9d 76 8c ba 9d dc c2 3b
       0.013631851 -0.007062784 -0.0010716502 0.0059467093
0001f0 b6 3b 60 bc 17 4c a8 3b eb fb 9b 3c 4c 40 92 3b
       -0.013686111 0.0051360237 0.019041022 0.004463231
000200 cb 24 1d 3b f4 ad 96 bb 5a 2f a1 bc f2 e4 ec bb
       0.002397823 -0.0045983735 -0.0196759 -0.007229441
000210 54 b1 cb 3b 97 84 c6 3b a1 16 1a 3a 12 7f eb 3a
       0.0062162075 0.0060582864 0.0005878006 0.0017966947
000220 c1 7b 57 3c b7 ae 9e bb 60 43 8f 3a 9c 7b 87 3b
       0.013152064 -0.004842605 0.0010930113 0.0041346084
000230 e3 3c 05 ba 56 d9 92 bc 3f 05 f8 ba 00 f5 90 3b
       -0.000508262 -0.0179259 -0.0018922462 0.0044237375
000240 e0 47 00 bb 41 9d 86 3b bd 73 03 bc f6 8a ba bc
       -0.001957409 0.0041081016 -0.0080232 -0.02277134
000250 e5 2e 04 3c 5f 5a b9 b8 21 47 48 3c be 68 9c bb
       0.008067821 -8.83832e-05 0.01222399 -0.0047732284
000260 96 f1 6a bb 89 32 77 3b 5a 46 32 3b cd dd 31 bc
       -0.0035849563 0.003771933 0.0027202577 -0.010856104
000270 e2 8e 73 bc 9c 9b 62 bc d0 92 8d bc 2d 88 05 bc
       -0.014865609 -0.0138310455 -0.01728192 -0.008150143
000280 e5 91 38 3c 53 e7 29 bc 5b 54 ab 3c 46 57 44 bc
       0.011265253 -0.010370093 0.020914247 -0.011983698
000290 75 94 39 bb cc a5 e0 bb bd f2 f1 bb 60 7e 2c bc
       -0.0028317247 -0.006855702 -0.007383673 -0.010528177
0002a0 ab ee 20 3a 1f 3d b4 3c 4f 41 e9 bb f7 6b 23 3c
       0.000613908 0.022001801 -0.007118381 0.009974471
0002b0 10 38 9a bb 79 55 91 bc 5b c5 c2 39 2e f6 26 bc
       -0.00470639 -0.017740952 0.00037149605 -0.01019053
0002c0 e0 02 ad bb bb 4a 97 3a d5 c2 06 bc d5 d1 43 3c
       -0.0052798837 0.0011542657 -0.0082251625 0.011951883
0002d0 13 3b 0e bc 92 f1 74 b9 55 f7 9b 3b d0 e0 61 bb
       -0.008681077 -0.00023359645 0.004759709 -0.0034466274
0002e0 b0 cf 8c 3a c6 ac b9 3c 77 c7 1c bc 80 3f d9 39
       0.0010743048 0.022665393 -0.0095690405 0.00041436777
0002f0 1c 71 8d bb 14 0b 76 bb 9d 39 79 bb 1c c2 e2 3b
       -0.004316462 -0.0037543224 -0.0038028725 0.0069201123
000300 fe 72 3f bb 67 32 b6 3b d9 52 33 3b 61 33 5b 3c
       -0.0029212828 0.0055602076 0.0027362613 0.013378949
000310 ac 9c e6 3b 88 56 27 3c c0 08 18 bb f1 00 59 bb
       0.0070377197 0.010213502 -0.0023198575 -0.0033112133
000320 9e 54 9a 3c 88 54 21 3c 0a 9d 29 bc bd 6d 9f bb
       0.018839177 0.009846814 -0.010352382 -0.0048653767
000330 e6 11 e1 3b 48 93 08 bc 68 bf 84 3c 98 68 01 bb
       0.0068685887 -0.008335896 0.01620455 -0.001974618
000340 fc ed f1 ba 16 3c c4 3b 7d 5f c7 3b 5d b2 13 bc
       -0.0018457766 0.005988608 0.006084381 -0.009014693
000350 94 5c a3 3b bd 2a 05 3c af c5 ce 3b d5 a2 09 3b
       0.0049854014 0.008127865 0.006310187 0.0021001596
000360 15 46 61 bc ee 22 66 bc 73 81 bb ba 19 f1 53 3a
       -0.013749619 -0.014046414 -0.0014305547 0.00080849376
000370 2c 2a 9a bb 75 c4 93 ba 63 72 00 bb eb f6 f4 3b
       -0.0047047343 -0.0011273759 -0.001959943 0.007475724
000380 06 5f 00 bc d2 49 94 ba 16 92 16 bc 4c 5a a0 bc
       -0.007835155 -0.0011313504 -0.009190103 -0.019574307
000390 4d aa f5 3c ae b1 16 3b 12 05 34 3c 1b a3 8f b9
       0.029988432 0.002299409 0.010987537 -0.00027396608
0003a0 a0 19 3c 3c 74 d4 fa 3b 33 59 58 3c ce 2d 0a bc
       0.011480719 0.007654721 0.0132048605 -0.008433772
0003b0 d9 dc 55 3b 63 d1 6e 3b a5 94 4b 3c b7 2d fc bb
       0.0032632856 0.0036440722 0.012425576 -0.0076958793
0003c0 0c 5d 40 3c 3f f7 12 3b b5 5a 3c 3c a0 8f 16 bc
       0.011740934 0.0022425202 0.011496236 -0.009189516
0003d0 e5 57 2a 3b 50 55 df bc 01 73 54 bc 0d f3 d0 b9
       0.002599233 -0.02726236 -0.012966872 -0.00039853939
0003e0 ad 15 15 bc 5c cc 29 bb e8 92 ad 3b 03 03 8a 3b
       -0.009099406 -0.0025909161 0.0052970536 0.004211785
0003f0 c1 0f 19 bc c6 21 d7 bb 1c a0 9d 3a 1e d1 9e 3c
       -0.009342135 -0.0065653054 0.0012025866 0.019386824

action_model._discrete_distribution.branches.0.bias f4 [4]
000000 8a 0f 08 3b 0b 7b 30 3b 49 c9 16 bb 7d 8b 27 bb
       0.0020761215 0.0026928808 -0.002300816 -0.002556532

exp_avg f4 [128, 40]
000000 bc 05 1f 35 d6 59 86 37 be c4 9f 37 6f 5c 92 34
       5.924046e-07 1.6015878e-05 1.9045892e-05 2.7261873e-07
000010 07 49 86 37 34 3a 9d 37 f1 d2 fd b2 c4 cf 85 37
       1.600805e-05 1.8742961e-05 -2.9549001e-08 1.5951584e-05
000020 b5 2e a1 37 f8 40 4c 35 f6 5b 72 37 75 cd 98 37
       1.9214445e-05 7.6090464e-07 1.4445735e-05 1.8215485e-05
000030 ab 78 8a 34 54 d0 86 37 d3 6a 9c 37 91 9f b5 35
       2.57923e-07 1.6071055e-05 1.8646393e-05 1.3531991e-06
000040 8d 31 5a 37 21 2b 90 37 1d a4 b0 34 b7 80 80 37
       1.30053495e-05 1.7186221e-05 3.2901963e-07 1.5318727e-05
000050 87 05 98 37 15 27 3c 35 a8 dc 41 37 1c e7 91 37
       1.8122386e-05 7.009233e-07 1.1555072e-05 1.7392966e-05
000060 37 70 72 35 d7 b2 66 37 e4 2b 94 37 5f 27 e4 34
       9.031532e-07 1.3750708e-05 1.7663413e-05 4.2496956e-07
000070 18 0c 63 37 6e d1 93 37 0e cc 93 34 f8 53 81 37
       1.353307e-05 1.7621289e-05 2.7529353e-07 1.54171e-05
000080 aa 18 97 37 8d 37 00 35 02 24 5f 37 d0 07 94 37
       1.8012088e-05 4.7764553e-07 1.33002195e-05 1.7646613e-05
000090 57 4e 83 35 b4 6d 66 37 d7 89 90 37 d4 73 8f 39
       9.78306e-07 1.3734611e-05 1.7230324e-05 0.00027361384
0000a0 82 c9 05 37 ab a2 27 39 90 b7 52 39 14 76 37 37
       7.974335e-06 0.0001598696 0.00020095543 1.0935142e-05
0000b0 6d 5f 2b 39 b6 a0 51 39 c2 89 11 37 65 09 14 39
       0.0001634338 0.00019991663 8.674748e-06 0.0001411788
0000c0 1f a9 4b 39 8d 33 91 37 dc 97 1e 39 e8 33 4f 39
       0.00019422591 1.7309352e-05 0.00015124626 0.00019760395
0000d0 dc e6 25 37 8d 99 1a 39 8a 6c 47 39 32 a4 7d 37
       9.8885175e-06 0.00014743787 0.00019018553 1.5118205e-05
0000e0 6c 60 21 39 82 4a 4c 39 c3 72 4b 37 54 cc 17 39
       0.00015390076 0.00019482712 1.2126463e-05 0.000144766
0000f0 3e b4 42 39 2f 4c 6f 37 63 d3 1e 39 b7 39 4a 39
       0.00018568427 1.4263248e-05 0.00015146802 0.00019285722
000100 a4 b5 61 37 bd e7 13 39 35 e1 3f 39 a7 41 73 37
       1.3453337e-05 0.00014105342 0.00018299076 1.4499215e-05
000110 25 c4 20 39 85 d0 45 39 74 b5 64 37 cf 96 16 39
       0.00015331859 0.00018865064 1.3632107e-05 0.00014361295
000120 de c1 40 39 75 3a bf 37 99 a6 0d 39 95 59 3f 39
       0.00018382768 2.2796195e-05 0.0001350887 0.00018248551
000130 ca e5 86 37 f9 79 10 39 28 c2 3c 39 71 da 43 3b
       1.6081049e-05 0.00013778349 0.00018001406 0.002988484
000140 1f 70 11 35 d5 71 c7 b7 eb 63 af b7 50 86 a9 36
       5.4179867e-07 -2.3775656e-05 -2.0908154e-05 5.0522285e-06
000150 ad d9 b1 b7 8f d3 a6 b7 05 45 24 36 ce 05 cc b7
       -2.1201407e-05 -1.9887257e-05 2.447808e-06 -2.4321398e-05
000160 a6 d6 b7 b7 18 9a a2 b5 7c 59 33 b7 bf e2 8d b7
       -2.1915253e-05 -1.2114788e-06 -1.0690066e-05 -1.6914097e-05
000170 2f ed ac 36 17 ed ee b7 fe 40 c4 b7 76 c0 69 b5
       5.1536113e-06 -2.8482214e-05 -2.3395285e-05 -8.707933e-07
000180 7c 9d 81 b7 63 b6 89 b7 f3 fc 3e 36 1c 2d d0 b7
       -1.5451333e-05 -1.6416603e-05 2.8459442e-06 -2.4816538e-05
000190 88 25 c6 b7 5f af 61 35 37 b3 11 b7 21 a7 69 b7
       -2.3620916e-05 8.407423e-07 -8.6844e-06 -1.3926795e-05
0001a0 bd e6 ca b5 93 84 c0 b7 19 fa b6 b7 94 ac 79 34
       -1.5117326e-06 -2.2949918e-05 -2.1812551e-05 2.3252716e-07
0001b0 f7 ba cd b6 af 8b 87 b7 a3 4f b3 b4 57 bf cf b7
       -6.1312417e-06 -1.61583e-05 -3.3399292e-07 -2.4765422e-05
0001c0 2d 0b b2 b7 0b b7 e5 b5 48 4f 0f b7 ef 8f 8f b7
       -2.1224458e-05 -1.7115102e-06 -8.541923e-06 -1.7113953e-05
0001d0 ff c6 b0 34 15 68 98 b7 4d d3 b3 b7 ce 6a 86 b9
       3.2927343e-07 -1.8168279e-05 -2.1436857e-05 -0.00025638047
0001e0 95 fc b7 b4 b1 d4 c7 b6 00 68 e7 b6 7a 5d ed b3
       -3.4270184e-07 -5.9554227e-06 -6.8964437e-06 -1.1053176e-07
0001f0 f8 e0 d1 b6 c8 95 eb b6 dd 5b 77 b4 cc bc aa b6
       -6.254875e-06 -7.0209826e-06 -2.3037087e-07 -5.0883737e-06
000200 a8 7e dd b6 bd cf 2e b5 fe 07 b8 b6 6b a9 e6 b6
       -6.601058e-06 -6.512235e-07 -5.4845577e-06 -6.874257e-06
000210 d6 de 34 b4 d7 26 ac b6 77 53 d6 b6 9b 78 09 b5
       -1.6844874e-07 -5.130521e-06 -6.3874136e-06 -5.121198e-07
000220 46 d9 c6 b6 0f 03 e6 b6 ff 33 7c b4 b0 44 a0 b6
       -5.926154e-06 -6.85489e-06 -2.3488245e-07 -4.776368e-06
000230 bb 0b d2 b6 ec 19 f7 b4 7a a1 af b6 ce 91 db b6
       -6.2598533e-06 -4.6026196e-07 -5.2342048e-06 -6.5436825e-06
000240 4d 68 e5 b4 c2 33 9a b6 6a 3d cc b6 f8 44 03 b5
       -4.2730463e-07 -4.595583e-06 -6.0868233e-06 -4.8901666e-07
000250 30 56 9e b6 31 73 d3 b6 54 3d 06 b5 d3 21 9c b6
       -4.7188005e-06 -6.3017e-06 -5.0008134e-07 -4.6531e-06
000260 fe e5 c9 b6 8a 77 3f b5 61 4a 8a b6 67 03 cc b6
       -6.0170414e-06 -7.1326997e-07 -4.1213793e-06 -6.08007e-06
000270 ce 3f f5 b4 d4 6d 99 b6 76 3f cc b6 38 f3 d2 b8
       -4.568123e-07 -4.572541e-06 -6.0870616e-06 -0.00010058883
000280 fd 8f 8f 34 d3 36 45 35 3f 0d 36 35 05 0a 64 34
       2.674059e-07 7.3468e-07 6.781956e-07 2.12378e-07
000290 fa 23 8c 34 f3 bf 15 35 6a 35 06 35 28 a6 84 35
       2.6103208e-07 5.578615e-07 4.999662e-07 9.883124e-07
0002a0 17 e9 3d 35 46 61 da b4 14 20 c5 34 c9 89 3e 35
       7.0747177e-07 -4.067644e-07 3.671745e-07 7.098102e-07
0002b0 c9 f2 6b 33 90 49 a1 35 56 10 86 35 ff ea 45 35
       5.4936013e-08 1.2016844e-06 9.988532e-07 7.3730183e-07
0002c0 66 b8 bb b5 2e a9 03 b4 f9 b6 92 34 84 6a 8b 35
       -1.3986253e-06 -1.2261873e-07 2.732775e-07 1.0387307e-06
0002d0 c5 a8 a1 35 1f 57 d8 34 21 8c a1 b5 17 23 1c 34
       1.2044553e-06 4.0296524e-07 -1.2036218e-06 1.4541398e-07
0002e0 c7 ab 45 b5 96 58 39 36 5d c8 0a 36 91 25 fa 33
       -7.363819e-07 2.7618712e-06 2.068023e-06 1.16483655e-07
0002f0 c5 0e 4a b5 5d 17 0f 35 89 b6 73 b5 c2 37 59 36
       -7.5272357e-07 5.330565e-07 -9.079018e-07 3.2367975e-06
000300 24 c7 20 36 a2 6a 03 b3 71 0f aa 34 8a c4 b9 35
       2.3957773e-06 -3.0597796e-08 3.1676203e-07 1.3840774e-06
000310 c4 e2 42 b5 49 8c 3a 36 0b 3e 0c 36 1f 3c 95 37
       -7.260062e-07 2.7797817e-06 2.089774e-06 1.779018e-05
000320 9c e3 8b 37 2b 47 d0 39 3e bf 04 3a 4a 07 eb 37
       1.667608e-05 0.00039725876 0.00050638977 2.8017577e-05
000330 04 1b ce 39 bb 43 02 3a d1 09 a0 37 67 22 bd 39
       0.0003931151 0.0004969199 1.9078057e-05 0.0003607452
000340 c8 8f 01 3a e0 d9 3a 38 94 07 bc 39 14 0b 00 3a
       0.00049423845 4.4548768e-05 0.000358638 0.0004884463
000350 6f 53 c0 37 bd 64 c7 39 44 42 fe 39 bb 32 12 38
       2.2927035e-05 0.00038031294 0.00048496027 3.485636e-05
000360 b4 77 c1 39 9d b2 fd 39 85 46 f9 37 2e 74 c5 39
       0.00036901014 0.00048388998 2.9715951e-05 0.0003766133
000370 f5 5e f9 39 c6 80 f8 37 f6 c0 c1 39 26 66 ff 39
       0.0004756373 2.9623869e-05 0.00036955596 0.00048713497
000380 71 5d 0d 38 d0 51 c2 39 f3 76 f6 39 dc c9 ed 37
       3.3704044e-05 0.00037063519 0.000470094 2.83466e-05
000390 0a 50 ce 39 4c 53 fe 39 c8 3d e9 37 cc 08 cb 39
       0.00039351016 0.00048508716 2.7804534e-05 0.0003872573
0003a0 e7 21 fb 39 5e fb 55 38 da ed bc 39 97 72 f8 39
       0.0004789971 5.101726e-05 0.00036035368 0.00047387622
0003b0 1a 0d 12 38 d2 4a c0 39 ad 38 f5 39 60 ec f7 3b
       3.4821314e-05 0.0003667684 0.00046772268 0.00756602
0003c0 bb 2b 3c 36 90 f8 ea 37 26 f8 0b 38 52 d4 05 35
       2.8039638e-06 2.801072e-05 3.337129e-05 4.985533e-07
0003d0 1c 54 dd 37 85 7e 07 38 d5 24 4f 34 e8 38 00 38
       2.638442e-05 3.230434e-05 1.9291777e-07 3.0570576e-05
0003e0 f5 c3 11 38 e9 26 86 36 75 7b b0 37 25 3b 02 38
       3.4753193e-05 3.998041e-06 2.1038324e-05 3.1049498e-05
0003f0 85 b2 e5 b5 61 af 0f 38 e8 4d 16 38 14 9d 9a 35
       -1.7113786e-06 3.425719e-05 3.5835343e-05 1.151961e-06

exp_avg_sq f4 [128, 40]
000000 97 01 91 29 e9 88 d2 2e ef 0e 22 2f 3c 27 b9 28
       6.439569e-14 9.5740145e-11 1.473912e-10 2.0556141e-14
000010 1b 58 e1 2e 75 f5 20 2f f5 a2 93 2a d1 69 ce 2e
       1.0247466e-10 1.4639119e-10 2.622552e-13 9.386592e-11
000020 1f 71 22 2f 8b 55 2a 2a a4 64 d0 2e 8e c7 1c 2f
       1.4774003e-10 1.5128712e-13 9.476622e-11 1.4259013e-10
000030 14 1f 82 29 86 ca ab 2e 54 37 0f 2f 88 d0 8c 2b
       5.778551e-14 7.812155e-11 1.3025431e-10 1.0005477e-12
000040 b1 62 96 2e 9e 05 0a 2f 99 ab 9c 28 ef a0 b1 2e
       6.8387414e-11 1.2553023e-10 1.7393898e-14 8.077616e-11
000050 01 83 0b 2f fa 5d dd 2a 1e 28 7b 2e ef f8 08 2f
       1.2688518e-10 3.9322695e-13 5.7106424e-11 1.2457567e-10
000060 d7 45 42 2a 0a 0d 8d 2e da 9a 07 2f 55 9d 83 2a
       1.7254892e-13 6.414254e-11 1.2333193e-10 2.3379446e-13
000070 9a f4 95 2e 71 49 09 2f 54 e0 61 28 a3 e3 b6 2e
       6.8191855e-11 1.2486169e-10 1.25386524e-14 8.316838e-11
000080 a0 d9 0e 2f 95 5a 09 29 d9 66 a0 2e 48 39 0c 2f
       1.2992141e-10 3.0498678e-14 7.294227e-11 1.2753276e-10
000090 e9 af f4 2a ab 11 a0 2e 49 7a 01 2f 2f e0 06 33
       4.346517e-13 7.279096e-11 1.1775926e-10 3.14032e-08
0000a0 fb db 1a 2d 6f f3 d8 30 9b 51 30 31 47 83 d0 2d
       8.802732e-12 1.5785256e-09 2.5657758e-09 2.3705161e-11
0000b0 c6 2f e2 30 f2 db 2d 31 55 32 43 2d 9a d4 b5 30
       1.6457242e-09 2.5299838e-09 1.1095643e-11 1.3229908e-09
0000c0 58 11 2a 31 df 58 05 2e 5f 41 c0 30 6e 12 27 31
       2.4748115e-09 3.0319632e-11 1.3988418e-09 2.4312174e-09
0000d0 c2 c4 93 2d d4 9f b6 30 00 94 20 31 e1 a4 d8 2d
       1.6799343e-11 1.3287669e-09 2.3367193e-09 2.4629578e-11
0000e0 57 12 b6 30 11 d9 20 31 cd 71 88 2d cb a1 b7 30
       1.3247455e-09 2.3406452e-09 1.5511948e-11 1.3360987e-09
0000f0 d7 c9 18 31 ff fa b5 2d 62 97 c4 30 3d ee 1f 31
       2.2233644e-09 2.0688782e-11 1.4303903e-09 2.3272968e-09
000100 ae 7a a4 2d a8 d2 b1 30 5f 8b 18 31 9a ee ba 2d
       1.8699122e-11 1.2938317e-09 2.2198134e-09 2.1251712e-11
000110 25 16 cc 30 56 b1 1f 31 c9 8b 12 2e 9a 74 af 30
       1.4849247e-09 2.323835e-09 3.332071e-11 1.2766066e-09
000120 cc 33 19 31 42 75 18 2e 27 ab b0 30 53 10 1a 31
       2.2293873e-09 3.4664945e-11 1.285433e-09 2.2419229e-09
000130 15 41 db 2d 12 9a a8 30 d1 ba 14 31 47 78 22 35
       2.492632e-11 1.2267398e-09 2.1643027e-09 6.052473e-07
000140 9c 38 57 2f ea 20 d5 32 c6 0c 35 33 ad 05 9e 2f
       1.9574248e-10 2.4811431e-08 4.2153964e-08 2.8744065e-10
000150 07 28 da 32 f7 0b 32 33 a1 9a 99 2f d2 af ba 32
       2.5396742e-08 4.1454737e-08 2.7940408e-10 2.1733204e-08
000160 63 a9 2a 33 fb bd de 2f 8c e0 bc 32 a2 d7 2a 33
       3.9735266e-08 4.0516554e-10 2.1988193e-08 3.9777326e-08
000170 90 28 b9 2f e9 b8 bf 32 e8 a2 29 33 b7 73 1c 30
       3.3680125e-10 2.2319414e-08 3.949654e-08 5.691691e-10
000180 dd 7a b2 32 b9 e5 1f 33 29 06 9d 2f a5 29 d3 32
       2.0777799e-08 3.7229004e-08 2.856251e-10 2.458257e-08
000190 36 ba 27 33 b8 8c e2 2f 6f 4c bf 32 ad ae 20 33
       3.9052075e-08 4.1209147e-10 2.2270084e-08 3.741177e-08
0001a0 71 2f 6c 2f 2f 03 d9 32 41 45 2b 33 ba e3 b0 2f
       2.148093e-10 2.5263573e-08 3.9877026e-08 3.2176023e-10
0001b0 fe 30 ca 32 b3 91 23 33 64 6a b7 2f cd 84 cf 32
       2.3538174e-08 3.8083908e-08 3.33631e-10 2.4158362e-08
0001c0 8d 9f 28 33 4c cf c9 2f 43 b6 c3 32 fd 1a 24 33
       3.926066e-08 3.670898e-10 2.278387e-08 3.820877e-08
0001d0 28 c2 b8 2f e8 32 c8 32 24 b7 21 33 a7 f7 29 37
       3.360736e-10 2.3306214e-08 3.76523e-08 1.0130846e-05
0001e0 d4 f8 98 2a 5a 86 6f 2e 95 4b c2 2e 41 d0 b4 2a
       2.7173283e-13 5.4461637e-11 8.835525e-11 3.2118928e-13
0001f0 59 b4 81 2e fb 74 c2 2e 80 90 da 2a 24 05 3d 2e
       5.898277e-11 8.8428785e-11 3.8824846e-13 4.297819e-11
000200 65 05 b1 2e d0 a6 77 2b fd 85 5f 2e 63 bd ba 2e
       8.0499864e-11 8.7983527e-13 5.0823335e-11 8.4919426e-11
000210 1f d4 dc 2a 5f 1e 3d 2e e9 55 af 2e 99 90 8e 2b
       3.922704e-13 4.30006e-11 7.9733393e-11 1.0129841e-12
000220 cb 6f 59 2e 3d b2 af 2e 71 d8 47 2a 9c da 4c 2e
       4.943938e-11 7.98974e-11 1.7749844e-13 4.6578394e-11
000230 6b f9 ad 2e 7f ab 77 2b db be 52 2e f3 37 aa 2e
       7.911435e-11 8.7990027e-13 4.7917986e-11 7.7406435e-11
000240 9f 09 93 2a ed fb 48 2e bb 81 ac 2e 6e ad 39 2b
       2.6119122e-13 4.569849e-11 7.844699e-11 6.5965885e-13
000250 9e 64 4d 2e 39 1d a7 2e 51 90 00 2b 26 23 38 2e
       4.670097e-11 7.599472e-11 4.5675014e-13 4.1867974e-11
000260 ae cd a5 2e 07 ff 37 2b 7a ef 37 2e cc 5c a3 2e
       7.539867e-11 6.536858e-13 4.182208e-11 7.428866e-11
000270 ad 97 cf 2a 0c 00 43 2e a7 fc a1 2e 94 9d ac 32
       3.6875833e-13 4.433791e-11 7.3663124e-11 2.0095094e-08
000280 de 47 80 2a 77 63 fb 2b 30 9a 4a 2c be 27 89 2b
       2.2787235e-13 1.786223e-12 2.8791518e-12 9.745466e-13
000290 98 83 53 2c f2 13 31 2c 94 67 05 2a c0 97 b6 2b
       3.0057953e-12 2.5164285e-12 1.1848709e-13 1.2973997e-12
0002a0 50 c7 3f 2c 04 71 a5 2b b4 58 4b 2c 41 c7 29 2c
       2.7253373e-12 1.1755323e-12 2.8897275e-12 2.4126953e-12
0002b0 2b 53 e2 2a fc 85 93 2b 88 d3 d2 2b be e3 ea 2b
       4.0203374e-13 1.0482166e-12 1.4980109e-12 1.6689911e-12
0002c0 96 2f 85 2c 4d 38 4c 2c 2a d1 47 2b c9 24 58 2c
       3.7853705e-12 2.9021397e-12 7.0989276e-13 3.0715866e-12
0002d0 fd c3 9b 2b e1 16 04 2b d9 7c 81 2d 15 18 17 2d
       1.106781e-12 4.692757e-13 1.4721046e-11 8.5887035e-12
0002e0 7f 32 89 2b 91 7f 93 2c c3 76 cb 2b 84 c6 17 2a
       9.748451e-13 4.192154e-12 1.445698e-12 1.3480368e-13
0002f0 97 80 3e 2d fc d9 f3 2c 91 10 37 2b 00 ff 1f 2c
       1.0828802e-11 6.9306765e-12 6.503765e-13 2.2736812e-12
000300 6b e1 e7 2b 2e 4e a6 29 4a 79 8a 2c a0 bb 89 2c
       1.6476103e-12 7.385443e-14 3.9356617e-12 3.9146048e-12
000310 2a 8c c5 2a 3e 50 2a 2c ea c6 37 2c b2 0b 25 30
       3.5091488e-13 2.4202996e-12 2.6116284e-12 6.004327e-10
000320 af 51 5d 2f f4 a2 b9 32 0f e8 22 33 d0 b4 63 2f
       2.0128853e-10 2.1610937e-08 3.792962e-08 2.0709767e-10
000330 d1 3c d6 32 96 fc 26 33 28 0e 52 2f 76 ef 9c 32
       2.4940535e-08 3.8879612e-08 1.9104418e-10 1.8269684e-08
000340 b6 7b 19 33 44 1d fc 2f ff 53 ba 32 38 02 21 33
       3.5735603e-08 4.5859327e-10 2.1691447e-08 3.748775e-08
000350 90 c8 8d 2f 41 6d 9f 32 fd 27 13 33 f1 cb e1 2f
       2.579026e-10 1.8559719e-08 3.4262474e-08 4.107217e-10
000360 ee a5 b3 32 51 c1 18 33 99 06 42 2f 41 d1 a7 32
       2.0913799e-08 3.5566078e-08 1.7646541e-10 1.9536516e-08
000370 3e c9 14 33 84 dc 88 2f 50 0a c6 32 bd c7 1e 33
       3.4641964e-08 2.4894942e-10 2.3054923e-08 3.6968903e-08
000380 eb 98 a8 2f 4e 7a aa 32 5e c5 16 33 ac 4a 83 2f
       3.0667677e-10 1.9846222e-08 3.51041e-08 2.388182e-10
000390 34 30 cd 32 f2 cf 1c 33 23 de 04 30 80 7c a2 32
       2.3887061e-08 3.6510706e-08 4.8336996e-10 1.8915898e-08
0003a0 90 21 12 33 f1 b6 a2 2f f2 b8 bf 32 98 c3 1c 33
       3.40238e-08 2.9597616e-10 2.231943e-08 3.6499472e-08
0003b0 d9 6e 99 2f 51 53 b3 32 7b 96 14 33 3f f9 1b 37
       2.79093e-10 2.087623e-08 3.4595796e-08 9.296752e-06
0003c0 af 87 03 2e 71 0b a7 31 51 8e 03 32 1e b2 5a 2e
       2.9906463e-11 4.8616404e-09 7.657563e-09 4.972566e-11
0003d0 3c 24 a2 31 b6 a4 ff 31 d8 99 24 2e 7e 42 9e 31
       4.71894e-09 7.4402022e-09 3.7425923e-11 4.6059645e-09
0003e0 8f 97 fd 31 63 2f a1 2e 6a af 81 31 9f a6 e9 31
       7.3804993e-09 7.32985e-11 3.7743364e-09 6.800135e-09
0003f0 da b6 8e 2e cd ce 95 31 4b b9 f4 31 30 30 f0 2e
       6.489893e-11 4.3599813e-09 7.1224e-09 1.0922496e-10

exp_avg f4 [128]
000000 61 8e b0 37 28 0d 71 39 80 75 a5 b7 ad d0 01 b7
       2.1047135e-05 0.00022988452 -1.9724248e-05 -7.737585e-06
000010 c8 b8 b7 35 8d 91 18 3a c1 e0 23 38 0e c2 3d 38
       1.3688341e-06 0.00058200286 3.9071547e-05 4.524184e-05
000020 e4 21 5b 39 e9 67 58 b7 7c 90 a8 b6 83 32 f8 39
       0.00020898093 -1.2898797e-05 -5.0236104e-06 0.0004733988
000030 f5 9b 1b b8 c8 46 f6 b9 c8 8e 13 39 aa f2 e4 39
       -3.7100126e-05 -0.00046973513 0.00014072203 0.00043668348
000040 d3 4c 81 b9 68 f4 aa b7 69 fc 98 b8 b2 56 bb 36
       -0.00024662036 -2.037939e-05 -7.29494e-05 5.583127e-06
000050 38 64 8a 38 fb e4 06 38 da 2e 2a ba 99 18 00 3a
       6.59902e-05 3.2161344e-05 -0.0006491967 0.0004886478
000060 74 e9 af b9 76 9a c1 b8 0f 7f ec 37 31 92 22 38
       -0.00033552537 -9.231728e-05 2.8192559e-05 3.875996e-05
000070 e2 05 ae b9 c3 c7 b5 36 31 62 8b 38 a2 08 16 3a
       -0.0003319225 5.4174757e-06 6.646326e-05 0.0005723332
000080 90 68 72 39 8f ca b2 39 98 a9 e5 37 65 bb 15 38
       0.00023117871 0.00034101724 2.73779e-05 3.5698893e-05
000090 29 67 c5 36 f8 8f 75 37 af 73 e3 39 51 0b 7c b9
       5.883067e-06 1.4636658e-05 0.00043383005 -0.00024036808
0000a0 ff 38 19 b7 16 71 c8 35 7e 31 17 b8 95 84 c2 39
       -9.132781e-06 1.4934074e-06 -3.60473e-05 0.00037101345
0000b0 53 c4 67 38 23 8b 1d 3a 5a 1a f1 b8 b2 5a dc b6
       5.5257533e-05 0.00060098077 -0.00011496684 -6.5670692e-06
0000c0 75 82 9e 37 56 7a 14 38 0d 30 1e b8 30 55 8b 39
       1.8895817e-05 3.5399884e-05 -3.7714886e-05 0.00026575616
0000d0 9a 20 10 3a 55 d7 be 37 99 46 fa b6 cd 8a 38 3a
       0.0005498022 2.2750037e-05 -7.4587992e-06 0.0007039726
0000e0 2d df 10 3a f7 24 3f 39 f0 d0 3d 37 e5 8c 88 b8
       0.000552642 0.0001822895 1.1313925e-05 -6.511229e-05
0000f0 06 90 70 b9 b0 36 1b b6 22 18 8f 37 14 c6 0c b8
       -0.00022941837 -2.3128632e-06 1.7058166e-05 -3.3563076e-05
000100 b0 82 9b 37 c9 de 16 38 a1 86 96 b6 4b 3c 48 b7
       1.8538296e-05 3.597027e-05 -4.486021e-06 -1.1934967e-05
000110 42 7d b8 b7 d6 15 db b6 ca a1 13 36 9a 61 b6 39
       -2.1992837e-05 -6.5292506e-06 2.199888e-06 0.00034786464
000120 6f e9 ac 39 3c 75 02 b8 1a f5 16 b7 b6 92 99 39
       0.00032980318 -3.11036e-05 -8.997764e-06 0.00029291742
000130 15 77 0e b9 e3 5d 93 37 9a 57 a5 37 fa 30 1b b8
       -0.00013586537 1.7567485e-05 1.9710325e-05 -3.7000493e-05
000140 5f 17 95 38 87 7a 36 3a 3a be 90 b6 f2 5e d2 b6
       7.109227e-05 0.0006961007 -4.3136797e-06 -6.269541e-06
000150 b0 64 7c b7 84 5f 02 b8 20 d1 64 b9 a8 67 b8 b7
       -1.5043814e-05 -3.108337e-05 -0.0002182168 -2.1982778e-05
000160 26 1c 60 39 14 94 4f b8 ce 91 ab b6 79 7a 93 b7
       0.00021372791 -4.9490554e-05 -5.113171e-06 -1.7580796e-05
000170 dc 2b 2c 38 25 d1 1b b9 03 79 c1 39 d1 ea da b8
       4.1048843e-05 -0.00014859864 0.0003690199 -0.00010438788
000180 d9 9f 54 b9 de 26 7f b8 66 a7 1b 39 b8 59 c0 38
       -0.00020277443 -6.0832936e-05 0.00014844313 9.171985e-05
000190 e1 87 dc 39 43 25 85 39 2b 6c b2 b7 ab 51 09 b9
       0.00042062908 0.000253955 -2.1269623e-05 -0.00013095762
0001a0 80 54 a0 36 aa 56 82 b8 a6 19 ef 39 52 02 70 38
       4.7782087e-06 -6.2150255e-05 0.00045604742 5.722262e-05
0001b0 93 41 fb 38 a0 5b e9 35 51 d9 01 38 8f 95 00 3a
       0.00011980827 1.7386519e-06 3.095839e-05 0.00049050985
0001c0 19 65 04 39 7d 4f 5e 37 77 e7 d3 39 d1 ae 27 b8
       0.00012626163 1.3250738e-05 0.0004041751 -3.9978713e-05
0001d0 91 2b 4c 38 9d 47 65 39 41 ee 27 b6 54 4d c5 38
       4.8677965e-05 0.0002186582 -2.5023621e-06 9.4080955e-05
0001e0 d1 0e af 39 22 79 ea 37 4a c1 ad 37 4a 76 8a b7
       0.0003338964 2.795138e-05 2.0713214e-05 -1.6505965e-05
0001f0 55 5a ab b7 a7 4c 9c 36 07 fa aa 38 83 c1 8d 36
       -2.0426853e-05 4.658086e-06 8.152803e-05 4.224655e-06
