results/ppo/MlAgent/MlAgent-4456.onnx (onnx, 137408 bytes, 9 tensors)

action_model._continuous_distribution.log_sigma f4 [1, 3]
0	0x00000000	0.0
1	0x00000000	0.0
2	0x00000000	0.0

action_model._continuous_distribution.mu.bias f4 [3]
0	0x00000000	0.0
1	0x00000000	0.0
2	0x00000000	0.0

action_model._continuous_distribution.mu.weight f4 [3, 128]
0	0xbc410ace	-0.011782361
1	0x3c9d9cab	0.019239744
2	0xbc4386bb	-0.011933978
3	0xbc4019f3	-0.011724937
4	0xbc8f8638	-0.017520055
5	0xbcd99858	-0.026561901
6	0x3c94be66	0.018157195
7	0xbc97a7f6	-0.018512707
8	0xbc57aaf3	-0.013163316
9	0x39aefe46	0.00033377315
10	0x3c46c53d	0.012131986
11	0xbc84c82d	-0.016208733
12	0xbc40dcf4	-0.011771429
13	0x3bae56cc	0.0053204056
14	0x3b554db0	0.0032547526
15	0xbb9b4bef	-0.0047392766
16	0xbd050bfd	-0.032482136
17	0xbc8128b0	-0.015766472
18	0x3b9d61d8	0.0048029236
19	0xbc2d81ab	-0.010589997
20	0xbd57ff65	-0.052733798
21	0x3c42c9d3	0.011888939
22	0xbcb39da7	-0.02192576
23	0x3ccd65a7	0.025072886
24	0x3cb8f714	0.022578754
25	0x3bc8d86b	0.0061293147
26	0xbc594252	-0.013260441
27	0x3bf31a90	0.007418938
28	0x3c910198	0.017700955
29	0xba801ac6	-0.0009773604
30	0xbcc4292f	-0.02394542
31	0xbc4f637a	-0.012657994
32	0xbc855307	-0.016274942
33	0xbc03831b	-0.008026863
34	0xbcbfc92b	-0.023411354
35	0x3b8d763a	0.004317072
36	0x3c6196a8	0.013768829
37	0x3cb621a8	0.022232845
38	0x3bcd4dad	0.006265363
39	0x3d02f362	0.03197039
40	0x3c891256	0.016732376
41	0x3cdd0b87	0.026983036
42	0x3b5bc442	0.0033533727
43	0x3c27bcab	0.010237853
44	0x3bf71dc2	0.007541389
45	0x3c804817	0.015659375
46	0xbc042911	-0.008066432
47	0xbc2cccaf	-0.010546847
48	0x3c3c7c3d	0.01150423
49	0xbba03e5f	-0.0048902477
50	0xbd02cc8c	-0.031933352
51	0x3cc85203	0.024453169
52	0x3c48c24f	0.012253358
53	0x3c40e52e	0.011773391
54	0x3d37057a	0.044682957
55	0x3b38522a	0.0028125145
56	0xbbeaefb2	-0.007169687
57	0x3b05cd82	0.0020416682
58	0x3c93b106	0.018028747
59	0xbc24dcb7	-0.010062388
60	0x3c9332c1	0.017968537
61	0x3c6d5c8d	0.014487398
62	0xbbcd878f	-0.0062722634
63	0x3c99c64f	0.018771319
64	0xbc87b909	-0.016567724
65	0x3c20b275	0.0098081725
66	0x3b164b23	0.0022932969
67	0xbcba1cf2	-0.02271888
68	0x3c3c2d1f	0.011485367
69	0x3926a605	0.00015892841
70	0xbbdadba2	-0.0066790143
71	0xbc954271	-0.018220158
72	0xbc12896f	-0.0089439
73	0xbb84bcc3	-0.0040508225
74	0x3bfc5083	0.0077000274
75	0xbcdb7e22	-0.026793543
76	0xbc83bea8	-0.016082123
77	0xbc7a06d3	-0.015260416
78	0x3c5ab812	0.01334955
79	0xbcac3a56	-0.02102391
80	0xbcbae6d7	-0.022815151
81	0x3aa3c955	0.0012495915
82	0xbc879880	-0.01655221
83	0x3cb396fe	0.021922585
84	0x3bacd65d	0.0052745775
85	0xbc570c35	-0.013125469
86	0x3cc61624	0.02418048
87	0x3cd338d7	0.02578394
88	0xb98f6cb7	-0.00027356084
89	0x3b5c2abf	0.0033594815
90	0x3c446a80	0.011988282
91	0x3d053510	0.032521307
92	0xbb95528f	-0.004556961
93	0xbc19c986	-0.009386426
94	0x3c9c15ee	0.019053426
95	0x3cc69731	0.024242016
96	0x3c0819df	0.008306949
97	0x3c17cbbe	0.0092648845
98	0xbc53b630	-0.012921855
99	0x3cae4c28	0.021276549
100	0x3bf1375f	0.007361337
101	0x3c41f303	0.011837724
102	0x3c8cafd7	0.01717369
103	0xbc382a61	-0.011240573
104	0x3ae47de8	0.0017432543
105	0xbc926896	-0.017872136
106	0x3cda3788	0.026637807
107	0x3ba2bf54	0.0049666557
108	0xbcc26718	-0.0237308
109	0xbbb7ae37	-0.005605485
110	0xbb5de79d	-0.0033859976
111	0x3c82e325	0.015977452
112	0xbc981424	-0.018564291
113	0x3c6342a5	0.01387087
114	0xbbdc67c7	-0.0067262384
115	0x3c99df2e	0.018783178
116	0x3ccd8487	0.025087608
117	0xba9ad729	-0.001181339
118	0xbbfac4e7	-0.007652867
119	0x3ce9631f	0.028489647
120	0x3c376352	0.011193113
121	0xbc619f5f	-0.013770907
122	0xbcab3e56	-0.020903748
123	0xb82e58b1	-4.1567433e-05
124	0xbd03770c	-0.032095954
125	0x3c43d6c6	0.011953061
126	0x3c673c83	0.014113548
127	0xbc6e69bd	-0.014551577
128	0x3cd732ff	0.026269434
129	0x3c6b9f1d	0.014381197
130	0x3cd73d43	0.026274329
131	0xb8e83278	-0.000110720226
132	0x3c759c87	0.014990932
133	0xbcdd404f	-0.027008204
134	0xbc5bfbc0	-0.013426721
135	0x3d01b023	0.031662118
136	0xbcafba16	-0.021451037
137	0xbc2f5037	-0.010700277
138	0xbc03ce6e	-0.008044822
139	0xbb8215e8	-0.0039698966
140	0x3d376876	0.044777356
141	0x3bbfb770	0.005850725
142	0x3ccdd49d	0.025125796
143	0x3b95740b	0.0045609525
144	0xbc8f6ff3	-0.017509436
145	0x3be88e9d	0.007097079
146	0x3b8568dd	0.0040713386
147	0xbc20ba03	-0.009809974
148	0xbb027e47	-0.0019911693
149	0xbbd0e94d	-0.006375468
150	0x3c8576b0	0.016291946
151	0xbc0d6985	-0.008631115
152	0xbc3f5ea6	-0.011680281
153	0xbad33755	-0.0016114513
154	0x3c9427d2	0.018085394
155	0xbc9af58f	-0.01891592
156	0x3b0d9eae	0.0021609473
157	0xbcc4dea7	-0.02403195
158	0x3c93bec4	0.0180353
159	0xbaf3d2e8	-0.0018602284
160	0xbd0f324e	-0.034960084
161	0x3c3c3804	0.011487965
162	0x3baf999f	0.0053588892
163	0x3cbd0718	0.023074672
164	0x3c0417ff	0.008062362
165	0xbc7a922b	-0.015293638
166	0x3c202a8f	0.009775772
167	0x3bdd1e75	0.0067480155
168	0x3b8c7293	0.0042861192
169	0xbb93b1b3	-0.0045072674
170	0x3cb7dd6b	0.022444448
171	0x3d0d05c3	0.034429323
172	0x3c8a210f	0.016861467
173	0xbc534a90	-0.012896195
174	0x3c07b1e6	0.00828216
175	0x3b0ffff5	0.002197263
176	0xbc89351f	-0.016748963
177	0x3d1b380f	0.03789526
178	0x3bb5f083	0.005552353
179	0x3aa3a469	0.0012484911
180	0x397ddf27	0.00024211091
181	0x3c25d1fb	0.010120864
182	0x3c21ba4e	0.009871079
183	0xbbc3a170	-0.0059701726
184	0x3b431194	0.0029765116
185	0xba8e3d28	-0.0010851966
186	0x3bd96aaf	0.006635032
187	0xbcd27653	-0.025691187
188	0x3a967ee4	0.0011481908
189	0x3b926c17	0.0044684517
190	0xbbf428fd	-0.0074511752
191	0xbc660e62	-0.014041515
192	0x3cd96977	0.026539547
193	0xbc613ea5	-0.013747846
194	0xbc10ebbc	-0.008845266
195	0xbcd5108a	-0.026008863
196	0x3c75d9cd	0.015005541
197	0x3c071357	0.008244357
198	0x3c2e95a1	0.0106557915
199	0x3d01154b	0.031514447
200	0x3bb83323	0.0056213303
201	0x3b0f28cc	0.0021844385
202	0x3cbdc97e	0.023167368
203	0x3cd5ec57	0.026113672
204	0x3c0531c3	0.00812954
205	0x3cdf8e65	0.027289579
206	0xbc75e92f	-0.015009209
207	0x3c1a3c8f	0.009413852
208	0x3c5707f5	0.013124456
209	0x3ccbd234	0.024880506
210	0x3abe4859	0.0014517411
211	0xbb06859a	-0.002052641
212	0x3c53ec8f	0.012934818
213	0x3c85ccad	0.016332949
214	0x3c1ccd87	0.009570486
215	0xbd034318	-0.032046407
216	0x3c76e755	0.015069802
217	0xbc5bd5b2	-0.013417648
218	0xbca66a5b	-0.020314386
219	0x3cf72ba7	0.030172182
220	0x3a340037	0.0006866487
221	0xbc3b293f	-0.011423408
222	0xbca5509b	-0.020180037
223	0x3bb4c676	0.0055168224
224	0xbb8eac36	-0.0043540252
225	0x3bdd5460	0.006754443
226	0x3c653a70	0.013990983
227	0xbc5d9385	-0.013523941
228	0x3c9fab7e	0.019490954
229	0xbc712265	-0.014717673
230	0xbd0a6fab	-0.0337979
231	0xbb2e9b64	-0.0026642913
232	0xbba50c8f	-0.0050368975
233	0xbbd4a7b3	-0.006489718
234	0x3c20c4da	0.009812558
235	0x3c0c79b7	0.008573941
236	0xbcba6916	-0.022755187
237	0x3c3af258	0.011410318
238	0xbcac3e53	-0.021025812
239	0x3a856118	0.0010176031
240	0xbd182403	-0.03714372
241	0x3b13adb6	0.002253396
242	0xbc38c90b	-0.011278401
243	0x3cc44cfb	0.023962488
244	0x3c27949c	0.010228302
245	0x3ca327a8	0.01991637
246	0xbd098e3b	-0.033582907
247	0x3cddb99a	0.02706604
248	0x3c42200f	0.011848464
249	0x3caa2177	0.02076791
250	0xbcb876e6	-0.022517633
251	0xbcc2bbcf	-0.023771195
252	0x3c8a8903	0.016911035
253	0x3d09a8fb	0.033608418
254	0xbcb96f7f	-0.022636173
255	0xbc22af82	-0.00992954

action_model._discrete_distribution.branches.0.bias f4 [3]
0	0x00000000	0.0
1	0x00000000	0.0
2	0x00000000	0.0

action_model._discrete_distribution.branches.0.weight f4 [3, 128]
0	0xbb75fd00	-0.0037534833
1	0xbc5a048b	-0.013306747
2	0xbcccc223	-0.024994915
3	0xbc8235f7	-0.015894873
4	0xbc32410f	-0.010879769
5	0xbc9c6664	-0.019091792
6	0x3c471953	0.012152034
7	0x3c5bab7b	0.013407583
8	0xbc5d2760	-0.013498157
9	0x3c35f63b	0.011106069
10	0x3c3bc8ff	0.011461495
11	0xba08be22	-0.000521632
12	0x3a22129a	0.00061825814
13	0xbc05d93b	-0.008169468
14	0x3b96dd47	0.004604015
15	0x3b107e99	0.0022048114
16	0xbc14ed91	-0.009089843
17	0x3c38c443	0.011277261
18	0x3c2f0e4d	0.010684562
19	0xba9778a4	-0.001155634
20	0x3a46ab92	0.00075786666
21	0x3c701e60	0.014655679
22	0xbc31376f	-0.010816439
23	0xbbfb6aad	-0.007672629
24	0xbb22bde1	-0.0024832415
25	0xbbd5ff82	-0.006530703
26	0xbc353487	-0.011059887
27	0x3bd79b6d	0.0065798075
28	0x3bd09c3b	0.0063662804
29	0x3b1f9017	0.002434736
30	0xbb2ba4c3	-0.0026190735
31	0xbca5f88f	-0.020260124
32	0xbb678c38	-0.003533138
33	0xbc37b1d2	-0.011211829
34	0xbbe95c43	-0.007121594
35	0xbae88efb	-0.0017742807
36	0x3b955109	0.0045567793
37	0xbbe625d0	-0.0070235506
38	0xbb634f4d	-0.0034684718
39	0xbac146e4	-0.0014745858
40	0xbb497ea3	-0.0030745647
41	0xba4ac7da	-0.00077354687
42	0x3c1f8fe6	0.009738898
43	0xbb87550f	-0.004130013
44	0x3c20fab9	0.009825402
45	0x3b764e45	0.0037583273
46	0x3bcb9edf	0.0062140073
47	0x3b9429ee	0.0045216
48	0x3c192ce3	0.009349081
49	0xbbb8ae07	-0.00563598
50	0xbb7329fd	-0.0037103884
51	0xbb12ce2f	-0.0022400727
52	0x3bba965e	0.0056941947
53	0xbb9a9901	-0.0047179465
54	0x3bad0e96	0.00528128
55	0x3b25cf27	0.0025300474
56	0xba8f3095	-0.0010924513
57	0x3bea672f	0.0071534137
58	0xbc21c700	-0.009874105
59	0xbbf509d0	-0.0074779764
60	0xbb4dcaa8	-0.003140131
61	0xbb1af2fc	-0.0023643365
62	0x3b9cc1b3	0.004783833
63	0xbc4210b1	-0.0118448
64	0x3b3bed4a	0.002867537
65	0x3aa0d6f6	0.0012271095
66	0x3b89e397	0.004208039
67	0xbc3edd7c	-0.011649486
68	0xbcd4fbe3	-0.025999015
69	0xbc49b4b0	-0.012311146
70	0x3c47aa87	0.012186653
71	0x3aca3d05	0.0015429562
72	0x3adacd9f	0.001669336
73	0xbabeeecb	-0.0014567015
74	0xbba13530	-0.0049196705
75	0xbbb9e2a0	-0.0056727678
76	0xbc1120a4	-0.00885788
77	0x3bffa923	0.007802145
78	0x3bd2928a	0.00642616
79	0x3c3109ab	0.010805528
80	0xbb816005	-0.003948214
81	0xbbeefa08	-0.0072929896
82	0xbc13550d	-0.008992446
83	0x3c6e13c0	0.014531076
84	0xbbe392d3	-0.006944993
85	0xbc1fc64d	-0.009751868
86	0xba0b0872	-0.00053036876
87	0xbb850da9	-0.0040604663
88	0xbc536147	-0.012901611
89	0xbbf7a6a5	-0.0075577074
90	0xbc3f6321	-0.011681349
91	0x3b7d4d45	0.0038650793
92	0x3bfe2b93	0.0077566593
93	0x3bbc1c4a	0.005740677
94	0xb84340db	-4.6552024e-05
95	0xbc11f28f	-0.008907928
96	0xbbf41807	-0.0074491533
97	0xbb09fdd4	-0.0021055834
98	0x3b7ce4da	0.0038588555
99	0xbb330135	-0.0027313952
100	0x3b89e0d2	0.004207709
101	0xbc300c5c	-0.010745134
102	0xbbca30eb	-0.0061703823
103	0xbb180a57	-0.0023199522
104	0xbcb6bdba	-0.022307266
105	0xbbc5e7da	-0.0060396018
106	0x3b378a63	0.002800607
107	0xb9f7636b	-0.00047185583
108	0xbc45116e	-0.012028081
109	0x3bb221ba	0.0054361494
110	0x3b14bcc1	0.0022695514
111	0xbb907fb4	-0.0044097546
112	0x3be440d8	0.006965738
113	0x3b5c41fb	0.0033608663
114	0xbc08caea	-0.00834916
115	0xbcaeb83d	-0.021328086
116	0x3b913c6a	0.0044322507
117	0x3bacc079	0.005271968
118	0x3bf6a29f	0.00752671
119	0xbb9bcafb	-0.0047544218
120	0xbb14bdcc	-0.0022696136
121	0xbbe9bcda	-0.0071331086
122	0xbb97879d	-0.0046243207
123	0xbb976d00	-0.004621148
124	0x3ba73b02	0.00510347
125	0xbb7a1252	-0.0038157892
126	0x3cb0edf7	0.021597845
127	0x3c20f8ce	0.009824945
128	0xba9b932d	-0.0011869423
129	0xbab51e03	-0.0013818148
130	0x3af306e3	0.0018541481
131	0x3bc32cb7	0.005956258
132	0x3be3b412	0.0069489563
133	0x3beecc6b	0.007287552
134	0xbb9df8ff	-0.0048209424
135	0xbc85457a	-0.01626848
136	0x3b41e2c7	0.0029584633
137	0x3b6b46c8	0.0035900343
138	0xbc22c6a6	-0.009935057
139	0xbc68ee0b	-0.01421691
140	0xbc8679bd	-0.016415471
141	0xbbaa7d87	-0.0052029523
142	0x3c3bb05c	0.011455622
143	0xbb56e343	-0.0032789267
144	0x3abfcc4a	0.0014633026
145	0x3bbda8e5	0.005787956
146	0x3bf58105	0.007492187
147	0x3bceaefd	0.0063074813
148	0x3b770030	0.003768932
149	0xbadcdb0b	-0.0016849948
150	0xbaecb8db	-0.0018060462
151	0xbbb35f55	-0.005474011
152	0x3c20dd06	0.009818321
153	0xb9baa052	-0.00035596133
154	0x3c2ccfa7	0.010547555
155	0x3a57d4ca	0.0008233307
156	0xbbc03dd3	-0.005866745
157	0x3bb3733a	0.0054763826
158	0x3b26d2ff	0.0025455353
159	0x3ab04ccd	0.0013450623
160	0x3bccfb3a	0.0062555345
161	0xbb54ecbd	-0.003248974
162	0xbaafff5a	-0.0013427541
163	0xbc033f8a	-0.008010754
164	0x3b92d129	0.0044805002
165	0xbc91c7e5	-0.017795512
166	0x3bdc6b0a	0.0067266272
167	0x3c0cc7b9	0.0085925395
168	0xbc066d70	-0.008204803
169	0xbc1e93db	-0.009678806
170	0x3b4e8d77	0.0031517425
171	0x3c2d014c	0.010559391
172	0xbc525e6a	-0.012839893
173	0xbc15882d	-0.009126705
174	0x3c4d4833	0.012529421
175	0xbc517993	-0.012785333
176	0x3c2c80d3	0.010528761
177	0x3b95167c	0.0045497995
178	0x3c4609ae	0.012087269
179	0x3c620b68	0.013796665
180	0xbc0e1765	-0.00867257
181	0xbc0dd66f	-0.008657082
182	0xbbd1a810	-0.0063982084
183	0x3aed30eb	0.0018096244
184	0xbb1c37fa	-0.0023837076
185	0x3b6d5125	0.0036211696
186	0x3c2d7fb0	0.010589525
187	0xbc084ec3	-0.0083195595
188	0xbc83800d	-0.01605227
189	0xbc01a333	-0.007912445
190	0xb9c92667	-0.0003836632
191	0x3bdfd258	0.006830495
192	0xbb4012c0	-0.002930805
193	0x3c20c8aa	0.009813467
194	0x3c36cc9f	0.011157184
195	0x3b4127d5	0.0029473205
196	0xbbb9edf8	-0.00567412
197	0xbc293a80	-0.010328889
198	0x3b85296b	0.0040637753
199	0xbb9753be	-0.004618137
200	0xbc48756b	-0.012235026
201	0xbb8a7d97	-0.0042263973
202	0xba8d9b89	-0.0010803799
203	0x3b5f0408	0.0034029502
204	0x3b7d382d	0.003863822
205	0x3c02d4ac	0.007985275
206	0x3c120ca0	0.008914143
207	0xbc22962d	-0.0099235
208	0x3bdcbdc7	0.0067364904
209	0xbc6423cd	-0.013924551
210	0xbbb3f567	-0.0054919007
211	0xbc5e8e3a	-0.013583714
212	0x3bc9b6d3	0.0061558275
213	0xbb950e30	-0.0045488104
214	0x3bc22a14	0.0059254263
215	0xbc5be0e0	-0.013420314
216	0xbc0a42ed	-0.008438808
217	0x3c90bcaf	0.017668096
218	0xbbffb03a	-0.0078029903
219	0x3b40e0df	0.0029430909
220	0xbb481c20	-0.0030534342
221	0x3cb4700f	0.02202609
222	0x3b840358	0.004028719
223	0x3c07d239	0.008289867
224	0x3a33e1af	0.00068619376
225	0xbb90a16c	-0.0044137742
226	0xbc545bbf	-0.012961327
227	0x3c472964	0.012155864
228	0x3c707c28	0.014678039
229	0xbacc6bbf	-0.0015596076
230	0xbbd9ffcd	-0.0066528083
231	0x3afd7cc3	0.001933955
232	0xbaec2ffa	-0.0018019669
233	0xba792ffb	-0.0009505746
234	0xbb8a57ab	-0.0042218766
235	0x3af55c12	0.0018719456
236	0x3c1ddc45	0.009635036
237	0xba15aa0b	-0.00057092373
238	0xbc3973a6	-0.011319077
239	0xbc8a79ed	-0.016903842
240	0x3c3b646a	0.011437515
241	0x3c96751f	0.018366395
242	0x3b82d54a	0.003992711
243	0x3add5b40	0.0016888157
244	0xbc15a3fb	-0.009133334
245	0x39641ce5	0.00021754538
246	0x3b261407	0.0025341527
247	0x3c0192b3	0.007908511
248	0xbbd4f042	-0.0064983675
249	0xbbe09be8	-0.006854523
250	0xb9ede15a	-0.00045372063
251	0xbc1efadb	-0.009703363
252	0x3c0913fa	0.008366579
253	0xbb966b2b	-0.004590412
254	0xbc9282af	-0.01788458
255	0xbc0a9915	-0.008459349

network_body._body_endoder.seq_layers.0.bias f4 [128]
0	0x00000000	0.0
1	0x00000000	0.0
2	0x00000000	0.0
3	0x00000000	0.0
4	0x00000000	0.0
5	0x00000000	0.0
6	0x00000000	0.0
7	0x00000000	0.0
8	0x00000000	0.0
9	0x00000000	0.0
10	0x00000000	0.0
11	0x00000000	0.0
12	0x00000000	0.0
13	0x00000000	0.0
14	0x00000000	0.0
15	0x00000000	0.0
16	0x00000000	0.0
17	0x00000000	0.0
18	0x00000000	0.0
19	0x00000000	0.0
20	0x00000000	0.0
21	0x00000000	0.0
22	0x00000000	0.0
23	0x00000000	0.0
24	0x00000000	0.0
25	0x00000000	0.0
26	0x00000000	0.0
27	0x00000000	0.0
28	0x00000000	0.0
29	0x00000000	0.0
30	0x00000000	0.0
31	0x00000000	0.0
32	0x00000000	0.0
33	0x00000000	0.0
34	0x00000000	0.0
35	0x00000000	0.0
36	0x00000000	0.0
37	0x00000000	0.0
38	0x00000000	0.0
39	0x00000000	0.0
40	0x00000000	0.0
41	0x00000000	0.0
42	0x00000000	0.0
43	0x00000000	0.0
44	0x00000000	0.0
45	0x00000000	0.0
46	0x00000000	0.0
47	0x00000000	0.0
48	0x00000000	0.0
49	0x00000000	0.0
50	0x00000000	0.0
51	0x00000000	0.0
52	0x00000000	0.0
53	0x00000000	0.0
54	0x00000000	0.0
55	0x00000000	0.0
56	0x00000000	0.0
57	0x00000000	0.0
58	0x00000000	0.0
59	0x00000000	0.0
60	0x00000000	0.0
61	0x00000000	0.0
62	0x00000000	0.0
63	0x00000000	0.0
64	0x00000000	0.0
65	0x00000000	0.0
66	0x00000000	0.0
67	0x00000000	0.0
68	0x00000000	0.0
69	0x00000000	0.0
70	0x00000000	0.0
71	0x00000000	0.0
72	0x00000000	0.0
73	0x00000000	0.0
74	0x00000000	0.0
75	0x00000000	0.0
76	0x00000000	0.0
77	0x00000000	0.0
78	0x00000000	0.0
79	0x00000000	0.0
80	0x00000000	0.0
81	0x00000000	0.0
82	0x00000000	0.0
83	0x00000000	0.0
84	0x00000000	0.0
85	0x00000000	0.0
86	0x00000000	0.0
87	0x00000000	0.0
88	0x00000000	0.0
89	0x00000000	0.0
90	0x00000000	0.0
91	0x00000000	0.0
92	0x00000000	0.0
93	0x00000000	0.0
94	0x00000000	0.0
95	0x00000000	0.0
96	0x00000000	0.0
97	0x00000000	0.0
98	0x00000000	0.0
99	0x00000000	0.0
100	0x00000000	0.0
101	0x00000000	0.0
102	0x00000000	0.0
103	0x00000000	0.0
104	0x00000000	0.0
105	0x00000000	0.0
106	0x00000000	0.0
107	0x00000000	0.0
108	0x00000000	0.0
109	0x00000000	0.0
110	0x00000000	0.0
111	0x00000000	0.0
112	0x00000000	0.0
113	0x00000000	0.0
114	0x00000000	0.0
115	0x00000000	0.0
116	0x00000000	0.0
117	0x00000000	0.0
118	0x00000000	0.0
119	0x00000000	0.0
120	0x00000000	0.0
121	0x00000000	0.0
122	0x00000000	0.0
123	0x00000000	0.0
124	0x00000000	0.0
125	0x00000000	0.0
126	0x00000000	0.0
127	0x00000000	0.0

network_body._body_endoder.seq_layers.0.weight f4 [128, 126]
0	0x3c2e8c6f	0.010653599
1	0xbca3aa07	-0.019978536
2	0x3cfe70ac	0.031059586
3	0xbdbcd0b3	-0.09219494
4	0xbd32afd4	-0.043624714
5	0x3b605bcd	0.0034234405
6	0x3df34e48	0.11880165
7	0xbd41dff2	-0.04733271
8	0x3e4b724c	0.1986782
9	0xbdd690cc	-0.104768366
10	0x3de26606	0.11054616
11	0xbd1b6fa6	-0.037948273
12	0x3ce04346	0.027375828
13	0xbe07592a	-0.13217607
14	0x3d862796	0.06550519
15	0x3d6c6369	0.057711992
16	0xbdfef093	-0.1244823
17	0x3dcba175	0.09942905
18	0x3d5a449e	0.053288095
19	0xbdd00f19	-0.1015913
20	0x3e34776e	0.17623684
21	0x3d70f3a1	0.058826093
22	0xbe324360	-0.17408514
23	0x3cb6e126	0.022324156
24	0xbc22e740	-0.00994283
25	0xbd98c574	-0.07459536
26	0xbd4d7256	-0.050157867
27	0x3d391536	0.045186244
28	0x3d8a8e8e	0.067654714
29	0x3e18420c	0.14868945
30	0xbd84baa9	-0.06480915
31	0x3df2b946	0.11851744
32	0xbd2b5884	-0.041832462
33	0x3de89680	0.113568306
34	0xbc8a1113	-0.016853845
35	0x3caa9e9b	0.020827582
36	0x3de8110d	0.11331377
37	0x3e6b298f	0.22965072
38	0xbca5d37f	-0.02024245
39	0xbd300e9f	-0.042982694
40	0x3e41854a	0.18898502
41	0xbcc04861	-0.023472013
42	0xbde8779f	-0.11350941
43	0xbd694d8c	-0.05695872
44	0x3d6bf9dd	0.057611335
45	0xbe09cbe1	-0.1345668
46	0x3c6ad4fc	0.014333006
47	0xbe39aac0	-0.18131542
48	0x3c31b84a	0.010847161
49	0x3b591b16	0.0033127717
50	0xbe078653	-0.13234834
51	0xbcf961b0	-0.030442089
52	0x3e044995	0.12918694
53	0x3d822c26	0.06356077
54	0x3d464c5d	0.04841267
55	0xbd195ef2	-0.037444063
56	0x3dc513f8	0.09622949
57	0x3e79a58a	0.24379554
58	0xbd412879	-0.04715774
59	0x3dc62a29	0.0967601
60	0x3d054fa4	0.032546654
61	0x3d9ddaec	0.07707772
62	0x3ce50d64	0.027960487
63	0xbd1c20f7	-0.038117375
64	0xbe23bafa	-0.15989295
65	0xbd1220fc	-0.035675988
66	0xbc3ea5e0	-0.011636227
67	0x3e0adcd7	0.13560806
68	0x3d8b3bce	0.06798516
69	0xbda1e8ff	-0.079057686
70	0x3de3fae7	0.1113184
71	0xbd8e44f5	-0.06946746
72	0x3e033d24	0.12816292
73	0xbddfe0a6	-0.1093152
74	0x3bd1d596	0.0064036353
75	0x3d2ffcbc	0.042965636
76	0xbcb6e038	-0.022323713
77	0xbda9e11f	-0.082948916
78	0x3cd1cdef	0.025610892
79	0xbcac332f	-0.0210205
80	0x3d2af077	0.04173323
81	0xbc1933c8	-0.0093507245
82	0x3dab8912	0.083757535
83	0xbd4ed7dc	-0.05049883
84	0xbd622c85	-0.05521824
85	0xbbee9702	-0.007281185
86	0x3d0ba475	0.034092385
87	0xbde029dd	-0.10945485
88	0xbce3ca1b	-0.027806332
89	0x3dfbf0a8	0.12301761
90	0x3d8b987b	0.06816193
91	0xbdb46f32	-0.08810271
92	0x3d8636b2	0.06553401
93	0xbd6700a1	-0.056397084
94	0x3de0710a	0.109590605
95	0x3db4bb71	0.08824814
96	0x3ce11739	0.027476894
97	0xbdcaa4bf	-0.09894704
98	0xbd69e17f	-0.057099815
99	0xbdeea607	-0.11652761
100	0xbe1c722e	-0.15277931
101	0xbb9e1ec3	-0.0048254444
102	0x3b549ff9	0.0032443984
103	0x3c9c7435	0.01909838
104	0xbced6f5b	-0.028983762
105	0xbe2c350c	-0.16817111
106	0x3b339286	0.0027400567
107	0xbd5af81c	-0.05345927
108	0xbe31c258	-0.17359293
109	0xbe2f0452	-0.17091492
110	0xbda6d3ab	-0.08145841
111	0xbe2b7e3a	-0.1674737
112	0x3d1cfa51	0.038324658
113	0x3d0385cc	0.03211002
114	0x3ba0cde8	0.0049073584
115	0xbd578bc8	-0.05262354
116	0x3da136e6	0.07871799
117	0x3e1b554e	0.1516926
118	0xbdb37ead	-0.08764396
119	0xbe2e0714	-0.16994888
120	0x3db83baf	0.08995759
121	0x3d839019	0.06423969
122	0x3d4bb8b8	0.04973671
123	0xbccf17d7	-0.025279922
124	0x3da7ad17	0.08187311
125	0x3d707ca6	0.058712624
126	0xbe3b51d6	-0.18292937
127	0x3cc27b66	0.023740482
128	0x3dc4f46f	0.096169345
129	0xbe27abe6	-0.16374168
130	0x3e2e0223	0.16993003
131	0x3d7836f4	0.060599282
132	0xbd12d0ad	-0.03584354
133	0xb9c48b4d	-0.0003748782
134	0xbc9a4136	-0.018829923
135	0x3c5250dc	0.012836661
136	0x3d38e737	0.04514238
137	0x3dd5b29c	0.10434458
138	0x3dcd2724	0.10017231
139	0xbca652d1	-0.020303162
140	0x3c21477a	0.0098437015
141	0xbe543496	-0.20723185
142	0xbd230052	-0.039795227
143	0xbdd234cc	-0.102639765
144	0xbd6d382f	-0.05791491
145	0xbd58beb4	-0.052916244
146	0xbd8e51ea	-0.069492176
147	0x3e32bd68	0.17455065
148	0x3d6e1a3b	0.058130484
149	0xbe12ac72	-0.14323595
150	0x3d3f7ca8	0.04674974
151	0xbd2a5d73	-0.041593026
152	0x3d80cd01	0.062891014
153	0xbda5d569	-0.080973454
154	0x3cb2d32d	0.021829212
155	0x3ddd76fd	0.10813711
156	0x3bacf6c9	0.0052784425
157	0x3d81297d	0.063067414
158	0x3e01aa51	0.12662627
159	0xbbdfb1c9	-0.0068266136
160	0xbd828962	-0.0637386
161	0x3e00e4d6	0.12587294
162	0xbc83bde9	-0.016081767
163	0xbdb173c1	-0.086646564
164	0xbe6b1b4e	-0.22959635
165	0xbe556052	-0.20837525
166	0xbda3b849	-0.07994134
167	0x3d651b5b	0.05593429
168	0x3dc80525	0.09766606
169	0xbcfd4d78	-0.030920729
170	0x3de6f49f	0.112771265
171	0xbdfd80ef	-0.12378108
172	0x3d5b09ad	0.053476024
173	0x3dbfbbec	0.09362015
174	0xbdeb03bd	-0.114753224
175	0xbe16b8d4	-0.14718944
176	0xbdb8b5c0	-0.09019041
177	0xbd0b8e20	-0.034071088
178	0x3cb8224e	0.022477295
179	0xbcf0c2ea	-0.029389817
180	0xbd1c9940	-0.038232088
181	0xbdfe3637	-0.124126844
182	0x3d78891b	0.06067763
183	0xbc7867f7	-0.015161506
184	0xbd78a7a1	-0.06070674
185	0xbd49ac73	-0.049236726
186	0x3da05d60	0.0783031
187	0xbe0fc5f4	-0.14040357
188	0xbdba6c3c	-0.09102675
189	0x3e12abfa	0.14323416
190	0x3dc49ddd	0.096004225
191	0xbd84d67a	-0.06486221
192	0x3d25c444	0.040470377
193	0xbc39117c	-0.0112956725
194	0x3dbc037b	0.09180351
195	0x3c6f6d57	0.014613471
196	0xbd80e59b	-0.06293794
197	0x3ca24feb	0.019813498
198	0x3d7facf0	0.062420785
199	0xbce5807f	-0.028015373
200	0x3e44eb7f	0.1923046
201	0x3c967fbd	0.018371457
202	0x3cd92bea	0.026510198
203	0xbd26a97f	-0.040688988
204	0xbe077f38	-0.13232124
205	0x3d9534bf	0.07285451
206	0xbe2dae75	-0.16961081
207	0x3dab53f7	0.083656244
208	0x3d4c7893	0.049919676
209	0xbc945d1e	-0.018110808
210	0x3d5133b4	0.0510747
211	0xbe00b27f	-0.12568091
212	0x3c8b4650	0.017001301
213	0x3c6f516a	0.014606813
214	0x3e510597	0.20412289
215	0xbda54f82	-0.080718055
216	0xbc3cf1a6	-0.011532223
217	0xbd5de731	-0.05417556
218	0x3d59ec42	0.05320383
219	0xbd69b4a7	-0.05705705
220	0x3d0c199f	0.03420412
221	0xbe652a5e	-0.22379443
222	0x3ceb858e	0.028750207
223	0xbcbd9f3c	-0.023147218
224	0xbd6a1439	-0.057148192
225	0xbddda68e	-0.108227834
226	0x3e02b2ac	0.1276347
227	0x3c818858	0.015812084
228	0x3ce47a7e	0.02789044
229	0x3da7992f	0.08183514
230	0x3d9ceee1	0.0766275
231	0x3ca59d24	0.020216532
232	0x3d982c4f	0.07430326
233	0x3ceb5ada	0.028729845
234	0xbe76d5e1	-0.24105026
235	0xbd449474	-0.04799314
236	0x3e004e8d	0.12529965
237	0x3d149e39	0.036283705
238	0xbdd69b8c	-0.10478887
239	0x3c9ea21e	0.019364413
240	0x3d8a98d2	0.067674294
241	0x3d7e54a5	0.062092442
242	0xbe809ba3	-0.2511874
243	0xbb0a639a	-0.0021116496
244	0xbda76ef6	-0.08175461
245	0x3d6042e3	0.05475129
246	0xbc8fa157	-0.017532988
247	0x3d2de735	0.042456824
248	0x3d805440	0.062660694
249	0xbe842d8c	-0.25816
250	0xbd64b2f1	-0.055834714
251	0xbc80ac3a	-0.015707124
252	0xbc85d231	-0.016335579
253	0xbb1a33ec	-0.0023529483
254	0x3d97a9ff	0.07405471
255	0xbd85fac9	-0.06541974

network_body._body_endoder.seq_layers.2.bias f4 [128]
0	0x00000000	0.0
1	0x00000000	0.0
2	0x00000000	0.0
3	0x00000000	0.0
4	0x00000000	0.0
5	0x00000000	0.0
6	0x00000000	0.0
7	0x00000000	0.0
8	0x00000000	0.0
9	0x00000000	0.0
10	0x00000000	0.0
11	0x00000000	0.0
12	0x00000000	0.0
13	0x00000000	0.0
14	0x00000000	0.0
15	0x00000000	0.0
16	0x00000000	0.0
17	0x00000000	0.0
18	0x00000000	0.0
19	0x00000000	0.0
20	0x00000000	0.0
21	0x00000000	0.0
22	0x00000000	0.0
23	0x00000000	0.0
24	0x00000000	0.0
25	0x00000000	0.0
26	0x00000000	0.0
27	0x00000000	0.0
28	0x00000000	0.0
29	0x00000000	0.0
30	0x00000000	0.0
31	0x00000000	0.0
32	0x00000000	0.0
33	0x00000000	0.0
34	0x00000000	0.0
35	0x00000000	0.0
36	0x00000000	0.0
37	0x00000000	0.0
38	0x00000000	0.0
39	0x00000000	0.0
40	0x00000000	0.0
41	0x00000000	0.0
42	0x00000000	0.0
43	0x00000000	0.0
44	0x00000000	0.0
45	0x00000000	0.0
46	0x00000000	0.0
47	0x00000000	0.0
48	0x00000000	0.0
49	0x00000000	0.0
50	0x00000000	0.0
51	0x00000000	0.0
52	0x00000000	0.0
53	0x00000000	0.0
54	0x00000000	0.0
55	0x00000000	0.0
56	0x00000000	0.0
57	0x00000000	0.0
58	0x00000000	0.0
59	0x00000000	0.0
60	0x00000000	0.0
61	0x00000000	0.0
62	0x00000000	0.0
63	0x00000000	0.0
64	0x00000000	0.0
65	0x00000000	0.0
66	0x00000000	0.0
67	0x00000000	0.0
68	0x00000000	0.0
69	0x00000000	0.0
70	0x00000000	0.0
71	0x00000000	0.0
72	0x00000000	0.0
73	0x00000000	0.0
74	0x00000000	0.0
75	0x00000000	0.0
76	0x00000000	0.0
77	0x00000000	0.0
78	0x00000000	0.0
79	0x00000000	0.0
80	0x00000000	0.0
81	0x00000000	0.0
82	0x00000000	0.0
83	0x00000000	0.0
84	0x00000000	0.0
85	0x00000000	0.0
86	0x00000000	0.0
87	0x00000000	0.0
88	0x00000000	0.0
89	0x00000000	0.0
90	0x00000000	0.0
91	0x00000000	0.0
92	0x00000000	0.0
93	0x00000000	0.0
94	0x00000000	0.0
95	0x00000000	0.0
96	0x00000000	0.0
97	0x00000000	0.0
98	0x00000000	0.0
99	0x00000000	0.0
100	0x00000000	0.0
101	0x00000000	0.0
102	0x00000000	0.0
103	0x00000000	0.0
104	0x00000000	0.0
105	0x00000000	0.0
106	0x00000000	0.0
107	0x00000000	0.0
108	0x00000000	0.0
109	0x00000000	0.0
110	0x00000000	0.0
111	0x00000000	0.0
112	0x00000000	0.0
113	0x00000000	0.0
114	0x00000000	0.0
115	0x00000000	0.0
116	0x00000000	0.0
117	0x00000000	0.0
118	0x00000000	0.0
119	0x00000000	0.0
120	0x00000000	0.0
121	0x00000000	0.0
122	0x00000000	0.0
123	0x00000000	0.0
124	0x00000000	0.0
125	0x00000000	0.0
126	0x00000000	0.0
127	0x00000000	0.0

network_body._body_endoder.seq_layers.2.weight f4 [128, 128]
0	0x3da9a145	0.08282713
1	0x3e0d464a	0.13796344
2	0xbdd9a4df	-0.1062715
3	0x3ccd137c	0.025033705
4	0x3d4cb0d6	0.04997333
5	0x3e3f073f	0.18655108
6	0x3d55edd1	0.052228753
7	0x3d845ba7	0.06462794
8	0x3baaab53	0.0052084117
9	0xbe10ebfc	-0.14152521
10	0x3dc93653	0.09824815
11	0xbcb18d17	-0.021673722
12	0xbdceca52	-0.10097183
13	0xbd260c7b	-0.040539246
14	0xbcc3397a	-0.023831118
15	0xbd6deeda	-0.058089115
16	0xbd52254c	-0.0513051
17	0x3e1014ea	0.14070478
18	0xbcf2a0ea	-0.029617745
19	0x3c28d3da	0.010304416
20	0x3d35dd4a	0.04440049
21	0x3e3c9d2c	0.18419331
22	0x3c309aab	0.010779063
23	0x3d9145fe	0.07093428
24	0x3d06208d	0.032745887
25	0x3e039206	0.12848672
26	0xbca58ce6	-0.020208787
27	0xbd717864	-0.058952704
28	0xbdecdd68	-0.115656674
29	0xbdd396ba	-0.10331483
30	0xbc9fe4e1	-0.019518318
31	0x3d8978fc	0.06712529
32	0x3dd3942b	0.10330995
33	0x3d948261	0.0725143
34	0xbd634261	-0.055483226
35	0x3de7f3f8	0.1132583
36	0xbde157b4	-0.11003056
37	0xbd81695a	-0.06318922
38	0x3cf6e330	0.030137628
39	0x3deb08b1	0.11476267
40	0xbd9011be	-0.07034634
41	0xbdd2b244	-0.10287908
42	0x3e22d16b	0.15900199
43	0x3d350101	0.04419041
44	0xbcc19f3f	-0.023635505
45	0xbdf2cc4f	-0.11855375
46	0x3d45d921	0.048302773
47	0xbd85eab9	-0.065389104
48	0xbe090eac	-0.13384503
49	0xbd1ba936	-0.03800317
50	0x3e2c2057	0.16809212
51	0xbc47be03	-0.012191298
52	0x3d394880	0.045235157
53	0xbdd50170	-0.10400665
54	0xbd0d8d8e	-0.034558825
55	0xbd7f36a5	-0.062307972
56	0xbe052709	-0.13003172
57	0x3e313305	0.17304619
58	0xbd43ac22	-0.04777158
59	0xbc2b7afa	-0.010466332
60	0xbc82b19c	-0.015953831
61	0xbdd43123	-0.103609346
62	0x3e02869a	0.12746659
63	0x3d03dbd5	0.03219207
64	0xbdcefa09	-0.10106284
65	0xbd001f62	-0.03127993
66	0x3d129e52	0.035795517
67	0xbd8cfbbf	-0.06883954
68	0xbc46e355	-0.012139161
69	0x3c3165cf	0.010827496
70	0xbe615050	-0.22003293
71	0x3d1f8e17	0.038953867
72	0x3e3fb45d	0.18721147
73	0x3e0961c3	0.134162
74	0xbd310042	-0.043213136
75	0xbd528308	-0.051394492
76	0x3ca93fb9	0.020660268
77	0x3cf96900	0.030445576
78	0x3da6f5d8	0.0815236
79	0x3dbce7f3	0.09223928
80	0xbcc61272	-0.024178717
81	0xbe5bd78b	-0.21468942
82	0xbd8e2872	-0.06941308
83	0x3d82e018	0.06390399
84	0x3e2c18d8	0.16806352
85	0xbe0b3f90	-0.13598466
86	0xbd015d63	-0.0315832
87	0xbe0de5f9	-0.13857259
88	0x3e0032c8	0.12519372
89	0xbcffe18b	-0.031235477
90	0xbcaa3ef3	-0.02078197
91	0xbd56d779	-0.052451584
92	0x3cfc6835	0.030811409
93	0x3d8660e2	0.06561448
94	0x3daf07e4	0.08546427
95	0xbdad7926	-0.08470373
96	0xbc91a45e	-0.017778572
97	0xbde3c9c6	-0.111224696
98	0xbd314a1d	-0.04328357
99	0x3e0eec12	0.13957241
100	0x3df3e6b6	0.11909239
101	0xbbf67897	-0.0075216996
102	0xbd826adb	-0.06368037
103	0x3e3e86d5	0.18606122
104	0xbd3b85be	-0.045781843
105	0x3d96d6cf	0.0736519
106	0xbdcab54e	-0.098978624
107	0xbc8aca5a	-0.016942192
108	0xbc51c16b	-0.012802462
109	0xbded62a1	-0.115910776
110	0x3bf00623	0.0073249503
111	0xbd71c299	-0.059023473
112	0xbe307f65	-0.17236097
113	0x3d2e7df7	0.0426006
114	0x3ca2b68c	0.019862436
115	0xbdbc6f9a	-0.09200974
116	0x3dd4b96a	0.103869274
117	0xbdbe87c1	-0.09303237
118	0xbe077567	-0.13228379
119	0x3da675cf	0.08127939
120	0xbcd8586d	-0.026409352
121	0xbd80d1cf	-0.06290018
122	0x3d2f56d8	0.04280743
123	0xbc96acad	-0.018392885
124	0x3dbc8523	0.09205081
125	0xbe0f5c31	-0.14000012
126	0x3e1d4fe0	0.15362501
127	0x3dde68c3	0.108598255
128	0xbd34fe9b	-0.044188123
129	0xbcf73a70	-0.030179232
130	0xbe51f4e0	-0.20503569
131	0xbb58f585	-0.0033105325
132	0xbca37baf	-0.019956438
133	0xbd859edd	-0.065244414
134	0xbbdd1cc8	-0.0067478158
135	0x3cb5f9f6	0.022213917
136	0x3c9705e6	0.01843543
137	0x3dcfbb45	0.10143141
138	0xbdb72065	-0.08941726
139	0xbcc4aa02	-0.024006847
140	0xbcd400dc	-0.025879316
141	0x3dbb9410	0.091591
142	0x3dd4f81f	0.10398888
143	0xbd8269f9	-0.06367869
144	0x3d1c6a50	0.038187325
145	0x3d566a6c	0.052347586
146	0x3c0553b8	0.008137636
147	0xbcd678ec	-0.026180707
148	0x3cfd665d	0.0309326
149	0x3d802c40	0.0625844
150	0x3c295887	0.010336048
151	0xba742d09	-0.0009314572
152	0x3cf734d0	0.03017655
153	0x3de2aad7	0.11067741
154	0xbcbdc9bd	-0.023167485
155	0x3d9942de	0.07483457
156	0xbd2192e9	-0.039446745
157	0xba09b4dc	-0.00052530854
158	0xbe21f402	-0.15815738
159	0xbc8fb2a0	-0.01754123
160	0x3c284324	0.010269914
161	0xb67a05f4	-3.7256368e-06
162	0x3de4ed78	0.11178106
163	0xbd047f7f	-0.032348152
164	0xbd2d25ea	-0.042272486
165	0xbdbb2e02	-0.09139635
166	0xbdadc4f2	-0.0848483
167	0x3d948808	0.072525084
168	0x3d3ddd51	0.046353642
169	0xbe009483	-0.12556653
170	0xbc2d55b4	-0.010579515
171	0x3d85b509	0.0652867
172	0xbd98439b	-0.0743477
173	0xbd96ed6f	-0.073695056
174	0xbbb78668	-0.0056007393
175	0xbc44f534	-0.012021352
176	0xbd6b322a	-0.057420887
177	0x3ca24784	0.019809492
178	0xbcd9fdab	-0.026610216
179	0x3d97b2fe	0.07407187
180	0x3d9b4b2f	0.075826995
181	0xbe27d64f	-0.16390346
182	0x3d978ed7	0.074002914
183	0x3d5244ec	0.05133526
184	0x3d0383c8	0.0321081
185	0xbe0927a6	-0.13394031
186	0x3e01c5cc	0.1267311
187	0xbdacf83e	-0.08445786
188	0xbc5c6d8c	-0.013453852
189	0xbcde5cb8	-0.027143821
190	0xbda17e9d	-0.07885478
191	0x3c640cb1	0.0139190415
192	0xbdef7b95	-0.11693493
193	0xbe042305	-0.12903984
194	0xbde24d2b	-0.11049875
195	0x3c6aa8a6	0.0143224355
196	0xbd8a26de	-0.067456946
197	0x3d5ac430	0.053409755
198	0xbd824d5a	-0.0636241
199	0x3de9ac0e	0.1140977
200	0x3d6f4a8e	0.05842071
201	0x3c1cc344	0.009568039
202	0x3d480408	0.04883197
203	0xbdda09e0	-0.10646415
204	0xbe00de20	-0.12584734
205	0xbe169948	-0.1470691
206	0xbe100026	-0.14062557
207	0x3cdb4e5b	0.026770761
208	0xbdc1f037	-0.094696455
209	0xbd48c8f3	-0.049019765
210	0xbdd57e15	-0.10424439
211	0xba8d7329	-0.0010791767
212	0x3d662cea	0.056195177
213	0x3d8a4918	0.06752223
214	0x3d1db824	0.03850569
215	0x3d7f6a4c	0.062357232
216	0xbd1616f9	-0.036643002
217	0x3d7f3c77	0.062313523
218	0x3c1c7312	0.009548919
219	0xbdf13612	-0.11777891
220	0x3e1b4517	0.15163074
221	0x3c83016a	0.015991885
222	0xbd1f4e64	-0.03889312
223	0xbdbc8627	-0.09205275
224	0xbe4034f7	-0.18770204
225	0xbda30cf9	-0.07961459
226	0xbdad0d5a	-0.08449812
227	0x3d8b93db	0.068153106
228	0xbc0e3821	-0.008680374
229	0x3db25a0a	0.0870858
230	0xbe38da42	-0.18052009
231	0x3d8f6c00	0.07003021
232	0x3d8369eb	0.064166866
233	0xbdfbfbb7	-0.1230387
234	0x3d8aea1d	0.06782935
235	0x3d4d2e39	0.05009291
236	0x3dc15868	0.0944069
237	0xbc45d687	-0.012075073
238	0x3db7d7ed	0.089767314
239	0x3dab2928	0.08357459
240	0xbd39d16e	-0.045365743
241	0xbc00410c	-0.007828008
242	0xbd0d64e6	-0.034520052
243	0x3c92364e	0.01784816
244	0x3cafd735	0.021464923
245	0xbdbb93ea	-0.09159072
246	0xbe45e566	-0.1932579
247	0x3d4caab3	0.04996748
248	0x3cb6737f	0.02227187
249	0xbc5ecb29	-0.013598242
250	0xbe3d06ba	-0.18459597
251	0x3e6102a8	0.2197367
252	0xbd9bb9d6	-0.07603805
253	0xbcbc156d	-0.022959435
254	0x3c47f5a1	0.012204559
255	0xbd504d8e	-0.050855212
