results/ppo/MlAgent/MlAgent-3456.pt (torch, 273103 bytes, 12 tensors)

network_body._body_endoder.seq_layers.0.weight f4 [128, 126]
000000 90 7c b7 bd 45 4e 59 bd f1 4a 08 3e ae be 2b 3e
       -0.08959305 -0.05305316 0.13309838 0.16771957
000010 ba 1e de 3d 32 ac 23 bb 74 05 e5 bd b3 5f bb bc
       0.108457044 -0.0024974463 -0.11182681 -0.022872781
000020 49 d8 ac bc 4a 3f 3a 3d a8 f9 88 bd 8a bd 95 3d
       -0.021099227 0.045470513 -0.06688243 0.07311542
000030 01 49 11 be 5d d7 53 bd eb b0 a0 3d be 83 e0 bd
       -0.14188005 -0.05171906 0.078462444 -0.10962628
000040 1a 94 32 bd 74 16 85 3d 30 68 c2 bd eb 4b f2 bb
       -0.043598272 0.06498423 -0.094925284 -0.007394304
000050 17 61 33 3d 61 aa 33 3e 02 ce 78 bd 4a db 15 3e
       0.043793764 0.17545463 -0.06074334 0.14634433
000060 90 cc 01 3d bd ff ad 3c 1e c8 57 bd f0 bc 0c 3b
       0.031689227 0.02124011 -0.05268108 0.002147492
000070 e3 08 1a 3e 90 ad 8b 3d 11 69 08 ba ee bb a5 3d
       0.15042453 0.06820214 -0.00052036444 0.08092485
000080 2a ef 79 bb 9d 26 36 3e e2 87 11 bd e3 e2 0b 3d
       -0.0038136938 0.17788167 -0.03552998 0.034151923
000090 46 82 8a bd 5a 54 09 be c8 87 ac 3b 75 99 aa 3d
       -0.06763129 -0.13411084 0.00526521 0.08330051
0000a0 fe 82 a6 3d 1a 95 4d 3e 0a 9c b3 3c a3 c5 c1 3d
       0.081304535 0.20076409 0.021924991 0.09461524
0000b0 83 77 ce 3d 0d 17 72 3c ec b6 f8 bd ba c7 ea 3d
       0.10081389 0.014776004 -0.121442646 0.11463876
0000c0 07 2d fa bd e6 60 0c be b3 0e 42 3c 19 f6 e5 3c
       -0.122156195 -0.13708839 0.011844325 0.02807145
0000d0 3d 7d b8 bd 64 56 7a 3d 04 54 9e bb 05 68 ee 3d
       -0.09008262 0.061117545 -0.004831793 0.11640934
0000e0 e3 20 6c 3e cf 78 7f 3d 3f 35 ce bd c5 f0 67 3d
       0.2305942 0.06237107 -0.1006875 0.0566261
0000f0 e2 0f 8f 3d aa d3 57 3c 3f cd 8e bd 3e 03 da 3a
       0.06985451 0.013173023 -0.06972741 0.0016633046
000100 44 e9 05 3e 01 e0 91 3d 66 ca 59 3d 8f d5 a9 3b
       0.13077265 0.071228035 0.053171538 0.005182929
000110 8f b1 c7 bd 52 15 ca bd 1a 8d a1 bd 1e 78 4f 3d
       -0.097506635 -0.09867348 -0.07888241 0.050651662
000120 ff 6f e4 bc a2 bd 84 bd 01 0f f7 bc b2 03 9f bd
       -0.027885435 -0.06481482 -0.030158522 -0.07764377
000130 22 d4 86 bd b1 50 8c bc 87 d6 b1 bd dd 5c b0 b9
       -0.0658343 -0.01712832 -0.08683496 -0.00033638524
000140 3d d7 ba bd c5 eb 76 bd ae 4f 6a bc b4 aa a8 3c
       -0.09123085 -0.06028344 -0.014301224 0.02058921
000150 6f 19 e0 bd 89 b2 1e be 10 94 0d be 9f 42 98 bd
       -0.10942351 -0.15497793 -0.13826013 -0.07434582
000160 91 e7 0b 3e 89 3b 6c bd da f5 fa 3d 79 ea 0a 3e
       0.13662554 -0.057673965 0.12253924 0.13566007
000170 91 bc b4 3c 7f e0 bd bd 42 99 1e 3d 3c 37 34 3d
       0.022062572 -0.09271335 0.038720377 0.043997988
000180 7e 08 9c 3c 29 38 a6 3d 84 19 36 bd b3 cd 54 bd
       0.019047018 0.081161804 -0.044457927 -0.051953983
000190 c4 15 13 bd e4 1e 15 ba 58 57 64 3d ef 2a 04 3c
       -0.03590943 -0.0005688502 0.05574736 0.008066877
0001a0 17 03 02 be 5f 2c 8a 3d f4 31 f3 bb 8c 6b 1d bd
       -0.12696491 0.06746744 -0.0074217264 -0.038432643
0001b0 f8 0f 26 3d b0 1f ca 3c 10 aa c8 3d 19 c6 2b 3d
       0.040542573 0.024673313 0.09798062 0.041936968
0001c0 ca 26 06 bd 81 d3 ed bd e2 b6 3f 3e dd 09 20 be
       -0.032751836 -0.11612607 0.18722108 -0.15628763
0001d0 32 f8 ac 3d 54 4e 2a bd b3 01 bf bd d9 59 93 3c
       0.08445777 -0.041578606 -0.09326496 0.017987179
0001e0 9a 92 4b 3d bf 55 e7 3c 10 d7 f7 bd 43 e9 a6 3d
       0.049700357 0.02823913 -0.12101567 0.0814996
0001f0 25 d2 bc bc c4 b8 cd 3c f0 c8 00 be bb 36 20 bd
       -0.023049423 0.025112517 -0.12576652 -0.039114695
000200 61 fe 97 bd 26 ed 1d bd b8 da dd 3d 76 34 b8 3b
       -0.07421566 -0.03855624 0.10832733 0.005621488
000210 30 76 c5 bc 13 01 93 3c bc 0f c3 3c a1 68 6d 3d
       -0.024104208 0.017944848 0.023811214 0.05796111
000220 65 2a 34 3d ff 89 16 3d 40 64 e1 bd ce 87 5e 3d
       0.043985743 0.036752697 -0.11005449 0.054328732
000230 fa 16 d8 3d 61 1d 48 bd 10 69 26 3c 30 83 ad bd
       0.105512574 -0.048856143 0.010156885 -0.08472288
000240 2e a4 fa 3c 8e 58 66 3c c4 f7 a0 3b 16 5b 36 bd
       0.030595865 0.014059199 0.0049123485 -0.04452046
000250 50 9f d0 bc bb d0 ce bd d9 de ea bd a3 a6 10 bd
       -0.025466591 -0.10098406 -0.11468286 -0.035315167
000260 1b aa 22 bd c7 cc 35 bd 46 c8 16 3e 9e 7e 20 bd
       -0.039713006 -0.044384744 0.14724836 -0.03918325
000270 cd 25 65 bd f3 96 66 bc fe 4c c7 3d a7 47 33 bd
       -0.055944253 -0.014074075 0.09731482 -0.043769505
000280 8a 24 c2 3c 14 7f 57 3e 1b 15 2e bd a3 08 b9 bd
       0.023699064 0.2104457 -0.042500596 -0.090348504
000290 70 47 be bd 0a bf ac 3c 91 1d c6 bc 16 a0 ae bd
       -0.09290969 0.021087188 -0.02418402 -0.08526628
0002a0 58 bb fe 3c 43 b2 9c 3d 14 97 ff bd 0c 17 d7 bd
       0.031095192 0.07651188 -0.12479988 -0.10502443
0002b0 ce 01 f6 bd de ec d6 3d 42 4f 39 3d 45 dc c4 3c
       -0.12012063 0.104943976 0.0452416 0.024030814
0002c0 4f 02 b1 bd 14 49 03 3d 19 a2 b9 bd 16 a9 f9 3d
       -0.086430185 0.032052115 -0.09064121 0.12190454
0002d0 e3 2e 63 3d 56 02 f6 bd 86 08 18 3d 20 ab e5 bd
       0.055464637 -0.12012164 0.037117504 -0.1121428
0002e0 c5 0a 3a be 7d b7 46 bd 95 e8 c3 3d 2b a4 4f 3c
       -0.18168171 -0.04851483 0.09565846 0.012673418
0002f0 ba f4 24 bc 0d 2a d2 bd e2 dd cc 3d e0 54 b3 bd
       -0.010068113 -0.10261927 0.10003258 -0.08756423
000300 2b ed b7 3d 49 d5 4a bd 83 ab 07 3e af 2f 29 3c
       0.08980783 -0.04951981 0.1324902 0.01032631
000310 71 e8 46 3d f8 64 4f 3c dc 30 48 bd ba 0f 9a bd
       0.048561517 0.01265835 -0.04887472 -0.07522531
000320 ca 58 69 3d 4b be 16 3e df 76 f5 3c e0 b9 7a bd
       0.05696944 0.14721029 0.029963909 -0.06121242
000330 1f ab 8c 3d 96 01 df bc 05 1b c7 bd bf b6 1c 3e
       0.06868576 -0.027222436 -0.097219504 0.15304087
000340 53 c8 13 be d0 53 49 3e 49 9e 53 bd b5 57 04 3b
       -0.14431886 0.19660878 -0.051664624 0.002019388
000350 38 af be bd 99 f7 33 3d 81 94 21 bd 0c 0b 0e be
       -0.09310764 0.0439373 -0.039448265 -0.13871402
000360 36 67 88 3c 15 4a 22 3d 3e 1c 4c 3d eb ce 98 3d
       0.016650777 0.03962143 0.04983162 0.074613415
000370 27 69 02 3d 8f cb 9e bd 07 43 6f bd 76 ab 9d 3d
       0.031838562 -0.077536695 -0.05841353 0.07698719
000380 d5 91 0b 3c 3a c8 c5 bd 97 69 a6 bd fe 2c 76 3d
       0.008518656 -0.09657331 -0.081256084 0.0601015
000390 61 26 83 bd 0a e7 0c be ff df 54 be 06 b1 82 3d
       -0.064038046 -0.1376001 -0.20788573 0.06381421
0003a0 51 9c c5 bb 27 02 b0 3d 5f cb fb bd 02 e6 73 bd
       -0.0060305973 0.085941605 -0.12294649 -0.059545524
0003b0 6d 90 4b 3d b0 33 ad 3c 9e 91 1f be c7 1d d1 bd
       0.049698282 0.02114281 -0.15582892 -0.10210758
0003c0 84 6c 3f bd b6 33 04 3d 3b d0 31 3d c5 89 8a 3d
       -0.046734348 0.032275878 0.043411475 0.06764559
0003d0 5b 3d 01 bc 55 d0 9b 3d cb 86 a4 bd 44 88 c4 3c
       -0.007888163 0.076080956 -0.08033522 0.023990758
0003e0 54 62 96 3d 1a 53 4d 3d f9 78 94 3d e5 0c c4 3c
       0.07342973 0.05012808 0.07249636 0.02393193
0003f0 36 99 f3 bc bd cb 68 bd 6c 6e f8 3d 87 db d3 3d
       -0.029736143 -0.056834925 0.12130436 0.10344606

network_body._body_endoder.seq_layers.0.bias f4 [128]
000000 00 00 00 00 00 00 00 00 00 00 00 00 00 00 00 00
       0.0 0.0 0.0 0.0
000010 00 00 00 00 00 00 00 00 00 00 00 00 00 00 00 00
       0.0 0.0 0.0 0.0
000020 00 00 00 00 00 00 00 00 00 00 00 00 00 00 00 00
       0.0 0.0 0.0 0.0
000030 00 00 00 00 00 00 00 00 00 00 00 00 00 00 00 00
       0.0 0.0 0.0 0.0
000040 00 00 00 00 00 00 00 00 00 00 00 00 00 00 00 00
       0.0 0.0 0.0 0.0
000050 00 00 00 00 00 00 00 00 00 00 00 00 00 00 00 00
       0.0 0.0 0.0 0.0
000060 00 00 00 00 00 00 00 00 00 00 00 00 00 00 00 00
       0.0 0.0 0.0 0.0
000070 00 00 00 00 00 00 00 00 00 00 00 00 00 00 00 00
       0.0 0.0 0.0 0.0
000080 00 00 00 00 00 00 00 00 00 00 00 00 00 00 00 00
       0.0 0.0 0.0 0.0
000090 00 00 00 00 00 00 00 00 00 00 00 00 00 00 00 00
       0.0 0.0 0.0 0.0
0000a0 00 00 00 00 00 00 00 00 00 00 00 00 00 00 00 00
       0.0 0.0 0.0 0.0
0000b0 00 00 00 00 00 00 00 00 00 00 00 00 00 00 00 00
       0.0 0.0 0.0 0.0
0000c0 00 00 00 00 00 00 00 00 00 00 00 00 00 00 00 00
       0.0 0.0 0.0 0.0
0000d0 00 00 00 00 00 00 00 00 00 00 00 00 00 00 00 00
       0.0 0.0 0.0 0.0
0000e0 00 00 00 00 00 00 00 00 00 00 00 00 00 00 00 00
       0.0 0.0 0.0 0.0
0000f0 00 00 00 00 00 00 00 00 00 00 00 00 00 00 00 00
       0.0 0.0 0.0 0.0
000100 00 00 00 00 00 00 00 00 00 00 00 00 00 00 00 00
       0.0 0.0 0.0 0.0
000110 00 00 00 00 00 00 00 00 00 00 00 00 00 00 00 00
       0.0 0.0 0.0 0.0
000120 00 00 00 00 00 00 00 00 00 00 00 00 00 00 00 00
       0.0 0.0 0.0 0.0
000130 00 00 00 00 00 00 00 00 00 00 00 00 00 00 00 00
       0.0 0.0 0.0 0.0
000140 00 00 00 00 00 00 00 00 00 00 00 00 00 00 00 00
       0.0 0.0 0.0 0.0
000150 00 00 00 00 00 00 00 00 00 00 00 00 00 00 00 00
       0.0 0.0 0.0 0.0
000160 00 00 00 00 00 00 00 00 00 00 00 00 00 00 00 00
       0.0 0.0 0.0 0.0
000170 00 00 00 00 00 00 00 00 00 00 00 00 00 00 00 00
       0.0 0.0 0.0 0.0
000180 00 00 00 00 00 00 00 00 00 00 00 00 00 00 00 00
       0.0 0.0 0.0 0.0
000190 00 00 00 00 00 00 00 00 00 00 00 00 00 00 00 00
       0.0 0.0 0.0 0.0
0001a0 00 00 00 00 00 00 00 00 00 00 00 00 00 00 00 00
       0.0 0.0 0.0 0.0
0001b0 00 00 00 00 00 00 00 00 00 00 00 00 00 00 00 00
       0.0 0.0 0.0 0.0
0001c0 00 00 00 00 00 00 00 00 00 00 00 00 00 00 00 00
       0.0 0.0 0.0 0.0
0001d0 00 00 00 00 00 00 00 00 00 00 00 00 00 00 00 00
       0.0 0.0 0.0 0.0
0001e0 00 00 00 00 00 00 00 00 00 00 00 00 00 00 00 00
       0.0 0.0 0.0 0.0
0001f0 00 00 00 00 00 00 00 00 00 00 00 00 00 00 00 00
       0.0 0.0 0.0 0.0

network_body._body_endoder.seq_layers.2.weight f4 [128, 128]
000000 44 f8 2e be c3 7c 21 3c 4c c1 b0 3d 49 c5 da bd
       -0.17086893 0.009856406 0.086306185 -0.106821604
000010 db f9 af 3d 30 5e 25 bb a9 8d 36 3e c8 35 a5 3d
       0.08592578 -0.0025233142 0.17827477 0.080668986
000020 64 43 64 3d 1a 19 77 bd 0c ac e2 3c 27 cb a9 3c
       0.05572833 -0.060326673 0.027669929 0.020726753
000030 e0 2b 4a bd 4f 5e 83 bd 68 30 32 bd 2c ea 83 3e
       -0.04935825 -0.06414472 -0.043503195 0.25764596
000040 d5 ff d1 bd 58 30 49 bd 6e 56 93 bd 23 b0 b8 bd
       -0.10253874 -0.04911837 -0.071942195 -0.090179704
000050 d3 ee 48 be 81 05 7c bd 2a 44 6f bd 5d 4a 07 3d
       -0.19622354 -0.061528686 -0.058414616 0.033029903
000060 2a 09 ab bc c1 c9 91 3d b4 bc c9 3c 36 bd 07 3e
       -0.020878393 0.0711856 0.024626113 0.13255772
000070 bc 2d 88 be cf cd 89 3d c6 80 ba bd 32 48 35 3e
       -0.26597393 0.06728708 -0.09106593 0.17703322
000080 ab 78 a7 bd 26 01 45 bd be ac d6 bd 4b 0d b0 bd
       -0.081773125 -0.0480968 -0.10482167 -0.085962854
000090 bf 72 26 3d fe c4 fe 3c de 41 75 be 04 33 a3 bc
       0.040636774 0.031099793 -0.23950908 -0.019921787
0000a0 ca f1 50 3d e4 9a ff 3d 13 a5 42 be 0e c1 51 bb
       0.051011838 0.12480715 -0.19008283 -0.0032005939
0000b0 9e 99 2b 3c a6 55 49 3d 27 fc a1 3d d0 d7 4a bc
       0.010473637 0.049153946 0.07909422 -0.012380555
0000c0 b8 56 88 3d 08 11 2d bd 95 22 10 be 2d bb 87 bd
       0.06657165 -0.04225257 -0.14075692 -0.06627498
0000d0 cd 4c 99 3d a6 59 85 3d 4b 00 b3 bd 3e 12 f4 3c
       0.07485352 0.0651124 -0.0874029 0.029793855
0000e0 a1 44 21 3c 11 1e 8a 3d f7 33 4a 3d 66 f8 37 3c
       0.009843023 0.06744016 0.049365964 0.011228656
0000f0 6f 20 13 be 5f ff e8 bd f0 15 25 bc ec a3 f4 3d
       -0.14367841 -0.11376833 -0.010076031 0.11945328
000100 f2 d7 05 3e 96 21 96 3d da 7c dd 3d 03 d6 54 3d
       0.13070658 0.07330625 0.10814829 0.05196191
000110 d6 de d3 bb b6 5f ec 3c ee 6b 8f 3d 4f bf c3 bd
       -0.006465773 0.028854232 0.07003008 -0.095579736
000120 82 0a cb 3c 1d c7 c2 bd 24 96 f7 3b e4 0d ae bd
       0.024785284 -0.09510634 0.00755574 -0.08498743
000130 43 db a0 bd 93 6d e5 bd 71 c9 f5 3d e0 d4 eb ba
       -0.07854321 -0.1120254 0.120013125 -0.0017992519
000140 44 4c 9b bc 6e 84 83 3c e1 0a 04 be a9 f7 eb bd
       -0.018957265 0.016054358 -0.12894775 -0.11521847
000150 65 f8 4f bd c3 51 44 be b2 32 4c be 51 05 11 3e
       -0.050773997 -0.19171815 -0.19941214 0.14162184
000160 75 9d 7f 3c 04 5b 58 3d 57 7f 4b bd 11 92 2d 3d
       0.0156015055 0.052821174 -0.049681988 0.042375628
000170 eb 6c 25 3d 10 18 c0 3c 53 b5 b4 3c ad fa 96 bd
       0.040387075 0.023448974 0.022059118 -0.07372031
000180 65 a1 be 3a ca d6 f9 bd f7 f8 ec bd 2e 79 88 bc
       0.0014543949 -0.12199171 -0.11570924 -0.016659345
000190 6e 93 42 bd 4c 81 1a 3e fe de 76 3c 0c 9b 11 be
       -0.04750388 0.15088385 0.015067814 -0.14219302
0001a0 b6 f7 2c bd 06 86 c6 bd f2 8f dd 3d 1d 90 0a 3e
       -0.042228423 -0.09693532 0.10818471 0.13531537
0001b0 28 d7 11 3e f3 83 42 3d a9 fa c2 3d ce 4b 75 3b
       0.14242232 0.047489118 0.09520466 0.0037429216
0001c0 39 a7 87 bd 97 ab 34 3e 0c 3b ed bc ac bd 34 3d
       -0.06623692 0.17643581 -0.02895882 0.044126198
0001d0 16 21 e5 3c 3b dc c6 3c f8 1d 62 bd 3d 2f 48 bd
       0.027969878 0.024274936 -0.05520436 -0.048873175
0001e0 27 f8 5a 3d bc a4 2a bd 3c 51 2d be 07 fa 42 3c
       0.053459313 -0.04166101 -0.1692552 0.0119004315
0001f0 25 4a fd 3c e7 34 fe 3c 60 29 2c 3d a0 29 88 3d
       0.030919144 0.031031085 0.042031646 0.06648564
000200 f2 8a a6 bd b5 15 b4 bd 45 fb 8b bc 43 df 7f 3c
       -0.081319705 -0.08793203 -0.017087588 0.015617195
000210 7d 40 0b be dd 2a 18 3b 19 8e ac 3c 79 c5 68 3d
       -0.13598819 0.0023218908 0.021063851 0.05682895
000220 19 3f c9 bd 81 36 c1 bd bf 2d c4 bd f2 52 24 3d
       -0.09826488 -0.09434224 -0.09579038 0.040118165
000230 76 ce 7f 3d c2 21 c5 bd 82 9b 5d bc 85 10 18 3d
       0.062452756 -0.096255794 -0.0135258455 0.03712513
000240 4a d8 fe 3c 1d eb 29 bd 65 ea ba bc c3 8b d7 bc
       0.031108994 -0.041483987 -0.022816846 -0.02631176
000250 b0 07 ed 3d 64 ba 0f 3c 7c ec a4 bd d6 5e b6 3c
       0.11573732 0.008772466 -0.08052918 0.022262018
000260 36 5e a8 bc bf 13 28 bd 3a ed d2 3d cb 96 a4 bb
       -0.020552736 -0.041034456 0.102991536 -0.0050228587
000270 22 bc a1 bd db cb 6e 3d 30 5c 37 3d 80 b7 8b 3d
       -0.078972116 0.05829988 0.04476565 0.06822109
000280 ba d5 ca 3c 91 5a 7f 3d 2f 07 9f 3d 26 ff db bc
       0.024760116 0.06234223 0.07765042 -0.026855063
000290 fd bd 23 3d 95 10 fb 3c a8 01 09 be 32 b4 31 bd
       0.03997611 0.030647555 -0.13379538 -0.04338474
0002a0 3b eb 65 bc f6 e5 50 bd 4b e2 bc 3d ea 28 ab ba
       -0.014033134 -0.051000558 0.092228495 -0.0013058458
0002b0 9a 11 54 bc 84 e3 23 3e 00 c7 a3 bd a1 ff 8f 3d
       -0.01294365 0.16004759 -0.079969406 0.07031179
0002c0 5e 99 95 3d fb 21 ce bc 4f 4b 04 3e 3e f2 92 3d
       0.07304643 -0.025162688 0.12919353 0.0717511
0002d0 c8 25 3f bd 32 4e 5b be e7 ca 1a 3d 20 5b 26 3b
       -0.04666689 -0.21416548 0.03779116 0.0025383905
0002e0 59 38 89 3d b5 19 e6 bd 90 b9 9b bd 7b d6 2c bd
       0.067002006 -0.11235372 -0.076037526 -0.042196732
0002f0 f5 8c 26 3e 9a 5c 2d be 64 f7 aa bb 28 7f de 3d
       0.16264708 -0.16929856 -0.0052174795 0.10864097
000300 17 7e 25 3d 23 91 7b bc 87 a6 ea 3b 2a d7 17 be
       0.04040345 -0.0153544275 0.007160965 -0.14828172
000310 25 18 29 3d ad 88 08 3c 10 eb 2d 3e 31 82 97 bd
       0.04128279 0.008333367 0.169842 -0.07397879
000320 b9 b5 07 bc 83 f7 d2 bc 38 ad 8a 3c f7 85 f4 3b
       -0.008283072 -0.025752788 0.0169283 0.007462259
000330 8c be c2 3d 6c 91 a5 bd d6 b9 20 bd 82 43 94 3d
       0.09509 -0.08084378 -0.039239727 0.072394386
000340 54 84 b9 bd 32 2d 87 bd b9 be 01 3d b8 1b e7 bc
       -0.09058443 -0.06600417 0.031676028 -0.02821146
000350 f1 c8 05 be 71 35 f8 3b 2e f2 9a bd 10 96 0d bc
       -0.13064934 0.00757473 -0.07565723 -0.008641735
000360 c0 4d 3a 3d 97 2a d3 bd f1 41 20 bc e1 82 55 3c
       0.045484304 -0.10310858 -0.009781347 0.013031692
000370 8a 06 7f bc 0b 9d 2f 3d fc 49 07 3e 40 20 10 be
       -0.015565524 0.042874377 0.13211817 -0.14074802
000380 ba ef 16 3d b1 ec 94 bd 96 22 84 3d 3d 35 b4 3d
       0.036849715 -0.07271708 0.06451909 0.08799217
000390 e8 fa a0 bd 82 07 80 3d 63 8c 5b bc 50 5e 0d 3e
       -0.078603566 0.06251432 -0.01340017 0.13805509
0003a0 13 b8 88 bc f6 d0 85 bd 49 c9 d5 bd 07 a9 d3 bd
       -0.016689336 -0.06533997 -0.10438783 -0.10334974
0003b0 5f 24 9c 3e 4f ba 92 3c eb bd 75 3d d6 93 15 3e
       0.304965 0.017911104 0.059995573 0.14607176
0003c0 42 c8 45 be 10 df 2f be 7e ad 88 3d 1f 0a 05 3d
       -0.19314674 -0.17174935 0.06673716 0.032480355
0003d0 d0 da c1 3d 70 15 f0 bd 7f 18 de 3b 94 d8 c4 bd
       0.09465563 -0.11722839 0.0067778225 -0.096116215
0003e0 75 35 d7 bd e1 0b 87 3d 04 fa d7 bc 77 20 c9 bd
       -0.10508243 0.065940626 -0.026364334 -0.09820645
0003f0 ec 2d 0f bb f9 98 8a bd d4 29 16 bd 4f 00 c5 bd
       -0.002184744 -0.067674585 -0.036660984 -0.096191995

network_body._body_endoder.seq_layers.2.bias f4 [128]
000000 00 00 00 00 00 00 00 00 00 00 00 00 00 00 00 00
       0.0 0.0 0.0 0.0
000010 00 00 00 00 00 00 00 00 00 00 00 00 00 00 00 00
       0.0 0.0 0.0 0.0
000020 00 00 00 00 00 00 00 00 00 00 00 00 00 00 00 00
       0.0 0.0 0.0 0.0
000030 00 00 00 00 00 00 00 00 00 00 00 00 00 00 00 00
       0.0 0.0 0.0 0.0
000040 00 00 00 00 00 00 00 00 00 00 00 00 00 00 00 00
       0.0 0.0 0.0 0.0
000050 00 00 00 00 00 00 00 00 00 00 00 00 00 00 00 00
       0.0 0.0 0.0 0.0
000060 00 00 00 00 00 00 00 00 00 00 00 00 00 00 00 00
       0.0 0.0 0.0 0.0
000070 00 00 00 00 00 00 00 00 00 00 00 00 00 00 00 00
       0.0 0.0 0.0 0.0
000080 00 00 00 00 00 00 00 00 00 00 00 00 00 00 00 00
       0.0 0.0 0.0 0.0
000090 00 00 00 00 00 00 00 00 00 00 00 00 00 00 00 00
       0.0 0.0 0.0 0.0
0000a0 00 00 00 00 00 00 00 00 00 00 00 00 00 00 00 00
       0.0 0.0 0.0 0.0
0000b0 00 00 00 00 00 00 00 00 00 00 00 00 00 00 00 00
       0.0 0.0 0.0 0.0
0000c0 00 00 00 00 00 00 00 00 00 00 00 00 00 00 00 00
       0.0 0.0 0.0 0.0
0000d0 00 00 00 00 00 00 00 00 00 00 00 00 00 00 00 00
       0.0 0.0 0.0 0.0
0000e0 00 00 00 00 00 00 00 00 00 00 00 00 00 00 00 00
       0.0 0.0 0.0 0.0
0000f0 00 00 00 00 00 00 00 00 00 00 00 00 00 00 00 00
       0.0 0.0 0.0 0.0
000100 00 00 00 00 00 00 00 00 00 00 00 00 00 00 00 00
       0.0 0.0 0.0 0.0
000110 00 00 00 00 00 00 00 00 00 00 00 00 00 00 00 00
       0.0 0.0 0.0 0.0
000120 00 00 00 00 00 00 00 00 00 00 00 00 00 00 00 00
       0.0 0.0 0.0 0.0
000130 00 00 00 00 00 00 00 00 00 00 00 00 00 00 00 00
       0.0 0.0 0.0 0.0
000140 00 00 00 00 00 00 00 00 00 00 00 00 00 00 00 00
       0.0 0.0 0.0 0.0
000150 00 00 00 00 00 00 00 00 00 00 00 00 00 00 00 00
       0.0 0.0 0.0 0.0
000160 00 00 00 00 00 00 00 00 00 00 00 00 00 00 00 00
       0.0 0.0 0.0 0.0
000170 00 00 00 00 00 00 00 00 00 00 00 00 00 00 00 00
       0.0 0.0 0.0 0.0
000180 00 00 00 00 00 00 00 00 00 00 00 00 00 00 00 00
       0.0 0.0 0.0 0.0
000190 00 00 00 00 00 00 00 00 00 00 00 00 00 00 00 00
       0.0 0.0 0.0 0.0
0001a0 00 00 00 00 00 00 00 00 00 00 00 00 00 00 00 00
       0.0 0.0 0.0 0.0
0001b0 00 00 00 00 00 00 00 00 00 00 00 00 00 00 00 00
       0.0 0.0 0.0 0.0
0001c0 00 00 00 00 00 00 00 00 00 00 00 00 00 00 00 00
       0.0 0.0 0.0 0.0
0001d0 00 00 00 00 00 00 00 00 00 00 00 00 00 00 00 00
       0.0 0.0 0.0 0.0
0001e0 00 00 00 00 00 00 00 00 00 00 00 00 00 00 00 00
       0.0 0.0 0.0 0.0
0001f0 00 00 00 00 00 00 00 00 00 00 00 00 00 00 00 00
       0.0 0.0 0.0 0.0

action_model._continuous_distribution.log_sigma f4 [1, 3]
000000 00 00 00 00 00 00 00 00 00 00 00 00
       0.0 0.0 0.0

action_model._continuous_distribution.mu.weight f4 [3, 128]
000000 ee a4 a0 ba 75 99 e7 3c 25 28 69 bc f7 e4 02 bc
       -0.0012256184 0.028271416 -0.014230763 -0.00798916
000010 c3 57 03 3d 7a 20 ed 3c 54 2b 9a bc 3b 03 57 3b
       0.032066118 0.02894615 -0.018819489 0.0032808322
000020 7a 44 09 bc b3 94 62 3c f9 72 ad 3c 3f 9a 70 bc
       -0.0083781425 0.013829398 0.021172987 -0.014685213
000030 67 f2 62 bc b5 31 6a 3c d0 20 9a 3c 56 c0 8b bb
       -0.013851739 0.014294078 0.018814474 -0.0042648716
000040 1f d5 2c bd 7a ce 4c bb 6f 91 7a 3b 40 c7 de bc
       -0.042195436 -0.0031251 0.0038233658 -0.02719462
000050 97 48 4c bb f4 1a 10 bc e0 ad df bc 91 d0 b9 3c
       -0.0031171197 -0.008795489 -0.02730459 0.02268246
000060 ab 7b 3d 3c 95 c6 07 bc 3b 5e 80 bb b1 c7 02 bb
       0.011565129 -0.008287092 -0.003917483 -0.001995545
000070 a9 a9 0e bc ef 19 90 3c bb 8c 27 3b bb 6c 85 ba
       -0.008707442 0.017590491 0.002556606 -0.0010179499
000080 f8 20 7a bb b8 08 34 bc c3 17 0b 3d 29 6a 99 bc
       -0.0038166624 -0.010988407 0.033958208 -0.018727379
000090 8d a1 c6 bc 24 17 4a bd 6f 50 b8 bc 43 90 ba 3b
       -0.024246955 -0.049338475 -0.022499291 0.005693467
0000a0 2e d2 95 3c e2 da 1d bc 07 bc 08 3d bf ac ab bc
       0.018288698 -0.009634705 0.03338244 -0.020956395
0000b0 7b c0 87 bb 22 ae 98 3c 6c d7 88 39 c4 b5 39 3c
       -0.0041428185 0.01863772 0.00026100443 0.01133484
0000c0 d3 4b 66 3c ec c2 26 b9 72 2c 7e 3c e0 b7 66 3b
       0.014056164 -0.00015903608 0.015513526 0.0035204813
0000d0 6d a8 f3 bb 8f 02 8f bb 96 9d 93 bc 55 96 e0 3c
       -0.0074358494 -0.0043643187 -0.018019479 0.027415434
0000e0 21 47 99 bc 27 3b d7 bc 97 30 3e 3c b8 9c 70 3c
       -0.018710675 -0.026273323 0.011608264 0.014685802
0000f0 cd 1c 5f b9 ad 7b 4d bc b3 04 57 3b e7 0b 22 3c
       -0.00021277666 -0.012541694 0.0032809197 0.009890533
000100 f1 c1 a0 3c 9e 16 08 3d de d8 c3 3c 3f f0 4d bb
       0.019623728 0.033224694 0.023907121 -0.0031423715
000110 9b d6 36 bc 97 c1 9d 3c 5c 7b b8 3b 6a fa bc 3c
       -0.011159564 0.01925735 0.00562994 0.023068625
000120 ff d4 43 3c 5d d9 84 bc 2b 6b b2 3b 46 a8 42 bc
       0.011952638 -0.016216928 0.0054449043 -0.01188094
000130 03 3c ed bb f0 7d f5 bc fd a9 8b 3a df 7c 82 3c
       -0.00723982 -0.029967278 0.0010655519 0.015928684
000140 2f f1 d3 3b e5 74 ec bc ca 36 9b ba 72 21 69 bc
       0.0064679603 -0.028864333 -0.001184189 -0.014229165
000150 cb b3 ba 3c 88 aa df bb 73 50 bf 3c 13 30 13 3d
       0.02279081 -0.006825749 0.02335379 0.03593452
000160 05 c0 52 3c 3c e7 a8 3a ac ae 3f 38 ca 14 d6 3c
       0.012863164 0.0012886296 4.5700624e-05 0.02613296
000170 aa 23 18 bd a1 2a 92 3c d5 fa ba bb 42 0c cf 3a
       -0.037143387 0.017842593 -0.005706171 0.00157965
000180 8b ff d1 3a bf 3b cf bb 09 08 b9 ba 27 97 1b 3d
       0.0016021592 -0.006324261 -0.0014116775 0.037985947
000190 7e 25 19 3c 9e 34 1e bb 45 5d 70 bc ec 04 bf 3c
       0.009347318 -0.002414025 -0.014670675 0.023317777
0001a0 1f 57 c6 3c a4 82 41 3c 0c 78 36 3c 95 23 3f 3c
       0.024211464 0.011810932 0.01113702 0.011666198
0001b0 d7 81 39 bc f2 aa 5b bc 33 9f 7f 3c 16 68 08 3d
       -0.01132246 -0.013407456 0.015601921 0.03330239
0001c0 8d ba 62 bc 8c 53 96 3c 24 45 8f bb 47 50 ca bb
       -0.0138384225 0.018350385 -0.004372256 -0.0061741206
0001d0 9a 6e e1 bc 1f 5b 8d bc 1d b2 fa bb 02 dd 0c bc
       -0.02751856 -0.017255364 -0.0076506273 -0.008597614
0001e0 2d ab e9 3c 05 39 66 bc 40 09 38 3d e3 ca 05 3d
       0.028524006 -0.01405168 0.044930696 0.03266419
0001f0 60 91 f9 3c 98 96 7e bc 8f c4 4d bc 13 b6 ad ba
       0.030464828 -0.015538834 -0.01255907 -0.0013253115
000200 e3 30 47 bc 33 7c de bc d8 a6 68 3c 2f e7 98 3c
       -0.012157652 -0.027158832 0.014199935 0.018664924
000210 61 90 93 3c 7f 43 66 3d ef d4 65 3c dd 3e 2d bb
       0.018013181 0.056216713 0.014027818 -0.0026435175
000220 6f 10 ec bc 2d 6a ee 3c 21 f0 b0 bb 08 7d 28 3c
       -0.02881643 0.029103363 -0.0053997193 0.010283716
000230 ed f4 d8 ba 50 99 dd ba 50 d6 75 3c 30 e8 cb bc
       -0.0016552486 -0.0016906653 0.015004709 -0.024890989
000240 c3 76 dd bc f0 93 da 3b 8f 94 5e 3c 5c 76 4b bc
       -0.027034169 0.0066704676 0.013585224 -0.012418356
000250 2d 36 a2 bb d5 7c ae bc f6 9e 2e bc a5 70 89 3c
       -0.004950306 -0.021299759 -0.010658016 0.016777346
000260 62 bb 00 bd c7 39 b3 3c db 8a b1 bb 03 f7 82 3c
       -0.031428702 0.021878136 -0.005418164 0.015986925
000270 37 32 cd 3c f4 09 a8 3c a7 a5 93 3c c5 4b cb bc
       0.025048358 0.020512559 0.018023325 -0.024816403
000280 ff 23 9d bc 3f 17 07 3c 43 77 2d 3c bf bf 54 bc
       -0.019182203 0.008245288 0.010587516 -0.012985169
000290 e3 12 33 bd 54 a0 8e bb a1 7f 82 bc f8 ea d0 bc
       -0.043719184 -0.0043526087 -0.015929999 -0.025502667
0002a0 95 6a 8d 3c 02 e4 1c 3a ae ae 88 bb 2a 27 3c bb
       0.017262736 0.00059849035 -0.004171214 -0.0028709867
0002b0 b3 8b ea 3b 37 b9 67 3c 0f 06 1d 3d d7 55 61 bc
       0.0071577667 0.01414328 0.038335856 -0.013753376
0002c0 db 5d 0e 3c 39 be 8a 3c bf 44 6f bc 58 72 b5 bb
       0.008689369 0.016936408 -0.014603793 -0.0055373125
0002d0 1f e2 08 bc a3 9c 2b bc ab b6 f3 3b 33 19 77 3c
       -0.008354693 -0.010474357 0.007437547 0.015081692
0002e0 f8 57 51 3c 6b 51 07 bd 2f b3 bb bc 3d 0f f7 bc
       0.012777321 -0.03303663 -0.02291259 -0.030158633
0002f0 ca a9 b1 3a 6b 81 54 3b 6d 0b fe bb 84 60 0b 3c
       0.0013554629 0.0032425772 -0.007752827 0.008506898
000300 e5 e7 f9 bb 67 8a 04 bc 88 2b 0b 3c 47 de d0 3c
       -0.007626521 -0.008089638 0.008494265 0.025496615
000310 33 bf 71 3b fb 8a 49 3b cd 67 5b bb fc 30 4b bb
       0.0036887645 0.0030753005 -0.0033478618 -0.0031004539
000320 dc 83 89 bc 0d cc 2a bd 8f f3 3e bb 60 7c 31 3d
       -0.016786508 -0.041698504 -0.0029136871 0.043331504
000330 ba 5b 6c bb fb 1d f6 bc 7c 47 88 bc 52 0f 52 3c
       -0.0036065415 -0.030043593 -0.016635649 0.012821035
000340 27 d8 62 3c 45 ad f0 bc 60 5c bd bc 8d e0 dc 3c
       0.01384548 -0.029379496 -0.023115337 0.026962543
000350 20 13 da 3c 6f 1e 2f bc 01 65 03 3c 74 9a 36 3c
       0.026620448 -0.010688408 0.008019687 0.011145223
000360 df 31 36 3c e8 1d 51 bb 92 cd 64 b9 c9 65 09 3d
       0.011120289 -0.0031908695 -0.00021820355 0.033544336
000370 72 0e 61 3c 3f 21 56 ba 93 44 dd bc 3b aa 6a 3c
       0.013736354 -0.0008168406 -0.027010238 0.014322813
000380 c4 20 91 bc f3 96 53 3c a2 27 65 bb cc 38 0e 3a
       -0.01771582 0.012914407 -0.003496625 0.00054253335
000390 1c b4 00 bb bf 65 7d ba 0a 64 8e 3c 24 d3 18 3c
       -0.0019638604 -0.00096663454 0.017381687 0.009327684
0003a0 11 5c 28 bc 8c 35 4c bb 92 c5 e1 3c bb e7 1b bc
       -0.010275857 -0.0031159846 0.02756003 -0.009515698
0003b0 4f d7 1e bd 58 54 c6 bc 18 5a e0 bb 35 19 d3 bc
       -0.038779553 -0.02421014 -0.0068466775 -0.025768856
0003c0 dd 7c 09 bd ad e2 e0 bb 9f 78 37 3c fa 99 f1 bc
       -0.033566345 -0.0068629594 0.011198192 -0.029492367
0003d0 b0 ca 3b 3c 61 27 02 bc 17 df 51 3c 60 d2 3c 3d
       0.011461899 -0.007943959 0.012809536 0.046099067
0003e0 97 10 a3 3c 23 96 47 3c 77 0d e3 bc 07 41 b6 bb
       0.019905372 0.0121817915 -0.027716381 -0.005561951
0003f0 af e3 82 bb 2c 15 20 bc 80 8b 95 3c da a9 5c bc
       -0.003994427 -0.009770673 0.018254995 -0.01346823

action_model._continuous_distribution.mu.bias f4 [3]
000000 00 00 00 00 00 00 00 00 00 00 00 00
       0.0 0.0 0.0

network_body._body_endoder.seq_layers.0.weight f4 [128, 126]
000000 dd 27 27 bd 2c 9a 5d bd af 45 f6 3d ad ad eb bd
       -0.0408095 -0.054102108 0.1202501 -0.115077354
000010 37 b5 a4 3d 63 57 32 3e 13 ec 89 bd 84 cf e0 bd
       0.080423765 0.17416148 -0.06734481 -0.109770805
000020 51 2a 06 3e cb 79 72 bd df 54 8a 3d 32 c4 f3 3d
       0.1310208 -0.059198182 0.06754469 0.11902656
000030 c3 d8 29 bd 81 e1 29 3e b4 ed c6 bc e4 f4 1c 3c
       -0.041466486 0.16589929 -0.024283268 0.009579871
000040 f9 ae 91 3c 22 78 fe 3c cd 00 05 3e 69 4d 6a bb
       0.017783629 0.031063143 0.12988587 -0.0035751706
000050 ee 71 9f bc cb 96 91 3d 2e 32 45 bd 98 22 af 3d
       -0.019463506 0.071088396 -0.04814356 0.0855152
000060 d0 40 2d be 85 7c fc bc 6f 40 03 be 04 cc a5 bd
       -0.16919255 -0.030821094 -0.12817548 -0.080955535
000070 87 72 e7 bd e3 03 33 3b 4c 7a 05 bd 6e 0c d6 bc
       -0.11301141 0.002731555 -0.032587335 -0.026128974
000080 9d 92 34 be f2 73 29 bd a5 72 cc bd 1d 07 29 bd
       -0.17634054 -0.04137034 -0.09982804 -0.04126655
000090 86 31 2b bd fc 48 38 bd 86 5a 5d 3d 06 4f cd 3c
       -0.041795276 -0.04499148 0.054041408 0.025062095
0000a0 f5 7b 97 bd 9c 85 be bd 32 e8 9f 3c 33 4d a9 3c
       -0.0739669 -0.09302828 0.019519899 0.020666694
0000b0 74 00 a8 3c 6d c3 0d bd 52 0d b3 3d bf 51 28 bd
       0.020508029 -0.0346102 0.08742775 -0.041093584
0000c0 06 bd 14 3d 18 e2 68 bb 17 d1 9e bd 97 ff 57 3d
       0.03631308 -0.0035535153 -0.077547245 0.052733984
0000d0 44 42 3b 3d 56 4f 2f be e6 e7 06 bc a3 26 f8 3d
       0.045717493 -0.17120108 -0.008234 0.12116744
0000e0 c0 51 41 bc ff 01 f5 bc 74 07 ce 3c b4 27 04 be
       -0.011799276 -0.029908178 0.025150038 -0.1290577
0000f0 6e a2 d4 3c e9 2f f4 3d 8c 47 51 3e 8a 60 02 3e
       0.025956359 0.11923201 0.20437449 0.12732139
000100 3e 6c 85 3b 21 90 73 bd ea 87 b8 3c 1f 3c ac 3d
       0.0040717414 -0.059463624 0.022525746 0.08409905
000110 c0 9a d4 3d 26 01 06 bd e5 cb a3 3a e8 c8 3d bd
       0.10381079 -0.03271594 0.0012496678 -0.046334177
000120 c0 e9 45 bd d1 b2 e0 bc b8 e4 43 be 0a 91 b6 3c
       -0.048318624 -0.027429016 -0.19130218 0.022285957
000130 07 cd 68 bb 8c 80 42 bc 6f 8f 8e 3c 4e cb ad bd
       -0.0035522596 -0.011871468 0.017402379 -0.08486043
000140 71 d4 6a bd a2 85 a8 3d 27 18 5c bc ac 4a 93 3b
       -0.057331506 0.082286134 -0.013433493 0.0044949856
000150 d0 55 25 3e 8a 49 3b be 86 90 86 bd 57 0d 04 3e
       0.16146016 -0.18289772 -0.065705344 0.12895714
000160 23 24 98 3c e3 03 b6 bd 4f 58 bd bd 3f d0 67 3d
       0.018571919 -0.0888746 -0.09245359 0.056595083
000170 1f 21 02 3e b4 b0 8f 3d 6b 07 04 bd 1b 1a a2 bd
       0.12707947 0.07016125 -0.032233637 -0.079151355
000180 00 01 e8 3d ea 2d a7 3d d3 0e 0b 3e 5f 19 17 3d
       0.11328316 0.08163054 0.13579874 0.03688943
000190 0d 37 5f 3d 65 2f 0c bd ba 24 61 3d 0e c2 26 3c
       0.05449586 -0.034224886 0.054966666 0.010178102
0001a0 ed 9b 77 bd ea 85 06 3c 91 28 db 3d 77 54 04 be
       -0.060451437 0.008210639 0.10701097 -0.12922846
0001b0 ed 29 25 bd c8 0d 67 be c5 17 e1 bc 12 73 d6 3c
       -0.040323187 -0.22563851 -0.027477155 0.026177917
0001c0 53 91 ce bd 6e af 35 be ce ac 17 3d d0 5a c2 3d
       -0.10086312 -0.17742702 0.037030034 0.09489977
0001d0 71 0e c5 bd 12 e8 1f 3e a2 7c 4c bd 35 ce 22 be
       -0.09621895 0.15615872 -0.049923547 -0.15898974
0001e0 35 ad a5 bd 96 d8 a5 3d 69 5e ea bd 20 69 85 3d
       -0.08089677 0.08097951 -0.114437886 0.06514192
0001f0 a4 8e 6b bc 8b e5 1f 3e e3 c6 17 3e f1 01 d3 bc
       -0.01437727 0.15614907 0.14821963 -0.025757762
000200 e3 3b b6 bd fa 73 25 bd 25 32 25 bd 4f 93 d7 bd
       -0.08898141 -0.040393807 -0.040331025 -0.10526144
000210 fb 5b 47 3d cb e5 40 bc 07 08 8f 39 8a 4c 61 bd
       0.048671704 -0.011773537 0.00027281066 -0.055004634
000220 a2 de cf bc 11 bb ca 3c 0f 0e 19 3d 9f 4f a4 3d
       -0.025374714 0.024747403 0.037366923 0.08022999
000230 ea d5 18 3d 2b 04 ef 3b 67 f9 28 3d aa 92 3e 3c
       0.03731338 0.007294198 0.041253474 0.011631647
000240 9d 1f c1 3d 0b b4 b5 3d a8 0d 82 bd 00 18 a4 3c
       0.09429858 0.08872231 -0.06350261 0.020030975
000250 91 6e 02 bd 4b 6c 0c 3e 2a 5c 86 3c c2 84 83 bd
       -0.031843726 0.13713185 0.01640137 -0.06421806
000260 74 2c 59 3e 96 b0 41 3e 53 4f 76 bc 7c 70 28 bd
       0.21208364 0.18915018 -0.015033561 -0.0411229
000270 8a 40 61 3d bc 2a 02 3d 57 d6 54 3d c8 b5 bc 3c
       0.05499319 0.031779036 0.051962223 0.023035899
000280 d9 68 d9 bc cd ce c0 bc 87 19 60 3d 5e 2d 1b be
       -0.026539253 -0.02353611 0.054711845 -0.15154025
000290 39 87 b0 3c 18 35 10 be 13 11 12 3e 59 92 12 bd
       0.021548854 -0.14082754 0.14264326 -0.0357841
0002a0 8f d2 1c bd 21 b7 99 3d e9 08 d4 3d 82 58 2d be
       -0.03828674 0.07505632 0.10353262 -0.16928294
0002b0 71 a1 db bd 5a 35 8c 3c 73 4b 51 3d 82 87 05 3d
       -0.10724152 0.017115284 0.051097345 0.032599933
0002c0 ce d4 38 3c a6 e5 b6 3d c9 75 dd 3d 4c ca 88 3b
       0.011281205 0.08930521 0.10813481 0.0041745063
0002d0 a5 fc 1f be 00 fe 5b bd 82 6a 4d bd 34 01 dd bd
       -0.1562372 -0.05370903 -0.050150402 -0.10791245
0002e0 a5 4d 46 3e fc db 07 3e b7 61 94 bd 9d 7c 81 bb
       0.19365557 0.13267511 -0.072452 -0.0039516226
0002f0 3f b6 04 bd 58 aa de bd 2e 79 bc bd 3c ff cf bd
       -0.032400366 -0.10872334 -0.09202801 -0.10156104
000300 73 04 42 3d a3 0c bf bd d0 f2 b8 3d 3a 98 ec bc
       0.047367524 -0.09328582 0.09030688 -0.028881181
000310 2b 71 57 be 74 f4 1f bd 2e a0 c6 bd a3 bf 81 bd
       -0.21039264 -0.039051488 -0.096985206 -0.0633538
000320 89 27 fb 3d 91 f2 31 be a5 3e 32 3e a2 60 6d bd
       0.122634 -0.17377688 0.1740671 -0.057953484
000330 14 0f f5 3c 28 4d b8 3d af 50 7b 3c 25 e4 b8 bb
       0.029914416 0.089990914 0.015339061 -0.0056424313
000340 1e 15 19 3e 21 e5 84 3d 8e 3b 2a 3d e4 7f 73 3d
       0.14949462 0.06489015 0.041560702 0.059448138
000350 85 1b c8 bc 0c 37 88 3d 9e 94 41 3e 0e 84 b6 bd
       -0.024427185 0.06651124 0.18904349 -0.08911906
000360 6f fb 7d 3c 4c eb d6 bd c0 67 10 bd 28 3f 5f 3e
       0.015501841 -0.10494098 -0.035255194 0.21801436
000370 76 e6 d3 bd c3 68 46 3e c8 74 a9 b8 34 3f 1b 3d
       -0.10346691 0.19375901 -8.0803e-05 0.037902072
000380 9e 14 40 3d e9 97 f0 bd 02 ac f9 bd fe d1 fd bd
       0.046894662 -0.117477246 -0.12191011 -0.123935685
000390 fc 8a 6f be dd 53 02 be 8d fb 85 bb 30 e1 cf 3d
       -0.23392862 -0.12727304 -0.004088825 0.10150373
0003a0 a0 20 30 3d c1 a3 75 bd 95 99 a9 3d 0b 9d 24 3e
       0.042999864 -0.05997062 0.082812466 0.16075532
0003b0 83 7f 55 bd 5a d7 37 3e ae a0 2e 3e c1 16 6a 3e
       -0.052123558 0.17953244 0.17053482 0.22860242
0003c0 6a bd c7 bd 69 d3 5d bd dc 59 c3 bd 6e bc 20 3d
       -0.09752925 -0.054156695 -0.09538624 0.0392422
0003d0 82 1a 64 3d 8c 51 92 3c f6 e8 00 be 10 6b 8c 3d
       0.055689342 0.01786115 -0.12588868 0.06856358
0003e0 8c 8d f4 3c 83 df 57 3c ee 3c ad 3d 0c fc b2 bd
       0.029852651 0.013175848 0.08458887 -0.087394804
0003f0 0f 33 d4 3d 25 98 09 bc 55 3d 9b 3d 86 ea 81 3d
       0.10361301 -0.0083980905 0.075800575 0.0634356

network_body._body_endoder.seq_layers.0.bias f4 [128]
000000 00 00 00 00 00 00 00 00 00 00 00 00 00 00 00 00
       0.0 0.0 0.0 0.0
000010 00 00 00 00 00 00 00 00 00 00 00 00 00 00 00 00
       0.0 0.0 0.0 0.0
000020 00 00 00 00 00 00 00 00 00 00 00 00 00 00 00 00
       0.0 0.0 0.0 0.0
000030 00 00 00 00 00 00 00 00 00 00 00 00 00 00 00 00
       0.0 0.0 0.0 0.0
000040 00 00 00 00 00 00 00 00 00 00 00 00 00 00 00 00
       0.0 0.0 0.0 0.0
000050 00 00 00 00 00 00 00 00 00 00 00 00 00 00 00 00
       0.0 0.0 0.0 0.0
000060 00 00 00 00 00 00 00 00 00 00 00 00 00 00 00 00
       0.0 0.0 0.0 0.0
000070 00 00 00 00 00 00 00 00 00 00 00 00 00 00 00 00
       0.0 0.0 0.0 0.0
000080 00 00 00 00 00 00 00 00 00 00 00 00 00 00 00 00
       0.0 0.0 0.0 0.0
000090 00 00 00 00 00 00 00 00 00 00 00 00 00 00 00 00
       0.0 0.0 0.0 0.0
0000a0 00 00 00 00 00 00 00 00 00 00 00 00 00 00 00 00
       0.0 0.0 0.0 0.0
0000b0 00 00 00 00 00 00 00 00 00 00 00 00 00 00 00 00
       0.0 0.0 0.0 0.0
0000c0 00 00 00 00 00 00 00 00 00 00 00 00 00 00 00 00
       0.0 0.0 0.0 0.0
0000d0 00 00 00 00 00 00 00 00 00 00 00 00 00 00 00 00
       0.0 0.0 0.0 0.0
0000e0 00 00 00 00 00 00 00 00 00 00 00 00 00 00 00 00
       0.0 0.0 0.0 0.0
0000f0 00 00 00 00 00 00 00 00 00 00 00 00 00 00 00 00
       0.0 0.0 0.0 0.0
000100 00 00 00 00 00 00 00 00 00 00 00 00 00 00 00 00
       0.0 0.0 0.0 0.0
000110 00 00 00 00 00 00 00 00 00 00 00 00 00 00 00 00
       0.0 0.0 0.0 0.0
000120 00 00 00 00 00 00 00 00 00 00 00 00 00 00 00 00
       0.0 0.0 0.0 0.0
000130 00 00 00 00 00 00 00 00 00 00 00 00 00 00 00 00
       0.0 0.0 0.0 0.0
000140 00 00 00 00 00 00 00 00 00 00 00 00 00 00 00 00
       0.0 0.0 0.0 0.0
000150 00 00 00 00 00 00 00 00 00 00 00 00 00 00 00 00
       0.0 0.0 0.0 0.0
000160 00 00 00 00 00 00 00 00 00 00 00 00 00 00 00 00
       0.0 0.0 0.0 0.0
000170 00 00 00 00 00 00 00 00 00 00 00 00 00 00 00 00
       0.0 0.0 0.0 0.0
000180 00 00 00 00 00 00 00 00 00 00 00 00 00 00 00 00
       0.0 0.0 0.0 0.0
000190 00 00 00 00 00 00 00 00 00 00 00 00 00 00 00 00
       0.0 0.0 0.0 0.0
0001a0 00 00 00 00 00 00 00 00 00 00 00 00 00 00 00 00
       0.0 0.0 0.0 0.0
0001b0 00 00 00 00 00 00 00 00 00 00 00 00 00 00 00 00
       0.0 0.0 0.0 0.0
0001c0 00 00 00 00 00 00 00 00 00 00 00 00 00 00 00 00
       0.0 0.0 0.0 0.0
0001d0 00 00 00 00 00 00 00 00 00 00 00 00 00 00 00 00
       0.0 0.0 0.0 0.0
0001e0 00 00 00 00 00 00 00 00 00 00 00 00 00 00 00 00
       0.0 0.0 0.0 0.0
0001f0 00 00 00 00 00 00 00 00 00 00 00 00 00 00 00 00
       0.0 0.0 0.0 0.0

network_body._body_endoder.seq_layers.2.weight f4 [128, 128]
000000 78 92 5b be 68 c8 0b 3e fd ac 05 3e 2d 29 43 3d
       -0.21442592 0.13650668 0.13054271 0.04764669
000010 27 8b 95 bd 93 4f 1b 3c db a6 b3 bc 79 b3 3b 3b
       -0.07301932 0.009479421 -0.021930149 0.002864091
000020 13 d3 29 bd 05 3b 7e bd 55 4c 00 3e c5 bb 39 be
       -0.04146106 -0.062068004 0.12529118 -0.18138035
000030 2a e6 b8 bc 73 54 ca 3c fb 80 a0 bd c8 bd 3c bd
       -0.022570688 0.024698472 -0.07837101 -0.046079427
000040 ef 00 ab bd 07 27 f3 bd a1 1c 51 3e 4d bb 99 bd
       -0.083497874 -0.11872678 0.20421077 -0.07506428
000050 31 8c 29 3d c8 d8 ef 3c 6f 9e bb 3d 89 87 07 3e
       0.041393463 0.029278174 0.09161078 0.13235296
000060 ec 76 be bd e6 e1 3c 3c e0 4f 2f 3e 78 fe 9b bd
       -0.09300026 0.011528468 0.17120314 -0.076168954
000070 64 c2 8a bd a2 d9 db 3c 5b ea 00 3d d2 f7 8e 3d
       -0.06775358 0.026837174 0.0314735 0.06980862
000080 2d 71 cf 3d a3 df a0 3e 72 dd 00 3e fc 67 df 3d
       0.101290084 0.3142062 0.12584475 0.10908505
000090 aa 49 7c bd 2c de d7 3d 74 99 87 3d 7f 89 2a bd
       -0.06159369 0.10540423 0.06621066 -0.041635033
0000a0 29 cd 28 3e 43 f3 f6 3d 57 6c ee bd 26 36 06 be
       0.16484512 0.12058117 -0.11641758 -0.13106593
0000b0 87 79 9a bc 48 f1 1b 3d 50 1b 4a bd 8a a4 15 bc
       -0.018856777 0.0380719 -0.049342453 -0.009133467
0000c0 f9 43 c0 bb 93 dc 11 3e a5 bb 07 3e aa 82 ac 3d
       -0.005867478 0.14244299 0.13255174 0.0842336
0000d0 73 be d2 3c 35 36 2e 3d cd 93 1a be 70 24 26 bc
       0.025725579 0.042532165 -0.15095444 -0.010140523
0000e0 a9 de ef bb 68 dd 76 be 1e 8f 35 be e6 c5 c0 3c
       -0.0073202443 -0.24107897 -0.17730376 0.023531865
0000f0 42 b8 36 3d 6a 95 2e be bb 27 12 3e fd 81 30 3d
       0.044609316 -0.17049184 0.14272968 0.043092716
000100 87 eb 73 3d 23 bf da bc f9 4d 1f 3e c8 6c c5 bd
       0.05955079 -0.02670247 0.15557088 -0.09639889
000110 ed d9 58 bd ae 81 7f 3d 3a e7 a1 3d 1b 53 82 bd
       -0.052942205 0.06237953 0.07905431 -0.06363507
000120 2b 5e 01 be 79 0a 15 bd ee 3c 59 3c de 4e 87 bd
       -0.12633578 -0.03638694 0.013259156 -0.066068396
000130 e5 f3 14 be 87 2d d8 3d f7 3a 8f 3d ff 3f 91 3c
       -0.14546163 0.10555559 0.069936685 0.017730711
000140 a0 eb f0 3a 2b 78 fe bd 9f 7d 85 3d fc 02 01 bd
       0.0018380769 -0.12425264 0.06518101 -0.031496987
000150 d5 ee 84 3d e8 35 15 be 0d 84 2d be 7d 3c c9 bd
       0.06490866 -0.14571345 -0.16944905 -0.0982599
000160 4a f5 2b bd 67 33 ad bd d5 9a 8d bd 90 de 65 3d
       -0.041981973 -0.0845707 -0.069142975 0.056120455
000170 02 db 02 bd d8 26 51 3e e6 1d 80 3c 18 9e 80 bd
       -0.031947143 0.20424974 0.015639257 -0.06280154
000180 99 78 c2 3b 77 b5 8a bc 9e f6 99 3c 78 9d 06 3d
       0.0059347865 -0.016932232 0.018794354 0.032865018
000190 6b 17 00 3e c6 b9 97 bd f6 23 8c 3d 0a 38 8a 3d
       0.12508933 -0.0740848 0.068427965 0.0674897
0001a0 6c 94 3f 3d 59 1b 0a be 92 e2 03 3d 10 b9 e4 bd
       0.046772406 -0.13486995 0.032198496 -0.1116811
0001b0 ce a3 0d bd ca 53 62 bd d2 0c 13 be 0c 3d 94 3d
       -0.034580044 -0.05525569 -0.1436036 0.07238206
0001c0 ff 64 35 bd f4 70 b2 3d 06 01 66 be a2 16 e3 3d
       -0.04428577 0.0871295 -0.22461328 0.11088301
0001d0 dc 11 76 bd 18 94 5e ba ce 87 58 3e c3 cd 43 3c
       -0.060075626 -0.00084906956 0.21145555 0.011950913
0001e0 97 19 2e 3d d4 f5 c6 3d db 95 9f 3d c2 bb 4a be
       0.042504873 0.09714857 0.077922545 -0.19798186
0001f0 55 ab 46 be ab fd a2 3d a7 09 4f 3e af 70 76 3e
       -0.19401295 0.079585396 0.20218526 0.24066423
000200 29 c6 de 3d 3b 65 5b 3d 4e 00 f6 bd 0d 46 3d 3d
       0.1087764 0.053563338 -0.12011777 0.046209384
000210 cd 7e 3c bd f5 40 11 bc 87 ec 15 3d b1 4e f3 3d
       -0.046019364 -0.008865585 0.036602523 0.118802436
000220 74 f7 41 bd 59 3c fd bd 48 d7 02 bd 83 a4 df 3b
       -0.04735513 -0.12365026 -0.03194359 0.0068250312
000230 d1 39 48 bc 44 c4 47 be 31 71 72 3d 05 77 16 3d
       -0.012220816 -0.19508463 0.05918998 0.0367346
000240 d7 44 b3 3c f8 cf d0 bd ea 98 fa 3d 45 64 02 3e
       0.021883411 -0.10195917 0.12236197 0.12733562
000250 c4 80 39 3d ca 86 53 3d cd c2 b5 3d 5e d3 50 3e
       0.045288816 0.051642217 0.08875046 0.2039313
000260 cb 32 b0 3d 19 ff ee 3c 95 d2 3f 3d a0 60 da 3d
       0.08603438 0.029174374 0.046831686 0.10662961
000270 33 c0 40 bd 9c 9b 04 3d 27 58 55 3d 30 e8 04 bc
       -0.047058295 0.032374963 0.05208602 -0.008111998
000280 0a 84 33 bc 18 6a 14 bd 9e 9a af bd 66 68 d0 3d
       -0.010956774 -0.03623399 -0.08574413 0.101761624
000290 8d ae 1e bd 8b 6a 64 3a 1f 40 08 3d 1c b7 e7 3d
       -0.038740683 0.0008713386 0.033264276 0.11314222
0002a0 34 ef 12 3d 71 3f 80 3d ce f8 28 bd ba 4d 24 bd
       0.035872653 0.062621005 -0.041252904 -0.04011319
0002b0 08 4b 03 be ed 83 de 3c 85 2f 2e bd 84 ff 1d bc
       -0.12821591 0.027162516 -0.042525787 -0.009643439
0002c0 4a 99 c3 3d c7 41 0a be c7 a5 cc 3d 6d 11 a0 3c
       0.09550722 -0.13501655 0.09992557 0.01953956
0002d0 2d cf b9 3b c3 45 1c 3d 16 34 a6 3b da d1 01 3d
       0.005670449 0.038152467 0.005072127 0.03169427
0002e0 cd 73 7d bd d1 5a 9d bc 96 ec 96 bd fd ae 92 bd
       -0.061878014 -0.019208344 -0.07369344 -0.071622826
0002f0 d6 61 f5 3d 11 e6 db bd 26 c1 0a be ea ca a1 bd
       0.11981551 -0.10737241 -0.13550243 -0.07900031
000300 74 86 2f 3d e7 66 9a bd 9a b5 11 bd 32 bc 3c bd
       0.042852834 -0.07539158 -0.03557358 -0.046077915
000310 ce 1e 91 bd 0f 16 dc 3d 2f e8 87 bc 07 32 78 3d
       -0.07085954 0.10746395 -0.016590206 0.060594585
000320 d7 e4 6c bc 39 58 9e 3d 03 35 61 bd 38 8c 22 bc
       -0.014458857 0.07731671 -0.054982197 -0.009921126
000330 b3 be a6 3c e6 71 3a be af d4 49 bd 17 03 f7 3b
       0.020354604 -0.18207511 -0.049275097 0.00753821
000340 4a bd 88 bd 6e 48 01 ba 40 94 fb 3c bd 5b 69 bd
       -0.06676729 -0.00049317523 0.03071034 -0.056972254
000350 f8 68 f5 3d af 1e fe bd 93 9e 85 bd eb 3c 30 3c
       0.11982912 -0.12408196 -0.06524386 0.0107567115
000360 16 58 66 bd b5 d5 f9 3d 20 e1 aa ba 6f d6 6b 3c
       -0.05623635 0.121989645 -0.0013037063 0.014394387
000370 35 16 d8 3d 51 fe c1 3d 2b be 81 be 9e f7 d6 3b
       0.10551111 0.09472335 -0.253404 0.00656028
000380 f4 cf c0 3d 52 24 53 3e 56 3b 30 bd 91 a1 56 bd
       0.09414664 0.20619324 -0.043025337 -0.052400175
000390 20 0c 4d 3d 72 06 0e be 23 d7 88 bd c7 4f 53 be
       0.05006039 -0.13869646 -0.06681659 -0.20635901
0003a0 64 25 fe 3d c6 13 a6 3d 96 b2 af bd 41 c2 ec 3c
       0.124094754 0.0810924 -0.085789844 0.028901221
0003b0 e1 81 8a bc 38 7e 92 3c b9 0b 1a 3d d6 56 d0 3c
       -0.016907634 0.017882451 0.037608836 0.025432032
0003c0 2f 4d fc 3c 5e a0 a8 bd 23 aa 9c 3d 80 5b 9c bb
       0.030798523 -0.082337126 0.076496385 -0.00477165
0003d0 26 96 5b 3c 37 57 ff 3b 72 18 0b 3d 6f 59 83 be
       0.013402497 0.0077923792 0.03395886 -0.2565417
0003e0 da 61 de 3d ca 1a 88 3d 26 50 f8 3d e3 3a 06 3c
       0.108585075 0.066457346 0.12124662 0.008192751
0003f0 19 67 35 3d f1 aa 2a be cb 9f 00 3e 3e f5 da bd
       0.044287775 -0.16666771 0.12560956 -0.106913075

network_body._body_endoder.seq_layers.2.bias f4 [128]
000000 00 00 00 00 00 00 00 00 00 00 00 00 00 00 00 00
       0.0 0.0 0.0 0.0
000010 00 00 00 00 00 00 00 00 00 00 00 00 00 00 00 00
       0.0 0.0 0.0 0.0
000020 00 00 00 00 00 00 00 00 00 00 00 00 00 00 00 00
       0.0 0.0 0.0 0.0
000030 00 00 00 00 00 00 00 00 00 00 00 00 00 00 00 00
       0.0 0.0 0.0 0.0
000040 00 00 00 00 00 00 00 00 00 00 00 00 00 00 00 00
       0.0 0.0 0.0 0.0
000050 00 00 00 00 00 00 00 00 00 00 00 00 00 00 00 00
       0.0 0.0 0.0 0.0
000060 00 00 00 00 00 00 00 00 00 00 00 00 00 00 00 00
       0.0 0.0 0.0 0.0
000070 00 00 00 00 00 00 00 00 00 00 00 00 00 00 00 00
       0.0 0.0 0.0 0.0
000080 00 00 00 00 00 00 00 00 00 00 00 00 00 00 00 00
       0.0 0.0 0.0 0.0
000090 00 00 00 00 00 00 00 00 00 00 00 00 00 00 00 00
       0.0 0.0 0.0 0.0
0000a0 00 00 00 00 00 00 00 00 00 00 00 00 00 00 00 00
       0.0 0.0 0.0 0.0
0000b0 00 00 00 00 00 00 00 00 00 00 00 00 00 00 00 00
       0.0 0.0 0.0 0.0
0000c0 00 00 00 00 00 00 00 00 00 00 00 00 00 00 00 00
       0.0 0.0 0.0 0.0
0000d0 00 00 00 00 00 00 00 00 00 00 00 00 00 00 00 00
       0.0 0.0 0.0 0.0
0000e0 00 00 00 00 00 00 00 00 00 00 00 00 00 00 00 00
       0.0 0.0 0.0 0.0
0000f0 00 00 00 00 00 00 00 00 00 00 00 00 00 00 00 00
       0.0 0.0 0.0 0.0
000100 00 00 00 00 00 00 00 00 00 00 00 00 00 00 00 00
       0.0 0.0 0.0 0.0
000110 00 00 00 00 00 00 00 00 00 00 00 00 00 00 00 00
       0.0 0.0 0.0 0.0
000120 00 00 00 00 00 00 00 00 00 00 00 00 00 00 00 00
       0.0 0.0 0.0 0.0
000130 00 00 00 00 00 00 00 00 00 00 00 00 00 00 00 00
       0.0 0.0 0.0 0.0
000140 00 00 00 00 00 00 00 00 00 00 00 00 00 00 00 00
       0.0 0.0 0.0 0.0
000150 00 00 00 00 00 00 00 00 00 00 00 00 00 00 00 00
       0.0 0.0 0.0 0.0
000160 00 00 00 00 00 00 00 00 00 00 00 00 00 00 00 00
       0.0 0.0 0.0 0.0
000170 00 00 00 00 00 00 00 00 00 00 00 00 00 00 00 00
       0.0 0.0 0.0 0.0
000180 00 00 00 00 00 00 00 00 00 00 00 00 00 00 00 00
       0.0 0.0 0.0 0.0
000190 00 00 00 00 00 00 00 00 00 00 00 00 00 00 00 00
       0.0 0.0 0.0 0.0
0001a0 00 00 00 00 00 00 00 00 00 00 00 00 00 00 00 00
       0.0 0.0 0.0 0.0
0001b0 00 00 00 00 00 00 00 00 00 00 00 00 00 00 00 00
       0.0 0.0 0.0 0.0
0001c0 00 00 00 00 00 00 00 00 00 00 00 00 00 00 00 00
       0.0 0.0 0.0 0.0
0001d0 00 00 00 00 00 00 00 00 00 00 00 00 00 00 00 00
       0.0 0.0 0.0 0.0
0001e0 00 00 00 00 00 00 00 00 00 00 00 00 00 00 00 00
       0.0 0.0 0.0 0.0
0001f0 00 00 00 00 00 00 00 00 00 00 00 00 00 00 00 00
       0.0 0.0 0.0 0.0

value_heads.value_heads.extrinsic.weight f4 [1, 128]
000000 48 f9 19 3e 11 22 85 bd 8d a3 2e 3e 9b 1c f9 bd
       0.150365 -0.06500638 0.17054577 -0.12163659
000010 45 e6 36 3e 50 98 8f 3d b0 98 3d be 02 9c c8 b9
       0.17861278 0.07011473 -0.18515277 -0.00038263208
000020 29 af 25 3e 06 26 25 3e dd 99 b5 3d 5a 37 48 3e
       0.161801 0.16127786 0.08867238 0.19552365
000030 ad fa 0e 3e a8 97 07 be 3e 8f 45 3e f8 07 4d bd
       0.13962813 -0.13241446 0.19292924 -0.050056428
000040 44 20 f6 3d 3e 59 7e bd 60 d1 44 3d 7c 68 e9 3d
       0.12017873 -0.062096827 0.048051238 0.11396882
000050 c4 e2 12 3e db 83 57 be 8f f7 5a bd 6d d9 d1 3a
       0.14344317 -0.21046393 -0.053458747 0.0016010233
000060 36 f4 1d 3e e4 10 13 3e 8d 4b 57 be fa d1 2d 3d
       0.1542519 0.14361912 -0.21024914 0.042436577
000070 d1 52 30 be 7e b6 fb bb fe 0b 95 3d 4f e9 3b be
       -0.17219092 -0.007681667 0.07277678 -0.18350719
000080 a1 e6 9c 3c 7f ef 6e bb 80 04 a8 bd 46 dd 35 3e
       0.019152941 -0.0036458669 -0.08203983 0.1776019
000090 4a ac 06 be 9f 7e 4a be 6d 10 de bd bc e1 22 3e
       -0.1315166 -0.19774865 -0.10842977 0.15906423
0000a0 a7 3f e7 3d be 1e 95 bc 29 a2 96 bd 54 b0 0b 3e
       0.112914376 -0.018203136 -0.07355148 0.13641483
0000b0 1c 07 8e 3c 64 e1 44 bd b5 86 c3 3d ec 1c 41 be
       0.017337374 -0.04806651 0.09547178 -0.18858689
0000c0 9f 21 12 3e c6 ba 2b be 94 da e3 bd 4d 6b 9b 3d
       0.14270638 -0.16770467 -0.11125675 0.075888254
0000d0 94 df 2b 3e 27 7c 5b 3e d8 30 4b be 02 29 42 be
       0.16784507 0.21434079 -0.19842851 -0.18960956
0000e0 48 f3 16 be 53 e8 34 3e 27 16 fa 3d cf 96 01 3e
       -0.14741242 0.1766675 0.122112565 0.12655185
0000f0 cf 76 3c 3d 37 70 88 bd 8c 14 1d be 5d c5 81 bc
       0.046011742 -0.06662028 -0.1533987 -0.01584118
000100 1b a7 24 bd 2c 1d 04 3e 7e ee 57 3e 00 de 4a be
       -0.040198427 0.12901753 0.21087071 -0.19811249
000110 82 3e 07 3e 7c 25 48 3e ae 6e 90 bd 46 47 27 3e
       0.13207439 0.19545549 -0.070523605 0.16335782
000120 99 37 1f 3e 2d 14 15 3c 9a a5 33 bd 3a f8 a8 bd
       0.15548553 0.009099049 -0.0438591 -0.082504705
000130 36 0e 1b be 26 23 08 3d a0 14 fd 3c 05 a6 35 3d
       -0.1514214 0.033236645 0.030893624 0.04434778
000140 3d 69 03 bd 4e 42 35 bd dd 96 89 bd 35 4f bf bd
       -0.032082785 -0.044252686 -0.06718228 -0.093412794
000150 75 c4 68 bd 12 50 21 3e f5 a2 f1 3d c1 a6 10 be
       -0.05682798 0.157532 0.1179866 -0.14126112
000160 25 7e 48 3e 66 3f d4 3d 17 48 81 bc 54 01 d9 3d
       0.1957937 0.10363655 -0.015781445 0.105959564
000170 3f 5c e4 3c 04 2f 38 be 25 c3 0c 3e 44 d2 29 bd
       0.027876018 -0.17986685 0.13746317 -0.04146029
000180 b1 dc 5a 3e f5 03 7c bd 07 98 f0 bd 44 8b 12 be
       0.2137325 -0.06152721 -0.11747747 -0.14310938
000190 c4 66 07 bd 94 4f 48 3e c9 1a 5a be f0 08 03 3e
       -0.03305699 0.19561607 -0.2129928 0.12796378
0001a0 da 4a 0c 3e 9a 60 57 be 80 c7 0c 3e f6 7c d6 bd
       0.13700429 -0.21032944 0.13747978 -0.10473053
0001b0 51 d6 9e bd 8e 20 19 3e dc 63 0b be 8c 62 2e 3e
       -0.07755721 0.14953825 -0.13612312 0.1702978
0001c0 f6 30 0a be dd 4d 80 3c be 8c e4 3d df 9d 4a be
       -0.1349524 0.015662128 0.11159657 -0.19786786
0001d0 37 ad a3 3d 6b ef 31 be b5 3d 07 3d be 93 d6 3d
       0.079920225 -0.17376487 0.033017833 0.10477398
0001e0 f5 62 49 3c 6f 1a eb 3b f4 c1 4d be 8c b9 11 be
       0.01229166 0.007174782 -0.20093518 -0.14230937
0001f0 cf 37 02 be 34 44 02 bc e7 b5 3a bd 63 56 16 be
       -0.12716602 -0.007950831 -0.04558363 -0.14681391
