results/ppo/MlAgent/MlAgent-2220.pt (torch, 202759 bytes, 11 tensors)

network_body._body_endoder.seq_layers.0.weight f4 [128, 57]
0	0x3cd4bbfa	0.02596854
1	0xbd43d635	-0.047811706
2	0xbd445bed	-0.04793923
3	0xbd890bb8	-0.06691688
4	0xbde7a383	-0.11310484
5	0x3d8c5a46	0.06853156
6	0xbdd502a1	-0.10400892
7	0x3e2aa495	0.16664346
8	0x3d20ef36	0.03929063
9	0x3d304517	0.04303464
10	0x3e666418	0.2249912
11	0x3dc20100	0.09472847
12	0x3c9ea84f	0.019367365
13	0xbdb5ddf5	-0.088802256
14	0xbe23092c	-0.15921468
15	0x3e931bd7	0.28732178
16	0xbdeea196	-0.11651914
17	0x3dcfc604	0.1014519
18	0xbd2edb36	-0.042689525
19	0x3e2b084b	0.16702382
20	0x3e87c1f8	0.26515174
21	0x3d82c8eb	0.06385978
22	0xbc5f4835	-0.013628055
23	0xbe57aa19	-0.21060981
24	0xbd2cedac	-0.04221885
25	0xbd418292	-0.047243662
26	0xbd930297	-0.07178228
27	0xbdb2ad6e	-0.08724485
28	0xbea487e0	-0.32134914
29	0xbe5a65d3	-0.21327905
30	0x3d7e1fbb	0.06204198
31	0xbc544c6e	-0.012957675
32	0xbd63c05a	-0.055603363
33	0x3dec0679	0.11524672
34	0xbdd3e8ed	-0.103471614
35	0xbd0df7b7	-0.034660067
36	0x3de27242	0.11056949
37	0x3cac1b4c	0.02100911
38	0xbca07c34	-0.019590475
39	0x3e0b8589	0.13625158
40	0x3ebb2435	0.3655106
41	0x3e3bf78c	0.1835615
42	0xbcefa46a	-0.029253203
43	0xbdf309df	-0.11867117
44	0xbe592540	-0.21205616
45	0xbde84b44	-0.11342481
46	0x3e33b55e	0.17549655
47	0xbd833c0e	-0.06407939
48	0x3de971c9	0.11398656
49	0x3db4ea79	0.088337846
50	0xbe530b49	-0.20609774
51	0xbde4f3f7	-0.11179345
52	0xbe58d8e7	-0.21176492
53	0xbe057ba6	-0.1303545
54	0xbb152743	-0.0022758998
55	0xbe34c123	-0.17651801
56	0x3cd19087	0.025581611
57	0x3e582e13	0.21111326
58	0x3d62a6b7	0.055334773
59	0x3cda1a82	0.026623968
60	0x3cae0239	0.021241294
61	0xbcb4ad54	-0.022055306
62	0xbcd8e9c7	-0.026478661
63	0xbe0713f7	-0.1319121
64	0x3e0f90b3	0.14020042
65	0x3dcbb2dc	0.09946224
66	0xbe49b4fc	-0.19697946
67	0x3e138081	0.14404489
68	0xbdb93c25	-0.09044675
69	0x3dff0b86	0.1245337
70	0x3cfc6347	0.030809058
71	0x3c5b945f	0.013402074
72	0x3d5cc784	0.05390121
73	0xbe4cd456	-0.20002875
74	0x3d2a6f3c	0.041609988
75	0x3ddd0cea	0.10793479
76	0xbd1076cd	-0.035269547
77	0xbcf4bcfd	-0.029875273
78	0xbc3aad38	-0.011393838
79	0x3db506fa	0.08839221
80	0xbe106d8e	-0.14104292
81	0xbca99d9d	-0.020705039
82	0xbe3e0468	-0.18556368
83	0xbcc9edb9	-0.024649488
84	0xbdc8072d	-0.09766994
85	0x3df3a7a2	0.11897208
86	0x3d221f63	0.039580714
87	0x3d3dc815	0.04633339
88	0xbe970ec8	-0.29503465
89	0x3de6ea1a	0.1127512
90	0xbcf97012	-0.030448947
91	0xbe2dc145	-0.16968258
92	0xbd90548a	-0.070473745
93	0xbc48b876	-0.01225101
94	0x3c9634f3	0.018335795
95	0x3dc6f4cb	0.09714659
96	0x3d2407bc	0.04004644
97	0xbe188d50	-0.14897656
98	0x3db49d4f	0.08819067
99	0x3dec710a	0.11544998
100	0x3d1b8404	0.037967697
101	0x3d6fb0d3	0.058518242
102	0x3d9aab95	0.07552258
103	0xbbcaabde	-0.006185039
104	0x3bdef87c	0.006804524
105	0xbe1a1ee6	-0.1505085
106	0x3e2addc6	0.16686162
107	0xbcc11aa8	-0.023572281
108	0x3e571a7d	0.21006198
109	0xbc420def	-0.011844142
110	0x3dbd5659	0.09244985
111	0xbd9e9e98	-0.07745093
112	0x3d3a9026	0.045547627
113	0xbe54e607	-0.20790873
114	0x3db1d066	0.08682327
115	0xbe1ecc9b	-0.15507738
116	0xbe0f4613	-0.13991575
117	0xbdc6aca2	-0.09700896
118	0xbe90eb34	-0.28304446
119	0xbd88e7a6	-0.066848084
120	0x3df62bbc	0.120200604
121	0x3de12730	0.109938025
122	0xbdc68fc9	-0.096953936
123	0x3d22fa4e	0.03978949
124	0xbe1689af	-0.1470096
125	0xbe255abf	-0.16147898
126	0x3e1232c2	0.14277175
127	0xbe45fed0	-0.19335485
128	0xbdf64701	-0.12025262
129	0x3dcd3b74	0.100211054
130	0x3de9c5a3	0.11414649
131	0x3e465e75	0.1937197
132	0x3c5a037f	0.013306498
133	0x3d44239c	0.047885522
134	0xbe16c3ef	-0.1472318
135	0x3df7b757	0.12095516
136	0xbd001187	-0.031266715
137	0x3d819f43	0.06329205
138	0xbe748ca4	-0.23881775
139	0xbe672afd	-0.22574992
140	0x3e4a2cfc	0.19743723
141	0x3dd60a65	0.10451201
142	0xbe1c1fc8	-0.15246499
143	0xbc7a518a	-0.0152782295
144	0x3e37be09	0.17943586
145	0xbb95cea8	-0.0045717545
146	0x3de2612b	0.110536896
147	0xbd804da2	-0.06264807
148	0xbe32b5f2	-0.17452219
149	0xbea68130	-0.32520437
150	0xbab61205	-0.0013890868
151	0xbd8594f9	-0.06522555
152	0xbe3f9fdf	-0.1871333
153	0x3e4cd513	0.20003156
154	0x3da78792	0.08180155
155	0x3d595cf8	0.053067178
156	0xbe2846ad	-0.1643321
157	0xbca2e62c	-0.019885145
158	0xbe191894	-0.14950782
159	0x3dcb6ee4	0.0993326
160	0xbc9fb4fd	-0.019495482
161	0x3dfcef9b	0.123503886
162	0x3e126e81	0.14299966
163	0xbdb04b95	-0.08608166
164	0x3ca469a7	0.02006991
165	0x3e14d78f	0.14535354
166	0xbde75f29	-0.11297447
167	0xbe34bc64	-0.1764999
168	0xbe49a307	-0.19691096
169	0x3def03f3	0.11670675
170	0xbd23a428	-0.039951473
171	0xbe538395	-0.20655663
172	0x3dc1a25a	0.09454794
173	0x3dc9ff11	0.09863103
174	0x3d33a9c5	0.043863077
175	0xbd6e9ffa	-0.058258034
176	0x3e65371a	0.22384301
177	0x3c8aa90f	0.016926317
178	0x3e3f33c3	0.1867209
179	0x3d108785	0.03528549
180	0x3dd43a38	0.10362667
181	0x3e475b13	0.19468336
182	0xbe6aab99	-0.22917022
183	0xbdb003da	-0.085944846
184	0xbd967dc3	-0.07348206
185	0xbd8c133d	-0.06839607
186	0xbd405791	-0.04695851
187	0xbdac6cb5	-0.08419172
188	0x3e931a64	0.28731072
189	0x3ad44242	0.0016194063
190	0xbd2cb851	-0.042167965
191	0x3ebac7ae	0.3648047
192	0x3e3fe399	0.18739165
193	0xbe7a7eed	-0.24462481
194	0xbd36e340	-0.044650316
195	0x3dad1d73	0.084528826
196	0x3d034c06	0.032054923
197	0xbe72e92f	-0.23721765
198	0x3e31112c	0.17291707
199	0xbe981234	-0.29701388
200	0x3db74dcf	0.08950388
201	0xbda29745	-0.079390086
202	0x3cc52949	0.024067538
203	0x3e4a3011	0.19744898
204	0xbd759abf	-0.05996203
205	0xbdae40fd	-0.08508489
206	0xbe26d792	-0.16293171
207	0xbdd4127a	-0.103550866
208	0x3ebfcdbf	0.3746166
209	0xbc3021d6	-0.010750255
210	0xbd36476e	-0.044501714
211	0xbd6f5a5a	-0.058435775
212	0x3e9b0018	0.3027351
213	0xbe8efb9f	-0.27926347
214	0xbe8e3047	-0.27771208
215	0xbdb9f56a	-0.09080012
216	0xbd9c80a5	-0.076417245
217	0xbe8ee74b	-0.27910838
218	0xbb521d97	-0.0032061094
219	0x3d9787eb	0.07398971
220	0xbe2e1df7	-0.17003618
221	0xbd55e9fb	-0.052225094
222	0x3e30cd12	0.17265728
223	0xbdda11b7	-0.1064791
224	0xbdabd441	-0.083900936
225	0x3bb356c4	0.0054729898
226	0x3d222f59	0.039595935
227	0x3e3c294c	0.18375129
228	0xbe10a3af	-0.1412494
229	0x3da33a5f	0.07970118
230	0xbe5062d8	-0.20350206
231	0x3d6bd608	0.057577163
232	0xbe121028	-0.14263976
233	0xbe05d27e	-0.13068578
234	0x3db6b038	0.0892033
235	0xbc9b7cbb	-0.018980375
236	0x3e81c08a	0.25342208
237	0x3dab595b	0.083666526
238	0xbd9b0a97	-0.07570379
239	0xbd86491d	-0.06556914
240	0x3d311437	0.04323217
241	0x3e408d3e	0.1880388
242	0x3da01150	0.07815802
243	0xbdc20018	-0.09472674
244	0x3c760976	0.015016904
245	0x3b127cc9	0.002235221
246	0x3ce28f47	0.02765621
247	0xbd346d54	-0.044049576
248	0x3dcb3ff1	0.09924305
249	0x3d980e89	0.07424647
250	0x3d9ae381	0.07562924
251	0xbd903588	-0.0704146
252	0x3cb0df2c	0.021590792
253	0x3d20492f	0.039132293
254	0xbce074c1	-0.027399423
255	0xbd0e7cef	-0.034787115

network_body._body_endoder.seq_layers.0.bias f4 [128]
0	0x00000000	0.0
1	0x00000000	0.0
2	0x00000000	0.0
3	0x00000000	0.0
4	0x00000000	0.0
5	0x00000000	0.0
6	0x00000000	0.0
7	0x00000000	0.0
8	0x00000000	0.0
9	0x00000000	0.0
10	0x00000000	0.0
11	0x00000000	0.0
12	0x00000000	0.0
13	0x00000000	0.0
14	0x00000000	0.0
15	0x00000000	0.0
16	0x00000000	0.0
17	0x00000000	0.0
18	0x00000000	0.0
19	0x00000000	0.0
20	0x00000000	0.0
21	0x00000000	0.0
22	0x00000000	0.0
23	0x00000000	0.0
24	0x00000000	0.0
25	0x00000000	0.0
26	0x00000000	0.0
27	0x00000000	0.0
28	0x00000000	0.0
29	0x00000000	0.0
30	0x00000000	0.0
31	0x00000000	0.0
32	0x00000000	0.0
33	0x00000000	0.0
34	0x00000000	0.0
35	0x00000000	0.0
36	0x00000000	0.0
37	0x00000000	0.0
38	0x00000000	0.0
39	0x00000000	0.0
40	0x00000000	0.0
41	0x00000000	0.0
42	0x00000000	0.0
43	0x00000000	0.0
44	0x00000000	0.0
45	0x00000000	0.0
46	0x00000000	0.0
47	0x00000000	0.0
48	0x00000000	0.0
49	0x00000000	0.0
50	0x00000000	0.0
51	0x00000000	0.0
52	0x00000000	0.0
53	0x00000000	0.0
54	0x00000000	0.0
55	0x00000000	0.0
56	0x00000000	0.0
57	0x00000000	0.0
58	0x00000000	0.0
59	0x00000000	0.0
60	0x00000000	0.0
61	0x00000000	0.0
62	0x00000000	0.0
63	0x00000000	0.0
64	0x00000000	0.0
65	0x00000000	0.0
66	0x00000000	0.0
67	0x00000000	0.0
68	0x00000000	0.0
69	0x00000000	0.0
70	0x00000000	0.0
71	0x00000000	0.0
72	0x00000000	0.0
73	0x00000000	0.0
74	0x00000000	0.0
75	0x00000000	0.0
76	0x00000000	0.0
77	0x00000000	0.0
78	0x00000000	0.0
79	0x00000000	0.0
80	0x00000000	0.0
81	0x00000000	0.0
82	0x00000000	0.0
83	0x00000000	0.0
84	0x00000000	0.0
85	0x00000000	0.0
86	0x00000000	0.0
87	0x00000000	0.0
88	0x00000000	0.0
89	0x00000000	0.0
90	0x00000000	0.0
91	0x00000000	0.0
92	0x00000000	0.0
93	0x00000000	0.0
94	0x00000000	0.0
95	0x00000000	0.0
96	0x00000000	0.0
97	0x00000000	0.0
98	0x00000000	0.0
99	0x00000000	0.0
100	0x00000000	0.0
101	0x00000000	0.0
102	0x00000000	0.0
103	0x00000000	0.0
104	0x00000000	0.0
105	0x00000000	0.0
106	0x00000000	0.0
107	0x00000000	0.0
108	0x00000000	0.0
109	0x00000000	0.0
110	0x00000000	0.0
111	0x00000000	0.0
112	0x00000000	0.0
113	0x00000000	0.0
114	0x00000000	0.0
115	0x00000000	0.0
116	0x00000000	0.0
117	0x00000000	0.0
118	0x00000000	0.0
119	0x00000000	0.0
120	0x00000000	0.0
121	0x00000000	0.0
122	0x00000000	0.0
123	0x00000000	0.0
124	0x00000000	0.0
125	0x00000000	0.0
126	0x00000000	0.0
127	0x00000000	0.0

network_body._body_endoder.seq_layers.2.weight f4 [128, 128]
0	0xbdc5c9f9	-0.09657664
1	0xbd03f8df	-0.032219764
2	0x3d9f1a3d	0.077686764
3	0x3d1c2e13	0.038129877
4	0x3da7b1f9	0.081882425
5	0x3c71cc9e	0.014758257
6	0x3c18eab1	0.009333299
7	0x3d3bd30e	0.045855574
8	0x3b9b68a2	0.004742698
9	0x3db868e4	0.09004381
10	0xbbcca379	-0.0062450734
11	0xbd42a41d	-0.047519792
12	0x3dc31dd6	0.09527175
13	0xbd5e0979	-0.054208253
14	0xbcda65ce	-0.026659872
15	0x3c89c674	0.016818263
16	0x3e243eda	0.16039601
17	0x3d27ff91	0.04101521
18	0x3d2f75e1	0.042837027
19	0xbd94996d	-0.07255826
20	0x3dbeb741	0.09312297
21	0x3c91fff1	0.017822238
22	0x3e018311	0.12647654
23	0x3dade448	0.08490807
24	0x3d01c0af	0.031677898
25	0xbe0533e0	-0.1300807
26	0xbddb78b3	-0.10716381
27	0x3d8a3356	0.06748073
28	0xbd8ed0a5	-0.069733895
29	0xbe1b2d70	-0.15154052
30	0x3dd8bddd	0.105830885
31	0x3d525119	0.051346872
32	0xbc857d7d	-0.016295189
33	0x3e2d4083	0.1691914
34	0xbd3a455e	-0.04547631
35	0x3ded81db	0.115970336
36	0xbc151b3c	-0.009100731
37	0xbdb34861	-0.087540396
38	0x3e61ce03	0.22051243
39	0xbd848d71	-0.0647229
40	0x3e479252	0.1948941
41	0xbd7e61b4	-0.062104896
42	0xbe94c161	-0.29053786
43	0x3e1f2024	0.15539604
44	0xbc5ff954	-0.013670284
45	0x3b57f714	0.0032953667
46	0xbd21aa43	-0.039469015
47	0xbe2b4afe	-0.16727826
48	0xbd41a274	-0.047274068
49	0xbd7641a7	-0.060121205
50	0x3ce43f40	0.027862191
51	0xbd0dc180	-0.034608364
52	0x3e4322d1	0.1905625
53	0xbe0eee81	-0.1395817
54	0x3dd342ae	0.103154525
55	0x3b8ecf06	0.004358175
56	0xbd37e000	-0.044891357
57	0x3d73fc0b	0.05956654
58	0x3dbcad44	0.09212735
59	0xbd17cadd	-0.0370587
60	0xbd9dabac	-0.076987594
61	0x3c8b9838	0.017040357
62	0xbd9aa9e6	-0.07551937
63	0xbdc829c9	-0.09773595
64	0xbd802800	-0.062576294
65	0xbc18d5ad	-0.009328288
66	0xbd3fa32e	-0.04678648
67	0xbdb95af1	-0.09050549
68	0xbc74d01c	-0.014942195
69	0xbd2f6f06	-0.04283049
70	0x3bd2e722	0.0064362446
71	0xbc5d3e8a	-0.01350368
72	0x3d63d234	0.055620387
73	0x3d5d50cc	0.054032132
74	0x3c729578	0.014806144
75	0xbdefed1f	-0.11715149
76	0x3d954ace	0.072896585
77	0xbe13ea0f	-0.14444755
78	0xbd3eb227	-0.046556618
79	0x3d972ee0	0.073819876
80	0x3d08fe35	0.033445556
81	0xbdbbd654	-0.09171739
82	0xbded3571	-0.11582459
83	0x3d92103e	0.07132004
84	0xbc15651b	-0.009118344
85	0xbe0c7e4e	-0.13720056
86	0xbd2b95af	-0.041890796
87	0xbe0492ee	-0.12946674
88	0x3e3a103e	0.18170258
89	0xbd9cd4b0	-0.076577544
90	0xbd77dae9	-0.060511503
91	0xbdea8d46	-0.11452727
92	0x3e81d29d	0.25355998
93	0x3ce23454	0.027612843
94	0x3d78b39d	0.060718168
95	0x3d5706e2	0.0524968
96	0x3d917cfa	0.071039155
97	0x3d484f36	0.048903666
98	0xbdd8a1fc	-0.10577771
99	0xbd4c1b06	-0.04983046
100	0xbe5bd91f	-0.21469544
101	0xbdd32a49	-0.103108
102	0xbc8f0f38	-0.017463312
103	0x3d5b73d9	0.053577278
104	0xbd50323f	-0.05082917
105	0xbdd87ad3	-0.10570302
106	0x3d562c57	0.05228838
107	0xbd740bec	-0.059581682
108	0xbcf3724f	-0.029717593
109	0x3d46cdf4	0.048536256
110	0x3e452f64	0.1925636
111	0x3dd640dc	0.1046159
112	0xbc8cb80a	-0.0171776
113	0x3da83ea2	0.08215071
114	0xbe24604d	-0.16052361
115	0x3ce770da	0.028252054
116	0x3db4000d	0.08789072
117	0xbde26a32	-0.110554114
118	0x3ddab606	0.106792495
119	0x3cf05061	0.029335203
120	0xbc14c872	-0.009080993
121	0xbdb4a116	-0.08819787
122	0xbda5b7c0	-0.08091688
123	0x3c2ddaa7	0.010611213
124	0xbcac5ee7	-0.021041347
125	0xbd6d6d3b	-0.0579655
126	0x3c6ee996	0.014582058
127	0xbe1a2cc1	-0.15056135
128	0x3dd11559	0.1020915
129	0x3dff73b4	0.124732405
130	0xbd0dcc29	-0.03461853
131	0x3aea0e4b	0.0017857043
132	0x3d6aa1f0	0.057283342
133	0xbd2042f6	-0.03912636
134	0xbd40b5e5	-0.04704847
135	0x3e209126	0.1568037
136	0x3da81525	0.08207158
137	0xbd472be8	-0.048625857
138	0xbd0809f3	-0.033212613
139	0x3d3c3dab	0.04595725
140	0xbda67ede	-0.08129667
141	0x3c789ed2	0.015174584
142	0x3e0491a9	0.1294619
143	0xbbe7958d	-0.0070673884
144	0x3c5d5124	0.013508115
145	0x3d09402c	0.033508465
146	0xbdd7aa7d	-0.10530565
147	0xbd2ec600	-0.042669296
148	0x3af7e4e5	0.001891282
149	0x3de48934	0.11158982
150	0xbe1a17d1	-0.15048148
151	0xbc60612b	-0.013695042
152	0xba99ea8a	-0.0011742872
153	0xbe148ca7	-0.1450678
154	0xb9f59ccd	-0.00046846867
155	0xbc1aa5c0	-0.009438932
156	0x3d2db18b	0.042405646
157	0x3d873f44	0.06603864
158	0x3cb8bf13	0.022552049
159	0xbc998a27	-0.018742634
160	0x3cf93038	0.0304185
161	0xbd31c705	-0.04340269
162	0x3c909429	0.017648773
163	0xbe8b61f2	-0.27223164
164	0xbe226875	-0.1586016
165	0xbca4ca11	-0.020115884
166	0xbd26aa27	-0.040689614
167	0x3da743c3	0.081672214
168	0x3d45f5c2	0.048330076
169	0x3bdf7954	0.0068198834
170	0x3ca73c62	0.020414535
171	0xbe050155	-0.1298879
172	0xbcd579de	-0.026059087
173	0xbe0774b5	-0.13228114
174	0xbd1aa6b8	-0.03775665
175	0xbe029911	-0.12753703
176	0xbd80a21a	-0.062809184
177	0x3e06be8d	0.13158627
178	0x3cddcae5	0.027074287
179	0xbd0a9eed	-0.03384297
180	0x3c96bb6a	0.018399913
181	0xbde2ae90	-0.110684514
182	0x3dbb17fe	0.091354355
183	0xbcd9b21b	-0.026574185
184	0x3df0782e	0.117416725
185	0xbcbb0e61	-0.022834005
186	0x3c2fc354	0.010727722
187	0x3d06bf01	0.032897
188	0xbdaadf56	-0.08343379
189	0x3e1706aa	0.14748636
190	0xbd8bb619	-0.06821842
191	0xbe2b6f71	-0.1674173
192	0x3e1240ae	0.14282486
193	0x3cc08867	0.023502542
194	0xbce268ec	-0.027637921
195	0x3c38a25d	0.011269179
196	0x3d9f5371	0.07779587
197	0xbddcc377	-0.107794695
198	0x3c9d9089	0.019233959
199	0x3c947999	0.018124389
200	0x3d1e983f	0.038719412
201	0x3da840b0	0.08215463
202	0x3d03c85e	0.032173507
203	0x3e0c3df4	0.13695508
204	0xbb07ce9a	-0.002072251
205	0xbe00269e	-0.12514731
206	0xbb2778b1	-0.0025554115
207	0x3d83f585	0.064433135
208	0xbd8cd4aa	-0.068765
209	0xbe363d41	-0.17796804
210	0x3dddb777	0.10826009
211	0xbdba11bc	-0.09085414
212	0xbca40106	-0.02002002
213	0xbd823ee5	-0.063596524
214	0xbe15bc8d	-0.14622708
215	0x3a7e931c	0.0009711252
216	0xbcf2fa90	-0.029660493
217	0xbe2e9570	-0.17049193
218	0x3e590243	0.21192269
219	0x3d879c51	0.06621612
220	0xbda73206	-0.08163838
221	0x3cfdeedb	0.030997684
222	0x3cc4f677	0.024043305
223	0xbe1394fe	-0.14412305
224	0xbcd7c719	-0.026340054
225	0x3d4428df	0.04789054
226	0xbdb137ce	-0.08653222
227	0x3de1b545	0.110209025
228	0x3d22e063	0.039764773
229	0xbcab5c93	-0.020918166
230	0x3c865f37	0.016402824
231	0xbe0082aa	-0.12549844
232	0xbdbc9b50	-0.09209311
233	0x3ddf8e79	0.109158464
234	0xbba3c401	-0.0049977307
235	0x3e35ed16	0.17766222
236	0xbdb27ce3	-0.087152265
237	0xbc37d83f	-0.011220991
238	0xbe5f424f	-0.21802638
239	0x3d7ef82d	0.062248398
240	0x3cb74e9e	0.022376355
241	0x3d388e1d	0.045057405
242	0x3d290c98	0.041271776
243	0xbd9cb021	-0.076507814
244	0xbd5a4e11	-0.053297106
245	0xbd0b77c3	-0.03404976
246	0xbdd210b1	-0.1025709
247	0xbd40177b	-0.046897393
248	0xbd864301	-0.06555749
249	0x3d077541	0.033070806
250	0xbcf948c0	-0.030430198
251	0xbe3f6540	-0.18690968
252	0x3e05bea2	0.13061002
253	0xbcf14fcc	-0.029456995
254	0x3e1fe29c	0.15613788
255	0xbc34f0a4	-0.011043701

network_body._body_endoder.seq_layers.2.bias f4 [128]
0	0x00000000	0.0
1	0x00000000	0.0
2	0x00000000	0.0
3	0x00000000	0.0
4	0x00000000	0.0
5	0x00000000	0.0
6	0x00000000	0.0
7	0x00000000	0.0
8	0x00000000	0.0
9	0x00000000	0.0
10	0x00000000	0.0
11	0x00000000	0.0
12	0x00000000	0.0
13	0x00000000	0.0
14	0x00000000	0.0
15	0x00000000	0.0
16	0x00000000	0.0
17	0x00000000	0.0
18	0x00000000	0.0
19	0x00000000	0.0
20	0x00000000	0.0
21	0x00000000	0.0
22	0x00000000	0.0
23	0x00000000	0.0
24	0x00000000	0.0
25	0x00000000	0.0
26	0x00000000	0.0
27	0x00000000	0.0
28	0x00000000	0.0
29	0x00000000	0.0
30	0x00000000	0.0
31	0x00000000	0.0
32	0x00000000	0.0
33	0x00000000	0.0
34	0x00000000	0.0
35	0x00000000	0.0
36	0x00000000	0.0
37	0x00000000	0.0
38	0x00000000	0.0
39	0x00000000	0.0
40	0x00000000	0.0
41	0x00000000	0.0
42	0x00000000	0.0
43	0x00000000	0.0
44	0x00000000	0.0
45	0x00000000	0.0
46	0x00000000	0.0
47	0x00000000	0.0
48	0x00000000	0.0
49	0x00000000	0.0
50	0x00000000	0.0
51	0x00000000	0.0
52	0x00000000	0.0
53	0x00000000	0.0
54	0x00000000	0.0
55	0x00000000	0.0
56	0x00000000	0.0
57	0x00000000	0.0
58	0x00000000	0.0
59	0x00000000	0.0
60	0x00000000	0.0
61	0x00000000	0.0
62	0x00000000	0.0
63	0x00000000	0.0
64	0x00000000	0.0
65	0x00000000	0.0
66	0x00000000	0.0
67	0x00000000	0.0
68	0x00000000	0.0
69	0x00000000	0.0
70	0x00000000	0.0
71	0x00000000	0.0
72	0x00000000	0.0
73	0x00000000	0.0
74	0x00000000	0.0
75	0x00000000	0.0
76	0x00000000	0.0
77	0x00000000	0.0
78	0x00000000	0.0
79	0x00000000	0.0
80	0x00000000	0.0
81	0x00000000	0.0
82	0x00000000	0.0
83	0x00000000	0.0
84	0x00000000	0.0
85	0x00000000	0.0
86	0x00000000	0.0
87	0x00000000	0.0
88	0x00000000	0.0
89	0x00000000	0.0
90	0x00000000	0.0
91	0x00000000	0.0
92	0x00000000	0.0
93	0x00000000	0.0
94	0x00000000	0.0
95	0x00000000	0.0
96	0x00000000	0.0
97	0x00000000	0.0
98	0x00000000	0.0
99	0x00000000	0.0
100	0x00000000	0.0
101	0x00000000	0.0
102	0x00000000	0.0
103	0x00000000	0.0
104	0x00000000	0.0
105	0x00000000	0.0
106	0x00000000	0.0
107	0x00000000	0.0
108	0x00000000	0.0
109	0x00000000	0.0
110	0x00000000	0.0
111	0x00000000	0.0
112	0x00000000	0.0
113	0x00000000	0.0
114	0x00000000	0.0
115	0x00000000	0.0
116	0x00000000	0.0
117	0x00000000	0.0
118	0x00000000	0.0
119	0x00000000	0.0
120	0x00000000	0.0
121	0x00000000	0.0
122	0x00000000	0.0
123	0x00000000	0.0
124	0x00000000	0.0
125	0x00000000	0.0
126	0x00000000	0.0
127	0x00000000	0.0

action_model._discrete_distribution.branches.0.weight f4 [4, 128]
0	0x3bcafb8e	0.0061945384
1	0xbca8b407	-0.020593656
2	0xbc340bce	-0.010989143
3	0x3b8d6873	0.00431543
4	0xbc1cb42b	-0.00956444
5	0x3a3a3203	0.0007102789
6	0xbbf953dd	-0.0076088742
7	0xbb469ba0	-0.0030305162
8	0xbc31eb55	-0.01085933
9	0x3bb9f493	0.0056749075
10	0xbb494b50	-0.0030715056
11	0x3c64c48f	0.013962879
12	0xb9dcfa07	-0.00042147955
13	0x3b4ec068	0.0031547789
14	0x3b41b463	0.0029556982
15	0x3bb6cbe0	0.005578503
16	0xbca7becc	-0.020476721
17	0xbb624560	-0.0034526214
18	0xbc92e212	-0.017930064
19	0x3c753928	0.01496724
20	0xbc241123	-0.010013851
21	0x3a7c7407	0.00096303265
22	0x3a913e9f	0.0011081285
23	0xba97b75f	-0.0011575035
24	0xbc670383	-0.014099958
25	0x3a893397	0.0010467645
26	0xbb6f0e3d	-0.0036476993
27	0x3c23c59b	0.009995843
28	0x3c21f7d7	0.00988575
29	0x3c7833d2	0.015149074
30	0xbb30ff1a	-0.002700752
31	0xba7b7847	-0.0009592813
32	0x3b743f17	0.003726905
33	0x3c82b9c9	0.01595773
34	0xbc5baf50	-0.013408497
35	0x3c28e8e2	0.01030943
36	0x3c198786	0.00937069
37	0xbc8803d5	-0.01660339
38	0xbbb81940	-0.0056182444
39	0x3c04d1f3	0.008106696
40	0xbc636ad3	-0.013880449
41	0x3b032fc6	0.002001749
42	0xbc1b2201	-0.009468556
43	0x3c08481d	0.008317974
44	0xbbcef21d	-0.0063154832
45	0x3b90e4ef	0.0044218223
46	0xbc98ac33	-0.018636798
47	0x3c955cb6	0.018232685
48	0xbc1825cc	-0.009286355
49	0xbbb204e4	-0.005432712
50	0x3c543bea	0.012953738
51	0xbaeeb47a	-0.0018211745
52	0x3aed5768	0.0018107714
53	0x3c2808e0	0.010256022
54	0xbb6115c7	-0.0034345256
55	0xbb4619ff	-0.0030227897
56	0x3ba37e9a	0.0049894573
57	0x3b23c404	0.002498866
58	0x3bff81bd	0.0077974484
59	0x3c37f3ad	0.01122753
60	0x3c82756e	0.015925135
61	0xbc1d52e9	-0.009602287
62	0x3c0526ab	0.008126895
63	0xbba50a7a	-0.0050366493
64	0x3ca3528b	0.01993682
65	0x3c3e4d1b	0.011615063
66	0xbc53abe7	-0.012919403
67	0x3a569bc2	0.0008186662
68	0x3b569dcf	0.003274787
69	0x3c097b06	0.0083911475
70	0x3a829f4b	0.0009965686
71	0x3be5e93b	0.0070163286
72	0x3bc23dcd	0.0059277774
73	0xbb3da7aa	-0.0028939047
74	0xbb610422	-0.0034334739
75	0x3a7ec3bb	0.0009718497
76	0x3b5e635f	0.0033933742
77	0xbb9966de	-0.004681452
78	0xba3f6357	-0.00073008746
79	0xbb0dffab	-0.0021667283
80	0xbc491072	-0.012271987
81	0xbc1c7cde	-0.009551255
82	0xbcbd75f8	-0.023127541
83	0x3be35bc5	0.00693843
84	0xbb383d1f	-0.0028112603
85	0x3ac9c694	0.0015394264
86	0x3c061423	0.008183512
87	0xbaa88817	-0.0012857941
88	0x3bcb91d2	0.0062124515
89	0xbb5c5e10	-0.0033625402
90	0xbc87a4de	-0.016558107
91	0xba92e4a7	-0.001120706
92	0x3bea8f10	0.0071581677
93	0x3b478e67	0.0030449869
94	0xbbad304f	-0.0052853
95	0x3a525d72	0.00080247887
96	0x3ac00417	0.0014649656
97	0x3b7bce7b	0.0038422632
98	0x3c0d7a34	0.0086350925
99	0xbb312021	-0.0027027207
100	0x3c15cb93	0.009142774
101	0xbc799295	-0.015232702
102	0xbc048045	-0.008087222
103	0xbc7e60b5	-0.015525986
104	0xbb6fa23d	-0.0036565207
105	0xba7e9492	-0.000971147
106	0x3ba9365f	0.0051639522
107	0x3c65dd07	0.014029748
108	0x3c6ec50f	0.01457335
109	0x3bd0465a	0.006356043
110	0x3b85e964	0.00408666
111	0x3c2041fb	0.009781356
112	0x3b14f083	0.0022726364
113	0x3a177acb	0.00057784904
114	0x3c31f653	0.010861951
115	0xbbb1d62f	-0.005427144
116	0xbb89a7f0	-0.004200928
117	0xbb4f3963	-0.0031619899
118	0xbab92842	-0.0014126378
119	0xbc31d6fc	-0.010854479
120	0xba9cd213	-0.0011964462
121	0x3bf86907	0.0075808796
122	0xba9e5ec9	-0.0012082692
123	0xbc3d8cc6	-0.0115692075
124	0x3ba8f802	0.005156518
125	0x3c63a288	0.013893731
126	0x3b796a20	0.003805764
127	0xbbe77862	-0.0070639113
128	0x3bfe8358	0.0077671222
129	0x3c71b8db	0.014753546
130	0xbc7a548f	-0.015278949
131	0xbbf498f3	-0.007464522
132	0xbc1c6911	-0.009546534
133	0xbc5202b7	-0.01281803
134	0xbc603cb8	-0.0136863515
135	0x3c0749e6	0.008257365
136	0x3beadc62	0.007167385
137	0x3c1044bf	0.008805453
138	0xbab05432	-0.0013452827
139	0x3b4f1345	0.003159718
140	0xbc048c97	-0.00809016
141	0xbc04e7ca	-0.008111903
142	0xbbd06b1f	-0.006360426
143	0x3c48cb63	0.012255522
144	0xba366dbf	-0.00069591025
145	0x3af778d0	0.001888061
146	0xbc9c53f0	-0.019082993
147	0x3bf88a4a	0.0075848447
148	0x3c02f04d	0.0079918625
149	0x3b067a88	0.0020519812
150	0xb91da5cf	-0.00015034455
151	0xbc8f8bac	-0.017522655
152	0x3b71edc2	0.0036915396
153	0x3b4a621c	0.0030881232
154	0xbc11f9d7	-0.008909664
155	0xbbb4db6a	-0.0055193203
156	0x3c64a1fd	0.013954637
157	0x3b6b531a	0.0035907687
158	0x3bbb98af	0.0057249884
159	0x3c9f8eae	0.019477215
160	0x3a88a569	0.0010425273
161	0x3c3d2b82	0.011546018
162	0x3bc05cad	0.005870423
163	0x3b70c857	0.0036740506
164	0xbb92a321	-0.004475013
165	0x3b0f7911	0.002189223
166	0x3c95c944	0.018284447
167	0x3a99a5bc	0.0011722366
168	0xbb3f66d6	-0.0029205582
169	0xbbcb0450	-0.0061955824
170	0xbb911761	-0.004427836
171	0xba31555c	-0.00067647337
172	0x3c0696cc	0.008214664
173	0x3a98e2a9	0.001166423
174	0x3c0c2e8b	0.008556019
175	0x3c04c5c7	0.008103794
176	0x3c2fb24c	0.010723662
177	0xbc56e4cb	-0.013116072
178	0xbb852467	-0.0040631774
179	0xbbead142	-0.0071660588
180	0x3bf8085f	0.0075693573
181	0xbb8ae2ef	-0.0042384784
182	0x3c59ba5b	0.0132890595
183	0x3c38a127	0.01126889
184	0x3b7ce840	0.003859058
185	0xbb4dd600	-0.0031408072
186	0xbc56ddd3	-0.01311441
187	0xbbec2378	-0.0072063766
188	0x3b8260fc	0.0039788466
189	0xbbbafbe8	-0.005706299
190	0x3c046db3	0.008082795
191	0x3c2ebe9a	0.01066556
192	0x3bdb5dea	0.006694545
193	0x3b62fa7d	0.0034634166
194	0xbc8a12a3	-0.01685459
195	0xbc55b550	-0.013043717
196	0x3b9b0a6d	0.0047314675
197	0x3bb2aa35	0.005452419
198	0x3b26520b	0.0025378491
199	0x3c0dbc9f	0.008650928
200	0x3bcf8bcd	0.006333804
201	0xba719223	-0.00092151965
202	0x3b3173ef	0.0027077158
203	0x3bbab345	0.00569764
204	0x3b84c33c	0.004051594
205	0x3c2a7bf5	0.01040553
206	0x3b022575	0.0019858752
207	0xbc736183	-0.014854792
208	0x3c23de0f	0.010001673
209	0x3a7633f0	0.00093918946
210	0x3c0418ee	0.008062584
211	0xbc13f89e	-0.009031443
212	0x3b52cea7	0.0032166631
213	0x3b78492b	0.0037885408
214	0x3ad8f563	0.0016552623
215	0x3ca5d76d	0.020244325
216	0x3b8a7e94	0.004226515
217	0x3cb56688	0.022143617
218	0xbc8604cf	-0.016359715
219	0xbb99c0b7	-0.004692163
220	0x3c138940	0.009004891
221	0xbb0f9ec7	-0.0021914707
222	0x3c08e53e	0.008355437
223	0xbc3c567b	-0.011495228
224	0xbb93bb09	-0.0045083803
225	0xbafbc1db	-0.0019207554
226	0x3c3d4531	0.011552141
227	0xbb847e68	-0.004043389
228	0xbbe73b55	-0.0070566335
229	0xbbaf8168	-0.0053560026
230	0xbbdf1433	-0.006807828
231	0x3c30b386	0.010784989
232	0xbbcf4725	-0.0063256198
233	0xbba943dc	-0.00516556
234	0xbc59b5f5	-0.013288011
235	0xbc26edaa	-0.010188499
236	0xba9668bf	-0.0011475309
237	0x3c898094	0.016784944
238	0xbc2e75e2	-0.010648223
239	0x3bee177f	0.0072659845
240	0xbb67b495	-0.0035355438
241	0xbc077d7a	-0.008269662
242	0x3be26a3f	0.006909638
243	0xbbfb0edd	-0.007661684
244	0x3b05a7d3	0.002039422
245	0x3be923e3	0.0071148737
246	0xbc21ca7b	-0.009874935
247	0xbb780e07	-0.0037850158
248	0xbc33d8eb	-0.01097701
249	0xbc50c1da	-0.01274153
250	0xbbb439be	-0.0055000475
251	0xba0c0329	-0.0005341047
252	0x3a0fe709	0.0005489444
253	0x3bec4acf	0.0072110663
254	0x3ba5a79f	0.0050553824
255	0x3ad1ee6b	0.0016016489

action_model._discrete_distribution.branches.0.bias f4 [4]
0	0x00000000	0.0
1	0x00000000	0.0
2	0x00000000	0.0
3	0x00000000	0.0

network_body._body_endoder.seq_layers.0.weight f4 [128, 57]
0	0x3d3e1630	0.04640788
1	0x3c8f1a48	0.017468587
2	0x3e48bcc4	0.19603258
3	0xbbfe66f0	-0.007763736
4	0x3e1b13b7	0.1514424
5	0x3ce2ee35	0.027701477
6	0x3e6f0f6f	0.23345731
7	0xbe100247	-0.14063369
8	0x3ce38c74	0.027776934
9	0x3c01917e	0.007908223
10	0x3d8722a3	0.06598403
11	0xbb9c087b	-0.004761753
12	0xbd9093ff	-0.07059478
13	0xbe3c1784	-0.18368345
14	0x3d59b606	0.053152107
15	0xbe7cf1f4	-0.24701673
16	0xbdd3b891	-0.103379376
17	0xbe25bff6	-0.16186509
18	0xbe11d2f9	-0.14240636
19	0xbd203096	-0.039108835
20	0xbd919651	-0.07108749
21	0xbd420557	-0.047368374
22	0xbe4d41df	-0.20044659
23	0xbda9414e	-0.08264409
24	0xbdbfd3ed	-0.093665935
25	0x3def8281	0.116948135
26	0x3df6b196	0.120455906
27	0x3d86cf66	0.06582527
28	0x3cb0028f	0.021485595
29	0xbecb5727	-0.3971493
30	0x3e342cd8	0.17595232
31	0x3e5b9a6c	0.21445626
32	0x3bd87eb5	0.0066069015
33	0xbd4fc941	-0.05072904
34	0x3ca1137b	0.01966261
35	0xbd4f9216	-0.050676428
36	0xbc9fabf0	-0.019491166
37	0x3e95a8fa	0.2923048
38	0xbd59f5e4	-0.053213015
39	0x3d64a2e4	0.055819407
40	0xbdeaadd5	-0.11458937
41	0x3da38d16	0.079858944
42	0xbdb0c211	-0.08630765
43	0x3e1d36a8	0.15352881
44	0x3dca6ebe	0.09884404
45	0x3e170351	0.14747359
46	0xbe6253a0	-0.22102213
47	0xbd699d39	-0.057034705
48	0xbd9a92ad	-0.075475074
49	0xbe6ca7a3	-0.23110823
50	0x3eab5ef4	0.3347088
51	0x3e0bf818	0.13668859
52	0x3d898dea	0.06716521
53	0x3d970ebb	0.073758565
54	0xbde38c38	-0.11110729
55	0xbdb0a81e	-0.08625816
56	0x3e2c8c7c	0.16850466
57	0xbea5a8f9	-0.32355478
58	0x3da45e1b	0.08025762
59	0x3d1ad033	0.03779621
60	0x3d26dac3	0.04073597
61	0xbe58eae3	-0.21183352
62	0xbd5a718a	-0.053330936
63	0x3d8e8daf	0.06960618
64	0x3d59c5c6	0.053167127
65	0x3d4a66f0	0.049414575
66	0x3c944318	0.018098399
67	0x3de94b9f	0.11391377
68	0x3e1d480a	0.15359512
69	0x3e69fdfb	0.22850792
70	0x3c5e6e0b	0.013576041
71	0x3e0fa71e	0.14028594
72	0xbe4d9193	-0.20075063
73	0x3d391a62	0.045191176
74	0x3e2d63a6	0.16932544
75	0x3d040296	0.03222903
76	0xbbd3e968	-0.006467033
77	0x3da68027	0.08129912
78	0xbe1d0145	-0.15332516
79	0x3e0c37b5	0.13693126
80	0x3e03cf69	0.1287209
81	0x3e40bd8c	0.18822306
82	0x3e018ac1	0.12650587
83	0xbc13d59a	-0.009023095
84	0x3d57882f	0.05262011
85	0x3e22c2c2	0.15894607
86	0x3e9508b1	0.29108194
87	0x3e15fe39	0.1464776
88	0xbd634182	-0.055482395
89	0x3b3d5115	0.002888744
90	0xbe1ba06a	-0.15197912
91	0xbe2b2952	-0.16714981
92	0x3d9550a5	0.07290772
93	0xbd387f1c	-0.045043096
94	0x3e3e2e5c	0.18572372
95	0xbd3ac3c8	-0.045596868
96	0xbe0de50f	-0.1385691
97	0x3e2c7e38	0.16845024
98	0x3c95a1dc	0.018265657
99	0x3d84d00f	0.064849965
100	0xbdb574d5	-0.088601746
101	0xbd42313d	-0.04741024
102	0x3adea2f4	0.001698582
103	0xbda6a168	-0.081362545
104	0xbdef7d27	-0.11693793
105	0x3e2adea5	0.16686495
106	0xbcab0a4f	-0.020878939
107	0x3df02ce0	0.11727309
108	0xbde0886c	-0.109635204
109	0xbe96fe19	-0.29490736
110	0xbe0b3d59	-0.13597621
111	0xbdd6dc6a	-0.104912594
112	0xbce9b23a	-0.028527368
113	0xbd08864b	-0.033331197
114	0xbedf977e	-0.43670267
115	0xbd660ae7	-0.05616274
116	0xbc0e75d4	-0.008695085
117	0xbcbc5ff1	-0.022994967
118	0x3d786b67	0.0606493
119	0xbd1bc173	-0.038026284
120	0x3e623985	0.22092254
121	0x3c516109	0.012779483
122	0xbe177f2b	-0.14794604
123	0xbca692b9	-0.020333635
124	0xbdfc9051	-0.12332214
125	0x3e757ec4	0.23974138
126	0x3daf8640	0.08570528
127	0x3c897763	0.01678056
128	0x3d53f3f5	0.051746327
129	0x3d76b6c0	0.060232878
130	0xbdc39fb0	-0.09551942
131	0x3d109e24	0.035307065
132	0xbd11a7ee	-0.03556054
133	0xbe0c1f60	-0.13683844
134	0x3d5400c9	0.05175856
135	0xbc4433a0	-0.011975199
136	0xbd20abff	-0.03922653
137	0xbd071363	-0.032977473
138	0xbce55f5b	-0.02799957
139	0x3dfbadf3	0.122890376
140	0xbe2939fd	-0.16526027
141	0x3e404bc5	0.18778904
142	0x3d834006	0.06408696
143	0x3da10f1a	0.078642085
144	0x3d69b524	0.057057515
145	0x3e45f01f	0.1932988
146	0xbde460af	-0.111512534
147	0xbcf8e30f	-0.030381707
148	0x3cd3ca03	0.025853163
149	0x3cc5b98b	0.024136325
150	0xbd6957f4	-0.056968644
151	0xbe36d8bf	-0.1785612
152	0xbdfb4f4d	-0.12270985
153	0xbd86ea27	-0.0658763
154	0x3c18f0a9	0.009334722
155	0xbe061840	-0.13095188
156	0xbc0a5ad1	-0.008444504
157	0xbdb2070a	-0.08692749
158	0x3e1d51c0	0.15363216
159	0xbe3a2432	-0.1817787
160	0xbd6905ca	-0.056890287
161	0xbc54f14a	-0.012996981
162	0x3d724ab5	0.059153277
163	0x3ce5ca17	0.028050466
164	0xbd0d4053	-0.034485172
165	0xbdcede82	-0.10101034
166	0xbcc92ec0	-0.024558425
167	0xbc9f6e57	-0.019461794
168	0xbe4a343e	-0.19746491
169	0xbdb62814	-0.08894363
170	0x3e3d1f71	0.18469025
171	0xbadfdc97	-0.0017079291
172	0x3bd06148	0.006359253
173	0x3da53ce9	0.08068258
174	0xbd8fa6fc	-0.070142716
175	0x3e63f664	0.2226196
176	0xbcbd3d31	-0.023100467
177	0x3da036e1	0.07822967
178	0x3dc2e383	0.09516051
179	0x3e06fc4c	0.13182181
180	0x3c7ca740	0.015420735
181	0xbc522b71	-0.01282774
182	0xba8b24d6	-0.0010615836
183	0x3da293f6	0.079383776
184	0x3e37475e	0.17898318
185	0xbcb23125	-0.02175195
186	0xbdf33c43	-0.118767284
187	0xbe01ef81	-0.1268902
188	0x3de52da4	0.11190346
189	0x3cd916d4	0.026500143
190	0xbdd4dd5f	-0.10393786
191	0x3eb2fc80	0.34958267
192	0x3d681827	0.05666366
193	0xbe6dd4fe	-0.23225781
194	0x3e18c83f	0.14920138
195	0x3e9d4a98	0.30720973
196	0x3e122b5a	0.1427435
197	0xbe507b8e	-0.20359632
198	0xbe3c3428	-0.18379271
199	0xbc6c56a5	-0.014424955
200	0x3d62a9db	0.055337768
201	0xbd4a46ec	-0.049384043
202	0x3df4a995	0.11946408
203	0x3da9b5c8	0.08286625
204	0xbd1494dd	-0.03627478
205	0xbe147e2f	-0.1450126
206	0xbc79bdfa	-0.015243048
207	0x3dfe9a10	0.12431729
208	0x3e5f2ea5	0.21795137
209	0x3d9c3d62	0.07628895
210	0xbdcacb43	-0.0990205
211	0x3d90cd5e	0.07070421
212	0xbd6642d1	-0.056216065
213	0x3da4201d	0.080139376
214	0xbbd5b215	-0.006521473
215	0xbe60aa90	-0.21940064
216	0xbdfa1d5e	-0.122126326
217	0x3e247f2e	0.1606414
218	0x3d7ea117	0.062165346
219	0x3dfe7d31	0.12426222
220	0xbdcb9454	-0.09940401
221	0x3e444f91	0.19170977
222	0x3c829e17	0.015944524
223	0x3ce0d595	0.027445594
224	0x3cb27303	0.021783357
225	0x3e8d0592	0.27543312
226	0x3e8c75e4	0.27433693
227	0xbe9aba79	-0.30220392
228	0x3d381bd2	0.044948407
229	0xbbf20dbe	-0.007386892
230	0xbd2839b3	-0.04107065
231	0xbd3ce2aa	-0.0461146
232	0xbd29c495	-0.04144724
233	0xbd9b1dd7	-0.07574051
234	0xbea0cd70	-0.31406736
235	0xbd3c9093	-0.046036314
236	0x3d031b0b	0.032008212
237	0xbe5cbffa	-0.21557608
238	0x3ccec7af	0.025241701
239	0xbe31e495	-0.17372353
240	0xbe14b621	-0.14522602
241	0x3dfe6c73	0.12423029
242	0xbe42793b	-0.18991558
243	0x3d187e0b	0.03722958
244	0xbe1fb22e	-0.15595314
245	0x3d3ebc94	0.04656656
246	0x3e3bd9e3	0.18344836
247	0x3da49ef5	0.08038131
248	0xbe14daf7	-0.14536653
249	0x3e46eef9	0.19427098
250	0xbe56105c	-0.20904678
251	0x3d90969a	0.07059975
252	0xbe4ce443	-0.2000895
253	0xbd91c3ae	-0.07117401
254	0x3d78e84c	0.06076841
255	0x3dd998a5	0.10624818

network_body._body_endoder.seq_layers.0.bias f4 [128]
0	0x00000000	0.0
1	0x00000000	0.0
2	0x00000000	0.0
3	0x00000000	0.0
4	0x00000000	0.0
5	0x00000000	0.0
6	0x00000000	0.0
7	0x00000000	0.0
8	0x00000000	0.0
9	0x00000000	0.0
10	0x00000000	0.0
11	0x00000000	0.0
12	0x00000000	0.0
13	0x00000000	0.0
14	0x00000000	0.0
15	0x00000000	0.0
16	0x00000000	0.0
17	0x00000000	0.0
18	0x00000000	0.0
19	0x00000000	0.0
20	0x00000000	0.0
21	0x00000000	0.0
22	0x00000000	0.0
23	0x00000000	0.0
24	0x00000000	0.0
25	0x00000000	0.0
26	0x00000000	0.0
27	0x00000000	0.0
28	0x00000000	0.0
29	0x00000000	0.0
30	0x00000000	0.0
31	0x00000000	0.0
32	0x00000000	0.0
33	0x00000000	0.0
34	0x00000000	0.0
35	0x00000000	0.0
36	0x00000000	0.0
37	0x00000000	0.0
38	0x00000000	0.0
39	0x00000000	0.0
40	0x00000000	0.0
41	0x00000000	0.0
42	0x00000000	0.0
43	0x00000000	0.0
44	0x00000000	0.0
45	0x00000000	0.0
46	0x00000000	0.0
47	0x00000000	0.0
48	0x00000000	0.0
49	0x00000000	0.0
50	0x00000000	0.0
51	0x00000000	0.0
52	0x00000000	0.0
53	0x00000000	0.0
54	0x00000000	0.0
55	0x00000000	0.0
56	0x00000000	0.0
57	0x00000000	0.0
58	0x00000000	0.0
59	0x00000000	0.0
60	0x00000000	0.0
61	0x00000000	0.0
62	0x00000000	0.0
63	0x00000000	0.0
64	0x00000000	0.0
65	0x00000000	0.0
66	0x00000000	0.0
67	0x00000000	0.0
68	0x00000000	0.0
69	0x00000000	0.0
70	0x00000000	0.0
71	0x00000000	0.0
72	0x00000000	0.0
73	0x00000000	0.0
74	0x00000000	0.0
75	0x00000000	0.0
76	0x00000000	0.0
77	0x00000000	0.0
78	0x00000000	0.0
79	0x00000000	0.0
80	0x00000000	0.0
81	0x00000000	0.0
82	0x00000000	0.0
83	0x00000000	0.0
84	0x00000000	0.0
85	0x00000000	0.0
86	0x00000000	0.0
87	0x00000000	0.0
88	0x00000000	0.0
89	0x00000000	0.0
90	0x00000000	0.0
91	0x00000000	0.0
92	0x00000000	0.0
93	0x00000000	0.0
94	0x00000000	0.0
95	0x00000000	0.0
96	0x00000000	0.0
97	0x00000000	0.0
98	0x00000000	0.0
99	0x00000000	0.0
100	0x00000000	0.0
101	0x00000000	0.0
102	0x00000000	0.0
103	0x00000000	0.0
104	0x00000000	0.0
105	0x00000000	0.0
106	0x00000000	0.0
107	0x00000000	0.0
108	0x00000000	0.0
109	0x00000000	0.0
110	0x00000000	0.0
111	0x00000000	0.0
112	0x00000000	0.0
113	0x00000000	0.0
114	0x00000000	0.0
115	0x00000000	0.0
116	0x00000000	0.0
117	0x00000000	0.0
118	0x00000000	0.0
119	0x00000000	0.0
120	0x00000000	0.0
121	0x00000000	0.0
122	0x00000000	0.0
123	0x00000000	0.0
124	0x00000000	0.0
125	0x00000000	0.0
126	0x00000000	0.0
127	0x00000000	0.0

network_body._body_endoder.seq_layers.2.weight f4 [128, 128]
0	0x3be97dee	0.0071256077
1	0x3d845584	0.06461623
2	0x3da72f76	0.08163349
3	0xbd9ee8d0	-0.07759249
4	0x3d42f055	0.04759248
5	0x3d3f9123	0.046769273
6	0x3cfa924c	0.030587338
7	0x3d0cd496	0.034382425
8	0xbd19e024	-0.037567273
9	0xbc46844a	-0.012116501
10	0xbd330669	-0.043707285
11	0xbde5d263	-0.11221769
12	0x3c776e52	0.015101986
13	0x3dd1768c	0.10227689
14	0xbc934ce8	-0.017981008
15	0x3d46ab21	0.048503045
16	0xbe541fdc	-0.20715278
17	0xbcb2a27d	-0.021805996
18	0xbd8e9556	-0.06962077
19	0x3c537dac	0.0129083805
20	0x3e20d4ac	0.15706128
21	0xbe067d1b	-0.13133661
22	0x3d7a0abe	0.0610454
23	0x3deeed7d	0.11666391
24	0xbdc8b55f	-0.09800219
25	0x3d511ba1	0.05105174
26	0x3e0fe586	0.140524
27	0x3dbdea23	0.09273174
28	0x3e1ec415	0.15504487
29	0x3e2faef7	0.17156588
30	0xbe097b7f	-0.13426016
31	0xbda3a7d9	-0.07990999
32	0x3d380e79	0.044935677
33	0xbca5327d	-0.020165676
34	0xbcbb8cca	-0.022894282
35	0x3d1580af	0.036499675
36	0xbd45c5e8	-0.04828444
37	0xbe2b67f0	-0.16738868
38	0x3d9bd8c9	0.07609708
39	0xbd6e8396	-0.05823096
40	0x3d0f01d7	0.034913864
41	0x3d67f2ac	0.056627914
42	0xbc7b5072	-0.015339004
43	0xbcca81f5	-0.024720171
44	0xbdbfced9	-0.09365625
45	0x3e3f78b5	0.1869839
46	0x3d292e14	0.04130371
47	0x3e2e67fd	0.17031856
48	0x3cfd3120	0.030907214
49	0xbd42af29	-0.047530327
50	0x3d11689b	0.03550015
51	0xbd650ceb	-0.055920523
52	0xbce90a7e	-0.028447386
53	0xbc15aae5	-0.009134983
54	0x398fb741	0.0002741162
55	0xbc915551	-0.017740877
56	0xbd169e85	-0.03677227
57	0xbdb62498	-0.088936985
58	0x3df27604	0.11838916
59	0x3cabcf5f	0.020972906
60	0xbe5d935f	-0.21638249
61	0xbe2ec096	-0.17065653
62	0xbd329769	-0.043601427
63	0xbda74fb5	-0.081695
64	0x3c8a8945	0.016911158
65	0x3d1bd615	0.03804596
66	0xbd040e37	-0.03224012
67	0x3e499e48	0.19689286
68	0x3c88fb12	0.016721282
69	0x3c8ce69b	0.017199805
70	0xbe1c1661	-0.15242912
71	0xbc0e8e3a	-0.008700902
72	0x3c759a62	0.014990421
73	0xbb6cfa4b	-0.0036159928
74	0xbd9dce85	-0.07705406
75	0x3d489370	0.048968732
76	0xbdd2f08e	-0.102997884
77	0x3ae2be2a	0.0017299105
78	0x3d5bd44c	0.05366926
79	0x3cf3e6ca	0.029773135
80	0xbe095f9b	-0.13415377
81	0x3dcfd877	0.10148709
82	0x3df4c9fd	0.11952589
83	0x3ddadfd5	0.10687224
84	0xbe291e05	-0.16515358
85	0x3e025087	0.12726031
86	0xbc0080c6	-0.007843202
87	0x3d896a66	0.06709747
88	0xbd82d5d0	-0.06388438
89	0xbd245282	-0.040117748
90	0xbda1569f	-0.0787785
91	0x3d15151e	0.036397092
92	0x3d5b84c9	0.05359343
93	0x3d069f65	0.032866854
94	0xbdd0bcb2	-0.10192241
95	0x3e046529	0.12929215
96	0xbc6e281e	-0.014535932
97	0xbd6882a1	-0.056765202
98	0xbd884c05	-0.066551246
99	0x3d993626	0.07481031
100	0x3da6d1b2	0.08145465
101	0x3da108bc	0.07862994
102	0xbb9b9f8e	-0.004749245
103	0x3e396a1b	0.18106882
104	0x3c85c872	0.016330931
105	0x3cd8d7ee	0.02647015
106	0xbe1fd50b	-0.15608613
107	0xbac4e106	-0.0015020675
108	0xbd811215	-0.06302277
109	0x3dc9cf3a	0.098539785
110	0x3d03148c	0.032002017
111	0x3e567bff	0.20945738
112	0xbdbf9acf	-0.09355699
113	0x385b7b43	5.2328465e-05
114	0x3be80df6	0.0070817424
115	0x3cf34726	0.029697012
116	0x3cae1f4f	0.021255163
117	0xbd919fee	-0.07110582
118	0x3c9e67af	0.01933655
119	0x3d624115	0.05523785
120	0xbe117797	-0.14205776
121	0xbe359bdb	-0.17735235
122	0xbdd5f923	-0.1044791
123	0x3d6c36e2	0.057669528
124	0xbd2f3e69	-0.04278413
125	0x3d5f5251	0.054521862
126	0x3bbf7658	0.005842965
127	0xbe60615c	-0.2191214
128	0x3d95b351	0.073095925
129	0xbd0dc256	-0.03460916
130	0x3d691562	0.056905158
131	0xbd689419	-0.056781862
132	0xbd2e2f73	-0.04252572
133	0x3b0ff5b7	0.0021966526
134	0xbbde6b05	-0.00678766
135	0x3c718a5c	0.01474246
136	0x3b2d80dd	0.0026474514
137	0x3e804298	0.25050807
138	0xbd6055ae	-0.05476921
139	0xbd3899ad	-0.04506843
140	0xbdbbb163	-0.09164693
141	0x3d031213	0.03199966
142	0x3db7b88b	0.08970746
143	0x3d767430	0.0601694
144	0x3e06609d	0.13122793
145	0x3e2af8d1	0.16696478
146	0x3daa6ed3	0.08321919
147	0x3d7bbdd2	0.061460324
148	0x3d2256f1	0.039633695
149	0xbccef8eb	-0.025265178
150	0x3d5fb910	0.05461985
151	0xbe544e44	-0.20732981
152	0xbdd6159f	-0.10453343
153	0xbdbc11e6	-0.09183101
154	0x3c1fddc6	0.009757465
155	0xbd5ede89	-0.054411445
156	0x3dc5fe90	0.096676946
157	0x3de74eca	0.11294325
158	0xbd628362	-0.055301078
159	0x3da02224	0.07819012
160	0x3d957df9	0.07299418
161	0x3d082657	0.03323969
162	0x386bbfaa	5.6206867e-05
163	0x3db14b5b	0.08656951
164	0x3d852319	0.06500835
165	0xbdaf639f	-0.08563923
166	0xbd28c1ca	-0.041200437
167	0xbe00a8d6	-0.12564406
168	0x3de59031	0.11209143
169	0xbda78628	-0.08179885
170	0x3c033b60	0.008009762
171	0xbe08daa5	-0.13364656
172	0x3de8ea97	0.113728695
173	0x3d6657bd	0.056236017
174	0x3d1b7486	0.037952922
175	0xbe1d9c7a	-0.15391722
176	0x3d8fca8e	0.07021056
177	0xbe0f692d	-0.14004965
178	0xbc6058b0	-0.01369302
179	0xbdc309c4	-0.09523347
180	0xbc982174	-0.01857064
181	0x3bdd6f22	0.006757633
182	0xbdf95f08	-0.12176329
183	0xbe160eb2	-0.14654043
184	0x3d531c1c	0.05154048
185	0x3bbf49c7	0.0058376524
186	0xbdd36ca0	-0.10323453
187	0xbca27255	-0.019829908
188	0x3e14fb0b	0.1454889
189	0xbde918e4	-0.11381701
190	0x3d4ac633	0.049505424
191	0x3d075297	0.03303775
192	0x3d842899	0.06453056
193	0xbdff30ea	-0.124605015
194	0xbddc1020	-0.10745263
195	0x3c8bf14f	0.017082838
196	0xbd835fc8	-0.06414753
197	0xbd7d2b60	-0.061808944
198	0x3e0204b2	0.12697104
199	0x3ccb7fb4	0.024841167
200	0x3c3f20d9	0.011665546
201	0xbdf13659	-0.11777944
202	0xbd9e4a43	-0.07729008
203	0xbceadddc	-0.028670244
204	0xbe3fea7f	-0.18741797
205	0x3d812ca3	0.06307342
206	0xbde3ce9a	-0.111233905
207	0xbd4f8082	-0.050659664
208	0xbccc0cbd	-0.024908418
209	0x3e34c86c	0.1765458
210	0x3ddcc7c3	0.10780289
211	0xbb83fd68	-0.004028011
212	0x3e065d40	0.1312151
213	0xbdd6d8f5	-0.104906
214	0x3bfca2aa	0.0077098208
215	0x3d04f2f5	0.032458264
216	0xbba40c2d	-0.0050063343
217	0xba154cc2	-0.0005695337
218	0xbd195033	-0.03743
219	0x3d3c3f4e	0.04595881
220	0xbd6aa83d	-0.05728935
221	0xbba2cddf	-0.0049683894
222	0x3dfa87cd	0.12232933
223	0x3c4b8e1e	0.01242402
224	0x3d57cdf7	0.052686658
225	0x3df4b31c	0.11948225
226	0xbc6ccbf1	-0.01445292
227	0x3ca983e6	0.020692777
228	0x3d41e002	0.04733277
229	0x3da47dca	0.08031805
230	0xbcda841a	-0.026674319
231	0xbd6732f7	-0.05644509
232	0xbdc165dd	-0.09443257
233	0x3e0a1ae7	0.13486825
234	0x3d6876f3	0.056754064
235	0x3d16f9aa	0.036859192
236	0x3b805ee6	0.003917563
237	0xbce1f89c	-0.027584367
238	0xbdc2cf2b	-0.095121704
239	0xbdd93e8e	-0.106076345
240	0x3c8ec451	0.017427595
241	0x3bcf6682	0.0063293586
242	0x3e010617	0.1259998
243	0xbc9bccc1	-0.019018533
244	0xbca8a756	-0.020587604
245	0x3dd766b6	0.105176374
246	0x3de8592b	0.113451324
247	0x3abe755c	0.0014530825
248	0xbd474c11	-0.048656527
249	0x3dde684e	0.10859738
250	0xbdb2da34	-0.08733025
251	0x3d4fc403	0.05072404
252	0xbe0446b6	-0.12917599
253	0xbcf562b2	-0.029954288
254	0xbd03d0ce	-0.032181554
255	0x3d2ee630	0.042699993

network_body._body_endoder.seq_layers.2.bias f4 [128]
0	0x00000000	0.0
1	0x00000000	0.0
2	0x00000000	0.0
3	0x00000000	0.0
4	0x00000000	0.0
5	0x00000000	0.0
6	0x00000000	0.0
7	0x00000000	0.0
8	0x00000000	0.0
9	0x00000000	0.0
10	0x00000000	0.0
11	0x00000000	0.0
12	0x00000000	0.0
13	0x00000000	0.0
14	0x00000000	0.0
15	0x00000000	0.0
16	0x00000000	0.0
17	0x00000000	0.0
18	0x00000000	0.0
19	0x00000000	0.0
20	0x00000000	0.0
21	0x00000000	0.0
22	0x00000000	0.0
23	0x00000000	0.0
24	0x00000000	0.0
25	0x00000000	0.0
26	0x00000000	0.0
27	0x00000000	0.0
28	0x00000000	0.0
29	0x00000000	0.0
30	0x00000000	0.0
31	0x00000000	0.0
32	0x00000000	0.0
33	0x00000000	0.0
34	0x00000000	0.0
35	0x00000000	0.0
36	0x00000000	0.0
37	0x00000000	0.0
38	0x00000000	0.0
39	0x00000000	0.0
40	0x00000000	0.0
41	0x00000000	0.0
42	0x00000000	0.0
43	0x00000000	0.0
44	0x00000000	0.0
45	0x00000000	0.0
46	0x00000000	0.0
47	0x00000000	0.0
48	0x00000000	0.0
49	0x00000000	0.0
50	0x00000000	0.0
51	0x00000000	0.0
52	0x00000000	0.0
53	0x00000000	0.0
54	0x00000000	0.0
55	0x00000000	0.0
56	0x00000000	0.0
57	0x00000000	0.0
58	0x00000000	0.0
59	0x00000000	0.0
60	0x00000000	0.0
61	0x00000000	0.0
62	0x00000000	0.0
63	0x00000000	0.0
64	0x00000000	0.0
65	0x00000000	0.0
66	0x00000000	0.0
67	0x00000000	0.0
68	0x00000000	0.0
69	0x00000000	0.0
70	0x00000000	0.0
71	0x00000000	0.0
72	0x00000000	0.0
73	0x00000000	0.0
74	0x00000000	0.0
75	0x00000000	0.0
76	0x00000000	0.0
77	0x00000000	0.0
78	0x00000000	0.0
79	0x00000000	0.0
80	0x00000000	0.0
81	0x00000000	0.0
82	0x00000000	0.0
83	0x00000000	0.0
84	0x00000000	0.0
85	0x00000000	0.0
86	0x00000000	0.0
87	0x00000000	0.0
88	0x00000000	0.0
89	0x00000000	0.0
90	0x00000000	0.0
91	0x00000000	0.0
92	0x00000000	0.0
93	0x00000000	0.0
94	0x00000000	0.0
95	0x00000000	0.0
96	0x00000000	0.0
97	0x00000000	0.0
98	0x00000000	0.0
99	0x00000000	0.0
100	0x00000000	0.0
101	0x00000000	0.0
102	0x00000000	0.0
103	0x00000000	0.0
104	0x00000000	0.0
105	0x00000000	0.0
106	0x00000000	0.0
107	0x00000000	0.0
108	0x00000000	0.0
109	0x00000000	0.0
110	0x00000000	0.0
111	0x00000000	0.0
112	0x00000000	0.0
113	0x00000000	0.0
114	0x00000000	0.0
115	0x00000000	0.0
116	0x00000000	0.0
117	0x00000000	0.0
118	0x00000000	0.0
119	0x00000000	0.0
120	0x00000000	0.0
121	0x00000000	0.0
122	0x00000000	0.0
123	0x00000000	0.0
124	0x00000000	0.0
125	0x00000000	0.0
126	0x00000000	0.0
127	0x00000000	0.0

value_heads.value_heads.extrinsic.weight f4 [1, 128]
0	0x3e3b542b	0.18293826
1	0x3e4ee82c	0.20205754
2	0x3e1b9769	0.15194477
3	0x3da2ec58	0.07955235
4	0x3e0339e1	0.12815048
5	0x3df63827	0.12022429
6	0x3e2826dd	0.16421075
7	0xbe416695	-0.18886788
8	0xbe0416c3	-0.12899308
9	0x3d3ca198	0.046052545
10	0x3df0f9e4	0.11766413
11	0xbd1cae8f	-0.03825241
12	0xbda8c8fa	-0.08241458
13	0xbe55f433	-0.20893936
14	0xbcbe55e2	-0.023234311
15	0x3e293329	0.16523422
16	0xbe46cd62	-0.19414285
17	0x3e34f58e	0.17671797
18	0x3e378cc7	0.17924796
19	0xbe21e120	-0.15808535
20	0xbe1762fa	-0.1478385
21	0x3e4df631	0.20113446
22	0x3e5b4325	0.21412332
23	0xbd96e729	-0.07368309
24	0x3d9bc55b	0.07606002
25	0x3e35636c	0.17713708
26	0x3e4d0621	0.20021869
27	0xbd29dfa7	-0.041473057
28	0x3e13941f	0.14411972
29	0x3d9f42a1	0.0777638
30	0xbdb81571	-0.089884646
31	0xbdf40b5c	-0.11916229
32	0xbd377bd9	-0.044795845
33	0x3e150ba6	0.14555225
34	0xbe2a2f38	-0.16619575
35	0x3d83ebd6	0.064414665
36	0xbd9894bf	-0.07450246
37	0x3c5c634b	0.013451408
38	0xbdc919ff	-0.098194115
39	0xbe2e525a	-0.17023602
40	0x3df7533a	0.12076421
41	0x3de11fce	0.109923944
42	0x3e45b615	0.1930774
43	0x3dbab6e6	0.09116916
44	0xbdd285da	-0.102794364
45	0x3d990e8c	0.07473478
46	0xbddf3611	-0.10898984
47	0xbe36d8ba	-0.17856112
48	0x3dabc8e7	0.083879285
49	0xbe33bb04	-0.1755181
50	0xbdee6479	-0.116402574
51	0xbe29dd5e	-0.16588351
52	0xbdd9b168	-0.10629541
53	0x3e11e31f	0.14246796
54	0x3bb3e425	0.0054898434
55	0xbe1eede1	-0.15520431
56	0xbd5a601c	-0.053314313
57	0xbe32e211	-0.1746905
58	0xbd976479	-0.073922105
59	0xbe11b682	-0.14229777
60	0x3e163663	0.14669184
61	0x3dc5214b	0.09625491
62	0x3de803d8	0.11328858
63	0xbd9a7831	-0.07542456
64	0x3d95f22d	0.07321582
65	0xbe295224	-0.1653524
66	0xbe3db291	-0.18525149
67	0xbd1ca327	-0.03824153
68	0xbe5ac8a3	-0.213656
69	0xbe171800	-0.14755249
70	0xbdc1ac28	-0.09456664
71	0x3e257c6e	0.16160747
72	0x3e10d9c7	0.14145575
73	0xbae48cc5	-0.0017436972
74	0x3dd6a3b0	0.1048044
75	0x3e224318	0.15845907
76	0x3d11dee5	0.03561296
77	0x3d4e0f41	0.050307516
78	0x3e1f4085	0.15551956
79	0x3cb4c0e0	0.022064626
80	0xbc9114fa	-0.017710198
81	0x3d78ac13	0.060710978
82	0xbdfe1460	-0.1240623
83	0x3d63a349	0.055575643
84	0x3c4d072c	0.012513917
85	0xbe341123	-0.17584662
86	0xbe1c814c	-0.15283698
87	0x3d4c7ef4	0.04992576
88	0x3d272aa6	0.040812157
89	0xbd9fb298	-0.07797736
90	0xbd36ef16	-0.044661604
91	0x3e19f1de	0.15033671
92	0xbe056ca2	-0.13029721
93	0xbdb18b02	-0.08669092
94	0x3d26a3c0	0.040683508
95	0x3cef3ac3	0.029202824
96	0xbde194c4	-0.11014703
97	0xbe355f14	-0.1771205
98	0x3e208f79	0.1567973
99	0x3ddc78fb	0.10765263
100	0xbe335c36	-0.17515644
101	0xbe3c2355	-0.18372853
102	0x3dbaf1b2	0.09128131
103	0x3e0d8e7e	0.13823888
104	0x3e3e7bf8	0.18601978
105	0xbe4ef657	-0.20211159
106	0x3d9c315d	0.07626603
107	0x3e414294	0.18873054
108	0x3d71f99e	0.059075944
109	0x3cb04102	0.021515373
110	0xbe590c9b	-0.21196215
111	0xbd99a385	-0.07501892
112	0xbe181808	-0.14852917
113	0xbc703465	-0.014660929
114	0xbcc18dd5	-0.023627201
115	0x3e429908	0.1900369
116	0x3d54acd2	0.051922627
117	0xbbdf61c5	-0.006817075
118	0xbcfe8915	-0.031071225
119	0xbe1cd80a	-0.15316787
120	0xbe0f0223	-0.13965659
121	0xbe36b75b	-0.17843382
122	0x3d7ed146	0.062211297
123	0x3e210c45	0.15727337
124	0x3e393cd3	0.18089609
125	0xbd963064	-0.073334485
126	0x3e4cf7b6	0.20016369
127	0x3e4fab3e	0.20280167
