results/ppo/MlAgent/MlAgent-5664.onnx (onnx, 97809 bytes, 9 tensors)

action_model._discrete_distribution.branches.0.bias f4 [4]
0	0x00000000	0.0
1	0x00000000	0.0
2	0x00000000	0.0
3	0x00000000	0.0

action_model._discrete_distribution.branches.0.weight f4 [4, 128]
0	0x3c5a603a	0.013328606
1	0x3bd38afb	0.0064557767
2	0xbc504b02	-0.012713196
3	0x3b8085b3	0.003922188
4	0xbbf5deaf	-0.0075033526
5	0x3ac93e1f	0.0015353597
6	0xbb7152bf	-0.0036823002
7	0x3bd52dfa	0.006505725
8	0xbc7ccafd	-0.015429256
9	0x3ca31b0c	0.019910358
10	0xbb66cc9f	-0.0035217179
11	0xbbc00001	-0.0058593755
12	0xbc2acf8f	-0.010425462
13	0xba822e49	-0.0009932007
14	0xbc00a6ac	-0.007852238
15	0xbc80f209	-0.015740411
16	0xbc3a624d	-0.011375976
17	0x3bf1057b	0.0073553897
18	0xb9ad1de9	-0.00033019416
19	0xbb82a431	-0.0039868583
20	0x3b3d48e4	0.0028882558
21	0x3c0e4820	0.008684188
22	0xbc1e5023	-0.009662661
23	0x3bf28745	0.0074013793
24	0x3b3096f3	0.0026945441
25	0xbc72fe77	-0.014831177
26	0x3b3edc2f	0.002912294
27	0x3ad14f80	0.0015969127
28	0xbc5ac727	-0.013353146
29	0x3c1ff3ea	0.0097627435
30	0xbbc832d6	-0.0061095757
31	0x3a92ffa8	0.0011215108
32	0x3c6e2d90	0.01453723
33	0x3c4bee0f	0.012446894
34	0xbc74b47d	-0.01493561
35	0x3ae411a7	0.001740028
36	0xbbacf6a0	-0.0052784234
37	0x3c20cbdf	0.009814232
38	0xbc41906f	-0.011814221
39	0xbb8129f3	-0.0039417683
40	0xbc07dcaf	-0.008292361
41	0xbc0927a1	-0.008371265
42	0xbbba1983	-0.0056793108
43	0xb905b627	-0.00012751725
44	0x3bf97a83	0.0076134815
45	0xbb52934f	-0.003213126
46	0xba2fea3f	-0.00067106256
47	0xbb911883	-0.004427971
48	0xbb8ddb3f	-0.0043291147
49	0xbb074448	-0.0020640064
50	0x3c1d1b2f	0.009589001
51	0xbba0f007	-0.004911426
52	0x3bd3f550	0.0064684525
53	0x3ad4765f	0.0016209594
54	0x3c7fcd00	0.015612841
55	0xbb9c2613	-0.004765281
56	0xbbb82b7c	-0.005620418
57	0x3c5dcbaa	0.013537327
58	0x3ca75933	0.020428276
59	0x3c35e3bd	0.01110166
60	0x397fe0ea	0.00024402482
61	0x3bd447eb	0.0064783
62	0x3bc95147	0.006143722
63	0xbadebffd	-0.0016994473
64	0xbc0774cf	-0.008267595
65	0x3bb967db	0.0056581325
66	0xbc91cbca	-0.01779737
67	0xbc6c697b	-0.014429445
68	0xbb76949f	-0.0037625206
69	0x3b9da372	0.004810744
70	0x3aec89f2	0.0018046482
71	0xbb856afd	-0.004071592
72	0xbbd0139b	-0.0063499934
73	0x3aca7eb7	0.0015449141
74	0xbb8f9f2f	-0.00438299
75	0xbc551ad3	-0.013006884
76	0x3bc0f591	0.005888649
77	0xbbdcc057	-0.006736796
78	0x3a880166	0.0010376393
79	0xbc64a4f2	-0.013955342
80	0xbb535d15	-0.0032251526
81	0xba15b926	-0.0005711488
82	0x3a8f550a	0.0010935378
83	0x3a097c62	0.000524467
84	0xba8540ca	-0.0010166403
85	0x3c60f978	0.013731353
86	0x3c14f0c7	0.009090609
87	0x3af34dc0	0.00185626
88	0xbb290a99	-0.002579367
89	0x3b6a5e45	0.0035761755
90	0xbc3d94c7	-0.011571116
91	0x3b97632b	0.004619976
92	0x3afe7e3d	0.0019416284
93	0xbb32c0a4	-0.0027275467
94	0x3bac381e	0.005255713
95	0x3b9b28d3	0.0047350912
96	0xbbc81a18	-0.0061066262
97	0x3b5f44c7	0.0034068094
98	0x3b26d5ae	0.0025456953
99	0x3a43d3fc	0.0007470248
100	0xbc152bcf	-0.009104683
101	0xbaa39d0b	-0.0012482716
102	0x3ca00200	0.019532204
103	0xbb123247	-0.00223078
104	0x3c4b949b	0.012425567
105	0x3ba55b9a	0.00504632
106	0x3afc0c75	0.0019229787
107	0xbc5c605b	-0.013450707
108	0xbb05eb4f	-0.0020434444
109	0xbbb5a6ab	-0.00554355
110	0x3b563f2f	0.003269147
111	0x3bbb37d9	0.0057134447
112	0xbc41b67a	-0.011823291
113	0xbbfe01e7	-0.0077516916
114	0xbc65fc80	-0.0140372515
115	0xbb8bc43a	-0.0042653354
116	0xbba6c04c	-0.0050888415
117	0x3b9e890d	0.004838115
118	0xbb1a256b	-0.0023520838
119	0x3bb92212	0.0056498135
120	0x3a8b7337	0.0010639195
121	0xbacd6622	-0.0015670697
122	0x3c55ab6f	0.013041361
123	0xba8b91f8	-0.001064836
124	0x3c67443b	0.0141153885
125	0x3bc4a19f	0.006000712
126	0x3b0f26fc	0.0021843305
127	0xbb59c58d	-0.0033229322
128	0xb9e8f610	-0.0004443382
129	0x3c6a3133	0.014293957
130	0x3b7164db	0.0036833796
131	0xbb84cac1	-0.0040524905
132	0x3c6b5cf3	0.014365423
133	0xbbe59a90	-0.0070069507
134	0x3c38e36e	0.011284692
135	0x3c98e1a8	0.018662289
136	0x3a8d654b	0.0010787634
137	0x3be4ebb0	0.006986104
138	0x3b09b7a6	0.0021014004
139	0xbc51f3a0	-0.012814432
140	0xbba0b2aa	-0.004904111
141	0xbbb6e3dd	-0.0055813626
142	0xbc024c0b	-0.0079527
143	0xbc524fcf	-0.012836411
144	0x3c484ec2	0.012225809
145	0x3c92b508	0.017908588
146	0xbba159e6	-0.004924047
147	0xbc2c8b9a	-0.0105313305
148	0xbc151f83	-0.009101751
149	0x3b04b69f	0.0020250452
150	0xbba81220	-0.005129114
151	0xbb8ac141	-0.0042344634
152	0x3aa47927	0.0012548313
153	0xb9a0f452	-0.0003069961
154	0x3aeabd83	0.0017909262
155	0xbc2cf0bb	-0.0105554415
156	0x3c05a36f	0.008156641
157	0x3c4e3918	0.012586854
158	0xbc0593e4	-0.008152936
159	0x3c502f12	0.012706535
160	0xbba29646	-0.0049617616
161	0x3b44bfea	0.0030021616
162	0x3c1079cd	0.008818102
163	0xbc17e816	-0.009271642
164	0xbac0aaea	-0.0014699374
165	0x3a348378	0.00068860454
166	0xbb8ea10b	-0.004352694
167	0x3b85fd13	0.0040890067
168	0xbaf0e5cf	-0.0018379035
169	0xbc276afd	-0.010218379
170	0x3bcda452	0.006275692
171	0x3b0d3bf7	0.0021550634
172	0x3b853a5f	0.0040657963
173	0xbba7f355	-0.005125443
174	0xbc1e204f	-0.009651258
175	0xbc9f0734	-0.019412614
176	0x3b36b334	0.002787781
177	0xbbfbaf9f	-0.007680848
178	0x3c22ca6b	0.0099359555
179	0xbc858acb	-0.016301533
180	0xbb000e47	-0.001953976
181	0x3bfe6f18	0.0077647083
182	0xbb685ecb	-0.0035456892
183	0x3c215734	0.009847451
184	0xbbcdf5eb	-0.006285419
185	0x3c05ceb0	0.008166954
186	0xbbd0ca02	-0.0063717375
187	0xbbd15b7d	-0.00638908
188	0x3887f24b	6.482432e-05
189	0x3c6e21c5	0.0145344185
190	0x3bb46d7b	0.005506215
191	0xba6bfda2	-0.0009002333
192	0x390fd8ad	0.00013718261
193	0xbc0e0f00	-0.0086705685
194	0xbb5e577f	-0.0033926663
195	0xbc078838	-0.008272223
196	0x3bf07888	0.007338587
197	0xbca23b97	-0.019803805
198	0xbbe3f132	-0.006956243
199	0xbbaf6658	-0.0053527765
200	0x395c3bd0	0.00021003117
201	0xbccdd572	-0.025126193
202	0xbc4463b5	-0.011986663
203	0x3bad0508	0.005280141
204	0x3c21994a	0.009863207
205	0xbb841195	-0.0040304163
206	0x3bd6f498	0.0065599196
207	0x3b7d4fff	0.0038652418
208	0x3c30f39e	0.01080027
209	0x3bd304c7	0.0064397785
210	0xbba8e9ad	-0.0051548094
211	0x3bc53930	0.00601878
212	0xbb3d7262	-0.0028907289
213	0xbbb4445f	-0.0055013145
214	0xbbef3900	-0.007300496
215	0xbc0a0e73	-0.0084262965
216	0xb984af71	-0.00025307716
217	0x3b994e63	0.004678534
218	0xbc30c406	-0.010788923
219	0xbc94ef2c	-0.018180452
220	0x3bf2596b	0.0073959134
221	0x3c2801fc	0.010254379
222	0xbbbf2c94	-0.0058341715
223	0x3c2615a5	0.010136996
224	0xba3f7b97	-0.0007304488
225	0x3c259c4f	0.010108068
226	0x3be0bfc5	0.006858798
227	0x3aff510d	0.0019479111
228	0xbbb92269	-0.005649854
229	0x3c558ff7	0.013034812
230	0x3bbfb260	0.0058501214
231	0x3bca6abb	0.006177274
232	0x3bd3b4ea	0.0064607756
233	0xbc8799e3	-0.016552871
234	0xbc898a25	-0.016789505
235	0x38c4a683	9.3770235e-05
236	0xbc8aead9	-0.016957687
237	0xbb694cb7	-0.0035598704
238	0x3bfee3da	0.007778627
239	0x3b93f97b	0.0045158244
240	0xbc2d94c8	-0.010594554
241	0x3ba17225	0.004926937
242	0xbaf9e1ef	-0.0019064526
243	0x3c2b2fb8	0.010448389
244	0xbb86510b	-0.0040990165
245	0xbc2f3c04	-0.010695461
246	0xbc459fe5	-0.012062048
247	0x3cabbce0	0.020964086
248	0xbc7140fb	-0.014724965
249	0x3a0138f4	0.0004929446
250	0x3c8234c9	0.01589431
251	0x3b906640	0.0044067204
252	0x3c1d5332	0.009602355
253	0x3bf7ee92	0.0075662816
254	0xbc60b89f	-0.013715892
255	0xbb7d8618	-0.0038684662

action_model._discrete_distribution.branches.1.bias f4 [4]
0	0x00000000	0.0
1	0x00000000	0.0
2	0x00000000	0.0
3	0x00000000	0.0

action_model._discrete_distribution.branches.1.weight f4 [4, 128]
0	0xbb54e48d	-0.003248486
1	0x3c28fbf5	0.0103139775
2	0xbcbd90e8	-0.023140386
3	0xbc547def	-0.012969478
4	0xbc062a36	-0.008188775
5	0xbbcaba2f	-0.0061867456
6	0xbc0c05d5	-0.008546312
7	0xbc149d4f	-0.009070708
8	0xbc139050	-0.009006575
9	0x3c2ce8ff	0.0105535975
10	0x3c019d53	0.007911044
11	0xbae60973	-0.0017550424
12	0xbbb24553	-0.005440393
13	0xbbe0bc5d	-0.006858392
14	0x3bb5d8fc	0.005549548
15	0xbc0197f7	-0.007909766
16	0x3c6208a2	0.013796004
17	0xbb657f48	-0.0035018492
18	0xba004e15	-0.00048944476
19	0x3a2cbfba	0.0006589849
20	0x3c7247d5	0.014787634
21	0xbb86bf80	-0.004112184
22	0xbba7e202	-0.005123378
23	0x3c5f8718	0.013643049
24	0xbacef663	-0.0015789982
25	0x3cab9c94	0.020948686
26	0x3c8d3c8b	0.017240783
27	0xbc69ae05	-0.014262681
28	0x3cda618a	0.026657838
29	0xbb07e816	-0.00207377
30	0x3c4597e1	0.0120601365
31	0x3b9147bd	0.0044336007
32	0xbcb3543f	-0.021890758
33	0xbc298e42	-0.010348858
34	0xbc56c6cd	-0.013108921
35	0x3c8938b4	0.016750671
36	0x3b2433c7	0.0025055276
37	0x3c016151	0.007896737
38	0xbb9bf623	-0.0047595664
39	0xbbe48a82	-0.006974519
40	0xbc29cc06	-0.010363584
41	0xbb42898e	-0.002968404
42	0xbc2d2a63	-0.010569188
43	0xbb81501e	-0.0039463183
44	0xbbe01373	-0.006838256
45	0x3b4ffefb	0.0031737674
46	0xbbaa0468	-0.0051885135
47	0xbbdd91a0	-0.0067617446
48	0xbb21702a	-0.0024633505
49	0x3cb1e811	0.021717103
50	0xbc764275	-0.015030493
51	0x3ca8637f	0.020555256
52	0x3a3b0dd7	0.0007135546
53	0x3c01ded3	0.007926661
54	0x3bb3f0c2	0.005491347
55	0xbbdaf208	-0.0066816844
56	0x3c0eca08	0.00871516
57	0x3c13f8d9	0.009031498
58	0x3b72b33d	0.0037033104
59	0x3bf781c8	0.007553313
60	0xbc619965	-0.013769482
61	0x3c9a6c53	0.018850481
62	0x3c0c1b7b	0.008551474
63	0xbb39abd7	-0.0028331184
64	0x3b7a7247	0.0038215087
65	0x3b84d57f	0.004053771
66	0xbbb44f27	-0.0055025998
67	0x3c3358b9	0.010946446
68	0xbb4e91ab	-0.003151993
69	0x3c423e77	0.011855713
70	0x3c35ebbb	0.011103566
71	0xbb6c940d	-0.0036098987
72	0x3bb0be6e	0.0053937947
73	0xbc8df783	-0.017329937
74	0xbbc44a79	-0.005990323
75	0x3b4018c1	0.002931163
76	0x3c5ded10	0.01354529
77	0x3c456bbf	0.012049614
78	0x3c02af01	0.0079762945
79	0x3bc5a860	0.0060320348
80	0xba582333	-0.0008244991
81	0x3c886311	0.016648801
82	0x3b232142	0.002489165
83	0x3b9abeaf	0.0047224383
84	0xbb7ffd52	-0.0039060903
85	0xbbf743a5	-0.0075459057
86	0x3bf1b975	0.0073768445
87	0x3c12c872	0.008958923
88	0xbbf1dd10	-0.007381089
89	0x3ba3974c	0.004992401
90	0x3bcbfe2a	0.006225367
91	0x3abc0a14	0.0014346265
92	0x3d0816dd	0.03322493
93	0xbb4ad0c0	-0.0030947179
94	0x3bf6408f	0.00751502
95	0x3c184373	0.009293425
96	0x3b02fa70	0.0019985698
97	0xbb493ac7	-0.00307052
98	0xbc135007	-0.008991248
99	0x3b77054f	0.0037692373
100	0xba9024cc	-0.0010997294
101	0xbc1f671f	-0.009729176
102	0x3c5c8ada	0.013460839
103	0xbbbe25ca	-0.0058028447
104	0xbb5ec60f	-0.0033992564
105	0xbb6cde3b	-0.0036143202
106	0x3aa4e7ea	0.0012581323
107	0xbac8794d	-0.001529494
108	0x3c0e9db1	0.008704589
109	0xbc327ede	-0.010894505
110	0xbbbdae7c	-0.0057886224
111	0xbba32209	-0.0049784225
112	0x3c02f086	0.007991916
113	0xba5f7ab8	-0.00085250614
114	0x3b428910	0.0029683746
115	0x3c6a531a	0.0143020395
116	0x3ab40c9a	0.0013736666
117	0xbc056dbe	-0.00814384
118	0x3b943e47	0.0045240256
119	0x3c11cde7	0.008899189
120	0x3b3c8573	0.0028766065
121	0x3c1c1083	0.009525421
122	0xbbecf483	-0.0072312965
123	0x3a71ee63	0.0009228943
124	0x3bcf96df	0.006335124
125	0x3b5fae08	0.003413083
126	0xbb8d2786	-0.00430769
127	0xbc7bbf35	-0.0153654115
128	0xbbfdfd0d	-0.0077511133
129	0xbc0d6cb7	-0.008631877
130	0x3c7b1b75	0.0153263705
131	0xbb1b1493	-0.0023663386
132	0x3be4b118	0.006979119
133	0xbbff867f	-0.0077980156
134	0xbc177ede	-0.009246556
135	0xbaa401e9	-0.0012512776
136	0x3ab98a2d	0.001415556
137	0xbb88c490	-0.0041738227
138	0x3ccf9b6a	0.025342662
139	0xbc4118d7	-0.011785707
140	0xbba70b3d	-0.0050977753
141	0xbb9cfa1c	-0.0047905575
142	0x3ac876fc	0.0015294249
143	0x3c6cdc05	0.014456754
144	0xbb7f3557	-0.0038941705
145	0x3b98b2ae	0.004659972
146	0x3c17407b	0.009231682
147	0x3bddec5d	0.0067725615
148	0x397c822f	0.0002408109
149	0x3b9ce942	0.0047885487
150	0x3b95cd83	0.004571618
151	0x3b8b3e39	0.004249361
152	0x3b319516	0.0027096919
153	0x3a7c9d63	0.00096364896
154	0xbc135462	-0.008992286
155	0x3ab24a1e	0.0013602411
156	0xbc3e186a	-0.0116025
157	0xb92a8c09	-0.0001626463
158	0x3bc50400	0.0060124397
159	0x3ba504c0	0.0050359666
160	0x3ca289a4	0.019841023
161	0x3a801f5d	0.0009774972
162	0x3c18189a	0.009283209
163	0xbb9fb329	-0.0048736525
164	0x3b81a0b1	0.0039559235
165	0xba89fb6f	-0.0010527204
166	0xb7d4b3b7	-2.5356056e-05
167	0x3b2ed984	0.0026679942
168	0xbbd6e938	-0.0065585636
169	0xbc153f07	-0.009109265
170	0xbc587b17	-0.013212941
171	0xbc96f2e8	-0.018426374
172	0x3c259f40	0.010108769
173	0x3c0051b9	0.007831984
174	0xbbb6f3eb	-0.0055832765
175	0x3ce6ef30	0.028190225
176	0x3cb3943d	0.021921271
177	0xbbe0d9aa	-0.006861885
178	0x3b4559ad	0.0030113265
179	0xbc941b48	-0.018079415
180	0xbbc55bab	-0.0060228906
181	0xbc2f9045	-0.010715549
182	0x3addf10f	0.0016932803
183	0x3aa96efb	0.0012926752
184	0xba74307d	-0.00093150866
185	0x3ace161a	0.001572314
186	0x3aea8ea3	0.0017895292
187	0xbc0848c5	-0.008318131
188	0x3b12d577	0.0022405067
189	0x3b45a97d	0.0030160837
190	0xbc359609	-0.011083134
191	0xbc206863	-0.009790513
192	0xba515215	-0.00079849485
193	0x3b7e1695	0.0038770784
194	0xbb8cbe1c	-0.0042951237
195	0x3c0abee1	0.008468361
196	0xbc50ddf7	-0.012748233
197	0xbc02b72c	-0.007978242
198	0xbc8efe7a	-0.017455328
199	0xb7caff98	-2.4199297e-05
200	0x3c1ca31b	0.009560372
201	0x3a8dbeba	0.0010814287
202	0x3bc60d6d	0.006044081
203	0x3c812276	0.015763503
204	0xbc0e86a3	-0.008699092
205	0xbc049b0a	-0.008093605
206	0xbbef82da	-0.0073093
207	0x3c63839f	0.013886361
208	0x3c711698	0.014714859
209	0xbc276bd5	-0.01021858
210	0x3c0374da	0.008023465
211	0x3bac561b	0.005259288
212	0xb9e019e8	-0.0004274391
213	0xba8f5a4b	-0.0010936944
214	0xb9243985	-0.00015661686
215	0xbae4d61f	-0.0017458833
216	0x3a17aa37	0.0005785557
217	0xbc6a3b52	-0.01429637
218	0xbc75ca00	-0.015001774
219	0xbc239c79	-0.009986036
220	0xbc59ae9b	-0.013286258
221	0x3b300b56	0.0026862225
222	0xbc3f41eb	-0.011673431
223	0xbc6c5742	-0.014425101
224	0x3b9d6eae	0.004804454
225	0x3c6879e2	0.014189215
226	0x3b5ce580	0.0033706129
227	0x3c16a18f	0.009193792
228	0xbb65d180	-0.0035067499
229	0x3be2b7c3	0.0069188788
230	0xbaa7cf27	-0.0012802825
231	0x3beb8785	0.007187786
232	0xbc71a502	-0.014748814
233	0x3b962f12	0.004583248
234	0x3aa9bec8	0.0012950534
235	0xbbb506d1	-0.005524494
236	0x3c5e3d0a	0.0135643575
237	0xbc0f384b	-0.008741449
238	0xbbd3e680	-0.0064666867
239	0xbc1d3694	-0.009595532
240	0x387eeb0a	6.0777216e-05
241	0x3af6e5df	0.0018836817
242	0x3c1a4e2e	0.009418054
243	0x3cf9a0ef	0.030472247
244	0xbb603173	-0.0034209162
245	0x3c134263	0.008987996
246	0x3b8f8149	0.0043794257
247	0x3ab887bb	0.0014078537
248	0x3bc9ba4c	0.0061562415
249	0xbc1f7cc7	-0.009734339
250	0xba69ba73	-0.0008916028
251	0xbc0d9e81	-0.008643747
252	0xbc9294ec	-0.017893277
253	0xbb28ebfc	-0.0025775423
254	0xbb08067b	-0.0020755816
255	0xbb58f1fb	-0.0033103216

discrete_action_output_shape f4 [1, 2]
0	0x40800000	4.0
1	0x40800000	4.0

network_body._body_endoder.seq_layers.0.bias f4 [128]
0	0x00000000	0.0
1	0x00000000	0.0
2	0x00000000	0.0
3	0x00000000	0.0
4	0x00000000	0.0
5	0x00000000	0.0
6	0x00000000	0.0
7	0x00000000	0.0
8	0x00000000	0.0
9	0x00000000	0.0
10	0x00000000	0.0
11	0x00000000	0.0
12	0x00000000	0.0
13	0x00000000	0.0
14	0x00000000	0.0
15	0x00000000	0.0
16	0x00000000	0.0
17	0x00000000	0.0
18	0x00000000	0.0
19	0x00000000	0.0
20	0x00000000	0.0
21	0x00000000	0.0
22	0x00000000	0.0
23	0x00000000	0.0
24	0x00000000	0.0
25	0x00000000	0.0
26	0x00000000	0.0
27	0x00000000	0.0
28	0x00000000	0.0
29	0x00000000	0.0
30	0x00000000	0.0
31	0x00000000	0.0
32	0x00000000	0.0
33	0x00000000	0.0
34	0x00000000	0.0
35	0x00000000	0.0
36	0x00000000	0.0
37	0x00000000	0.0
38	0x00000000	0.0
39	0x00000000	0.0
40	0x00000000	0.0
41	0x00000000	0.0
42	0x00000000	0.0
43	0x00000000	0.0
44	0x00000000	0.0
45	0x00000000	0.0
46	0x00000000	0.0
47	0x00000000	0.0
48	0x00000000	0.0
49	0x00000000	0.0
50	0x00000000	0.0
51	0x00000000	0.0
52	0x00000000	0.0
53	0x00000000	0.0
54	0x00000000	0.0
55	0x00000000	0.0
56	0x00000000	0.0
57	0x00000000	0.0
58	0x00000000	0.0
59	0x00000000	0.0
60	0x00000000	0.0
61	0x00000000	0.0
62	0x00000000	0.0
63	0x00000000	0.0
64	0x00000000	0.0
65	0x00000000	0.0
66	0x00000000	0.0
67	0x00000000	0.0
68	0x00000000	0.0
69	0x00000000	0.0
70	0x00000000	0.0
71	0x00000000	0.0
72	0x00000000	0.0
73	0x00000000	0.0
74	0x00000000	0.0
75	0x00000000	0.0
76	0x00000000	0.0
77	0x00000000	0.0
78	0x00000000	0.0
79	0x00000000	0.0
80	0x00000000	0.0
81	0x00000000	0.0
82	0x00000000	0.0
83	0x00000000	0.0
84	0x00000000	0.0
85	0x00000000	0.0
86	0x00000000	0.0
87	0x00000000	0.0
88	0x00000000	0.0
89	0x00000000	0.0
90	0x00000000	0.0
91	0x00000000	0.0
92	0x00000000	0.0
93	0x00000000	0.0
94	0x00000000	0.0
95	0x00000000	0.0
96	0x00000000	0.0
97	0x00000000	0.0
98	0x00000000	0.0
99	0x00000000	0.0
100	0x00000000	0.0
101	0x00000000	0.0
102	0x00000000	0.0
103	0x00000000	0.0
104	0x00000000	0.0
105	0x00000000	0.0
106	0x00000000	0.0
107	0x00000000	0.0
108	0x00000000	0.0
109	0x00000000	0.0
110	0x00000000	0.0
111	0x00000000	0.0
112	0x00000000	0.0
113	0x00000000	0.0
114	0x00000000	0.0
115	0x00000000	0.0
116	0x00000000	0.0
117	0x00000000	0.0
118	0x00000000	0.0
119	0x00000000	0.0
120	0x00000000	0.0
121	0x00000000	0.0
122	0x00000000	0.0
123	0x00000000	0.0
124	0x00000000	0.0
125	0x00000000	0.0
126	0x00000000	0.0
127	0x00000000	0.0

network_body._body_endoder.seq_layers.0.weight f4 [128, 47]
0	0xbe702143	-0.23450188
1	0xbe98fe17	-0.29881355
2	0x3e85acd4	0.2610842
3	0xbe92e08f	-0.2868695
4	0x3e50ce16	0.20391116
5	0xbd861fbd	-0.06549022
6	0xbd9dd975	-0.07707492
7	0xbe089218	-0.1333698
8	0x3e42217d	0.18958087
9	0x3e6422cf	0.22278903
10	0x3d5ebeb1	0.054381076
11	0xbd585807	-0.052818324
12	0xbdd78ff2	-0.10525502
13	0xbeca5009	-0.39514187
14	0x3e84b3ac	0.2591833
15	0xbe828932	-0.25495297
16	0xbca82bb2	-0.020528648
17	0x3d9116e9	0.07084448
18	0x3dc34f62	0.095366254
19	0x3ddff9ee	0.10936342
20	0xbe18a885	-0.14908035
21	0xbda9d80f	-0.08293163
22	0xbdbd346b	-0.092385136
23	0xbcc8b306	-0.024499428
24	0xbcc1574a	-0.023601193
25	0x3e13f688	0.14449513
26	0x3e9ba66a	0.304004
27	0xbdc71d6d	-0.097224094
28	0x3d17f01d	0.037094224
29	0x3d423395	0.047412474
30	0x3e54739a	0.20747223
31	0x3d94e943	0.07271054
32	0x3be0a8a8	0.006856043
33	0xbd881f3f	-0.06646585
34	0x3d043f45	0.0322869
35	0x3e80b0f8	0.25135016
36	0x3d1e57c2	0.03865791
37	0xbe7eb34f	-0.24873088
38	0x3e1af521	0.15132572
39	0x3e8d85ea	0.2764123
40	0x3db97017	0.090545826
41	0xbdb089b3	-0.08620014
42	0xbdeb55e0	-0.11490989
43	0xbd18a36d	-0.03726523
44	0x3e9409fc	0.28913867
45	0x3cdeb879	0.027187573
46	0xbe6d86fe	-0.23196027
47	0xbe8ca8a9	-0.27472427
48	0x3ce85f5e	0.028365787
49	0xbd749a45	-0.059717435
50	0xbe249b25	-0.16074808
51	0x3d166226	0.036714695
52	0x3d8f6b68	0.07002908
53	0x3e22ea67	0.1590973
54	0xbcd769de	-0.026295599
55	0x3dc26bf3	0.09493246
56	0xbd5b9719	-0.053610895
57	0x3db10168	0.08642846
58	0x3de3fcde	0.11132215
59	0x3d62147c	0.055195317
60	0x3e17f275	0.14838584
61	0xbe69b953	-0.22824602
62	0x3d72cd09	0.059277568
63	0xbe5ed13b	-0.21759503
64	0xbe695572	-0.22786501
65	0xbeafe035	-0.34350744
66	0x3e0fca80	0.14042091
67	0x3e144f51	0.14483382
68	0xbc8491e4	-0.016182847
69	0xbe11126a	-0.1416718
70	0xbd5053c6	-0.050861143
71	0x3dc43efa	0.09582324
72	0xbe1204e7	-0.14259683
73	0x3a3951c7	0.0007069376
74	0xbc7c0701	-0.015382529
75	0x3dc0c8d7	0.09413307
76	0xbb08ca16	-0.0020872406
77	0x3eb09dca	0.34495384
78	0x3e580c82	0.21098521
79	0x3de83c15	0.11339585
80	0xbdb44590	-0.088023305
81	0xbe06d51c	-0.13167232
82	0x3deffe09	0.11718375
83	0xbd5140eb	-0.0510873
84	0x3cdd42c4	0.027009375
85	0xbc9af820	-0.018917143
86	0xbe814510	-0.25248003
87	0x3e28fd65	0.16502912
88	0xbe3e3a08	-0.18576825
89	0xbe979bb4	-0.2961098
90	0x3df46724	0.11933735
91	0xbdfdd47f	-0.12394046
92	0xbd647a08	-0.05578044
93	0x3e527484	0.2055226
94	0x3d4c879b	0.04993401
95	0xbe1ba5b1	-0.15199925
96	0xbdab4a5d	-0.08363793
97	0x3d9fec5b	0.07808753
98	0xbea7f20e	-0.3280186
99	0x3cca362e	0.024684038
100	0x3c894809	0.016757982
101	0xbe821616	-0.25407475
102	0x3db32c1f	0.0874865
103	0x3bf0fd4b	0.0073544136
104	0x3db449bf	0.088031285
105	0xbd2b6c7c	-0.041851506
106	0x3d394c67	0.04523888
107	0x3da1dbab	0.079032265
108	0x3d969a75	0.07353679
109	0x3e0d7b89	0.13816656
110	0xbd9df89f	-0.07713436
111	0x3e574f2a	0.21026292
112	0xbe914f73	-0.28380927
113	0xbe000cc2	-0.12504867
114	0x3d5000d8	0.050782055
115	0x3da3773a	0.07981725
116	0xbd9af2b2	-0.07565822
117	0xbd2e546c	-0.04256098
118	0xbe42ad4c	-0.1901142
119	0x3d871a11	0.06596769
120	0x3cf7078d	0.030154968
121	0xbdc7d015	-0.097564854
122	0x3e936438	0.28787398
123	0x3d818e45	0.06325964
124	0x3d92d066	0.07168655
125	0xbd182b5b	-0.037150722
126	0x3cda2616	0.026629489
127	0xbd3a8426	-0.045536183
128	0x3d1ab5d1	0.03777105
129	0x3cdb82ab	0.026795706
130	0x3dc0c034	0.0941166
131	0x3d83619f	0.06415104
132	0x3d7447b1	0.059638683
133	0xbc520f95	-0.012821098
134	0xbe4cd17d	-0.20001788
135	0xbe5c12ab	-0.21491496
136	0x3d0b1720	0.0339576
137	0xbd765091	-0.060135428
138	0x3d8b1d55	0.06792704
139	0xbdff0444	-0.124519855
140	0x3c8453c9	0.016153233
141	0xbdf6d710	-0.12052739
142	0xbeb3053a	-0.34964925
143	0xbe24f251	-0.16108061
144	0xbcff0140	-0.031128526
145	0x3dfe022a	0.124027565
146	0xbd0d3984	-0.03447868
147	0xbe325f9a	-0.17419282
148	0xbe303d81	-0.17210962
149	0xbe6e409b	-0.23266833
150	0x3e52d17a	0.20587721
151	0x3d5e195c	0.054223403
152	0xbd905d20	-0.07049012
153	0x3e92c6e2	0.2866736
154	0xbae90b93	-0.0017779939
155	0xbc96f998	-0.018429562
156	0xbdf7eb15	-0.12105385
157	0xbe1e8dfd	-0.15483852
158	0xbdf98388	-0.12183291
159	0x3e89b72a	0.26897556
160	0x3e2579d3	0.16159754
161	0x3d9a24b7	0.07526534
162	0xbcb63ded	-0.022246325
163	0xbe0c6fb5	-0.13714488
164	0xbe5ab8be	-0.21359536
165	0xbdd765a0	-0.1051743
166	0xbe62d5f7	-0.22151934
167	0xbe9842fd	-0.29738608
168	0xbde40ace	-0.11134873
169	0xbe45ae06	-0.19304666
170	0x3e550824	0.20803887
171	0x3d9bf34c	0.076147646
172	0x3d3c360b	0.045949977
173	0xbd0fd88d	-0.03511863
174	0x3df01c5d	0.1172416
175	0xbe5aa0a1	-0.21350338
176	0x3e230f53	0.15923814
177	0x3d7944be	0.060856573
178	0xbe1d86a9	-0.153834
179	0x3d6f6882	0.058449276
180	0xbe944831	-0.28961328
181	0x3e25b275	0.16181357
182	0xbdcc658e	-0.099803075
183	0xbd226fe7	-0.0396575
184	0xbe6c349a	-0.23066941
185	0x3e1833a7	0.14863454
186	0xbdbc9ef4	-0.092100054
187	0xbd5af78f	-0.053458747
188	0xbc4ee218	-0.012627147
189	0xbd8c42bf	-0.06848668
190	0x3da7ad3b	0.08187338
191	0x3d170d84	0.036878124
192	0x3d5f05a4	0.05444874
193	0xbe0b875a	-0.13625851
194	0xbd51e10c	-0.051240012
195	0x3d3ec82b	0.046577614
196	0xbd2fabfa	-0.04288862
197	0xbd22f7ad	-0.039786983
198	0xbc6563a4	-0.014000807
199	0xbdfb52d3	-0.12271657
200	0xbe69ea59	-0.22843303
201	0xbd2daa73	-0.04239888
202	0x3cd806d8	0.02637045
203	0xbccab9ae	-0.024746742
204	0xbbdbcb6f	-0.006707601
205	0xbe987951	-0.29780057
206	0xbb1d79f5	-0.002402899
207	0xbd088c6f	-0.033337053
208	0xbe0ff77d	-0.14059253
209	0xbe240a59	-0.16019572
210	0x3ce988c9	0.028507607
211	0x3c8353a1	0.016031088
212	0x3d855062	0.065094724
213	0xbd3764ef	-0.044773992
214	0x3c67cf9a	0.014148617
215	0x3e02d6f5	0.12777312
216	0xbe118b33	-0.14213257
217	0x3dc4d492	0.09610857
218	0xbcfa34c1	-0.030542733
219	0xbdb2d4a3	-0.087319635
220	0x3e3b8deb	0.18315856
221	0x3b9dd90c	0.004817134
222	0x3ec528ba	0.38507634
223	0x3d38c18f	0.045106467
224	0x3e7426d1	0.23842932
225	0xbdb10950	-0.08644354
226	0x3d755faf	0.059905704
227	0xbe10daf5	-0.14146025
228	0xbe758f70	-0.23980498
229	0x3d10e2c6	0.035372518
230	0xbe87b717	-0.26506874
231	0xbd9222ec	-0.07135567
232	0x3dda22fc	0.10651204
233	0xbdb69a21	-0.089161165
234	0x3dbea1b3	0.093081854
235	0xbd7e2c45	-0.062053937
236	0x3d97bfb1	0.07409609
237	0xba83c860	-0.0010054223
238	0x3d20afb7	0.039230075
239	0xbe8b3422	-0.27188212
240	0xbd771e71	-0.060331766
241	0x3c3ef31c	0.0116546415
242	0x3c0b2bd0	0.008494332
243	0xbe407b3d	-0.18797012
244	0xbdc36f18	-0.09542674
245	0xbe63803a	-0.22216883
246	0xbd00fd00	-0.03149128
247	0xbd87502c	-0.066070884
248	0x3cdf3e24	0.02725131
249	0xbd24169b	-0.04006062
250	0x3db14241	0.08655215
251	0xbd2530c1	-0.0403297
252	0xbde1ed30	-0.11031568
253	0xbc6ed150	-0.014576271
254	0xbe2c3d14	-0.16820174
255	0xbd8193d3	-0.06327023

network_body._body_endoder.seq_layers.2.bias f4 [128]
0	0x00000000	0.0
1	0x00000000	0.0
2	0x00000000	0.0
3	0x00000000	0.0
4	0x00000000	0.0
5	0x00000000	0.0
6	0x00000000	0.0
7	0x00000000	0.0
8	0x00000000	0.0
9	0x00000000	0.0
10	0x00000000	0.0
11	0x00000000	0.0
12	0x00000000	0.0
13	0x00000000	0.0
14	0x00000000	0.0
15	0x00000000	0.0
16	0x00000000	0.0
17	0x00000000	0.0
18	0x00000000	0.0
19	0x00000000	0.0
20	0x00000000	0.0
21	0x00000000	0.0
22	0x00000000	0.0
23	0x00000000	0.0
24	0x00000000	0.0
25	0x00000000	0.0
26	0x00000000	0.0
27	0x00000000	0.0
28	0x00000000	0.0
29	0x00000000	0.0
30	0x00000000	0.0
31	0x00000000	0.0
32	0x00000000	0.0
33	0x00000000	0.0
34	0x00000000	0.0
35	0x00000000	0.0
36	0x00000000	0.0
37	0x00000000	0.0
38	0x00000000	0.0
39	0x00000000	0.0
40	0x00000000	0.0
41	0x00000000	0.0
42	0x00000000	0.0
43	0x00000000	0.0
44	0x00000000	0.0
45	0x00000000	0.0
46	0x00000000	0.0
47	0x00000000	0.0
48	0x00000000	0.0
49	0x00000000	0.0
50	0x00000000	0.0
51	0x00000000	0.0
52	0x00000000	0.0
53	0x00000000	0.0
54	0x00000000	0.0
55	0x00000000	0.0
56	0x00000000	0.0
57	0x00000000	0.0
58	0x00000000	0.0
59	0x00000000	0.0
60	0x00000000	0.0
61	0x00000000	0.0
62	0x00000000	0.0
63	0x00000000	0.0
64	0x00000000	0.0
65	0x00000000	0.0
66	0x00000000	0.0
67	0x00000000	0.0
68	0x00000000	0.0
69	0x00000000	0.0
70	0x00000000	0.0
71	0x00000000	0.0
72	0x00000000	0.0
73	0x00000000	0.0
74	0x00000000	0.0
75	0x00000000	0.0
76	0x00000000	0.0
77	0x00000000	0.0
78	0x00000000	0.0
79	0x00000000	0.0
80	0x00000000	0.0
81	0x00000000	0.0
82	0x00000000	0.0
83	0x00000000	0.0
84	0x00000000	0.0
85	0x00000000	0.0
86	0x00000000	0.0
87	0x00000000	0.0
88	0x00000000	0.0
89	0x00000000	0.0
90	0x00000000	0.0
91	0x00000000	0.0
92	0x00000000	0.0
93	0x00000000	0.0
94	0x00000000	0.0
95	0x00000000	0.0
96	0x00000000	0.0
97	0x00000000	0.0
98	0x00000000	0.0
99	0x00000000	0.0
100	0x00000000	0.0
101	0x00000000	0.0
102	0x00000000	0.0
103	0x00000000	0.0
104	0x00000000	0.0
105	0x00000000	0.0
106	0x00000000	0.0
107	0x00000000	0.0
108	0x00000000	0.0
109	0x00000000	0.0
110	0x00000000	0.0
111	0x00000000	0.0
112	0x00000000	0.0
113	0x00000000	0.0
114	0x00000000	0.0
115	0x00000000	0.0
116	0x00000000	0.0
117	0x00000000	0.0
118	0x00000000	0.0
119	0x00000000	0.0
120	0x00000000	0.0
121	0x00000000	0.0
122	0x00000000	0.0
123	0x00000000	0.0
124	0x00000000	0.0
125	0x00000000	0.0
126	0x00000000	0.0
127	0x00000000	0.0

network_body._body_endoder.seq_layers.2.weight f4 [128, 128]
0	0x3e6a1915	0.2286113
1	0x3c387e50	0.011260584
2	0x3e06a24c	0.13147849
3	0x3e39a64e	0.18129846
4	0x3cde08f6	0.027103882
5	0xbc2ef94e	-0.010679556
6	0x3d374879	0.04474685
7	0xbd082043	-0.033233892
8	0x3e5957f9	0.21224965
9	0x3e222493	0.15834264
10	0xbc2aa093	-0.01041426
11	0xbbbcf765	-0.0057667964
12	0x3d4a0dfa	0.049329735
13	0xbd05bdfa	-0.03265188
14	0xbdbfe4b6	-0.09369795
15	0xbd1f7560	-0.038930297
16	0xbc092309	-0.008370169
17	0xbc51cc40	-0.012805045
18	0xbe367d2d	-0.17821188
19	0x3d821ccc	0.06353149
20	0xbd96fa32	-0.0737194
21	0x3c74d62d	0.014943642
22	0x3e2efe6b	0.1708924
23	0xbe829155	-0.25501505
24	0xbd143383	-0.036181938
25	0xbe47f7e4	-0.19528157
26	0x3c0d81cb	0.008636902
27	0x3c681fdb	0.014167751
28	0x3be7266b	0.0070541403
29	0x3b503691	0.0031770805
30	0xbcd15198	-0.025551602
31	0xbdb0202b	-0.085998856
32	0x3cc76134	0.024338342
33	0x3d362b7e	0.04447507
34	0x3bd2edf4	0.0064370576
35	0xbd83b386	-0.06430726
36	0xbd76cae3	-0.06025208
37	0xbcff2444	-0.031145222
38	0x3d95c9fe	0.073139176
39	0x3df89d09	0.12139327
40	0xbdbaaf20	-0.09115434
41	0x3d9066cd	0.07050858
42	0xbe01aa88	-0.12662709
43	0xbd3a4bfa	-0.045482613
44	0xbd898606	-0.06715016
45	0xbc9a1066	-0.018806648
46	0x3dad516f	0.08462798
47	0x3d706289	0.05868772
48	0xbd7825d5	-0.060582954
49	0x3d808316	0.06275003
50	0xbd1ea160	-0.038728118
51	0xbe6c0776	-0.23049721
52	0x3df01a69	0.11723787
53	0x3a7c37ed	0.00096213707
54	0x3dd3026c	0.10303196
55	0x3dbecbed	0.093162395
56	0xbe1ebbe4	-0.15501362
57	0x3d683c17	0.05669793
58	0xbc52051e	-0.012818603
59	0xbd006096	-0.03134211
60	0xbc89aa37	-0.016804798
61	0x3d456d08	0.048199683
62	0x3d88da2e	0.066822395
63	0xbd78f042	-0.060776003
64	0x3c41c81f	0.011827498
65	0x3d15eadb	0.03660093
66	0x3d55fbc4	0.052242056
67	0x3e14f57b	0.14546768
68	0x3d6b1b8f	0.05739933
69	0xbded0bfe	-0.11574553
70	0xbc17b887	-0.009260303
71	0x3da064cc	0.078317255
72	0x3e37fe89	0.17968191
73	0x3dcf3e66	0.101193234
74	0x3dca2a1b	0.09871312
75	0x3dfaad18	0.12240046
76	0xbdf601b1	-0.12012041
77	0xbc1d797c	-0.009611484
78	0x3da21e72	0.07915963
79	0x3d481a98	0.048853487
80	0x3d4982cb	0.049197
81	0x3dca5b6f	0.09880721
82	0xbd398bce	-0.045299344
83	0x3d2eb6d8	0.042654842
84	0x3ce832e6	0.028344583
85	0xbe0c1ed9	-0.13683642
86	0xbda2bd49	-0.079462595
87	0xbe5c63db	-0.21522467
88	0x3bc711cc	0.0060751196
89	0x3db79481	0.08963872
90	0xbb419612	-0.0029538912
91	0xbe714cf1	-0.23564507
92	0xbcb15665	-0.021647641
93	0x3b899a74	0.0041993205
94	0x3e0d4d32	0.13798979
95	0xbd48ed47	-0.04905441
96	0xbd62b49c	-0.055348024
97	0xbd18ce5f	-0.037306186
98	0x3e101f4e	0.14074442
99	0xbdaca531	-0.08429945
100	0xbe0ca656	-0.13735327
101	0xba57248f	-0.0008207047
102	0x3e1cee1c	0.15325207
103	0xbd19d8d6	-0.037560306
104	0xbca848a5	-0.020542452
105	0xbd2e92d7	-0.042620506
106	0x3caabdef	0.02084252
107	0x3cb1d3df	0.021707473
108	0x3d3e8701	0.04651547
109	0xbd550c8e	-0.052013926
110	0xbd6f8466	-0.058475874
111	0xbd798e64	-0.06092681
112	0xbdc01352	-0.09378685
113	0x3d3f76da	0.046744205
114	0x3d9a4653	0.075329445
115	0xbde47671	-0.111554034
116	0x3e5773b1	0.21040227
117	0xbdedac0c	-0.11605081
118	0x3d1e0704	0.03858091
119	0x3d80d633	0.06290855
120	0x3df03008	0.11727911
121	0x3e3d1859	0.18466319
122	0x3d6d6dd6	0.057966076
123	0xbe088973	-0.13333683
124	0x3ceeaaaa	0.029134113
125	0x3e11cef3	0.14239101
126	0x3ccf2305	0.025285253
127	0xbd953a34	-0.07286492
128	0x3da91f85	0.08257965
129	0xbdab8905	-0.08375744
130	0xbd227d34	-0.039670184
131	0xbd7c3c11	-0.06158072
132	0x3d14098a	0.03614191
133	0x3c483129	0.012218752
134	0x3d7e614a	0.0621045
135	0xbdaf83b8	-0.08570045
136	0xbd06847d	-0.032841194
137	0xbb7d72e3	-0.0038673214
138	0x3e18140a	0.14851394
139	0xbe4591de	-0.19293925
140	0x3dad3e83	0.08459189
141	0xbd233a81	-0.039850716
142	0xbd96e87b	-0.07368561
143	0xbdb66029	-0.0890506
144	0xbdabb694	-0.083844334
145	0xbd90209c	-0.0703747
146	0xbd36985f	-0.044578906
147	0x3bbdabb1	0.0057882895
148	0xbc5d63c3	-0.013512555
149	0xbbc3afdd	-0.0059718923
150	0xbc92b945	-0.017910609
151	0x3c83bf07	0.0160823
152	0x3dbd2c8f	0.092370145
153	0x3d6ac379	0.057315324
154	0xbb2b1416	-0.0026104501
155	0x3e1b97dc	0.15194649
156	0xbb0145aa	-0.001972536
157	0x3c160956	0.009157499
158	0xbd861de3	-0.06548669
159	0xbd14f8af	-0.036369976
160	0x3c40682a	0.011743585
161	0xbd7dced2	-0.061964817
162	0xbca93047	-0.020652903
163	0x3dbc5109	0.09195144
164	0x3cbc66b3	0.02299819
165	0x3d8689df	0.065692656
166	0xbc36a35d	-0.011147347
167	0xbc93b528	-0.018030718
168	0x3da7e55a	0.08198042
169	0x3d445b4f	0.04793864
170	0xbe045af0	-0.12925315
171	0xbbdc3f93	-0.006721446
172	0xbd88369d	-0.06651042
173	0x3d5e9b7e	0.054347508
174	0xbd078a4c	-0.033090875
175	0xbdde693d	-0.10859916
176	0x3e2dc9a8	0.16971457
177	0xbd98a77c	-0.0745382
178	0xbd05b3ec	-0.03264229
179	0x3e3a25b4	0.18178445
180	0x3dc1ae39	0.094570585
181	0x3cdec21e	0.027192172
182	0xbd8d2f9c	-0.068938464
183	0x3e9175e1	0.28410247
184	0x3d11bcd0	0.035580456
185	0x3db65cc5	0.08904413
186	0xbd24788f	-0.040154036
187	0xbc89ea65	-0.0168354
188	0x3ddb41a9	0.10705883
189	0xbdc90256	-0.09814899
190	0x3c964931	0.018345447
191	0x3dc3eba8	0.09566432
192	0x3daa77ab	0.08323606
193	0x3d417822	0.04723371
194	0x3d479271	0.04872364
195	0x3d99b641	0.07505465
196	0xbd74306c	-0.05961649
197	0xbdce8c20	-0.100853205
198	0xbe1cfa41	-0.1532984
199	0xbcdabcbf	-0.02670133
200	0xbdaedfe1	-0.08538795
201	0x3cfc578e	0.030803468
202	0xbdbc12ce	-0.09183274
203	0x3d7c4f00	0.061598778
204	0xbd2e3875	-0.04253431
205	0x3d8a9e11	0.0676843
206	0x3e00a190	0.12561631
207	0x3d3b143d	0.045673598
208	0x3df3010a	0.118654326
209	0x3dbaa971	0.0911435
210	0xbc66243c	-0.014046725
211	0xbe51248b	-0.20424096
212	0x3d831d9d	0.06402133
213	0x3d023ee8	0.031798273
214	0xbdc4b7d3	-0.09605374
215	0x3d0a7241	0.033800367
216	0x3c17cece	0.009265615
217	0xbcf4ff21	-0.029906811
218	0xbe40fadb	-0.18845694
219	0x3d217f01	0.03942776
220	0xbdac5f1f	-0.084165804
221	0x3d0b3bd8	0.03399262
222	0x3dd99f12	0.106260434
223	0xbbd67b90	-0.0065454915
224	0x3cf7dc88	0.030256525
225	0x3d3751b8	0.044755667
226	0xbd65d774	-0.056113675
227	0xbd40449c	-0.04694043
228	0x3def5039	0.11685223
229	0x3d48132a	0.0488464
230	0x3d6d04a5	0.057865757
231	0x3dafc075	0.0858163
232	0x3df1b0d3	0.11801305
233	0xbdcb674a	-0.0993181
234	0xbdd52872	-0.10408105
235	0x38b6d97f	8.718948e-05
236	0xbd8415d5	-0.06449477
237	0x3b3dd6ca	0.0028967136
238	0xbde60db8	-0.112330854
239	0xba1c1c62	-0.0005955157
240	0x3e1d4820	0.15359545
241	0xbd429a15	-0.047510225
242	0xbcd92297	-0.026505752
243	0xbdb9e798	-0.09077376
244	0x3db97ecb	0.09057387
245	0xbc809719	-0.015697049
246	0xbe39de23	-0.18151145
247	0xbd70a2d9	-0.058749054
248	0xbbeafc75	-0.0071712085
249	0x3ca9a18a	0.02070691
250	0xbdf80804	-0.12110904
251	0x3de4057f	0.11133861
252	0x3e19e4cd	0.15028687
253	0xbbbc698c	-0.005749887
254	0xbca3a140	-0.01997435
255	0x3c32105e	0.01086816
