results/ppo/MlAgent/MlAgent-3456.onnx (onnx, 134638 bytes, 7 tensors)

action_model._continuous_distribution.log_sigma f4 [1, 3]
0.0 0.0 0.0
00000000: 0000 0000 0000 0000 0000 0000

action_model._continuous_distribution.mu.bias f4 [3]
0.0 0.0 0.0
00000000: 0000 0000 0000 0000 0000 0000

action_model._continuous_distribution.mu.weight f4 [3, 128]
-0.0012256184 0.028271416 -0.014230763 -0.00798916 0.032066118 0.02894615 -0.018819489 0.0032808322
-0.0083781425 0.013829398 0.021172987 -0.014685213 -0.013851739 0.014294078 0.018814474 -0.0042648716
-0.042195436 -0.0031251 0.0038233658 -0.02719462 -0.0031171197 -0.008795489 -0.02730459 0.02268246
0.011565129 -0.008287092 -0.003917483 -0.001995545 -0.008707442 0.017590491 0.002556606 -0.0010179499
-0.0038166624 -0.010988407 0.033958208 -0.018727379 -0.024246955 -0.049338475 -0.022499291 0.005693467
0.018288698 -0.009634705 0.03338244 -0.020956395 -0.0041428185 0.01863772 0.00026100443 0.01133484
0.014056164 -0.00015903608 0.015513526 0.0035204813 -0.0074358494 -0.0043643187 -0.018019479 0.027415434
-0.018710675 -0.026273323 0.011608264 0.014685802 -0.00021277666 -0.012541694 0.0032809197 0.009890533
0.019623728 0.033224694 0.023907121 -0.0031423715 -0.011159564 0.01925735 0.00562994 0.023068625
0.011952638 -0.016216928 0.0054449043 -0.01188094 -0.00723982 -0.029967278 0.0010655519 0.015928684
0.0064679603 -0.028864333 -0.001184189 -0.014229165 0.02279081 -0.006825749 0.02335379 0.03593452
0.012863164 0.0012886296 4.5700624e-05 0.02613296 -0.037143387 0.017842593 -0.005706171 0.00157965
0.0016021592 -0.006324261 -0.0014116775 0.037985947 0.009347318 -0.002414025 -0.014670675 0.023317777
0.024211464 0.011810932 0.01113702 0.011666198 -0.01132246 -0.013407456 0.015601921 0.03330239
-0.0138384225 0.018350385 -0.004372256 -0.0061741206 -0.02751856 -0.017255364 -0.0076506273 -0.008597614
0.028524006 -0.01405168 0.044930696 0.03266419 0.030464828 -0.015538834 -0.01255907 -0.0013253115
-0.012157652 -0.027158832 0.014199935 0.018664924 0.018013181 0.056216713 0.014027818 -0.0026435175
-0.02881643 0.029103363 -0.0053997193 0.010283716 -0.0016552486 -0.0016906653 0.015004709 -0.024890989
-0.027034169 0.0066704676 0.013585224 -0.012418356 -0.004950306 -0.021299759 -0.010658016 0.016777346
-0.031428702 0.021878136 -0.005418164 0.015986925 0.025048358 0.020512559 0.018023325 -0.024816403
-0.019182203 0.008245288 0.010587516 -0.012985169 -0.043719184 -0.0043526087 -0.015929999 -0.025502667
0.017262736 0.00059849035 -0.004171214 -0.0028709867 0.0071577667 0.01414328 0.038335856 -0.013753376
0.008689369 0.016936408 -0.014603793 -0.0055373125 -0.008354693 -0.010474357 0.007437547 0.015081692
0.012777321 -0.03303663 -0.02291259 -0.030158633 0.0013554629 0.0032425772 -0.007752827 0.008506898
-0.007626521 -0.008089638 0.008494265 0.025496615 0.0036887645 0.0030753005 -0.0033478618 -0.0031004539
-0.016786508 -0.041698504 -0.0029136871 0.043331504 -0.0036065415 -0.030043593 -0.016635649 0.012821035
0.01384548 -0.029379496 -0.023115337 0.026962543 0.026620448 -0.010688408 0.008019687 0.011145223
0.011120289 -0.0031908695 -0.00021820355 0.033544336 0.013736354 -0.0008168406 -0.027010238 0.014322813
-0.01771582 0.012914407 -0.003496625 0.00054253335 -0.0019638604 -0.00096663454 0.017381687 0.009327684
-0.010275857 -0.0031159846 0.02756003 -0.009515698 -0.038779553 -0.02421014 -0.0068466775 -0.025768856
-0.033566345 -0.0068629594 0.011198192 -0.029492367 0.011461899 -0.007943959 0.012809536 0.046099067
0.019905372 0.0121817915 -0.027716381 -0.005561951 -0.003994427 -0.009770673 0.018254995 -0.01346823
00000000: eea4 a0ba 7599 e73c 2528 69bc f7e4 02bc
00000010: c357 033d 7a20 ed3c 542b 9abc 3b03 573b
00000020: 7a44 09bc b394 623c f972 ad3c 3f9a 70bc
00000030: 67f2 62bc b531 6a3c d020 9a3c 56c0 8bbb
00000040: 1fd5 2cbd 7ace 4cbb 6f91 7a3b 40c7 debc
00000050: 9748 4cbb f41a 10bc e0ad dfbc 91d0 b93c
00000060: ab7b 3d3c 95c6 07bc 3b5e 80bb b1c7 02bb
00000070: a9a9 0ebc ef19 903c bb8c 273b bb6c 85ba
00000080: f820 7abb b808 34bc c317 0b3d 296a 99bc
00000090: 8da1 c6bc 2417 4abd 6f50 b8bc 4390 ba3b
000000a0: 2ed2 953c e2da 1dbc 07bc 083d bfac abbc
000000b0: 7bc0 87bb 22ae 983c 6cd7 8839 c4b5 393c
000000c0: d34b 663c ecc2 26b9 722c 7e3c e0b7 663b
000000d0: 6da8 f3bb 8f02 8fbb 969d 93bc 5596 e03c
000000e0: 2147 99bc 273b d7bc 9730 3e3c b89c 703c
000000f0: cd1c 5fb9 ad7b 4dbc b304 573b e70b 223c
00000100: f1c1 a03c 9e16 083d ded8 c33c 3ff0 4dbb
00000110: 9bd6 36bc 97c1 9d3c 5c7b b83b 6afa bc3c
00000120: ffd4 433c 5dd9 84bc 2b6b b23b 46a8 42bc
00000130: 033c edbb f07d f5bc fda9 8b3a df7c 823c
00000140: 2ff1 d33b e574 ecbc ca36 9bba 7221 69bc
00000150: cbb3 ba3c 88aa dfbb 7350 bf3c 1330 133d
00000160: 05c0 523c 3ce7 a83a acae 3f38 ca14 d63c
00000170: aa23 18bd a12a 923c d5fa babb 420c cf3a
00000180: 8bff d13a bf3b cfbb 0908 b9ba 2797 1b3d
00000190: 7e25 193c 9e34 1ebb 455d 70bc ec04 bf3c
000001a0: 1f57 c63c a482 413c 0c78 363c 9523 3f3c
000001b0: d781 39bc f2aa 5bbc 339f 7f3c 1668 083d
000001c0: 8dba 62bc 8c53 963c 2445 8fbb 4750 cabb
000001d0: 9a6e e1bc 1f5b 8dbc 1db2 fabb 02dd 0cbc
000001e0: 2dab e93c 0539 66bc 4009 383d e3ca 053d
000001f0: 6091 f93c 9896 7ebc 8fc4 4dbc 13b6 adba
00000200: e330 47bc 337c debc d8a6 683c 2fe7 983c
00000210: 6190 933c 7f43 663d efd4 653c dd3e 2dbb
00000220: 6f10 ecbc 2d6a ee3c 21f0 b0bb 087d 283c
00000230: edf4 d8ba 5099 ddba 50d6 753c 30e8 cbbc
00000240: c376 ddbc f093 da3b 8f94 5e3c 5c76 4bbc
00000250: 2d36 a2bb d57c aebc f69e 2ebc a570 893c
00000260: 62bb 00bd c739 b33c db8a b1bb 03f7 823c
00000270: 3732 cd3c f409 a83c a7a5 933c c54b cbbc
00000280: ff23 9dbc 3f17 073c 4377 2d3c bfbf 54bc
00000290: e312 33bd 54a0 8ebb a17f 82bc f8ea d0bc
000002a0: 956a 8d3c 02e4 1c3a aeae 88bb 2a27 3cbb
000002b0: b38b ea3b 37b9 673c 0f06 1d3d d755 61bc
000002c0: db5d 0e3c 39be 8a3c bf44 6fbc 5872 b5bb
000002d0: 1fe2 08bc a39c 2bbc abb6 f33b 3319 773c
000002e0: f857 513c 6b51 07bd 2fb3 bbbc 3d0f f7bc
000002f0: caa9 b13a 6b81 543b 6d0b febb 8460 0b3c
00000300: e5e7 f9bb 678a 04bc 882b 0b3c 47de d03c
00000310: 33bf 713b fb8a 493b cd67 5bbb fc30 4bbb
00000320: dc83 89bc 0dcc 2abd 8ff3 3ebb 607c 313d
00000330: ba5b 6cbb fb1d f6bc 7c47 88bc 520f 523c
00000340: 27d8 623c 45ad f0bc 605c bdbc 8de0 dc3c
00000350: 2013 da3c 6f1e 2fbc 0165 033c 749a 363c
00000360: df31 363c e81d 51bb 92cd 64b9 c965 093d
00000370: 720e 613c 3f21 56ba 9344 ddbc 3baa 6a3c
00000380: c420 91bc f396 533c a227 65bb cc38 0e3a
00000390: 1cb4 00bb bf65 7dba 0a64 8e3c 24d3 183c
000003a0: 115c 28bc 8c35 4cbb 92c5 e13c bbe7 1bbc
000003b0: 4fd7 1ebd 5854 c6bc 185a e0bb 3519 d3bc
000003c0: dd7c 09bd ade2 e0bb 9f78 373c fa99 f1bc
000003d0: b0ca 3b3c 6127 02bc 17df 513c 60d2 3c3d
000003e0: 9710 a33c 2396 473c 770d e3bc 0741 b6bb
000003f0: afe3 82bb 2c15 20bc 808b 953c daa9 5cbc

network_body._body_endoder.seq_layers.0.bias f4 [128]
0.0 0.0 0.0 0.0 0.0 0.0 0.0 0.0
0.0 0.0 0.0 0.0 0.0 0.0 0.0 0.0
0.0 0.0 0.0 0.0 0.0 0.0 0.0 0.0
0.0 0.0 0.0 0.0 0.0 0.0 0.0 0.0
0.0 0.0 0.0 0.0 0.0 0.0 0.0 0.0
0.0 0.0 0.0 0.0 0.0 0.0 0.0 0.0
0.0 0.0 0.0 0.0 0.0 0.0 0.0 0.0
0.0 0.0 0.0 0.0 0.0 0.0 0.0 0.0
0.0 0.0 0.0 0.0 0.0 0.0 0.0 0.0
0.0 0.0 0.0 0.0 0.0 0.0 0.0 0.0
0.0 0.0 0.0 0.0 0.0 0.0 0.0 0.0
0.0 0.0 0.0 0.0 0.0 0.0 0.0 0.0
0.0 0.0 0.0 0.0 0.0 0.0 0.0 0.0
0.0 0.0 0.0 0.0 0.0 0.0 0.0 0.0
0.0 0.0 0.0 0.0 0.0 0.0 0.0 0.0
0.0 0.0 0.0 0.0 0.0 0.0 0.0 0.0
00000000: 0000 0000 0000 0000 0000 0000 0000 0000
00000010: 0000 0000 0000 0000 0000 0000 0000 0000
00000020: 0000 0000 0000 0000 0000 0000 0000 0000
00000030: 0000 0000 0000 0000 0000 0000 0000 0000
00000040: 0000 0000 0000 0000 0000 0000 0000 0000
00000050: 0000 0000 0000 0000 0000 0000 0000 0000
00000060: 0000 0000 0000 0000 0000 0000 0000 0000
00000070: 0000 0000 0000 0000 0000 0000 0000 0000
00000080: 0000 0000 0000 0000 0000 0000 0000 0000
00000090: 0000 0000 0000 0000 0000 0000 0000 0000
000000a0: 0000 0000 0000 0000 0000 0000 0000 0000
000000b0: 0000 0000 0000 0000 0000 0000 0000 0000
000000c0: 0000 0000 0000 0000 0000 0000 0000 0000
000000d0: 0000 0000 0000 0000 0000 0000 0000 0000
000000e0: 0000 0000 0000 0000 0000 0000 0000 0000
000000f0: 0000 0000 0000 0000 0000 0000 0000 0000
00000100: 0000 0000 0000 0000 0000 0000 0000 0000
00000110: 0000 0000 0000 0000 0000 0000 0000 0000
00000120: 0000 0000 0000 0000 0000 0000 0000 0000
00000130: 0000 0000 0000 0000 0000 0000 0000 0000
00000140: 0000 0000 0000 0000 0000 0000 0000 0000
00000150: 0000 0000 0000 0000 0000 0000 0000 0000
00000160: 0000 0000 0000 0000 0000 0000 0000 0000
00000170: 0000 0000 0000 0000 0000 0000 0000 0000
00000180: 0000 0000 0000 0000 0000 0000 0000 0000
00000190: 0000 0000 0000 0000 0000 0000 0000 0000
000001a0: 0000 0000 0000 0000 0000 0000 0000 0000
000001b0: 0000 0000 0000 0000 0000 0000 0000 0000
000001c0: 0000 0000 0000 0000 0000 0000 0000 0000
000001d0: 0000 0000 0000 0000 0000 0000 0000 0000
000001e0: 0000 0000 0000 0000 0000 0000 0000 0000
000001f0: 0000 0000 0000 0000 0000 0000 0000 0000

network_body._body_endoder.seq_layers.0.weight f4 [128, 126]
-0.08959305 -0.05305316 0.13309838 0.16771957 0.108457044 -0.0024974463 -0.11182681 -0.022872781
-0.021099227 0.045470513 -0.06688243 0.07311542 -0.14188005 -0.05171906 0.078462444 -0.10962628
-0.043598272 0.06498423 -0.094925284 -0.007394304 0.043793764 0.17545463 -0.06074334 0.14634433
0.031689227 0.02124011 -0.05268108 0.002147492 0.15042453 0.06820214 -0.00052036444 0.08092485
-0.0038136938 0.17788167 -0.03552998 0.034151923 -0.06763129 -0.13411084 0.00526521 0.08330051
0.081304535 0.20076409 0.021924991 0.09461524 0.10081389 0.014776004 -0.121442646 0.11463876
-0.122156195 -0.13708839 0.011844325 0.02807145 -0.09008262 0.061117545 -0.004831793 0.11640934
0.2305942 0.06237107 -0.1006875 0.0566261 0.06985451 0.013173023 -0.06972741 0.0016633046
0.13077265 0.071228035 0.053171538 0.005182929 -0.097506635 -0.09867348 -0.07888241 0.050651662
-0.027885435 -0.06481482 -0.030158522 -0.07764377 -0.0658343 -0.01712832 -0.08683496 -0.00033638524
-0.09123085 -0.06028344 -0.014301224 0.02058921 -0.10942351 -0.15497793 -0.13826013 -0.07434582
0.13662554 -0.057673965 0.12253924 0.13566007 0.022062572 -0.09271335 0.038720377 0.043997988
0.019047018 0.081161804 -0.044457927 -0.051953983 -0.03590943 -0.0005688502 0.05574736 0.008066877
-0.12696491 0.06746744 -0.0074217264 -0.038432643 0.040542573 0.024673313 0.09798062 0.041936968
-0.032751836 -0.11612607 0.18722108 -0.15628763 0.08445777 -0.041578606 -0.09326496 0.017987179
0.049700357 0.02823913 -0.12101567 0.0814996 -0.023049423 0.025112517 -0.12576652 -0.039114695
-0.07421566 -0.03855624 0.10832733 0.005621488 -0.024104208 0.017944848 0.023811214 0.05796111
0.043985743 0.036752697 -0.11005449 0.054328732 0.105512574 -0.048856143 0.010156885 -0.08472288
0.030595865 0.014059199 0.0049123485 -0.04452046 -0.025466591 -0.10098406 -0.11468286 -0.035315167
-0.039713006 -0.044384744 0.14724836 -0.03918325 -0.055944253 -0.014074075 0.09731482 -0.043769505
0.023699064 0.2104457 -0.042500596 -0.090348504 -0.09290969 0.021087188 -0.02418402 -0.08526628
0.031095192 0.07651188 -0.12479988 -0.10502443 -0.12012063 0.104943976 0.0452416 0.024030814
-0.086430185 0.032052115 -0.09064121 0.12190454 0.055464637 -0.12012164 0.037117504 -0.1121428
-0.18168171 -0.04851483 0.09565846 0.012673418 -0.010068113 -0.10261927 0.10003258 -0.08756423
0.08980783 -0.04951981 0.1324902 0.01032631 0.048561517 0.01265835 -0.04887472 -0.07522531
0.05696944 0.14721029 0.029963909 -0.06121242 0.06868576 -0.027222436 -0.097219504 0.15304087
-0.14431886 0.19660878 -0.051664624 0.002019388 -0.09310764 0.0439373 -0.039448265 -0.13871402
0.016650777 0.03962143 0.04983162 0.074613415 0.031838562 -0.077536695 -0.05841353 0.07698719
0.008518656 -0.09657331 -0.081256084 0.0601015 -0.064038046 -0.1376001 -0.20788573 0.06381421
-0.0060305973 0.085941605 -0.12294649 -0.059545524 0.049698282 0.02114281 -0.15582892 -0.10210758
-0.046734348 0.032275878 0.043411475 0.06764559 -0.007888163 0.076080956 -0.08033522 0.023990758
0.07342973 0.05012808 0.07249636 0.02393193 -0.029736143 -0.056834925 0.12130436 0.10344606
00000000: 907c b7bd 454e 59bd f14a 083e aebe 2b3e
00000010: ba1e de3d 32ac 23bb 7405 e5bd b35f bbbc
00000020: 49d8 acbc 4a3f 3a3d a8f9 88bd 8abd 953d
00000030: 0149 11be 5dd7 53bd ebb0 a03d be83 e0bd
00000040: 1a94 32bd 7416 853d 3068 c2bd eb4b f2bb
00000050: 1761 333d 61aa 333e 02ce 78bd 4adb 153e
00000060: 90cc 013d bdff ad3c 1ec8 57bd f0bc 0c3b
00000070: e308 1a3e 90ad 8b3d 1169 08ba eebb a53d
00000080: 2aef 79bb 9d26 363e e287 11bd e3e2 0b3d
00000090: 4682 8abd 5a54 09be c887 ac3b 7599 aa3d
000000a0: fe82 a63d 1a95 4d3e 0a9c b33c a3c5 c13d
000000b0: 8377 ce3d 0d17 723c ecb6 f8bd bac7 ea3d
000000c0: 072d fabd e660 0cbe b30e 423c 19f6 e53c
000000d0: 3d7d b8bd 6456 7a3d 0454 9ebb 0568 ee3d
000000e0: e320 6c3e cf78 7f3d 3f35 cebd c5f0 673d
000000f0: e20f 8f3d aad3 573c 3fcd 8ebd 3e03 da3a
00000100: 44e9 053e 01e0 913d 66ca 593d 8fd5 a93b
00000110: 8fb1 c7bd 5215 cabd 1a8d a1bd 1e78 4f3d
00000120: ff6f e4bc a2bd 84bd 010f f7bc b203 9fbd
00000130: 22d4 86bd b150 8cbc 87d6 b1bd dd5c b0b9
00000140: 3dd7 babd c5eb 76bd ae4f 6abc b4aa a83c
00000150: 6f19 e0bd 89b2 1ebe 1094 0dbe 9f42 98bd
00000160: 91e7 0b3e 893b 6cbd daf5 fa3d 79ea 0a3e
00000170: 91bc b43c 7fe0 bdbd 4299 1e3d 3c37 343d
00000180: 7e08 9c3c 2938 a63d 8419 36bd b3cd 54bd
00000190: c415 13bd e41e 15ba 5857 643d ef2a 043c
000001a0: 1703 02be 5f2c 8a3d f431 f3bb 8c6b 1dbd
000001b0: f80f 263d b01f ca3c 10aa c83d 19c6 2b3d
000001c0: ca26 06bd 81d3 edbd e2b6 3f3e dd09 20be
000001d0: 32f8 ac3d 544e 2abd b301 bfbd d959 933c
000001e0: 9a92 4b3d bf55 e73c 10d7 f7bd 43e9 a63d
000001f0: 25d2 bcbc c4b8 cd3c f0c8 00be bb36 20bd
00000200: 61fe 97bd 26ed 1dbd b8da dd3d 7634 b83b
00000210: 3076 c5bc 1301 933c bc0f c33c a168 6d3d
00000220: 652a 343d ff89 163d 4064 e1bd ce87 5e3d
00000230: fa16 d83d 611d 48bd 1069 263c 3083 adbd
00000240: 2ea4 fa3c 8e58 663c c4f7 a03b 165b 36bd
00000250: 509f d0bc bbd0 cebd d9de eabd a3a6 10bd
00000260: 1baa 22bd c7cc 35bd 46c8 163e 9e7e 20bd
00000270: cd25 65bd f396 66bc fe4c c73d a747 33bd
00000280: 8a24 c23c 147f 573e 1b15 2ebd a308 b9bd
00000290: 7047 bebd 0abf ac3c 911d c6bc 16a0 aebd
000002a0: 58bb fe3c 43b2 9c3d 1497 ffbd 0c17 d7bd
000002b0: ce01 f6bd deec d63d 424f 393d 45dc c43c
000002c0: 4f02 b1bd 1449 033d 19a2 b9bd 16a9 f93d
000002d0: e32e 633d 5602 f6bd 8608 183d 20ab e5bd
000002e0: c50a 3abe 7db7 46bd 95e8 c33d 2ba4 4f3c
000002f0: baf4 24bc 0d2a d2bd e2dd cc3d e054 b3bd
00000300: 2bed b73d 49d5 4abd 83ab 073e af2f 293c
00000310: 71e8 463d f864 4f3c dc30 48bd ba0f 9abd
00000320: ca58 693d 4bbe 163e df76 f53c e0b9 7abd
00000330: 1fab 8c3d 9601 dfbc 051b c7bd bfb6 1c3e
00000340: 53c8 13be d053 493e 499e 53bd b557 043b
00000350: 38af bebd 99f7 333d 8194 21bd 0c0b 0ebe
00000360: 3667 883c 154a 223d 3e1c 4c3d ebce 983d
00000370: 2769 023d 8fcb 9ebd 0743 6fbd 76ab 9d3d
00000380: d591 0b3c 3ac8 c5bd 9769 a6bd fe2c 763d
00000390: 6126 83bd 0ae7 0cbe ffdf 54be 06b1 823d
000003a0: 519c c5bb 2702 b03d 5fcb fbbd 02e6 73bd
000003b0: 6d90 4b3d b033 ad3c 9e91 1fbe c71d d1bd
000003c0: 846c 3fbd b633 043d 3bd0 313d c589 8a3d
000003d0: 5b3d 01bc 55d0 9b3d cb86 a4bd 4488 c43c
000003e0: 5462 963d 1a53 4d3d f978 943d e50c c43c
000003f0: 3699 f3bc bdcb 68bd 6c6e f83d 87db d33d

network_body._body_endoder.seq_layers.2.bias f4 [128]
0.0 0.0 0.0 0.0 0.0 0.0 0.0 0.0
0.0 0.0 0.0 0.0 0.0 0.0 0.0 0.0
0.0 0.0 0.0 0.0 0.0 0.0 0.0 0.0
0.0 0.0 0.0 0.0 0.0 0.0 0.0 0.0
0.0 0.0 0.0 0.0 0.0 0.0 0.0 0.0
0.0 0.0 0.0 0.0 0.0 0.0 0.0 0.0
0.0 0.0 0.0 0.0 0.0 0.0 0.0 0.0
0.0 0.0 0.0 0.0 0.0 0.0 0.0 0.0
0.0 0.0 0.0 0.0 0.0 0.0 0.0 0.0
0.0 0.0 0.0 0.0 0.0 0.0 0.0 0.0
0.0 0.0 0.0 0.0 0.0 0.0 0.0 0.0
0.0 0.0 0.0 0.0 0.0 0.0 0.0 0.0
0.0 0.0 0.0 0.0 0.0 0.0 0.0 0.0
0.0 0.0 0.0 0.0 0.0 0.0 0.0 0.0
0.0 0.0 0.0 0.0 0.0 0.0 0.0 0.0
0.0 0.0 0.0 0.0 0.0 0.0 0.0 0.0
00000000: 0000 0000 0000 0000 0000 0000 0000 0000
00000010: 0000 0000 0000 0000 0000 0000 0000 0000
00000020: 0000 0000 0000 0000 0000 0000 0000 0000
00000030: 0000 0000 0000 0000 0000 0000 0000 0000
00000040: 0000 0000 0000 0000 0000 0000 0000 0000
00000050: 0000 0000 0000 0000 0000 0000 0000 0000
00000060: 0000 0000 0000 0000 0000 0000 0000 0000
00000070: 0000 0000 0000 0000 0000 0000 0000 0000
00000080: 0000 0000 0000 0000 0000 0000 0000 0000
00000090: 0000 0000 0000 0000 0000 0000 0000 0000
000000a0: 0000 0000 0000 0000 0000 0000 0000 0000
000000b0: 0000 0000 0000 0000 0000 0000 0000 0000
000000c0: 0000 0000 0000 0000 0000 0000 0000 0000
000000d0: 0000 0000 0000 0000 0000 0000 0000 0000
000000e0: 0000 0000 0000 0000 0000 0000 0000 0000
000000f0: 0000 0000 0000 0000 0000 0000 0000 0000
00000100: 0000 0000 0000 0000 0000 0000 0000 0000
00000110: 0000 0000 0000 0000 0000 0000 0000 0000
00000120: 0000 0000 0000 0000 0000 0000 0000 0000
00000130: 0000 0000 0000 0000 0000 0000 0000 0000
00000140: 0000 0000 0000 0000 0000 0000 0000 0000
00000150: 0000 0000 0000 0000 0000 0000 0000 0000
00000160: 0000 0000 0000 0000 0000 0000 0000 0000
00000170: 0000 0000 0000 0000 0000 0000 0000 0000
00000180: 0000 0000 0000 0000 0000 0000 0000 0000
00000190: 0000 0000 0000 0000 0000 0000 0000 0000
000001a0: 0000 0000 0000 0000 0000 0000 0000 0000
000001b0: 0000 0000 0000 0000 0000 0000 0000 0000
000001c0: 0000 0000 0000 0000 0000 0000 0000 0000
000001d0: 0000 0000 0000 0000 0000 0000 0000 0000
000001e0: 0000 0000 0000 0000 0000 0000 0000 0000
000001f0: 0000 0000 0000 0000 0000 0000 0000 0000

network_body._body_endoder.seq_layers.2.weight f4 [128, 128]
-0.17086893 0.009856406 0.086306185 -0.106821604 0.08592578 -0.0025233142 0.17827477 0.080668986
0.05572833 -0.060326673 0.027669929 0.020726753 -0.04935825 -0.06414472 -0.043503195 0.25764596
-0.10253874 -0.04911837 -0.071942195 -0.090179704 -0.19622354 -0.061528686 -0.058414616 0.033029903
-0.020878393 0.0711856 0.024626113 0.13255772 -0.26597393 0.06728708 -0.09106593 0.17703322
-0.081773125 -0.0480968 -0.10482167 -0.085962854 0.040636774 0.031099793 -0.23950908 -0.019921787
0.051011838 0.12480715 -0.19008283 -0.0032005939 0.010473637 0.049153946 0.07909422 -0.012380555
0.06657165 -0.04225257 -0.14075692 -0.06627498 0.07485352 0.0651124 -0.0874029 0.029793855
0.009843023 0.06744016 0.049365964 0.011228656 -0.14367841 -0.11376833 -0.010076031 0.11945328
0.13070658 0.07330625 0.10814829 0.05196191 -0.006465773 0.028854232 0.07003008 -0.095579736
0.024785284 -0.09510634 0.00755574 -0.08498743 -0.07854321 -0.1120254 0.120013125 -0.0017992519
-0.018957265 0.016054358 -0.12894775 -0.11521847 -0.050773997 -0.19171815 -0.19941214 0.14162184
0.0156015055 0.052821174 -0.049681988 0.042375628 0.040387075 0.023448974 0.022059118 -0.07372031
0.0014543949 -0.12199171 -0.11570924 -0.016659345 -0.04750388 0.15088385 0.015067814 -0.14219302
-0.042228423 -0.09693532 0.10818471 0.13531537 0.14242232 0.047489118 0.09520466 0.0037429216
-0.06623692 0.17643581 -0.02895882 0.044126198 0.027969878 0.024274936 -0.05520436 -0.048873175
0.053459313 -0.04166101 -0.1692552 0.0119004315 0.030919144 0.031031085 0.042031646 0.06648564
-0.081319705 -0.08793203 -0.017087588 0.015617195 -0.13598819 0.0023218908 0.021063851 0.05682895
-0.09826488 -0.09434224 -0.09579038 0.040118165 0.062452756 -0.096255794 -0.0135258455 0.03712513
0.031108994 -0.041483987 -0.022816846 -0.02631176 0.11573732 0.008772466 -0.08052918 0.022262018
-0.020552736 -0.041034456 0.102991536 -0.0050228587 -0.078972116 0.05829988 0.04476565 0.06822109
0.024760116 0.06234223 0.07765042 -0.026855063 0.03997611 0.030647555 -0.13379538 -0.04338474
-0.014033134 -0.051000558 0.092228495 -0.0013058458 -0.01294365 0.16004759 -0.079969406 0.07031179
0.07304643 -0.025162688 0.12919353 0.0717511 -0.04666689 -0.21416548 0.03779116 0.0025383905
0.067002006 -0.11235372 -0.076037526 -0.042196732 0.16264708 -0.16929856 -0.0052174795 0.10864097
0.04040345 -0.0153544275 0.007160965 -0.14828172 0.04128279 0.008333367 0.169842 -0.07397879
-0.008283072 -0.025752788 0.0169283 0.007462259 0.09509 -0.08084378 -0.039239727 0.072394386
-0.09058443 -0.06600417 0.031676028 -0.02821146 -0.13064934 0.00757473 -0.07565723 -0.008641735
0.045484304 -0.10310858 -0.009781347 0.013031692 -0.015565524 0.042874377 0.13211817 -0.14074802
0.036849715 -0.07271708 0.06451909 0.08799217 -0.078603566 0.06251432 -0.01340017 0.13805509
-0.016689336 -0.06533997 -0.10438783 -0.10334974 0.304965 0.017911104 0.059995573 0.14607176
-0.19314674 -0.17174935 0.06673716 0.032480355 0.09465563 -0.11722839 0.0067778225 -0.096116215
-0.10508243 0.065940626 -0.026364334 -0.09820645 -0.002184744 -0.067674585 -0.036660984 -0.096191995
00000000: 44f8 2ebe c37c 213c 4cc1 b03d 49c5 dabd
00000010: dbf9 af3d 305e 25bb a98d 363e c835 a53d
00000020: 6443 643d 1a19 77bd 0cac e23c 27cb a93c
00000030: e02b 4abd 4f5e 83bd 6830 32bd 2cea 833e
00000040: d5ff d1bd 5830 49bd 6e56 93bd 23b0 b8bd
00000050: d3ee 48be 8105 7cbd 2a44 6fbd 5d4a 073d
00000060: 2a09 abbc c1c9 913d b4bc c93c 36bd 073e
00000070: bc2d 88be cfcd 893d c680 babd 3248 353e
00000080: ab78 a7bd 2601 45bd beac d6bd 4b0d b0bd
00000090: bf72 263d fec4 fe3c de41 75be 0433 a3bc
000000a0: caf1 503d e49a ff3d 13a5 42be 0ec1 51bb
000000b0: 9e99 2b3c a655 493d 27fc a13d d0d7 4abc
000000c0: b856 883d 0811 2dbd 9522 10be 2dbb 87bd
000000d0: cd4c 993d a659 853d 4b00 b3bd 3e12 f43c
000000e0: a144 213c 111e 8a3d f733 4a3d 66f8 373c
000000f0: 6f20 13be 5fff e8bd f015 25bc eca3 f43d
00000100: f2d7 053e 9621 963d da7c dd3d 03d6 543d
00000110: d6de d3bb b65f ec3c ee6b 8f3d 4fbf c3bd
00000120: 820a cb3c 1dc7 c2bd 2496 f73b e40d aebd
00000130: 43db a0bd 936d e5bd 71c9 f53d e0d4 ebba
00000140: 444c 9bbc 6e84 833c e10a 04be a9f7 ebbd
00000150: 65f8 4fbd c351 44be b232 4cbe 5105 113e
00000160: 759d 7f3c 045b 583d 577f 4bbd 1192 2d3d
00000170: eb6c 253d 1018 c03c 53b5 b43c adfa 96bd
00000180: 65a1 be3a cad6 f9bd f7f8 ecbd 2e79 88bc
00000190: 6e93 42bd 4c81 1a3e fede 763c 0c9b 11be
000001a0: b6f7 2cbd 0686 c6bd f28f dd3d 1d90 0a3e
000001b0: 28d7 113e f383 423d a9fa c23d ce4b 753b
000001c0: 39a7 87bd 97ab 343e 0c3b edbc acbd 343d
000001d0: 1621 e53c 3bdc c63c f81d 62bd 3d2f 48bd
000001e0: 27f8 5a3d bca4 2abd 3c51 2dbe 07fa 423c
000001f0: 254a fd3c e734 fe3c 6029 2c3d a029 883d
00000200: f28a a6bd b515 b4bd 45fb 8bbc 43df 7f3c
00000210: 7d40 0bbe dd2a 183b 198e ac3c 79c5 683d
00000220: 193f c9bd 8136 c1bd bf2d c4bd f252 243d
00000230: 76ce 7f3d c221 c5bd 829b 5dbc 8510 183d
00000240: 4ad8 fe3c 1deb 29bd 65ea babc c38b d7bc
00000250: b007 ed3d 64ba 0f3c 7cec a4bd d65e b63c
00000260: 365e a8bc bf13 28bd 3aed d23d cb96 a4bb
00000270: 22bc a1bd dbcb 6e3d 305c 373d 80b7 8b3d
00000280: bad5 ca3c 915a 7f3d 2f07 9f3d 26ff dbbc
00000290: fdbd 233d 9510 fb3c a801 09be 32b4 31bd
000002a0: 3beb 65bc f6e5 50bd 4be2 bc3d ea28 abba
000002b0: 9a11 54bc 84e3 233e 00c7 a3bd a1ff 8f3d
000002c0: 5e99 953d fb21 cebc 4f4b 043e 3ef2 923d
000002d0: c825 3fbd 324e 5bbe e7ca 1a3d 205b 263b
000002e0: 5938 893d b519 e6bd 90b9 9bbd 7bd6 2cbd
000002f0: f58c 263e 9a5c 2dbe 64f7 aabb 287f de3d
00000300: 177e 253d 2391 7bbc 87a6 ea3b 2ad7 17be
00000310: 2518 293d ad88 083c 10eb 2d3e 3182 97bd
00000320: b9b5 07bc 83f7 d2bc 38ad 8a3c f785 f43b
00000330: 8cbe c23d 6c91 a5bd d6b9 20bd 8243 943d
00000340: 5484 b9bd 322d 87bd b9be 013d b81b e7bc
00000350: f1c8 05be 7135 f83b 2ef2 9abd 1096 0dbc
00000360: c04d 3a3d 972a d3bd f141 20bc e182 553c
00000370: 8a06 7fbc 0b9d 2f3d fc49 073e 4020 10be
00000380: baef 163d b1ec 94bd 9622 843d 3d35 b43d
00000390: e8fa a0bd 8207 803d 638c 5bbc 505e 0d3e
000003a0: 13b8 88bc f6d0 85bd 49c9 d5bd 07a9 d3bd
000003b0: 5f24 9c3e 4fba 923c ebbd 753d d693 153e
000003c0: 42c8 45be 10df 2fbe 7ead 883d 1f0a 053d
000003d0: d0da c13d 7015 f0bd 7f18 de3b 94d8 c4bd
000003e0: 7535 d7bd e10b 873d 04fa d7bc 7720 c9bd
000003f0: ec2d 0fbb f998 8abd d429 16bd 4f00 c5bd
